tuning_results/best_models_during_tuning_lightning_logs/eo_stand_GCN_best_model_logs/checkpoints/epoch=2576-train_loss=1.19-train_f1=0.43-val_loss=1.78-val_f1=0.35.ckpt (torch, 105170 bytes, 38 tensors)

conv1.bias f4 [64]
00000000: 0ae3 963b e31c 253d 15fb 003d d8fa d03d
00000010: 53b9 4e3b 0722 643c 55bd 743d 9b53 c83c
00000020: 738c 15bc 1892 983d 1f41 b53c d7f4 c3bc
00000030: 2a1b 5a3d 6e66 c6bc cae8 ba3d 886c 6cbc
00000040: 30c9 3c3d d9be 18bc 2ea9 193e 9e43 1a3d
00000050: 7240 5d3d d892 4c3d 7fdc 213c c830 233d
00000060: 8bea aebc a54f 5bbd cbbe 71bc a5bc 1d3d
00000070: 8265 77bd 5dee 9e3d a4f2 b6bc 8db7 823d
00000080: bf6f b3bd a9d6 cd3d 4fcd 8bbb fd1b 0a3d
00000090: d1f9 8abd b84a 9b3d 0c73 2bbd 0d1e d7bc
000000a0: 70c2 bdbc 7abf 2dbd 0567 91bd db5f a13d
000000b0: 9134 a03c e6d6 3a3d 2a6f 543d bb63 40bc
000000c0: fda3 a1bc 6847 7ebd bc47 c53c a0b0 5ebd
000000d0: aa33 b13c 7617 03be 62a0 b53c 4602 bb3d
000000e0: c170 f8bc f622 be3d 4c0f e7bd 1634 803d
000000f0: 513c 00bd f1ac b33d db5d 073e db96 4ebd
0.004604702 0.04031075 0.03148945 0.10204095 0.0031543567 0.013924128 0.059750874 0.024453929
-0.009127724 0.0744974 0.022125779 -0.02392046 0.053248562 -0.024218764 0.09126432 -0.014430173
0.046090305 -0.009322845 0.15005943 0.03766214 0.054016538 0.04994473 0.0098792305 0.039841443
-0.021352073 -0.05354275 -0.014754961 0.038509984 -0.06039954 0.07760308 -0.022332497 0.06382666
-0.08761548 0.10050709 -0.004266418 0.033718098 -0.0678593 0.07582611 -0.041857764 -0.026259447
-0.023164004 -0.042418934 -0.070997275 0.07879611 0.019556316 0.0456151 0.051863827 -0.011742528
-0.019731516 -0.062079817 0.024082057 -0.05436766 0.02163108 -0.12801918 0.022171203 0.09131293
-0.030327203 0.09284012 -0.112822145 0.062599346 -0.031307522 0.0877322 0.13219397 -0.050436836

conv1.lin.weight f4 [64, 25]
00000000: 9371 bfbd e5ba 6c3d a451 6d3e 41d7 a6bd
00000010: b923 443e 3d54 89bd 1ab0 08be 2d42 1cbe
00000020: a480 fdbb 21fa 31be 923f f9bd 8d21 d53d
00000030: c755 c9bd 138f 033e bfea 30be cb55 1b3e
00000040: aec0 bcba fdc6 003d 15e3 013e 8177 673e
00000050: 4b2c f8bd db94 963e daa8 4a3e a234 fbbd
00000060: 2800 1ebe 6b70 653e ffe2 803e 753d 6b3c
00000070: 299c 073e 7f14 aebc 4d81 e13d 9b48 5a3e
00000080: 4a13 63bd 5e54 4fbe fda2 4fbc 3c81 76be
00000090: 8754 263e 59c9 28be 1eb8 7dbe e445 0f3e
000000a0: 5d53 a2bd ac2f ff3d 1eac adbd 9fca 71be
000000b0: a226 203e 13bb 093e 4bf2 fe3d a2ab 773e
000000c0: 2fd0 65bd 8040 773e 3a47 6fbe aba5 993d
000000d0: 86d9 133e b811 2e3e f5b7 853d d7e5 94be
000000e0: 3a20 02be 3c59 013d 4a71 e43d ef0c 03be
000000f0: 9aca 5abe 6e5a c63d a13b 553d f59e b23d
00000100: 36f5 4cbe 2096 533e 1121 2c3e fe21 453d
00000110: 3fb0 a3bd 2d4a 533d 0d30 13be 1896 d03d
00000120: ae2c 66be 9586 7b3c cbab 743d 272a 94be
00000130: 5911 ccbd e956 b5bc 9fdc 15be 243a f6bd
00000140: 22e1 ffbd 1240 09be 50aa 803e edd7 4e3e
00000150: 8199 11be 4f0d 73be eafd 2e3e 1317 043e
00000160: 46c1 14bd 84da 2f3e 1837 a03d d6c0 033e
00000170: f55a 60b6 dc9d f2bd 9bf1 803e 40cd 9d3d
00000180: a182 fcbd f86a c73d f10d cc3d 6df3 043c
00000190: 7a5b ed3d 4e1a 33be a583 293e b874 573e
000001a0: 4b7e 603e eb8e ad3e 66b8 45bd c011 be3c
000001b0: 605c 533e 114e 693d 7d71 3f3c 2364 86be
000001c0: f37f 133e 78ad e33d 6064 bbbc fc81 2cbe
000001d0: a8e8 23be 6de1 46be 3956 0abe 6b4d 2c3e
000001e0: 53f0 9bbe 1e39 33be 286f 0b3d acc5 e83d
000001f0: 26ad c73d f870 6ebd 2270 98bd adfe 4f3d
00000200: 8062 0abe edaa 853e 9b7c 523e 3d62 53be
00000210: 0317 083e 99dc 123e d12f cabd b976 543d
00000220: 4a39 fe3d b13b 5a3e fd01 513e 2ea0 c9bd
00000230: 8d74 65be cb75 3e3d 4474 73be f17a 59be
00000240: a28f d9b8 312b 8b3c 65d9 aebd 2b2a 2f3e
00000250: 70e9 3cbe 79a1 c73d 387f 873e 6eda 39be
00000260: bf5d 843e 0f8e 513c bff5 03be 75e7 533e
00000270: 949f 813e 6c06 933e db18 b2bd c579 5abe
00000280: 0259 c13d 807a 2abe 721c e4bc aa8f 633d
00000290: 2ead 70be d358 a43d 7844 183e b095 14bd
000002a0: 4660 673d ceb7 ebbd 6745 4c3d d5f4 7bbd
000002b0: 57c8 223e fb5d 213c c9a9 a73c b7a9 88bd
000002c0: 5329 b9bd 1e6f 3fbe e2ed 0d3e b952 aabd
000002d0: 7579 b33d d6e2 0fbe f815 21be 1f0b 4ebe
000002e0: 54ea 293e f6a9 5e3e ec34 803e 252a 10be
000002f0: 18e8 be3d 20d5 a13d e025 a5be 5392 8e3e
00000300: 581e a83c dc3e 233e 4bec 383e 61a4 4a3c
00000310: f4ed b63c 1599 a53d a591 803e e86e 51be
00000320: 6be3 28be 825c f8bc d049 e5bc 0404 7d3d
00000330: 874a fc3c 392a a8bd c838 a83d 9585 903e
00000340: 6bff 1cbe ad81 b63c 0049 f13d ea11 7e3e
00000350: 77f4 25bd db80 e33d 51a4 0e3e 4a7f 083c
00000360: de94 7abe 47c5 4dbd 3c93 01be 1296 273e
00000370: 593d 883d d653 823e 92e3 313e 5a18 f33c
00000380: 4443 993d c33b 3dbe 390f 673e 477c 4b3c
00000390: 7959 eb3c e74d 0d3e 9288 80be f0cf 82be
000003a0: 36ae f2bd ff15 f33d 7f88 c6bd 4e73 a73d
000003b0: 7d77 08be 07ac 3b3e 207f 433e 9313 923d
000003c0: 3fb3 4a3e 3236 283d 3cb5 02be 413a d13c
000003d0: 9f84 2fbe 81a7 13be 8d16 803e 06d9 003e
000003e0: 2176 3abe 03dd a93d ef86 3dbe 5640 413e
000003f0: c3d2 5a3e ca41 8ebd e167 373d a644 153e
-0.093478344 0.057795424 0.23175675 -0.08146525 0.19154252 -0.0670552 -0.13348427 -0.15259619
-0.0077362824 -0.17380573 -0.12170328 0.1040679 -0.09830814 0.12847547 -0.17277049 0.15169446
-0.0014400685 0.03143977 0.12684281 0.22604181 -0.12117823 0.29410443 0.19790974 -0.12265898
-0.15429747 0.22406165 0.25173184 0.014357914 0.13243164 -0.021250008 0.1101099 0.2131676
-0.055438317 -0.20247027 -0.012673137 -0.24072737 0.16243182 -0.16483058 -0.24777266 0.13991505
-0.079260565 0.124602646 -0.084800944 -0.2361245 0.15639737 0.1345027 0.124485575 0.24186566
-0.056106742 0.24145699 -0.23367015 0.07502302 0.14438447 0.16998947 0.06529228 -0.29081604
-0.12707606 0.03157924 0.11154421 -0.12797903 -0.21366349 0.09685217 0.05205882 0.08721725
-0.20015416 0.20662737 0.16809489 0.04812812 -0.07992601 0.05158441 -0.14373799 0.10184878
-0.22477981 0.015351911 0.059734147 -0.2893841 -0.09964246 -0.022136169 -0.14634942 -0.12022808
-0.124941126 -0.13403347 0.25129938 0.20199557 -0.14218713 -0.23735546 0.17089048 0.12899427
-0.036317132 0.17173201 0.07823008 0.1286653 -3.3431545e-06 -0.118465155 0.2518433 0.07705164
-0.12329603 0.097371995 0.099635966 0.008114678 0.115897134 -0.17490503 0.16554125 0.21040618
0.21923177 0.338981 -0.04827156 0.023201823 0.20640707 0.056959216 0.011684773 -0.26248273
0.14404278 0.11117071 -0.022875011 -0.1684646 -0.1600672 -0.1942193 -0.13509454 0.16826408
-0.3045679 -0.17502257 0.034041554 0.11365828 0.09749822 -0.058213204 -0.07443263 0.050779987
-0.13514137 0.2610697 0.20555346 -0.20642944 0.13290028 0.14341964 -0.098724015 0.051871035
0.12413271 0.21311833 0.20410915 -0.09845005 -0.22407742 0.046499055 -0.2377482 -0.21238305
-0.0001037412 0.016988369 -0.085375585 0.1710593 -0.18448424 0.09747595 0.26464248 -0.1814973
0.25852773 0.012790217 -0.12886713 0.20693763 0.2531706 0.28715837 -0.08696147 -0.21335514
0.09440805 -0.16648293 -0.027845595 0.05555693 -0.23503563 0.080247544 0.14869869 -0.036275566
0.056488298 -0.11509667 0.049870875 -0.061512787 0.15896736 0.009849067 0.020466702 -0.066729955
-0.09041085 -0.18694732 0.13860276 -0.08316559 0.087634005 -0.14051375 -0.15731037 -0.2012143
0.16593295 0.21744522 0.25040376 -0.14078577 0.09321612 0.079019785 -0.3225546 0.27846012
0.020522282 0.15941948 0.18058889 0.012368293 0.022330262 0.08085839 0.25111118 -0.20452464
-0.16493003 -0.030317549 -0.027989298 0.061771408 0.030797256 -0.08211178 0.08213955 0.28226915
-0.15331809 0.022278631 0.11781502 0.24811521 -0.040516343 0.111085616 0.13929869 0.008331129
-0.24470851 -0.050236966 -0.12653822 0.16365841 0.06652326 0.25454587 0.17371967 0.029674698
0.07483533 -0.18479829 0.225644 0.012419767 0.028729187 0.13799249 -0.25104195 -0.2554927
-0.11849634 0.1186943 -0.09694003 0.081762895 -0.13326831 0.18327342 0.19091463 0.0713264
0.1979494 0.04106731 -0.12764448 0.025540473 -0.17140435 -0.14419366 0.25017205 0.12582788
-0.18209125 0.08294108 -0.18508504 0.18872198 0.21369462 -0.06946142 0.0447768 0.14576969

bn1.weight f4 [64]
00000000: e6a2 783f 9b1f 803f 1b3f 733f e474 7b3f
00000010: e14c 6e3f 38b0 743f e054 7d3f a993 843f
00000020: 707f 813f 0bf7 7e3f daa7 763f b377 7f3f
00000030: b651 743f 9ef1 793f e2a2 6a3f eee0 7c3f
00000040: 544a 833f 55ad 7f3f 9a49 733f 2605 863f
00000050: 3f01 773f 2692 873f 47af 813f 1f82 813f
00000060: 5d43 623f 9e03 663f cb01 833f ddb5 813f
00000070: a0bc 7f3f 7259 833f d94a 7a3f 4553 813f
00000080: 870f 803f 4d83 7c3f 38f8 703f 256a 823f
00000090: cdd4 7b3f 6869 733f c879 833f 028e 803f
000000a0: 8fea 7d3f 174d 8a3f d326 883f 2123 6e3f
000000b0: 76cf 743f 369d 783f fee6 823f 4589 823f
000000c0: 6af1 823f 3031 813f 3551 813f 5435 803f
000000d0: 6d57 7a3f 3377 7b3f 6325 813f 944f 7d3f
000000e0: 5bad 813f d648 863f 36cb 7f3f 1f17 7d3f
000000f0: 0c75 7a3f c6a2 873f a934 843f 7211 8d3f
0.97123563 1.0009645 0.95018166 0.98225236 0.9308606 0.9558139 0.98957634 1.0357562
1.0117016 0.9959571 0.9634987 0.9979202 0.9543718 0.97634304 0.9165479 0.98780715
1.0257058 0.9987386 0.9503418 1.0470321 0.96486276 1.0591476 1.0131615 1.0117835
0.8838404 0.8984927 1.0234922 1.0133625 0.99897194 1.0261672 0.9777046 1.0103537
1.0004739 0.9863785 0.9412875 1.0188643 0.98371583 0.9508271 1.027154 1.0043337
0.99186033 1.0804776 1.0636848 0.9302235 0.9562906 0.97114885 1.0226743 1.0198141
1.0229924 1.0093136 1.0102907 1.0016274 0.9778965 0.9822876 1.0089535 0.9894955
1.0131029 1.0490978 0.9991945 0.98863405 0.9783485 1.059655 1.0328571 1.1020949

bn1.bias f4 [64]
00000000: fa89 413c d6a0 ecbd c803 40bc 539f 953d
00000010: 7989 8cbb 7837 10be 18da 3dbd c519 9a3c
00000020: 647b 333d 60bc 13bc 0a38 a8bd ab1b 0bbd
00000030: de11 5f3c fbe0 3ebd ea17 39bd a99e 89bd
00000040: 3d9b cd3c 4578 8a3d 2a6b 333d e62c 74bd
00000050: 6014 4e3d 37b4 9dbd c778 293d 4dcf d6bb
00000060: 0530 3c3c 23b8 46bd f278 a0bd 6d3d e6bb
00000070: d253 6b3d 93f3 6d3b 2854 70bd 86cd 7dbd
00000080: 732c 30bd 62e3 05be 534a 993c 108e b63b
00000090: 77d8 d7bd f61e 433d 2045 0f3d d378 41bd
000000a0: 71e6 9dbd b050 abbc 1633 9fbd 6359 be3c
000000b0: e987 d03c 4525 1d3e bc97 893d cf6c 593d
000000c0: 4082 5abd c4cb da3d 7739 fe3c 894b 1fbe
000000d0: 1142 b6bc 8927 7bbd 1ed7 6a3c 73dc a93d
000000e0: d67d 5e3d 1efe cdbc ea1a 893d 89d1 aabd
000000f0: 359f 823d 2f25 fb3c daab 63bd 68a6 cb3c
0.011812681 -0.115541145 -0.0117196515 0.07305779 -0.004288849 -0.1408366 -0.04635057 0.018811116
0.043818846 -0.00901708 -0.082138136 -0.033961933 0.0136151 -0.046601277 -0.04518882 -0.06719715
0.025098437 0.06761221 0.04380337 -0.05961313 0.0503124 -0.07700389 0.041374948 -0.006555474
0.011486058 -0.04851545 -0.078355685 -0.0070263655 0.057452984 0.0036308512 -0.058674008 -0.06196358
-0.04301114 -0.13075021 0.018712198 0.0055711344 -0.10539334 0.04763695 0.034978032 -0.047234368
-0.07709969 -0.020912498 -0.07773416 0.023235982 0.025455432 0.15346248 0.06718394 0.053082284
-0.053346872 0.106833965 0.03103326 -0.15556158 -0.0222483 -0.061317 0.0143335145 0.082940005
0.054319225 -0.025145587 0.066945866 -0.08340747 0.063780226 0.030657379 -0.055583812 0.024859622

bn1.running_mean f4 [64]
00000000: 6b2c 903e 9da8 c93e 8806 6e3e ca8f 973e
00000010: 6b58 f03e d441 613e 4545 af3e 1a37 ad3e
00000020: 82b1 4d3e 5185 ac3e e74c c53e 85af 873e
00000030: a7ff 903e 77cc 433e 6c2c a13e 5fff 713e
00000040: 9ad5 843e 3a8e 293e 08e9 ac3e eb9c 7c3e
00000050: 59fd a53e 5e4d 623e bb93 a33e debf 5c3e
00000060: f05b 893e 6b15 1e3e 5f19 813e 6525 993e
00000070: a2cd 763e a4c6 ad3e 009f 823e ba37 803e
00000080: 93f1 5e3e f8e0 aa3e 3d38 af3e 4387 bb3e
00000090: 779b 693e 67a2 9f3e cf96 263e 4b2f a03e
000000a0: 537d 5a3e d8cf 7e3e 11d5 3b3e 2c06 4e3e
000000b0: 0ef6 8f3e 6083 ca3e 6afb 403e 2b98 5d3e
000000c0: a508 283e c4a1 a43e f015 883e fa13 563e
000000d0: db6b e33e bdbc 583e 6589 4c3e 61a6 853e
000000e0: e9a8 173e 8663 823e dcd5 9e3e f964 823e
000000f0: 922c a13e 0970 3e3e f34d e83e 237f 9f3e
0.28158888 0.39386454 0.23244679 0.2960189 0.46942458 0.21997768 0.34232536 0.33831102
0.20087245 0.33695462 0.38535234 0.26501098 0.28320047 0.19120966 0.31479204 0.23632573
0.25944215 0.16558161 0.3377154 0.24669234 0.3241985 0.22099826 0.31948647 0.21557567
0.26827955 0.15437858 0.2521467 0.29911342 0.2410188 0.33940613 0.25511932 0.25042516
0.21771841 0.33374763 0.34222594 0.36626634 0.22813211 0.3117859 0.16268466 0.31286082
0.2133687 0.24883974 0.18342997 0.20119542 0.28117412 0.39553356 0.18845907 0.21640079
0.16409548 0.32154667 0.26579237 0.20906058 0.44418225 0.21165748 0.19974287 0.261035
0.14810528 0.25466555 0.31022537 0.2546766 0.31479317 0.18597426 0.4537197 0.31151685

bn1.running_var f4 [64]
00000000: abcf 6e3e 4529 8d3e 6617 f53d 00b9 113e
00000010: f22d 1d3f 5a18 0e3e b48a 2d3e d956 943e
00000020: 51d7 dd3d dac4 8b3e f1b7 903e ee1d 1a3e
00000030: 2bd7 6a3e 6e3c 053e a1ed 523e 1696 bc3d
00000040: f63d 583e c66f 533d e0ea 883e 7c58 273e
00000050: 3ce5 723e 6423 853d 56b3 b13e 7c93 a33d
00000060: 5085 053e 1d73 ad3d 114c 0a3e f797 513e
00000070: b857 403e 0ab0 0a3e b0d4 c83d 8341 c23d
00000080: 669b 253e 95a8 ba3d dbc6 513e 846e a43e
00000090: d15d 213e bc3a 463e 9465 d43d f1c4 2f3e
000000a0: 3f3c 143e 7374 b73d 48b3 543d dc82 733d
000000b0: 45d1 4c3e 9f1a 8c3e 55e4 4a3d 46b6 9e3d
000000c0: 3cad b43d e92d 983e 009c 223e 5c00 003e
000000d0: 3b3a be3e 9252 b63d 7ca1 e43d 3bd1 df3d
000000e0: 9ff0 c43d 9820 8f3d 387c 343e a783 033e
000000f0: eaa2 ab3e e251 b73d 03d0 8d3e c646 083e
0.23321407 0.2757055 0.119673535 0.14230728 0.6139823 0.13876477 0.16947442 0.2897251
0.10832084 0.27298623 0.28265336 0.1505048 0.22933643 0.13011333 0.2059846 0.09208314
0.21117386 0.051620267 0.26741695 0.16342348 0.23720258 0.06500891 0.34707135 0.07987115
0.13039136 0.08469222 0.1350558 0.20468126 0.18783462 0.13543716 0.09806192 0.094851516
0.16172561 0.09114186 0.20486014 0.32115567 0.15758444 0.19358343 0.10370937 0.17164971
0.14476107 0.08957758 0.05192879 0.05945097 0.20001705 0.2736406 0.04953416 0.0774961
0.08822104 0.29722527 0.15879822 0.12500137 0.371538 0.08902468 0.11163613 0.109285794
0.09616207 0.06988639 0.1762551 0.1284319 0.3352273 0.08951165 0.27697763 0.13308248

conv2.bias f4 [64]
00000000: 6c24 703d 8193 1aba aaa8 f43d 2685 5c3d
00000010: 67b5 bb3c 0eef 883c d43f 73bd afb8 0b3b
00000020: 6a5e 7e3a cce7 013e 0448 0c3e 79a5 4b3e
00000030: 02c0 9dbd 96c8 9b3d 6215 c73c 06a6 c4bd
00000040: aebf b6bb 1da4 23be d01b c03d 0a65 ce3d
00000050: 0ccf ba3d 90d4 413d 1ac8 80bd 562d 82bd
00000060: f1c0 f9bd a379 5b3e f483 ccbc e6c3 c83d
00000070: 8e26 f53d 2d2e f9bb 06c8 c93c b489 f239
00000080: 1a53 4fbe 881c a33b babc 90bd 6bdc ae3d
00000090: 7529 723e 1c7c b23c b0db 203d 22e2 c0bd
000000a0: 593c 46be 8a11 e0bd bca8 253a 2153 f83d
000000b0: 5606 a93d e1d0 a6bd 7c8d 253e 9b49 d83d
000000c0: 1b8f e8bc f41b 16be ced1 87bd 084d 19bd
000000d0: 7819 ccbc 4f4a e1bc 9816 053e c628 6ebd
000000e0: 288a f93d 8251 88bc 5bd3 da3c 4876 843e
000000f0: 741f 1fbb ef57 a03d b892 1a3e 0357 42be
0.058628485 -0.00058966136 0.119462326 0.053837918 0.022913648 0.016715553 -0.059387043 0.0021319797
0.00097034 0.1268608 0.13699347 0.19887342 -0.07702638 0.07606618 0.024302188 -0.09601979
-0.005577049 -0.15980573 0.09380305 0.100778654 0.09121522 0.047321856 -0.06288166 -0.063563034
-0.12195004 0.2143312 -0.024965264 0.0980299 0.11970244 -0.0076043815 0.024631511 0.00046260434
-0.20246544 0.0049777664 -0.07067247 0.08538135 0.23648627 0.021787696 0.03927201 -0.094181314
-0.19358958 -0.10940845 0.0006319394 0.121252306 0.082531616 -0.08145309 0.16167253 0.10560914
-0.02838855 -0.14659101 -0.06631814 -0.03742698 -0.024914488 -0.027501253 0.129969 -0.058144353
0.12184554 -0.016640428 0.02671211 0.2587149 -0.0024280222 0.07829272 0.15095031 -0.18978505

conv2.lin.weight f4 [64, 64]
00000000: bee0 5c3e 886b febc 920d 5cbe 60bc f13d
00000010: a798 6cbd 975e 36be b9d5 dfbd 167f b63d
00000020: 3fec 65be 3733 623e 1fb0 eabb 1ef3 443d
00000030: d756 643d 86cc 3f3d e9ac 283e 63d8 6ebd
00000040: f091 403e 5df4 15be 986c f53d d962 69be
00000050: 5e98 21be b197 b6bd be98 e7bd 23fb a0bd
00000060: b01f 533e 7f85 243d 8cf3 313e 329b fa3d
00000070: 4a42 a63d eb1e 19be 38d7 f83d 7989 e13d
00000080: ef27 37be c8c0 2d3e a36a 113e 8f70 22be
00000090: 2e36 3c3e 5090 47be 44fc b93d 8caa 033e
000000a0: 5130 0dbd 5f7a 71bd 2754 313e a6cd 3c3e
000000b0: ece0 72bd 845d 2fbd 73b1 a7bd 9fb9 12be
000000c0: d97b 0b3e 4015 12bc bb34 73bc 2558 6cbd
000000d0: 9822 f5bd 63ef 3ebe 548e 3a3e 065a e43d
000000e0: c937 28be eca0 203e f5b0 e73d 7e10 28be
000000f0: 6518 a8bd a831 f7bd 24ca 623e 093c 723e
00000100: 2575 fc3c 3adc 6d3d 2201 36be 0b1b ff3c
00000110: d632 3abd 5796 b33c 5ff3 bc3d ccdd 213e
00000120: 10a2 4a3e c50b 473e 01cd 443e 9904 ed3d
00000130: 03d9 1b3e 6135 283e 834f 2d3e 1f69 65bd
00000140: 0a29 cdbd 51d0 f63d 489a 4fbe 1301 c33d
00000150: 721b ccbd 3e54 273e acef fabd 5c1f 353d
00000160: 2cb6 f03d 347b d63b cf38 b13c c7ec fdbd
00000170: d8b8 4a3e b1c2 54be e9ec fb3d 0ce8 95bd
00000180: 73bc 3fbe c612 0d3d 0bef 68bd 7f47 7ebd
00000190: 95ce b5bb 7d99 c5bc 9d79 f63d 2cba 803d
000001a0: 143d f13c 5388 8fbe 8bd7 4fbc 87c3 3f3d
000001b0: 8e06 173e 4bac 083e 3429 27be d078 063d
000001c0: 87b9 d23c 730f 1fbe e5ce 003e c09c cb3d
000001d0: aa78 5f3e f974 0f3e dc2d 2a3e 815d 59be
000001e0: d68c 073d 4e30 33be be17 07be b739 133d
000001f0: 5962 693e fc97 57bb 8160 b0bd 3f9d 72bd
00000200: 750b aa3d 3a49 79be 95c0 823e fce2 e7bc
00000210: 32f8 debd 000d 193e 8d0f 1c3e 3034 29be
00000220: fe3b ebbd 529e b63d a42f e53c 538b b1bc
00000230: dedd 89be 190f 953d 3ecd e5bd baea 70bc
00000240: e003 3ebe e883 b1bb 0c5d a1bd 97c7 a03b
00000250: 1030 aabc 08ea 5abd b8b9 21bc 3937 96bd
00000260: 14a9 a6bd edd3 82bc 86df ea3d c4ef 643e
00000270: 8cb4 3cbd c52a 1d3e 43f0 e23d 4d1f 38be
00000280: fece 1abe c2ab a0bd 3461 9fbc 0505 183e
00000290: 8de7 533e 9e8c a13d dd2b 133e b5de 79bd
000002a0: 8d1e 8d3d 3477 f9bd 8d17 10be e66b a7bd
000002b0: 08fc ce3d a1ac 1a3d 8769 c9bb 6b0a 313e
000002c0: ac23 4a3e b1ae a4bd a21f 9d3d 8beb f2bc
000002d0: d3cb 9a3c f70d abbc 3b8f 103e a79c 63be
000002e0: 78e5 88bd a1e3 f9bc 084b 31bd 0c7e f1bc
000002f0: 820e febc a6c4 b7bc 1f7a a53d f033 73be
00000300: b650 133d bd9c c03d a14a 13be c3c9 e6bd
00000310: f766 5ebd 2a51 9b3d 1a57 3e3e 313f 69be
00000320: 39bb 99bd 2628 12be 4e71 40bd dcca a33d
00000330: 475f b13d 8302 b2bd 3bee 223e 92e0 e03d
00000340: 95c2 f43d 3aea 0f3e e27f 6bbd 242d 303e
00000350: 4eef 41be 614e 1cbe c161 cebc 588c 153e
00000360: 445f 7b3d 9168 8fbc 6dfd debd 24e5 20be
00000370: fdd3 823d 6921 23be b018 1e3e de06 24be
00000380: 7d07 e83b b30e 863e e508 f43d c45e 973d
00000390: b3d3 ff3c 78c8 353e 27aa e83d 264c 99bd
000003a0: b860 e4bd a624 043e 63b6 f43d 6ad0 aa3d
000003b0: 03bd 0f3e a5f2 53bd 6ea9 42bd 3f2d c03d
000003c0: b547 953d a803 8ebd 2074 403e 73e8 85bc
000003d0: f8f0 25be 51c6 0ebe 76d1 203e 83fc 463e
000003e0: 57ce 753d 298c a1bd 8e10 5bbe 5c01 f2bd
000003f0: b934 57be 45fd 0fbe 90ef 6fbc a374 583d
0.21570107 -0.031057134 -0.21489552 0.11803508 -0.057762768 -0.1780952 -0.10929436 0.089109585
-0.22453402 0.2208985 -0.0071621086 0.048083417 0.05574688 0.046825908 0.1647221 -0.05831183
0.1880567 -0.14643998 0.11983603 -0.22791614 -0.1578078 -0.089156516 -0.1130843 -0.078604005
0.20617557 0.040166374 0.17378062 0.122366324 0.081181124 -0.149532 0.12150425 0.11012549
-0.17886327 0.16968071 0.14200835 -0.1586325 0.18380043 -0.19488645 0.09081319 0.12858027
-0.034469906 -0.058954593 0.17317258 0.18437824 -0.059296533 -0.042813793 -0.08188143 -0.14328621
0.13621463 -0.008916199 -0.014844115 -0.05770125 -0.11969489 -0.18646006 0.18218356 0.11149983
-0.1642753 0.15686387 0.11313049 -0.16412541 -0.08207778 -0.12070018 0.22147423 0.23655714
0.030817578 0.058071353 -0.1777387 0.031140825 -0.045458637 0.021922274 0.09226107 0.15807265
0.19788384 0.19438083 0.19218828 0.115731426 0.15219502 0.16426612 0.16924863 -0.056008454
-0.10017593 0.12051452 -0.20273697 0.09521689 -0.09966172 0.1634073 -0.12252745 0.04421936
0.117534965 0.0065454487 0.021633534 -0.12398677 0.19797075 -0.20777394 0.123010464 -0.0731965
-0.18724231 0.034441732 -0.056868594 -0.062079903 -0.005548308 -0.02412104 0.12034915 0.062855095
0.02944807 -0.28033695 -0.012685667 0.04681733 0.14748594 0.13346975 -0.16324311 0.03283006
0.025723232 -0.15533237 0.12578924 0.09942007 0.21823373 0.14009465 0.16619056 -0.21227075
0.033093296 -0.17498896 -0.1319265 0.035943713 0.22791423 -0.0032896986 -0.08612157 -0.059231993
0.083029665 -0.2434434 0.25537553 -0.028306477 -0.10887183 0.14946365 0.15240307 -0.16523814
-0.11486052 0.08916916 0.027976818 -0.02167288 -0.26927084 0.0727827 -0.112207875 -0.014704401
-0.18556166 -0.005417336 -0.078790754 0.0049066055 -0.020774871 -0.053445846 -0.009870939 -0.07334752
-0.08137718 -0.015970195 0.11468415 0.22357088 -0.04607062 0.15348347 0.110809825 -0.1798069
-0.15118024 -0.0784526 -0.01945553 0.14845665 0.20693798 0.07888149 0.14372201 -0.061003406
0.06890593 -0.12180939 -0.14071484 -0.08174877 0.10106665 0.037762288 -0.006146613 0.1728913
0.1974017 -0.08041132 0.07672049 -0.029653331 0.01889602 -0.020880682 0.14117138 -0.22227727
-0.06684393 -0.03050405 -0.043284446 -0.02947905 -0.031012777 -0.022432636 0.080799334 -0.23750281
0.035965644 0.094048955 -0.14383937 -0.11268952 -0.054297414 0.0758384 0.18587914 -0.22778012
-0.07506413 -0.14273128 -0.046983056 0.07997677 0.08660751 -0.08691885 0.1591119 0.109803334
0.11951176 0.14054194 -0.057495005 0.1720472 -0.18938944 -0.15264274 -0.025193097 0.14604318
0.06137015 -0.017505916 -0.10888181 -0.1571241 0.0638809 -0.15930714 0.15439105 -0.16018245
0.007080971 0.2618309 0.11915759 0.07391122 0.031228876 0.17752254 0.11360579 -0.07485227
-0.1115126 0.12904605 0.1194885 0.08340533 0.14036946 -0.051745076 -0.047524862 0.0938363
0.07289068 -0.06934291 0.18794298 -0.016346192 -0.16205204 -0.13942839 0.15704903 0.19432263
0.060011234 -0.078880616 -0.21393034 -0.118166655 -0.21016206 -0.14061458 -0.0146445185 0.05284561

bn2.weight f4 [64]
00000000: e151 7c3f 08af 853f f969 833f f938 7a3f
00000010: aaa2 813f 6d24 6f3f b2d1 813f eb3a 823f
00000020: 51fe 7d3f 9525 823f 320e 6b3f 8007 773f
00000030: 354f 823f 89a8 7d3f c5b6 7f3f 9545 833f
00000040: d8eb 743f 7a48 7e3f 897a 873f 033c 813f
00000050: cfb9 7b3f 34d9 803f 84bd 783f 9db7 7a3f
00000060: 3709 6f3f 76e0 703f 8eef 6f3f b112 713f
00000070: 8ba7 803f c6b3 863f a9d0 7c3f be80 853f
00000080: 3d17 7e3f 8de0 7b3f e2df 783f b56c 813f
00000090: bec1 843f 2bf8 793f 18e6 783f 9c18 873f
000000a0: f291 763f b7f1 713f dc77 783f 9809 763f
000000b0: 45da 833f d182 823f e8d9 783f 477e 7e3f
000000c0: 28b8 793f 4075 763f eac9 723f 8bba 7c3f
000000d0: c9fb 6d3f 2a17 803f e125 773f f29c 753f
000000e0: 6ead 7f3f 6948 813f 5626 803f e06a 7f3f
000000f0: 195b 7a3f 84dc 863f 99ac 843f 42c6 723f
0.9856244 1.044404 1.0266715 0.97743183 1.0127766 0.93414956 1.0142119 1.017423
0.9921618 1.0167719 0.91818535 0.9649582 1.0180422 0.9908529 0.9988826 1.025561
0.9567237 0.9932934 1.058427 1.0096439 0.98330396 1.0066285 0.9716418 0.9793642
0.93373436 0.940925 0.93724906 0.94169146 1.005113 1.0523612 0.9875589 1.0429914
0.9925421 0.9838951 0.9721662 1.01113 1.0371625 0.976443 0.97226095 1.0554385
0.96316445 0.9450945 0.9705789 0.9610839 1.0300986 1.0196172 0.972075 0.99411434
0.97546625 0.9627266 0.94839346 0.9872214 0.9296232 1.0007069 0.96542174 0.95942605
0.9987401 1.0100223 1.0011699 0.99772453 0.97795254 1.0536046 1.0365173 0.9483377

bn2.bias f4 [64]
00000000: 129a b23d 637b dc3d e1f8 a23d ecc0 653d
00000010: 4dd8 393e 1fdc 533e 062e e5bd 6785 c9bc
00000020: e978 04bd bfbb cfbb 570e cd3d 1022 113e
00000030: b71f bd3c 43a1 fc3d 9114 d73c 68a9 6bbe
00000040: 0fd9 de3d c4f6 653e 880b 533d 44ff 143e
00000050: 653a e63d a171 a93d 511a 483e 40bb 563e
00000060: af15 623e 3a11 f73d a814 0b3e 63c8 513e
00000070: 1e0a 85bd be4d cb3d e96d 2f3e d02a 803d
00000080: 0471 5abd b673 b63d a7a5 d73d 1169 b33d
00000090: 667d 1dbd e1da 18bb 7a52 5b3d 7394 793e
000000a0: f4bd 8e3e 2efe 8fbd c585 50bd fced 383d
000000b0: 4435 61bd 0f3e 373d 1d4c d6bc 2037 253d
000000c0: 07ef 843d 0565 253e 08c1 503e 60cf 8e3e
000000d0: cea5 2a3d bf04 0f3d bc79 873c defc 3ebd
000000e0: ff5f ce3b 3281 04bd ec70 dd3d a752 fe3d
000000f0: 3fbc 02be b124 1d3e b772 92bc 35a3 923c
0.08720793 0.10765722 0.07957626 0.056092188 0.18148918 0.20689438 -0.11190419 -0.024599744
-0.03234187 -0.0063395198 0.10012501 0.1417315 0.023086412 0.12335446 0.026254924 -0.23013842
0.108812444 0.22457415 0.05152467 0.14550501 0.112416066 0.08273626 0.19541289 0.20969868
0.22078584 0.120638326 0.13582098 0.20486598 -0.0649607 0.099269375 0.17131771 0.06258166
-0.053330436 0.08908789 0.105296426 0.08760274 -0.038449667 -0.0023323821 0.053545453 0.24373035
0.27879298 -0.07030903 -0.050908823 0.045148835 -0.05498244 0.044736918 -0.02615934 0.040335774
0.06490903 0.16151817 0.20386136 0.2789259 0.04166203 0.034916636 0.01653754 -0.04662787
0.0062980647 -0.032349773 0.10812554 0.124181084 -0.12767123 0.15346028 -0.017876966 0.017900089

bn2.running_mean f4 [64]
00000000: b229 a63e 55a8 a93e cff5 a43e 527c 9e3e
00000010: f82a 9b3e 3b38 9f3e b623 c33e bee3 993e
00000020: d42a c33e 4254 e23e c2d9 9f3e 50a7 d43e
00000030: 0830 763e 6806 a83e 0cac a83e 03c0 8c3e
00000040: fbe2 cd3e 89a1 873e 5ab1 da3e 41be de3e
00000050: df00 d73e eab4 b23e e88e e03e f6c5 9c3e
00000060: 2014 8f3e e7e5 0e3f 4da9 a93e 99e1 ff3e
00000070: 7db6 233f 609c 8a3e bab8 7f3e 9e07 e63e
00000080: 3710 b93e 974b c73e af0a b13e e8db d03e
00000090: aa1c fe3e 0e42 d73e 6946 a53e 1537 d33e
000000a0: c911 b83e cedb 743e 04e4 c03e 15ef e73e
000000b0: 1313 c63e 620c f23e bd75 ba3e 501d bd3e
000000c0: 7b7f 293e 51a7 7b3e 9d0d 103f ac25 a63e
000000d0: cb62 093e cfc8 423e a816 dd3e 7468 dc3e
000000e0: aabf ec3e 6f49 bd3e 0d20 e83e d3b9 ad3e
000000f0: 116e 853e f00c b83e c74c 953e bbfe bb3e
0.32453686 0.3313624 0.32218787 0.30954224 0.3030622 0.31097588 0.38113183 0.30056566
0.38118613 0.4420491 0.31220824 0.415339 0.2404176 0.32817388 0.3294376 0.27490243
0.40212235 0.2649043 0.42713434 0.43504527 0.41992852 0.3490365 0.4385903 0.30619782
0.27945042 0.55819553 0.3313698 0.49976805 0.6395033 0.2707243 0.24972811 0.44927686
0.36145183 0.38924858 0.34578463 0.40792775 0.49631244 0.42042583 0.3228028 0.41252962
0.3595107 0.23911974 0.37673962 0.45299593 0.38686427 0.47275072 0.36417952 0.36936426
0.16552536 0.24575545 0.5627077 0.32450616 0.13416593 0.19021915 0.43181348 0.4304844
0.46239978 0.36970088 0.45336953 0.33930835 0.26060537 0.3594737 0.2916014 0.3671778

bn2.running_var f4 [64]
00000000: 2d82 183f 7e33 3f3f c766 ad3e 6198 ce3e
00000010: 05b5 af3e e693 073f c5cb 253f bbd9 c03e
00000020: 03d2 393f ea90 243f d43d cb3e 0509 dc3e
00000030: 7161 e43e 0379 d83e 250d 3b3f 2056 0f3f
00000040: e70f 113f e717 303f 0cfa 0c3f c3fc 833f
00000050: 02c6 623f 3736 f83e 8281 443f 29f1 6f3f
00000060: 2e96 d73e 7678 203f 030b 463f 93eb 713f
00000070: 3b6b b93f 70be f33e a224 bb3e 04dc b93f
00000080: 51e9 263f 16b9 073f 479e 083f b648 ed3e
00000090: 494f 2b3f f59c 773f fc32 f83e 0d53 673f
000000a0: 0b9b 543f c235 dc3e f85b 643f 709a 293f
000000b0: e2b1 403f 799a c53f eb57 c83e 67fe 003f
000000c0: 4aae 693e 28a5 a83e 3492 b13f 48a4 3e3f
000000d0: 7a94 ea3d c687 9c3e 20ff 1d3f bc55 413f
000000e0: 934f 423f b506 833f 650d 363f 0dc3 b53e
000000f0: 3b79 bb3e 867f 3b3f de2f 603e 37e3 653f
0.5957363 0.74687946 0.33867475 0.4035063 0.34317794 0.5296005 0.6476405 0.37666115
0.7258608 0.6428362 0.3969561 0.4297563 0.44605592 0.42279825 0.7306693 0.5599079
0.5666489 0.6878647 0.5506904 1.0311512 0.88583386 0.48478863 0.76760113 0.93727356
0.42106766 0.6268381 0.7736055 0.9450008 1.4485849 0.4760623 0.36551386 1.4520268
0.6519976 0.53016794 0.5336651 0.46344537 0.66917855 0.9672387 0.48476398 0.903611
0.83049077 0.43009764 0.89202833 0.6625128 0.7527143 1.5437766 0.39129576 0.5038819
0.22820392 0.32938504 1.3872743 0.74469423 0.11454101 0.30572337 0.61717415 0.75521445
0.7590267 1.0236422 0.7111419 0.35500374 0.3661593 0.7324146 0.2189326 0.8979983

fc1.weight f4 [64, 64]
00000000: 9fce fb3c 0c9c fb3d 5860 18bd ac99 353c
00000010: ba43 efbd e533 71bd f62b 80bc fe44 a73d
00000020: 3305 a7bd 32ee 103c 4f86 19bc 3a92 28be
00000030: 86fe 3abd 70df ebbd 7b8e cb3c 59e5 7b3d
00000040: 333f b03d 6f97 e6bd 1979 133d 71d6 07be
00000050: 470d bc3c 1eec bebc bcfc d2bd 2264 14bd
00000060: 742e 9b3a e674 14bc 7a5c 603d 882a a1bd
00000070: 6dfa fb3d 743a 38be 603a a73d c259 1b3d
00000080: 22c1 fb3d e356 1fbd c55d 95bd 1ef4 ba3d
00000090: 85ab bfbd 01f2 853d f586 c53c 0180 483d
000000a0: 3281 8c3c d6de 8fbd 45fc d43d f74c 72bd
000000b0: 096c 88bc 3d6f a13c 6bd3 f93d ce44 acbd
000000c0: 0996 f83d 145b 07be 1209 1cbd 65e8 24bc
000000d0: 8b89 a0bc 3994 f7bd 89d3 ea3b 96ad 95bc
000000e0: 5d64 443d fef4 b4bd 1222 923d 6d1b 0dbd
000000f0: cbce e73d 64e7 1cbe 6c92 b9bd 6f5e c53c
00000100: 5054 443d aacd 9f3d b084 253b 7dda 86bd
00000110: 9782 943d 341c 343c 87d9 1f3b 09ef 14bc
00000120: fc82 89bd b031 a1bc dbe2 bcbd dcea 01bc
00000130: 6387 af3d 0030 4abd c2d5 943d 333d 9dbc
00000140: 931c 8a3d 85dd 3f3d f835 1e3e 8513 e5bc
00000150: 9438 bebc 780b a83d 4ddf 6e3c 7f0d 973d
00000160: 5678 de3c 8770 9fbd 0526 d03d 1a1d 7b3a
00000170: 8008 85bc 9961 e23d 96e0 0bbe e7a8 dfbc
00000180: b8a6 b83d 8fbd 95bd 7b15 cd3a b0b4 3c3e
00000190: 64ca 2a3d 6f93 e3bd cffb ea3c aeb3 a93d
000001a0: e541 ff3c e631 26be 8d48 b13d fd52 a13d
000001b0: 8442 cebd 4778 5bbd 268b 32bd 94c9 7d3d
000001c0: 7b12 4ebe db77 fabd a0b9 0ebe b03f 86bd
000001d0: 2206 a9bc bef4 b83c 2561 4ebd 9032 8b3c
000001e0: 7502 88bd ea53 033d d5f2 84bd 31c2 0cbd
000001f0: 8ca4 5fbc cb36 c7bd 2246 a23d e2da a93b
00000200: 3526 403a 49bb 023e 10e1 2d3d f758 e8bc
00000210: 3b89 d43d 8dcd b5bc a88c 3abe bc7d 6d3d
00000220: 481f 703d 5e5a 1ebc 463a 033e c8f8 f63d
00000230: 4dcf e4bb 3052 063d 20db 91bd d567 853d
00000240: 3f02 e5bd 4957 79be 802f 20bd ecb9 1abe
00000250: 355c 303c ef6e c53c bd70 7d3d 481b 86bd
00000260: 85c7 dbbd d850 dc3c df5e bebd ce87 acbd
00000270: 9008 0a3c c98f febd ca57 d5bb 7c2a f73d
00000280: 9b13 cb3d 441b 0c3d f0c8 d73c 4d26 2a3d
00000290: ce24 dabc 5ce4 d0bb 3a0f ae3d 43de 03be
000002a0: 0a61 56bd fb8e f6bc fc8c ea3b 57cf b8bd
000002b0: cc5c 8cbd c8a6 833b 0728 5c3b af12 2a3d
000002c0: 5f49 94bd 686a 803d 9148 0cbe 5801 a43d
000002d0: 3042 6c3d da1e 35bd 35a5 5fbd 81a2 9c3d
000002e0: 31c9 b4bc 87b4 263d 4bcd 85bd ded0 d8bd
000002f0: 1051 363c 5ef7 cfbd 14d7 a93d 90f3 0d3d
00000300: b4f5 3d3d c6ae 643d 3b19 173d 0b67 a43d
00000310: 93ee 22bd 89a4 843d 5c41 22be af0b 0c3e
00000320: 1299 163c 4b3f c4bc 0b4c 2cbc 8341 babd
00000330: 699b bcbd 1423 473c 6c51 0abe 0ead b0bd
00000340: ad87 493d a32d 1c3c 8bff 93bd 00f4 d7bd
00000350: b087 f7bd f7de ae3d 20d4 003e fcf8 acbd
00000360: da03 603b f9b3 163d c2fa e63d 1636 0bbd
00000370: 9b66 dd3c 98f4 bf3d 10b6 983d 979b 1ebe
00000380: b31d 5a3d 3038 8e3d 7804 bcba c2af edbc
00000390: 83b9 e23c 8df0 b03d 9bcb 3dbe f797 25bd
000003a0: ebf5 1fbe 2421 9a3d 2436 ba3d 1b20 4c3c
000003b0: dfc4 1a3e d00a bf3d ab9d e1bd d11e 6c3c
000003c0: 2271 6e3c d695 02bd 648d 9ebd 0afe 5bbd
000003d0: eb72 cbbc 208b 9e3b 19d6 7b3d 4ff7 c4bc
000003e0: e8ef 4fba 1069 3cbd d5cd 8cbc fa08 c9bd
000003f0: ccd4 673d c591 083e 2495 83bc 16d4 1fbe
0.030738173 0.12285623 -0.037201256 0.0110840015 -0.1168284 -0.05888738 -0.015645962 0.08167456
-0.081552885 0.008845853 -0.009370401 -0.16462031 -0.04565289 -0.11517227 0.024848213 0.06149802
0.08605804 -0.112593524 0.03600416 -0.13265397 0.02295555 -0.023305949 -0.103021115 -0.036228307
0.0011839406 -0.009061074 0.054775693 -0.0786944 0.12303624 -0.17991048 0.08165431 0.037927397
0.122926965 -0.03890122 -0.07293276 0.09128593 -0.09358887 0.06540299 0.024112204 0.0489502
0.017151449 -0.070249245 0.10399679 -0.05915543 -0.016653078 0.019706363 0.12198528 -0.08411561
0.12137992 -0.13218337 -0.038094588 -0.010065173 -0.019596836 -0.12088818 0.0071663302 -0.018271249
0.047947276 -0.08835791 0.07135405 -0.034449983 0.113187395 -0.15322644 -0.09061131 0.024092881
0.04793197 0.07802899 0.002525609 -0.06584642 0.072514705 0.010993052 0.002439113 -0.009090194
-0.067144364 -0.019677013 -0.09222957 -0.00792953 0.08570745 -0.049362183 0.072673336 -0.019194221
0.06743731 0.046842117 0.15450275 -0.02796341 -0.023220338 0.082053125 0.014579606 0.07375621
0.02715699 -0.07785135 0.10163502 0.00095792266 -0.016239405 0.110537715 -0.13659891 -0.027302219
0.09016174 -0.07311546 0.001564666 0.18428302 0.04169692 -0.11112105 0.028684525 0.08286224
0.03115935 -0.16229972 0.08656416 0.07877157 -0.100712806 -0.053581502 -0.043589734 0.061959818
-0.20124237 -0.12229892 -0.13937998 -0.06555116 -0.020632807 0.02257764 -0.050385613 0.016991884
-0.06641094 0.03206245 -0.06491629 -0.034364883 -0.013650071 -0.09727248 0.07923533 0.0051835636
0.0007329912 0.12766756 0.042450964 -0.028362734 0.10377737 -0.02219274 -0.18217719 0.057981238
0.058623582 -0.0096651 0.12815198 0.1205917 -0.00698272 0.032793224 -0.07121873 0.06513945
-0.11182069 -0.24349703 -0.0391078 -0.15109986 0.010764171 0.024100749 0.061875094 -0.06548172
-0.10731415 0.026894018 -0.09295439 -0.0842434 0.008424893 -0.124297686 -0.0065107094 0.1206865
0.09915849 0.03420569 0.026340932 0.041540433 -0.026628878 -0.006374879 0.08498998 -0.12877755
-0.052338637 -0.030097475 0.00715792 -0.09023922 -0.06853637 0.0040176846 0.0033593194 0.041521724
-0.07240557 0.062702954 -0.13699557 0.08008069 0.05768031 -0.044218875 -0.054600913 0.07648183
-0.022068592 0.040699508 -0.06533297 -0.10586713 0.011127725 -0.101546034 0.08292976 0.034656107
0.0463769 0.05583074 0.036889296 0.080274664 -0.039778303 0.06476695 -0.15845245 0.13676332
0.009191768 -0.023955962 -0.010516177 -0.090945266 -0.0920933 0.012154359 -0.13507622 -0.086267576
0.049201656 0.009532365 -0.07226475 -0.10544586 -0.12086427 0.08538621 0.1258092 -0.084459275
0.0034181983 0.03679273 0.11278297 -0.033987127 0.027026465 0.093728244 0.07456601 -0.1548904
0.05325098 0.06944311 -0.0014344594 -0.029014472 0.02767635 0.086396314 -0.185347 -0.040428128
-0.15621154 0.07525852 0.09092358 0.012458826 0.15114163 0.09328234 -0.11016401 0.014411644
0.01455334 -0.031881176 -0.07741812 -0.053709067 -0.02483507 0.0048383623 0.061483476 -0.024043707
-0.0007932172 -0.045998633 -0.017187992 -0.09816165 0.056599423 0.13336857 -0.016062327 -0.15608248

fc1.bias f4 [64]
00000000: 922a 963d 6d05 7ebd 3f03 643e d223 ce3d
00000010: de11 0abe ba9a 223e f0e3 8c3d d87a 793d
00000020: a69d dfbd 9cb5 7c3e 3871 fb3d c3a9 1dbd
00000030: db81 90bd b99d ca3d 1a6b df3d 5196 693d
00000040: 69e5 153e 907f 4b3d c03f d93d b701 373e
00000050: 8c7a 3bbd 13a9 163e 45b7 0a3e fee1 123e
00000060: ada6 9a3d c015 843d ed62 c33d 2ca2 0f3e
00000070: b31b cb3d 2bbd 2f3d 7697 5d3e 9035 2b3e
00000080: 3ffe 563e cbd7 0dbd 3980 913d 17f1 abbc
00000090: 6cfc 64bc 023c b83d 7bbc 173d 0466 fe3c
000000a0: d5f8 c53c 0d7b c33d e95c 1a3e ba30 20bd
000000b0: 94b0 4d3d 7e8b 003e 8aa3 1f3e eede ff3c
000000c0: 4ef7 92bd 3274 463d c7fe 353e c54a b53c
000000d0: 28ce 1abc 20bb d23d ad1d 513c 8dff 1bbe
000000e0: ccd2 a53d 09ac 0d3e f8a0 a5bd 3d1b 003e
000000f0: be48 75bd 809f c83d 638f 993d c74c d4bd
0.073323384 -0.062016893 0.22266863 0.10065426 -0.13483378 0.15879336 0.06879413 0.06090817
-0.10918741 0.24678653 0.12277454 -0.038491976 -0.07056018 0.098933645 0.109091 0.05702812
0.14638294 0.0496822 0.106078625 0.17871748 -0.045771167 0.14712934 0.13546474 0.14344022
0.07551322 0.06449461 0.09540353 0.14026707 0.099173926 0.042905014 0.21639809 0.16719651
0.20995425 -0.034629624 0.07104535 -0.020988984 -0.013976198 0.089958206 0.037044983 0.031054504
0.024166504 0.095449544 0.15074505 -0.03910897 0.050217226 0.12553212 0.15589729 0.03123423
-0.07176076 0.048450656 0.17772971 0.02213038 -0.009448566 0.102895975 0.012763423 -0.15234204
0.08096847 0.13835157 -0.08087343 0.1251039 -0.059883825 0.09796047 0.07498052 -0.103662066

bn3.weight f4 [64]
00000000: 1641 a93f 3cd6 933f 6f60 9d3f d1e6 8c3f
00000010: fc71 a23f 9cb6 9f3f 68e7 9b3f 0c5b 9e3f
00000020: 7468 a83f c4ec b03f 8441 a73f 948f 993f
00000030: cfd7 ac3f 2095 973f c229 a13f b40c a33f
00000040: e343 b03f ba93 a13f 7586 943f 05ce a43f
00000050: c0ed a43f 1feb a73f 0c1b 9a3f 4f22 9e3f
00000060: 2985 a33f 7832 9f3f 3851 a43f 6253 9d3f
00000070: 5636 a33f 9402 a13f 8e6f 9e3f f972 993f
00000080: 0a31 a53f 6651 9c3f 6e91 a33f 3bd8 903f
00000090: 4afd 993f 7f89 9f3f 57d9 a63f 996b a33f
000000a0: 35bf a53f 314a 963f 68ca 943f d855 9b3f
000000b0: 0426 8c3f d358 a13f 23a7 9c3f 547c 943f
000000c0: 936d 8c3f 0a83 a03f 6301 9a3f 7c15 8d3f
000000d0: 6f58 953f 5055 923f 0c06 903f b0f9 a33f
000000e0: f505 a63f e4d8 983f 0e5a 9a3f bbbc a43f
000000f0: 1561 913f 9fdf 9b3f b9e5 9b3f fc02 983f
1.3222988 1.1549754 1.2295054 1.100794 1.2691035 1.2477603 1.2179995 1.2371535
1.3156877 1.3822255 1.3066869 1.1996942 1.350336 1.1842384 1.2590868 1.2738252
1.3770717 1.2623208 1.1603533 1.2875372 1.2885056 1.3118628 1.2039504 1.235422
1.2775012 1.2437277 1.2837286 1.2291071 1.2750957 1.2578912 1.2377794 1.1988212
1.290559 1.2212341 1.2778757 1.1315988 1.2030423 1.2463835 1.3035077 1.2767211
1.2948977 1.1741391 1.162427 1.2135572 1.0949101 1.2605232 1.2238506 1.1600442
1.0970939 1.253999 1.2031673 1.1022182 1.1667613 1.1432285 1.1251845 1.2810574
1.2970568 1.194119 1.2058733 1.2870096 1.1357752 1.2177619 1.2179481 1.1875911

bn3.bias f4 [64]
00000000: 2536 fb3d b783 643d 86c2 bfbd a3be e73d
00000010: 1113 30be 1871 4abd b207 08bc 5a35 05be
00000020: 2547 933e e85f 073d 1cc8 c73d ce42 163e
00000030: 0c1a 173e cb16 0cbe 6724 0d3d 31b1 bf3d
00000040: 9c97 48bd a63a d03d 6586 003d 26ac 52be
00000050: 9c20 473d bacb 0c3e 2fcb e3b9 fead 4cbd
00000060: b66a 69bd c895 05be 3de8 d6bb e3d9 f8bc
00000070: d5fc 4abe 83b5 b6bd cd57 1cbe 341d 50be
00000080: 4cac bcbd f377 cebd 12ba 123e 22f9 92bd
00000090: 09a3 36bd 7a7a a93c bfe6 2abe 31a3 b0bd
000000a0: fe16 8cbd 5498 37bc daa4 8bbd 71f1 97bc
000000b0: 3c3e f2bd 84da 4cbd 7e1c 37be 6426 e33d
000000c0: e3f8 69bc 00a4 603c 4fa7 e8bd 48aa d0bd
000000d0: 9e8d bebc 2419 fa3c fb62 743d 4579 183e
000000e0: 0de8 3b3d f288 a33d e1b5 71be 0f73 75bd
000000f0: c586 59be 7e10 553e ee16 32be 2610 803b
0.122661866 0.055789676 -0.09363274 0.11315658 -0.17194773 -0.04942426 -0.008302616 -0.13008633
0.28765216 0.033050448 0.09754965 0.14673921 0.1475603 -0.1368057 0.034458544 0.093599685
-0.04897271 0.10167436 0.03137817 -0.20573482 0.048615083 0.1374959 -0.00043448198 -0.04997062
-0.056986533 -0.13045418 -0.0065584467 -0.030377334 -0.1982301 -0.08921339 -0.15267868 -0.2032364
-0.092125505 -0.10081472 0.14328793 -0.071764246 -0.044589076 0.020688284 -0.16689585 -0.08624876
-0.06840323 -0.011205751 -0.06818552 -0.018547745 -0.118282765 -0.05001308 -0.17881963 0.11091307
-0.014280531 0.013710976 -0.113600366 -0.101887286 -0.023260888 0.030529566 0.059664708 0.1489001
0.045875598 0.079851046 -0.23604538 -0.05992418 -0.21242817 0.20807073 -0.1739156 0.003908175

bn3.running_mean f4 [64]
00000000: cb42 543e b03b 903f 712f 103f 45f9 3e3f
00000010: 08a8 053f 0a95 713e b3a9 df3e f4be b13e
00000020: dbb4 2f3f d732 353f 7a3f 333f c8f6 8e3f
00000030: ecba 253f 6e78 713e 0739 643f 39ee 4a3f
00000040: 6a11 213f f0c7 d03e dadc dd3f df78 fa3e
00000050: 0d45 fa3e 4c75 613f 5589 c03e b3d9 9b3e
00000060: 00c9 043f 0baa 283f dbab f03e 0822 3d3f
00000070: 6811 eb3e 83ef 9f3e dd91 7a3e 7d1b 983e
00000080: 28bf f23e bfb4 213f d88c 2b3f 18cc 233f
00000090: f0c6 2f3f 1051 f43e 43fd 163f c9ee bd3e
000000a0: ee9e e83e b8b5 453f 0fe5 313f 6e19 d03e
000000b0: cfbc 213f a71c 0b3f 1605 043f 51a1 ac3f
000000c0: c3a3 363f f71c d83e e2a6 2a3f dd93 493e
000000d0: d95b 953e fb82 053f 033e b53f d6da d93e
000000e0: b4b7 ef3e b628 483f dd1e 0c3f de4f 043f
000000f0: 42e5 643f f23c a33f 2c9b d73e 2bfc 143f
0.20728604 1.1268215 0.5632239 0.74599105 0.5220952 0.2359201 0.43684158 0.34715998
0.6863534 0.707807 0.7001873 1.1169062 0.64738345 0.23581097 0.89149517 0.7926975
0.62917197 0.4077754 1.7333024 0.48920342 0.48880807 0.88069606 0.37604776 0.3043953
0.518692 0.65884465 0.47006115 0.7388005 0.45911717 0.3123742 0.24469705 0.29708472
0.47411466 0.6316642 0.67011786 0.639833 0.6866293 0.47718096 0.58980197 0.3709624
0.45433754 0.77230406 0.6949014 0.406444 0.63178724 0.54340595 0.5157026 1.348673
0.7134363 0.42209598 0.6666089 0.19685312 0.29171637 0.52152985 1.415955 0.4254977
0.46819842 0.7818712 0.54734594 0.5168437 0.8941232 1.2752974 0.42110574 0.5819728

bn3.running_var f4 [64]
00000000: f1c2 ca3e d6d4 8640 6c61 893f c583 0c40
00000010: 278a b03f 9e81 d83e 77eb 913f 80a1 263f
00000020: a2cf 0140 aef4 b03f d74b 0f40 941d 7740
00000030: 455b 2e40 0a34 d63e d45d 5740 0f6e 1340
00000040: 793f b83f e2ce 853f 8370 d740 6b13 603f
00000050: cc8f 0340 8dd5 4f40 e571 5b3f ad4d 0e3f
00000060: a79e a33f e248 e83f d8fe a43f 6afc 1e40
00000070: a9c0 7e3f 48cb 3b3f b8f5 b63e 75ba 013f
00000080: ecc0 893f 2cc0 ec3f 33b0 2440 9b5a c13f
00000090: 0cd7 d03f d1cd aa3f a027 dc3f 6e2c 463f
000000a0: 310a a13f 0aca 2240 ee94 e53f 5d6f 853f
000000b0: d721 cb3f d891 f23f d5dc 963f e170 ad40
000000c0: a69a ea3f b6e0 993f 7d91 dd3f df60 b93e
000000d0: 5246 5c3f 3ed5 d93f db6b f040 7485 873f
000000e0: 0847 c33f 5d75 1240 ec29 853f 7005 cd3f
000000f0: b0ae 3c40 a092 a440 0b9c 573f 02e0 0d40
0.39601853 4.213481 1.0732856 2.1955426 1.3792161 0.4228639 1.1399983 0.6509018
2.028298 1.382467 2.239004 3.8611803 2.7243207 0.41836578 3.3651018 2.3035924
1.439437 1.0453761 6.7324843 0.8752963 2.0556517 3.247409 0.85720664 0.55587274
1.2782792 1.8147242 1.2890272 2.4841561 0.99512726 0.7335706 0.35734344 0.50675136
1.0762 1.8496146 2.5732543 1.5105776 1.6315627 1.334406 1.7199593 0.77411544
1.2581235 2.5435815 1.7936075 1.042461 1.5869702 1.8950758 1.1786143 5.420029
1.8328445 1.2021701 1.7310024 0.3620672 0.860448 1.7018201 7.513166 1.0587602
1.5256052 2.2884133 1.0403419 1.6017284 2.948162 5.1428986 0.8422248 2.2167974

fc2.weight f4 [8, 64]
00000000: 7b0a bd3e 9cef b23d d320 be3c 3ffa 0c3e
00000010: d1db 03be 76c5 24be 25c4 2ebe 1b9f 7fbe
00000020: 255b 3c3e 6dac 85be 22e6 97be 0186 343e
00000030: e38a 783e e089 573e 2ea2 573e b3e3 253e
00000040: 8ad1 093e 563d ed3d d776 353e d903 53be
00000050: 6a1b a1bd 1455 d4bd 2bad 1ebe 9354 9c3d
00000060: 4cac abbc 10b8 493d 19c3 adbd 4c5a 6e3e
00000070: f307 59bb 8fd9 a7be dda5 d9bc 07df 0e3e
00000080: 1017 ccbe c6aa ddbb c355 a63e c9dc 973d
00000090: 42e7 18be 9ae1 e9bc 7fc7 583e 58c0 06be
000000a0: 9029 4a3e 9f11 88bb 0caa f8bd 33d4 a2be
000000b0: ee72 32be 620d ff3d bf28 07be d62b 1d3e
000000c0: 63cf 8cbd 5829 823e d06f e23d 5d8d d2bc
000000d0: 875a 72be 3f85 6abe 9441 b73d 422b a13c
000000e0: a41b 4f3d 5253 0f3e 7185 383d d05a 943d
000000f0: 0e41 10be c3ea 80bd 5734 13be bc5f 5b3d
00000100: 0484 f73b f68a 093d 2fe6 76be 1676 82bd
00000110: fc0d 38be 755d 023e 6711 93be bc8f 9f3e
00000120: dbc1 893e e824 2d3d d4fa 2a3d 24a3 523e
00000130: 6746 0c3e 0d94 afbd 18ff 20be c0e7 8d3e
00000140: 501a 7fbd a23d 77be 3c38 d23d 04e4 07be
00000150: 95a7 6dbd f9cc f23d 55e6 8dbd 7ca3 2e3d
00000160: 4179 05be ca4f 9dbe b318 e53d 17e3 843c
00000170: de46 ef3c ccba 863e 4eae 003e b075 27be
00000180: 2a65 613d c3f5 083e b5eb 43be c202 17bc
00000190: 13fe 193e 7f7b a9bd 90e6 223e 66b2 c33d
000001a0: 116e 56be 032b 27be f9ae c0bd 4b04 153e
000001b0: 9ccb d5bd d6b2 cabc 35ec a0bd d696 ed3d
000001c0: 7d91 d1bb b755 bc3c 094f 85bd 7e1a 693e
000001d0: 700d 2c3e 4623 313e 37bf 40be 60d8 493e
000001e0: ae0c cfbd 1fdb 79bd 621b 17be 95df 15be
000001f0: 75a9 fc3c ab06 133e b02b 00be b677 293e
00000200: c160 3a3e 2222 3f3d 3b4f 0c3c 53e3 a53d
00000210: 2b93 86be 3af3 98bb 888c a2bc d8a0 9bbd
00000220: 1b32 853e 982b a13e c22f c83e add1 2dbe
00000230: cea8 b93e 0b1e 64bd 8b3a 223d c6ff 2cbe
00000240: eb06 153d 9bd6 89bd 1ec8 533a 32a1 36be
00000250: b0b0 293e 7d19 413e 789a 8a3e 3b9d 28bd
00000260: 80c8 413d 2311 b7bd 8e7f b03e 990b 5cbe
00000270: 61bf eabd 2e5f 63bd ab2c 1d3d f2dc 27be
00000280: ab1f b73c 0b77 68be 34e3 df3d 4bda 2dbe
00000290: 19b0 833e 601d 063d b3b3 06be d30d 66bd
000002a0: da2e aebd f98d 4fbd 07cf 243e c663 c3bd
000002b0: 02ff c8bd 4c40 043d c121 05be d43b 413e
000002c0: 2152 65be 2ddf 48be c9ef 95be 5861 52be
000002d0: 40dc 183e 5877 b03c ca5c 293e e968 893e
000002e0: 5ff4 8b3e 2766 503e 692b 72bd 5c38 7ebe
000002f0: 0041 06bd af9e 433e e0a4 b3b9 2c94 6ebe
00000300: ab43 fabd 40bb 5ebe 4c81 90be c956 bf3d
00000310: c9ef a7bd 6ba3 8c3e 7ce2 613d 0852 6bbd
00000320: b58b 213e d31a 41be d650 0a3e 460b 993a
00000330: f094 43be b044 fc3d a23c 8bbe 3f72 273e
00000340: 3edf 8abe 4810 773e 7803 363c fc06 2ebe
00000350: dbec dd3e c391 f13b 6c07 a03d 0203 9abe
00000360: 18bb b8be a0d5 d7bc e955 cf3c c9df 563e
00000370: 7413 79bd 5412 663d a020 37be 0103 a9bd
00000380: 307c 8f3d 6ea7 bebc a594 1e3e 0b6c f83d
00000390: 6772 3cbe fabb 32be 67ff 2fbe 3829 6f3e
000003a0: f8b9 16be 4742 843d d8c6 f2bd 5249 3b3d
000003b0: 34a1 9cbd 768a 723e 45f7 493e 3347 77be
000003c0: 3ae2 bfbd 5de8 c63d 65ec 1b3e f25e c13d
000003d0: 15b4 d83c abc5 ee3d f5a5 50bd a91f c13d
000003e0: 04ed 53be 2c15 733e 9c83 6e3e 08c4 d7bc
000003f0: d63b 423d a800 483e 319b 933d 43b7 d8bd
0.36922058 0.08737108 0.023209011 0.13767336 -0.12876822 -0.1609095 -0.1706701 -0.24963038
0.18394144 -0.26108113 -0.29667765 0.17629243 0.24271731 0.21048689 0.2105796 0.16200142
0.13458839 0.115839645 0.17721115 -0.20606937 -0.07866557 -0.1036779 -0.15495746 0.07633319
-0.020956181 0.0492478 -0.084844775 0.23276633 -0.003311631 -0.32783172 -0.026568348 0.13952266
-0.39861345 -0.0067647425 0.32487306 0.07415158 -0.14931968 -0.028549958 0.21169852 -0.13159311
0.19742417 -0.004152491 -0.12141809 -0.3180252 -0.17426655 0.124537244 -0.13199137 0.15348753
-0.068754934 0.25422168 0.11056483 -0.025702173 -0.23667346 -0.22902392 0.08948055 0.019673947
0.05056347 0.13996628 0.045049135 0.072438836 -0.14087316 -0.06294777 -0.14375435 0.053558096
0.0075535793 0.03357979 -0.24111246 -0.06370179 -0.17974085 0.12730964 -0.28724214 0.31164348
0.26905712 0.042271525 0.041743115 0.20570046 0.13698731 -0.0857316 -0.1572231 0.27715874
-0.062280953 -0.24144605 0.10264632 -0.13270575 -0.058021147 0.11855502 -0.06928698 0.04263638
-0.13034536 -0.30724937 0.111863516 0.016221566 0.029208597 0.2631439 0.12566492 -0.16353488
0.05502812 0.13375 -0.19132884 -0.009216966 0.15038328 -0.08275508 0.15908265 0.09555511
-0.20940425 -0.16325001 -0.094083734 0.14552419 -0.10439226 -0.024743479 -0.07857553 0.11601035
-0.0063955174 0.02299009 -0.065092154 0.22764012 0.16802001 0.17298612 -0.18822943 0.19711447
-0.1010984 -0.060999986 -0.1475654 -0.14636071 0.030842522 0.14358012 -0.12516665 0.16549572
0.18200971 0.04666341 0.008563812 0.08099999 -0.26284155 -0.0046676667 -0.019842401 -0.07599038
0.2601479 0.31478572 0.39098936 -0.16974516 0.362616 -0.055692714 0.039606612 -0.16894445
0.03638355 -0.06730386 0.0008078831 -0.17834929 0.16571307 0.1885738 0.27070975 -0.04116557
0.047310352 -0.089388154 0.34472317 -0.21488799 -0.11462284 -0.055510692 0.038372677 -0.16392878
0.022353968 -0.22701661 0.109320074 -0.16977803 0.2572029 0.032742858 -0.13154487 -0.056165528
-0.0850503 -0.050672505 0.160946 -0.09540515 -0.09814264 0.03228788 -0.13001157 0.18870479
-0.22394611 -0.19616385 -0.29284504 -0.20544946 0.14927769 0.021541283 0.16539302 0.26837853
0.27334878 0.20351468 -0.05912343 -0.24826187 -0.032776833 0.19103502 -0.00034264382 -0.2329871
-0.12219938 -0.21751118 -0.28223646 0.09342725 -0.08200032 0.27468428 0.055147633 -0.057451278
0.1577595 -0.18857889 0.13507399 0.0011676333 -0.19099784 0.123177886 -0.27194697 0.16352175
-0.27123445 0.24127305 0.011109225 -0.16994852 0.4334477 0.0073721125 0.078139156 -0.3008042
-0.3608024 -0.026346982 0.02530952 0.20983805 -0.060809568 0.056169823 -0.17883539 -0.08252526
0.07006109 -0.023273196 0.15486391 0.121299826 -0.18403016 -0.1745452 -0.17187272 0.23355567
-0.14719379 0.06457954 -0.11854333 0.04572422 -0.076479346 0.23685631 0.19723232 -0.24148254
-0.09369321 0.097122885 0.15226896 0.094419375 0.026453057 0.11658796 -0.05093952 0.09429867
-0.20695883 0.23738545 0.23292392 -0.026338592 0.047420345 0.195315 0.07207335 -0.105818294

fc2.bias f4 [8]
00000000: b68a bcbc 0a69 3f3e fac8 6a3c 188a 833c
00000010: 00d8 4c3c 444b 51bb f4e9 56bc b5d5 c23d
-0.023015361 0.18692413 0.014330143 0.01605706 0.01250267 -0.003193573 -0.013117302 0.09513418

fc3.weight f4 [5, 8]
00000000: 7772 da3d 28ce 47bf e226 1c3f 05c2 2b3e
00000010: ca6f f03e 7bcc a4be 6144 8bbe ba93 11bf
00000020: 0a2b 20bf 1317 cf3e 25e0 45be f20a ffbe
00000030: be69 cb3e b818 023f feef e4be 34a6 ac3e
00000040: a04d 493f 6b2c 0fbf e43f 57bf ae40 2dbe
00000050: c02b ea3e d200 253d 408c 3fbd 88cf 813e
00000060: 3924 873d 5136 cf3e 5451 a23e fc40 d5be
00000070: df97 10bf 6f63 f43c bd39 323f cb80 25bf
00000080: de7c 95be 8f83 ff3d 7bdb 01be 65e0 e93e
00000090: fbc8 c6be 948f 4fbf f2c6 623e 193b ae3e
0.10666364 -0.78048944 0.6099683 0.16773231 0.46960288 -0.32187256 -0.27200606 -0.5686604
-0.6256567 0.40447292 -0.19323786 -0.49813038 0.39729112 0.5081897 -0.4471435 0.33720553
0.7863407 -0.5592715 -0.84081864 -0.16919205 0.45736504 0.040283985 -0.046764612 0.25353646
0.06598706 0.40471128 0.31702673 -0.41651142 -0.56481737 0.02983257 0.6961935 -0.6464965
-0.2919683 0.12476265 -0.12681381 0.45679012 -0.3882521 -0.8107846 0.22146204 0.34029463

fc3.bias f4 [5]
00000000: fd4a d83d cc8d 2ebe aadc bc3b aadc bfbd
00000010: 54b3 16be
0.10561178 -0.17046279 0.00576361 -0.0936826 -0.14716846
