tuning_results/best_models_during_tuning_lightning_logs/eo_stand_GCN_best_model_logs/checkpoints/epoch=2451-train_loss=1.21-train_f1=0.42-val_loss=1.78-val_f1=0.35.ckpt (torch, 105170 bytes, 38 tensors)

conv1.bias f4 [64]
0.010878466 0.036610346 0.030132605 0.09769966 0.006704524 0.012968443 0.06436312 0.018660717
-0.0059780097 0.070146985 0.024400722 -0.023752324 0.052048083 -0.027542792 0.090015635 -0.01724017
0.038015287 -0.0029760895 0.15152484 0.03596035 0.052434683 0.052440923 0.012876694 0.04672789
-0.022455169 -0.05902261 -0.020272588 0.030721752 -0.06017035 0.08500132 -0.01941861 0.070614666
-0.08666393 0.09154385 0.0013746371 0.027206521 -0.072835274 0.070438474 -0.03806147 -0.022041723
-0.020557756 -0.040104385 -0.064952485 0.07259047 0.017598698 0.04146934 0.045936882 -0.014358164
-0.015438062 -0.06859981 0.029460153 -0.053091835 0.020505438 -0.12743084 0.018714994 0.09506319
-0.031406246 0.08439089 -0.111594304 0.0589764 -0.019564275 0.08324057 0.1286047 -0.046602957
00000000: 983b 323c bbf4 153d a7d8 f63c c216 c83d
00000010: a0b1 db3b 9879 543c d0d0 833d 5cde 983c
00000020: 2ee3 c3bb 39a9 8f3d 06e4 c73c 3c94 c2bc
00000030: 5f30 553d 6ca1 e1bc 1e5a b83d 423b 8dbc
00000040: ebb5 1b3d 7f0a 43bb 5429 1b3e 294b 133d
00000050: c0c5 563d 4bcc 563d c5f8 523c be65 3f3d
00000060: e7f3 b7bc b1c1 71bd b312 a6bc 2fac fb3c
00000070: 2f75 76bd 2c15 ae3d c713 9fbc 6c9e 903d
00000080: dc7c b1bd 587b bb3d 2b2d b43a 36e0 de3c
00000090: a92a 95bd 0c42 903d 58e6 1bbd d890 b4bc
000000a0: bd68 a8bc 7f44 24bd cf05 85bd 50aa 943d
000000b0: 252b 903c c1db 293d 5028 3c3d 813e 6bbc
000000c0: edef 7cbc 0f7e 8cbd 6b56 f13c d376 59bd
000000d0: 05fb a73c 3b7d 02be 3050 993c 7db0 c23d
000000e0: d6a3 00bd 22d5 ac3d 8e8b e4bd 3d91 713d
000000f0: 4245 a0bc 087a aa3d f3b0 033e bee2 3ebd

conv1.lin.weight f4 [64, 25]
-0.101510175 0.055272903 0.22923414 -0.08248077 0.19129564 -0.07669753 -0.13136259 -0.1504745
-0.013206333 -0.17490375 -0.12142758 0.10540693 -0.096969105 0.12818001 -0.17560972 0.15264343
0.0017604205 0.034640256 0.12703107 0.22396436 -0.12018262 0.29138282 0.19518805 -0.12430091
-0.15791407 0.22519767 0.2526482 0.015274603 0.1311039 -0.022367015 0.10843923 0.21304242
-0.05556359 -0.20509654 -0.014998238 -0.23687449 0.16002592 -0.16723648 -0.24632287 0.1406911
-0.07433157 0.12761739 -0.08178621 -0.23729137 0.157452 0.13453758 0.12246794 0.23984806
-0.059328318 0.24089247 -0.23274922 0.07215232 0.1415138 0.17257687 0.0694169 -0.2886767
-0.13022986 0.028425416 0.11535462 -0.12558658 -0.20778798 0.099972345 0.055179022 0.09099825
-0.19960615 0.2055844 0.16792624 0.047959533 -0.08003313 0.054868918 -0.14035772 0.10400093
-0.22262771 0.020422367 0.06808975 -0.28714722 -0.10429838 -0.026792081 -0.1476239 -0.11925609
-0.12459709 -0.13409911 0.2512338 0.19622286 -0.14705944 -0.23482 0.17223586 0.13033965
-0.031553395 0.17785782 0.078935705 0.13231435 0.0036457845 -0.122684054 0.24897593 0.076278076
-0.120092824 0.1005752 0.09218352 0.002120681 0.11746289 -0.17431661 0.16612966 0.211537
0.21998982 0.33247012 -0.047578696 0.023894697 0.20604454 0.055621013 0.013197514 -0.2613844
0.14514095 0.11189568 -0.019922163 -0.16839716 -0.1581801 -0.19233221 -0.13395485 0.17166914
-0.3104418 -0.18061237 0.028451895 0.11494863 0.09781844 -0.06197337 -0.07514246 0.050070148
-0.1340478 0.261194 0.20420144 -0.20808573 0.13124399 0.14279301 -0.09979286 0.05066494
0.1243722 0.21335785 0.20742886 -0.09449193 -0.22169682 0.048907787 -0.23533951 -0.21576467
-0.00081960566 0.013452757 -0.089972556 0.16646224 -0.18046777 0.10035539 0.26465937 -0.17934181
0.26068312 0.012387848 -0.1318412 0.20910831 0.25144967 0.28543743 -0.08705534 -0.2141597
0.091936775 -0.16704868 -0.028411327 0.05599907 -0.23346359 0.079251066 0.14635204 -0.03862213
0.060591564 -0.110930756 0.044995196 -0.06623995 0.15424013 0.008926662 0.021120975 -0.06477792
-0.09113892 -0.18767534 0.143839 -0.07739731 0.08679029 -0.13885769 -0.15565431 -0.20115115
0.16706708 0.21558465 0.24936287 -0.14182664 0.09280768 0.080732204 -0.32055125 0.27856356
0.02062558 0.16308428 0.18460687 0.013334482 0.02201309 0.080541275 0.24981207 -0.2021476
-0.16572821 -0.026238719 -0.023910472 0.057741288 0.026849147 -0.087327324 0.080085196 0.28021494
-0.15818775 0.017733242 0.11796597 0.24627852 -0.04235309 0.10966754 0.13805005 0.0061786827
-0.24614917 -0.05167766 -0.12645176 0.1625002 0.06605403 0.25465667 0.17383057 0.033096813
0.07611385 -0.1833456 0.22322832 0.010003898 0.028749673 0.13706636 -0.24257496 -0.2544985
-0.117502436 0.12062461 -0.09809305 0.08621097 -0.13300548 0.18353625 0.19255374 0.07126101
0.2041136 0.042275548 -0.12643632 0.028114697 -0.17013684 -0.13895467 0.2547106 0.13036667
-0.17691335 0.08971647 -0.18355027 0.19022106 0.21519369 -0.06993806 0.03934774 0.14460684
00000000: 91e4 cfbd d765 623d 5bbc 6a3e aeeb a8bd
00000010: 01e3 433e 9813 9dbd ea83 06be fd15 1abe
00000020: 605f 58bc f819 33be 06af f8bd 97df d73d
00000030: bd97 c6bd 9f41 033e 09d3 33be 8f4e 1c3e
00000040: e9bd e63a f1e2 0d3d 6f14 023e ea56 653e
00000050: 4e22 f6bd 2130 953e 60df 473e 7a91 febd
00000060: 3ab4 21be 389a 663e 1b5b 813e 5442 7a3c
00000070: 1a40 063e 083b b7bc 6315 de3d cb27 5a3e
00000080: a696 63bd d404 52be 2bbb 75bc 3a8f 72be
00000090: d6dd 233e 0a40 2bbe 103c 7cbe 5411 103e
000000a0: 263b 98bd 22ae 023e 877f a7bd 82fc 72be
000000b0: 193b 213e 38c4 093e 79d0 fa3d bb9a 753e
000000c0: 4002 73bd 84ac 763e d055 6ebe 98c4 933d
000000d0: fee8 103e feb7 303e 732a 8e3d 6fcd 93be
000000e0: fa5a 05be 6bdc e83c 0b3f ec3d c599 00be
000000f0: 5fc6 54be 4dbe cc3d 6603 623d 4a5d ba3d
00000100: 8e65 4cbe b884 523e dbf4 2b3e 3771 443d
00000110: 69e8 a3bd 3bbe 603d efb9 0fbe 71fe d43d
00000120: 85f8 63be cf4c a73c a472 8b3d f604 93be
00000130: 649a d5bd 117b dbbc b82a 17be 893c f4bd
00000140: c22c ffbd 4751 09be b7a1 803e a5ee 483e
00000150: c096 16be a774 70be 995e 303e c277 053e
00000160: 223e 01bd 5c20 363e 0ba9 a13d 6a7d 073e
00000170: 1dee 6e3b c741 fbbd 8cf3 7e3e ae37 9c3d
00000180: 3af3 f5bd 5ffa cd3d b7ca bc3d 20fb 0a3b
00000190: 6290 f03d 0e80 32be e51d 2a3e 289d 583e
000001a0: 0345 613e 8639 aa3e e1e1 42bd d0be c33c
000001b0: 57fd 523e dcd2 633d 633a 583c 2dd4 85be
000001c0: d49f 143e 9029 e53d ce33 a3bc 4e70 2cbe
000001d0: f7f9 21be bcf2 44be 762b 09be 09ca 2f3e
000001e0: 3af2 9ebe 73f2 38be f313 e93c 306a eb3d
000001f0: 0955 c83d cad7 7dbd 4ae4 99bd 5b16 4d3d
00000200: d443 09be 38bb 853e 2f1a 513e 6d14 55be
00000210: d364 063e 5538 123e 3360 ccbd 0a86 4f3d
00000220: dab6 fe3d 7b7a 5a3e 3b68 543e fc84 c1bd
00000230: 7e04 63be 8853 483d d7fc 70be 6af1 5cbe
00000240: ceda 56ba f468 5c3c 8843 b8bd 1475 2a3e
00000250: 8bcc 38be 2087 cd3d 6f81 873e 61a5 37be
00000260: 4278 853e 67f6 4a3c 6101 07be 7d20 563e
00000270: 03be 803e db24 923e 124a b2bd ae4c 5bbe
00000280: 5949 bc3d cf0e 2bbe dfbe e8bc 485f 653d
00000290: 1411 6fbe 624e a23d 4fdd 153e 3d32 1ebd
000002a0: dc2e 783d aa2f e3bd e24c 383d d0a8 87bd
000002b0: 20f1 1d3e 2241 123c e505 ad3c 49aa 84bd
000002c0: 0ba7 babd f72d 40be 884a 133e 7b82 9ebd
000002d0: 1cbf b13d b630 0ebe d863 1fbe 91fa 4dbe
000002e0: a213 2b3e 39c2 5c3e fb58 7f3e 013b 11be
000002f0: f411 be3d ed56 a53d 4b1f a4be e29f 8e3e
00000300: faf6 a83c 91ff 263e 9509 3d3e df78 5a3c
00000310: cc54 b43c d3f2 a43d bcce 7f3e c8ff 4ebe
00000320: a8b4 29be 95f2 d6bc e5df c3bc 2182 6c3d
00000330: bef2 db3c abd8 b2bd b503 a43d 5578 8f3e
00000340: f8fb 21be 4e45 913c 2498 f13d 7030 7c3e
00000350: 6f7a 2dbd 6099 e03d fe5c 0d3e 8c76 ca3b
00000360: 870e 7cbe f4ab 53bd 927c 01be 7466 263e
00000370: 5647 873d 5c62 823e a400 323e 8690 073d
00000380: 94e1 9b3d f3be 3bbe f795 643e 64e7 233c
00000390: 6f84 eb3c 205b 0c3e 9265 78be a14d 82be
000003a0: 1ea5 f0bd 090a f73d 02e5 c8bd 618f b03d
000003b0: 9732 08be edf0 3b3e cf2c 453e 4bf1 913d
000003c0: 2803 513e 2029 2d3d 8678 01be cb50 e63c
000003d0: 5a38 2ebe 224a 0ebe 6e69 823e d77e 053e
000003e0: c628 35be 45bd b73d 9af4 3bbe 4fc9 423e
000003f0: bc5b 5c3e b03b 8fbd 192b 213d d113 143e

bn1.weight f4 [64]
0.97146124 1.0007808 0.9511286 0.9810308 0.9320748 0.9520297 0.9896924 1.0338603
1.0170639 0.9901333 0.9626973 1.0004745 0.95125484 0.9801354 0.9179356 0.98847437
1.0294536 1.0018067 0.95454764 1.0457257 0.9626101 1.0588512 1.0107653 1.0110812
0.8849102 0.900962 1.0245717 1.0133487 0.9982256 1.025564 0.9808882 1.0109102
0.9991625 0.9907221 0.93843114 1.0177561 0.9807221 0.95290154 1.0245912 1.0053897
0.99119055 1.0772871 1.0617594 0.93120974 0.9517684 0.96830976 1.0233535 1.0206741
1.0252166 1.0112295 1.0162656 0.9982295 0.978236 0.9831126 1.0068071 0.9865227
1.013708 1.0518578 1.0013461 0.9901105 0.9797995 1.0560006 1.0348758 1.1002133
00000000: afb1 783f 9619 803f 2a7d 733f d624 7b3f
00000010: 749c 6e3f 38b8 733f 7b5c 7d3f 8955 843f
00000020: 262f 823f 6079 7d3f 5573 763f 8c0f 803f
00000030: 7085 733f 27ea 7a3f d4fd 6a3f a80c 7d3f
00000040: 23c5 833f 343b 803f 3c5d 743f 57da 853f
00000050: 9e6d 763f 7088 873f c260 813f 1c6b 813f
00000060: 7a89 623f 72a5 663f 2a25 833f 69b5 813f
00000070: b78b 7f3f ae45 833f 7d1b 7b3f 8165 813f
00000080: 1dc9 7f3f f79f 7d3f 063d 703f d545 823f
00000090: 9b10 7b3f 5bf1 733f ce25 833f 9cb0 803f
000000a0: aabe 7d3f 8be4 893f bbe7 873f c363 6e3f
000000b0: 18a7 733f 26e3 773f 3ffd 823f 73a5 823f
000000c0: 4c3a 833f f86f 813f fe14 823f f88b 7f3f
000000d0: ad6d 7a3f 44ad 7b3f 0edf 803f c08c 7c3f
000000e0: 2fc1 813f 47a3 863f 1c2c 803f e277 7d3f
000000f0: 24d4 7a3f 072b 873f cf76 843f cad3 8c3f

bn1.bias f4 [64]
0.018492565 -0.12133871 -0.014906982 0.072518855 -0.008284736 -0.136948 -0.047790233 0.016322434
0.04255432 -0.008528064 -0.08170748 -0.03477625 0.014422518 -0.046731852 -0.04821763 -0.06464017
0.02651332 0.06310887 0.05247742 -0.056914125 0.04605763 -0.07844649 0.040335253 -0.009447805
0.013127199 -0.04511162 -0.08418597 -0.007568003 0.0563365 0.0017360817 -0.05818569 -0.062213458
-0.03901334 -0.12331412 0.017067265 0.0031637845 -0.10460859 0.043126397 0.034580868 -0.044729553
-0.0778385 -0.021690631 -0.076373935 0.024299692 0.025002271 0.14332743 0.057686917 0.052407466
-0.056542933 0.098438665 0.034033023 -0.15696745 -0.023855288 -0.05626666 0.013313744 0.08186293
0.056753185 -0.014375742 0.06175309 -0.08462153 0.06691704 0.028058713 -0.05107315 0.025205031
00000000: b87d 973c 6e80 f8bd 6a3c 74bc c484 943d
00000010: b4bc 07bc 193c 0cbe b1bf 43bd a0b6 853c
00000020: 704d 2e3d 4bb9 0bbc 4056 a7bd 8b71 0ebd
00000030: 6d4c 6c3c e669 3fbd d97f 45bd 1162 84bd
00000040: 7632 d93c 393f 813d 90f2 563d c91e 69bd
00000050: eda6 3c3d 8ea8 a0bd 9436 253d f7ca 1abc
00000060: 7713 573c f6c6 38bd b269 acbd 03fd f7bb
00000070: 1ac1 663d 3c8d e33a 1e54 6ebd 8ad3 7ebd
00000080: 74cc 1fbd 1d8c fcbd a6d0 8b3c 7f57 4f3b
00000090: 073d d6bd 4ea5 303d aba4 0d3d 5636 37bd
000000a0: cb69 9fbd 8db0 b1bc f069 9cbd 2610 c73c
000000b0: 90d1 cc3c 6dc4 123e 1e49 6c3d 36a9 563d
000000c0: 9099 67bd 369a c93d 3666 0b3d 13bc 20be
000000d0: 2a6c c3bc df77 66bd e421 5a3c c0a7 a73d
000000e0: 0776 683d 3b88 6bbc cff0 7c3d 0d4e adbd
000000f0: cd0b 893d 63db e53c 1432 51bd c87a ce3c

bn1.running_mean f4 [64]
0.28815556 0.39060247 0.23125423 0.2986252 0.47146064 0.2179523 0.34784466 0.3350315
0.20182581 0.33687913 0.38908842 0.26477382 0.27999604 0.18916908 0.3127348 0.22925277
0.25550747 0.17058088 0.33231655 0.24761781 0.3230511 0.2252941 0.32000548 0.22408861
0.26994735 0.15174067 0.2515379 0.29587433 0.23465306 0.3454848 0.2648595 0.2587855
0.21925746 0.32275966 0.34076643 0.36344674 0.22937341 0.31234163 0.1588341 0.31757683
0.21440665 0.24790376 0.18268496 0.19626908 0.27556288 0.3958838 0.18458663 0.21989249
0.16457477 0.31483418 0.26969233 0.20668478 0.44651526 0.21032247 0.19747944 0.26429132
0.14998557 0.24600202 0.31679392 0.24992424 0.32502243 0.18350527 0.4537375 0.3126774
00000000: 2089 933e 0cfd c73e e9cd 6c3e 67e5 983e
00000010: 4a63 f13e e32e 5f3e b218 b23e 4089 ab3e
00000020: 6dab 4e3e 6c7b ac3e 9936 c73e 6f90 873e
00000030: a45b 8f3e 8ab5 413e c71e a03e 3dc1 6a3e
00000040: e0d1 823e c1ac 2e3e 6525 aa3e 868f 7d3e
00000050: f466 a53e 7fb3 663e c2d7 a33e 7c77 653e
00000060: 8a36 8a3e e861 1b3e 93c9 803e d77c 973e
00000070: e448 703e 62e3 b03e aa9b 873e 887f 843e
00000080: 0785 603e c140 a53e f078 ae3e b115 ba3e
00000090: dde0 6a3e 3eeb 9f3e 68a5 223e 6e99 a23e
000000a0: 6b8d 5b3e 7cda 7d3e c411 3b3e c3fa 483e
000000b0: 9416 8d3e 48b1 ca3e 4704 3d3e 7f2b 613e
000000c0: 4a86 283e f231 a13e 1d15 8a3e 2da5 533e
000000d0: a69d e43e c65e 573e 0d38 4a3e 3151 873e
000000e0: d195 193e f4e7 7b3e d032 a23e 24ec 7f3e
000000f0: 5769 a63e cee8 3b3e 4850 e83e 4117 a03e

bn1.running_var f4 [64]
0.23912294 0.27068648 0.120723054 0.14673471 0.61429906 0.13866813 0.17264058 0.28645486
0.10688069 0.27857783 0.28534502 0.1486071 0.22649135 0.1293707 0.2030643 0.088029504
0.2123509 0.053909928 0.25820103 0.16439956 0.2387917 0.066511005 0.3493614 0.08264984
0.1325701 0.08346758 0.13531005 0.20567164 0.18187939 0.13943127 0.1042593 0.0970436
0.1629422 0.08720663 0.20048551 0.3271004 0.16036612 0.19845363 0.098445 0.17308502
0.14756043 0.08847353 0.05146911 0.058376934 0.19540446 0.27857113 0.049508475 0.07771668
0.088390775 0.29049754 0.160566 0.12273356 0.37693125 0.08727103 0.11166646 0.11305387
0.09706643 0.06681927 0.17981131 0.12883236 0.3429038 0.08986051 0.27566895 0.13169624
00000000: a5dc 743e 6b97 8a3e a63d f73d a041 163e
00000010: b442 1d3f 05ff 0d3e b1c8 303e 36aa 923e
00000020: 43e4 da3d c1a1 8e3e be18 923e 762c 183e
00000030: 59ed 673e c179 043e 16f0 4f3e d048 b43d
00000040: 8472 593e a8d0 5c3d ed32 843e 5c58 283e
00000050: d085 743e ec36 883d 7fdf b23e 5244 a93d
00000060: 75c0 073e 0df1 aa3d b88e 0a3e 969b 523e
00000070: 973e 3a3e 12c7 0e3e e685 d53d ccbe c63d
00000080: 52da 263e 6499 b23d 134c 4d3e b479 a73e
00000090: 0437 243e 6e37 4b3e 889d c93d 333d 313e
000000a0: 151a 173e 9c31 b53d 46d1 523d a71c 6f3d
000000b0: 1b18 483e e0a0 8e3e 66c9 4a3d ec29 9f3d
000000c0: 3906 b53d 18bc 943e 6a6b 243e bc5b fb3d
000000d0: 22fd c03e 27bb b23d 63b1 e43d ca88 e73d
000000e0: c4ca c63d 8bd8 883d 7520 383e a1ec 033e
000000f0: 1691 af3e c908 b83d 7b24 8d3e 61db 063e

conv2.bias f4 [64]
0.05781136 0.0010600437 0.115099184 0.05429787 0.019186558 0.011559444 -0.057824835 -0.0017750458
0.0046082214 0.12241708 0.13924155 0.19852589 -0.07938645 0.07481803 0.026844596 -0.08783732
-0.0073435465 -0.16430077 0.089441516 0.09658215 0.09076755 0.046151567 -0.069429636 -0.0713836
-0.12505846 0.21266772 -0.023333808 0.09918811 0.11554278 -0.010066446 0.024667867 -0.0006687515
-0.20428504 0.0035208885 -0.06826775 0.08315111 0.23874012 0.025099432 0.03733832 -0.0915586
-0.18754938 -0.10485306 0.00046333135 0.11592718 0.078545704 -0.07519094 0.16170514 0.11013956
-0.031396423 -0.14544694 -0.06417752 -0.03945573 -0.018327693 -0.035662502 0.12787259 -0.057682022
0.1183158 -0.021733431 0.021858398 0.25305685 -0.0011016683 0.076710105 0.15216213 -0.18033287
00000000: 9bcb 6c3d 2af1 8a3a 1fb9 eb3d 7167 5e3d
00000010: 212d 9d3c d263 3d3c bcd9 6cbd a7a8 e8ba
00000020: 9000 973b ceb5 fa3d 5695 0e3e 5f4a 4b3e
00000030: 5d95 a2bd 323a 993d 33e9 db3c 0ee4 b3bd
00000040: 22a2 f0bb 763e 28be 1d2d b73d ddcc c53d
00000050: 56e4 b93d 6d09 3d3d 2031 8ebd 9131 92bd
00000060: 530f 00be 91c5 593e 8b26 bfbc 2323 cb3d
00000070: b1a1 ec3d bced 24bc 4414 ca3c 274f 2fba
00000080: 1930 51be b5be 663b f6cf 8bbd 214b aa3d
00000090: 4a78 743e 539d cd3c 11f0 183d 1383 bbbd
000000a0: f20c 40be 33bd d6bd 48eb f239 3b6b ed3d
000000b0: 92dc a03d b5fd 99bd 0896 253e da90 e13d
000000c0: 8999 00bd 0bf0 14be 816f 83bd 559c 21bd
000000d0: f523 96bc d812 12bd 08f1 023e fc43 6cbd
000000e0: 8e4f f23d 4f0a b2bc 6210 b33c ab90 813e
000000f0: db65 90ba 301a 9d3d 64d0 1b3e 2ea9 38be

conv2.lin.weight f4 [64, 64]
0.21667252 -0.03701291 -0.21306282 0.12147531 -0.062842995 -0.17993663 -0.11241353 0.09062494
-0.23008959 0.22116426 -0.012005807 0.04588974 0.05635385 0.0459169 0.16670875 -0.057174772
0.18883146 -0.14458193 0.121042125 -0.22716191 -0.1561291 -0.08625741 -0.10930107 -0.07686965
0.20385084 0.039516192 0.17015508 0.122948684 0.08094589 -0.15250394 0.118464515 0.110004686
-0.17996646 0.16821848 0.1483444 -0.15621242 0.18283623 -0.19528356 0.087414935 0.12537856
-0.032748662 -0.061471533 0.1668184 0.18655518 -0.05816733 -0.046035174 -0.08234085 -0.14821362
0.13537209 -0.011879836 -0.017554475 -0.055745836 -0.121452495 -0.18844935 0.17839752 0.1116293
-0.16288018 0.15599954 0.11575145 -0.16382119 -0.082593046 -0.1239295 0.22037278 0.23277663
0.03588293 0.052054003 -0.17777541 0.0295015 -0.044989396 0.019824095 0.08684753 0.15929249
0.19646412 0.19550295 0.18927461 0.1174486 0.15656266 0.168287 0.16904236 -0.0612809
-0.09660605 0.11389307 -0.20181726 0.0986807 -0.09703443 0.16331829 -0.12080867 0.04180393
0.11472405 0.009022067 0.017603392 -0.12731135 0.1960478 -0.21120286 0.11934968 -0.07359992
-0.18866928 0.034695845 -0.059001364 -0.06145101 -0.010875373 -0.025841998 0.118689075 0.056625016
0.02946526 -0.27978507 -0.008976287 0.0478198 0.1446235 0.13125749 -0.16583051 0.030613333
0.0234372 -0.15682483 0.12260905 0.09950507 0.21706568 0.13702142 0.16828707 -0.2079146
0.03692082 -0.17943133 -0.13865189 0.037770633 0.22739547 -0.0034328776 -0.08772069 -0.06440424
0.08177863 -0.24339002 0.25826043 -0.02770332 -0.10905873 0.14950024 0.15024385 -0.16543962
-0.116962396 0.09174816 0.032018118 -0.020088946 -0.2648624 0.07597651 -0.11174888 -0.017397864
-0.18626612 -0.0031450067 -0.085822366 0.002847599 -0.019390972 -0.051146246 -0.010228725 -0.077069275
-0.08443574 -0.015889162 0.114183076 0.22029854 -0.040377907 0.15302037 0.11027208 -0.17926913
-0.15058888 -0.07988702 -0.023829583 0.15180796 0.20404129 0.077691324 0.14572039 -0.06399286
0.0667282 -0.12521237 -0.14066388 -0.07853788 0.10030107 0.033848498 -0.009190502 0.17100476
0.19477314 -0.08071992 0.07361454 -0.025503542 0.015707126 -0.026492734 0.13521732 -0.22362827
-0.058381554 -0.028875403 -0.043477923 -0.029961288 -0.03338124 -0.021560978 0.07962717 -0.24339902
0.037374254 0.09776792 -0.14201793 -0.11510316 -0.04976565 0.07807843 0.18784595 -0.22702284
-0.07650693 -0.13958912 -0.045592036 0.08191563 0.08912581 -0.08759061 0.15951237 0.10610676
0.11925349 0.13161223 -0.06178095 0.16768795 -0.18537182 -0.1515173 -0.02606419 0.14308114
0.06823419 -0.020138385 -0.10615598 -0.15518837 0.059334964 -0.1616779 0.15466994 -0.16075827
0.0041739657 0.2640029 0.11916475 0.07528134 0.032825693 0.18063606 0.11560642 -0.07360548
-0.110919565 0.12945855 0.12244437 0.084209144 0.14186467 -0.050955046 -0.04900777 0.09044895
0.072220646 -0.06551952 0.1864548 -0.019185374 -0.16166009 -0.13625139 0.15832716 0.19479343
0.059316076 -0.081668176 -0.21599534 -0.12006628 -0.20490268 -0.13719967 -0.020479528 0.05762678
00000000: 67df 5d3e d99a 17bd 242d 5abe 0cc8 f83d
00000010: d4b3 80bd 4f41 38be 1139 e6bd 9299 b93d
00000020: 9b9c 6bbe e278 623e 01b4 44bc e1f6 3b3d
00000030: 4bd3 663d 5c13 3c3d b3b5 2a3e 1830 6abd
00000040: 095d 413e 490d 14be efe4 f73d 229d 68be
00000050: 4fe0 1fbe baa7 b0bd 3dd9 dfbd d66d 9dbd
00000060: 46be 503e bbdb 213d 223d 2e3e 85cc fb3d
00000070: f5c6 a53d fe29 1cbe 869d f23d 234a e13d
00000080: 2149 38be 7741 2c3e 98e7 173e 26f6 1fbe
00000090: 6c39 3b3e 6af8 47be 9a06 b33d 3d63 003e
000000a0: 7623 06bd 93c9 7bbd 71d2 2a3e 5208 3f3e
000000b0: de40 6ebd 618f 3cbd 52a2 a8bd 50c5 17be
000000c0: fb9e 0a3e a5a3 42bc 67ce 8fbc bf55 64bd
000000d0: 16bc f8bd def8 40be d7ad 363e e79d e43d
000000e0: 10ca 26be 58be 1f3e 190f ed3d bec0 27be
000000f0: 8b26 a9bd c0ce fdbd 67a9 613e ff5c 6e3e
00000100: fbf9 123d 9436 553d c20a 36be 21ad f13c
00000110: cd46 38bd 2466 a23c 1edd b13d 921d 233e
00000120: e42d 493e ed31 483e 34d1 413e e488 f03d
00000130: f651 203e 6d53 2c3e 7119 2d3e ae01 7bbd
00000140: 65d9 c5bd c540 e93d 2fa9 4ebe 1b19 ca3d
00000150: fdb9 c6bd e93c 273e 896a f7bd 993a 2b3d
00000160: 71f4 ea3d 4bd1 133c fd34 903c e85d 02be
00000170: c1c0 483e 9045 58be 9b6d f43d 8ebb 96bd
00000180: 8532 41be 3b1d 0e3d 6aab 71bd 0eb4 7bbd
00000190: 9f2e 32bc 99b2 d3bc 4213 f33d a2ef 673d
000001a0: 2161 f13c fd3f 8fbe 4711 13bc b2de 433d
000001b0: 2f18 143e 5d68 063e 79cf 29be d0c8 fa3c
000001c0: 5fff bf3c b096 20be 741a fb3d 50c9 cb3d
000001d0: 7746 5e3e 584f 0c3e 7253 2c3e 91e7 54be
000001e0: 493a 173d d9bc 37be c3fa 0dbe 61b5 1a3d
000001f0: 5cda 683e 21fa 60bb e8a6 b3bd 5fe6 83bd
00000200: 8e7b a73d 3c3b 79be b63a 843e 13f2 e2bc
00000210: 2f5a dfbd 9716 193e 86d9 193e 0169 29be
00000220: fb89 efbd 76e6 bb3d 6e25 033d 9391 a4bc
00000230: 0b9c 87be 9399 9b3d 99dc e4bd f785 8ebc
00000240: 8cbc 3ebe 751c 4ebb a3c3 afbd c99e 3a3b
00000250: d1d9 9ebc ba7e 51bd 6296 27bc 7fd6 9dbd
00000260: a5ec acbd fd29 82bc d1d8 e93d f195 613e
00000270: 4e63 25bd 5fb1 1c3e 54d6 e13d 5492 37be
00000280: f933 1abe ce9b a3bd 4236 c3bc 8c73 1b3e
00000290: 33f0 503e a11c 9f3d ba37 153e b00e 83bd
000002a0: cba8 883d ac37 00be 310a 10be 78d8 a0bd
000002b0: a66a cd3d b9a4 0a3d c293 16bc df1b 2f3e
000002c0: 9c72 473e 7c50 a5bd 38c3 963d ceec d0bc
000002d0: 3bac 803c 4a07 d9bc 6976 0a3e cffe 64be
000002e0: 7f21 6fbd 1c8c ecbc e815 32bd 6071 f5bc
000002f0: c4ba 08bd a6a0 b0bc 9213 a33d 983d 79be
00000300: bf15 193d 8c3a c83d 266d 11be 35bb ebbd
00000310: 11d7 4bbd 95e7 9f3d b05a 403e ad78 68be
00000320: aaaf 9cbd 73f0 0ebe b7be 3abd 62c3 a73d
00000330: 9887 b63d b562 b3bd 3657 233e 804e d93d
00000340: 2c3b f43d 5bc5 063e 050e 7dbd 64b6 2b3e
00000350: 1cd2 3dbe 5a27 1bbe 9184 d5bc dd83 123e
00000360: 5ebe 8b3d 41f9 a4bc 4e68 d9bd b3e9 1ebe
00000370: 3809 733d e48e 25be cc61 1e3e d19d 24be
00000380: c3c5 883b 632b 873e a60c f43d 1a2d 9a3d
00000390: 3c74 063d a9f8 383e 0fc3 ec3d 78be 96bd
000003a0: cc29 e3bd c890 043e 1dc4 fa3d d875 ac3d
000003b0: f944 113e 3db6 50bd 5fbc 48bd 4d3d b93d
000003c0: 6be8 933d 192f 86bd 02ee 3e3e a52a 9dbc
000003d0: 398a 25be 7c85 0bbe 8420 223e ee77 473e
000003e0: 6af5 723d a541 a7bd e22d 5dbe 4fe5 f5bd
000003f0: 02d2 51be 127e 0cbe afc4 a7bc 0f0a 6c3d

bn2.weight f4 [64]
0.9850927 1.0451307 1.024329 0.9791693 1.0105269 0.93574685 1.0074252 1.0196906
0.99184066 1.0170716 0.9237992 0.9679757 1.0181642 0.9970141 0.9994823 1.0224886
0.9544075 0.99256766 1.0559021 1.0113436 0.97978526 1.0079749 0.9696165 0.9820445
0.93384904 0.9419392 0.93296313 0.94176215 1.0051999 1.0562476 0.99002415 1.0421406
0.9927208 0.98392725 0.97128737 1.0096831 1.0359178 0.9776018 0.9742978 1.0590271
0.964992 0.9446934 0.9696713 0.96329594 1.0285826 1.020706 0.97192454 0.9915479
0.98189235 0.96653986 0.94870573 0.9862283 0.9283805 1.0002909 0.9663407 0.9585947
0.9999724 1.0113293 1.0047225 0.99941236 0.979178 1.0527918 1.0338348 0.9500895
00000000: 092f 7c3f d8c6 853f 361d 833f d7aa 7a3f
00000010: f258 813f 1b8d 6f3f 4ff3 803f 3985 823f
00000020: 45e9 7d3f 672f 823f 1b7e 6c3f 41cd 773f
00000030: 3453 823f 513c 7f3f 12de 7f3f e8e0 823f
00000040: 0d54 743f ea18 7e3f cd27 873f b573 813f
00000050: 35d3 7a3f 5205 813f c938 783f 4567 7b3f
00000060: bb10 6f3f ed22 713f acd6 6e3f 5317 713f
00000070: 64aa 803f 1f33 873f 3972 7d3f dd64 853f
00000080: f322 7e3f a8e2 7b3f 4aa6 783f 4c3d 813f
00000090: f498 843f 1d44 7a3f 956b 793f 338e 873f
000000a0: b709 773f 6dd7 713f 613c 783f 909a 763f
000000b0: 98a8 833f 7fa6 823f 0cd0 783f 15d6 7d3f
000000c0: 4c5d 7b3f 286f 773f 61de 723f 7579 7c3f
000000d0: 58aa 6d3f 8809 803f 1b62 773f 7666 753f
000000e0: 31fe 7f3f 3d73 813f bf9a 803f 7dd9 7f3f
000000f0: 69ab 7a3f e2c1 863f b354 843f 1139 733f

bn2.bias f4 [64]
0.083939165 0.10249124 0.081420764 0.05502304 0.17689978 0.20410061 -0.11264383 -0.024455212
-0.029149856 -0.009069513 0.09575764 0.1421782 0.023577591 0.121474996 0.025445499 -0.23279397
0.101992115 0.22382107 0.0519588 0.1451027 0.11273867 0.07957625 0.19437587 0.20488586
0.22210258 0.1182226 0.13344076 0.20327276 -0.06462053 0.09840448 0.16795889 0.06071044
-0.05649628 0.08777281 0.1030407 0.08616374 -0.03306552 -0.0017609266 0.05229927 0.23646984
0.27194002 -0.06930656 -0.049912017 0.046284795 -0.05506313 0.039722655 -0.02483152 0.04295124
0.05858104 0.15883797 0.20372131 0.27513826 0.046818644 0.035373133 0.014783307 -0.044250157
0.0073225824 -0.030213965 0.105508 0.12233668 -0.12769768 0.15016343 -0.016510198 0.022998914
00000000: 4ce8 ab3d ede6 d13d eebf a63d d75f 613d
00000010: 3725 353e c0ff 503e cfb1 e6bd 4c56 c8bc
00000020: aecb eebc 4b98 14bc 951c c43d 2997 113e
00000030: cb25 c13c e2c7 f83d 1473 d03c 8b61 6ebe
00000040: 3ee1 d03d 5a31 653e c0d2 543d cd95 143e
00000050: 88e3 e63d dff8 a23d 780a 473e 99cd 513e
00000060: dc6e 633e b11e f23d b2a4 083e bc26 503e
00000070: c557 84bd 4a88 c93d 6afd 2b3e 83ab 783d
00000080: a568 67bd 3bc2 b33d 0107 d33d 9d76 b03d
00000090: b66f 07bd e4ce e6ba c237 563d 2625 723e
000000a0: b93b 8b3e 99f0 8dbd 8b70 4cbd 2095 3d3d
000000b0: e089 61bd 39b4 223d 796b cbbc a4ed 2f3d
000000c0: acf2 6f3d 6ca6 223e 529c 503e ecde 8c3e
000000d0: e8c4 3f3d 6be3 103d af35 723c a73f 35bd
000000e0: 46f2 ef3b 4783 f7bc 9414 d83d a78b fa3d
000000f0: 2ec3 02be 71c4 193e 6540 87bc 3868 bc3c

bn2.running_mean f4 [64]
0.3239952 0.32311404 0.30992082 0.30990127 0.3030554 0.3141628 0.3878346 0.2921109
0.36650273 0.4295873 0.3142634 0.4169144 0.22935666 0.3225299 0.33689803 0.27866128
0.40516677 0.26531795 0.4255575 0.4274018 0.43146318 0.34321946 0.43445665 0.29154938
0.27040565 0.5669378 0.33224428 0.4880632 0.63121694 0.26655558 0.24980639 0.44040862
0.34922567 0.37979627 0.35239223 0.40326455 0.49631524 0.4237215 0.31484717 0.4120533
0.35781452 0.24569415 0.37621918 0.44541842 0.38137594 0.4664404 0.36322686 0.3723814
0.16178851 0.24577993 0.56860936 0.3289563 0.14932054 0.1983917 0.41794455 0.4204043
0.44175187 0.36115143 0.43683168 0.3425568 0.26313856 0.3658027 0.28780523 0.38085368
00000000: b3e2 a53e 346f a53e f1ad 9e3e 61ab 9e3e
00000010: 142a 9b3e f2d9 a03e 4292 c63e 8f8f 953e
00000020: 3fa6 bb3e def2 db3e 22e7 a03e ce75 d53e
00000030: 79dc 6a3e a422 a53e e67d ac3e b1ac 8e3e
00000040: 0572 cf3e c1d7 873e ace2 d93e 69d4 da3e
00000050: bee8 dc3e 76ba af3e 1a71 de3e f645 953e
00000060: 9c72 8a3e d622 113f ec1b aa3e 6be3 f93e
00000070: 6f97 213f f979 883e 3fcd 7f3e 3d7d e13e
00000080: b5cd b23e a874 c23e c16c b43e b178 ce3e
00000090: 081d fe3e 06f2 d83e a633 a13e a6f8 d23e
000000a0: 7733 b73e 3f97 7b3e cd9f c03e e20d e43e
000000b0: b543 c33e 47d1 ee3e dff8 b93e c6a8 be3e
000000c0: e3ab 253e bcad 7b3e 6290 113f f66c a83e
000000d0: 7ce7 183e 3227 4b3e d4fc d53e 3b3f d73e
000000e0: 4d2d e23e d7e8 b83e 67a8 df3e 9b63 af3e
000000f0: 19ba 863e 7e4a bb3e 355b 933e 41ff c23e

bn2.running_var f4 [64]
0.5865423 0.7232147 0.31502303 0.41146114 0.341316 0.5411769 0.66920555 0.36470544
0.6845888 0.64285815 0.39386237 0.41812608 0.42513487 0.41177022 0.76021075 0.5546189
0.5713607 0.70933175 0.54910177 1.0092772 0.941306 0.47189233 0.7736466 0.85429204
0.41889217 0.6425154 0.8091007 0.8897311 1.4249448 0.47248644 0.3580561 1.3991408
0.62450504 0.51140106 0.55389124 0.46065414 0.67369175 0.9983141 0.45573303 0.8973208
0.81636894 0.46085167 0.87327945 0.6585506 0.7346872 1.4938031 0.39129117 0.48960906
0.22031169 0.33340204 1.4450432 0.7515843 0.1277231 0.30963978 0.56801426 0.74879867
0.71404797 0.9744677 0.65690845 0.36666322 0.37338865 0.7779111 0.2080331 0.9649787
00000000: a327 163f 9924 393f b34a a13e 09ab d23e
00000010: f9c0 ae3e 928a 0a3f 0e51 2b3f acba ba3e
00000020: 3641 2f3f 5a92 243f 54a8 c93e 9f14 d63e
00000030: 47ab d93e 8cd3 d23e 2c9d 423f 81fb 0d3f
00000040: b244 123f c496 353f ef91 0c3f ff2f 813f
00000050: 6ef9 703f df9b f13e b40d 463f e2b2 5a3f
00000060: 0979 d63e e47b 243f 3921 4f3f 6bc5 633f
00000070: 9764 b63f bee9 f13e 2153 b73e 0c17 b33f
00000080: 90df 1f3f 2eeb 023f d1cb 0d3f dcda eb3e
00000090: 1077 2c3f 8391 7f3f d755 e93e d1b6 653f
000000a0: 8efd 503f c0f4 eb3e 3e8f 5f3f c696 283f
000000b0: 7614 3c3f f134 bf3f 5157 c83e 0aae fa3e
000000c0: 6399 613e acb3 aa3e 2df7 b83f d467 403f
000000d0: d8c9 023e 1b89 9e3e 6269 113f 45b1 3f3f
000000e0: d9cb 363f b776 793f 272b 283f 48bb bb3e
000000f0: cc2c bf3e 2f25 473f a106 553e d808 773f

fc1.weight f4 [64, 64]
0.03376891 0.12327555 -0.03764377 0.011574065 -0.11466457 -0.05444266 -0.010420082 0.081171446
-0.079405256 0.013980781 -0.009171518 -0.16424653 -0.043331295 -0.116513975 0.024007656 0.062196445
0.08601334 -0.11193846 0.03988158 -0.12940757 0.02862054 -0.025815632 -0.100538924 -0.04026635
0.0011196086 -0.0066234646 0.055178914 -0.07921342 0.12133132 -0.17582738 0.08454666 0.03874731
0.12594774 -0.03722804 -0.06678384 0.08864461 -0.08890949 0.06175009 0.02555295 0.054979336
0.011624478 -0.068344355 0.10800901 -0.05683248 -0.013676598 0.015895598 0.12335516 -0.08407917
0.12142019 -0.13138685 -0.04256801 -0.015985198 -0.022772342 -0.12512617 0.008223324 -0.016893001
0.05043768 -0.084487185 0.07187762 -0.03340772 0.11619644 -0.15394329 -0.08665198 0.026996408
0.044963345 0.075680345 0.0075415075 -0.06801381 0.06840936 0.0077813403 0.0045267898 -0.013984157
-0.07126709 -0.02791858 -0.0911174 -0.0028434428 0.082681745 -0.05334981 0.07104727 -0.022109335
0.066197075 0.035681766 0.15579847 -0.030198053 -0.02808336 0.07995908 0.016840383 0.06884155
0.031408053 -0.07320398 0.10636414 0.000708278 -0.01936841 0.1127567 -0.14334115 -0.026233193
0.08625868 -0.07368306 0.0075397873 0.18114339 0.04002144 -0.11900541 0.032985855 0.07870437
0.03602188 -0.16101792 0.085311405 0.08272591 -0.10142664 -0.058540765 -0.04102656 0.05591921
-0.19946855 -0.11828148 -0.13546102 -0.06740037 -0.02011044 0.027762897 -0.053667884 0.0097780945
-0.06582928 0.036714707 -0.06484113 -0.034974065 -0.014896809 -0.09302337 0.07781009 0.0012989971
0.0004401011 0.12624222 0.03891095 -0.030360568 0.10195823 -0.016770856 -0.18140136 0.055415023
0.061612554 -0.009069002 0.12953666 0.11957873 -0.0049901544 0.027840402 -0.06628514 0.06868221
-0.107457474 -0.24311227 -0.03262799 -0.14895414 0.009082308 0.027583014 0.061685584 -0.06667919
-0.10703536 0.02712084 -0.09147673 -0.091538124 0.0077992803 -0.12946783 -0.0038075435 0.122872196
0.09883989 0.03694958 0.03129637 0.041977532 -0.025484147 -0.007839746 0.07844086 -0.12706575
-0.052180063 -0.03106931 0.0062926835 -0.09611699 -0.06763073 0.0038959524 0.00077868905 0.035272606
-0.07745045 0.06396873 -0.13739643 0.074847735 0.0593005 -0.04428543 -0.056339677 0.074244596
-0.024735976 0.039508402 -0.0660774 -0.11021243 0.011742708 -0.09622314 0.08295064 0.038503256
0.049529217 0.04986773 0.03340489 0.082164295 -0.046458595 0.06221795 -0.16427137 0.13651405
0.00875171 -0.020917848 -0.01444454 -0.09750413 -0.09093559 0.019609954 -0.13714388 -0.08229918
0.043222856 0.0038693226 -0.07510501 -0.107056335 -0.12870571 0.08682017 0.12528911 -0.082130246
-0.0017097151 0.03649045 0.10127316 -0.03600629 0.025552854 0.09122921 0.08304762 -0.14790589
0.05155583 0.07042042 -0.0031395962 -0.023295825 0.028997822 0.08788066 -0.18273787 -0.03782553
-0.1533266 0.072852924 0.08775184 0.020321034 0.151296 0.09052744 -0.11060241 0.012040822
0.0180304 -0.033107813 -0.079816386 -0.06021969 -0.0330271 0.012999734 0.061011124 -0.027941264
-0.0010441152 -0.047800355 -0.014342881 -0.097875245 0.05994681 0.13357058 -0.015180836 -0.15582834
00000000: 4551 0a3d e477 fc3d 5b30 1abd 26a1 3d3c
00000010: 42d5 eabd 44ff 5ebd feb8 2abc 373d a63d
00000020: 399f a2bd a50f 653c 2244 16bc 3e30 28be
00000030: 287c 31bd e19e eebd b4ab c43c b3c1 7e3d
00000040: c327 b03d fe3f e5bd de5a 233d 6b83 04be
00000050: 9f75 ea3c 4e7b d3bc 5ae7 cdbd 54ee 24bd
00000060: d5bf 923a a609 d9bb 4903 623d a53a a2bd
00000070: 8e7c f83d 180c 34be cd26 ad3d 80b5 1e3d
00000080: 72f8 003e 6e7c 18bd f7c5 88bd 4e8b b53d
00000090: 2e16 b6bd aaed 7c3d 6c54 d13c 0332 613d
000000a0: 9874 3e3c 20f8 8bbd d433 dd3d 2dc9 68bd
000000b0: cf13 60bc 7c37 823c a1a1 fc3d b331 acbd
000000c0: 26ab f83d 468a 06be cb5b 2ebd 64f3 82bc
000000d0: 108d babc 1321 00be 1fbb 063c 3163 8abc
000000e0: be97 4e3d 9e07 adbd 9334 933d 89d6 08bd
000000f0: 66f8 ed3d 4fa3 1dbe 9876 b1bd 9227 dd3c
00000100: 7c2b 383d 4cfe 9a3d c01e f73b d34a 8bbd
00000110: 351a 8c3d 9dfa fe3b 7755 943b ce1d 65bc
00000120: 7bf4 91bd 82b5 e4bc c29b babd 0e59 3abb
00000130: 0c55 a93d 5585 5abd 3b81 913d a31e b5bc
00000140: 5592 873d 0b27 123d a289 1f3e e861 f7bc
00000150: 130f e6bc 96c1 a33d d8f4 893c ccfc 8c3d
00000160: bba5 003d f8eb 95bd 71d5 d93d bbab 393a
00000170: 80aa 9ebc fcec e63d 06c8 12be fee6 d6bc
00000180: 64a8 b03d 25e7 96bd 5210 f73b a77d 393e
00000190: 85ed 233d 1cb9 f3bd 2d1c 073d c22f a13d
000001a0: ae8b 133d e2e1 24be bfb7 ae3d 346c a93d
000001b0: c5b8 cfbd 71c8 6fbd 770b 28bd 8b0b 653d
000001c0: 7c41 4cbe 903d f2bd 4bb6 0abe 3509 8abd
000001d0: a6be a4bc 046f e33c dbd2 5bbd 4d34 203c
000001e0: 80d1 86bd 2962 163d 6dcb 84bd f740 0fbd
000001f0: bf11 74bc 0983 bebd e55a 9f3d 1c43 aa3a
00000200: 5fbd e639 a445 013e 1761 1f3d bab6 f8bc
00000210: 7acf d03d 0963 89bc 47c1 39be ddfa 623d
00000220: 725d 7c3d 2796 14bc 42a5 043e b1e5 f43d
00000230: 7384 a3bb 8e11 e43c 81c0 87bd 42a9 8c3d
00000240: aa12 dcbd 6cf2 78be eda4 05bd 6f87 18be
00000250: f6cd 143c c6f5 e13c 06aa 7c3d 198f 88bd
00000260: 5b35 dbbd 862c de3c 2758 bbbd 5778 bbbd
00000270: 1b91 ff3b 3793 04be fb87 79bb 6ba4 fb3d
00000280: 916c ca3d 7158 173d 9f30 003d a2f0 2b3d
00000290: 21c4 d0bc 4772 00bc 9aa5 a03d 861d 02be
000002a0: c3ba 55bd 1185 febc db32 ce3b fcd8 c4bd
000002b0: fb81 8abd 3c53 7f3b f020 4c3a 027a 103d
000002c0: 579e 9ebd 0a02 833d a6b1 0cbe c549 993d
000002d0: 15e5 723d a464 35bd 6fc4 66bd 8d0d 983d
000002e0: 1aa3 cabc 90d3 213d 9753 87bd 0eb7 e1bd
000002f0: 7d64 403c a310 c5bd 06e2 a93d 97b5 1d3d
00000300: 26df 4a3d 1b42 4c3d 91d3 083d c145 a83d
00000310: 5e4b 3ebd 40d8 7e3d c136 28be 57ca 0b3e
00000320: 5563 0f3c e85b abbc cba8 6cbc 3fb0 c7bd
00000330: 703c babd 0ea5 a03c 726f 0cbe 798c a8bd
00000340: 730a 313d 7694 7d3b a8d0 99bd 5a40 dbbd
00000350: 6ecb 03be c6ce b13d ca4b 003e e733 a8bd
00000360: 8518 e0ba 0377 153d 4d68 cf3d 557b 13bd
00000370: 3854 d13c 61d6 ba3d df14 aa3d a474 17be
00000380: 352c 533d 9538 903d afc1 4dbb e3d6 bebc
00000390: d78c ed3c c7fa b33d a31f 3bbe f1ee 1abd
000003a0: a601 1dbe ea33 953d 3db7 b33d 4c78 a63c
000003b0: 57ed 1a3e 7366 b93d 8483 e2bd de46 453c
000003c0: 7db4 933c 0f9c 07bd c676 a3bd eca8 76bd
000003d0: 6d47 07bd d6fc 543c cde6 793d 14e5 e4bc
000003e0: b1da 88ba 4eca 43bd 67fe 6abc d172 c8bd
000003f0: c98a 753d bac6 083e 0bb9 78bc 7791 1fbe

fc1.bias f4 [64]
0.07790201 -0.06164619 0.21678683 0.099941395 -0.1331347 0.15650633 0.062240046 0.057343133
-0.10990799 0.24583027 0.11894699 -0.04004011 -0.07287698 0.09651911 0.10400928 0.060285244
0.14360979 0.051519316 0.10090425 0.1740027 -0.046711054 0.15279934 0.13397485 0.14067842
0.073220685 0.06068727 0.09824123 0.143449 0.091413476 0.045158472 0.2136 0.15827689
0.20410277 -0.038407892 0.07162235 -0.02293138 -0.018914362 0.09114793 0.036085993 0.036102157
0.022798277 0.092201196 0.14708102 -0.04685274 0.045215573 0.12668689 0.14756449 0.032938153
-0.0737954 0.052575484 0.1749883 0.019054104 -0.007350535 0.10183231 0.0069797672 -0.14639318
0.078549504 0.1391171 -0.088434756 0.11902768 -0.060993265 0.09995668 0.07173095 -0.09703734
00000000: 178b 9f3d b780 7cbd 5efd 5d3e 13ae cc3d
00000010: 7654 08be 3243 203e 6bef 7e3d a2e0 6a3d
00000020: 7117 e1bd eeba 7b3e 7b9a f33d 1901 24bd
00000030: 8740 95bd d0ab c53d d102 d53d a9ed 763d
00000040: 720e 133e eb05 533d e3a6 ce3d c42d 323e
00000050: 1754 3fbd 6e77 1c3e b430 093e 010e 103e
00000060: baf4 953d 3793 783d b332 c93d 4be4 123e
00000070: fd36 bb3d 17f8 383d f5b9 5a3e 5613 223e
00000080: 5100 513e 9851 1dbd bdae 923d 97da bbbc
00000090: 4bf2 9abc c4ab ba3d e8ce 133d dbdf 133d
000000a0: 74c3 ba3c fbd3 bc3d 689c 163e a9e8 3fbd
000000b0: f733 393d 35ba 013e 251b 173e 28ea 063d
000000c0: 0b22 97bd 6459 573d 2230 333e 5a17 9c3c
000000d0: c2dc f0bb 758d d03d 88b6 e43b 18e8 15be
000000e0: 90de a03d b774 0e3e 481d b5bd c9c4 f33d
000000f0: 13d4 79bd 16b6 cc3d ade7 923d 83bb c6bd

bn3.weight f4 [64]
1.3200496 1.1470306 1.2282954 1.0988777 1.2682277 1.2425551 1.2124944 1.2393966
1.3046762 1.379865 1.299847 1.1938268 1.3465897 1.1810966 1.2541505 1.2602209
1.3630116 1.2584109 1.1558298 1.281921 1.2837138 1.3085622 1.2033818 1.2330705
1.2754383 1.2410003 1.282251 1.2239044 1.2705158 1.2488539 1.2322266 1.1999059
1.2858512 1.2142756 1.2710077 1.1295488 1.1983396 1.2389171 1.2955967 1.2662796
1.2901076 1.1755521 1.1659696 1.2098465 1.0954951 1.2604462 1.2203271 1.1509243
1.0949895 1.2527287 1.1930318 1.0989124 1.1651188 1.1395369 1.1210188 1.2756742
1.2948587 1.1879748 1.2029456 1.2881061 1.1278291 1.2159922 1.2103677 1.1779736
00000000: 63f7 a83f e6d1 923f c938 9d3f 06a8 8c3f
00000010: 4955 a23f 0c0c 9f3f 0433 9b3f 8ca4 9e3f
00000020: a1ff a63f 6b9f b03f 6361 a63f 51cf 983f
00000030: 0d5d ac3f 2c2e 973f 0188 a03f eb4e a13f
00000040: 2a77 ae3f 9c13 a13f 3bf2 933f fd15 a43f
00000050: bc50 a43f f77e a73f 6a08 9a3f 41d5 9d3f
00000060: 9041 a33f 19d9 9e3f cd20 a43f e6a8 9c3f
00000070: 43a0 a23f 72da 9f3f 9ab9 9d3f 8496 993f
00000080: c696 a43f 626d 9b3f 61b0 a23f 0e95 903f
00000090: 3163 993f d694 9e3f 1dd6 a53f 7315 a23f
000000a0: 3f22 a53f 7e78 963f 7e3e 953f 40dc 9a3f
000000b0: 2f39 8c3f 4d56 a13f ae33 9c3f 7d51 933f
000000c0: 9e28 8c3f 6a59 a03f 44b5 983f 29a9 8c3f
000000d0: 9d22 953f 58dc 913f 8b7d 8f3f 4b49 a33f
000000e0: eebd a53f 8f0f 983f 1ffa 993f a9e0 a43f
000000f0: b45c 903f a2a5 9b3f 54ed 9a3f d7c7 963f

bn3.bias f4 [64]
0.12283012 0.05334375 -0.095514975 0.113095134 -0.1736298 -0.047136676 -0.008348925 -0.13078442
0.28721014 0.03159692 0.09800455 0.14560714 0.14624244 -0.13458014 0.032740843 0.093823865
-0.05031662 0.10319756 0.03233785 -0.20752054 0.05158893 0.13671155 0.00022969034 -0.051151812
-0.059701663 -0.13004607 -0.006271053 -0.028841484 -0.19757043 -0.08974582 -0.15270579 -0.20209841
-0.09245032 -0.10183694 0.14438975 -0.070477754 -0.045811728 0.017990524 -0.1660079 -0.08601722
-0.06897754 -0.010877436 -0.06885003 -0.019538136 -0.120476045 -0.046570346 -0.1764072 0.10871497
-0.015840255 0.014251841 -0.111892246 -0.100548446 -0.023598056 0.029564863 0.059457436 0.14908965
0.045184463 0.081629954 -0.23219642 -0.059701517 -0.21201056 0.20914291 -0.17324466 0.002108884
00000000: 5c8e fb3d fa7e 5a3d 5b9d c3bd 6c9e e73d
00000010: 03cc 31be 6312 41bd eec9 08bc 5aec 05be
00000020: 350d 933e c66b 013d 9cb6 c83d 0a1a 153e
00000030: 94c0 153e 60cf 09be 431b 063d ba26 c03d
00000040: cd18 4ebd 3e59 d33d b274 043d 4480 54be
00000050: ea4e 533d 1dfe 0b3e 08d9 7039 9084 51bd
00000060: bb89 74bd cc2a 05be 687d cdbb fa44 ecbc
00000070: e74f 4abe a8cc b7bd e85e 1cbe e3f2 4ebe
00000080: 9856 bdbd e38f d0bd e8da 133e a456 90bd
00000090: 14a5 3bbd dd60 933c fafd 29be cc29 b0bd
000000a0: 1944 8dbd 4637 32bc 3f01 8dbd 710e a0bc
000000b0: 25bc f6bd 8cc0 3ebd 17a4 34be f4a5 de3d
000000c0: 6cc3 81bc 8e80 693c c327 e5bd 58ec cdbd
000000d0: b650 c1bc 0332 f23c a489 733d f5aa 183e
000000e0: 5813 393d 9b2d a73d e6c4 6dbe 9489 74bd
000000f0: 4c19 59be 8f29 563e 0c67 31be 3435 0a3b

bn3.running_mean f4 [64]
0.19658405 1.1914816 0.560715 0.75948995 0.5042382 0.23612393 0.4351895 0.34795722
0.68026584 0.6626646 0.6808611 1.0957966 0.64213747 0.22527058 0.9004622 0.7674718
0.6481181 0.38980585 1.7308635 0.51284957 0.49272594 0.8899852 0.38131592 0.33702123
0.52272314 0.68136394 0.4684647 0.7245261 0.42624378 0.3366456 0.29689237 0.2787162
0.43844414 0.62000245 0.6862042 0.648795 0.71373147 0.4653258 0.6122079 0.40097648
0.4612511 0.74045384 0.6900489 0.3984092 0.6900641 0.5745866 0.55146843 1.3447176
0.7414957 0.41055205 0.68109334 0.21173947 0.2764085 0.4821471 1.4686897 0.39724422
0.4641317 0.7874327 0.5411281 0.5242818 0.9490064 1.2898556 0.42638028 0.6305447
00000000: 544d 493e 7882 983f 058b 0f3f ef6d 423f
00000010: c115 013f 79ca 713e 28d1 de3e 7327 b23e
00000020: e725 2e3f 63a4 293f ea4c 2e3f 1043 8c3f
00000030: 1f63 243f 55ad 663e b184 663f 0879 443f
00000040: 11eb 253f a294 c73e ef8c dd3f 1c4a 033f
00000050: 9346 fc3e 12d6 633f d73b c33e 0c8e ac3e
00000060: 2fd1 053f de6d 2e3f 9bda ef3e 8b7a 393f
00000070: a03c da3e d05c ac3e 4702 983e e4b3 8e3e
00000080: c07b e03e 7bb8 1e3f 14ab 2f3f 6e17 263f
00000090: 1bb7 363f 2f3f ee3e a8b9 1c3f ca4c cd3e
000000a0: 1b29 ec3e 628e 3d3f 0ba7 303f 4afc cb3e
000000b0: 0aa8 303f 1b18 133f 092d 0d3f b51f ac3f
000000c0: aad2 3d3f e133 d23e 225c 2e3f 3bd2 583e
000000d0: 6a85 8d3e fcdb f63e 06fe bb3f 9863 cb3e
000000e0: aca2 ed3e 3095 493f 5f87 0a3f 5537 063f
000000f0: 15f2 723f fd19 a53f 844e da3e 616b 213f

bn3.running_var f4 [64]
0.38713333 4.4113555 1.0535462 2.2330792 1.4319575 0.42935377 0.92615527 0.6676921
2.0068264 1.2521154 2.0206573 3.4684243 2.7446256 0.4265956 3.371013 2.169432
1.4582696 1.1025078 7.1191993 0.9433871 2.0475187 3.0623972 0.8471236 0.5476339
1.2405646 1.8050778 1.2542244 2.378654 0.893343 0.68195295 0.4134884 0.4386954
1.0308886 1.6736544 2.650857 1.5396587 1.8836428 1.2736036 1.7723953 0.8227264
1.2333378 2.0755222 1.8943869 1.0553308 1.8889198 1.9611425 1.432065 5.2654805
1.9293824 1.0862484 1.732929 0.42678836 0.843959 1.4859736 8.0341625 0.9616943
1.4252464 2.1996768 0.92640585 1.5384529 3.1745818 5.6769094 0.90415937 2.651273
00000000: 5736 c63e d329 8d40 9ada 863f c5ea 0e40
00000010: 624a b73f 42d4 db3e 8318 6d3f dfed 2a3f
00000020: d86f 0040 5145 a03f 7352 0140 aafa 5d40
00000030: f2a7 2f40 bd6a da3e adbe 5740 f9d7 0a40
00000040: 94a8 ba3f fa1e 8d3f 7bd0 e340 d181 713f
00000050: 8c0a 0340 51fe 4340 18dd 583f bc31 0c3f
00000060: d2ca 9e3f ca0c e73f 6d8a a03f de3b 1840
00000070: 20b2 643f 7894 2e3f c0b4 d33e af9c e03e
00000080: 28f4 833f 4f3a d63f a4a7 2940 8913 c53f
00000090: 351b f13f 7105 a33f d9dd e23f 339e 523f
000000a0: 03de 9d3f 5bd5 0440 457b f23f 1415 873f
000000b0: 20c8 f13f b806 fb3f e84d b73f d17e a840
000000c0: 01f6 f63f 300a 8b3f 9ed0 dd3f 0184 da3e
000000d0: b20d 583f 6234 be3f ee8b 0041 9931 763f
000000e0: 796e b63f 81c7 0c40 ef28 6d3f 06ec c43f
000000f0: 592c 4b40 3ea9 b540 fd76 673f 75ae 2940

fc2.weight f4 [8, 64]
0.36899412 0.085931845 0.02102919 0.13510853 -0.12861449 -0.15868989 -0.16792415 -0.25090367
0.18371005 -0.25922376 -0.29192138 0.1756092 0.24159475 0.21034425 0.20575267 0.15590298
0.13051887 0.11507829 0.1740163 -0.2064571 -0.07742614 -0.10588316 -0.15754089 0.07102665
-0.020351088 0.049008824 -0.08591166 0.23130725 0.00010405346 -0.32207882 -0.024113838 0.13705517
-0.39450037 -0.0075235656 0.31848848 0.06894748 -0.14739028 -0.02991228 0.20858888 -0.12884167
0.1951389 -0.010542323 -0.12379523 -0.3139414 -0.17588715 0.1303146 -0.12918061 0.15091822
-0.06755333 0.25539613 0.108833656 -0.030964317 -0.24131614 -0.22624086 0.088376895 0.014003035
0.04599388 0.13744895 0.03727918 0.07479001 -0.14215045 -0.065031104 -0.139438 0.053705603
0.008073954 0.027897665 -0.233891 -0.070178114 -0.17401357 0.12083446 -0.28423524 0.31512037
0.2612872 0.045395065 0.03875944 0.20169875 0.13027796 -0.08427004 -0.15917921 0.27429962
-0.06048479 -0.24010226 0.10213587 -0.12853546 -0.062393468 0.11225952 -0.0660543 0.039410986
-0.13314445 -0.30658188 0.112079926 0.013635059 0.02397213 0.25734806 0.121574774 -0.164164
0.05375215 0.13055997 -0.1947164 -0.013096282 0.14684919 -0.080899976 0.15519136 0.090838514
-0.20480667 -0.15481898 -0.09635701 0.14539145 -0.10255579 -0.03040096 -0.07629062 0.11073727
-0.0041592363 0.022473896 -0.06030063 0.22313611 0.16863364 0.17056763 -0.18731247 0.19496448
-0.10551354 -0.05774959 -0.1495155 -0.15384175 0.021253161 0.14243484 -0.12590294 0.1579256
0.17473498 0.04419904 0.0121723125 0.08169829 -0.26574922 -0.0056752283 -0.019543568 -0.074954465
0.25573218 0.31600353 0.38391373 -0.17229985 0.36187398 -0.053999472 0.038568087 -0.16908331
0.037162904 -0.067082234 0.00070342043 -0.17483744 0.16438223 0.18687521 0.26789632 -0.039128438
0.045933433 -0.08701272 0.34376112 -0.21435368 -0.112786464 -0.057921913 0.039918914 -0.1666997
0.02445755 -0.22477399 0.10823883 -0.1695358 0.24867034 0.031202445 -0.13279073 -0.058014177
-0.08663709 -0.04991704 0.16260086 -0.09559008 -0.09746543 0.032824297 -0.13242304 0.18342677
-0.22306682 -0.20330393 -0.28619865 -0.19991337 0.150317 0.022868097 0.16429977 0.2665098
0.27062634 0.200333 -0.05729312 -0.24706742 -0.031754136 0.19474088 -0.007196687 -0.22950518
-0.12083822 -0.2174104 -0.2848999 0.09317922 -0.0877736 0.26371956 0.054993737 -0.06011344
0.15610813 -0.18814456 0.13713616 -0.00015047543 -0.18610248 0.11852181 -0.27407038 0.15485589
-0.27116722 0.23805727 0.008842378 -0.16897358 0.4271696 0.0075944075 0.07844453 -0.30437165
-0.36083108 -0.03260886 0.027344136 0.20806311 -0.06664912 0.052740797 -0.17953919 -0.08158029
0.073582835 -0.024321213 0.1483812 0.116784334 -0.1878863 -0.17545576 -0.17658721 0.22792642
-0.15202004 0.06265206 -0.1154977 0.042861987 -0.07333259 0.228413 0.1937918 -0.23504907
-0.09231533 0.09029588 0.14950292 0.09739758 0.02550818 0.11506998 -0.048056826 0.08811446
-0.21138522 0.23463252 0.23055224 -0.023988856 0.04033736 0.19377024 0.06745847 -0.10211313
00000000: ccec bc3e 09fd af3d 6845 ac3c e459 0a3e
00000010: 84b3 03be 9a7f 22be 4ff4 2bbe 7276 80be
00000020: 7d1e 3c3e fab8 84be b876 95be e6d2 333e
00000030: 9d64 773e 7c64 573e d4b0 523e 08a5 1f3e
00000040: bda6 053e 2bae eb3d 5431 323e 7d69 53be
00000050: 9991 9ebd 45d9 d8bd 6652 21be 6c76 913d
00000060: 53b7 a6bc 7abd 483d 74f2 afbd cfdb 6c3e
00000070: 4737 da38 84e7 a4be 628a c5bc 3158 0c3e
00000080: f4fb c9be 3e88 f6bb ec10 a33e 5634 8d3d
00000090: 7aed 16be 990a f5bc 5398 553e 12ef 03be
000000a0: 7ed2 473e b5b9 2cbc 5b88 fdbd edbc a0be
000000b0: c31b 34be 3171 053e ec47 04be 4e8a 1a3e
000000c0: 6659 8abd 48c3 823e 2ee4 de3d e1a8 fdbc
000000d0: 941b 77be afab 67be f2fe b43d fc6c 653c
000000e0: 1464 3c3d 6bbf 0c3e 0eb2 183d 812b 993d
000000f0: e38f 11be 072f 85bd d6c8 0ebe 68fa 5b3d
00000100: 9e48 043c a589 e43c 1f81 6fbe 8bb9 8fbd
00000110: 9d30 32be 0f78 f73d 4887 91be 7557 a13e
00000120: 70c7 853e 2df0 393d 38c2 1e3d 1e8a 4e3e
00000130: 9667 053e c595 acbd e0ff 22be 0071 8c3e
00000140: e6be 77bd 5edd 75be 9c2c d13d cd9e 03be
00000150: 4b90 7fbd 52e8 e53d 7a47 87bd 6a6d 213d
00000160: 0557 08be 4df8 9cbe 298a e53d 9565 5f3c
00000170: 3361 c43c 20c3 833e 32fc f83d 9c1a 28be
00000180: 372b 5c3d 83b1 053e bc63 47be ca91 56bc
00000190: a25f 163e e3ae a5bd 7cea 1e3e 8b09 ba3d
000001a0: d7b8 51be de88 1ebe d356 c5bd 7fe1 143e
000001b0: c508 d2bd 6f0b f9bc 423e 9cbd 39ca e23d
000001c0: 344a 88bb 2d1b b83c cbfd 76bd cb7d 643e
000001d0: 4cae 2c3e 48a9 2e3e d7ce 3fbe c5a4 473e
000001e0: 7c17 d8bd d68a 6cbd 971a 19be b188 1dbe
000001f0: 1c1b ae3c 70da 113e b3ec 00be 40b7 213e
00000200: baed 323e 0d0a 353d 616e 473c 6f51 a73d
00000210: 4810 88be 44f7 b9bb d519 a0bc ba81 99bd
00000220: 54ef 823e 37cb a13e 5790 c43e 5f6f 30be
00000230: 8c47 b93e 8d2e 5dbd 92f9 1d3d 2d24 2dbe
00000240: 2138 183d 6962 89bd bf65 383a 9608 33be
00000250: d153 283e 375c 3f3e b529 893e 2445 20bd
00000260: b224 3c3d ba33 b2bd 7501 b03e 887f 5bbe
00000270: 97fc e6bd 873f 6dbd 0482 233d 53b3 2abe
00000280: 335b c83c 272b 66be 52ac dd3d cb9a 2dbe
00000290: 70a3 7e3e 459c ff3c 4bfa 07be 46a0 6dbd
000002a0: c96e b1bd cf75 4cbd d780 263e bbc4 c3bd
000002b0: f59b c7bd c572 063d e899 07be 3ad4 3b3e
000002c0: a16b 64be e82e 50be a188 92be 17b6 4cbe
000002d0: b3ec 193e e055 bb3c 333e 283e f973 883e
000002e0: 898f 8a3e 1824 4d3e 31ac 6abd 3eff 7cbe
000002f0: a010 02bd 276a 473e 30d2 ebbb 6803 6bbe
00000300: 077a f7bd d5a0 5ebe 66de 91be bfd4 be3d
00000310: a5c2 b3bd 4006 873e 1d41 613d 8339 76bd
00000320: cfda 1f3e f8a8 40be 6c6d 0c3e f1c8 1db9
00000330: a691 3ebe 90bb f23d f452 8cbe 8b92 1e3e
00000340: 6ed6 8abe 49c5 733e 9fdf 103c 6907 2dbe
00000350: f9b5 da3e 82da f83b 87a7 a03d 9ad6 9bbe
00000360: dabe b8be de90 05bd cf00 e03c 7f0e 553e
00000370: 557f 88bd bc06 583d 1fd9 37be 9113 a7bd
00000380: 99b2 963d 483d c7bc 3ef1 173e a02c ef3d
00000390: 4465 40be adaa 33be 47d3 34be 8b65 693e
000003a0: 24ab 1bbe b94f 803d 0f8a ecbd 0d90 2f3d
000003b0: 662f 96bd 19e5 693e 5c71 463e b4b0 70be
000003c0: d20f bdbd 0ced b83d 4b17 193e 6278 c73d
000003d0: 88f6 d03c cfa9 eb3d 3cd7 44bd 5b75 b43d
000003e0: 5e75 58be 8243 703e e315 6c3e 4784 c4bc
000003f0: ca38 253d b56b 463e ab27 8a3d b020 d1bd

fc2.bias f4 [8]
-0.021959031 0.1893858 0.01872901 0.0212269 0.010627257 -0.005334133 -0.014897495 0.09521985
00000000: 6de3 b3bc 5aee 413e 956d 993c 09e4 ad3c
00000010: f21d 2e3c f3c9 aebb 9f14 74bc a002 c33d

fc3.weight f4 [5, 8]
0.103872284 -0.77080536 0.6053193 0.16899095 0.4670925 -0.31203654 -0.26468113 -0.56139255
-0.6132493 0.39887622 -0.19278264 -0.4921337 0.3929522 0.5027416 -0.4324181 0.3353838
0.7785229 -0.5528288 -0.83236057 -0.16442008 0.45589194 0.03884964 -0.041169424 0.24845965
0.06734491 0.39272842 0.31567538 -0.41222054 -0.55079526 0.025807463 0.6844428 -0.6289673
-0.28609052 0.13343148 -0.117183045 0.44751477 -0.38337803 -0.7952954 0.21934615 0.3367577
00000000: feba d43d 8053 45bf 35f6 1a3f f70b 2d3e
00000010: c026 ef3e 41c3 9fbe 4984 87be 6cb7 0fbf
00000020: e8fd 1cbf 8139 cc3e d068 45be f3f8 fbbe
00000030: 0831 c93e acb3 003f e865 ddbe 6db7 ab3e
00000040: 474d 473f 3086 0dbf 9515 55bf bd5d 28be
00000050: ab6a e93e cd20 1f3d 45a1 28bd 356c 7e3e
00000060: 21ec 893d b313 c93e 34a0 a13e 920e d3be
00000070: eb00 0dbf 2c6a d33c a537 2f3f 0004 21bf
00000080: 757a 92be 43a2 083e aafd efbd a820 e53e
00000090: 204a c4be 7b98 4bbf 479c 603e 816b ac3e

fc3.bias f4 [5]
0.10122717 -0.16889691 0.0039864597 -0.090742186 -0.14419782
00000000: 3150 cf3d 50f3 2cbe d9a0 823b 0ad7 b9bd
00000010: 98a8 13be
