tuning_results/best_models_during_tuning_lightning_logs/eo_stand_GCN_best_model_logs/checkpoints/epoch=8-train_loss=1.52-train_f1=0.26-val_loss=1.49-val_f1=0.36.ckpt (torch, 157362 bytes, 54 tensors)

conv1.bias f4 [64]
000000 8d 84 1a bf 63 34 d5 3d 65 e5 01 bf 26 56 9d bd
       -0.60358506 0.104103826 -0.50740653 -0.07682447
000010 06 82 01 be b9 0c b5 3d 2c 87 c6 be a3 75 0d bf
       -0.12647256 0.08840317 -0.38775003 -0.55257624
000020 06 ca a2 bd db 4c 35 bf cc a7 80 be d5 ee 75 3e
       -0.07948689 -0.708204 -0.2512802 0.24016888
000030 21 ac ac be 02 e0 e3 3e 40 97 03 3f 3f 3a d0 3e
       -0.33725074 0.44506842 0.51402664 0.40669438
000040 04 31 86 bf 33 df 06 bf 8e b4 e7 3e bc 1e 19 bf
       -1.0483708 -0.52684325 0.4525494 -0.5981252
000050 30 4f 84 3e 0e 01 af be 77 99 3f bc cd a3 7c be
       0.25841665 -0.34180492 -0.011694304 -0.2467186
000060 9c 26 f7 be df c2 2d bf c7 81 b5 be 15 8a c2 3d
       -0.48271644 -0.67875475 -0.35450575 0.09498993
000070 49 71 c1 be d0 e6 44 bd ac 55 69 bc bf fa e8 38
       -0.37781742 -0.048071682 -0.014241617 0.00011109327
000080 f5 d6 e4 3c 4b e3 2c bf 84 04 58 3e 79 13 03 bf
       0.02793453 -0.6753432 0.21095473 -0.5120159
000090 34 94 89 be b5 9f e2 3d 22 de 91 bd f3 d5 ad bf
       -0.26870883 0.11065618 -0.071224466 -1.3580917
0000a0 f6 29 bf 3e 2e de 34 3d 68 63 ee 3e 52 a4 d7 be
       0.373367 0.0441572 0.46560216 -0.42117554
0000b0 8a 34 c4 be 46 90 cd be cb 85 a5 3e cf 50 e1 3c
       -0.38321334 -0.40149134 0.32328638 0.027504353
0000c0 4c f9 5c be bb e8 92 3e 0d 98 17 bf 8f ee b1 be
       -0.21579474 0.28693184 -0.59216386 -0.34752318
0000d0 c9 09 b4 bd 9a 69 a1 be d9 a0 17 be f9 8f f1 be
       -0.08790929 -0.3152588 -0.14807452 -0.47180155
0000e0 9c d4 cb 3e e3 27 86 3d 57 23 a0 3e 87 cb a4 3e
       0.39810646 0.065505765 0.31276962 0.3218653
0000f0 e7 94 15 bf 0b 78 ff be a2 ec 8a 3e 32 60 ba bd
       -0.5843033 -0.49896273 0.27133662 -0.09100379

conv1.lin.weight f4 [64, 25]
000000 59 28 4a be 85 39 da be 22 bd 21 bf 06 ee 76 be
       -0.19741954 -0.4262201 -0.6317922 -0.24114236
000010 63 a5 4e be 27 ec b0 bd fc a1 49 bf 27 27 ed be
       -0.20180278 -0.086387925 -0.78762794 -0.46318933
000020 ad 48 10 be bd b9 18 3e 13 b4 99 3e 1c 9e 5a 3f
       -0.14090224 0.14914604 0.30020198 0.85397506
000030 a5 84 1b 3f c8 4e cd 3d ee 2e 81 bd c8 b0 05 be
       0.60749274 0.10024792 -0.06307779 -0.13055718
000040 6b 4d 91 be 85 87 d3 be 8a 64 ec 3a 8a e0 3c 3d
       -0.28379378 -0.4131433 0.0018035334 0.046112575
000050 b6 2b 0a 3d b0 f1 97 be a6 25 7d be e0 27 67 3d
       0.033733092 -0.2967658 -0.24721393 0.056434512
000060 b9 1d e1 3e ad 3a 96 be db 1a 09 bf a0 4c 28 bf
       0.4396799 -0.2934164 -0.53556603 -0.6574192
000070 6c 9c cd 3e 2e b0 39 3d d4 c8 3b 3f 6f 92 d5 3e
       0.40158403 0.045334034 0.73353314 0.41713282
000080 b7 9a e1 3e 4d 24 19 3d b3 ad a5 be 1e 9a 17 3f
       0.4406335 0.037388135 -0.32359084 0.5921954
000090 de 9a b1 bd 19 72 7e 3e 36 5d 98 3b 75 73 dd bc
       -0.08672117 0.24848212 0.0046497835 -0.027032593
0000a0 66 30 ae 3e 7b b1 23 3f 3c 34 0d 3f f5 1f c8 be
       0.340213 0.6394269 0.5515783 -0.3908688
0000b0 a5 fe 60 be 08 0d 7e bd 2d 72 b1 3e 1c b1 86 3e
       -0.21972139 -0.062024146 0.34657422 0.26307
0000c0 4a 66 81 be c1 31 27 be 8d 7b c0 bd 93 00 1a bf
       -0.25273353 -0.16327573 -0.093985654 -0.60157126
0000d0 99 e4 4e bf 7e 96 62 3e c9 2a e9 3e 7d d8 e2 3e
       -0.8081756 0.2212772 0.45540455 0.44305792
0000e0 01 87 4f 3e 28 6e 8b 3e 95 8d 6a bd 74 12 01 be
       0.20266344 0.2723248 -0.05726393 -0.12604696
0000f0 05 ca 0f 3f 0a 72 0e be dc 5d 14 3e 84 dc 5c be
       0.5616763 -0.1391069 0.1448893 -0.21568495
000100 77 b0 98 3c 8d 8d b0 3d d7 bd 81 3e ae 02 a0 3e
       0.018638832 0.08620749 0.2534015 0.31252044
000110 1c c4 9b 3d 10 8c 44 be 69 69 bc be f3 86 3a 3f
       0.07605764 -0.19194055 -0.36799172 0.72862166
000120 c4 0e a1 3e 17 0d eb bc f4 d3 27 3e 79 76 16 3f
       0.31456578 -0.028692765 0.16389447 0.58774525
000130 ae 86 0b 3e cd c9 b6 3e bd f3 4e 3e f3 aa 84 3e
       0.13625595 0.35700837 0.20210166 0.25911674
000140 82 ae 79 3e 9c 19 5a bd f8 bd 1e 3d e0 8d d5 3e
       0.24382976 -0.05324708 0.038755387 0.41709805
000150 ea cd c0 3e 05 ad 14 bf 63 74 af be 4e 39 0d be
       0.376571 -0.58076507 -0.34268484 -0.13791391
000160 1d 84 ee be c0 7d a0 be 23 01 6e be 08 48 07 be
       -0.4658517 -0.3134594 -0.23242621 -0.13211071
000170 1e a9 29 3c 19 68 ff be 95 0e 46 bf f1 5c 18 be
       0.010355262 -0.49884108 -0.77366 -0.14879204
000180 48 61 8e 3d fd 4d 81 3c c2 4c e3 3d 87 79 0b be
       0.06952149 0.015784258 0.11098625 -0.13620578
000190 88 88 24 3f 26 78 44 3f c6 f9 18 3f 0c ab db 3e
       0.6427083 0.7674583 0.59756124 0.42903936
0001a0 58 0d 97 3d 75 dd 86 bd ec 3b f5 be ed 94 90 be
       0.07375592 -0.06585208 -0.4789728 -0.2823862
0001b0 50 a6 8b 3e e0 14 a8 3c 18 3c e7 be 78 62 84 bf
       0.27275324 0.020517766 -0.45163035 -1.034255
0001c0 3a 17 5c bf fc 89 d4 3e 74 d2 07 3f df 3d b8 be
       -0.8597294 0.41511524 0.530555 -0.35984704
0001d0 9f bb a0 3e fc 04 b6 3e a3 c2 06 bf 11 45 74 be
       0.31393144 0.35550678 -0.5264074 -0.23854472
0001e0 cd c3 c7 bd ff 25 ae 3e 8d 6f 0b 3f 8b fb a9 be
       -0.09754143 0.34013364 0.5446709 -0.33199725
0001f0 fc e4 fc be 31 bc cf 3e 8e 8c 96 3e ef 7e df 3e
       -0.4939345 0.40573266 0.2940411 0.4365153
000200 6c ba 84 3c 47 98 38 3c ad 19 0b 3e 93 4a e7 3e
       0.016202174 0.0112667745 0.13584013 0.45174083
000210 1f 49 a9 3e 03 64 13 bf f8 c3 3e be f8 e8 ff be
       0.330636 -0.5757448 -0.18629444 -0.4998243
000220 aa 0d 13 be dc 96 a2 be 7a b7 db 3e 1d 29 ed 3e
       -0.14360681 -0.31755722 0.4291342 0.4632043
000230 2c 30 a7 be b3 15 08 bf ac 4a e2 be 6d d7 19 3e
       -0.3265394 -0.5315811 -0.44197595 0.15023585
000240 79 dc 9c 3e 41 16 65 3f a9 ce 15 3f be 2f 36 3f
       0.30636957 0.8948708 0.58518463 0.711666
000250 c7 c3 a0 bc a8 35 e6 3d f0 15 06 be d7 1a 5e be
       -0.019624604 0.11240703 -0.13094306 -0.21689926
000260 3a db 17 be a3 ec 61 3e 93 e1 80 be 87 4f 9a b8
       -0.14829722 0.22062926 -0.251721 -7.358105e-05
000270 12 d5 0a bf 31 08 bc be 16 a7 8a 3e c5 56 66 3e
       -0.5423137 -0.36725 0.270806 0.22494037
000280 22 72 8d 3e 6a 38 6e 3e 06 4b e1 3e 00 7f dd 3e
       0.2762614 0.23263708 0.4400255 0.43260956
000290 34 ba 12 3f de 4c be 3e 12 fc 99 3e ec 6d d5 3e
       0.57315373 0.3716802 0.30075127 0.41685426
0002a0 ab c3 b4 3e 39 4c 0d 3f 91 e3 41 3e 3d 63 54 3e
       0.35305533 0.5519443 0.18934466 0.20740981
0002b0 b6 96 be 3c 9a f6 24 3f 72 da 0e 3f 99 19 40 be
       0.023265224 0.64438784 0.5580207 -0.18759765
0002c0 b7 1a 9d be a7 60 ea be 8a c4 49 3e f0 90 9f 3c
       -0.30684444 -0.45776865 0.1970388 0.019478291
0002d0 74 97 b8 be 6c 20 03 bf 1b af 24 bf c6 0c 97 3e
       -0.3605305 -0.51221347 -0.6432969 0.29501933
0002e0 c2 0a 68 3e 1b 4f 14 3f 61 b1 a7 3e eb 73 76 3e
       0.22660354 0.57933205 0.32752517 0.24067657
0002f0 0e 09 b2 be e6 59 bc be cb d9 c7 3e 20 73 22 be
       -0.34772533 -0.36787337 0.3903335 -0.15864229
000300 d7 1d 42 be 40 1b 29 bd 2a 3b a0 be b1 69 19 bf
       -0.18956695 -0.041285753 -0.3129514 -0.599269
000310 ae c4 f8 be ff d9 08 bf b3 73 13 3b 85 0d ce be
       -0.48587555 -0.53457636 0.0022499382 -0.4024469
000320 20 63 a9 be 76 c6 ce 3e b6 e3 b3 3e 4d 70 11 bf
       -0.3308344 0.4038579 0.35134667 -0.5681198
000330 aa 0c 23 be 17 6d d9 be 99 61 f0 3e a5 27 3c 3f
       -0.159228 -0.4246604 0.4694946 0.7349799
000340 af 8a a0 be 8a 63 00 bc 8a bb c4 bd b4 b6 50 bd
       -0.31355807 -0.007836232 -0.09606083 -0.05095549
000350 4b f9 88 be a8 63 98 be 36 ef 45 be 34 99 78 be
       -0.26752695 -0.29763532 -0.19329533 -0.24277192
000360 cc a7 5c bf 89 65 33 bf 8b ec cc be fc 01 b1 be
       -0.8619354 -0.70076805 -0.40024218 -0.34571826
000370 fc 10 32 bf 0c df fd be 9a 8e 3d bf 0c 8e b8 bc
       -0.69557166 -0.49584234 -0.7404572 -0.02252867
000380 e7 5e c5 bd fd 8c f9 3e fe ee 31 3e 00 c2 7b 3e
       -0.09637242 0.48740378 0.17376325 0.24585724
000390 f2 3d 84 3f 4e e2 0c 3f 68 96 22 3a 5c de 7e be
       1.0331404 0.55032814 0.0006202222 -0.24889511
0003a0 b6 4d 7b bd 33 a4 ed 3d bf b1 28 bd 6e 89 a3 be
       -0.061353408 0.11603584 -0.041185137 -0.31940788
0003b0 82 df 03 bf ee 75 92 bd df 88 4c 3e a0 2a 37 3e
       -0.5151292 -0.071513996 0.19974087 0.17887354
0003c0 29 9d 9f 3e a6 bb 33 3f 15 de 21 3f d6 62 26 bd
       0.3117459 0.70208204 0.63229495 -0.0406216
0003d0 2a 9b ad 3e dc 7a 13 bf ea 03 55 bf 11 01 35 bf
       0.33907443 -0.57609344 -0.832091 -0.7070475
0003e0 91 6c 0d 3f ba e6 49 3f 91 ed 35 bf c0 b3 d8 3e
       0.55243784 0.78867686 -0.7106562 0.42324638
0003f0 69 6d 99 3e e0 fe 65 be 30 eb e5 be 91 4c 07 be
       0.29966286 -0.22460508 -0.44905996 -0.13212802

bn1.weight f4 [64]
000000 8f 91 65 3f bd 1f 9f 3f 58 01 42 3f 41 82 55 3e
       0.8967523 1.2431561 0.757833 0.20850469
000010 dc 40 91 3f 73 68 70 3f 49 7d 72 3f 23 cf 02 3f
       1.1347919 0.93909377 0.9472242 0.51097316
000020 eb e6 af 3f d0 b0 d4 3f 7b 45 8f 3f 5b 38 8d 3f
       1.3742346 1.6616459 1.1193079 1.1032823
000030 b9 6b 15 3f bf 2b 65 3f a0 53 8e 3f 82 23 17 3f
       0.58367497 0.89519876 1.111927 0.59038556
000040 ee a4 81 3f 5f 33 c0 3f 19 31 d3 3e dc 1b 85 3f
       1.0128458 1.5015677 0.41248396 1.0399127
000050 d1 70 96 3e 78 4a 6a 3f 73 db ba 3e 81 91 df 3f
       0.29382947 0.9151988 0.3649555 1.7466279
000060 f6 43 84 3f 85 a1 9b 3f 86 68 c9 3f 18 c6 a2 3f
       1.033324 1.2158667 1.5735023 1.2716703
000070 19 bf 15 3f a2 cb a2 3f 05 62 61 3f 38 bb 89 3f
       0.58494717 1.2718394 0.8804019 1.076026
000080 f2 ca 7b 3f df 41 16 3f ab b7 a1 3f 93 62 1d 3f
       0.98356545 0.5869426 1.2634176 0.6147854
000090 5f c2 e3 3f 2a 25 cf 3f 7a 21 3c 3f 54 25 c1 3f
       1.7793692 1.6183217 0.7348858 1.5089517
0000a0 76 16 8a 3f 30 cf c8 3f a3 59 9c 3f db b8 1c 3e
       1.0788105 1.5688229 1.2214855 0.15304892
0000b0 97 c6 81 3f d7 f0 86 3f c5 49 17 3f b5 36 3e 3f
       1.013873 1.0542248 0.5909694 0.74302226
0000c0 ed 2c 8d 3f e6 b3 94 3f aa 32 ab 3f fa ed 81 3f
       1.1029335 1.1617401 1.3374836 1.015075
0000d0 1f c9 82 3f 98 69 b0 3f a1 2c 96 3f 07 cb 9a 3f
       1.0217627 1.3782225 1.173237 1.2093209
0000e0 02 ac 43 3f 12 7d b9 3f 1a ad 29 3f 59 63 85 3f
       0.7643434 1.4491293 0.6627976 1.0420943
0000f0 cd c1 53 3f 97 ea d3 3e e5 55 80 3f 85 bd 27 3f
       0.8271759 0.41389915 1.0026213 0.6552356

bn1.bias f4 [64]
000000 75 c8 d0 be 12 6e 2c bf cf e0 69 bd 47 27 c8 3e
       -0.40777937 -0.67355454 -0.05709916 0.39092466
000010 29 5d 09 3f d6 d6 26 be e9 9e 90 be 5b 5a 9e be
       0.53657776 -0.16292891 -0.2824624 -0.3092831
000020 b5 85 8a be 67 f4 9f be 40 f9 e4 bc 17 70 e9 be
       -0.27055135 -0.31241152 -0.027950883 -0.4559333
000030 b9 6b de 3e 4e f3 80 be 99 e6 8c be 01 de d8 bc
       0.4344156 -0.25185627 -0.27519682 -0.026473047
000040 f7 ef 90 3e 05 41 92 3d 9c cf 81 be c5 e5 16 3f
       0.2830808 0.07141308 -0.25353706 0.5894435
000050 11 4b 19 be 86 3a e7 3e c8 4b c9 3e 3f ac fc 3d
       -0.14970042 0.45161837 0.3931563 0.12337541
000060 e7 2e cf 3e 85 27 5d 3f f9 c2 98 bc d1 5c ca 3e
       0.4046547 0.86388427 -0.018647658 0.39523938
000070 ca 01 e5 3e c9 30 3b 3e 03 29 25 3f e1 d0 30 3e
       0.44727927 0.18280329 0.64515704 0.17267181
000080 70 e6 8b be 58 a1 7a bd a9 c4 04 bd a3 ee 41 3e
       -0.27324247 -0.061189026 -0.032414112 0.18938689
000090 51 44 41 be af 57 11 bd d5 4b 87 be b5 45 84 bf
       -0.18873717 -0.035484012 -0.26425043 -1.0333773
0000a0 55 e3 84 be bf 64 54 bd 74 89 e9 bd ae 76 6a 3e
       -0.2595469 -0.05185389 -0.1140317 0.22896835
0000b0 c9 34 27 bf 45 d0 02 3f f6 9e 78 3c c9 11 b3 3e
       -0.6531492 0.51099044 0.015174618 0.34974506
0000c0 ad df 83 bc b2 e1 91 be b9 19 0c bf 23 76 64 3d
       -0.016097868 -0.28492504 -0.5472675 0.055776726
0000d0 95 49 d9 be 7f cb 0c bf 59 ac 95 3e 8a 4d 8a 3e
       -0.4243895 -0.5499801 0.29233053 0.27012283
0000e0 89 2a 9a be f6 cb 28 3f 76 95 20 3f db ac 0f 3f
       -0.30110577 0.6593622 0.6272806 0.5612313
0000f0 35 ee 59 bf 5f 86 82 be 21 e0 3d 3e 4a 29 82 bd
       -0.851291 -0.25493142 0.1854253 -0.063555315

bn1.running_mean f4 [64]
000000 85 4c 76 3f cc 7b 74 3f 9a 15 29 3f a8 32 92 3f
       0.9621051 0.955014 0.66048586 1.1421709
000010 5d f3 c0 3f 7b cb ac 3f df cc 95 3f 4a c9 5b 3f
       1.5074269 1.3499597 1.1703147 0.8585402
000020 42 cf d4 3f 8b 4c 42 3f f2 6b b5 3f 82 97 dd 3f
       1.662575 0.75898045 1.4173567 1.7311862
000030 b4 7a 52 3f 2a 1b 9b 3f 35 73 97 3f 3b 2f 87 3f
       0.8221848 1.2117665 1.1832033 1.0561289
000040 2d 31 07 3f e0 07 90 3f 8f 9d b0 3f 50 38 6c 3f
       0.5280941 1.1252403 1.3798083 0.92273426
000050 54 84 9e 3f 52 a3 81 3f 36 c9 87 3f 9f 59 7c 3f
       1.2384133 1.0127966 1.060828 0.9857425
000060 f9 f8 95 3f 32 fe 2b 3f 72 1b bb 3f 7d e7 81 3f
       1.1716605 0.67184746 1.4617751 1.014877
000070 2d 52 85 3f dc 0b a4 3f 3a 5d 69 3f 8b 87 03 40
       1.0415703 1.2816119 0.9115788 2.055148
000080 bb 75 94 3f f3 80 0a 3f d9 e1 a1 3f 1a 98 46 3f
       1.1598428 0.5410301 1.2647048 0.7757584
000090 62 60 94 3f 17 7d d0 3f d8 0b bb 3f 4d ad d3 3e
       1.1591914 1.6288174 1.461299 0.41343156
0000a0 8f 8c ef 3f 1b 52 a4 3f 96 7d 9e 3f 36 2a 09 3f
       1.871477 1.2837557 1.2382076 0.53580034
0000b0 aa a1 9e 3f 46 25 6f 3f a8 57 df 3f ed 3f 79 3f
       1.2393086 0.9341625 1.7448626 0.9736317
0000c0 a6 a7 87 3f f3 f4 f0 3f 50 76 6a 3f d0 52 6f 3f
       1.0598037 1.8824753 0.9158678 0.93485737
0000d0 7c dc b1 3f b1 82 6c 3f d4 09 6d 3f 52 94 4b 3f
       1.3895411 0.9238692 0.9259312 0.79523194
0000e0 da 72 b0 3f af 70 81 3f 0c a7 9c 3f d1 c4 76 3f
       1.378505 1.0112513 1.2238479 0.9639407
0000f0 35 b3 a0 3f 03 26 79 3f 29 a0 94 3f 56 69 95 3f
       1.255469 0.97323626 1.1611377 1.1672771

bn1.running_var f4 [64]
000000 0b 3c 79 40 fe fa 09 40 ba a9 b1 3f bd 7d 3d 40
       3.8942897 2.1559443 1.3879921 2.9607995
000010 ff 83 83 40 bb fc 4f 40 5a 66 94 40 f8 bf 46 40
       4.109863 3.2498004 4.637494 3.1054668
000020 91 37 86 40 3a 16 3a 40 af 1a 68 40 98 35 88 40
       4.194283 2.9076066 3.6266286 4.256542
000030 14 c9 2c 40 be 5a 31 40 37 50 18 40 3a be 9d 3f
       2.6997728 2.7711635 2.379896 1.2323678
000040 69 31 b6 3f 7e 80 7e 40 4a 23 5f 40 30 63 8c 40
       1.4233829 3.9765925 3.4865289 4.387108
000050 81 11 57 40 fd 74 52 40 07 1e 06 40 d9 02 42 40
       3.3604434 3.2883904 2.0955827 3.0314238
000060 81 15 9e 40 41 24 ad 3f bb d2 c2 40 7b a7 ec 3f
       4.940125 1.3526689 6.088224 1.8488611
000070 bd 11 48 40 70 de 5e 40 33 d0 d7 3f af 8f c7 40
       3.1260827 3.4823265 1.6860412 6.2362895
000080 eb 2c 64 40 3c d8 95 3f bd f4 27 40 ef 92 11 40
       3.5652416 1.1706614 2.6243126 2.274593
000090 9f b0 73 40 f8 3f 43 40 c8 fa b6 40 fa 9a 64 3f
       3.807655 3.0507793 5.718113 0.89298975
0000a0 78 d6 9f 40 f5 74 86 40 83 5b 48 40 3e 76 9d 3f
       4.9949303 4.201777 3.1305854 1.230171
0000b0 0f 86 37 40 4c 23 66 40 85 88 95 40 29 bb a6 3f
       2.8675573 3.5959044 4.672915 1.3025867
0000c0 93 f8 6a 40 56 67 97 40 95 ab 50 40 9c 4e 40 40
       3.6714218 4.7313643 3.2604725 3.004798
0000d0 85 89 93 40 19 ae fb 3f f0 2d 2d 40 a0 09 58 40
       4.610537 1.9662505 2.7059288 3.3755875
0000e0 58 9f 1d 40 90 04 06 40 72 42 57 40 0d 94 09 40
       2.4628506 2.0940285 3.3634305 2.1496613
0000f0 68 e5 ae 40 0b 9c 59 40 e6 71 54 40 d2 07 32 40
       5.4655037 3.400149 3.3194518 2.7817273

conv2.bias f4 [64]
000000 d3 d2 59 3f ed 8a 07 3f 0f 2f b9 be 4d 30 d2 be
       0.8508732 0.5294636 -0.36168715 -0.41052476
000010 9f e3 ee be 94 b4 c9 bd d9 34 34 be 40 08 41 bf
       -0.46658036 -0.09848896 -0.17598285 -0.75403214
000020 95 fc 8a bf 8a 8a c8 be 4a 74 7a be 02 e6 04 bf
       -1.0858332 -0.39168197 -0.24458423 -0.51913464
000030 27 73 51 be 73 4f 83 be df a5 df be 42 79 ac be
       -0.20454083 -0.25646552 -0.43681237 -0.33686262
000040 10 97 06 3f 7d 71 b6 bd e0 c2 01 3d 1a db 6c be
       0.52574253 -0.08908365 0.031679988 -0.23130456
000050 10 d5 54 3f 61 5a 1a bf d2 9e 9f be 31 99 5d 3d
       0.8313761 -0.6029416 -0.31175858 0.054101173
000060 0f eb 1b 3f 10 b0 a4 be 09 bb f6 bb 88 11 e3 bf
       0.60905546 -0.32165575 -0.0075296205 -1.7739725
000070 b7 6b 25 3d c3 c3 66 3f b1 bb 32 be 08 b8 63 3e
       0.040385928 0.9014246 -0.17454411 0.22238171
000080 ed 58 e5 bc fa af 22 3d c4 f4 cd bd 00 62 a1 bd
       -0.027996505 0.039718606 -0.10056451 -0.0788002
000090 fa 04 95 3e 37 20 8d bf f4 d4 98 bd 40 24 8c be
       0.2910536 -1.1025456 -0.074624926 -0.27371407
0000a0 e9 b5 0a 3c 2c a0 1b bf 44 cb b7 3e 0a 4e 42 3e
       0.008466222 -0.6079128 0.35897267 0.18975082
0000b0 25 7a 79 bd 53 5a 5a 3e 95 41 3e be 45 8c 08 bf
       -0.0609075 0.21323518 -0.18579705 -0.53339034
0000c0 1c fc f3 3e 99 e4 a3 be e4 bd b2 3e ca d9 b3 3e
       0.47653282 -0.32010344 0.349105 0.35127097
0000d0 0a 73 77 be 79 e8 01 3f ae d6 48 be 24 25 11 3f
       -0.24164978 0.5074535 -0.19613144 0.566973
0000e0 01 56 f3 3e c9 a2 fd 3e a8 79 3f be 9b e9 94 be
       0.47526553 0.49538258 -0.18698752 -0.29084477
0000f0 bc 84 d8 3e b6 4d a0 be f2 17 9d bd c3 d2 00 3e
       0.42288768 -0.3130929 -0.07670583 0.12580399

conv2.lin.weight f4 [64, 64]
000000 9b 0b 06 bd 1b 31 37 bf 0f ec 7b bf 11 68 96 bd
       -0.03272591 -0.71559304 -0.9840707 -0.07344068
000010 1b 0f 0b bf 18 66 88 be 44 bf ba 3d dd 78 e1 3d
       -0.54319924 -0.2664039 0.09118512 0.11009381
000020 01 a9 15 bf 97 90 1b 3e 27 bd e8 3e 36 2d f7 be
       -0.58461004 0.15191875 0.45456812 -0.4827668
000030 e8 a3 05 3f 85 63 7c 3e d0 90 92 bd d3 8b 16 3f
       0.52203226 0.24647339 -0.07156527 0.58807105
000040 39 be e6 3e 9d c3 85 bf 13 41 2c be ab 84 04 be
       0.45067003 -1.0450321 -0.16821699 -0.12941234
000050 ed ec 56 3e 35 34 96 3e bc 1f 16 bd 89 1e 02 bf
       0.20988818 0.29336706 -0.036651358 -0.5082784
000060 81 98 62 3e 0c 91 16 bd 6e 3d 4c bd d2 13 dc 3d
       0.22128488 -0.03675942 -0.04986327 0.10745968
000070 57 11 6a 3e 78 5d 34 3f 3b f1 4b 3f de 5d 50 be
       0.22858177 0.7045512 0.79664963 -0.20348307
000080 e7 25 7b be b1 c8 cb be a9 f3 68 bf 2c a5 5b bd
       -0.24526177 -0.39801553 -0.90996796 -0.053624317
000090 e1 62 44 3f 5b e9 c1 3e 58 d0 48 be 1c 37 d8 bc
       0.7671338 0.3787335 -0.19610727 -0.026393466
0000a0 93 4c c2 be 29 d4 7b 3e f9 34 47 bf 8e a5 70 3e
       -0.37949046 0.24592651 -0.77815205 0.23500654
0000b0 8a 91 d7 be 39 a0 33 be 0e a1 b8 3d 99 ac 8a bd
       -0.42103225 -0.17541589 0.09015094 -0.06771202
0000c0 37 38 34 bd 1c 1f 27 bf 7b c2 3d be c0 7a 95 3e
       -0.043998923 -0.65281844 -0.1853122 0.29195213
0000d0 c7 85 2e bf 31 41 2c be 3f 6b 08 3f 44 25 2e bd
       -0.6817288 -0.16821744 0.53288645 -0.042516008
0000e0 ef 17 d1 be 3e 1a 81 3f 3b 45 cb 3d a0 7a af 3d
       -0.40838572 1.0086133 0.09925314 0.08568311
0000f0 b7 6d 27 bf b2 e2 37 3d c0 4d 02 bf ef 26 11 3e
       -0.65401787 0.044893928 -0.5089989 0.14175008
000100 27 2b 2f 3e 30 0d 10 bf 33 bc 19 3e 9a 6f 6e bd
       0.17106305 -0.5627012 0.15013199 -0.0582119
000110 9b 5a b9 3e ab 35 a2 be e4 cb 80 3e e7 ad 3f 3e
       0.3620194 -0.3168157 0.25155556 0.18718682
000120 c0 84 db 3e a3 55 b3 be 73 ec a1 3c f0 a3 be be
       0.42874718 -0.35026273 0.019766068 -0.3723445
000130 5d 8d 69 3e 96 08 5d 3e 5d 3e a4 3d ba a2 27 be
       0.22807832 0.21585307 0.08019707 -0.16370669
000140 de 1d 9b 3d 4c ab 45 bf 0d 5c be 3e 46 b1 5a be
       0.07574056 -0.77214503 0.37179604 -0.21356687
000150 6f 6a 7d 3e 09 72 2e be ef a5 88 be 92 7f 25 bf
       0.24747632 -0.17035688 -0.26689097 -0.6464778
000160 f5 d0 7c 3e 02 7d ef be f7 a8 fa 3e 55 4a cb 3e
       0.24689086 -0.4677506 0.48957035 0.39705148
000170 00 1a b4 3e c9 a4 19 3f 81 c9 81 3e d4 8c 2d 3e
       0.35176086 0.6001707 0.25349048 0.16948253
000180 3c 49 c6 3e 3c b7 67 bc 8a f7 12 bd bc 69 a4 3e
       0.38727748 -0.014142808 -0.035880603 0.3211192
000190 80 7e b9 be 85 17 00 3e e6 ed 87 3d d8 1a f5 3e
       -0.36229324 0.12508972 0.066371724 0.47872043
0001a0 f8 10 38 be ae b4 49 be 80 f2 4a be 4d bd fe 3e
       -0.17975223 -0.1969783 -0.19819069 0.497538
0001b0 3f 2f f7 bb 12 be 8e be c0 03 c6 be 76 11 eb be
       -0.007543474 -0.27879387 -0.38674736 -0.4591176
0001c0 d8 39 bf bd e8 38 81 be 3c 7f 0a 3e 35 6f 88 3e
       -0.09337205 -0.2523873 0.13525099 0.26647344
0001d0 16 e0 13 bf 0a 3b 21 3f 54 fd 0d 3f 24 de 1c bd
       -0.57763803 0.6298071 0.55464673 -0.038297787
0001e0 5b 86 19 3f 7e a5 56 3f 5d cc d8 3d 0e c7 4e 3e
       0.59970635 0.8384627 0.10585854 0.20193121
0001f0 fc 8b f3 3d d8 25 01 3e dc 14 a4 3d 03 78 34 be
       0.11891934 0.12612092 0.08011791 -0.17623906
000200 33 d9 2d 3f 47 fe 22 3d 04 46 e5 bd 6b f2 34 3e
       0.67909545 0.03979328 -0.11194995 0.176706
000210 55 bc d8 3d 6b f8 f1 be 4e 18 9c 3e d6 7c fa 3e
       0.105827965 -0.4725984 0.30487293 0.48923367
000220 52 4d b8 be 9c 31 10 3e 14 f1 c5 3e 33 0e 12 bf
       -0.3599649 0.14081424 0.3866049 -0.57052916
000230 f4 94 05 3f 53 ba 86 3e 81 d4 82 3e 8e 01 33 3e
       0.5218041 0.2631403 0.25552753 0.17481062
000240 09 b6 e8 3e a4 39 4a be 82 24 92 3e cb 5d 15 bf
       0.45451382 -0.1974855 0.28543478 -0.5834624
000250 48 e6 cc 3e 1c fb f6 3d c2 fc 05 3f 45 ca 70 be
       0.4001944 0.12059614 0.523388 -0.2351466
000260 d8 da 63 3e db 99 b3 be d6 f9 f0 3e 91 ba 3b bd
       0.22251451 -0.3507832 0.4706561 -0.04583222
000270 62 97 33 3f fa 17 02 3f 82 40 8f 3e c4 92 8d be
       0.70152867 0.50817835 0.27978903 -0.27651036
000280 bb 0a 94 3e 7b 65 d9 3c 4a 2d 84 3d bf 74 5a bd
       0.28914437 0.026537647 0.06453951 -0.053333994
000290 a8 bd 8b 3e f8 56 87 3e 7e 2e 0b 3f e4 e1 d3 be
       0.27293134 0.2643354 0.54367816 -0.41383278
0002a0 ae 76 27 3e d7 1c 0f be 55 9b 93 be 1d 0c 2e 3e
       0.16353866 -0.13975845 -0.28829446 0.16996808
0002b0 90 95 ee 3c 1c 94 a1 be a3 ab 4e be 81 06 a2 be
       0.029124051 -0.3155831 -0.20182662 -0.31645587
0002c0 eb 23 13 3f b2 60 d4 be d5 60 24 3f eb eb 57 3f
       0.5747668 -0.41480023 0.64210254 0.8434436
0002d0 22 e6 4e 3d 2b 0d b3 3e bb 0e fd 3e eb ba df 3c
       0.05051244 0.34970984 0.494253 0.02731081
0002e0 d2 2e c7 3d 6b 4b 2f 3f 92 da 41 bd 29 10 47 3f
       0.09725727 0.68474454 -0.047327586 0.77759033
0002f0 a1 2e 25 be c5 54 60 3e 9c fb 44 be f2 80 73 3a
       -0.16131069 0.21907337 -0.19236606 0.00092889287
000300 9a 9b db 3e 08 75 1f 3e 1c 85 e6 3e 05 78 e3 3d
       0.42892152 0.15571988 0.4502343 0.11106876
000310 3f ae cc 3e 51 72 f7 be 58 17 11 bf 94 00 96 be
       0.3997669 -0.48329404 -0.56676245 -0.29297316
000320 83 67 60 be af 6e a4 be 9e 6f 81 3c e1 65 9c be
       -0.21914487 -0.32115695 0.015800294 -0.30546477
000330 32 6c e5 be 05 89 80 3e 4c 52 00 3f 6f ea ce bd
       -0.4480911 0.25104538 0.50125575 -0.101033084
000340 eb ba a7 3e 19 8d 15 3f 59 6e b0 3e 82 f9 54 3f
       0.32759795 0.5841842 0.3445919 0.8319322
000350 40 a9 f6 bd dc d7 52 3d 21 65 8a bd 0b 8c 34 3e
       -0.120440006 0.05147539 -0.0675757 0.17631547
000360 2c 36 0c 3d 8d 13 b6 bd d5 a8 7c 3e b0 ad e8 3c
       0.03423135 -0.08890448 0.2467378 0.028403133
000370 98 51 43 bf e9 d5 bc be 22 ee 5e be cf 15 38 3e
       -0.7629638 -0.3688195 -0.21770528 0.1797707
000380 2a a8 45 3e bb e3 69 3e fc 88 d0 3e a3 18 05 3e
       0.19302431 0.22840779 0.4072951 0.1299768
000390 fa f9 4c 3d 35 19 0b 3d 1e f6 28 bf 50 39 d1 3e
       0.050043084 0.033959586 -0.66000545 0.40864038
0003a0 bc 05 5c 3e 18 05 6a 3e 9c f4 3d 3f fe 16 11 be
       0.21486562 0.22853506 0.7420137 -0.14168927
0003b0 f3 a2 33 3e 81 fb 36 3e 63 06 b6 be 19 33 18 be
       0.17542629 0.17869379 -0.35551748 -0.14863242
0003c0 b7 44 8e be 4c e8 0c be 88 af a2 bd ac 46 9f be
       -0.277868 -0.13760489 -0.07943636 -0.31108606
0003d0 f3 30 21 3f a2 34 ce 3c 01 d7 8e be 1c e3 40 3d
       0.62965316 0.025171582 -0.2789841 0.04709159
0003e0 66 8b 61 bd 45 da be 3d a5 10 b5 bd 1a cf 31 bf
       -0.05506458 0.09318975 -0.08841065 -0.69456637
0003f0 e8 a0 1a 3e 96 a5 e6 bd 02 8d e8 3e c5 8f d2 be
       0.15100443 -0.11262052 0.4542008 -0.41125312

bn2.weight f4 [64]
000000 5d 77 c9 3f 55 97 69 3f 0e 0c b3 3e 64 e0 a9 3f
       1.5739552 0.9124654 0.34970134 1.3271604
000010 62 47 9e 3e 0f 8c 26 3f fc db 91 3f 4f 09 7b 3f
       0.30913836 0.6505746 1.1395259 0.9806108
000020 2e 2d e2 3f 21 cd a0 3e 9d e5 54 3f 00 4f f5 3e
       1.7670038 0.314065 0.8316286 0.47911835
000030 c3 f6 75 3f 2b b7 3e 3f 0e 62 51 3f 14 d9 91 3f
       0.96079654 0.7449824 0.81790245 1.1394372
000040 6a f1 80 3f 01 64 b0 3f 5f 74 37 3f ec 7b 3c 3f
       1.0073674 1.3780519 0.71661943 0.7362659
000050 af a2 e1 3f 69 1b 34 3f d1 fa 1d 3f 46 6a c6 3f
       1.7627772 0.70354325 0.6171084 1.5501182
000060 27 53 d4 3f f4 cc 88 3f 38 af 91 3f b4 35 9f 3f
       1.6587876 1.0687547 1.1381598 1.2438264
000070 68 60 a6 3f c2 ea 92 3f 76 97 bd 3f e3 d9 92 3f
       1.2998171 1.1477892 1.4811847 1.1472744
000080 e1 a7 5a 3f 2b 98 80 3f 2f 52 2f 3f cb 1b 0d 3f
       0.8541241 1.0046438 0.6848478 0.55120534
000090 39 53 5e 3f 05 ae bd 3f 5a 97 6b 3f 21 f6 89 3f
       0.8684574 1.4818732 0.9202782 1.0778238
0000a0 0d ac 49 3f 11 39 37 3f e9 db f0 3e 1b 7a d1 3f
       0.78778154 0.7157145 0.47042778 1.6365389
0000b0 38 bd 9d 3f bb 94 95 3f fa e7 43 3f 51 69 c5 3f
       1.232337 1.1686014 0.76525843 1.5422765
0000c0 a9 79 91 3f 26 c5 c7 3f 12 73 93 3f 5f 38 93 3f
       1.1365253 1.560704 1.1519492 1.1501578
0000d0 1b 2d cb 3f cd 95 ba 3e 16 bc 0a 3f 82 d0 a5 3f
       1.587314 0.36442414 0.54193246 1.2954257
0000e0 13 a8 1d 3f 3a dd 43 3f a0 d2 94 3f 68 58 73 3f
       0.61584586 0.7650944 1.1626778 0.9505677
0000f0 75 a1 d6 3f 33 01 81 3f e3 f0 89 3f 6d 23 aa 3f
       1.6768023 1.0078491 1.0776638 1.3292061

bn2.bias f4 [64]
000000 0e 32 8f 3d e1 f4 18 3c 04 a7 70 bd 5f 7d 10 3f
       0.06991969 0.009335727 -0.05875303 0.564413
000010 11 01 80 3e c4 25 bb 3d 57 7b 49 bd 18 33 cf be
       0.25000814 0.091380626 -0.04918989 -0.4046867
000020 37 52 83 bc 60 62 c9 3e c7 de ca bd 22 b3 09 be
       -0.016030414 0.39332867 -0.09905773 -0.1344724
000030 24 60 ab 3e f0 f8 39 be 43 35 86 be 7a 42 5d 3e
       0.33471787 -0.18161368 -0.2621251 0.2160739
000040 42 e8 99 bd 81 3a 80 3e 64 84 80 3e 88 c7 0f be
       -0.07515003 0.25044635 0.25101006 -0.14040959
000050 1a 02 ab bd 29 6f 52 be 94 b2 80 3e 57 75 33 3f
       -0.0835001 -0.20550217 0.25136244 0.7010092
000060 65 fb b8 be 9c 62 b1 3e e6 e6 e3 3e f6 9e db 3d
       -0.361293 0.34645545 0.445121 0.10723679
000070 cd 2f 48 3d 66 18 62 be c7 ac 73 3f 10 54 08 3e
       0.04887371 -0.2207962 0.9518551 0.13313317
000080 80 fb 53 3e f5 3f 91 3e 34 36 a2 bd f1 0b 60 3e
       0.20701408 0.28369108 -0.07920495 0.21879555
000090 6e ad 3d 3f a9 c7 17 3e b6 ec ea bd 2e 3f b2 39
       0.7409276 0.14822258 -0.1147093 0.00033997878
0000a0 ea 6b 0b be 9d 86 29 3d 83 af 1a 3d 82 7a bf bd
       -0.13615385 0.041388143 0.037765037 -0.093495384
0000b0 46 91 b2 3e f9 4a aa 3e 30 ad 34 bf c7 c6 55 3f
       0.3487646 0.33260325 -0.70576763 0.83506435
0000c0 e4 8a f4 be 76 5a 9a be dd a7 32 bf 69 60 ef bd
       -0.47762215 -0.3014714 -0.6978739 -0.11688311
0000d0 c2 84 a5 3c 45 96 0b 3d 6e 0f df be bd 83 03 bf
       0.020204905 0.034078855 -0.4356646 -0.5137289
0000e0 90 62 14 bf d0 f5 1b 3f 72 0d 97 3e 05 64 dc 3e
       -0.57962894 0.60921955 0.29502445 0.4304506
0000f0 08 82 53 3e 70 b5 d9 3e e1 e3 bf be 40 a4 a3 be
       0.20655072 0.42521238 -0.37478545 -0.3196125

bn2.running_mean f4 [64]
000000 44 bc 90 40 5c 03 06 40 da e1 3d 40 2c f9 97 3f
       4.5229816 2.093955 2.96691 1.1872916
000010 28 d8 29 40 2f 7d 0e 40 57 6b 5b 40 7e 0d 22 3f
       2.6538181 2.2263906 3.4284265 0.6330184
000020 c7 fb 87 3e e1 54 1f 40 93 78 04 40 db 7f c6 3f
       0.26559278 2.4895556 2.0698593 1.5507768
000030 cf d4 57 40 3d 03 0c 40 1a bc 5c 40 f3 8d 2c 40
       3.3723638 2.1876976 3.4489808 2.696164
000040 f5 63 6b 40 ce 58 4f 40 8f 69 50 40 dd 63 93 3f
       3.677976 3.2397952 3.2564428 1.1514851
000050 8f a1 ec 3f ae b0 1e 40 86 8d 2a 40 2e 3d d4 3f
       1.8486804 2.4795337 2.664888 1.658117
000060 24 ff e8 3f d3 bb 7c 3f 1b 31 09 40 e2 45 17 3f
       1.8202863 0.98724097 2.1436222 0.5909101
000070 75 a1 9d 3f c0 3f 0d 40 6d e8 24 40 d0 74 15 40
       1.2314898 2.207016 2.5766861 2.3352547
000080 39 d6 58 40 3f d3 0a 40 c7 f0 1a 40 f3 3a b2 3f
       3.388075 2.1691434 2.420946 1.392424
000090 89 00 93 40 dd 52 cd 3f 27 ef 68 40 53 71 c9 3f
       4.5938153 1.6040913 3.6395967 1.5737709
0000a0 c8 47 65 40 8c 01 7c 3f 45 7f 20 40 69 22 68 40
       3.5825062 0.9843986 2.507768 3.6271002
0000b0 19 87 4a 40 7e 65 1b 40 cc 86 32 40 a9 8e 55 40
       3.1644957 2.4280696 2.7894773 3.3368323
0000c0 90 e8 2d 40 1f ef 62 40 4b e5 e3 3f 46 a8 91 3f
       2.7173195 3.5458448 1.780435 1.1379478
0000d0 fb 4d 79 3f 5d 66 82 40 bf 95 64 40 78 87 8d 40
       0.97384614 4.0749955 3.5716398 4.4227867
0000e0 0c cd c5 3f 6f 7e 63 40 78 58 29 40 e5 9c 09 40
       1.54532 3.554592 2.6460247 2.150201
0000f0 d6 ea a7 40 a6 d3 16 40 45 a7 67 40 cd 7d 7f 40
       5.2474165 2.356668 3.6195843 3.9920533

bn2.running_var f4 [64]
000000 1d 06 22 42 c9 5e df 41 5b b6 6e 42 6c c2 7b 41
       40.50597 27.921282 59.67808 15.734966
000010 28 13 38 42 e6 07 eb 41 3d 7f 5d 42 e6 f7 ba 40
       46.018707 29.378857 55.374256 5.842761
000020 40 f9 0a 40 0c 76 2c 42 9a 18 bf 41 c3 95 c5 41
       2.171463 43.11528 23.887012 24.698126
000030 56 88 a5 41 4a 24 9b 41 a9 bc 58 42 d4 9f f1 41
       20.69157 19.39272 54.18424 30.203041
000040 17 7c b3 41 07 a5 cc 41 e7 3b af 41 dd 6f 11 41
       22.43559 25.58058 21.90425 9.08981
000050 19 9d 26 41 16 82 49 42 b4 5e 07 42 ec 31 0a 41
       10.413354 50.377037 33.842484 8.637188
000060 23 bc 9d 41 c9 f7 f3 40 97 39 2e 41 63 64 db 40
       19.716864 7.623997 10.88906 6.856004
000070 3f a1 43 41 37 f0 13 41 9c 52 93 41 52 27 d5 41
       12.226867 9.246146 18.415337 26.6442
000080 a4 71 b6 41 14 6f 90 41 db 0d f4 41 bb de 1d 41
       22.805489 18.054237 30.506765 9.866878
000090 c9 ab 18 42 fb e4 a0 41 83 f8 30 42 57 f8 03 41
       38.16776 20.111807 44.242687 8.24813
0000a0 7f 4b 75 42 a9 dc 1b 41 60 de 99 41 91 e4 51 42
       61.323727 9.741372 19.233582 52.47321
0000b0 02 43 a4 41 d3 7a 84 41 8c 53 53 42 4a 5a 32 42
       20.532719 16.559973 52.83159 44.588173
0000c0 c3 3b 32 42 31 d9 8a 42 f8 98 f1 41 de b8 7c 41
       44.55836 69.4242 30.199692 15.795134
0000d0 4b 55 83 41 45 81 da 41 43 6f 2e 42 ca f1 a1 42
       16.416647 27.31312 43.608654 80.972244
0000e0 ff d5 f0 40 37 42 a2 41 f1 2b 8f 41 5c 3b 29 42
       7.5261226 20.282331 17.896456 42.30797
0000f0 6a 59 0f 42 fb 60 c0 41 9e 90 5d 42 08 61 93 42
       35.83732 24.047354 55.391228 73.689514

fc1.weight f4 [64, 64]
000000 53 4f 5c 3e a0 19 b9 3e 75 26 77 bd ae 4f dd be
       0.21514635 0.36152363 -0.06033941 -0.43224853
000010 a8 52 be 3c 72 f5 25 3e ce 5b 5e 3e d9 b8 34 3f
       0.023232773 0.16206911 0.21714708 0.70594555
000020 9a 01 f3 3e 7b dc 08 be 4b ad 40 3e 29 51 8f bd
       0.4746216 -0.13365357 0.18816106 -0.06997902
000030 2a e6 5a be 03 83 6a 3e 3f e8 0b 3e 7f 7a 1d bd
       -0.21376863 0.2290154 0.13662814 -0.0384469
000040 21 c4 78 3e 87 4f d8 bd 58 f6 15 bc f7 63 00 3e
       0.24293567 -0.10562044 -0.009152971 0.12538134
000050 a9 06 81 be 39 e5 a5 3e f9 0b 33 be 9d 06 ec bc
       -0.25200394 0.32401446 -0.17485036 -0.028811747
000060 73 12 a1 3e e1 0b c7 be 9b c3 cf bd de cc d8 3e
       0.31459388 -0.3887625 -0.10144731 0.423438
000070 28 99 7b 3c 5c 62 84 be af 6a 39 bf 78 6b 6c be
       0.0153563395 -0.25856292 -0.7242841 -0.23087871
000080 85 7a 6d be 54 01 42 be 94 7a b0 bc 86 00 9b bd
       -0.23191269 -0.18945819 -0.021542825 -0.07568459
000090 d7 45 17 be c4 aa 1b 3e 6a 79 a6 3e 1e eb a3 be
       -0.14772736 0.1520186 0.32514507 -0.32015318
0000a0 05 a2 93 3e 02 e5 8c 3e 6f 61 22 be 1b fa 8c 3e
       0.2883455 0.2751847 -0.1585748 0.27534565
0000b0 6c 43 c3 be 6d 23 40 be be 7d d1 3e fc 19 46 be
       -0.38137376 -0.18763514 0.40916246 -0.1934585
0000c0 9c 1d e3 3d 2b 32 0e 3f fa 17 31 3f 9a f8 9d 3e
       0.11089632 0.555453 0.6917721 0.3085373
0000d0 1e b9 0e 3f d4 a3 39 3e 9e c0 63 3e c0 4d eb 3e
       0.55751216 0.18128902 0.22241446 0.45957756
0000e0 cd 92 01 3f e8 1f b2 be 4b de 11 be 70 b1 69 3e
       0.50614625 -0.34789968 -0.14244954 0.22821593
0000f0 e7 4f 3f 3e da 23 01 3e 85 58 82 3e 44 1d e0 3e
       0.18682824 0.12611333 0.2545816 0.43772328
000100 ef c5 c3 bd 5f 74 a9 3e 11 5d 14 3e ca 73 eb 3e
       -0.09559237 0.33096597 0.14488627 0.45986778
000110 75 97 3a be 87 1a f9 3e 41 c2 8c 3e 80 2f 85 3e
       -0.18221839 0.4865305 0.27491954 0.26012802
000120 a9 db 66 be f7 b2 28 3e a4 8c af be 11 89 b6 3e
       -0.22544731 0.1647452 -0.34286988 0.35651448
000130 ca 21 f7 3e 6e d5 94 be b3 ed ab bd 02 5f 8c 3e
       0.48267967 -0.29069084 -0.08394947 0.27416235
000140 40 51 c8 be eb 3d 1d be a0 fa ce 3e d1 62 36 be
       -0.3912449 -0.15355651 0.40425587 -0.17811133
000150 f6 b7 8c 3e a1 bf 1f 3f ce d7 c4 3e 68 d8 4d 3e
       0.274841 0.6240178 0.38445896 0.20102084
000160 70 90 9b be 4e 83 9e 3e f8 d7 87 3e 21 09 ef 3e
       -0.30383635 0.30959553 0.2653196 0.46686652
000170 f8 a5 71 3e e2 c6 49 be 39 82 c6 3e 75 b7 91 3e
       0.23598468 -0.19704774 0.38771227 0.2846028
000180 9a f8 3d 3e 30 0b 69 3e 79 ce ac bd 0b 90 94 3e
       0.18551865 0.22758174 -0.08437819 0.29016146
000190 d3 d6 75 3e 4b d7 96 be a3 2d df 3e f3 ad d7 bd
       0.2400773 -0.2946113 0.43589506 -0.10531225
0001a0 8f 61 fb 3d 6c 08 20 3e e6 1a 84 3e 15 93 c3 3e
       0.12274467 0.15628213 0.25801772 0.38198152
0001b0 e2 2c 92 be c4 67 5e 3e 30 2e 2f be 49 e9 d9 3e
       -0.28549868 0.21719271 -0.17107463 0.42560795
0001c0 d6 bb 04 3f fc 35 82 3e 8d 6a 2c 3f c2 27 30 3f
       0.51849115 0.25431812 0.67350084 0.68810666
0001d0 a6 f0 23 3f 23 14 0c 3f d9 b7 c4 3e a1 0c 66 bd
       0.64039075 0.54718226 0.38421515 -0.056164388
0001e0 f9 3c c3 3e 2c ca 5c 3e 4e 35 cb be 97 e2 42 be
       0.38132456 0.21561497 -0.39689106 -0.1903175
0001f0 50 40 59 be 68 39 06 3d 2a 9a be 3e f5 29 14 be
       -0.2121594 0.03276959 0.37226993 -0.1446913
000200 bc 20 e0 3e 3b 0c 91 bb b5 82 8d be 4e ad 86 3d
       0.43774974 -0.004426507 -0.27638784 0.06576024
000210 d4 7b 13 be 96 b1 af 3e 64 91 c8 3d a8 21 d6 3e
       -0.14402705 0.34315175 0.09793356 0.41822553
000220 10 95 c6 be 58 c3 05 be f1 18 38 be 68 0a 74 3e
       -0.387856 -0.13062799 -0.17978264 0.23832095
000230 a7 d9 84 3e 19 4d 9b 3e f5 90 12 3e 51 cc 05 3e
       0.25947306 0.30332258 0.14313109 0.13066222
000240 45 f7 30 3e 52 f9 86 3e ab ae fa be c9 1c 23 be
       0.17281826 0.2636209 -0.48961386 -0.1592895
000250 4e 85 ed be 86 4e 21 be 3a dc 8d 3b 2c a5 0d 3f
       -0.46390766 -0.1575261 0.0043292316 0.5533016
000260 5f 5d 8f 3e ee a5 1d 3f 8d b0 bf 3e f5 45 44 be
       0.28000924 0.61581314 0.37439385 -0.19167311
000270 d9 0b 0a 3f cc c0 a6 bd 1e f6 f9 bd 58 6a 97 3e
       0.5392433 -0.08142242 -0.12205146 0.2957332
000280 16 78 ea 3e f8 e2 b8 3e f3 14 24 be de 66 69 be
       0.45794743 0.36110663 -0.16023616 -0.22793147
000290 0c 0a 0e 3e fb 4a 93 be 56 a2 c1 be e8 e2 ec 3e
       0.1387102 -0.28768143 -0.37819165 0.46266866
0002a0 59 32 b6 be 58 be fa 3d df 43 87 3e 27 16 38 bf
       -0.35585287 0.122433364 0.2641897 -0.719088
0002b0 82 65 94 3e 37 ee 90 3d 08 21 ae be 00 93 71 3e
       0.28983694 0.07076686 -0.34009576 0.23591232
0002c0 46 dd 9d 3e df 77 18 bf 78 73 d5 be ee c8 3d bc
       0.3083288 -0.5955791 -0.41689658 -0.01158355
0002d0 ba 6d fd be ef ae 2c 3e 2d c0 d9 be b0 fd 2b bf
       -0.49497777 0.16863607 -0.4252943 -0.6718397
0002e0 e1 ad a4 be 04 d7 a4 3e 6c cd d3 bb 24 c8 8e bd
       -0.3216391 0.32195294 -0.006463697 -0.069717675
0002f0 64 57 8c 3e f0 7a 88 3d c7 3d 89 bd 7f 35 e4 bc
       0.27410424 0.066640735 -0.06701236 -0.02785754
000300 25 96 fe 3e 01 9b b6 3e ff d8 47 bc df 66 69 3e
       0.49723926 0.35665134 -0.012197732 0.22793148
000310 83 46 b4 3e 69 ff e6 3e 16 8b ef 3d 39 d6 45 3e
       0.35210046 0.45116737 0.116964504 0.1932
000320 79 42 26 be 8f 54 25 be db de 02 bf 01 82 a4 3e
       -0.16236295 -0.16145538 -0.511213 0.32130435
000330 b9 1b a5 be 86 c8 a0 be c1 db c1 3e c7 e1 1d be
       -0.32247713 -0.31402987 0.3786297 -0.15418158
000340 1b f2 67 bc e4 20 29 be 0e d2 0a bf 5a 25 09 3f
       -0.014156844 -0.16516453 -0.5422677 0.5357262
000350 8c ee fd be f8 d6 df 3e 6d 1c 7d be 53 78 f6 bb
       -0.4959606 0.43718696 -0.24717875 -0.007521668
000360 b1 4f 67 3e 93 09 b9 3e 50 5f 54 3e 7f 06 3e 3e
       0.22588994 0.36140117 0.20739484 0.18557166
000370 f2 6c dd 3e 1f a9 16 bf 4f 5a a1 3e 3e 65 ff 3e
       0.4324718 -0.5885181 0.31514212 0.4988193
000380 ba a5 fb 3e f5 19 fc 3d 28 9a 8d bd f6 38 d5 be
       0.49149877 0.123096384 -0.069141686 -0.4164502
000390 2b 38 cb 3e 7a ae 5b be b2 fb f6 3e 56 77 e4 bd
       0.3969129 -0.21453276 0.48238903 -0.11155574
0003a0 9c 07 3b 3e 4a cf cf 3e e6 57 c7 3e ec e6 90 bc
       0.18264621 0.40587837 0.3893425 -0.017688237
0003b0 45 20 3b 3e e8 49 87 bd dc b2 a1 3d e5 ce cb 3e
       0.18274029 -0.066058934 0.07895443 0.39806286
0003c0 ca 28 d0 3e 35 c4 e4 3e 19 e7 a2 3e 65 7f fb bc
       0.4065612 0.44680944 0.3181694 -0.030700395
0003d0 00 f3 1c 3e 62 e6 17 be e6 45 66 3e f8 14 97 bd
       0.15327072 -0.14833978 0.22487602 -0.07377046
0003e0 1c 68 f4 bd 99 b6 59 3e b5 e3 89 3d 87 43 08 3f
       -0.1193392 0.21261062 0.06732885 0.5322804
0003f0 c4 62 f6 bd 2e a6 91 bd 73 46 19 3f 8f 99 08 3f
       -0.12030557 -0.071117744 0.5987312 0.5335931

fc1.bias f4 [64]
000000 d9 9a 2d bf ff 27 7f be d2 d7 c4 bd be 85 34 3e
       -0.67814404 -0.24917601 -0.09611477 0.17629144
000010 6a 20 f2 3e b7 8c 41 3e 8c 8e e4 be f5 c7 1a bf
       0.47290355 0.18901335 -0.44640005 -0.6046136
000020 6c a2 15 be 94 16 ef 3c f3 b0 d9 3e 93 4a 50 3e
       -0.1461274 0.02918557 0.42517814 0.20340948
000030 16 99 22 bd 7a ee 33 be 3e 2c 0f be 06 77 60 3f
       -0.039696775 -0.1757144 -0.13981721 0.87681615
000040 9d 92 42 3e 61 ca 95 3d 5a 82 72 3e a2 26 2a bd
       0.19001241 0.07313991 0.23682538 -0.04154075
000050 57 e8 89 3e 62 1b c8 bd 8a 6b 95 3d 63 ca e9 3e
       0.26935074 -0.09770848 0.07295902 0.4566222
000060 d7 cb 93 3d fe 08 2f 3e c9 4a 8d 3e 5e 4e d0 bd
       0.07216614 0.17093274 0.2759612 -0.10171197
000070 15 68 26 bf 6c 05 61 3e ff a2 66 3e 51 fb 9b be
       -0.65002567 0.21974725 0.22523116 -0.30465177
000080 5c 40 61 3e a7 c4 c7 be 38 84 92 bc 4e 27 2e bf
       0.21997207 -0.3901722 -0.017885312 -0.68028724
000090 53 17 d2 3d 6b 39 b7 3e ec 7f 28 be 4a f7 90 bb
       0.10258355 0.35785994 -0.16455048 -0.0044240104
0000a0 eb a0 de bd 88 44 32 3f 1f ff c4 3e 3a 14 ca be
       -0.108705364 0.6963582 0.38475892 -0.39468557
0000b0 56 6d fd 3e db 93 c1 be 61 25 08 be a0 07 c3 3e
       0.4949748 -0.37808117 -0.13295509 0.38091755
0000c0 30 2c cf 3e 11 90 0c 3d b3 9a 92 be 6f 83 48 be
       0.404634 0.03431708 -0.2863365 -0.19581388
0000d0 39 43 8b 3e 2b 33 d9 be 3e e9 6a be 51 40 ac 3e
       0.27199724 -0.4242185 -0.22940537 0.3364282
0000e0 e7 b4 b1 be a1 dc d9 3e d9 38 c6 be ce 44 0c bf
       -0.3470833 0.4255114 -0.38715246 -0.5479249
0000f0 84 b7 28 3f c1 31 a2 3e 29 0f 95 be ea fd 8e be
       0.6590502 0.31678584 -0.2911313 -0.27928096

bn3.weight f4 [64]
000000 f2 c6 43 3f dd f6 01 3e 7b 68 18 3f 28 48 8e 3d
       0.7647544 0.12691827 0.59534425 0.069473565
000010 b7 af d1 3e 2b e3 83 3e d2 32 23 3f a1 a6 b7 3e
       0.40954372 0.25759253 0.6374942 0.35869315
000020 ad 63 17 3f 91 e8 40 3f 4d 34 0d 3f da 51 82 3f
       0.5913647 0.7535487 0.5515793 1.0181229
000030 d7 45 0f 3f ae 4b 3f 3f f5 f1 b3 3e 16 5f 53 3f
       0.5596594 0.74724853 0.35145536 0.82566965
000040 2c 79 3d 3f f0 94 41 3f ff da 08 3f 31 ba 2c 3f
       0.7401302 0.75617886 0.5345916 0.67471606
000050 64 4d 4c 3f 29 03 af 3e f7 f3 c8 3e 85 3b 12 3f
       0.7980559 0.34182099 0.3924863 0.5712207
000060 2d ec 42 3f 25 3c f9 3e 53 94 09 3f e0 41 2b 3f
       0.76141626 0.486787 0.5374195 0.6689739
000070 24 c0 7c 3e 71 fa 49 3f e0 90 d2 3e bf 08 57 3f
       0.24682671 0.7889777 0.41126156 0.8399772
000080 03 d6 80 3e 90 90 32 3f 00 77 5f 3f 1d 19 27 3f
       0.25163278 0.69751835 0.87290955 0.65272695
000090 61 e5 23 3f 35 7a 23 3f 09 a1 f6 3e bf 05 21 3f
       0.6402188 0.6385835 0.48169735 0.6289939
0000a0 60 a7 12 3e e8 79 f7 3e db ee f4 bc df e3 2f 3f
       0.14321661 0.48335195 -0.029899051 0.6870708
0000b0 6f 90 00 3f f8 41 53 3e 68 1b 52 3e f1 06 34 3f
       0.5022039 0.20630634 0.20518267 0.7032309
0000c0 21 9b a0 3e 6f 50 87 3f a6 cc 89 3f 7c 05 83 3e
       0.31368354 1.0571421 1.0765579 0.25590122
0000d0 22 cf cb 3e 0a 1d 16 3d c0 46 35 3f 47 c4 1c bc
       0.39806467 0.036648788 0.7081108 -0.009568281
0000e0 af ff 20 3f 55 73 3b 3f 1c d3 24 3f 52 d1 ca 3e
       0.6289014 0.7322286 0.6438463 0.39612824
0000f0 ae 2a 48 3f 6a 2e 6e 3f ad fc 1f 3f 9c 22 17 3f
       0.78190124 0.9303957 0.6249493 0.59037185

bn3.bias f4 [64]
000000 94 7d a0 be d7 e4 b9 3e a1 2c c0 3e be 3f 08 be
       -0.31345809 0.36307403 0.3753405 -0.13305566
000010 3d 55 c0 3c 0c 80 a3 be fa 85 e8 be f0 05 ae 3e
       0.023478145 -0.3193363 -0.45414716 0.33988905
000020 b1 0d ce 3e cd fb 20 3e 91 42 2b 3d 93 f0 5d 3e
       0.4024482 0.15721054 0.04181153 0.21673803
000030 94 7f ad 3e 38 0a 89 be 9a af 84 3d b3 6c 2a 3e
       0.33886397 -0.2676561 0.06478806 0.16643028
000040 5d 77 c0 3d 23 db 14 3f 6e 2c 2d be 36 ea 01 3f
       0.09397767 0.58146876 -0.1691148 0.50748
000050 67 0d 55 3e dd f7 ce 3c b8 00 20 3e bb e3 82 bd
       0.20805894 0.025264675 0.15625274 -0.063910924
000060 f1 94 8b 3e 7a a0 66 3e a7 ec df 3e 40 eb 04 be
       0.2726207 0.22522154 0.4373524 -0.12980366
000070 d5 63 2a bd 34 5a fa be 63 92 c2 3e a3 e7 0c 3f
       -0.041599113 -0.48896945 0.3800231 0.5504095
000080 52 30 f9 be 17 0c 0a 3e ae 4a e3 3e 04 97 fd 3e
       -0.48669678 0.13481174 0.44392914 0.49529278
000090 41 28 a1 bb 6f a7 aa be b0 e9 d8 bd 0f 42 0f bf
       -0.0049181287 -0.33330867 -0.10591447 -0.5596017
0000a0 ce 9f 72 bc b5 19 12 bf 9c ea 2a 3d 08 2e ed 3e
       -0.014808608 -0.57070476 0.041727647 0.46324182
0000b0 02 5c 27 3e 11 2c 04 3f e2 6f d6 3d b4 36 b8 be
       0.16343692 0.5162974 0.10470559 -0.35979235
0000c0 73 db d8 3d 92 ae 1c 3f 08 71 22 3e 55 e4 41 3d
       0.105887316 0.61203873 0.1586343 0.047336895
0000d0 85 51 cc 3e f5 d4 a4 3e 90 72 a6 3e e6 ec fd bd
       0.39905944 0.32193723 0.3250928 -0.123987004
0000e0 b5 29 84 bd 8c 7f 96 3e 1d eb fa bd 2f 9c ef 3b
       -0.064532675 0.29394186 -0.122518755 0.0073123197
0000f0 45 87 df 3e 55 9d 0c 3f c3 84 26 be 3e c7 dc be
       0.4365789 0.5492757 -0.16261582 -0.4312076

bn3.running_mean f4 [64]
000000 2c 06 b0 40 87 07 89 41 12 05 ec 41 7f 2e 81 41
       5.5007534 17.128675 29.502476 16.147703
000010 c9 4a cb 41 13 cf 1a 41 34 7c 25 41 04 f2 94 40
       25.411516 9.675555 10.342823 4.654543
000020 92 14 b9 41 3f 32 eb 41 06 58 da 40 35 8e 35 41
       23.135044 29.399534 6.823245 11.3472185
000030 f2 cd 0c 42 d5 2c b1 41 64 71 cc 41 4d 0f 73 41
       35.20112 22.14689 25.555367 15.191236
000040 03 f3 87 41 dd d5 80 41 86 35 67 41 1b 02 18 42
       16.993658 16.104425 14.450567 38.002056
000050 ec 4d 1e 42 32 69 c7 40 9e 94 dc 41 cd ea 7d 41
       39.576096 6.231591 27.572567 15.869824
000060 b1 7a 1e 41 dc ff 0f 42 3f b5 00 42 0d 5f c5 40
       9.904954 35.999863 32.177 6.167853
000070 9e 1e bc 40 c4 90 69 41 45 b8 af 41 be 6b 92 41
       5.8787374 14.597843 21.964975 18.302608
000080 51 b3 47 41 c8 d8 67 41 64 bf 93 41 fe ce a2 41
       12.481278 14.490425 18.468452 20.35107
000090 ba 41 c5 41 78 3b 02 41 7f 42 06 41 2c a8 80 41
       24.657093 8.139519 8.391234 16.082115
0000a0 eb d8 19 41 0c a8 10 41 a9 4b 69 41 50 3f 27 41
       9.6154585 9.041027 14.580972 10.452957
0000b0 12 98 da 41 47 91 cb 41 4e b7 4b 41 0d 85 46 41
       27.324253 25.445936 12.732252 12.407483
0000c0 98 a2 31 41 12 f7 36 42 d9 86 68 41 65 6b 2f 41
       11.102196 45.74128 14.532922 10.963719
0000d0 21 63 00 41 63 12 6d 41 6b 56 0d 41 a8 26 c8 40
       8.024201 14.816989 8.833598 6.254719
0000e0 fb c0 50 41 92 6e c3 41 64 ab 12 41 43 1e 68 41
       13.047114 24.42899 9.166843 14.507388
0000f0 2f d7 be 41 d2 ac 6b 41 7c d7 32 41 c6 71 7d 40
       23.85507 14.729692 11.1776085 3.9600692

bn3.running_var f4 [64]
000000 2d 85 01 44 a7 41 9e 44 ca 75 37 44 df 9f 9d 44
       518.0809 1266.0516 733.84045 1260.996
000010 01 a2 81 44 48 7b 04 44 ff 93 43 44 06 ce 3c 43
       1037.0626 529.9263 782.31244 188.80478
000020 4a ed 15 45 a0 e4 93 44 ef 06 5c 43 4f 51 11 44
       2398.8306 1183.1445 220.02708 581.27045
000030 14 7f a6 44 29 83 6c 44 52 22 24 44 d7 a6 38 44
       1331.9712 946.0494 656.53625 738.6069
000040 90 b2 88 44 85 d1 55 44 54 a4 59 44 a3 47 98 44
       1093.5801 855.27374 870.5676 1218.2386
000050 1e f4 90 44 9c 89 ff 43 13 f8 b3 44 c7 25 6d 44
       1159.6287 511.07507 1439.7523 948.5903
000060 26 3e 30 44 f6 bb 6d 44 b7 8f 88 44 1e c2 45 43
       704.97107 950.9369 1092.4911 197.75827
000070 f8 aa ef 43 a9 fc c2 44 45 af 92 44 7b 4b 3e 44
       479.3357 1559.8956 1173.4772 761.1794
000080 6f c3 7b 44 ae 39 6a 44 dd f1 76 44 84 57 dc 43
       1007.05365 936.90125 987.7791 440.68372
000090 16 af 92 44 b4 2c 10 44 eb 08 d7 43 90 bc be 44
       1173.4714 576.6985 430.06967 1525.8926
0000a0 fe dc bc 43 11 53 49 43 dc 9b 8a 44 81 9b 8e 44
       377.7265 201.32448 1108.8706 1140.8595
0000b0 a0 6d 76 44 71 01 54 44 9a e4 f2 43 77 86 67 44
       985.7129 848.0225 485.78595 926.101
0000c0 3e 45 86 44 ff f9 e1 44 25 05 11 44 97 2a 92 43
       1074.1638 1807.8124 580.0804 292.33273
0000d0 4c 41 9f 43 63 5d 27 44 60 86 6e 44 be cf 08 44
       318.51013 669.45917 954.0996 547.246
0000e0 65 f0 10 44 ce bd 28 44 b4 e5 ce 43 46 7e b9 43
       579.75616 674.9657 413.79456 370.9865
0000f0 69 c1 b4 44 14 af a1 44 cc e1 6d 44 70 68 b3 43
       1446.0441 1293.4712 951.5281 358.81592
