tuning_results/best_models_during_tuning_lightning_logs/eo_stand_GCN_best_model_logs/checkpoints/epoch=42-train_loss=1.45-train_f1=0.32-val_loss=1.55-val_f1=0.37.ckpt (torch, 157362 bytes, 54 tensors)

conv1.bias f4 [64]
00000000: cc92 7dbf 0a6f 1f3c 510d 3a3e 2b92 c4be
00000010: 8ec6 983d bd75 89bf 5822 c6be a2e2 a4bf
00000020: cab2 06be b657 a1bf e26a f4bf fc43 713f
00000030: 8461 7cbf 6f5a a33e e4b7 6f3e e061 fc3c
00000040: 798a 07c0 bd9f 71bf 8067 463e aa4e 39c0
00000050: 5c79 a63d 978c 08c0 ad2f 8b3d 3fdc 50be
00000060: 6635 98bf e63f 9abe 248e 13bf 8fed 363f
00000070: 7ab9 41bf 3776 babd 0a33 653f 37e5 dbbe
00000080: bb94 c0bf c883 a1bf 2b72 8d3d c7eb c3bf
00000090: 7948 7b3d 80b9 8abf 7446 14bf 4f81 2dc0
000000a0: 8742 46bf e40d d03f d7e5 513e 7373 01bf
000000b0: 1923 bcbf 1961 edbe e556 b33e 2f31 013f
000000c0: 94b1 07bf cbbd dc3e 8712 f4be 72d4 cabd
000000d0: 6529 e2be 53af 26bf 72dc c13e 18ff 7abf
000000e0: 711f 2a3f 6246 09be bcf9 a33e a626 793f
000000f0: 2d49 c2bf 507a 17bf 434f 213f 58b0 3bbf
-0.9905212 0.009731064 0.18169142 -0.38392767 0.07459746 -1.0739056 -0.38698077 -1.2881663
-0.1315414 -1.2604892 -1.9095118 0.9424436 -0.985863 0.31904933 0.23409992 0.03080839
-2.1178267 -0.94384366 0.1937542 -2.8954263 0.08128616 -2.133581 0.06796203 -0.20396517
-1.1891296 -0.30126876 -0.57638764 0.71456236 -0.7567364 -0.09104579 0.89531004 -0.42948315
-1.5045389 -1.2618341 0.069065414 -1.5306329 0.061348412 -1.083786 -0.5792 -2.7110174
-0.7744526 1.6254239 0.20497833 -0.50566787 -1.4698211 -0.46363142 0.35027233 0.50465673
-0.5300534 0.4311355 -0.47670385 -0.09903802 -0.44172207 -0.65111274 0.378635 -0.9804549
0.66454226 -0.13405755 0.3202647 0.973246 -1.5178581 -0.5917101 0.6301157 -0.73315954

conv1.lin.weight f4 [64, 25]
00000000: fa0d 3e3f 11d5 f4bd 0176 a6be a484 aa3e
00000010: ee00 07bc 18ee ce3d 4987 afbf 1400 86bf
00000020: 9fb2 66be 1f2f b9be f981 9cbe 28f2 683f
00000030: b1d8 293f ef00 cdbd de54 68be fc70 d13d
00000040: ac37 1bbf b754 3cbf e1bf 713e 0409 e2bc
00000050: cd4e bdbe 4856 92be d0ee 71be 57a7 b6be
00000060: f5af a83d acbd a53d 9625 47bf 5957 66bf
00000070: 78f3 503f 56d8 993e 3a3c bc3f 801a 453f
00000080: a41e 4b3f ab27 013f e2fe 943d fd13 253f
00000090: ac17 a6be 1403 313c a961 d9be 49cf 21bf
000000a0: 3952 b5bc 6b94 933f cb55 883f 2ef6 7dbf
000000b0: bebf 16bf 8135 17bf 6c7f 463f e11e 313f
000000c0: b39e dabd fa1c d7bd d44c 3b3f 7fd2 fdbe
000000d0: 43cd 33bf 18ca 983e 5221 923e e73d b23f
000000e0: 33b5 913f d99f 9a3f 1dbc 3bbd ecee bdbd
000000f0: 1480 ffbd 0b65 1abf 1762 a3be d56e 99bf
00000100: bdfe 70bf 0a1f 13bf d732 393f 4155 483f
00000110: 0daa 93bd 16b2 aebe a654 5abf d63b 303f
00000120: 9878 8c3e 1491 d8be e412 56be 65b4 2d3f
00000130: 6de4 573e a8f8 dc3e 83e6 0e3f 1ed9 063f
00000140: ccd3 073f c973 e93e 5c47 0c3f ceea 173f
00000150: 5a04 263f e678 f2be 02ac 57be 4b92 bfbb
00000160: b39b f2be 110e 8ebe 9484 a6bf 7ece 8ebf
00000170: 6124 79bf f882 45bf 1e29 7cbf ccfe b1be
00000180: 958c 86bd 609a f4bd ffab 1c3f b381 a23e
00000190: 677e 783e fa1d ca3f cb5e b43f 143c 68be
000001a0: 5cc4 293e 9cb7 3abe b5a0 2bbe f669 ed3c
000001b0: d9a7 d4bd 94e0 b1be f9fa e9bf e5f6 3ec0
000001c0: 77cb 33c0 6b37 da3e e21f 1f3f 60d8 8fbf
000001d0: 6cc0 123f 2065 1d3f 5a96 5d3e 6eba 1c3f
000001e0: cd41 c7be a1bb 683f 158c 8e3f d5cc a63e
000001f0: 65da 0fbe bf70 1ebe e5a7 543f 1421 793f
00000200: 5659 973e 66b8 a83d 05ca 8cbe 04bf cc3f
00000210: a83e bd3f b94c dfbe b993 27be 578d cbbe
00000220: def5 62bf f0be 87bf 6e47 cabd de17 5e3c
00000230: 982b 5cbf bac1 e6bf 8749 dbbf f5af 2b3e
00000240: eb85 303f 43c8 393f 4116 a73f cc46 b73f
00000250: 578b 033e 4f77 6cbc 7e32 a3bd e06c 71be
00000260: 4c2d 2bbe f2fe 223f c451 1ebc 4f93 c1ba
00000270: 3fdc 41bf 440b 15bf 17b3 d23e c261 073e
00000280: ebcf 153f 6e6a d63e 9e4c 203f fdb6 d93e
00000290: 5313 e43e c647 ef3e ccbe 813e a730 bd3e
000002a0: 69bf b33e fd42 003f 5949 f23d 4592 353e
000002b0: c2c3 dfbb ab1a 1f3f 022b 0f3f 1044 91be
000002c0: 3283 a9be 21c9 f6be ad62 2b3d e0a5 33be
000002d0: 3cab 1abf 4ca9 58bf fb37 7abf f86b 8b3e
000002e0: e6be ea3c 9e56 e93e 12b4 bb3e aa3c 8f3e
000002f0: 12d5 83be 804f c9be 886a 1b3f 96bd 8cbc
00000300: 9909 45bd 1745 f5bd 1e59 05bf a194 d6be
00000310: 376c 51bf dee3 5dbf 3869 2cbe 4f61 10bf
00000320: 98f0 2abf c5a6 123f 6735 053f dfaf 45bf
00000330: edf9 13bf d17b 10bf a083 4a3f 3a3d 873f
00000340: 851f e5be a4bc ffbc 9f8f 40bd 88d8 99be
00000350: 775d 04bf bd08 e5bd 6cab 80be 02ec 55be
00000360: 7cd4 90bf c566 78bf 9718 86be 3c4b bfbe
00000370: 15a5 42bf aa3e 80bf 2b8e 9fbf bb6a c23c
00000380: 58ab b4be 58bf 263c 151e 0ebd f92d 193d
00000390: 90e9 993f 817c 993f 41a6 0dbf 0fe4 5cbb
000003a0: 5997 3c3e 040b 953c 2401 793e f4b2 23be
000003b0: 80ff 22bf e5ba 45be ca7d a63f c74b 523f
000003c0: 1ab5 2dbf 13db bf3f 4cec b63f 7370 9ebf
000003d0: 4812 29bf ffe2 b4bf 7647 ccbf 0946 bcbf
000003e0: 158b f53e 3d0c 803e a276 92bf 9f74 223f
000003f0: 71d1 023f d8af bd3e d121 ed3d f0a6 bbbe
0.74240077 -0.11954702 -0.32511905 0.33304322 -0.008239968 0.101040065 -1.3713161 -1.0468774
-0.22529076 -0.36168763 -0.3056791 0.909945 0.6634627 -0.10009944 -0.22688624 0.10226628
-0.60631824 -0.73566765 0.23608352 -0.02759219 -0.36974183 -0.28581452 -0.23626256 -0.35674545
0.08236686 0.08092818 -0.77791727 -0.8997703 0.81621504 0.30047864 1.470588 0.7699356
0.7934363 0.50451154 0.072751775 0.64483625 -0.32439935 0.010803957 -0.4245732 -0.6320692
-0.022133933 1.1529669 1.0651182 -0.99203765 -0.58886325 -0.59066015 0.7753818 0.6918774
-0.10674801 -0.10503574 0.73164105 -0.49574658 -0.7023508 0.29841685 0.28541046 1.3925141
1.1383423 1.2080032 -0.045833696 -0.09274086 -0.12475601 -0.6031043 -0.31910774 -1.1986948
-0.941387 -0.57469237 0.723432 0.7825509 -0.07210169 -0.34120244 -0.85285413 0.688413
0.27435756 -0.42298186 -0.20905644 0.67853385 0.21083231 0.4315846 0.5582048 0.52675045
0.5305755 0.4559615 0.54796386 0.5934266 0.6485039 -0.47357863 -0.2106171 -0.005846297
-0.47384414 -0.27745107 -1.300921 -1.1156766 -0.97321135 -0.7715297 -0.9850024 -0.34764707
-0.06569783 -0.11943507 0.61199945 0.31739578 0.24266969 1.5790398 1.4091429 -0.22679168
0.16578811 -0.18234104 -0.16760524 0.02898119 -0.10383577 -0.34741652 -1.8279716 -2.9838192
-2.8092935 0.42620406 0.62158024 -1.1237907 0.5732486 0.6148243 0.21639386 0.6122197
-0.3891739 0.909113 1.11365 0.3257815 -0.14048155 -0.15472697 0.83068687 0.973161
0.29560345 0.08238296 -0.2749788 1.5995793 1.4784746 -0.43613222 -0.16364945 -0.3975627
-0.88656414 -1.0605145 -0.098769054 0.013555495 -0.8600402 -1.8027871 -1.7131814 0.16766341
0.6895434 0.725712 1.3053666 1.431848 0.12846123 -0.014432742 -0.07968615 -0.23576689
-0.16716498 0.63670266 -0.009663049 -0.0014768633 -0.75726694 -0.58220315 0.4115226 0.13220885
0.5852038 0.41878074 0.6261691 0.4252242 0.44545993 0.46734446 0.2534088 0.3695118
0.35106972 0.50102216 0.11830396 0.17731579 -0.006828756 0.6215007 0.55925 -0.2837224
-0.33107907 -0.48200324 0.04184215 -0.17543745 -0.6041753 -0.84633327 -0.9774167 0.2723081
0.02865548 0.45573896 0.3666082 0.2797597 -0.25748497 -0.39318466 0.6070943 -0.017180245
-0.048104856 -0.119760685 -0.5208911 -0.4191027 -0.8180575 -0.8667582 -0.16837013 -0.5639848
-0.66773367 0.5728572 0.5203461 -0.77221483 -0.5780323 -0.5643893 0.79107094 1.056556
-0.4475061 -0.03121788 -0.047011968 -0.30048013 -0.51705116 -0.11183307 -0.25130785 -0.20890811
-1.1314845 -0.97031814 -0.26190636 -0.37362087 -0.76033145 -1.0019124 -1.2465261 0.023732534
-0.35286975 0.010177456 -0.034696657 0.03739736 1.2024403 1.199112 -0.5533181 -0.003370527
0.1841711 0.01819373 0.24316841 -0.15986234 -0.6367111 -0.19309576 1.3007138 0.8214688
-0.67854464 1.4988731 1.4290862 -1.2378067 -0.6604352 -1.4131774 -1.5959308 -1.4708873
0.47957674 0.25009337 -1.1442454 0.634592 0.5110083 0.3704822 0.115787156 -0.366508

bn1.weight f4 [64]
00000000: 3cdd 823f b1df 5f3f fa5e 3a3f 85b2 413f
00000010: 66fa e53f 14b8 ef3f ebfe f23e 6282 053f
00000020: 485b 2e3f b4fb 1040 b6fd bf3f c611 283f
00000030: a3f5 43bc 6717 553f e922 f13e 6be1 ce3f
00000040: aea8 f93f 504c 0640 5c37 183e ad12 1b40
00000050: 6d91 a63e d782 9e3f 2261 d13d c2f3 3740
00000060: e69f 8d3f 42ec 973f a1d9 2840 2c40 c43f
00000070: 8e3e 173f 237e d03f abb0 a13f 6482 7f3f
00000080: ef10 b73f c216 b63e f687 ce3f 166c 523f
00000090: 1123 b03f e8e7 df3f 0017 b53f 1f4c 1a40
000000a0: 9e59 3a3f bd7d de3f a844 ce3f 7cae 0b3e
000000b0: eceb 853f e16d 1d3f c339 353f d1bb 483f
000000c0: ac5f 553f 7a16 ba3e 18d4 b03f a074 803f
000000d0: bfc5 373f d598 bd3f d484 5a3f 27bc bd3f
000000e0: ffbc 2b3e 0f52 f73f 8b6c 663f 811a 4c3f
000000f0: 6cb5 653f 496c cb3d fa9a 503f 5ca9 4e3f
1.0223765 0.874507 0.7280117 0.75663024 1.796704 1.8728051 0.47460112 0.52152073
0.68108034 2.2653627 1.4999301 0.6565212 -0.01196042 0.83238834 0.47096947 1.6162542
1.9504602 2.0984077 0.14864868 2.4230149 0.32532826 1.2383679 0.10223605 2.8742528
1.1064422 1.1868975 2.638283 1.5332084 0.59079826 1.6288494 1.263204 0.99808335
1.4302043 0.35564238 1.6135242 0.82196176 1.3760701 1.7492647 1.4147644 2.410896
0.72792995 1.7382122 1.6114702 0.1364078 1.0462623 0.61495787 0.7079126 0.78411585
0.8334911 0.36345273 1.3814726 1.0035591 0.7178611 1.4812266 0.8535893 1.4823045
0.16771315 1.9321917 0.90009373 0.7972794 0.8972995 0.09932763 0.81486475 0.8072717

bn1.bias f4 [64]
00000000: f065 95be b345 41bf 0160 9ebe 33e8 1f3f
00000010: 5751 6b3f 2421 54bf 4bb3 b03e 33be c6be
00000020: f746 c0bf 46e6 ccbe c313 823e 5340 c4bf
00000030: 60c2 663f 6028 703e d561 f3be 7151 1bbf
00000040: c41d e63e 88dd 89be 70d9 d2be 5749 6e3f
00000050: 10a2 03bf 99dc 6a3f 839e 283f 2148 993e
00000060: ff1f cf3f 1fed 5f3f 8871 ca3e 768b 2ebf
00000070: c51d 3d3f e798 1b3f 4b03 e8bd 5430 28bf
00000080: f5dc 5f3e 5d25 d8be d1ec 9d3f c696 993f
00000090: b303 513c ffba a5bf 53c7 ac3d f616 fcbf
000000a0: 154a 03c0 f3a5 a6be 30e4 65bf 968f 323f
000000b0: 8be6 a6bf 10be 843f 14c3 f2be f4b8 dd3e
000000c0: 993b ea3e 7bcd 60bf b943 373e ea5c 6c3f
000000d0: 0332 8ebf 842c f6bf 5a5d 963f eff0 953f
000000e0: d8f8 7cbf c55b b83f 8d97 9c3f 66e5 6c3f
000000f0: 73af a9bf 8bef cb3e 3ad2 2c3f 32e2 9cbf
-0.29179335 -0.7549698 -0.3093262 0.6246368 0.9192099 -0.8286307 0.3451179 -0.38816985
-1.5021657 -0.40019435 0.25405702 -1.533213 0.9014034 0.23452902 -0.47535577 -0.60671145
0.44944584 -0.26926827 -0.41181517 0.9308066 -0.5141916 0.91742855 0.6586687 0.29937842
1.618164 0.87471193 0.39539742 -0.6818155 0.7387355 0.60780185 -0.11328753 -0.6569874
0.21861632 -0.42216006 1.2337896 1.1999137 0.01275723 -1.2947692 0.084364556 -1.9694507
-2.0513966 -0.32548484 -0.8980131 0.69750345 -1.3039106 1.0370502 -0.47414458 0.4330517
0.45748594 -0.8781354 0.17896928 0.92329276 -1.1109012 -1.9232335 1.1747239 1.1714152
-0.98817205 1.4403006 1.223375 0.92537534 -1.3256668 0.39831194 0.6750828 -1.2256529

bn1.running_mean f4 [64]
00000000: b752 223f 7ae4 c53f 554a c83f 3d0c 1940
00000010: d680 8240 333f 2e40 2003 c33f 46b2 7d3f
00000020: 8a8e 1c40 394f 803f 5e40 c63f 1c87 3f40
00000030: eb82 a93f c75d d03f 1efc bb3f 9487 2740
00000040: 6b18 543f f4bb ad3f 7b70 9c3f 76f2 913f
00000050: 8e06 9b3f 3d07 b53f 80ee 8e3f 4d35 0840
00000060: 2eed da3f 5bab f73f 7228 0440 3172 1540
00000070: a1fc c23f bce5 2840 0e08 2640 818e 0c40
00000080: 026a e23f b224 813f 315a 5740 4047 cf3f
00000090: 2778 0740 bff3 3240 5d53 0440 1035 5a3f
000000a0: 098d 2e40 b8a4 2f40 35a9 2a40 ef39 243f
000000b0: 14c2 943f 1e70 d93f 5792 1340 02b2 eb3f
000000c0: d320 b03f 4070 2440 d3d6 0740 757a ed3f
000000d0: 91e6 0240 9e89 0440 273c ee3f b616 e93f
000000e0: fa60 0840 438c cc3f 1431 0740 f602 0340
000000f0: 2574 cb3f 19e3 7f3f 8abf 2840 5471 933f
0.6340746 1.546035 1.5647684 2.391372 4.078227 2.7226074 1.5235329 0.9910015
2.4462 1.0024177 1.5488393 2.9926214 1.3243078 1.6278619 1.4686315 2.61765
0.8284976 1.3572984 1.2221826 1.1402118 1.2111375 1.4142834 1.1166534 2.1282532
1.7103631 1.9349169 2.0649686 2.3350947 1.5233346 2.6390219 2.5942416 2.1961977
1.7688601 1.0089324 3.3648798 1.6193619 2.1167085 2.796127 2.067588 0.85237217
2.727358 2.7444286 2.6665776 0.641509 1.1621728 1.698734 2.3058069 1.8413699
1.3760017 2.5693512 2.1224868 1.8552996 2.0453227 2.0708995 1.8612107 1.8210056
2.130919 1.5980304 2.1123705 2.0470557 1.589482 0.999559 2.6366906 1.151896

bn1.running_var f4 [64]
00000000: b655 0e40 aa96 be40 4411 8540 b278 3441
00000010: 7f6c b541 16fb 5441 7af2 ec40 d994 9a40
00000020: 049d 1141 9451 9640 c178 a640 9000 3b41
00000030: eab3 dd40 f690 8240 6e14 9940 ff17 0441
00000040: 3d6e 4d40 16f7 e640 99c3 4840 82f8 0b41
00000050: 48f9 7c40 2831 f240 3554 1e40 22ec 5f41
00000060: bff4 2d41 2940 c440 e3e3 6841 0bfb ce40
00000070: 53d4 d640 115a 0f41 0c92 f440 e054 1f41
00000080: ca15 2e41 1082 0441 fa05 8841 d87e 1341
00000090: 57cf 2741 9871 0f41 0a43 5941 b163 d83f
000000a0: 950b 4c41 162b 5141 ca6f 2641 bb81 e13f
000000b0: 718a 5840 719c 2641 3ead e840 f5c4 9240
000000c0: f3cb bf40 77c3 0f41 8b98 5c41 a93d ef40
000000d0: 5505 e340 0428 c640 9988 0341 eded 5541
000000e0: e6f9 b940 0918 dc40 9c78 2841 80c2 9e40
000000f0: a1bd 1a41 8fa6 6340 868b 7c41 f2ca 4940
2.2239814 5.9558916 4.1583576 11.279467 22.677977 13.3113 7.404599 4.83067
9.100834 4.6974583 5.2022405 11.687637 6.928212 4.0801954 4.783744 8.255858
3.2098534 7.217662 3.1369383 8.748171 3.952715 7.5685005 2.4738896 13.99515
10.872252 6.132832 14.555636 6.468145 6.7134185 8.959489 7.642828 9.958221
10.88032 8.281754 17.002918 9.218468 10.48812 8.965233 13.578867 1.6905423
12.752828 13.073019 10.402292 1.7617716 3.3834498 10.413194 7.2711477 4.5865426
5.993646 8.985221 13.787242 7.476277 7.094401 6.1923847 8.220849 13.370587
5.811755 6.877934 10.529446 4.9612427 9.671296 3.557041 15.784063 3.1530118

conv2.bias f4 [64]
00000000: a899 0d40 87e1 e53f c909 a9be d513 d1be
00000010: 7dee aabe 058a a73e 0f71 7fbe 6d28 1ec0
00000020: 254a 10c0 2dd5 d7be 05b6 babf 3682 edbe
00000030: 959c ae3e 6faa 56bf 33ee afbe eb5e 6ebf
00000040: d424 eb3f 2efd 583f 96c7 38bf 8ce6 0bc0
00000050: 1e61 e63f 0565 503e 9bcf e0be a7b5 863f
00000060: 839f da3f f88b 633f 53a6 be3d 8f32 5bc0
00000070: 5c30 203f 4a4c ec3f f976 9dbf a349 3d3f
00000080: d848 e3bd 40a7 3cbf 2eef e7bd 413e bd3e
00000090: 7ef6 5d3e e35f 32c0 6605 22bf b9ba ac3e
000000a0: 491b 523f 641f 29c0 cb34 743e 8624 04bf
000000b0: 170e 9d3e 98cc 77bf 45e5 5a3e 456f e0be
000000c0: d922 613e 56f5 08bf c8d4 ee3f cc01 ed3f
000000d0: 1c21 05bf 79e1 933f 2a71 10bf 8d40 5c3f
000000e0: 1dfa 7e3f 80a7 263f 3228 573e d17b 05be
000000f0: 699c 623f 5090 1bbf 832e 863e d559 693d
2.2125034 1.795945 -0.33015278 -0.40835443 -0.33385077 0.32722488 -0.24945472 -2.4712174
-2.2545254 -0.42154828 -1.4586798 -0.46388406 0.34103838 -0.8385381 -0.3436142 -0.93113583
1.8370614 0.8476132 -0.72179544 -2.1859465 1.7998388 0.20351036 -0.4390839 1.0524186
1.7079929 0.8888545 0.093090676 -3.4249609 0.6257379 1.8460782 -1.2301933 0.73940486
-0.11097878 -0.73692703 -0.11324917 0.36961558 0.2167606 -2.7871025 -0.6328949 0.33736208
0.82072884 -2.642541 0.23848264 -0.5161823 0.30674812 -0.9679656 0.21376522 -0.43834892
0.2198595 -0.5349935 1.8658686 1.8516173 -0.52003646 1.1553184 -0.56422675 0.86035997
0.9960039 0.65099335 0.21011427 -0.13035513 0.8851991 -0.6076708 0.2620736 0.056970436

conv2.lin.weight f4 [64, 64]
00000000: 2608 bbbe d8b8 5bbf 6691 ccbf fe4a e83e
00000010: 9cd4 3a3e 8ba2 c2bf e5e5 bdbe fc1e 7cbe
00000020: a836 81bf 2ff3 22bf 2d3f 553f 5bc1 a0bf
00000030: b73e 153f 121b 343f 7345 54be ea51 943f
00000040: 9082 9a3f 7d4c b9bf 642a dbbe 24d5 0d40
00000050: c00d 91be 12d8 0b3e efaa 643f 5cba 07bf
00000060: 0b20 a4be c91c 69be 0c9b f3bd 9dd1 18bd
00000070: 0db8 1b3f 87b1 7a3f 65f0 9d3f a036 79be
00000080: b183 f0be 7b7e 1dbf 532c ddbf 2376 ac3e
00000090: 46ee 9b3e a8c3 823f dc89 17bd af83 fe3e
000000a0: 2736 90bf b8cb 133f 4b18 d8bf 6f63 7d3e
000000b0: 68af 20bf 4b68 78bd e35c b9be 0f80 d6be
000000c0: 0486 74be 9fc0 7abf cbd5 60bf ac42 a0be
000000d0: cd54 91bf bf5a acbf 1c29 1e3e 5b42 46bf
000000e0: 6ac8 99bf 78ca 573f f98d d83d 60d1 f53e
000000f0: f8f2 a7bf 8fec 0ebe 2979 913e 578b 6abf
00000100: e633 3c3f fdcb 76bf 2a15 f0bd 751c 613e
00000110: b233 063f df37 1abf 108f 173e fb1f 173f
00000120: e32d 1a3f c0d6 31bf 3871 d83f 7f17 9cbd
00000130: ba56 5c3e 37f5 a53e cb5a debe ee1c a53c
00000140: 6834 d23d 12dd a0bf 2717 0c3d 4c48 08bf
00000150: 089e b03e a0c1 85bf 2c7e 6dbe 20ff b9bf
00000160: e61d b33e 7865 51bf 1bbd ed3e 05ca 6a3f
00000170: fc27 d63e 1be3 8b3f 539b 0b3f 8d23 953f
00000180: 7a23 453e ad86 debd 7c55 7cbe aecc 563f
00000190: dbdc d9be 8288 b83f a47c 3d3e 6d45 ec3f
000001a0: 5946 02be eb2c 62be 31b0 52bf 17c1 f73e
000001b0: e8b4 7a3f 55a7 2fbe 72e9 b7be 7bd6 20bf
000001c0: 686f 5abc 673b 6e3e a260 593e e606 cb3e
000001d0: 4594 9bbe 80cf 043f 9a73 3a3f bd5e 023e
000001e0: e587 c73e 4124 9b3f 0eb5 693e be4e 503d
000001f0: 9fa7 843e e3a3 9f3e 014a 8d3e d7b7 1cbf
00000200: 1a31 3a3f 83f4 90bd 6faa 0bbe 3e5e 123e
00000210: 5ea7 8b3c 1b9d c9be 2558 933e 205f a73e
00000220: ceb1 33be fbaa 14be 521a d63e a1f4 04bf
00000230: e3e4 073f 43ab 803e 0a6f 763e 5cba 8b3e
00000240: d6cf b43e 3efb debe be3a 993e 450a 19bf
00000250: 30b8 c93e f991 123d a21e 063f 348f f4be
00000260: 0f79 ff3d 93aa 50be 0439 c33d 491d c03d
00000270: f78e 223f d0b7 0a3f f30d d33e ab37 b2be
00000280: b402 653e 3c04 e23c bb8d 9b3d e028 52bd
00000290: 21e3 fa3d 89ca e63e aa68 033f 972c 183e
000002a0: 15d4 9a3e 485f aebe 6ee6 86be 331c 323e
000002b0: dcef 543e ef71 dbbe 752e 3cbe 240e 93be
000002c0: 2185 063f 2ec8 b6be 0a92 0a3f 7c9e 4e3f
000002d0: ca5d 903d d777 093f 61df 003f 08bc 633d
000002e0: 3f98 463e 9fdb 473f 39ac 24be 5743 333f
000002f0: 248b 5bbe 2a5c 5e3e fe05 64be 28b0 e43d
00000300: 3b2e ba3e cbde aabc bb51 7f3f e3eb c63e
00000310: 0260 c03f b1bc d5be d086 82bf 6342 d1be
00000320: fb11 4cbf 9839 84bf 9496 e1be 949c 33bf
00000330: 2c06 81bf 915d bbbd 8479 8b3f abba 04bf
00000340: 7e15 673f 7907 d2bd e47d d43e 38f4 e83f
00000350: 1732 983e 2e91 40bf 7211 56be 1f28 f83e
00000360: 5bd2 8d3e 8806 06bf 1ec3 7f3f 3ba7 aebc
00000370: 3d22 9dbf abac 94bf 35f9 0bbf faa2 a93d
00000380: 7d53 53bf 3d26 833e 7f8a 273f 9313 42be
00000390: 2a95 133f 4174 62be cb93 80bf d708 033f
000003a0: 0609 bc3d 6c77 7d3e 09f8 763f 7ae6 ccbe
000003b0: 0a25 bf3e 46b1 843e d378 e0bc 91de b93c
000003c0: a5c6 6ebf 8bfa 2ebf 9746 b5bb b388 c1be
000003d0: b636 343f b64d 7abe e3d2 c2bf 9a64 5cbf
000003e0: c460 8c3e e70a 543e 43a2 a3bd 3872 a2bf
000003f0: 592c 9e3d 0cfa a8be f569 343f 2e4c 26be
-0.36529654 -0.85828924 -1.5981872 0.45369714 0.18245167 -1.5205854 -0.37089458 -0.24621195
-1.0094805 -0.6365232 0.83299524 -1.2559007 0.5829882 0.70353806 -0.20729618 1.1587498
1.2071095 -1.4476467 -0.4280578 2.216134 -0.28330803 0.13656643 0.89323324 -0.53018737
-0.32055697 -0.22764887 -0.11894807 -0.037309278 0.60827714 0.97927135 1.2338988 -0.24337244
-0.46975473 -0.6152112 -1.7279152 0.3368388 0.30455226 1.021596 -0.036996707 0.49709842
-1.1266526 0.57732725 -1.6882414 0.24744962 -0.6276765 -0.060646337 -0.3620368 -0.41894576
-0.23879248 -0.97950166 -0.8782622 -0.31300867 -1.1354004 -1.3465194 0.1544537 -0.77445
-1.2014287 0.8429332 0.10573954 0.48011303 -1.3121023 -0.13957427 0.2841275 -0.91618866
0.7351669 -0.9640501 -0.11722787 0.21983512 0.5242263 -0.602415 0.14800668 0.59033173
0.6022627 -0.6946831 1.6909552 -0.07621669 0.21517459 0.32413647 -0.43428645 0.020155396
0.10263902 -1.2567465 0.034201767 -0.53235316 0.34495568 -1.0449715 -0.23192662 -1.4530983
0.34983748 -0.81795454 0.4643334 0.9171451 0.4182738 1.0928682 0.5453388 1.1651474
0.19251814 -0.10865531 -0.24641985 0.83906066 -0.42551312 1.4416659 0.18504578 1.8458687
-0.12722148 -0.22087447 -0.82300097 0.48389503 0.9793229 -0.17153676 -0.35920292 -0.6282727
-0.013332225 0.23264848 0.21228269 0.396537 -0.30386558 0.5187912 0.72832644 0.12731452
0.38970867 1.2120439 0.22822973 0.050856344 0.25909135 0.31179723 0.27595523 -0.6121802
0.72731173 -0.07077887 -0.13639234 0.14293763 0.01704758 -0.39377674 0.28778186 0.32689762
-0.17548296 -0.14518349 0.41816956 -0.51935774 0.5308363 0.25130662 0.24065796 0.27290618
0.35314816 -0.43551058 0.2992763 -0.59781295 0.39398336 0.03578374 0.5239049 -0.47765505
0.12474262 -0.20377569 0.09532359 0.09380586 0.634994 0.54186726 0.4122158 -0.34808096
0.22364312 0.02758991 0.07595392 -0.051308513 0.12250353 0.45076397 0.5133158 0.1486076
0.3023993 -0.3405707 -0.2634768 0.1739357 0.20794624 -0.42860362 -0.18377097 -0.28721726
0.5254689 -0.356996 0.5412909 0.8071058 0.07049139 0.53698486 0.5034085 0.055599242
0.19394015 0.7806949 -0.16081323 0.7002463 -0.21439797 0.21714845 -0.22267911 0.11166412
0.36363396 -0.02085819 0.99734086 0.38851842 1.5029299 -0.41745523 -1.0197392 -0.40870962
-0.79714936 -1.0330076 -0.44060194 -0.70160794 -1.0080009 -0.09148706 1.0896459 -0.5184733
0.9026717 -0.102553315 0.41502297 1.819953 0.29725716 -0.75221527 -0.20905092 0.4846811
0.2769955 -0.52353716 0.999071 -0.021319976 -1.2276074 -1.1615194 -0.54677135 0.082830384
-0.8254927 0.2561511 0.65445703 -0.1895278 0.5764948 -0.2211466 -1.0045103 0.51185364
0.091814086 0.24752587 0.9647222 -0.4001959 0.37332946 0.259165 -0.027401363 0.022689136
-0.9327186 -0.6835105 -0.0055320966 -0.37799606 0.7039598 -0.24443707 -1.5220608 -0.86091006
0.27417576 0.20707284 -0.07989933 -1.2691107 0.077233024 -0.3300327 0.7047418 -0.16239998

bn2.weight f4 [64]
00000000: f479 1340 e40b 643f e755 6f3e 6a58 0540
00000010: 3e51 c23e e8b9 693e ab70 713f 78b1 da3e
00000020: 7668 c23f 44c6 0b3f cbb8 e63f a19b e03e
00000030: fbee a03f 341e bf3f fc5e 153f 7a66 b93f
00000040: 2fab af3f 6151 7d3f c536 0c40 a810 9cbd
00000050: c84f 4040 e4f1 873f 8f5e 533f 6339 1940
00000060: b3d6 3e40 7b8c d23f 5644 d03f acc9 b83f
00000070: 9d8b f53f fa7a b03f ce7b 1140 70dd cb3f
00000080: c8dd 2d3f 5415 983f 5763 ba3f 5f8c 383c
00000090: d264 973f c866 6240 d054 893f 0e4d e63f
000000a0: 285f a53f 0024 0640 ab85 4a3f 4fa4 0840
000000b0: 4f3b bd3f bc33 f63f 8026 2e3f 77b4 b33f
000000c0: 1504 9e3f ed7f ab3f adf6 823f 51fe a63f
000000d0: 3d2d e73f 30a6 573f 4a2a 0d3f ebd1 c93f
000000e0: 6758 963f 3c08 0d3f 7c06 7a3f a3e6 2b3f
000000f0: 714e ab3f bbf9 c63f 7a64 7a3f c521 843f
2.3043184 0.89080644 0.23372613 2.0835214 0.37952608 0.22824824 0.9431254 0.42713523
1.5188129 0.54599404 1.8025144 0.43868735 1.2572931 1.4931092 0.5834806 1.4484398
1.3724116 0.989523 2.1908429 -0.076203644 3.0048695 1.0620694 0.8256616 2.3941276
2.9818542 1.6449121 1.6270854 1.4436545 1.9183232 1.378753 2.2731814 1.5926952
0.67916536 1.1881509 1.4561566 0.011263936 1.1827643 3.5375233 1.0729008 1.7992265
1.2919664 2.0959473 0.7911021 2.1350286 1.4783725 1.9234538 0.68027496 1.4039448
1.2344996 1.3398415 1.023153 1.3046361 1.8060681 0.84237957 0.55142653 1.5767187
1.1745728 0.5509069 0.97666144 0.671488 1.3383313 1.5544962 0.97809565 1.0322806

bn2.bias f4 [64]
00000000: 748c 383f 6792 bd3e 0661 043f ab3b 003f
00000010: 4f59 283e 4ffe 503e 87ee 103f 3fef 45bd
00000020: 9e1e bcbd c9a5 54bd 48d6 02bd 3994 8bbc
00000030: 8fd2 fd3e 605a cabd c355 e4bd facd e83d
00000040: bde7 f6bd a44f e13d d6db 81bd 7a0b 00bf
00000050: 12fd 2ebf 41b7 bebd 47ee 1e3c 910a a63f
00000060: cb8f aabd 7e9f 4a3f 27e5 2b3e 5dce aabe
00000070: 1d25 933f d456 a53e f298 af3f e424 5d3f
00000080: 1d9a bd3e 2a4c 173f e732 01be bc78 e0bc
00000090: 6e3a 3a3f 8d3c f53d 2637 183f 7c02 933e
000000a0: e9aa 983e 2a4b d03e 572d e43e 8ee6 d53e
000000b0: 55e5 813e 0c13 c23e 561a 043e 10d7 9f3f
000000c0: 9d68 af3e a02d 583e 0d7b 12bf 905b c9bd
000000d0: 6b6a 4f3f 8b6f ff3c 2952 a3be 516d 99be
000000e0: 82a4 33bf c638 583f ddf2 9c3e 9eb4 d93e
000000f0: 1737 2c3f 6cb1 8d3d 6a38 c63e 4f8f 863e
0.72089314 0.3702576 0.51710546 0.50091046 0.16440319 0.20409511 0.56613964 -0.048323866
-0.09185527 -0.051915918 -0.031942636 -0.017038452 0.49574706 -0.09880519 -0.1114917 0.11367412
-0.12055919 0.11001518 -0.063407585 -0.5001751 -0.68354905 -0.09312297 0.009700364 1.2971975
-0.083282076 0.79149616 0.16786633 -0.33360568 1.1495701 0.32292807 1.371855 0.86384416
0.37031642 0.5910059 -0.12617074 -0.02740132 0.72745407 0.1197444 0.5945915 0.28712833
0.29817894 0.40682346 0.44565842 0.41777462 0.2537028 0.37905157 0.12900671 1.2487507
0.342595 0.21111155 -0.5721901 -0.09831917 0.81021756 0.031181118 -0.3189862 -0.29966214
-0.70172894 0.8446163 0.3065404 0.42520612 0.6727156 0.06918606 0.38714916 0.2628121

bn2.running_mean f4 [64]
00000000: 185f ba41 cac7 cb40 04d7 9640 d17c 9340
00000010: c030 ce40 e7e5 0941 8f64 8541 3dee 3740
00000020: 79e5 a535 9d21 7840 5b72 8d3f 6762 1440
00000030: 02a4 3041 c4c4 363e d569 1b41 06f2 d63f
00000040: ea93 fa40 62e2 b53f fe9c 9e3c 010b 4a3f
00000050: fa80 ff40 f434 bb40 9e00 2c40 adad b13f
00000060: 92d8 0e40 bdba 1741 c31a b040 54d3 723f
00000070: 041b e740 dba2 d840 3cc3 8240 73f7 0b41
00000080: 1a74 e940 4c6f 1641 3dbd a43f 2194 e83f
00000090: e3d4 2c41 848a 8c3c d78e 7341 71d0 5a41
000000a0: daf7 c440 dd26 2f3f 080f 1341 d8a6 bd40
000000b0: 548e 1141 3175 723f 38a3 4640 df51 8441
000000c0: 4321 3641 ddc1 2241 ecfd 6240 49a8 b03f
000000d0: 8b16 d63f 3ff3 cd40 c708 ae40 f743 0641
000000e0: 1d83 4f40 c6c1 2b40 3334 d940 8d05 f340
000000f0: 8b23 9940 3a8c 633f ce65 4b41 f2b5 6541
23.296432 6.3681383 4.713747 4.6089864 6.443451 8.6186285 16.6741 2.873916
1.2360243e-06 3.8770516 1.1050524 2.318506 11.040041 0.17848498 9.713338 1.679261
7.830556 1.4209712 0.01936197 0.7892304 7.984494 5.850214 2.6875377 1.3881127
2.2319684 9.48309 5.503267 0.9485371 7.222048 6.76988 4.0863323 8.747912
7.2954226 9.402172 1.2870251 1.8170205 10.801974 0.017155893 15.222373 13.675889
6.1552553 0.68418676 9.19117 5.9266167 9.097248 0.9471007 3.103712 16.539976
11.383121 10.17233 3.5467482 1.3801357 1.672563 6.435943 5.4385715 8.391593
3.2423775 2.683702 6.787622 7.5944276 4.7855887 0.88885844 12.712355 14.35692

bn2.running_var f4 [64]
00000000: 3870 eb43 23f1 1743 068c c342 f215 f242
00000010: 952c e642 450b cb42 c77a 8443 610e 0543
00000020: c296 f735 e0da 8342 bd2f db41 f839 9442
00000030: eac0 1d43 57c4 7140 5e25 f242 d6f7 1f42
00000040: dec6 da42 38b1 5841 e265 323e 5e4d 6141
00000050: 7dcc 0443 1c91 d142 9fc5 5442 b86c 9941
00000060: 054a 0b42 0ea2 ff42 a0b6 8a42 9ef0 cc41
00000070: bc80 1243 5d9f 8442 6a29 8442 a2cb 3743
00000080: 691c d542 7aeb 8043 ef21 2142 d488 0842
00000090: 789d 4543 9234 b23e fe1d 8e43 ec7b 4043
000000a0: 1e10 7243 018d 5a41 8437 ee42 b2a2 5443
000000b0: 20ee f742 e881 4b42 63f5 e342 e168 7b43
000000c0: 5088 8943 1786 b643 d668 ea42 7d6a 4b41
000000d0: 75e9 4042 683b 9b42 5c6e d542 a71e 7543
000000e0: adf7 5c42 e119 a141 5675 8942 d3bd 1943
000000f0: 9e2d 7142 d913 ce41 0cbc bb43 360e ae43
470.8767 151.94194 97.77348 121.04286 115.087074 101.52201 264.9592 133.05617
1.844681e-06 65.92749 27.39831 74.11322 157.75357 3.7776086 121.07298 39.992027
109.38841 13.543266 0.17421678 14.081388 132.79878 104.78342 53.19299 19.178085
34.822285 127.81651 69.35669 25.617489 146.50287 66.31126 66.08089 183.79544
106.55549 257.83966 40.28314 34.13362 197.61511 0.34805733 284.2343 192.48407
242.06296 13.659425 119.10843 212.63553 123.96509 50.87686 113.97927 251.40968
275.06494 365.04758 117.20476 12.713498 48.227985 77.61603 106.715546 245.11974
55.24187 20.137636 68.72917 153.7415 60.294548 25.759691 375.46912 348.11102

fc1.weight f4 [64, 64]
00000000: 62ae 92bf 4f41 5abd 3c6c aebe 31a0 b5be
00000010: 359b 88be 5086 863d 83ff 573e 0805 733f
00000020: 53c9 f13e 8521 adbe ee4f 033e 473e abbe
00000030: 5b1e 40be 7353 c53d 2f1d 033c 69f7 12be
00000040: 0c78 e23d 37b4 1dbe 9c39 6bbe 744f 873e
00000050: 633b 3e3f ac2b 0fbf 7a36 61be 0a17 b6bd
00000060: a16d 7e3e d034 45bf a322 9bbc 42bd e33e
00000070: cdd1 57bf a111 c1be 8828 67bf e96b 3dbf
00000080: b262 1abf 8495 d9bd 8362 50bb df1c 3ebd
00000090: 0808 68be 09ef b7bd fb72 a53e 8afb 36bf
000000a0: 7b21 003f eee6 6a3e e526 3abe 7587 033f
000000b0: 8785 efbe a070 b0be a5e1 b23e ff62 38be
000000c0: 821c bcbe 7300 083f 4a13 203f 44bb c13e
000000d0: cc88 793f 6548 3f3e 80a8 8b3e 8617 3b3f
000000e0: e6f7 c93e 6e1e 6abe 6b79 b2be 4d05 18bd
000000f0: 0579 013e 9836 d23c 0ac7 733d 8abb cf3d
00000100: 749b 9abc fc18 b73e 709e 333d 63af e83e
00000110: f938 49be db77 093f 39f7 9a3e f00b d53e
00000120: abcd 38be ad92 b53d 4173 9bbe 8123 b03e
00000130: a33d 0a3f 6471 83be 62d6 efbd cc74 6d3e
00000140: f097 c4be a9f1 83bd 1d33 cf3e 3aaf cabd
00000150: 4f2e da3e b0cd de3e f3b6 883e 25d9 d33e
00000160: 173e 3ebe 29b4 aa3e d3c0 2d3f e1c4 1c3f
00000170: 9933 6a3e 61f9 82be 3a2b ec3e c3a3 813e
00000180: 1efe 7e3e 1b8f d63e 96b1 a7bd 62fd c83e
00000190: 39c1 ba3e 69aa 86be ad05 b33e 1327 9cbe
000001a0: 11c1 a53d 25bd 9f3e 6d4c 833e 46ec f73e
000001b0: 9c68 33be dbc8 df3d ac66 26be f393 e33e
000001c0: c8b4 f33e 9c95 8a3e 272f 703f e210 813f
000001d0: 3af3 6c3f fe7d 2e3f 27ef b23e a619 e3bc
000001e0: 10aa d53e 2200 8a3e c723 05bf 5d79 45be
000001f0: f02f 2ebe 28b5 1b3d 3d08 b73e 93c3 14be
00000200: 5883 d63e 258e 1e3e 5062 a0be e86f 2e3f
00000210: 9163 3cbe bfa7 8e3e 5a94 eabd 30c3 823e
00000220: 32d8 05bf 4216 0dbe 36da 1ebf b986 6e3e
00000230: 3fcd c63e 3e2e 5a3c 92d6 b6bd 3e41 1f3b
00000240: fdfd 05be 627a 0e3e f0bb 23bf 0c2f 04be
00000250: b253 12bf 8d72 0dbd 9a5e e9bd 0e8f a53f
00000260: 4652 a13f bdf9 5c3f 39db 5d3e 157b 6a3d
00000270: 8a58 373f f958 313e ef23 b7be c69b 083f
00000280: 0a4e 233f efcf 183e 53d6 8dbb 6a34 86be
00000290: ef45 b83e ad9f 093e bbdc 24bf 2f6b 393f
000002a0: 5e0f 2ebf 8a40 883e 373f 833e 794e babf
000002b0: 29e7 653e 464f 00be d723 08bf 05d8 ab3d
000002c0: 0059 8d3e cdb4 47bf 3eb1 fcbe e2d6 aabd
000002d0: 5589 38bf a546 703e 6cea 14bf d466 84bf
000002e0: b763 5abe ac2d 073e 9e76 303e 3043 4cbe
000002f0: bf03 4a3e b560 5d3f 3d02 553c 8300 82be
00000300: 5bf0 013f fb89 c03e dd9e 32bc 3436 703e
00000310: d994 b63e 5a02 e73e fd99 c23d f068 353e
00000320: ded2 29be 2e58 21be 35e2 06bf 6907 af3e
00000330: a59c a4be ab66 a5be 35b0 b83e 6cd6 1fbe
00000340: ae58 acbc 6cf0 2dbe c40b 1dbf b71a 043f
00000350: 5563 01bf 6b35 e93e a828 80be 296e 42bb
00000360: 6467 a83e 4658 c93e 2344 3f3e 7ebd ef3d
00000370: 113d ec3e 7a3f 13bf e79e 6b3e 01a9 043f
00000380: daad 003f fa5f d23d 91bd eebd 87c7 d8be
00000390: 19de cd3e 4fda 4ebe c42c f03e 117f babd
000003a0: 5d94 173e a8b8 cf3e ff62 c33e c4c0 a3bd
000003b0: e0e7 343e 0732 f2bd 5325 2a3d 705f c93e
000003c0: 1fb7 de3e c350 ca3e eda1 873e be33 b03c
000003d0: 19e3 943d 4cbb 15be 7f01 4d3e 1572 dcbd
000003e0: 643e fdbd 4546 3f3e 09d6 8f3d d5fb 083f
000003f0: fc1b 02be a91e dabc 72de 143f 6a4c 063f
-1.1459467 -0.05328494 -0.3406695 -0.3547378 -0.26680914 0.06568587 0.21093564 0.9492955
0.4722391 -0.33814636 0.1282346 -0.3344595 -0.1876158 0.09635057 0.008002563 -0.14352192
0.110580534 -0.15400778 -0.22971195 0.26427805 0.74309367 -0.55926013 -0.21993437 -0.08891113
0.24846508 -0.7703371 -0.018937415 0.4448033 -0.84304506 -0.37708762 -0.9029622 -0.7399278
-0.6030685 -0.10624221 -0.0031796999 -0.046414252 -0.22659314 -0.08981139 0.32314286 -0.7147757
0.5005109 0.22939655 -0.181789 0.51378566 -0.4678156 -0.34460926 0.34937778 -0.18006514
-0.367405 0.53125685 0.6252943 0.37838185 0.9747436 0.1867996 0.27276993 0.7308277
0.39446944 -0.2286317 -0.3485826 -0.03711443 0.12643822 0.025660798 0.05951599 0.10143192
-0.018872954 0.3576125 0.04385227 0.4544631 -0.1965064 0.5369851 0.3026674 0.4161067
-0.18047206 0.08865867 -0.3036137 0.34402087 0.540003 -0.25672448 -0.11710812 0.23189086
-0.3839717 -0.064425774 0.40468684 -0.09896703 0.42613456 0.43516302 0.2670208 0.41376606
-0.18578373 0.33340576 0.6787235 0.61237913 0.22871245 -0.25580886 0.4612673 0.25320253
0.24901626 0.41906056 -0.08188169 0.39255816 0.36475542 -0.26301888 0.34965268 -0.3049856
0.08093465 0.31198993 0.25644246 0.4842245 -0.17520374 0.10926982 -0.16250104 0.44448814
0.47598863 0.27067268 0.9382195 1.0083277 0.92558634 0.68161 0.34948084 -0.027722191
0.4173131 0.26953226 -0.52007717 -0.19284578 -0.17010474 0.03801456 0.35748473 -0.1452773
0.41897082 0.15483911 -0.31325006 0.68139505 -0.18397357 0.27862355 -0.11454077 0.2553954
-0.5228301 -0.13778022 -0.62051713 0.2329358 0.38828465 0.013316689 -0.08927645 0.0024300362
-0.1308517 0.13913873 -0.63958645 -0.12908572 -0.5715896 -0.034533072 -0.11394997 1.2934282
1.2603233 0.8631857 0.21665658 0.057246286 0.71619475 0.17319097 -0.35769603 0.5336269
0.63790953 0.1492307 -0.004328528 -0.26211864 0.35990855 0.13439818 -0.6439931 0.72429174
-0.679922 0.2661174 0.25634167 -1.4555198 0.22451462 -0.1253024 -0.5317969 0.08390812
0.27606964 -0.78010255 -0.49353975 -0.08341767 -0.7208455 0.23464449 -0.581702 -1.0343881
-0.213271 0.13201016 0.17232749 -0.19947505 0.19727992 0.8647569 0.013001022 -0.25391015
0.5075738 0.3760527 -0.010902134 0.23458177 0.35660437 0.45118982 0.09502027 0.17715812
-0.16584346 -0.15756294 -0.52688915 0.3418534 -0.3215076 -0.32304892 0.36071935 -0.15609139
-0.02103838 -0.16986245 -0.6134608 0.51603264 -0.50542194 0.45548567 -0.25031018 -0.0029667711
0.3289138 0.3932516 0.18678336 0.11706065 0.4614034 -0.5751873 0.23009835 0.5182038
0.50265276 0.10272212 -0.11657251 -0.42339727 0.4020851 -0.20200466 0.46909153 -0.09106267
0.1480269 0.4057057 0.38161466 -0.079957515 0.17666578 -0.11825948 0.0415395 0.39330626
0.43499085 0.3951474 0.26490727 0.021509048 0.07269878 -0.1462223 0.20020102 -0.10763947
-0.12365416 0.1867915 0.07023246 0.53509265 -0.12705988 -0.026625948 0.58151925 0.5246035

fc1.bias f4 [64]
00000000: c2ca 4bbf 295f 95be bf9a 2a3f c652 783e
00000010: 62ef d83f 9303 f73d b816 f9be 6490 03bf
00000020: 2f35 6c3e 533e 223f 0b0e fb3b 890c c43f
00000030: 186d f0bd 9e88 113f adc2 05be c784 5740
00000040: c756 b93f fc0d 803f abc9 fc3e d9e2 c73e
00000050: 91ad b63f eeb7 0dbf 63a3 c53e a09a be3f
00000060: 636d 12bf af78 763e d683 a33f 86d2 823e
00000070: c029 41bf c3f7 6c3f 69b1 6e3f 1321 0cbf
00000080: f783 743e ee43 bfbe af85 153f e3c2 21bf
00000090: edfa 383f 64bb a03e 7b9e 30be 3a9b 3d3f
000000a0: 9ef0 11be 4d62 4640 4b71 073f 6920 02bf
000000b0: e20d 173f facd e8be 2cce 18be 42ce 4a3f
000000c0: 7ecd c83e d9b7 303f 75d5 a73f 58f6 17bd
000000d0: 2bf4 6e3f 8a6b f0be 22ca 4e3e 4b73 9e3e
000000e0: b284 13be 71af 8e3f 3087 723f 193c ff3e
000000f0: ad3a 953f d774 793f 9223 7f3e b4d2 e5be
-0.7960626 -0.29174164 0.66642374 0.24250326 1.6948054 0.120612286 -0.48650146 -0.513922
0.23067163 0.6337635 0.007661586 1.5316325 -0.11739558 0.56849086 -0.13062544 3.367479
1.4479607 1.0004268 0.4937261 0.3904026 1.4271718 -0.5535878 0.38601217 1.4890938
-0.5719816 0.24069475 1.2774608 0.25551242 -0.7545433 0.92565554 0.93239456 -0.5473797
0.23878466 -0.37356514 0.5840711 -0.63188 0.7225788 0.31392968 -0.17247956 0.7406498
-0.14251944 3.0997498 0.52907246 -0.50830704 0.5900556 -0.45469648 -0.14922398 0.79220974
0.39219278 0.6903053 1.3112017 -0.037100166 0.9334132 -0.46957046 0.20194295 0.30947337
-0.14406088 1.114729 0.9473753 0.49850538 1.1658531 0.9744391 0.24915913 -0.44887316

bn3.weight f4 [64]
00000000: 1b00 653e c5ee 4bbe 44ec 023f e512 25bd
00000010: 7a0c d5bc 4cae 96be 8ddf 233e 0950 92bd
00000020: d675 b93e 1785 573e 8f21 33be c619 413f
00000030: a7ab c23d d06d 283f 3f07 24bd 2a5d 2a3f
00000040: ca40 ee3e b7a0 2f3f 7798 e33e 750f 0e3d
00000050: 8e55 323f 95a1 e13e 46a9 1c3e 0c70 2a3f
00000060: 5639 f63e d42c c63d 9c30 c83e 2fe7 b13e
00000070: 4b05 193e 1bce af3e 874a 733e 1b04 313e
00000080: 9972 48be 7a8b c83d 6955 b63e 2f77 2e3d
00000090: 4eb1 283c 01d1 a5bd a594 5b3e 4bbb 163f
000000a0: fd6a 053e aad2 363f 9fca 9ebd bf7d 253e
000000b0: cc73 033e e3b5 f93d 1f7e f83d 1e51 d23e
000000c0: 6e2e 56bd eebf 273f a245 503f 3d1a bd3e
000000d0: 1039 c93e 2477 cd3d b44c 813e d1f7 e03e
000000e0: 35d6 993e 7223 003f 8a79 133f cd26 253f
000000f0: 230a 1b3f 7506 033e 63a0 c43d 3dd6 533f
0.22363321 -0.19915302 0.5114176 -0.040301222 -0.026006926 -0.29429853 0.16003247 -0.07144172
0.36222714 0.21046863 -0.1749327 0.7542995 0.09505396 0.6579256 -0.040045973 0.6654841
0.46533805 0.68604606 0.4445226 0.03468271 0.69661796 0.4406859 0.15298948 0.6657722
0.4809062 0.09676519 0.39099586 0.34746692 0.14943425 0.34336933 0.23758899 0.17286722
-0.19574966 0.09792228 0.35612038 0.04259413 0.010296179 -0.08096505 0.21443422 0.58879536
0.13029094 0.714152 -0.07753491 0.1616125 0.12837142 0.12192895 0.12133431 0.41077513
-0.052290373 0.65527236 0.8135625 0.3693408 0.39301348 0.1003249 0.25253832 0.4393907
0.3004624 0.50054085 0.5760733 0.6451233 0.6056234 0.12795432 0.09600904 0.82748777

bn3.bias f4 [64]
00000000: c208 203d d127 ab3d e0e1 ae3d a78d 003d
00000010: 0ba7 dd3d 17c7 99bd 8e4c ca3b 761f 183e
00000020: 835d 793e 3071 9c3d d633 5cbd ad69 1a3e
00000030: 3aa8 24bd f865 f739 4c63 eebd 7314 033e
00000040: 7fd8 b13d 4b0b 513e b043 323c c978 093d
00000050: 05af 173e ec2d e33c 682c 5b3d 9f7d c43d
00000060: 6b85 8a3d 4087 1e3b 2d10 003e 5742 5a3b
00000070: 97fc 8b3d 67c4 8fbd 5a95 4d3e 301c 533d
00000080: f537 9dbd 406f e4ba 0227 7a3e deda 5e3d
00000090: 8be3 bf3d cde9 8abb b0b8 c73c b1a5 a23c
000000a0: 256f ca3b e83b 343d 069d 29be dc75 0a3e
000000b0: 4c77 b9bc 5d39 99bc 0f04 e8bd b716 a83d
000000c0: 800b f6bd 76f8 8d3e ea7f 5b3e 9594 083e
000000d0: 1882 ce3d 7755 cbbd 12b7 9e3d 50ae 023e
000000e0: 2ad4 953d d582 203e 0577 1d3e 9738 fe3d
000000f0: 978c 063e 6bdd 823d 800e 86bd 2aba a23d
0.039070852 0.08357204 0.08539176 0.03138509 0.108228765 -0.075086765 0.006173677 0.14855751
0.24352078 0.07638776 -0.053760372 0.15079375 -0.040199496 0.00047187484 -0.11640033 0.1280077
0.086838715 0.20414464 0.010880396 0.033562455 0.14812858 0.027731858 0.053509146 0.09594273
0.06763729 0.0024189502 0.1250617 0.0033303702 0.06835287 -0.07019883 0.20076504 0.051540554
-0.076766886 -0.0017428175 0.24428943 0.054407947 0.09369572 -0.004239297 0.024380058 0.019854398
0.0061778002 0.044002444 -0.16563806 0.13521522 -0.022639893 -0.01870411 -0.11328899 0.082074575
-0.12013912 0.27728623 0.21435514 0.1333793 0.10083407 -0.099284105 0.07749762 0.12761807
0.07315858 0.15674908 0.15377434 0.124131374 0.13139568 0.063898884 -0.065457344 0.07945664

bn3.running_mean f4 [64]
00000000: fd4c 0441 ab83 2c42 0323 7042 9e9a 3a42
00000010: 3c4f 9042 5717 a141 2c4d 7b40 5d3f 1c41
00000020: c39b 7b42 535e f140 705d f03f fe91 3f42
00000030: 13f8 1a42 eced 7242 574c b641 efb2 2242
00000040: e693 6141 6983 3d42 84fe ad41 36b6 0542
00000050: dd0d 8d41 b056 6240 aae9 6642 a651 e441
00000060: 7e64 6140 8d59 1c42 ca1c 2d41 d4bd 5440
00000070: 71dd 3541 6e58 4b41 14a8 7942 dbb9 2442
00000080: a30e 8341 13ea 0d42 51ea 9142 4fb1 ad41
00000090: 14c2 1641 8d50 c63f deae 7240 3616 4542
000000a0: 17e4 ce41 a86f 1442 2310 e641 3ebe 0742
000000b0: 4b1c ed41 084d 9941 bcab 9a41 9d8a 5641
000000c0: 5ca7 8641 8f7a a842 9464 8242 8bd2 ca41
000000d0: 18d4 3241 93a3 1242 73d5 9441 b373 ef40
000000e0: e927 4540 e2ae fd41 1984 8041 ce02 7040
000000f0: a786 1441 a35c 2742 066a 0442 f077 b440
8.268796 43.128582 60.03419 46.650993 72.154755 20.136396 3.9265852 9.76547
62.90211 7.542764 1.8778515 47.89257 38.74226 60.732346 22.787275 40.67474
14.098608 47.37833 21.749275 33.42794 17.63177 3.536541 57.728188 28.539867
3.5217586 39.087452 10.819529 3.3240862 11.366563 12.709089 62.41414 41.1815
16.382147 35.47859 72.95765 21.711576 9.422382 1.5493332 3.791923 49.27169
25.861372 37.10904 28.75788 33.935783 29.638815 19.162613 19.333855 13.408841
16.831718 84.23937 65.19644 25.352804 11.176781 36.65974 18.604223 7.4828734
3.080561 31.710392 16.0645 3.7501712 9.282874 41.840466 33.10354 5.639641

bn3.running_var f4 [64]
00000000: 09dd 8744 2b80 4345 7931 6045 e501 2045
00000010: c2cc df45 a3f2 8545 f14d 8143 a06d 4244
00000020: 9f05 2a46 fcc6 2c44 ea65 e342 56a3 b945
00000030: 01ed e844 2ce0 8145 4883 e143 2149 9b45
00000040: 3fdb ff44 b5e8 8045 3468 1945 dd5a e444
00000050: dc5a b644 b97a ad43 98be 6645 0323 6545
00000060: d97c a143 a518 bb44 a65d 5444 60b1 b643
00000070: 1d81 2244 6050 5e44 c938 a845 ec31 0545
00000080: dc05 c744 6cfe 5445 24e0 d745 bdb0 eb43
00000090: 5bf3 3544 68f6 f042 7b46 d943 8611 9445
000000a0: faa5 9f44 0aa8 8345 d9f0 d044 f27d ab45
000000b0: 4bbb 9144 6397 2b44 4884 0644 f39c 8345
000000c0: d553 a844 c58c d945 a8d8 a045 6c3c a244
000000d0: 3bda e844 f803 7845 4a1f 2e45 dbff 2044
000000e0: 885f 6743 5b40 6345 43d4 0e45 cc2e 9943
000000f0: 4b9e 6b44 2e8c cd45 75cd 0f45 0b22 5b44
1086.9073 3128.0105 3587.092 2560.1184 7161.5947 4286.3296 258.60892 777.7129
10881.405 691.10913 113.69905 5940.417 1863.4064 4156.0215 451.02563 4969.141
2046.8514 4125.0884 2454.5127 1826.8395 1458.8394 346.95877 3691.912 3666.1882
322.97537 1496.7701 849.46326 365.38574 650.0174 889.25586 5383.098 2131.12
1592.1831 3407.9014 6908.0176 471.38077 727.8024 120.48126 434.55063 4738.1904
1277.1868 4213.005 1671.5265 5487.743 1165.8529 686.3654 538.0669 4211.6187
1346.6198 6961.596 5147.082 1297.8882 1862.8197 3968.248 2785.9556 643.99774
231.37317 3636.0222 2285.2664 306.3656 942.4733 6577.5225 2300.841 876.5319

fc2.weight f4 [8, 64]
00000000: 51ee cb3e fb4f e9be 7470 8cbe 5ad3 373e
00000010: e95e a53c adde adbd d145 0d3e 8528 4ebf
00000020: b2d2 30bf 8f50 123d 5b11 5bbc c739 173e
00000030: d509 8dbe 4232 d43e b90e bdbe 4c9c f1be
00000040: f05b 4fbe 3b40 27bf befb 9dbe 114f d5be
00000050: cf96 6bbe 4d47 483c 4250 04be 9da5 463e
00000060: 6bf1 babe 9c58 d3be 8e23 09bf 6de2 703d
00000070: f274 1a3e 5929 f53e 6820 23bf 3892 00bf
00000080: ff6a bb3e 03ff 55be 3881 afbe 1dac b3be
00000090: e3af f0bd 78cd 623e d4f7 0fbe bcfb ab3e
000000a0: 242a 373a 3e8c 7c3e a0fd c9bc 4e26 3cbf
000000b0: ff0d 7cbe 39a6 d7be 78d4 5fbe cee9 8dbd
000000c0: 3643 1cbe 22b0 aabe d019 89be df02 b93d
000000d0: a627 08bf 8292 c0be 5632 1ebf d1e1 83be
000000e0: a256 b63e 01a4 0abe 23a9 81bc 16d3 68be
000000f0: 583b d3bd d1e9 1dbf bb51 963e 51f1 a43e
00000100: b31b 9ebd 2640 b43d 14ae dbbe 8029 7a3d
00000110: c2a9 17be d513 f93c 3e95 06bd 3f57 8fbc
00000120: 1895 7c3e 7118 143e 024a 27bd 74be fd3e
00000130: bafc 42bc 7235 933e f755 203d 102e 5bbe
00000140: 5040 20be e882 c93e 2329 58bb 2f08 96bd
00000150: a940 22bf 357d 123e 8491 153e 2a1b acbe
00000160: 4d44 4abc 3c49 4ebd f7e1 a7bd e95a 2ebd
00000170: eff8 08bc 1f6e ad3e 2527 3f3c 98b2 46bd
00000180: a119 7cbd a4b6 1ebd 6215 6b3e 657b 993c
00000190: 7f42 5cbe ec46 20be fc43 06be c1bd 9a3e
000001a0: e2f3 82bd 36a4 84be 1a4d 43bd 2da1 65bc
000001b0: b93d cbbd a537 d73c d874 0abe 51e4 0abf
000001c0: ed54 adbc bb03 43bf 93c5 04bf e5d5 f03d
000001d0: 9012 be3c f692 2c3e e562 0e3e aac5 b6bd
000001e0: 389b 0abe a7c0 3abe ae38 18bf 92f1 40be
000001f0: ef81 113d cece 3a3d e19c 013e 03e0 093d
00000200: 77c9 ea3e 3090 20bd f8f2 1dbf 1b12 c43d
00000210: 5d7c 4c3e 08b5 703e de44 283e 5484 91bd
00000220: aa8c aa3d eaed 163f 0119 abbe 616c cdbd
00000230: 5af4 16be d0f6 933e 1d99 34be 655f 0ebe
00000240: e5b8 1c3d 55e2 9ebe 4038 1ebf 7da0 bcbc
00000250: cc66 a0be 8734 4b3c 3cfa ddbd a859 bcbb
00000260: 2aa3 1abe e703 c5bd 33cf 0b3d a996 2f3e
00000270: 977b b8bd fe61 953e 465d d1be 97aa 98be
00000280: 4888 fcbb 55ee fcbd e727 abbe b5af abbd
00000290: 19c0 04bd 8304 bbbd e2fb a1bd 2805 85bd
000002a0: 6a23 b9be 6911 843f be76 2c3e bfae d0bc
000002b0: 6852 c2bd 495e 13be ae88 8cbe 5cb8 293e
000002c0: 9be6 2fbd d1fa 30bf 6e31 f0be 2521 d0bd
000002d0: fe1c 1cbe fcea d0be fab0 afbd 6e77 04be
000002e0: dfe6 623e 0ebd b8bd 50e3 a13e 4b2b 353f
000002f0: 8b45 1dbd 3a33 2ebe 8b75 2f3e 9a0c 4c3d
00000300: f7d6 713d ceb7 2a3a 0354 97be cb94 533c
00000310: f31d 17be 2858 eebd c964 113d ea5d 553d
00000320: ddab 2f3e 5d81 8d3d 80a2 b23d 81a7 23bf
00000330: acc5 b93c bda1 dbbe c05d 3cbd d4a4 17bf
00000340: 2b67 14be d064 10bf e18a 973d cbcd 9bbc
00000350: 2c41 fe3e 64e8 24bd ad12 b1bc 3e55 09bf
00000360: 38ab 90be e128 a73c 37b3 aa3e 2c5d 0d3e
00000370: 37dd 643e 26d2 0cbe b420 913c 2a4a a2bd
00000380: aacb 96bd d7d3 f23b 0e08 b9be ec5b 563d
00000390: 8717 5a3e 8a31 16bc 7e4a 9abe b735 0b3e
000003a0: 9702 e13d 4fe1 b53e d15a b9be d61e 143e
000003b0: 6ba9 32bc 855b fcbd eedc c7bd 8543 84be
000003c0: e3d0 4cbe 4271 d83b 643f fabe 8412 743d
000003d0: 72d7 ffbd 434c 06bd fd09 86be 372a e33e
000003e0: 5396 d0bd b8a2 bbbd b438 e33d 649f bd3e
000003f0: e0e5 5dbe 5203 03bc 8efa e2bd 386f 963d
0.39830258 -0.45568833 -0.27429545 0.17951718 0.020186858 -0.08489738 0.13796164 -0.8053058
-0.69071496 0.035721358 -0.013370837 0.14768134 -0.27546564 0.41444594 -0.36925295 -0.47189558
-0.20249915 -0.6533238 -0.30856127 -0.41661885 -0.23006748 0.012224031 -0.12921241 0.19399114
-0.36512312 -0.4127854 -0.5356988 0.058809686 0.15083674 0.47883108 -0.63721323 -0.5022311
0.3660507 -0.2089806 -0.34278274 -0.3509225 -0.11752298 0.22148693 -0.14059383 0.33590496
0.00069871754 0.24662873 -0.02465707 -0.7349595 -0.24614714 -0.42119005 -0.21858394 -0.0692936
-0.15260014 -0.33337504 -0.26777506 0.09033751 -0.531855 -0.37611777 -0.61795557 -0.25758222
0.3561297 -0.13539125 -0.015827721 -0.22736773 -0.10314053 -0.616849 0.2935923 0.3221536
-0.07720127 0.08801298 -0.4290625 0.061074734 -0.14810851 0.030404964 -0.032857172 -0.017497657
0.2466625 0.14462449 -0.040842064 0.49559367 -0.011901075 0.28751713 0.039144482 -0.2140429
-0.15649533 0.39357686 -0.0032983504 -0.0732578 -0.63379914 0.14305575 0.14606291 -0.33614475
-0.012345386 -0.05036281 -0.08197396 -0.042567167 -0.008360132 0.33873078 0.011667048 -0.048510164
-0.06154788 -0.0387484 0.22957376 0.018735597 -0.21509741 -0.15652055 -0.13111871 0.30222896
-0.06394173 -0.25906533 -0.04768095 -0.014015478 -0.09923882 0.02627165 -0.13521135 -0.54254633
-0.02115866 -0.7617757 -0.51863974 0.11759547 0.02320221 0.16852936 0.13904913 -0.0892442
-0.13535774 -0.18237554 -0.59461486 -0.18842152 0.035524305 0.04560738 0.12657501 0.0336609
0.4585683 -0.039200008 -0.61698866 0.09573766 0.19969316 0.23506558 0.16432521 -0.07105318
0.08327611 0.5895678 -0.33417514 -0.10030437 -0.1474165 0.2889924 -0.17636533 -0.13903578
0.038262267 -0.31032053 -0.6180458 -0.023025746 -0.31328428 0.01240266 -0.10838744 -0.0057479925
-0.15101305 -0.09619885 0.034133147 0.17147316 -0.09007948 0.29176325 -0.40891474 -0.2981765
-0.0077066757 -0.12350146 -0.3342888 -0.08383123 -0.03240976 -0.0913172 -0.07909371 -0.06495124
-0.3615983 1.0317813 0.16842172 -0.02547395 -0.09488374 -0.14391436 -0.27448028 0.16574234
-0.042944532 -0.69132715 -0.46912712 -0.10162572 -0.15245435 -0.4080428 -0.085786775 -0.12936184
0.22158383 -0.09020434 0.31618738 0.70769185 -0.0383964 -0.17011729 0.17134683 0.049816705
0.059042897 0.00065123744 -0.29556283 0.012913893 -0.14757518 -0.11637908 0.035496507 0.052091517
0.17155404 0.0690944 0.08722401 -0.63927466 0.022677265 -0.42896834 -0.045987844 -0.5923588
-0.1449248 -0.5640383 0.07399536 -0.019019028 0.49659097 -0.040260687 -0.02161535 -0.53645694
-0.2825563 0.020405235 0.33339855 0.13805073 0.22350012 -0.1375204 0.01771579 -0.07924302
-0.073630646 0.007410507 -0.36138958 0.052333757 0.21298037 -0.0091670845 -0.30134958 0.1359471
0.10986822 0.3552346 -0.362021 0.14464888 -0.01090465 -0.123221435 -0.09758936 -0.25832763
-0.20001559 0.0066052983 -0.48876488 0.05958797 -0.12492265 -0.032787573 -0.26179495 0.44368145
-0.10184922 -0.091618955 0.110948 0.37035668 -0.21669722 -0.007996397 -0.11082946 0.07345432

fc2.bias f4 [8]
00000000: de33 91bf 06c3 17be fa95 e8be 067a e0be
00000010: a6b3 1abe d836 b2be 50ec 9cbf 0290 8dbf
-1.1343954 -0.1482049 -0.45426923 -0.43843096 -0.15107593 -0.34807467 -1.2259617 -1.1059573

fc3.weight f4 [5, 8]
00000000: 79a7 6b3d f85a d9be f394 e53c 5932 dabd
00000010: e44b 49be cf94 cc3e 8a4a 66be fdd1 e13e
00000020: faef f83d b656 0bbe 6732 20be ff26 7c3d
00000030: 5407 be3e 45cc 17bd 5215 afbd 04bf e6bb
00000040: 14c8 b03d b5dd fbbc 37f9 7e3e 8d0f 1a3e
00000050: 1a2a b3bd a15f 7dbe e69a 59be a05a ffbd
00000060: 9e94 643e 36c3 243b e530 a4be c8dd 8d3e
00000070: dde2 c23d 151b f9bc a56e 03be adb1 c13e
00000080: 1e82 603e a9eb 993e deb6 453d cd76 03bf
00000090: a41e 3b3e 0be6 09bf 483c d13d 6d88 3d3e
0.05753276 -0.42452216 0.028025126 -0.10654134 -0.19657856 0.39957282 -0.22489372 0.4410552
0.12155147 -0.13607296 -0.15644227 0.061560627 0.37114966 -0.03706004 -0.085489884 -0.007041814
0.08631912 -0.030745367 0.24899755 0.15044995 -0.087482646 -0.24743511 -0.21250495 -0.12468457
0.22322318 0.002514077 -0.32068554 0.27708268 0.09515927 -0.030408422 -0.12835176 0.37830868
0.21924636 0.30062607 0.0482701 -0.5135315 0.18273407 -0.5386664 0.10216576 0.18509074

fc3.bias f4 [5]
00000000: d2bb a1bd 2948 dcbc 77c7 bdbc c47d 0fbe
00000010: fcba 69bd
-0.07897152 -0.026889877 -0.023166401 -0.1401282 -0.057063088

exp_avg f4 [64]
00000000: ef41 9e37 dacd dd37 5989 82b7 ad7b f137
00000010: 4fc4 c435 10db c238 f7e0 e4b6 1c7a b636
00000020: 4b7d cd37 f50d 22b9 5193 0a38 70d6 2437
00000030: bfc7 6a36 fe9b 17b8 2862 9bb5 abfd 6bb9
00000040: af5f 2038 5049 4f39 9317 95b6 caf4 fd38
00000050: b0a2 3337 c5b5 8838 b9bf 4536 f1c3 4c39
00000060: a1af a6b7 c55b 4239 28eb 3eb9 ef6d 11b9
00000070: 4852 c135 c10f aeb8 f42b 57b7 c7ed 90b8
00000080: 738a f037 7a26 54b7 9a1f c7b6 b51a 75b5
00000090: 477b 5a39 42f1 a4b8 2d0a 8db8 67c6 403a
000000a0: 00c3 9eb5 5f73 2639 4569 3a39 dac7 4937
000000b0: db76 fdb8 db94 88b7 291c 1938 26e8 13b7
000000c0: edd0 d0b8 6f4d 4d37 c423 0638 65ef d337
000000d0: f04f 0c38 6af2 9939 8d99 2138 2128 8137
000000e0: 27e7 d435 bfde eeb8 295a 3137 b84c 3d38
000000f0: d6bc 8eb6 729e 9ab4 aeaf cd37 cc46 5a38
1.886577e-05 2.644111e-05 -1.5561165e-05 2.878703e-05 1.4660271e-06 9.2914444e-05 -6.821119e-06 5.438238e-06
2.4496248e-05 -0.00015454723 3.3038963e-05 9.825089e-06 3.4984985e-06 -3.6146484e-05 -1.1576967e-06 -0.00022505845
3.8236085e-05 0.0001976837 -4.4432904e-06 0.000121095756 1.070711e-05 6.5188426e-05 2.9466885e-06 0.0001952795
-1.9870526e-05 0.00018535469 -0.00018207415 -0.00013869231 1.4403568e-06 -8.299901e-05 -1.2825232e-05 -6.9107446e-05
2.86747e-05 -1.2645143e-05 -5.934341e-06 -9.1308476e-07 0.00020836024 -7.865067e-05 -6.725299e-05 0.0007353783
-1.182867e-06 0.00015873973 0.00017777558 1.2027065e-05 -0.00012086119 -1.628178e-05 3.650427e-05 -8.815934e-06
-9.957128e-05 1.2236981e-05 3.19814e-05 2.5264637e-05 3.345305e-05 0.00029363047 3.8528397e-05 1.5396685e-05
1.5862505e-06 -0.00011390214 1.0571014e-05 4.513256e-05 -4.253913e-06 -2.880002e-07 2.4519712e-05 5.2041185e-05
