tuning_results/best_models_during_tuning_lightning_logs/eo_stand_GCN_best_model_logs/checkpoints/epoch=107-train_loss=1.35-train_f1=0.38-val_loss=1.59-val_f1=0.37.ckpt (torch, 157362 bytes, 54 tensors)

conv1.bias f4 [64]
000000 16 fe b3 bf 48 01 e1 be 40 a1 4b bf 8f 32 d6 bf
       -1.4061916 -0.4394629 -0.7954292 -1.6734179
000010 49 11 f3 bf b6 5a f0 bf 38 16 3f bf 03 71 bf bf
       -1.898965 -1.8777683 -0.7464328 -1.4956363
000020 bf 5a d6 3c f8 7c d7 bf cc 01 41 c0 83 ee df 3f
       0.026166318 -1.6835012 -3.0157347 1.7494663
000030 20 cf 61 bf ba d8 13 bf d1 0f 18 3e 2a 27 04 3f
       -0.8820667 -0.57752573 0.14849783 0.5162226
000040 35 fb dd bf e3 92 91 c0 cd ed fa be 4f 22 65 c0
       -1.7342287 -4.5491805 -0.49009553 -3.580219
000050 5d c1 e0 be f5 c8 79 c0 b3 e3 79 be 88 3f f7 3f
       -0.43897524 -3.9028904 -0.24403267 1.9316263
000060 0a bd 09 bf 74 e3 21 bf f1 43 ae bf 76 9c 1e 40
       -0.53804076 -0.6323769 -1.3614484 2.4782996
000070 8c c7 12 c0 17 26 53 3f dd 06 59 40 19 a7 2c bf
       -2.2934294 0.82479995 3.391044 -0.6744247
000080 81 32 6e c0 ce b0 30 c0 78 37 ea be e5 38 94 bf
       -3.7218325 -2.7607913 -0.45745444 -1.1579863
000090 b4 34 e5 3f 3a 8b 08 c0 f7 18 f8 bf 79 aa 98 c0
       1.7906709 -2.1334977 -1.9382619 -4.7708097
0000a0 c2 92 a0 bf 50 73 45 40 97 18 eb bf d9 35 2a bf
       -1.2544787 3.085163 -1.8366879 -0.66488415
0000b0 da 60 c7 bf 2e 89 f9 bc ac 7e 78 3e 3a c9 51 40
       -1.5576432 -0.03046092 0.24267071 3.277907
0000c0 eb 47 42 c0 80 a8 97 3f 45 c6 92 bf 80 31 b1 bf
       -3.0356395 1.1848297 -1.1466757 -1.3843231
0000d0 93 be 2c c0 6e 1e 0e bf fd da 64 3f 42 bc 42 3f
       -2.6991317 -0.5551518 0.8939665 0.7606851
0000e0 79 15 fb 3e 06 6b 1f 3f fd 3c 4f bf 5a bc 55 3e
       0.4903982 0.6227268 -0.80952436 0.20872632
0000f0 45 d7 4a c0 ad f8 e6 be dc 8c 7a be 89 0d a2 bf
       -3.169389 -0.451116 -0.24467796 -1.2660381

conv1.lin.weight f4 [64, 25]
000000 0c 95 0c 40 05 95 2b 3f 38 e9 ed 3e ac 01 b6 be
       2.196597 0.6702426 0.46466994 -0.3554815
000010 25 4f 3a bf 77 c4 08 40 31 74 dd bf fc ec b3 bf
       -0.72777015 2.1369913 -1.7301084 -1.4056697
000020 69 1c 68 3e 88 0f 5d bf 77 3b bd bf 51 2b 23 3f
       0.22667088 -0.86351824 -1.4783772 0.6373797
000030 ba 23 c8 3e d0 23 11 be 57 e9 f2 be 78 83 07 be
       0.39089757 -0.14173818 -0.4744365 -0.13233745
000040 e5 ab 33 bf ed c8 54 bf a6 da 1e 3f 17 91 07 bf
       -0.70184165 -0.8311909 0.6205238 -0.52955765
000050 ac 5c a4 bf 32 da f8 be 55 7b df be 0d d3 83 be
       -1.2840781 -0.4860397 -0.43648782 -0.25746956
000060 23 28 19 3f d8 03 c8 be 38 19 50 bf fe 4a 6f bf
       0.5982687 -0.39065433 -0.8128848 -0.93473804
000070 94 a0 bd 3e 16 19 18 3e c5 b9 87 3f 03 94 81 3f
       0.37036574 0.1485332 1.0603567 1.0123295
000080 15 96 84 3f 85 8f 5e 3f 78 15 1a 3f e6 15 59 3f
       1.0358301 0.86937743 0.6018901 0.8479904
000090 d8 b0 2d bf e5 c1 af be c7 70 ec bc 71 0e 05 bf
       -0.6784797 -0.34327617 -0.02886237 -0.5197516
0000a0 8a a1 78 3d d2 fe fe 3f 3c c0 f3 3f 4d 87 d3 bf
       0.06070093 1.9921515 1.904304 -1.6525666
0000b0 21 f3 aa bf a9 bf 08 3e fb 71 c6 3f b5 c1 bb 3f
       -1.3355447 0.13354363 1.5503534 1.466849
0000c0 56 80 41 3e 35 b7 ba be 02 2f b1 3f 44 b9 3c bd
       0.18896613 -0.364679 1.3842471 -0.04607512
0000d0 27 5f 81 be 18 f6 11 3f 66 54 78 3f 10 46 bb 3f
       -0.25267908 0.57016134 0.9700378 1.4630756
0000e0 a9 3a 22 40 fc af 26 40 f1 11 fc 3d 2a 2e b7 3e
       2.5348303 2.6044912 0.123081096 0.35777408
0000f0 8a 5d ea bf 68 b1 f1 bf 69 57 cd bf 4a 44 8f bf
       -1.8309796 -1.8882265 -1.60423 -1.1192715
000100 5e f6 30 bf 84 a3 c5 bf b9 4d d7 3f eb de de 3f
       -0.69125926 -1.5440526 1.6820594 1.7411779
000110 5b 1f 72 3e 87 55 32 be 0d 07 b3 bf 31 3d 4a 3f
       0.23644774 -0.17415439 -1.3986527 0.7899962
000120 30 7b c0 3e 89 1c bb 3e eb 5d 8b be 76 b8 37 3f
       0.37593985 0.36545208 -0.2722009 0.7176584
000130 6f 02 a1 3e 70 04 09 3f b2 d2 87 3f 61 50 8e 3f
       0.3144717 0.53522396 1.0611174 1.111828
000140 ae ff 00 40 12 6f 09 bf 47 c3 e3 be 8f 8a 05 40
       2.0156054 -0.53685105 -0.44484922 2.086582
000150 f7 46 18 40 78 d8 1d 3e 10 6b 6c be 52 dd d5 bc
       2.3793314 0.15414608 -0.23087716 -0.02610651
000160 d3 cf d5 be ed 49 ef 3d 74 e5 a1 bf 1d 8f 89 bf
       -0.4176012 0.11684022 -1.2648149 -1.07468
000170 9c a5 6e bf ae 6d e3 3d 94 a0 cb 3d c2 9b d8 3f
       -0.9322145 0.11104904 0.09942737 1.6922534
000180 68 df 2b 3f b1 1d 1e 3f c7 4a b7 3e ca ce 38 be
       0.67137766 0.61764055 0.35799238 -0.18047634
000190 da 6e 9a be 3e 75 10 40 a8 95 05 40 8c 9d 38 3e
       -0.30162698 2.257156 2.0872593 0.1802885
0001a0 d5 5f ad 3f 5d c9 3f bf c6 0d 0b 3f 4b 61 3d 3f
       1.3544871 -0.7491663 0.5431789 0.7397658
0001b0 c5 16 85 be 5c 43 ea 3d 12 80 96 c0 25 2b a2 c0
       -0.25993934 0.11438629 -4.7031336 -5.0677667
0001c0 72 95 9c c0 13 53 d6 be db 00 e6 3f 69 bc 11 c0
       -4.893243 -0.41860256 1.7969011 -2.2771246
0001d0 2c 9a a6 3f 85 ec ab 3f ad f9 aa 3d c9 53 72 3e
       1.30158 1.3431555 0.08348403 0.23664774
0001e0 b7 02 08 be de bc 28 3f 70 19 5d 3f ff 1e b6 3f
       -0.13282286 0.6591319 0.8636694 1.4228209
0001f0 01 32 09 3e 06 c7 63 bf 25 b1 84 3e 93 a3 cd 3e
       0.13397981 -0.8897556 0.259164 0.4016386
000200 0d 1b 92 3e 49 3f ad bd 97 36 bf bd e1 f5 5a 40
       0.28536263 -0.08459336 -0.09336584 3.4212573
000210 b2 35 53 40 27 48 9a be 8b 38 ba bc b3 a3 62 3f
       3.3001523 -0.30133173 -0.02273204 0.88531035
000220 bb 00 45 bf b2 88 71 bf 5e 8a f5 bc 8c 27 e9 3e
       -0.7695424 -0.94349205 -0.029973205 0.45537984
000230 39 36 17 3f a6 27 50 c0 91 6b 4a c0 24 59 ff 3e
       0.5906711 -3.25242 -3.1628153 0.49872696
000240 95 aa e1 3f 25 3f 66 3e 70 b5 13 40 b9 cd 1b 40
       1.7630183 0.22485025 2.307949 2.4344313
000250 63 4a 05 3f 7c aa af 3d b2 9d 9b 3e 10 36 42 3e
       0.5206663 0.08577439 0.3039375 0.18965936
000260 d8 3a 84 3e 7d aa 50 3f 31 ac d3 be 47 5d 3c be
       0.25826144 0.81510144 -0.4134231 -0.18394957
000270 81 a3 8a bf 11 76 68 bf 40 40 2e 3e 6a 1e b3 be
       -1.0831147 -0.90805155 0.17016697 -0.34984142
000280 07 39 4e 3f f4 17 1f 3e c8 ba b9 3e 3b 2e 81 3f
       0.80555767 0.15536481 0.36275315 1.0092233
000290 69 df 41 3f 33 8e a8 3e e6 a9 1a 3e cf c6 88 3e
       0.7573152 0.3292099 0.15103874 0.2671418
0002a0 23 8b f7 3e 12 ed 4a 3f fe e1 a0 be cf 6e c7 bd
       0.4834834 0.7926799 -0.31422418 -0.09737932
0002b0 e8 23 90 be 95 8c 93 3f 40 dd 68 3f 6e 3c d9 be
       -0.28152394 1.1527277 0.909626 -0.42428917
0002c0 e5 6e 82 be d5 b4 cf be 22 a7 81 be f2 62 17 be
       -0.2547523 -0.4056765 -0.25322825 -0.14783838
0002d0 c4 05 87 bf b2 a8 94 bf 11 70 a5 bf a6 35 09 3f
       -1.0548635 -1.1613982 -1.2924825 0.53597486
0002e0 3e 0b dc 3e 6d 79 bb 3d 58 33 be 3e ee bb 91 3e
       0.42977327 0.091540195 0.37148547 0.2846369
0002f0 64 55 de be f4 15 17 bf 4f 7d 46 3f e4 38 b6 bd
       -0.43424523 -0.5901787 0.77534956 -0.0889757
000300 4f 8e f5 bd 91 4c 43 be 37 0c 06 bf bc 06 8d bf
       -0.11990034 -0.19072177 -0.5236239 -1.101768
000310 08 17 c7 bf db 52 cd bf 9a 2e 93 bf 5d 55 8f bf
       -1.5553904 -1.604091 -1.1498597 -1.1197926
000320 49 06 72 bf b1 36 68 3e 3f 71 32 3e 52 7f 0a bf
       -0.9454084 0.22677113 0.17426012 -0.54100525
000330 b5 13 2a bf b6 5e 07 bf 7e 6c a8 3f e5 67 ca 3f
       -0.6643632 -0.5287889 1.3158109 1.5812956
000340 c8 ed da bd 01 2a d1 3e 17 b8 25 3f 36 86 07 bd
       -0.106898844 0.4085236 0.64734024 -0.033086978
000350 4e a6 7f be 96 1b 25 bd 65 e6 ec be 4f c4 12 be
       -0.24965784 -0.04030951 -0.46269527 -0.14332698
000360 88 2b 96 bf 72 8a 81 bf 91 9f ff be f1 bc 33 bf
       -1.1732035 -1.0120375 -0.49926427 -0.70210177
000370 76 3f 64 bf 1a 29 c5 bf 9a 78 e4 bf 13 54 5f 3c
       -0.89159334 -1.5403168 -1.7849305 0.013630885
000380 53 12 16 bf 43 1b 03 bf 69 a5 54 bd 17 4d a5 3c
       -0.5862171 -0.51213473 -0.05191556 0.02017836
000390 a5 20 9a 3f a5 ce 91 3f 3e 45 82 bf fc f6 96 3f
       1.2041212 1.1391188 -1.0177381 1.1794124
0003a0 5e f8 ae 3f 89 7e 97 be 2d 6b 1a 3f 41 ad 0f 3c
       1.3669546 -0.29588726 0.6031979 0.008769334
0003b0 eb ae a4 bf ff cc 57 bf 37 03 43 40 79 b9 8f 3f
       -1.2865881 -0.84297174 3.0470712 1.1228477
0003c0 53 ad 43 bf 13 e8 23 40 af 70 1f 40 4c 78 bb bf
       -0.76436347 2.5610397 2.4912527 -1.4646087
0003d0 42 f7 67 bf 96 65 ae bf 8f f5 29 c0 da f4 21 c0
       -0.9061166 -1.3624752 -2.6556127 -2.5305696
0003e0 06 40 3b 3f 03 80 ec be 63 90 ee bf f0 d7 7c 3f
       0.73144567 -0.46191415 -1.8637813 0.98766994
0003f0 be 34 5d 3f fd b6 b8 3d 08 d5 81 be 67 6a d2 be
       0.86408603 0.09019277 -0.25357842 -0.41096804

bn1.weight f4 [64]
000000 42 08 0b 3f e3 13 a6 3f 28 92 cb 3f 78 28 9a 3f
       0.54309475 1.2974819 1.5903978 1.20436
000010 23 81 65 40 d4 a8 34 40 71 61 53 3f ef b8 5f 3f
       3.5860069 2.8228045 0.8257056 0.8739156
000020 50 ca e3 3e 72 80 05 40 e2 69 22 40 02 d1 8f 3f
       0.4449029 2.0859647 2.5377126 1.1235659
000030 12 43 b8 3e 57 c6 27 3f 9e 63 f2 3e 1c 52 0c 40
       0.3598867 0.6553702 0.47341627 2.1925116
000040 41 3c 4c 40 ea 95 0e 40 ea 68 56 bf e6 87 6a 40
       3.1911776 2.2279 -0.83753836 3.6645446
000050 58 e8 a5 be ce 50 b1 3f db 9f f6 3e a6 dc 3f 40
       -0.32403827 1.3852785 0.48168835 2.9978423
000060 00 eb 10 40 ce a5 e5 3f 2f ea 86 40 1a 65 a8 3f
       2.2643433 1.7941225 4.216087 1.3155854
000070 12 8f 61 3f fc 76 01 40 a4 df d1 3f 8a 6c 30 3f
       0.8810893 2.0228872 1.6396375 0.6891562
000080 d2 11 24 40 dc 53 a4 3f cf c8 0d 40 0b f5 f7 3f
       2.5635877 1.2838092 2.2153814 1.9371656
000090 c6 94 17 40 62 ce 34 40 d0 b4 25 40 07 ae 46 40
       2.3684554 2.8250966 2.589161 3.1043718
0000a0 7f c3 9b 3f ba 50 0b 40 52 9d 08 40 2c fb 06 3e
       1.2169036 2.1768022 2.134602 0.13181752
0000b0 cf ba b8 3f 24 c3 5b 3f 94 76 30 3f 05 6c 9b 3f
       1.443201 0.85844636 0.68930936 1.214234
0000c0 dc 2d be 3f 22 98 19 3f f7 b9 ad 3f 63 09 92 3f
       1.4857745 0.5999776 1.3572377 1.1409115
0000d0 3a 2d 93 3f 98 e4 52 40 75 f5 51 3f 72 13 6f 40
       1.1498177 3.2952023 0.8201516 3.7355618
0000e0 42 40 2a 3f 26 d9 f3 3f c8 2e 24 3f f3 6a e2 3f
       0.665043 1.9050643 0.6413388 1.7688888
0000f0 00 63 9a 3f 58 f8 88 3e 9a 31 86 3f 96 1e 6a 3f
       1.2061462 0.2675197 1.0483887 0.9145292

bn1.bias f4 [64]
000000 dd 61 b3 be a9 d7 25 bf 62 30 7f be 93 3a f3 3e
       -0.350356 -0.64782196 -0.249208 0.47505626
000010 5f 8a 74 3f 5e 6b 3b bf 53 b2 45 bd 85 94 a6 3e
       0.9552364 -0.73210704 -0.048265766 0.32535186
000020 88 6f 76 bf ce 78 5d 3e f8 9b 04 3f 62 a5 8d bf
       -0.96263933 0.21628115 0.5180049 -1.1066096
000030 df 75 3a 3f c5 9b 31 3f e9 3a 4d be 5e 82 61 be
       0.72836107 0.6937831 -0.20042004 -0.22022387
000040 e6 86 dc 3f 01 e1 e8 3e e3 97 29 bf a9 0b 89 3f
       1.7228668 0.45484164 -0.66247386 1.0706683
000050 de 77 98 3d e9 e9 78 3f ab dc c2 3e 17 c2 54 3f
       0.07444738 0.9723192 0.3805898 0.8310866
000060 39 ab d1 3f 67 9c a2 3f 57 38 3d 3f 70 3f 3b be
       1.6380378 1.270398 0.7391409 -0.18285918
000070 66 b0 2a 3f 0c 32 94 3f 5b f5 1c 3f b8 5b 8e be
       0.6667541 1.1577773 0.6131188 -0.2780435
000080 cd 33 c9 3e cc 83 af bd 77 2f 8e 3f 93 eb ae 3f
       0.39297333 -0.0857006 1.1108235 1.3665642
000090 db ba ab 3e 1d 0e 93 bf 7d 98 f1 3d 08 05 03 c0
       0.33540997 -1.1488682 0.11796663 -2.047182
0000a0 af 8b f5 bf ca 49 d1 3e 9f 7d 17 bf b9 78 7b 3e
       -1.9183253 0.4087661 -0.5917606 0.24557771
0000b0 f4 f1 81 bf d9 7e 21 3f e3 66 e9 3d 86 f3 3b 3f
       -1.0151963 0.6308418 0.11396577 0.7341846
0000c0 8f 1a 01 3f a2 c2 4b be 25 aa 82 3e 71 47 7a 3f
       0.5043115 -0.19898465 0.25520435 0.9776526
0000d0 20 5f 3e bf ef c1 e3 bf 84 28 c8 3f 2b 06 92 3f
       -0.743639 -1.7793559 1.5637364 1.1408132
0000e0 60 4d 10 bf e3 44 ac 3f 6d fc 7a 3f 4b 32 af 3f
       -0.56368065 1.3458523 0.9804142 1.3687223
0000f0 8a 02 7f bf a9 45 3e bd d6 7a 4a 3f b6 04 2f bf
       -0.9961325 -0.04645315 0.7909368 -0.68366563

bn1.running_mean f4 [64]
000000 78 a8 6d 3f d5 84 04 40 67 2f 50 40 af 63 18 40
       0.9283519 2.0706074 3.2528932 2.3810842
000010 91 c6 c9 40 86 2c 5a 40 20 c3 b8 3f 17 26 ae 3f
       6.305489 3.4089675 1.4434547 1.3605374
000020 40 d1 32 40 a5 aa b5 3f f6 86 26 40 f7 0a 8c 40
       2.7940216 1.4192702 2.6019874 4.3763385
000030 8b 4a f7 3f a1 e0 10 40 67 ca dc 3f a9 7d 97 40
       1.9319624 2.2637103 1.7249268 4.7340894
000040 6c 99 2e 40 87 05 79 3f f4 a4 e5 3f f1 6e 41 40
       2.7281141 0.9727406 1.7940965 3.0223963
000050 ba 42 a0 3f 8a ec f3 3f 86 f7 ea 3f 34 37 81 40
       1.2520363 1.9056561 1.8356788 4.0379887
000060 c9 77 85 40 fc e9 3d 40 ac 52 55 40 b9 4c 8a 40
       4.170872 2.9674063 3.333171 4.3218656
000070 5a f0 1d 40 fe 57 64 40 55 66 c2 40 a6 f1 2d 40
       2.467795 3.5678706 6.0749917 2.717874
000080 5c e8 2b 40 06 09 9c 3f 20 1b 4e 40 b7 26 63 40
       2.686057 1.2190254 3.2204056 3.549238
000090 4e c7 73 40 37 50 7e 40 32 3b de 3f a1 3b ae 3f
       3.8090396 3.973646 1.7361815 1.3611947
0000a0 e0 cd 88 40 f7 a8 87 40 0c 00 38 40 dd 30 97 3f
       4.275131 4.2393756 2.8750029 1.1811787
0000b0 98 f1 1c 40 db 5a 27 40 5b fe 51 40 2c 92 9a 40
       2.4522457 2.6149204 3.2811496 4.8303432
0000c0 a5 99 db 3f 3c 34 64 40 36 f4 3b 40 73 be d9 3f
       1.7156264 3.5656881 2.9367805 1.7011245
0000d0 a5 f4 bb 3f 08 28 5f 40 23 33 38 40 93 47 1c 40
       1.4684035 3.4868183 2.8781211 2.4418685
0000e0 08 dd 32 40 56 de 3b 40 53 f7 33 40 0b 79 4d 40
       2.7947407 2.9354453 2.8119705 3.2105129
0000f0 83 8c 2a 40 98 5a bb 3f e9 27 3a 40 7e 31 03 40
       2.6648262 1.4637022 2.908686 2.0498958

bn1.running_var f4 [64]
000000 02 b0 a4 40 b7 fc 73 41 b6 4f 88 41 91 99 01 42
       5.1464853 15.249198 17.038921 32.399967
000010 fd 00 6e 42 d3 af c8 41 2f 12 01 41 3e e8 f0 40
       59.500965 25.085852 8.066939 7.52835
000020 4a 79 34 41 97 ad 07 41 6e 32 64 41 de 44 ba 41
       11.279612 8.47988 14.262312 23.283627
000030 1f 33 38 41 20 ab 24 41 8e 99 c6 40 86 dd b1 41
       11.512481 10.291779 6.2062445 22.233166
000040 aa 25 98 41 04 81 e0 40 8e 5c c7 40 31 ce 29 42
       19.01839 7.015749 6.230048 42.45136
000050 de a1 9f 40 c1 1a 8c 41 6f 81 37 41 3a 6b 10 42
       4.988509 17.513063 11.4691 36.104713
000060 35 fb 40 42 6d da 78 41 26 d8 01 42 f0 60 4e 41
       48.24532 15.553327 32.461082 12.898666
000070 1b 64 9a 41 f5 b0 62 41 08 1d b3 41 09 bf 8d 41
       19.29888 14.168202 22.389175 17.718279
000080 ee e8 d8 41 f1 7d 7d 41 29 e4 85 41 d6 4a 10 42
       27.113735 15.843247 16.736406 36.073082
000090 62 db a6 41 f2 0c 82 41 f4 89 51 41 07 41 74 40
       20.85712 16.25632 13.09618 3.816469
0000a0 6a db df 41 2b 07 ec 41 e5 76 89 41 17 c2 c2 40
       27.982136 29.5035 17.183054 6.0861926
0000b0 2b 97 18 41 80 f5 b2 41 09 0b 7b 41 d8 c6 94 41
       9.536906 22.369873 15.690194 18.597092
0000c0 ae 26 4b 41 40 ca 81 41 8b a3 dc 41 0d fa 0f 41
       12.696943 16.223755 27.579855 8.998548
0000d0 52 f1 ba 40 89 6e 8c 41 ec 30 8d 41 8a ca 8e 41
       5.841958 17.553972 17.648888 17.848896
0000e0 d6 10 31 41 40 4c 48 41 16 0a bc 41 93 7f 3c 41
       11.06661 12.518616 23.504925 11.781146
0000f0 ef 98 f5 41 c9 44 da 40 0b e2 ba 41 72 09 02 41
       30.699675 6.8208966 23.360373 8.127306

conv2.bias f4 [64]
000000 aa 35 90 40 37 9d a2 40 60 aa b3 be 4b 2b 44 be
       4.506551 5.0816913 -0.35090923 -0.1915714
000010 98 23 7e be 58 0c 04 3f 1b 6f 91 bf e5 0e 22 c0
       -0.24818265 0.51581335 -1.1362032 -2.532159
000020 84 a3 29 c0 35 ba 8a 3c f9 89 8c c0 97 88 ad be
       -2.6506052 0.016934494 -4.3918424 -0.33893272
000030 e8 b3 2d 3e 41 80 9b bf 37 7d a9 be 19 5c 93 c0
       0.1696316 -1.2148515 -0.33103344 -4.6049924
000040 4b 50 c0 3f 64 c5 7f 3f c8 b1 bc bf b9 56 43 c0
       1.5024503 0.9991057 -1.4741755 -3.0521681
000050 f3 96 4f 40 42 46 16 be 2f 7b e3 bd 1a 0e 19 40
       3.2435882 -0.14675239 -0.1110748 2.3914857
000060 8e dd 97 40 72 60 d1 3f 50 20 3d 3f 35 d4 b2 c0
       4.7457952 1.6357558 0.7387743 -5.588404
000070 91 37 65 3f 6b ca 4a 3e c0 c3 2c be 01 8d 52 3f
       0.8953791 0.19803779 -0.16871548 0.82246405
000080 ce e7 9e 38 71 97 56 bf 20 c2 50 bd 51 b6 c0 3d
       7.577204e-05 -0.8382483 -0.050966382 0.09409774
000090 24 79 68 40 ef 48 38 c0 15 e2 bf be fd 87 47 bd
       3.6323938 -2.8794515 -0.37477174 -0.048713673
0000a0 fd 54 d5 3f f0 18 bb c0 9b 91 df 3f bb c3 0f c0
       1.6666561 -5.846794 1.746631 -2.2463214
0000b0 64 ef a2 3f da 16 ca bf 09 63 19 be 5a 93 a9 3d
       1.2729306 -1.5788224 -0.14979185 0.08280058
0000c0 d6 25 9f 3e d5 02 a1 bf 07 ca 7a 40 ba 56 67 40
       0.31083554 -1.2578989 3.9185808 3.6146684
0000d0 16 03 25 be 49 96 3b 40 5b 29 59 bf fa ac 42 3f
       -0.16114458 2.9310477 -0.8482873 0.7604519
0000e0 23 32 27 40 ed 80 80 3f 88 f3 1c 3d 7e c3 08 be
       2.612435 1.0039345 0.038318187 -0.13355824
0000f0 48 6b 37 3f ba 11 8e bf e2 13 66 3f 08 a6 8b 3d
       0.71648073 -1.109916 0.8987409 0.06818777

conv2.lin.weight f4 [64, 64]
000000 2c f0 b3 bf b3 6f 61 bf e9 d2 eb bf f9 3a 6c bf
       -1.405767 -0.88061064 -1.842374 -0.92277485
000010 78 16 e5 be e6 49 1c c0 05 2b f8 be e4 a0 10 3f
       -0.44743705 -2.4420104 -0.4847032 0.564955
000020 4a 39 7e bf 77 64 af bf b4 a2 a2 bf 0e 22 13 c0
       -0.99306166 -1.3702534 -1.2705903 -2.2989535
000030 0a 1d 67 3d a8 4f 3f 3e b5 2f 93 be 4e aa f8 3f
       0.05642418 0.1868273 -0.28747335 1.9426973
000040 12 1e f4 3f ed c4 00 c0 d8 d3 d4 bf f0 4b 21 40
       1.9071677 -2.0120194 -1.662715 2.5202599
000050 e4 d2 22 bf 7d 28 b6 3e a6 55 e1 3e fe 6b b5 bf
       -0.63603044 0.35577765 0.44010657 -1.4173582
000060 5d 58 09 bf ef b7 41 3f 3b 34 ce be 0e bf b0 3e
       -0.53650457 0.75671285 -0.40274224 0.34520763
000070 5c 57 1e 3f 00 e0 e7 3f 96 26 04 40 99 e7 fd bf
       0.6185205 1.8115234 2.064855 -1.9836303
000080 35 93 9a be e9 30 9a bf 27 87 0a bf 4a 42 fd 3e
       -0.30190435 -1.2046176 -0.54112476 0.49464637
000090 e4 e6 aa bf 54 15 dc 3f 43 65 17 bf 72 37 60 3f
       -1.3351712 1.7194009 -0.5913889 0.875846
0000a0 58 3a 03 c0 83 20 6c 3d fb 9c 29 c0 2a 79 97 3e
       -2.050436 0.057648193 -2.6502063 0.29584628
0000b0 95 99 23 bf ab 0f 0f bf 01 3c f9 be a6 14 6b bf
       -0.6390622 -0.5588328 -0.48678592 -0.9182838
0000c0 2c c0 2b be 9e b8 86 bf e4 01 a5 bf ce 81 23 be
       -0.16772527 -1.0525091 -1.2891202 -0.15967485
0000d0 c0 3e 23 c0 6c e4 09 c0 f7 4a 8c be 0c d5 ae bf
       -2.550705 -2.1545668 -0.27400944 -1.3658767
0000e0 82 c2 5a bf 20 2c 44 3d d7 76 c5 3d 79 86 39 bf
       -0.85453045 0.047893643 0.096418075 -0.72470814
0000f0 ab 71 c3 bf 03 31 24 be d5 d0 09 bf 57 3c bb bf
       -1.5269064 -0.16034321 -0.5383428 -1.4627789
000100 a6 83 93 3e 97 c7 ec bf 1a 41 7a bf ac 8b 32 bf
       0.28811377 -1.849841 -0.9775559 -0.6974437
000110 45 1b 81 bf 1e 2f 84 bf 3a 9e ae be 1e b0 3a 3f
       -1.0086447 -1.0326879 -0.34105092 0.72924984
000120 fe 23 13 3f eb 8c 1f c0 8e ab c1 3f 0a dc 93 be
       0.57476795 -2.492976 1.5130479 -0.28878814
000130 d5 ab d3 bd 7b 15 84 be 6f dd 62 bf af 16 b2 3f
       -0.10335509 -0.25797638 -0.8861913 1.3913172
000140 78 04 9b bd 53 06 14 c0 d7 01 7a be 6c 90 d1 bf
       -0.07569212 -2.312886 -0.24414764 -1.6372199
000150 3d b2 3c 3f cb a4 f7 bf 02 32 44 bf e9 07 a3 bf
       0.7370947 -1.9347166 -0.76638806 -1.2736789
000160 70 1f 1f 3f 37 3d a9 bf 0e a8 88 3e 32 c4 de 3e
       0.62157345 -1.3221806 0.26690716 0.4350906
000170 ba 59 7f 3f 3c b5 17 40 16 9c 86 3f aa 4f 8d 3c
       0.99746287 2.3704367 1.0516384 0.0172499
000180 6b e7 4f 3f ef ee 9e be 49 dc 16 c0 99 ec ca 3f
       0.8121249 -0.31041667 -2.3571951 1.5853454
000190 65 22 36 bf 2f 9d 94 40 49 2b 4c bd de b4 77 40
       -0.7114623 4.6441875 -0.049845967 3.8704143
0001a0 37 36 40 3f b7 f5 92 be cc 6b 99 bf 6d 9f d3 3e
       0.75082725 -0.2870309 -1.1986022 0.4133257
0001b0 3f d7 13 40 4c 60 19 3e 39 9b 98 bf 4c 95 f8 be
       2.3100126 0.1497814 -1.192237 -0.48551404
0001c0 69 61 ba 3f d8 9e a5 3d 98 67 ce be 7c 29 31 3f
       1.4560977 0.08086938 -0.4031341 0.69203925
0001d0 dd 5f 33 3e 4f 00 47 3f 17 29 e9 3e 35 cb 07 3f
       0.17517038 0.77734846 0.45539162 0.53044444
0001e0 2f 4a 33 3e 34 67 b7 3f 33 ea 27 be 2f 24 f1 be
       0.17508768 1.432837 -0.16397934 -0.47097918
0001f0 29 3e 9b 3f fe ce 0d 3f 02 ab b1 be fa 56 ee be
       1.2128345 0.5539397 -0.3470078 -0.46550733
000200 c1 a8 2b 3f 2e 2d 1a be 6b 34 6b be 0b ed 84 bc
       0.67054373 -0.15056297 -0.22969215 -0.016226312
000210 64 8b 78 3d 1d 83 9c be cc f6 87 3e ee 68 ce 3e
       0.06067981 -0.30568781 0.2655548 0.4031443
000220 f1 87 ff bd 3c a8 d9 be 6e d0 f8 3e 86 8c 01 bf
       -0.12477101 -0.42511165 0.4859652 -0.50605047
000230 b5 eb f6 3e e6 1c 74 3e 8e 53 1c 3e 92 de 69 3e
       0.48226705 0.23839149 0.15266249 0.2283881
000240 2f c4 0e 3f 87 91 2c bf 7a 5c 2d 3e 02 f5 24 bf
       0.557681 -0.6740956 0.16929808 -0.6443635
000250 6e ad c8 3e dc e3 12 3d 01 6a 08 3f b2 07 ed be
       0.39194816 0.035861835 0.5328675 -0.46294934
000260 1e 43 bd 3e c0 32 88 be d5 63 a5 3e 8c 43 94 3c
       0.3696527 -0.2660122 0.32302728 0.018098615
000270 52 a7 26 3f b7 50 04 3f b6 fd ae 3e e1 f8 d9 be
       0.6509906 0.5168566 0.3417794 -0.42572692
000280 d9 0b 80 3e 49 10 c2 3c d9 2e 68 3e e9 72 a4 3d
       0.2500904 0.023689406 0.22674121 0.0802973
000290 03 ff c4 3d f4 dd 19 3f aa 31 04 3f 7a e8 a9 3d
       0.09618952 0.601043 0.5163828 0.082962945
0002a0 7a 42 be 3e 76 62 96 be 1d 59 ad be d4 dd 4b 3e
       0.37160093 -0.29371995 -0.3385705 0.1990884
0002b0 57 1a 57 3e 37 17 9d be 4d 9c 2a be 69 90 e9 be
       0.21006142 -0.30681774 -0.16661187 -0.4561799
0002c0 8a 49 17 3f 08 36 83 be 6e ed 02 3f 8a f3 5c 3f
       0.59096587 -0.2562716 0.5114354 0.8630911
0002d0 63 8c 67 3d 73 98 1d 3f 82 6d cd 3e 88 d8 a2 3e
       0.056530368 0.61560744 0.4012261 0.31805825
0002e0 24 18 a2 3e 76 53 2b 3f 60 a5 13 bd c7 18 3f 3f
       0.31659043 0.66924226 -0.036046386 0.7464718
0002f0 61 4c 80 be 6b b0 52 3e a9 36 86 be 05 88 88 3d
       -0.25058272 0.2057511 -0.26213577 0.06666569
000300 fc 47 7b 3e 45 19 9a 3f 76 bb 1a 40 f4 06 4a be
       0.24539179 1.2038962 2.4176917 -0.19729215
000310 80 b8 1c 40 6d 82 82 bf d2 15 85 bf 8f 34 61 3e
       2.448761 -1.0196053 -1.0397284 0.21992706
000320 79 6e 3e bd 3f f5 22 c0 b7 c1 59 c0 e0 d2 3c bf
       -0.046492074 -2.5462186 -3.4024484 -0.7375927
000330 40 15 dc bf f9 e5 1e bf 43 44 8a 3f 23 de 85 bf
       -1.7193985 -0.6206966 1.0802082 -1.0458416
000340 e0 a5 ae 3f 8c 6c 2c bd d6 80 f1 be 7a 9a 27 40
       1.3644371 -0.042095706 -0.47168607 2.6188035
000350 68 75 37 3e 63 7a 81 3e 19 ef ef be 24 0f cd 3f
       0.1791588 0.25288686 -0.46862105 1.6020246
000360 9c 42 84 3d 40 35 5d bf 4d 0a ae 3f 9f ea e5 3e
       0.06458017 -0.8640938 1.3596894 0.44905564
000370 54 2d ad bf 17 b7 33 c0 20 7c 8e bf 35 05 2e 3d
       -1.3529458 -2.80805 -1.113163 0.042485435
000380 27 59 b9 3f 36 63 1b 3f f3 3b 66 3e 76 18 22 bd
       1.4480332 0.6069826 0.22483806 -0.03957411
000390 c3 c2 30 3e a2 b8 2b 3f 3e 77 ad bf 7a a2 bc 3f
       0.17261796 0.670786 -1.3552015 1.4737084
0003a0 3a a9 83 3f 6b fd 24 3f b1 61 fc be d9 44 fb be
       1.0286019 0.64449185 -0.49293283 -0.49075964
0003b0 5a 88 b0 3f 9c 20 17 3e c9 42 48 be d4 12 6a bf
       1.3791611 0.14758533 -0.19556727 -0.9143498
0003c0 e3 c4 73 be e9 af 34 bf 66 32 98 3c 11 c7 01 bf
       -0.23805575 -0.7058092 0.01857872 -0.50694376
0003d0 85 33 8e 3e 78 2b 83 be a4 74 44 c0 61 3c 44 c0
       0.2777368 -0.25619102 -3.0696192 -3.0661852
0003e0 03 6a 92 3f 02 70 8b bf 6d 24 27 3e 88 33 5d c0
       1.1438602 -1.0893557 0.16322489 -3.4562702
0003f0 d0 78 85 3f 28 27 89 be e4 70 71 3f 43 34 6f 3f
       1.0427494 -0.26787686 0.9431288 0.9343912

bn2.weight f4 [64]
000000 ae bc 2a 40 ad 02 2c 40 98 8d bd 3c 5c 23 52 40
       2.667766 2.6876633 0.023138806 3.2834082
000010 cd 93 cc bd 3b 2a c3 3e 92 f9 24 3f 86 ad c6 3f
       -0.09989128 0.38118157 0.64443314 1.5521705
000020 a3 62 0e 3f fd a1 b7 3e e8 ce 0a 40 69 25 a7 3e
       0.5561926 0.35865775 2.1688786 0.3264573
000030 43 05 e4 3f f2 3f 02 40 f4 a0 95 3e 75 39 15 40
       1.7814106 2.035153 0.2922436 2.331632
000040 9d 79 0b 40 d5 c6 f3 3f 68 d2 25 40 7f fb 22 3f
       2.1792977 1.9045054 2.5909672 0.63665
000050 b0 eb 41 40 24 cc dd 3f 07 af e5 3f 02 7a 5c 40
       3.0300102 1.7327924 1.7944039 3.4449468
000060 3a 38 68 40 16 ad 14 40 25 14 ce 3f 4e 5b 1c 40
       3.6284318 2.3230643 1.6099898 2.4430728
000070 9b 37 66 40 27 d5 14 40 46 e4 4a 40 48 b1 1a 40
       3.597144 2.3255098 3.1701827 2.4170704
000080 e0 b6 5e 3f 4b 95 2b 40 78 30 64 40 95 0d d5 3e
       0.86997795 2.6809871 3.5654583 0.41611925
000090 25 1f 28 40 29 87 64 40 38 a8 88 3f af bd ec 3f
       2.626901 3.5707495 1.0676336 1.8495387
0000a0 c4 40 a9 3f 4b 0d fe 3f 5c 5c 98 3f 4a 78 17 40
       1.322289 1.9847807 1.1903186 2.3667169
0000b0 5e c8 34 40 8b 7d 36 40 ad 31 c4 3f 87 61 98 3f
       2.8247294 2.8514125 1.532766 1.1904763
0000c0 0e 28 b9 3f 23 48 e7 3f ef e3 19 40 c7 ba 0d 40
       1.4465349 1.8068889 2.404537 2.214525
0000d0 24 08 33 40 ff c6 9d 3f a4 c1 92 3f 8b fb 15 40
       2.7973719 1.2326354 1.1465344 2.343478
0000e0 6d f2 12 40 89 b7 00 40 02 b9 82 3f 6f 57 fa 3d
       2.2960465 2.011202 1.021271 0.12223708
0000f0 46 2f 10 40 90 ce 8e 3f 7f fd 94 3f d8 8b 2b 3f
       2.2528853 1.1156788 1.1639861 0.6701026

bn2.bias f4 [64]
000000 24 3e 97 3f e5 ea 24 3f f5 da b7 3d 2c bf 18 3f
       1.1815839 0.6442092 0.089773096 0.59666705
000010 5c 6f d8 bd d9 13 d1 3e cc f5 49 3f a5 15 c3 be
       -0.10568115 0.40835455 0.7889068 -0.3810245
000020 7c a7 23 3e 46 87 28 3e c5 16 05 be bd 6c bf bd
       0.15981859 0.16457853 -0.12996967 -0.09346912
000030 46 d1 1d 3f 2e 88 57 be b6 34 9b bd 0b 26 ef 3d
       0.6164745 -0.21048042 -0.07578413 0.11677178
000040 e9 5d 63 3e 66 93 c8 bd ca 83 a2 be ef 6d 2d be
       0.22203793 -0.09793739 -0.31741172 -0.16936468
000050 83 6a a8 be 0d 67 35 3e 9b 8d 1e be 0d cc 93 3f
       -0.32893762 0.17715092 -0.15483706 1.1546646
000060 2d 8b ac 3d fa 93 28 3f a6 58 3e 3f 00 40 0f bf
       0.08424983 0.65850794 0.74354017 -0.5595703
000070 0b 11 6c 3f c0 3a 93 bd f8 d3 ea 3f 6c 1e 34 3f
       0.92213506 -0.0718894 1.8345938 0.7035892
000080 e7 0b 1a 3e e3 eb 25 3f 71 d5 2b 3e 72 8f 75 3c
       0.15043603 0.6481306 0.1678064 0.014987813
000090 88 95 8f 3f 93 88 b4 bb d8 d3 66 3f 6a 68 3a 3f
       1.1217508 -0.005509445 0.90167 0.72815573
0000a0 b3 63 00 3e 80 d4 49 3e 7a 3c 18 3f d9 1a ec 3e
       0.12538032 0.19709969 0.5946728 0.46114233
0000b0 a0 cf 2d 3f 95 7c d8 3e 81 bb 2d be db 6b b0 3f
       0.67894936 0.4228255 -0.16966058 1.3782915
0000c0 74 2e 7b 3e 69 4f df 3d e1 7d e9 be 6e 3c 0f 3f
       0.24529439 0.10903818 -0.4560385 0.55951583
0000d0 3e dc 55 3f 1b 83 1f 3f 46 e8 33 3c 0e e6 a4 bc
       0.8353919 0.62309426 0.010980671 -0.02012923
0000e0 65 da aa be bf d8 ae 3f ed 34 25 3e 7b 18 86 3e
       -0.33369747 1.3659896 0.16133471 0.26190552
0000f0 d1 f6 f6 3e ef 9c be 3e cf 54 da 3e f1 20 9d 3e
       0.4823518 0.37229106 0.4264283 0.30689195

bn2.running_mean f4 [64]
000000 97 3a f1 41 14 de 56 41 09 52 cd 40 a7 88 6d 40
       30.153608 13.429218 6.416264 3.7114656
000010 75 9c 12 41 01 a2 a7 40 4e a2 38 41 73 85 81 40
       9.1631975 5.238526 11.539625 4.04754
000020 97 18 85 3e 4a 5f c3 40 5f 31 d9 40 40 87 9f 40
       0.25995323 6.105382 6.7872767 4.98526
000030 4c 5b 65 41 d4 70 02 41 5f a8 4c 41 0b 6f ad 40
       14.334789 8.152546 12.791106 5.419805
000040 26 bd 2e 41 ea 92 0e 41 35 69 e3 3e 17 2f 54 40
       10.921179 8.910868 0.44416204 3.3153741
000050 64 79 1e 41 d7 a0 97 3f 35 5e 17 40 2f ea a7 40
       9.904636 1.184596 2.365125 5.247337
000060 a2 a6 90 40 cf ac 4d 40 a1 e7 11 41 64 97 a9 40
       4.520341 3.2136724 9.11905 5.2997303
000070 e7 af 80 41 d3 b4 24 41 9a d6 38 41 2b 96 34 41
       16.08589 10.294147 11.552393 11.286662
000080 0c f8 2b 41 37 32 68 41 30 a3 1f 40 72 50 7f 3f
       10.748058 14.5122595 2.4943352 0.99732125
000090 4a 41 b9 41 aa 8a cc 3b 1b b2 b8 41 ed 01 06 41
       23.15688 0.006242116 23.086966 8.37547
0000a0 2a 42 f2 41 c5 3d a9 40 49 02 1a 41 81 d5 b5 40
       30.282307 5.28879 9.625558 5.6823125
0000b0 08 01 fa 40 0d c6 77 40 b3 0a 79 40 a0 1a bc 41
       7.812626 3.871463 3.891278 23.513
0000c0 95 87 8c 41 b7 89 b6 41 aa 03 11 41 72 a5 b7 40
       17.566202 22.817244 9.063395 5.738946
0000d0 66 27 d0 40 12 57 1a 41 9d 85 53 41 66 40 a1 41
       6.5048094 9.646257 13.22012 20.156445
0000e0 18 9a 52 40 8a 19 72 40 76 89 17 41 4b 39 11 41
       3.2906551 3.7828088 9.47106 9.076488
0000f0 fe 1c 48 41 42 fb f2 40 67 75 60 41 27 47 83 41
       12.507078 7.593171 14.028663 16.409742

bn2.running_var f4 [64]
000000 53 82 94 44 b8 5e 5e 44 f3 87 16 43 1c 23 86 43
       1188.0726 889.48 150.53105 268.2743
000010 33 a4 ad 43 ff 20 bb 42 ef 50 8a 43 91 89 5d 43
       347.2828 93.564445 276.6323 221.53737
000020 5c 9e a2 40 b9 fa da 42 5e dd 02 44 09 f3 0d 43
       5.081831 109.48969 523.45886 141.94936
000030 1e 69 05 44 0e 8f 10 44 cb 3e cd 43 67 11 ba 43
       533.64246 578.2352 410.49057 372.13596
000040 05 fa 99 43 a5 c6 cf 43 8e b3 a8 41 ca 7a 06 43
       307.95328 415.5519 21.087673 134.47964
000050 6d 37 a5 43 cc 63 d9 41 5e 2a 0a 43 09 ca 1f 43
       330.433 27.173729 138.1655 159.7892
000060 0e 68 d0 42 6e c3 a5 42 90 56 70 43 90 e5 a3 43
       104.20323 82.8817 240.33813 327.79346
000070 89 f2 1b 44 a2 a3 bf 43 a1 88 e0 43 56 0c 43 44
       623.7896 383.27838 449.0674 780.19275
000080 0e 10 89 43 bf 7b 37 44 7e b0 e6 42 ec 10 ac 41
       274.12543 733.93353 115.34471 21.508263
000090 48 4f 2e 44 71 12 46 3d dd f8 77 44 ec 0f 95 43
       697.2388 0.04835743 991.8885 298.1244
0000a0 14 8e be 44 44 a7 a9 43 e7 c4 64 43 66 1c a4 43
       1524.44 339.30676 228.76915 328.22186
0000b0 20 59 6b 43 a4 e5 a8 43 6b 0c 69 43 62 68 41 44
       235.34814 337.79407 233.04851 773.631
0000c0 7d 06 2e 44 e5 b3 6c 44 b3 23 ba 43 30 f2 56 43
       696.1014 946.81085 372.2789 214.94604
0000d0 4e 9c d3 43 3b 83 2d 43 99 e9 0b 44 b1 93 76 44
       423.22113 173.51262 559.64996 986.3077
0000e0 d4 89 b7 42 79 ff 25 43 b8 04 3f 43 b9 06 af 43
       91.769196 165.99794 191.01843 350.05252
0000f0 ca d8 01 44 e4 1d 81 43 21 f0 ef 43 48 47 11 44
       519.3873 258.23352 479.876 581.1138

fc1.weight f4 [64, 64]
000000 50 af 1b bf 8b 57 66 3f c1 ea c0 be 51 d0 fc 3f
       -0.6081438 0.8997733 -0.37679103 1.9751073
000010 0b 62 57 be ee ea 9d 3e 8a 11 1a be 85 3f b1 3f
       -0.21033494 0.308433 -0.15045753 1.384751
000020 b8 a2 a7 be 17 78 e9 be 61 90 aa 3e 8a 44 ab be
       -0.32741332 -0.45599434 0.33313277 -0.3345073
000030 b8 98 d2 bf 08 b9 45 3d 11 28 8f bd 54 4d 93 3e
       -1.6452856 0.048272163 -0.06990064 0.28769934
000040 da 0a 50 be b2 02 ff be 69 1b 8c 3e a7 26 d8 3e
       -0.2031664 -0.49806744 0.27364662 0.4221699
000050 11 51 85 be 53 56 1c bf 6f ac 24 bd 86 d1 02 3e
       -0.2603841 -0.6106922 -0.040203508 0.1277524
000060 d2 79 32 3f c2 74 41 bf 59 57 01 c0 ad 99 a5 3f
       0.69717133 -0.75568783 -2.0209563 1.2937523
000070 bb 0a b9 bf 84 5b 12 bf 14 ef fd bf 54 ca 1b bf
       -1.44564 -0.5717089 -1.9838586 -0.60855603
000080 04 9a 84 bf 27 f9 8f bf 66 17 b3 be f6 86 95 3d
       -1.0359502 -1.124791 -0.3497879 0.073011324
000090 4d 8f 05 bf 62 82 b5 bd db cc 18 be c4 c4 98 bf
       -0.52171785 -0.08862759 -0.14921896 -1.1935048
0000a0 e9 af d5 3e 8a 62 91 3f 26 f1 7d be e9 9b 91 3e
       0.4173577 1.1358197 -0.24799022 0.28439263
0000b0 55 57 64 bf 46 59 0f 3f c0 fb 58 3f 96 30 0c bf
       -0.8919576 0.55995595 0.8475914 -0.54761636
0000c0 3b ef 02 bf f9 f6 10 3f 2f a1 f1 3f 92 aa 83 3e
       -0.51146287 0.5662685 1.8877314 0.25716072
0000d0 a1 63 f6 3d f3 bc 85 3f cb ff 66 3e 56 76 6b 3e
       0.120307215 1.0448288 0.22558515 0.2299436
0000e0 cb 77 6b 3c df 9e bc bf 16 8c 59 bf cd 1b 5f 3d
       0.014371823 -1.4735984 -0.8497938 0.054469872
0000f0 86 4d 19 bf 34 db 81 be 2e 15 ca 3e 54 3f 99 3b
       -0.59883916 -0.2536255 0.39469284 0.0046767388
000100 28 de 8a bf 3a 39 9c 3e 7c 7c 0b be 09 26 18 3f
       -1.0849047 0.3051241 -0.13621706 0.5943304
000110 4f 20 72 be ff 31 81 3e 01 4d dd 3e 9b 3d df 3f
       -0.23645137 0.25233456 0.43222812 1.7440675
000120 a2 47 04 3f 53 38 02 be 2c 00 96 be 58 29 f2 3e
       0.51671803 -0.12716798 -0.29297006 0.47297168
000130 59 33 3f bf a9 b0 bf be 6b bb b9 bd 04 37 ec 3d
       -0.74687725 -0.37439469 -0.0906895 0.11533931
000140 06 d1 00 bf 0e 98 12 3f cd f5 91 3e 01 73 5d 3d
       -0.50318944 0.5726327 0.28507844 0.054064754
000150 f4 d5 16 3f 3c da 85 3e 88 35 8e 3f 99 a9 43 3f
       0.58920217 0.26143062 1.1110086 0.7643066
000160 48 b2 c0 be 7b 51 a1 3d b3 85 4a 3f f3 7f 57 3f
       -0.37636018 0.07876869 0.7911026 0.8417961
000170 4b ed 8d bf 37 78 f1 be 42 e4 16 3f 1d 66 e9 bd
       -1.1088041 -0.4716203 0.58942044 -0.1139643
000180 43 cc 9f be 0c 41 fa bd 80 a0 2d 3f 40 7a be 3e
       -0.31210527 -0.12219438 0.6782303 0.37202644
000190 04 26 6b 3f 14 25 82 be 17 c0 d7 3e 63 d2 b1 bf
       0.9185488 -0.25418913 0.4213874 -1.389233
0001a0 dd c3 3f 3f f9 aa 11 bf 73 5c 06 3e 66 32 84 3f
       0.7490824 -0.5690151 0.13121204 1.032788
0001b0 e9 68 b3 3e 2e cf 12 3f 7b 5e 3a 3e 1f f6 ef 3e
       0.35040978 0.5734738 0.18200104 0.46867463
0001c0 b2 b7 b2 3e ee 49 b9 3e 77 61 38 3f ef 8b c9 3c
       0.34905773 0.36189216 0.7202372 0.024602858
0001d0 b0 23 43 3f ee ee 84 3f 76 61 3c 3f 9c 8f f2 3e
       0.7622633 1.0385416 0.73586214 0.4737519
0001e0 94 3c 4c 3f a5 2b 36 3f a4 0e 2f bf ee 87 b0 be
       0.79779935 0.71160346 -0.68381715 -0.34478706
0001f0 07 ae 85 bd 33 af a7 3c 80 52 ab 3e ed 20 5b be
       -0.06527334 0.020469284 0.3346138 -0.21399279
000200 72 ac bc bd a3 7a 12 be d6 e8 6b bd 4b 56 b4 3f
       -0.09212579 -0.14304595 -0.057595097 1.4088835
000210 f3 db 97 be 29 89 0b 3f 98 30 bd be 34 6f 98 be
       -0.29659995 0.54506165 -0.36951137 -0.2977234
000220 97 1f e5 be 13 2a 41 be d2 b6 53 3f 97 e0 83 be
       -0.44750664 -0.18863706 0.82700837 -0.25757286
000230 7e 20 dc 3e 03 3b 81 3f 6a 0c a5 be 7d ad 6d 3f
       0.4299354 1.0096134 -0.32236034 0.9284285
000240 7d a5 ac bc a4 27 e8 3c 70 17 bd be 43 a7 3d 3f
       -0.021075005 0.028339215 -0.36931944 0.74083346
000250 f6 80 a7 bf fd 33 f0 be b1 a3 30 bf a4 d7 f9 3f
       -1.3086231 -0.46914664 -0.68999773 1.9518933
000260 c3 ec 0e 40 6e b0 5c 3f f4 72 bf 3d 36 5b 90 3f
       2.2332008 0.8620671 0.093480974 1.1277835
000270 d8 88 d5 3e 37 e2 e8 3f 8a 7a 87 bf e6 22 b6 3f
       0.41705966 1.8194035 -1.0584271 1.42294
000280 4f 12 f5 3e a1 37 a4 bf 37 45 12 c0 7e 7c 3c be
       0.4786553 -1.2829477 -2.2854745 -0.18406865
000290 45 8a a0 bc 52 4c a1 bd 02 c5 c2 bf 22 2a 11 3f
       -0.019597182 -0.07875885 -1.5216372 0.56704915
0002a0 b7 fd bb bf 70 2b 63 bc 4e 1e 05 3f 5d ae ad bf
       -1.4686803 -0.013865337 0.51999366 -1.3568836
0002b0 30 24 c0 3e 1d ee 27 bf 1d 8f 12 c0 42 6b 26 be
       0.3752761 -0.6559771 -2.289985 -0.16251853
0002c0 ed 16 5b be 2a ed fd bf 18 f9 4f bf 31 7d 9a bf
       -0.21395464 -1.9838002 -0.8123946 -1.2069455
0002d0 8e 8a 2b c0 f5 72 94 3f 4f 22 7b bf 6b 8c 2c c0
       -2.6803317 1.1597582 -0.98099226 -2.6960704
0002e0 aa b8 0c bc d5 55 cb 3f 2a b1 30 3f 9d 95 63 be
       -0.008588949 1.5885569 0.6902033 -0.22225042
0002f0 fe e3 c2 bc 34 b7 35 3f bc f3 72 be e6 82 19 bf
       -0.023790356 0.7098267 -0.2372579 -0.5996536
000300 93 a6 32 bf a8 61 09 bf 00 71 c4 bd f0 ee 0c 3e
       -0.6978542 -0.53664637 -0.095918655 0.13763022
000310 5d 6a b1 3e 00 be c3 3d 64 f5 26 3d 30 cf fe 3e
       0.3465146 0.09557724 0.040761366 0.49767447
000320 10 54 79 be c0 55 ca be a8 84 75 3e 13 7d af 3e
       -0.24348474 -0.39518547 0.23976386 0.34275112
000330 c9 e9 19 c0 48 dc 31 be e3 3e 84 bd 32 53 72 3e
       -2.404894 -0.17369187 -0.06457307 0.23664549
000340 a5 8e 5a bf 35 47 03 bf ac 6d bc be 97 b6 4f 3f
       -0.8537391 -0.5128053 -0.36802423 0.81137985
000350 30 40 3a bf 8f dc 12 3f 1e b4 9e be 98 68 b8 bf
       -0.7275419 0.57367796 -0.30996794 -1.440692
000360 cd 66 46 be 4b af ac be d8 c4 96 bf 2d 43 5b 3f
       -0.19375153 -0.33727488 -1.1778822 0.8564938
000370 50 8b 87 bf b6 17 97 bf 9b 5a fa 3d fd 0a 3f be
       -1.058939 -1.1804111 0.12224313 -0.18656535
000380 f6 62 b3 be d7 03 a8 3e db 46 24 bf ac 3b bb be
       -0.3503644 0.3281543 -0.64170617 -0.36568964
000390 e2 d6 23 bf 46 92 1b be 47 75 49 3d fb d4 03 c0
       -0.6399976 -0.15192518 0.04918411 -2.0598743
0003a0 54 d0 a3 bd 09 1c c3 3f 57 d2 e5 3c 5d 55 29 3f
       -0.0799872 1.5242931 0.0280544 0.6614588
0003b0 4c bf b3 be 7d 6a d9 bd 24 81 96 3f a3 6c 4b bf
       -0.35106885 -0.10616014 1.175816 -0.7946264
0003c0 2d 6a a8 be 8c 7d 0a 3f da 87 38 40 21 a4 ce bf
       -0.32893506 0.5409782 2.8832917 -1.6143838
0003d0 d5 60 53 3f e5 ef 3f bf 84 06 19 3f 15 72 03 3f
       0.8256963 -0.74975425 0.5977557 0.5134595
0003e0 41 d8 b2 3e 9e 57 f8 be 53 ad a6 bf 5a f6 a9 3e
       0.34930614 -0.48504347 -1.3021644 0.33195764
0003f0 1d 83 fd bf e0 e4 24 be af ea 11 3f 39 05 82 3e
       -1.9805638 -0.16102934 0.56998724 0.2539461

fc1.bias f4 [64]
000000 36 e2 cd be 97 53 ce be 46 3d 34 40 15 2b 20 bf
       -0.40211648 -0.4029815 2.8162398 -0.6256574
000010 36 46 db 3f a0 47 07 3f 85 c9 81 3e 4d 31 ac bf
       1.7130802 0.52843666 0.2534906 -1.3452545
000020 44 2f 05 40 45 12 36 3f b2 d9 a6 bd 2b 70 3c 40
       2.0810099 0.7112163 -0.08146991 2.9443462
000030 07 3d 04 be c3 4e 63 40 62 52 4d 3d ba b2 de 40
       -0.12913905 3.5516822 0.050127394 6.959317
000040 ea 1c fb 3f 79 05 90 40 65 90 4a bd fe 62 c1 3f
       1.9618199 4.500668 -0.04945411 1.5108335
000050 62 96 8d 40 21 a3 a7 be 7e dc 07 3f 02 40 87 40
       4.4246073 -0.32741645 0.5307082 4.2265635
000060 25 a8 a6 3b 57 cf e0 bd 42 8b a2 3f cd 13 89 3f
       0.0050859624 -0.10977047 1.2698748 1.0709168
000070 ec 36 e5 bf 5c 9d 6d 3f 4f 2a 89 3f 8b aa 55 bf
       -1.7907386 0.92818236 1.0716037 -0.8346335
000080 b0 2e f2 3d 53 df da be 5c 20 0b 40 46 02 b2 be
       0.11825311 -0.42748508 2.17385 -0.3476736
000090 52 83 1b 3f a8 88 11 3e ce 76 81 3e 7d 99 ac 3f
       0.60747254 0.14212286 0.25285953 1.3484341
0000a0 3d 3d 39 3f 04 1c db 40 69 97 84 3f 11 6b e7 be
       0.7235907 6.84717 1.0358707 -0.45198873
0000b0 1e 9a 43 bd 31 4e 29 bf bb 26 8e bd 54 1b 50 3f
       -0.0477544 -0.66134936 -0.06940981 0.812917
0000c0 3f 84 16 3f 9f 09 4a 40 8b 6e 8c 40 7f 38 f0 3e
       0.5879554 3.1568372 4.388494 0.46918103
0000d0 42 3b 60 3f bb 9a 57 bf b5 f3 fb bd 1c d4 b0 3e
       0.8759042 -0.84220475 -0.12302343 0.34536827
0000e0 ad 59 fe be 6b 07 79 40 d3 3d 4d 40 0b 13 b6 3f
       -0.49677792 3.8910778 3.2068985 1.4224561
0000f0 e6 7b 4d 3f aa 50 90 3f 58 26 a4 3e c5 6a 54 be
       0.8026718 1.1274617 0.32060504 -0.20743854

bn3.weight f4 [64]
000000 37 19 32 3f 7f 35 36 3c 23 4e 27 3f e6 11 61 3e
       0.69569725 0.011121153 0.653536 0.21979484
000010 73 df 60 bd 86 4d aa bd 86 e5 b2 3c b7 27 3d bc
       -0.054900598 -0.08315568 0.02183796 -0.011545113
000020 11 31 1c 3f 5f 72 2a be 5d ac 58 3e 5d 42 4c 3f
       0.6101237 -0.16645192 0.21159501 0.7978876
000030 55 33 46 3b ca e1 f4 3e 54 ab 70 3e b3 af 5a 3f
       0.0030242999 0.47828513 0.23502856 0.85424346
000040 9d 48 9d 3d be 48 25 3f 9e 80 ae 3e 32 78 d6 3d
       0.076798655 0.6456412 0.34082502 0.10472144
000050 ec d3 49 3f d5 01 83 3e 49 9b 01 3e 8e 46 b1 3e
       0.7883899 0.25587335 0.12656893 0.3462414
000060 eb 0e d9 3e d6 c4 a2 bd 6e b5 0a 3e d6 bf 96 bd
       0.42394194 -0.079477 0.13545772 -0.073608086
000070 fc 38 97 bd 83 e7 22 3d 96 3c 2a be e5 da 89 3e
       -0.07383916 0.039771568 -0.16624674 0.26924816
000080 70 10 4e 3d 54 ca 1e bd 5b db b8 3e db 63 c6 3d
       0.050308645 -0.038767174 0.36104855 0.09687015
000090 d8 3e 77 be 1a f1 a2 bc b3 80 ff 3c 9b a8 f2 bd
       -0.24145067 -0.019890357 0.031189298 -0.11848565
0000a0 03 ca 3a 3f 58 4d 82 3f e6 03 8a bd 10 9c 3e 3d
       0.72964495 1.0179853 -0.06739025 0.04653555
0000b0 fd fc 31 3e d8 c4 60 3d 1c a4 b6 3c 83 b3 d4 3c
       0.17381664 0.054875225 0.02229505 0.025964504
0000c0 68 5f 84 bb 8e 82 3b 3f 07 75 2a 3f 70 0e 2d 3e
       -0.0040396936 0.73246086 0.6658482 0.16900039
0000d0 84 7b 23 3e d5 dd 38 be 8c 8b 56 bd 9d 4f 7c 3b
       0.15965086 -0.18053372 -0.052379176 0.0038499602
0000e0 c6 1e 9d bd 5a f2 48 3f ef b5 48 3f 3e 6c 1f 3e
       -0.07671885 0.784948 0.7840261 0.15568635
0000f0 6a ed 8b 3d 60 95 97 3d ed 96 5a 3e 21 2a 43 3f
       0.068323925 0.07401538 0.21346636 0.7623616

bn3.bias f4 [64]
000000 16 c1 a6 3d dd f9 15 bb 6d 9f 27 3e 67 1a 99 3c
       0.08142297 -0.0022884526 0.1636941 0.018689347
000010 59 17 34 bd 1b a5 0a 3d c0 40 d6 3c e3 df 25 3d
       -0.04396758 0.033848863 0.026153922 0.04049672
000020 02 b1 5a 3e 21 53 06 bd 04 f5 1a bc 71 00 9b 3e
       0.21356586 -0.03279412 -0.00945783 0.30273774
000030 4e f3 1e bd 58 15 26 3d e0 89 84 bb b8 b7 d6 3d
       -0.038806252 0.0405477 -0.0040447563 0.1048426
000040 d1 d5 94 3d f1 41 3c 3e 37 23 41 3d 5a 3d 92 3d
       0.07267345 0.1838453 0.047152724 0.07140608
000050 4a ce a5 3d a7 eb ce 3d 6e 24 42 bd de 0b d6 3d
       0.08095987 0.10103541 -0.047398023 0.10451482
000060 65 0f 1f 3e 17 2b 39 3d 03 6c 37 3a c8 5f 61 3c
       0.15533216 0.04520711 0.0006996991 0.013755746
000070 92 d8 5f bd 6e 53 a5 bc a0 fe 62 3c 8e 63 e3 bd
       -0.054649897 -0.020181384 0.013854653 -0.11102973
000080 f7 91 93 bc 47 45 ed 3b ad cf 32 3e 22 1c 86 bd
       -0.018013937 0.0072409245 0.17462035 -0.06548335
000090 d1 31 01 3e a4 33 1b bd 3e 35 99 bd 90 7c 80 3d
       0.1261666 -0.037891045 -0.07480858 0.062737584
0000a0 52 f5 26 3e 2d 10 12 3d 51 e8 cc bc 5f eb a8 3c
       0.1630452 0.035659958 -0.02501312 0.020620046
0000b0 0d 23 0c 3d 81 f8 48 3d 17 ee d6 bb 20 75 14 3c
       0.034213115 0.049065117 -0.0065591442 0.009061128
0000c0 44 51 56 3d 0b cb 8f 3e 32 c3 57 3d 18 3e 5a bd
       0.052323595 0.28084597 0.052676387 -0.053281873
0000d0 11 56 0f 3e 69 79 05 be 32 a4 2b 3d d1 76 3e 3c
       0.13997675 -0.13034596 0.041904636 0.011625008
0000e0 da 29 4f bd b4 9b 83 3e 33 46 42 3d 7a b8 84 3c
       -0.050577022 0.2570473 0.04743023 0.016201247
0000f0 f5 11 d7 3d 8e 2c 22 3e db 58 b3 3a 57 ad 2e 3e
       0.10501472 0.15837309 0.0013683097 0.17058311

bn3.running_mean f4 [64]
000000 58 5a dc 41 6f ed 6a 42 04 5f 9c 42 23 65 30 42
       27.544113 58.73187 78.18558 44.098766
000010 4f e8 a7 42 00 6e d2 41 db fb 08 42 d3 97 12 41
       83.95373 26.30371 34.245953 9.162066
000020 41 9a 2b 43 95 e3 a0 41 36 ba 43 41 57 6c ca 42
       171.60255 20.111124 12.232962 101.2116
000030 a3 a7 3b 42 59 4e d6 42 2e b7 90 42 c5 4c 8d 42
       46.913708 107.15302 72.35777 70.64994
000040 ed 63 7d 41 2b e3 f7 42 29 49 80 41 16 31 ba 42
       15.836896 123.94369 16.035723 93.09587
000050 12 80 0e 42 bd f3 5e 41 17 3f b3 42 30 31 58 42
       35.62507 13.934506 89.62322 54.048035
000060 9e 71 ac 41 45 1d c7 41 28 93 f9 41 61 80 a1 41
       21.555477 24.889292 31.196854 20.187685
000070 67 23 8a 41 98 fd f2 41 55 f5 8c 42 90 08 53 42
       17.267286 30.373825 70.479164 52.75836
000080 4e a2 05 42 0d bd e9 42 17 3f bf 42 7e e2 7a 42
       33.4085 116.86924 95.62322 62.721184
000090 9a 28 1f 41 96 32 9f 40 a7 64 bd 41 b5 54 37 42
       9.9474125 4.974925 23.674147 45.83272
0000a0 8d dc 13 42 37 3c df 42 a3 2a 6f 42 ab c6 13 42
       36.96538 111.61761 59.791637 36.94401
0000b0 6b 40 b9 41 e3 08 d6 41 b8 08 28 42 f4 59 0a 42
       23.156454 26.75434 42.008514 34.587845
0000c0 b0 69 09 42 c8 a7 50 43 76 5c ef 42 83 81 40 41
       34.35321 208.6554 119.68059 12.031619
0000d0 d3 7c 4d 41 cb 7d 00 42 45 c6 6e 41 48 08 b7 41
       12.842975 32.122845 14.923406 22.879044
0000e0 f4 c3 a0 40 b8 b9 a2 42 80 bd 2c 42 26 b0 b4 3f
       5.02392 81.36273 43.18506 1.4116256
0000f0 9f 19 e9 40 bf ae 74 42 fd ec 34 42 96 be da 41
       7.2843776 61.17065 45.231434 27.34306

bn3.running_var f4 [64]
000000 bf 15 d6 45 4d 33 11 46 f2 18 45 46 7e 77 fe 45
       6850.7183 9292.825 12614.236 8142.9365
000010 c4 29 5e 46 e3 97 02 45 f6 96 9c 45 58 43 ab 44
       14218.441 2089.493 5010.87 1370.1045
000020 4d 66 0c 47 99 41 7b 45 e6 a6 4d 45 b8 f4 9b 46
       35942.3 4020.0999 3290.4312 19962.36
000030 7c e1 ab 45 d6 69 a9 46 78 c8 e5 45 f9 dc 9d 46
       5500.1855 21684.918 7353.0586 20206.486
000040 30 4b 4e 45 91 0d c5 46 82 7b 7d 45 af 84 0e 46
       3300.6992 25222.783 4055.7192 9121.171
000050 3d 0f f3 45 f9 13 4d 45 bc 97 06 46 c0 1c f3 45
       7777.905 3281.2483 8613.934 7779.5938
000060 9f 38 aa 45 1b 8a 15 46 3e c6 d9 45 13 3e a1 45
       5447.0776 9570.526 6968.7803 5159.7593
000070 fa 24 8c 45 b7 33 8b 45 60 54 4c 46 f0 03 b4 45
       4484.622 4454.4644 13077.094 5760.492
000080 ff 9e f2 45 3b 13 bc 46 c3 2e 8f 46 17 44 f6 45
       7763.8745 24073.615 18327.38 7880.511
000090 e7 0d a4 44 99 01 a8 44 4c 9d 6a 45 b0 a6 6d 46
       1312.4344 1344.0499 3753.831 15209.672
0000a0 e6 db 0b 46 41 8b b7 46 cf b6 dc 45 1a 17 a6 45
       8950.975 23493.627 7062.851 5314.8877
0000b0 f7 35 81 45 c4 b2 0a 46 b0 4f cb 45 b9 e2 60 46
       4134.7456 8876.691 6505.961 14392.681
0000c0 d8 59 86 45 63 76 45 47 17 fd a4 46 c4 64 e0 44
       4299.2305 50550.387 21118.545 1795.1489
0000d0 ed 59 1d 45 2b bd 0b 46 01 a2 fa 44 34 14 97 45
       2517.6204 8943.292 2005.0626 4834.5254
0000e0 15 a6 26 44 76 da e8 46 4b 68 78 46 28 d8 a1 43
       666.59503 29805.23 15898.073 323.68872
0000f0 24 c1 0b 45 ec b6 12 46 f8 7f 4b 45 81 5a 34 46
       2236.0713 9389.73 3255.998 11542.626
