tuning_results/best_models_during_tuning_lightning_logs/eo_standGCN_best_model_during_tuning/checkpoints/epoch=277-train_loss=0.29-train_f1=0.88-val_loss=5.65-val_f1=0.35.ckpt (torch, 105170 bytes, 38 tensors)

conv1.bias f4 [64]
-0.081159316 0.163636 -0.23112786 -0.23665757 -0.08286501 -0.28557727 -0.2013754 -0.07199991
-0.27771905 -0.44624615 -0.4010016 -0.15438712 -0.177017 -0.14073692 0.061854754 -0.11819006
-0.007467134 -0.1648498 -0.082334965 -0.10460142 -0.001315712 -0.14582367 -0.17858915 -0.09974369
-0.049183767 0.02931521 0.028289104 -0.12825754 -0.100937776 -0.17510225 0.0025919282 -0.15913723
-0.12761584 -0.076591685 -0.19248182 0.011674459 -0.26912364 -0.08678235 -0.29386345 -0.024528125
-0.30062628 -0.40440983 0.17170171 -0.053101826 -0.09972968 -0.2967446 0.082677014 -0.33061674
0.04433659 0.105849914 -0.2032279 -0.18334793 -0.075845316 -0.21228357 -0.09462567 -0.33250841
-0.17885566 -0.11636168 -0.24549599 0.02764288 -0.08766952 -0.18784654 -0.11218661 0.06369142
00000000: db36 a6bd 3290 273e c8ac 6cbe 5d56 72be
00000010: 21b5 a9bd 2f37 92be 5a35 4ebe b074 93bd
00000020: 3131 8ebe 607a e4be 1550 cdbe a817 1ebe
00000030: f243 35be 571d 10be 695b 7d3d a10d f2bd
00000040: dcae f4bb 63ce 28be 3c9f a8bd 4539 d6bd
00000050: f873 acba cd52 15be 13e0 36be 6b46 ccbd
00000060: eb74 49bd 7426 f03c 8dbe e73c f255 03be
00000070: 77b8 cebd 014e 33be 57dd 293b dff4 22be
00000080: baad 02be 1adc 9cbd f419 45be 3b46 3f3c
00000090: 93ca 89be f2ba b1bd 4575 96be 35ef c8bc
000000a0: b0eb 99be ce0e cfbe 93d2 2f3e 4d81 59bd
000000b0: 133f ccbd e9ee 97be 9152 a93d 9946 a9be
000000c0: 499a 353d d7c7 d83d fa1a 50be 8fbf 3bbe
000000d0: ca54 9bbd dd60 59be 1acb c1bd 8b3e aabe
000000e0: f025 37be 084f eebd 4d63 7bbe 5273 e23c
000000f0: 148c b3bd d85a 40be 18c2 e5bd a670 823d

conv1.lin.weight f4 [64, 25]
0.36887005 0.16874793 -0.2259663 -0.15216391 -0.25102705 0.13448298 0.11470893 -0.22603403
-0.085900955 -0.18436383 -0.06507907 -0.27563852 -0.21027792 0.20835614 -0.1843745 0.4113063
0.0025327022 -0.012952291 0.14064173 0.06789421 -0.042690508 -0.20010993 0.15252498 0.15664503
0.19266112 -0.14098966 -0.24506186 0.09893036 0.24062969 -0.037947137 -0.22463842 -0.016265586
-0.33090532 0.09084264 0.28522623 0.34190145 0.22932304 0.07237451 0.1587265 0.049178027
0.10609269 -0.22520798 -0.19876213 0.023405144 0.057809345 0.017422022 0.2574494 0.17292145
0.032705147 -0.030262938 -0.21063922 0.0780696 -0.13306332 -0.57240665 -0.07802208 -0.0637191
-0.116957486 -0.16508515 -0.06642537 0.17183253 0.12274453 0.107141726 -0.25441074 0.066493005
-0.09923411 0.071451455 0.2836721 -0.11181753 0.15653157 0.18964663 -0.005191408 -0.095435925
-0.056294102 0.20027626 0.18524718 0.03238514 -0.25212574 -0.108603016 -0.017811205 -0.24669379
-0.053048108 0.074647635 -0.13575834 -0.24695711 -0.11441154 0.21748792 0.019181246 0.19365244
-0.0048049893 0.3478088 0.05499101 -0.0024624483 0.10867017 0.0009664175 -0.26667097 -0.31399038
-0.2603922 0.16971996 0.2655376 0.27258617 0.03919187 0.083278455 -0.15968542 0.11737165
-0.10216668 0.12473638 -0.28687024 -0.021050304 -0.16260459 -0.24360067 -0.17665295 0.18291636
0.20156583 0.08672722 0.12278585 0.20700823 -0.37967023 -0.429176 -0.11226831 -0.039778054
-0.11471738 0.2614952 0.032275226 0.07333632 0.07945672 -0.1609097 0.20608272 -0.17320962
-0.2829629 0.14187007 0.015183151 0.036752254 0.27950203 0.22478539 -0.03547573 -0.088573955
0.022181405 -0.02161473 -0.01256541 0.12053559 0.17113562 -0.26030385 -0.05416604 0.040173836
0.082421966 -0.2607282 -0.43620834 0.041235592 0.26379672 0.099088006 -0.16691658 0.14721392
-0.071739726 0.046422243 0.24894933 -0.01487304 0.03485229 -0.23528871 -0.20758934 -0.3120505
-0.10453605 -0.22838964 -0.10647683 -0.027057858 -0.23816594 0.2432586 0.06169 0.09290118
0.27283958 -0.11690109 0.07434481 0.24378942 0.12254411 0.002588821 0.23756196 0.24010153
-0.023647899 0.153342 -0.19985645 -0.09610852 0.26524025 -0.20794554 -0.3766108 -0.10567564
-0.019473616 0.18851155 0.18996252 -0.03735681 0.016169345 -0.059868284 -0.29673547 0.044435173
0.10453073 0.06833178 0.26320064 -0.15630671 0.039928947 -0.22397622 -0.14926596 0.30369237
0.09947262 0.18382913 -0.11294513 0.33227623 -0.17763016 -0.17798258 -0.124971084 0.3293314
-0.41946077 -0.31696564 -0.0021112168 -0.1895521 0.1441219 -0.07712548 -0.21902461 -0.22926219
0.14451988 -0.024442486 0.08195827 -0.15285599 0.24993771 0.05789365 0.012767729 -0.16820538
0.029879168 0.030479075 -0.29693788 -0.28160968 0.18338509 -0.112290554 0.25586694 0.080573395
-0.035580676 0.14481165 0.015748732 -0.10605766 0.20730653 -0.22485384 -0.083637774 0.031569432
0.15086934 0.048570625 0.32533336 -0.20165056 0.26963788 -0.103758566 -0.107117966 -0.039202027
0.18440092 0.14561434 -0.14247277 0.101992585 0.13933893 -0.046174217 -0.04799075 -0.30604345
00000000: 89dc bc3e 42cc 2c3e b663 67be dbd0 1bbe
00000010: 9e86 80be e8b5 093e 84ec ea3d 7775 67be
00000020: d7ec afbd dfc9 3cbe 2d48 85bd 7e20 8dbe
00000030: 1853 57be 505b 553e abcc 3cbe bd96 d23e
00000040: b1fb 253b d935 54bc 6304 103e 1f0c 8b3d
00000050: 3edc 2ebd 9ee9 4cbe 822f 1c3e 8e67 203e
00000060: f548 453e 985f 10be 7ff1 7abe 009c ca3d
00000070: a167 763e 756e 1bbd 9d07 66be 683f 85bc
00000080: 6c6c a9be b50b ba3d 2c09 923e b50d af3e
00000090: a9d3 6a3e 1639 943d 3389 223e e66e 493d
000000a0: 2047 d93d ec9c 66be 4d88 4bbe 25bc bf3c
000000b0: 7ec9 6c3d a1b8 8e3c 68d0 833e 5212 313e
000000c0: d5f5 053d fbe9 f7bc cfb1 57be f4e2 9f3d
000000d0: c041 08be 3e89 12bf 0aca 9fbd 297f 82bd
000000e0: 6887 efbd 150c 29be 060a 88bd def4 2f3e
000000f0: 7c61 fb3d 1f6d db3d 2042 82be 7c2d 883d
00000100: 413b cbbd 2455 923d 783d 913e 9700 e5bd
00000110: d049 203e ba32 423e b01c aabb e973 c3bd
00000120: a594 66bd 3815 4d3e 70b1 3d3e 48a6 043d
00000130: a016 81be 426b debd cee8 91bc 4c9d 7cbe
00000140: f948 59bd dce0 983d 3c04 0bbe 53e2 7cbe
00000150: 9950 eabd 27b5 5e3e fd21 9d3c d34c 463e
00000160: 2c73 9dbb ff13 b23e 413e 613d 0761 21bb
00000170: 778e de3d 2e57 7d3a 1989 88be 59c3 a0be
00000180: 2052 85be 12cb 2d3e 8bf4 873e 6a90 8b3e
00000190: a787 203d e58d aa3d 9384 23be 8c60 f03d
000001a0: c43c d1bd ca75 ff3d a8e0 92be b071 acbc
000001b0: d181 26be 7472 79be 83e4 34be 6d4e 3b3e
000001c0: 4667 4e3e 0a9e b13d 2677 fb3d f7f9 533e
000001d0: 2364 c2be f5bc dbbe edec e5bd 50ee 22bd
000001e0: f2f0 eabd b3e2 853e 0733 043d 5a31 963d
000001f0: 34ba a23d 83c5 24be 5907 533e dd5d 31be
00000200: 83e0 90be 6346 113e c0c2 783c 8889 163d
00000210: e41a 8f3e 242e 663e 004f 11bd 4366 b5bd
00000220: c7b5 b53c 6011 b1bc 26df 4dbc 5ddb f63d
00000230: 2d3e 2f3e 8c46 85be 36dd 5dbd 528d 243d
00000240: d9cc a83d 2b7e 85be b356 dfbe a7e6 283d
00000250: 5d10 873e a7ee ca3d 2eec 2abe 3fbf 163e
00000260: 47ec 92bd 4025 3e3d 93ec 7e3e 0dae 73bc
00000270: 46c1 0e3d 86ef 70be 4d92 54be 15c5 9fbe
00000280: ff16 d6bd f9de 69be 8610 dabd 71a8 ddbc
00000290: c6e1 73be c818 793e a7ae 7c3d f942 be3d
000002a0: a1b1 8b3e d769 efbd 1742 983d efa3 793e
000002b0: 68f8 fa3d 36a9 293b 7143 733e 2ddd 753e
000002c0: 3db9 c1bc af05 1d3e 2ba7 4cbe 8bd4 c4bd
000002d0: 92cd 873e adef 54be 21d3 c0be 786c d8bd
000002e0: 2287 9fbc 2c09 413e 8985 423e 7403 19bd
000002f0: 9375 843c 7238 75bd b6ed 97be a801 363d
00000300: 3514 d63d 88f1 8b3d 3cc2 863e de0e 20be
00000310: 898c 233d 065a 65be 2dd9 18be 917d 9b3e
00000320: 4db8 cb3d b43d 3c3e c74f e7bd 1c20 aa3e
00000330: aee4 35be 1141 36be d7f0 ffbd 209e a83e
00000340: 90c3 d6be 5249 a2be 575c 0abb f219 42be
00000350: b194 133e f7f3 9dbd fd47 60be b5c3 6abe
00000360: 05fd 133e 9c3b c8bc bdd9 a73d 4886 1cbe
00000370: acef 7f3e e421 6d3d bd2f 513c 083e 2cbe
00000380: 28c5 f43c 41af f93c 3e08 98be 252f 90be
00000390: 4dc9 3b3e 97f8 e5bd fe00 833e aa03 a53d
000003a0: 0bbd 11bd 8149 143e 7c03 813c c234 d9bd
000003b0: 2a48 543e 1640 66be 484a abbd f34e 013d
000003c0: 7e7d 1a3e fef1 463d 1892 a63e 7c7d 4ebe
000003d0: fa0d 8a3e 5f7f d4bd aa60 dbbd 4e92 20bd
000003e0: 98d3 3c3e ed1b 153e 62e4 11be 7de1 d03d
000003f0: ddae 0e3e 2d21 3dbd f391 44bd bab1 9cbe

bn1.weight f4 [64]
0.83452237 0.9187578 1.0437096 0.91857576 1.0706254 0.9685226 0.83238924 0.82717466
1.0386769 0.85634816 1.0306836 1.0478784 1.0603896 0.85831195 0.8579761 0.9759723
1.0259186 1.0822178 0.997989 1.0134803 1.1958101 0.84149134 1.0462301 0.96212935
1.0710071 1.0210441 1.0414466 0.87230986 1.0328867 1.0501044 0.9412188 0.8110151
0.8984754 1.121478 1.0613385 1.0665679 0.8889583 0.91120654 0.9849312 0.8509008
1.0303577 0.95805687 0.98532975 0.8555653 1.0094191 1.0995095 0.83611107 0.9709105
0.89807326 1.0385636 0.9110155 0.9665978 0.81133515 0.9361123 1.1975524 1.0186778
1.1284817 1.1565164 1.2096287 1.0895323 1.1290532 1.0657407 0.8440127 1.073956
00000000: 42a3 553f b633 6b3f 4798 853f c827 6b3f
00000010: 410a 893f 19f1 773f 7617 553f b8c1 533f
00000020: 5df3 843f a239 5b3f 71ed 833f e120 863f
00000030: d9ba 873f 55ba 5b3f 52a4 5b3f 52d9 793f
00000040: 4d51 833f 1d86 8a3f 357c 7f3f b9b9 813f
00000050: 4e10 993f fa6b 573f deea 853f 1c4e 763f
00000060: c316 893f 93b1 823f 1f4e 853f b34f 5f3f
00000070: a235 843f d269 863f b7f3 703f b09e 4f3f
00000080: 7c02 663f 978c 8f3f f1d9 873f 4c85 883f
00000090: c592 633f d544 693f 7324 7c3f a3d4 593f
000000a0: c3e2 833f 3743 753f 923e 7c3f 5406 5b3f
000000b0: a534 813f babc 8c3f 600b 563f 978d 783f
000000c0: 21e8 653f a7ef 843f 5038 693f f472 773f
000000d0: a9b3 4f3f 0ea5 6f3f 6649 993f 0964 823f
000000e0: 1772 903f bb08 943f 1dd5 9a3f cb75 8b3f
000000f0: d184 903f 316a 883f 3711 583f 6477 893f

bn1.bias f4 [64]
0.11212309 0.070803836 -0.14070064 0.36822036 -0.015570099 -0.075175665 -0.19494192 0.09535565
0.10723487 -0.01542635 -0.063752264 -0.19118194 -0.11464243 0.16775618 0.080395736 0.124162234
0.22152294 -0.07015427 0.04333527 0.09414198 -0.15917541 -0.09359846 0.27233312 0.023695884
0.29219624 -0.05320552 -0.04884838 -0.14127976 -0.31184113 0.024276732 0.40817544 0.15317449
0.17971395 -0.2091411 0.21138868 0.069646046 0.35593268 0.2890441 -0.16722208 0.095715284
0.102598265 0.16788681 0.18876325 -0.21305794 0.013186419 -0.11457437 0.27345443 0.061754324
0.18296564 0.23744497 0.08234158 0.14540601 0.26026845 -0.004492417 0.11053541 -0.058972076
0.32048625 -0.22591634 0.10160726 0.09813775 0.19533397 0.20954874 0.06358021 -0.020594565
00000000: caa0 e53d 9a01 913d d413 10be 6187 bc3e
00000010: bb19 7fbc b3f5 99bd db9e 47be d349 c33d
00000020: f59d db3d cdbe 7cbc 8c90 82bd 33c5 43be
00000030: a6c9 eabd 47c8 2b3e 85a6 a43d c548 fe3d
00000040: e9d6 623e 0bad 8fbd 5380 313d 83cd c03d
00000050: e1fe 22be 8db0 bfbd 3f6f 8b3e df1d c23c
00000060: bf9a 953e 08ee 59bd 3d15 48bd a4ab 10be
00000070: a4a9 9fbe ffdf c63c 5ffc d03e c6d9 1c3e
00000080: ef06 383e 1629 56be 4676 583e 96a2 8e3d
00000090: cf3c b63e 97fd 933e 443c 2bbe 6006 c43d
000000a0: 0a1f d23d 85ea 2b3e 274b 413e dc2b 5abe
000000b0: da0b 583c f8a5 eabd 3802 8c3e 1af2 7c3d
000000c0: 585b 3b3e c624 733e b4a2 a83d 50e5 143e
000000d0: e841 853e 2035 93bb 6460 e23d b48c 71bd
000000e0: c616 a43e 9d56 67be 7817 d03d 72fc c83d
000000f0: a105 483e f293 563e 5736 823d efb5 a8bc

bn1.running_mean f4 [64]
0.39049062 0.46488762 0.28226852 0.33463326 0.15969792 0.37642533 0.39355838 0.18296589
0.36353126 0.2686715 0.19913106 0.21602854 0.385317 0.41874716 0.37449706 0.2596686
0.3967473 0.4620629 0.517874 0.26354805 0.35487095 0.3040931 0.5399201 0.1250376
0.43440166 0.7318789 0.54477805 0.24712162 0.77938193 0.14351106 0.37413317 0.48156753
0.4854222 0.23347382 0.16059287 0.32770056 0.36173972 0.4697972 0.29229534 0.2267806
0.13846974 0.19346613 0.37255755 0.40762776 0.2039013 0.17070086 0.70753497 0.27254456
0.4229301 0.44439778 0.4104642 0.34701458 0.38226885 0.39528614 0.41934094 0.33105832
0.22296587 0.34448004 0.20924968 0.4949793 0.15098421 0.1537977 0.84362096 0.22562988
00000000: 63ee c73e c005 ee3e 8085 903e 0d55 ab3e
00000010: da87 233e d2ba c03e 7c80 c93e 695b 3b3e
00000020: c520 ba3e 508f 893e 03e9 4b3e 9636 5d3e
00000030: 4548 c53e 0766 d63e 14be bf3e 48f3 843e
00000040: 7622 cb3e 8293 ec3e 6493 043f c5ef 863e
00000050: a5b1 b53e 17b2 9b3e 3438 0a3f db09 003e
00000060: e569 de3e 6a5c 3b3f 9376 0b3f 730d 7d3e
00000070: 9385 473f 90f4 123e 628e bf3e 0590 f63e
00000080: 4289 f83e c313 6f3e 7572 243e 5ec8 a73e
00000090: f335 b93e 4289 f03e bca7 953e 2c39 683e
000000a0: 03cb 0d3e fc1b 463e ddbf be3e 96b4 d03e
000000b0: 81cb 503e 35cc 2e3e 0321 353f f68a 8b3e
000000c0: 4b8a d83e 1b88 e33e 5d28 d23e e5ab b13e
000000d0: beb8 c33e f262 ca3e dbb3 d63e 7a80 a93e
000000e0: 2a51 643e b05f b03e 8c45 563e ed6d fd3e
000000f0: 9b9b 1a3e 257d 1d3e 8bf7 573f 850b 673e

bn1.running_var f4 [64]
0.5191516 0.82549715 0.33154622 0.4257752 0.07855766 0.3319222 0.6763814 0.15599503
0.22109045 0.31059018 0.116488874 0.16971831 0.56480867 0.6830394 0.41283306 0.13820007
0.29869822 0.27527973 0.42176142 0.22326775 0.1271303 0.33057275 0.39133692 0.056830462
0.507453 0.49679112 0.5354778 0.15994169 0.81363446 0.1160218 0.7956038 0.5543366
0.5496441 0.1712432 0.13969377 0.28090468 0.24953 0.49003655 0.1758838 0.21455601
0.08221828 0.114120394 0.33141014 0.4133341 0.10197468 0.11369383 1.4210339 0.22446339
0.8015455 0.27035356 0.3319967 0.39724162 0.65235656 0.36453936 0.26710254 0.1851853
0.13701956 0.2674146 0.17628843 0.28174636 0.083839215 0.088954814 0.8615939 0.10435776
00000000: 1fe7 043f c853 533f 6dc0 a93e 35ff d93e
00000010: d7e2 a03d b5f1 a93e 5527 2d3f 29bd 1f3e
00000020: 8965 623e ad05 9f3e b891 ee3d a3ca 2d3e
00000030: 4d97 103f acdb 2e3f db5e d33e 5284 0d3e
00000040: f9ee 983e 77f1 8c3e 1df1 d73e 4da0 643e
00000050: 722e 023e d540 a93e 505d c83e 0fc7 683d
00000060: 71e8 013f 685b fe3e 1315 093f c1c7 233e
00000070: 594a 503f d69c ed3d b1ac 4b3f 01e9 0d3f
00000080: 7ab5 0c3f 615a 2f3e e20b 0f3e bdd2 8f3e
00000090: cb84 7f3e 12e6 fa3e e21a 343e 92b4 5b3e
000000a0: 0f62 a83d f4b7 e93d 97ae a93e 87a0 d33e
000000b0: 1ad8 d03d 50d8 e83d 70e4 b53f bbd9 653e
000000c0: 1632 4d3f c86b 8a3e 79fb a93e 4163 cb3e
000000d0: d700 273f e7a4 ba3e aac1 883e 37a1 3d3e
000000e0: db4e 0c3e 91ea 883e f484 343e 0f41 903e
000000f0: e5b3 ab3d f12d b63d 6b91 5c3f 85b9 d53d

conv2.bias f4 [64]
-0.06760825 -0.061401803 -0.13752602 -0.19948764 -0.0705239 0.0724644 -0.09230835 -0.05353061
0.029535465 0.022044865 0.0076574283 -0.049723994 0.12156928 -0.13258791 -0.12168079 -0.0231028
-0.14556526 -0.33251366 -0.016841255 -0.092428766 -0.009037995 -0.044104155 0.010211519 -0.18161431
-0.20111294 -0.09400833 -0.10070469 -0.12135389 -0.22311646 -0.025293067 0.0409502 -0.09766301
-0.01753448 -0.1306416 0.22298618 0.16864565 -0.07142199 -0.09447196 -0.2030489 -0.2421166
-0.18090017 -0.16504908 0.24939719 -0.28792956 -0.19444574 -0.05844367 -0.06617515 -0.04830826
-0.22474982 0.07689544 0.10052254 0.008730238 0.035450116 -0.29097387 -0.11361473 -0.05611101
-0.09639985 0.0030963311 -0.23399772 -0.08077427 0.3089441 -0.13626929 -0.1839138 -0.06711567
00000000: 3276 8abd 7580 7bbd 9fd3 0cbe 7d46 4cbe
00000010: d66e 90bd 3768 943d 290c bdbd ea42 5bbd
00000020: 5cf4 f13c 6f97 b43c 2aeb fa3b 63ab 4bbd
00000030: 51f9 f83d 20c5 07be c733 f9bd 1542 bdbc
00000040: 0f0f 15be 3b3f aabe acf6 89bc 4b4b bdbd
00000050: 1914 14bc 8fa6 34bd 374e 273c 1af9 39be
00000060: 8df0 4dbe 7087 c0bd 433e cebd 6388 f8bd
00000070: a478 64be 6833 cfbc 66bb 273d 8b03 c8bd
00000080: 78a4 8fbc e9c6 05be 7d56 643e 72b1 2c3e
00000090: b145 92bd 847a c1bd 0dec 4fbe 6aed 77be
000000a0: e53d 39be a002 29be fa61 7f3e 816b 93be
000000b0: c91c 47be a162 6fbd d686 87bd e2de 45bd
000000c0: d124 66be 5b7b 9d3d c3de cd3d 4609 0f3c
000000d0: 2434 113d 87fa 94be d7ae e8bd a9d4 65bd
000000e0: 496d c5bd d1eb 4a3b 199d 6fbe fb6c a5bd
000000f0: ec2d 9e3e 2d8a 0bbe e653 3cbe f173 89bd

conv2.lin.weight f4 [64, 64]
-0.0053186626 -0.23040724 0.06230824 0.18089436 -0.016797379 0.035071645 0.11538702 -0.14450948
-0.06690705 0.14387675 -0.15411264 0.3269943 0.13008772 -0.36209425 -0.057436965 -0.013414316
-0.12833032 -0.20838933 0.21217552 -0.059767094 -0.061835214 -0.037785657 -0.26131848 -0.2990281
0.08258244 -0.09044362 0.110026516 0.016179543 -0.01737552 -0.16872716 0.14914829 -0.061692864
-0.02843371 0.081932604 -0.18833245 -0.004955923 -0.21798068 -0.17544252 0.11695909 -0.12964897
0.18369135 0.07828372 -0.26346517 0.12170172 -0.3489287 -0.31044382 -0.49711 -0.30666697
-0.25828552 -0.10907387 0.0404015 0.018530011 -0.42377415 0.15890661 0.03314606 0.051579338
0.014456582 0.19903223 -0.12693478 -0.044454753 0.14615503 -0.08649525 -0.24457002 -0.060274497
0.15876065 -0.35483554 0.031960618 0.087910265 -0.050456397 -0.034671612 0.06287177 0.19120389
-0.21668218 -0.040816873 0.050796896 -0.23742926 -0.14073654 -0.16296148 0.15688261 0.1310306
0.37046146 0.071896136 0.10218598 0.1498215 0.2880462 0.05651093 -0.08515773 -0.104121536
0.11012522 -0.21459234 -0.14254555 -0.23869957 0.18647474 0.25438425 -0.5770945 0.07338281
-0.19060047 0.09044912 -0.019727034 -0.11529633 -0.059285905 0.24837805 -0.20530847 -0.050650854
-0.17861152 -0.09449753 0.26382098 -0.12283993 0.1102337 0.10037724 0.13902599 0.05025957
-0.009637086 -0.0034509366 -0.09811809 -0.03247502 0.007687925 0.16114 -0.049957957 0.16759048
0.32678568 -0.13785088 0.26427367 -0.09516304 0.009531825 0.06496882 -0.14422552 -0.315358
0.080358155 -0.26928714 0.15564014 0.15862432 0.072047204 0.043971617 -0.011065408 -0.15555432
-0.041868977 0.19361004 -0.25763276 0.11558362 0.078356184 -0.09025473 0.09812345 -0.06699889
0.2954999 0.10859074 -0.14769389 -0.4605409 0.39876926 0.09863759 -0.22302149 0.21180104
-0.079378426 0.08930423 -0.23594299 -0.0070743985 0.15302055 0.046336673 0.0005360679 -0.20369774
0.24889067 -0.008048692 0.17318684 0.13243029 0.04159239 -0.101611815 0.01999889 0.06750446
-0.0054563885 -0.14352868 -0.20790379 0.030232804 0.07382195 -0.16596253 -0.20029186 -0.04203341
0.092796914 -0.016571393 0.084862635 -0.1344207 -0.05607294 -0.11922057 -0.1632277 -0.12392424
-0.29670948 0.25980338 -0.22902207 -0.11836026 -0.4137559 0.26947895 0.25904238 0.0065470487
0.029262815 0.0868103 0.09212616 -0.23053782 -0.0012712432 0.23093277 0.03628292 -0.24526016
-0.25840282 -0.14400208 0.03897414 -0.029599143 0.24641086 -0.03735065 0.07514207 -0.13588165
-0.06107996 0.22293581 -0.033680774 -0.19616912 -0.039753247 -0.22698914 -0.123826884 -0.117163956
0.15147772 0.04229816 0.22414196 0.2062819 0.47963414 0.16916603 0.05558343 0.12629163
-0.08402596 0.12525155 -0.015333265 0.06481 0.14906336 0.07289918 0.02052544 -0.011918986
-0.2373942 -0.007549108 0.21019748 0.11063786 0.32726294 0.120792605 -0.29402038 0.1339711
0.08224261 -0.14307937 0.08768416 0.18942197 -0.08060053 -0.06534315 0.2087257 0.21887428
0.20515086 0.15911126 -0.035183642 -0.13788219 0.28505763 0.16840577 -0.07787645 0.31286535
00000000: 2d48 aebb e0ef 6bbe ed36 7f3d 5f3c 393e
00000010: a89a 89bc 49a7 0f3d 0850 ec3d 4bfa 13be
00000020: 9006 89bd 6d54 133e b4cf 1dbe cc6b a73e
00000030: b735 053e 6b64 b9be 0643 6bbd b8c7 5bbc
00000040: 0669 03be 0364 55be 8a44 593e 57ce 74bd
00000050: ec46 7dbd 22c5 1abd 89cb 85be 361a 99be
00000060: fb20 a93d 813a b9bd 9555 e13d f68a 843c
00000070: 1b57 8ebc d0c6 2cbe 54ba 183e a8b1 7cbd
00000080: d0ed e8bc 48cc a73d 39da 40be 4c65 a2bb
00000090: 5436 5fbe 34a7 33be 3f88 ef3d b3c2 04be
000000a0: 9619 3c3e 3753 a03d e8e4 86be c03e f93d
000000b0: c8a6 b2be 7ef2 9ebe 3485 febe 7403 9dbe
000000c0: 003e 84be 1f62 dfbd 0b7c 253d 40cc 973c
000000d0: edf8 d8be 6ab8 223e 2ac4 073d db44 533d
000000e0: 4ddb 6c3c 1bcf 4b3e 31fb 01be 3016 36bd
000000f0: aaa9 153e 6c24 b1bd 9070 7abe 64e2 76bd
00000100: 2792 223e 01ad b5be 23e9 023d 4c0a b43d
00000110: 5eab 4ebd d203 0ebd eac2 803d f4ca 433e
00000120: efe1 5dbe 982f 27bd 6810 503d a820 73be
00000130: 3d1d 10be 60df 26be d6a5 203e e32c 063e
00000140: 20ad bd3e 483e 933d e246 d13d cf6a 193e
00000150: cb7a 933e 0178 673d 2d67 aebd ac3d d5bd
00000160: 5589 e13d 18be 5bbe 76f7 11be a96d 74be
00000170: 3cf3 3e3e a73e 823e 77bc 13bf ba49 963d
00000180: c52c 43be 633d b93d 979a a1bc 7b20 ecbd
00000190: c7d5 72bd d156 7e3e 623c 52be 4577 4fbd
000001a0: f0e5 36be ec87 c1bd 8b13 873e 8093 fbbd
000001b0: 35c2 e13d 9592 cd3d d45c 0e3e fbdc 4d3d
000001c0: dee4 1dbc 1c29 62bb 23f2 c8bd 8704 05bd
000001d0: fdea fb3b e201 253e b7a0 4cbd d79c 2b3e
000001e0: 7450 a73e c828 0dbe e14e 873e d7e4 c2bd
000001f0: 5f2b 1c3c 5f0e 853d dbaf 13be 9b76 a1be
00000200: d192 a43d 01e0 89be 2160 1f3e 6a6e 223e
00000210: 7c8d 933d 951b 343d af4b 35bc a249 1fbe
00000220: ce7e 2bbd b641 463e 71e8 83be 1bb7 ec3d
00000230: 3579 a03d 79d7 b8bd f3f4 c83d b736 89bd
00000240: c34b 973e d264 de3d 113d 17be 04cc ebbe
00000250: 7c2b cc3e 8102 ca3d bf5f 64be 5fe2 583e
00000260: 2891 a2bd 23e5 b63d 0a9b 71be 5bd0 e7bb
00000270: 6bb1 1c3e 86cb 3d3d e886 0c3a 2496 50be
00000280: 32dd 7e3e a9de 03bc e457 313e ce9b 073e
00000290: c85c 2a3d db19 d0bd b6d4 a33c c73f 8a3d
000002a0: 81cb b2bb 2ff9 12be bbe4 54be c9aa f73c
000002b0: f62f 973d 15f2 29be 4f19 4dbe 3a2b 2cbd
000002c0: 4f0c be3d bbc0 87bc 76cc ad3d 94a5 09be
000002d0: bdac 65bd ea29 f4bd 2a25 27be fecb fdbd
000002e0: 4eea 97be f304 853e c384 6abe dd66 f2bd
000002f0: d0d7 d3be 25f9 893e 34a1 843e a088 d63b
00000300: 92b8 ef3c 99c9 b13d a4ac bc3d 1b12 6cbe
00000310: d89f a6ba a479 6c3e 669d 143d 7b25 7bbe
00000320: 604d 84be 4875 13be 59a3 1f3d e779 f2bc
00000330: 2153 7c3e fffc 18bd 16e4 993d 8f24 0bbe
00000340: fb2e 7abd 4949 643e daf4 09bd 8fe0 48be
00000350: 4dd4 22bd d76f 68be f398 fdbd a8f3 efbd
00000360: fa1c 1b3e d640 2d3d 7885 653e 903b 533e
00000370: 9b92 f53e dc39 2d3e 73ab 633d 9852 013e
00000380: cd15 acbd f141 003e 6038 7bbc 1bbb 843d
00000390: 11a4 183e 2a4c 953d f824 a83c da47 43bc
000003a0: 7717 73be 825e f7bb 023e 573e 1a96 e23d
000003b0: 028f a73e 1d62 f73d d789 96be b82f 093e
000003c0: d06e a83d 6683 12be c193 b33d d5f7 413e
000003d0: e411 a5bd a1d2 85bd 31bc 553e 9420 603e
000003e0: 1113 523e 10ee 223e b91c 10bd fd30 0dbe
000003f0: 13f3 913e 9072 2c3e b07d 9fbd e32f a03e

bn2.weight f4 [64]
0.9414271 1.0802851 1.0063182 1.1446564 1.0421274 1.0379349 1.0449147 0.90751874
0.878377 1.0374218 0.96599466 0.90970844 0.9742444 0.9322062 1.079982 1.0041723
1.0428377 0.95327866 0.98751366 0.9437885 1.0671656 0.9355672 0.99463505 0.9174928
0.94182986 0.96913415 1.0690768 0.9101712 0.9892964 1.0913997 1.0548749 0.99323785
0.9994325 0.97509944 0.9910453 0.99474365 1.049497 0.8746417 0.9529619 0.8635619
0.86642617 0.91246235 1.078214 1.0569328 1.0424913 0.99837387 1.1172252 0.9667788
0.9105866 0.9477154 1.003095 1.1524407 0.96096617 0.90332395 0.99579114 1.0608194
0.96655715 1.0073953 0.96666795 0.88434225 1.03342 1.00091 1.0222594 0.8990096
00000000: 5e01 713f c846 8a3f 09cf 803f 1a84 923f
00000010: 6e64 853f 0ddb 843f c4bf 853f 2653 683f
00000020: 51dd 603f 3dca 843f 6d4b 773f a7e2 683f
00000030: 1568 793f 11a5 6e3f da3c 8a3f b888 803f
00000040: b57b 853f 120a 743f b2cd 7c3f 209c 713f
00000050: e298 883f 5581 6f3f 67a0 7e3f cfe0 6a3f
00000060: c31b 713f 2d19 783f 82d7 883f fb00 693f
00000070: 8742 7d3f fcb2 8b3f 2406 873f d644 7e3f
00000080: cfda 7f3f 1ea0 793f 25b5 7d3f 85a7 7e3f
00000090: eb55 863f 85e8 5f3f 50f5 733f 6512 5d3f
000000a0: 1bce 5d3f 2297 693f eb02 8a3f 9349 873f
000000b0: 5b70 853f 6e95 7f3f 3c01 8f3f d17e 773f
000000c0: 341c 693f 7a9d 723f 6b65 803f 2d83 933f
000000d0: e101 763f 3d40 673f 2bec 7e3f eec8 873f
000000e0: 4a70 773f 54f2 803f 8d77 773f 4164 623f
000000f0: 1b47 843f d21d 803f 65d9 823f 7e25 663f

bn2.bias f4 [64]
0.3445866 0.17699921 0.18523808 0.07511942 -0.07291008 0.39644253 0.08802619 0.20188947
0.13075134 -0.052315038 0.041499846 0.42489034 0.3160735 0.05941948 0.07437368 0.18263331
0.21816441 0.34988934 0.089639656 -0.17197293 0.10951921 0.33476198 0.3855855 0.34782505
0.24138077 0.1140069 0.03345382 0.44084 0.16588722 0.08615964 0.33280823 0.17815438
0.3491732 0.10622367 0.30720162 0.34412637 0.012289362 0.3755561 0.12696737 -0.09251205
0.017422408 0.36228544 0.05488163 -0.09947775 0.34551036 0.70733964 0.24514814 -0.009023221
0.30030388 0.035424862 -0.10267485 0.24653377 0.025240116 0.21205355 0.39240193 -0.06339287
0.4837624 0.20798388 0.28503856 0.69573665 -0.051523115 0.37820983 0.0039013652 -0.21235166
00000000: a86d b03e 483f 353e 0daf 3d3e 36d8 993d
00000010: e151 95bd 84fa ca3e 1347 b43d 1dbc 4e3e
00000020: aee3 053e 4b48 56bd befb 293d 3a8b d93e
00000030: 63d4 a13e d761 733d 3a51 983d 3a04 3b3e
00000040: 7e66 5f3e b224 b33e ff94 b73d ac19 30be
00000050: 9c4b e03d ec65 ab3e 766b c53e 2016 b23e
00000060: 852c 773e 737c e93d df06 093d c8b5 e13e
00000070: 57de 293e 7774 b03d d765 aa3e 1a6e 363e
00000080: d4c6 b23e cc8b d93d 8849 9d3e 5531 b03e
00000090: 5259 493c e448 c03e bc03 023e f576 bdbd
000000a0: 70b9 8e3c 7a7d b93e 8fcb 603d feba cbbd
000000b0: bce6 b03e 3614 353f 1d08 7b3e 22d6 13bc
000000c0: 6ec1 993e a919 113d 3147 d2bd 5973 7c3e
000000d0: 5cc4 ce3c 9124 593e e8e8 c83e 1fd4 81bd
000000e0: b5af f73e baf9 543e 93f0 913e cc1b 323f
000000f0: e709 53bd b8a4 c13e 0cae 7f3b b772 59be

bn2.running_mean f4 [64]
0.31884333 0.6456355 0.30611476 0.3558511 0.4036161 0.6123795 0.39422986 0.3584525
0.55333126 0.55245453 0.454415 0.4915839 0.71641743 0.5884938 0.44752693 0.7783063
0.29432583 0.35664397 0.23333247 0.3521125 0.44530696 0.22553876 0.7390993 0.39038503
0.5496742 0.46512836 0.5934378 0.48356795 0.6612258 0.6125448 0.75942415 0.2193106
0.5205009 0.5470379 0.7414459 0.4991219 0.27805182 0.36809957 0.4560951 0.119936444
0.30764988 0.49113715 0.47956038 0.3066548 0.29603136 0.5362929 0.31068036 0.34914973
0.37777874 0.66173244 0.670982 0.31608677 0.5676821 0.38472775 0.43634996 0.3776481
0.5060937 0.4522499 0.48491856 0.3018884 0.6832967 0.40085033 0.36479783 0.47163066
00000000: 6f3f a33e 5e48 253f 13bb 9c3e 1e32 b63e
00000010: c5a6 ce3e e7c4 1c3f 7fd8 c93e 1687 b73e
00000020: 1ea7 0d3f a96d 0d3f 15a9 e83e e3b0 fb3e
00000030: 2267 373f 88a7 163f 4022 e53e 153f 473f
00000040: e0b1 963e 0a9a b63e b5ee 6e3e 1748 b43e
00000050: 46ff e33e a2f3 663e 9d35 3d3f 8ce0 c73e
00000060: 73b7 0c3f 4e25 ee3e 8aeb 173f 3896 f73e
00000070: 1846 293f bccf 1c3f 9f69 423f f592 603e
00000080: 8c3f 053f ad0a 0c3f 66cf 3d3f e88c ff3e
00000090: cf5c 8e3e 8c77 bc3e 4c85 e93e 3da1 f53d
000000a0: 4984 9d3e 5476 fb3e f088 f53e dc01 9d3e
000000b0: 6c91 973e 7e4a 093f 7f11 9f3e c1c3 b23e
000000c0: 376c c13e 4c67 293f 7ac5 2b3f 20d6 a13e
000000d0: 9d53 113f 09fb c43e 4369 df3e 175b c13e
000000e0: 5b8f 013f 4d8d e73e 3f47 f83e 1e91 9a3e
000000f0: 88ec 2e3f 413c cd3e c8c6 ba3e 9379 f13e

bn2.running_var f4 [64]
0.37961417 0.87314266 0.3845091 0.78024906 0.42221475 0.86826277 0.70548207 0.363558
0.5876739 0.7178655 0.5583094 1.2370813 0.92984927 1.1699357 0.45947912 1.3391635
0.41183454 0.76203364 0.24751648 0.6773573 0.59721535 0.27632847 1.3011663 0.8471922
0.6642692 0.8734513 1.1616832 0.7848223 1.9106371 0.7589624 0.88847005 0.28210026
1.2583368 1.0184672 0.62815034 0.45988283 0.24876545 0.5489238 0.7597737 0.16105576
0.5610958 0.65343875 0.3827317 0.68408877 0.6276477 0.8021859 0.37631172 0.44243532
0.5613994 0.7845188 0.67545056 0.31944996 0.74347514 0.5123433 0.64587927 0.42331827
0.8720915 0.5862938 0.87624514 0.47736555 0.647127 0.6322047 0.48599046 0.883917
00000000: ca5c c23e 4786 5f3f 60de c43e 67be 473f
00000010: 882c d83e 7846 5e3f 799a 343f 4624 ba3e
00000020: cc71 163f 09c6 373f 5ded 0e3f ae58 9e3f
00000030: 9a0a 6e3f 74c0 953f d940 eb3e b669 ab3f
00000040: fadb d23e a314 433f f674 7d3e 4a67 2d3f
00000050: 1be3 183f ed7a 8d3e 9e8c a63f 97e1 583f
00000060: 8c0d 2a3f 819a 5f3f 09b2 943f 1dea 483f
00000070: c28f f43f 5c4b 423f c672 633f 726f 903e
00000080: 2e11 a13f 225d 823f 76ce 203f c375 eb3e
00000090: 5fbc 7e3e 4586 0c3f 8780 423f cdeb 243e
000000a0: f9a3 0f3f c347 273f 69f5 c33e 7120 2f3f
000000b0: 85ad 203f 0e5c 4d3f eeab c03e e286 e23e
000000c0: dfb7 0f3f 39d6 483f 54ea 2c3f f28e a33e
000000d0: 6354 3e3f ee28 033f 5858 253f 2cbd d83e
000000e0: 6341 5f3f 5a17 163f 9a51 603f 4269 f43e
000000f0: 1daa 253f 2bd8 213f bed3 f83e 6248 623f

fc1.weight f4 [64, 64]
0.07988635 -0.15999196 -0.078999996 -0.11479621 0.055322398 -0.3073359 0.08403677 -0.17893964
-0.08223623 -0.18965259 -0.0074985926 -0.13971525 0.1063999 0.1399654 0.26266393 0.17750184
-0.09690714 0.22272603 0.051780082 0.08321938 0.023746394 -0.16052875 0.08971701 -0.046750393
-0.058253095 0.23303233 -0.05750222 0.16049612 0.18823946 -0.03509003 -0.22050744 0.05950244
-0.0063115726 0.016790166 0.21232738 0.0767316 -0.24061328 -0.114304185 -0.070806816 0.060217287
-0.07997884 0.06352689 -0.06294168 0.020024382 -0.0737409 -0.29729393 0.0429331 0.07554173
-0.19727966 0.0130488435 -0.12599207 0.06586755 0.045697454 -0.093737744 -0.060557593 -0.009733713
0.047054645 -0.11882256 0.04989169 -0.19446643 -0.036466036 0.012159102 -0.40647867 -0.041520238
-0.25149733 0.03749926 0.02910695 -0.013630647 0.10577598 0.09936538 -0.3209727 0.10935495
-0.091789 -0.1036222 0.122494444 -0.15923849 0.08880952 -0.10853381 -0.073022455 -0.057598226
-0.058027633 -0.07114537 0.07488037 0.021951105 -0.16014796 -0.060843766 -0.060123615 -0.17762019
-0.0122180395 0.28856778 -0.07907938 0.23266168 0.20796299 0.16062371 -0.21973619 0.12774058
-0.22847861 0.049104277 0.11215128 -0.13903981 -0.0835176 -0.07812344 0.010107102 0.18130578
-0.037665345 -0.09962492 0.057396367 -0.112127855 0.096803315 -0.12591217 -0.20256647 0.12640725
-0.09113198 0.022632083 0.15110633 0.096066564 -0.060547225 -0.15222466 0.10579461 -0.23785363
-0.0017483197 0.19346286 -0.13270192 -0.00068238657 0.098818935 -0.00803181 -0.070984475 -0.14099309
0.102542736 0.07363176 -0.08854787 0.14720832 -0.0017368674 -0.07472936 -0.006530239 -0.055399254
0.13089073 -0.11668654 0.015488707 0.026538905 0.23654579 -0.02842422 0.10195221 0.0336779
0.0024092668 0.15128912 -0.098345585 -0.0077727786 0.20597623 -0.13293959 -0.3687495 -0.0014121094
-0.30838832 0.06872654 -0.20154697 0.08074934 0.039269723 -0.24761157 -0.026156506 -0.06013746
0.14827344 -0.22672674 -0.12912613 0.12124118 -0.008659011 -0.22121634 -0.02256835 0.0901691
-0.06914103 0.06866526 -0.20060855 0.20763357 0.006889882 -0.11907657 0.0791558 -0.04861447
0.08022124 0.033810597 0.004971054 0.043351203 0.05934021 -0.0074421265 -0.09830159 0.14507544
-0.08061445 -0.17559937 -0.059456725 -0.24633457 0.07825452 0.06918733 0.121998236 0.06456361
-0.064679004 -0.30351162 -0.07434986 -0.44998595 0.03821584 -0.09020996 -0.07984761 0.18036538
-0.16771148 0.17844036 -0.075661525 -0.2735747 0.16163586 0.08405785 -0.06722558 0.10519005
0.030479746 -0.07772491 0.03525247 0.083688706 0.02733092 -0.11540779 -0.054697793 0.041813325
-0.09076174 -0.0113443 0.058269083 -0.037387755 -0.014338607 0.049883723 0.077698596 -0.0072097112
0.18816847 0.123447865 0.05149804 0.05417559 -0.009204623 -0.03260992 0.17448539 -0.12818079
-0.006526297 -0.017248776 -0.0057755806 -0.46853924 -0.40201122 -0.051090956 -0.0608269 -0.2046129
0.051490687 0.16619474 0.15307541 -0.068058066 0.004249456 -0.039310705 -0.15489869 0.015728787
-0.014461412 0.1846826 -0.2073008 0.037693065 -0.026048185 -0.104000196 0.12287868 -0.096305974
00000000: 749b a33d efd4 23be c0ca a1bd 461a ebbd
00000010: bd99 623d 225b 9dbe 781b ac3d f43b 37be
00000020: 786b a8bd 4a34 42be c1b6 f5bb 8411 0fbe
00000030: 31e8 d93d 1753 0f3e e37b 863e 0bc3 353e
00000040: 4077 c6bd 4b12 643e 5a17 543d ec6e aa3d
00000050: cc87 c23c a661 24be 8dbd b73d 577d 3fbd
00000060: cc9a 6ebd 07a0 6e3e 7387 6bbd 1859 243e
00000070: d8c1 403e 90ba 0fbd b4cc 61be d5b8 733d
00000080: 4fd1 cebb 888b 893c 596c 593e 7525 9d3d
00000090: 5463 76be 5018 eabd 2a03 91bd 67a6 763d
000000a0: f2cb a3bd 631a 823d 91e7 80bd 2c0a a43c
000000b0: 7805 97bd e936 98be 9eda 2f3d 9fb5 9a3d
000000c0: ae03 4abe d1ca 553c 1104 01be 91e5 863d
000000d0: 412d 3b3d 93f9 bfbd 3d0b 78bd 277a 1fbc
000000e0: 5fbc 403d 3e59 f3bd 3b5b 4c3d 3522 47be
000000f0: 695d 15bd f836 473c f91d d0be 2011 2abd
00000100: 42c4 80be d398 193d b371 ee3c 1453 5fbc
00000110: 14a1 d83d 1480 cb3d 8956 a4be 7df5 df3d
00000120: dffb bbbd e037 d4bd 5ede fa3d 6a0f 23be
00000130: c4e1 b53d f946 debd cc8c 95bd 1eec 6bbd
00000140: 62ae 6dbd aab4 91bd e15a 993d ced2 b33c
00000150: d4fd 23be 5037 79bd 2e44 76bd 11e2 35be
00000160: 2c2e 48bc 28bf 933e 5ff4 a1bd dd3e 6e3e
00000170: 40f4 543e 8b7a 243e 8602 61be 6dce 023e
00000180: 4cf6 69be 9121 493d 92af e53d 7460 0ebe
00000190: 470b abbd 2fff 9fbd 4298 253c 39a8 393e
000001a0: fa46 1abd 2608 ccbd 7418 6b3d 4aa3 e5bd
000001b0: d140 c63d 1fef 00be 966d 4fbe e770 013e
000001c0: 67a3 babd eb66 b93c 9ebb 1a3e 8cbe c43d
000001d0: 5e00 78bd c8e0 1bbe d8aa d83d e78f 73be
000001e0: e027 e5ba 211b 463e 03e3 07be 30e2 32ba
000001f0: 9561 ca3d da97 03bc 4f60 91bd 7e60 10be
00000200: ed01 d23d 40cc 963d 9658 b5bd c7bd 163e
00000210: 99a7 e3ba b50b 99bd 9dfb d5bb 54ea 62bd
00000220: 3808 063e 5af9 eebd 59c4 7d3c 1e68 d93c
00000230: 0f39 723e e9d9 e8bc 52cc d03d d6f1 093d
00000240: cae4 1d3b 89eb 1a3e 6969 c9bd cbb2 febb
00000250: 6feb 523e 5121 08be bccc bcbe 8716 b9ba
00000260: 13e5 9dbe 80c0 8c3d 5462 4ebe e95f a53d
00000270: 4ad9 203d e38d 7dbe 2b46 d6bc b252 76bd
00000280: fed4 173e 0e2b 68be a439 04be 4c4d f83d
00000290: 86de 0dbc 8986 62be 43e1 b8bc 94aa b83d
000002a0: d099 8dbd 5fa0 8c3d 546c 4dbe e59d 543e
000002b0: 85c4 e13b 6bde f3bd 701c a23d f71f 47bd
000002c0: 094b a43d fb7c 0a3d 39e4 a23b 0891 313d
000002d0: b80e 733d 15dd f3bb 5852 c9bd a88e 143e
000002e0: 3019 a5bd 52d0 33be e588 73bd 213f 7cbe
000002f0: e843 a03d 16b2 8d3d 36da f93d ed39 843d
00000300: 6d76 84bd e065 9bbe bd44 98bd 8f64 e6be
00000310: 3688 1c3d 00c0 b8bd 2587 a3bd b4b1 383e
00000320: 8fbc 2bbe 12b9 363e 6ef4 9abd fc11 8cbe
00000330: df83 253e 8626 ac3d 91ad 89bd e26d d73d
00000340: a9b0 f93c 3d2e 9fbd e564 103d fc64 ab3d
00000350: 18e5 df3c eb5a ecbd cb0a 60bd 7344 2b3d
00000360: 4be1 b9bd 71dd 39bc 90ab 6e3d e723 19bd
00000370: 7aec 6abc e052 4c3d 7120 9f3d 713f ecbb
00000380: 3caf 403e 3cd2 fc3d 9cef 523d 39e7 5d3d
00000390: fdce 16bc fb91 05bd 4cac 323e d341 03be
000003a0: 8cda d5bb 4e4d 8dbc 1541 bdbb 60e4 efbe
000003b0: 6ad4 cdbe c044 51bd a125 79bd 0b86 51be
000003c0: e6e7 523d f42e 2a3e cdbf 1c3e 0762 8bbd
000003d0: 053f 8b3b 4304 21bd c39d 1ebe a8d9 803c
000003e0: 8fef 6cbc 6f1d 3d3e a946 54be 0b64 1a3d
000003f0: 0163 d5bc 0efe d4bd d1a7 fb3d 113c c5bd

fc1.bias f4 [64]
-0.19661766 -0.2633614 -0.1151348 -0.093867995 -0.26577714 -0.005533299 0.11673359 -0.22678392
0.009161621 0.0145266475 -0.07410653 -0.44915038 -0.43462667 -0.3356488 -0.050684486 -0.037114777
-0.34385052 -0.052413955 0.050095554 -0.19343463 0.019853033 -0.22436047 -0.4269499 -0.20695159
-0.23800631 -0.08258132 0.11677969 0.3045549 -0.097850844 -0.14164431 -0.15722774 -0.07469077
-0.13214958 -0.23852322 -0.14699309 -0.13894324 -0.014951772 -0.13695964 -0.18921606 -0.13477723
-0.059836756 -0.11556576 -0.23057269 -0.22722656 -0.10275926 -0.17037614 0.05877995 0.061758064
0.047023937 -0.07133162 0.2512687 -0.16136217 0.011500523 -0.15530397 -0.016247144 -0.1530058
0.12763628 -0.21545939 -0.17944083 -0.14573057 0.0037248088 -0.17356098 -0.2362206 -0.2903215
00000000: 2456 49be 4ed7 86be cbcb ebbd dd3d c0bd
00000010: f113 88be ad50 b5bb 0512 ef3d 0b3a 68be
00000020: a01a 163c 2d01 6e3c 2ac5 97bd 0af7 e5be
00000030: 6387 debe 29da abbe 899a 4fbd aa05 18bd
00000040: 2d0d b0be 04b0 56bd ff30 4d3d ba13 46be
00000050: d4a2 a23c c0be 65be 2d99 dabe 1eeb 53be
00000060: edb7 73be 6520 a9bd 312a ef3d 9fee 9b3e
00000070: 0666 c8bd 350b 11be 4f00 21be 79f7 98bd
00000080: 3852 07be 6e3f 74be 5b85 16be 2347 0ebe
00000090: 47f8 74bc 263f 0cbe dbc1 41be 0b03 0abe
000000a0: 6317 75bd bead ecbd 3f1b 6cbe 14ae 68be
000000b0: 7273 d2bd 1577 2ebe 3fc3 703d 06f6 7c3d
000000c0: 2c9c 403d 5016 92bd 4ba6 803e 203c 25be
000000d0: b16c 3c3c 0108 1fbe bb18 85bc 8dad 1cbe
000000e0: 16b3 023e 63a1 5cbe 56bf 37be 653a 15be
000000f0: ec1b 743b f8b9 31be d0e3 71be 05a5 94be

bn3.weight f4 [64]
1.5513011 1.6796732 1.5091207 1.4647297 1.3023542 1.5297195 1.6095778 1.6607695
1.6832232 1.5863258 1.4120011 1.3407964 1.5770793 1.2624688 1.4187524 1.5510695
1.5777445 1.5160139 1.510218 1.5672748 1.5081953 1.4618115 1.4267265 1.4206599
1.4844284 1.2746556 1.3169194 1.4252814 1.449953 1.5162362 1.3860455 1.5858967
1.4257841 1.4980714 1.5270029 1.3482387 1.5635117 1.3925446 1.6124328 1.5024728
1.6186253 1.4090905 1.4466738 1.6154196 1.5448878 1.7098298 1.4217353 1.5690044
1.4608337 1.5194119 1.5189396 1.5676057 1.4952652 1.4952755 1.4084383 1.3652723
1.4117777 1.4466597 1.4640384 1.4735389 1.4837754 1.5653573 1.5526919 1.5011506
00000000: 0991 c63f 88ff d63f de2a c13f 437c bb3f
00000010: 8bb3 a63f d9cd c33f a506 ce3f 1894 d43f
00000020: dc73 d73f b90c cb3f 74bc b43f 379f ab3f
00000030: bcdd c93f 9498 a13f ae99 b53f 7289 c63f
00000040: 88f3 c93f be0c c23f d34e c13f 769c c83f
00000050: 8b0c c13f a41c bb3f f99e b63f 2fd8 b53f
00000060: c001 be3f ea27 a33f d190 a83f 9f6f b63f
00000070: 0f98 b93f 0714 c23f f069 b13f aafe ca3f
00000080: 1880 b63f cec0 bf3f d574 c33f 1693 ac3f
00000090: 2721 c83f e73e b23f 3364 ce3f 0751 c03f
000000a0: 1d2f cf3f 145d b43f 9b2c b93f 12c6 ce3f
000000b0: e2be c53f b4db da3f 6cfb b53f 23d5 c83f
000000c0: 99fc ba3f 177c c23f 9d6c c23f 4ea7 c83f
000000d0: da64 bf3f 3065 bf3f b547 b43f 3ec1 ae3f
000000e0: 22b5 b43f 252c b93f 9c65 bb3f ec9c bc3f
000000f0: 5aec bd3f a15d c83f 9cbe c63f b425 c03f

bn3.bias f4 [64]
-0.4435476 -0.16002898 -0.24569418 -0.25351954 0.08154747 -0.19198814 0.11440568 -0.14541465
0.15358824 -0.16594446 -0.22569786 -0.010679961 0.12159314 0.07699372 -0.22222862 0.15871559
-0.10482484 0.0039248695 -0.039438915 -0.030271204 -0.282794 -0.008424106 -0.013782954 -0.14558233
-0.07696165 -0.18306245 -0.17032878 0.24129513 -0.15122768 0.07609039 -0.39917558 -0.19648547
-0.36458203 0.16155283 0.1771883 -0.21871842 -0.07713561 -0.34795853 0.028145026 -0.6345296
0.32912567 0.22990109 0.016714497 0.067698106 -0.041636717 0.049541317 -0.0022968221 -0.082410425
-0.27488595 0.0031355338 -0.0048100487 0.28620702 0.18408497 -0.10160858 -0.02505622 -0.26629826
0.033610474 0.30121815 -0.07870662 -0.015564405 -0.075258434 -0.05112167 0.18018323 0.009880313
00000000: ac18 e3be a3de 23be 4197 7bbe 50cd 81be
00000010: 5c02 a73d 8a98 44be 864d ea3d 94e7 14be
00000020: 3c46 1d3e 58ed 29be 571d 67be 01fb 2ebc
00000030: d305 f93d e2ae 9d3d e68f 63be 5786 223e
00000040: 68ae d6bd 319c 803b b38a 21bd 51fb f7bc
00000050: 60ca 90be 4305 0abc e6d1 61bc 8913 15be
00000060: 129e 9dbd b974 3bbe ab6a 2ebe 1216 773e
00000070: 6edb 1abe 47d5 9b3d be60 ccbe 7d33 49be
00000080: 7faa babe 1b6e 253e da70 353e b9f7 5fbe
00000090: 46f9 9dbd 9f27 b2be 6690 e63c 8870 22bf
000000a0: 2983 a83e 316b 6b3e d7ec 883c 4ea5 8a3d
000000b0: 438b 2abd d6eb 4a3d 4886 16bb ccc6 a8bd
000000c0: dabd 8cbe 877d 4d3b 9d9d 9dbb ba89 923e
000000d0: c580 3c3e 2918 d0bd b442 cdbc 3f58 88be
000000e0: 23ab 093d 4439 9a3e f030 a1bd d901 7fbc
000000f0: 1821 9abd f564 51bd f481 383e 09e1 213c

bn3.running_mean f4 [64]
1.4623917 2.146367 1.5443817 2.8753662 2.8396285 0.720743 1.8287569 1.7513105
1.4333851 1.5806924 3.010235 2.335029 0.91569906 1.5727578 1.1910084 1.3159043
1.0914716 1.4878861 1.7811359 1.1396619 2.3367815 2.792755 1.8084022 0.6743486
2.157035 2.3999114 2.2641368 2.0401165 1.504257 1.3586715 3.518999 1.3821917
1.4246789 2.379119 0.8117934 1.9090215 2.516832 2.3199475 0.83112526 0.74022996
1.7848165 1.2592204 2.2913096 3.6246076 1.9214345 1.4412706 1.6748437 1.1217327
1.8318765 1.9441713 1.8023598 2.413569 1.1331863 1.6280394 1.963742 2.017952
1.7575116 2.1922753 0.99501127 2.6467068 1.9311423 2.41505 3.576909 1.8865142
00000000: a72f bb3f 145e 0940 4dae c53f 0006 3840
00000010: 79bc 3540 9d82 383f b514 ea3f f12a e03f
00000020: 2a79 b73f 2154 ca3f b1a7 4040 1d71 1540
00000030: 416b 6a3f 2150 c93f f772 983f 8d6f a83f
00000040: 57b5 8b3f 0d73 be3f 43fc e33f 71e0 913f
00000050: d48d 1540 7fbc 3240 b979 e73f 1ca2 2c3f
00000060: dd0c 0a40 2698 1940 9ee7 1040 4591 0240
00000070: 7e8b c03f f3e8 ad3f 4837 6140 a8eb b03f
00000080: e15b b63f 7c43 1840 b1d1 4f3f d15a f43f
00000090: c713 2140 057a 1440 a0c4 543f b67f 3d3f
000000a0: de74 e43f 222e a13f d1a4 1240 92f9 6740
000000b0: 91f1 f53f 8e7b b83f 4761 d63f f094 8f3f
000000c0: ee7a ea3f 9bda f83f bab3 e63f ea77 1a40
000000d0: 400c 913f 9863 d03f e65b fb3f 2026 0140
000000e0: 24f6 e03f 3d4e 0c40 0fb9 7e3f a563 2940
000000f0: ac2f f73f 2e90 1a40 14ec 6440 4c79 f13f

bn3.running_var f4 [64]
8.450548 15.096461 12.058207 18.529264 26.544495 3.7330596 11.809993 12.186577
8.017214 9.2920265 28.487473 17.205507 5.635973 9.71278 8.475045 12.558131
7.00521 8.625125 9.593085 9.599733 20.010616 20.954515 13.018494 3.6431713
12.924961 21.780811 14.368394 12.193507 12.367066 8.372904 20.25919 9.509812
7.1292825 20.209726 5.0686083 15.968253 19.276625 16.378195 5.103504 3.6928678
9.586524 10.258958 20.360804 22.081236 18.188395 9.548987 13.388121 5.770358
12.310005 17.810322 11.118309 15.559556 7.9510446 10.985271 13.830468 15.701134
10.451448 14.017893 5.7960196 16.68002 12.295019 17.648111 31.137983 12.345679
00000000: 7235 0741 1b8b 7141 6aee 4041 ef3b 9441
00000010: 205b d441 73ea 6e40 bbf5 3c41 38fc 4241
00000020: 8246 0041 24ac 1441 58e6 e341 e1a4 8941
00000030: e459 b440 8c67 1b41 c999 0741 1bee 4841
00000040: ae2a e040 8300 0a41 477d 1941 8298 1941
00000050: be15 a041 d9a2 a741 c04b 5041 b829 6940
00000060: a4cc 4e41 1a3f ae41 f1e4 6541 9b18 4341
00000070: 81df 4541 6af7 0541 d212 a241 3128 1841
00000080: 1523 e440 85ad a141 0a32 a240 f77d 7f41
00000090: 8736 9a41 8b06 8341 e84f a340 f257 6c40
000000a0: 6762 1941 b124 2441 ede2 a241 5fa6 b041
000000b0: d581 9141 a7c8 1841 be35 5641 c6a6 b840
000000c0: c8f5 4441 8a7b 8e41 98e4 3141 f1f3 7841
000000d0: f56e fe40 acc3 2f41 9949 5d41 d837 7b41
000000e0: 2239 2741 4a49 6041 fe78 b940 ae70 8541
000000f0: 66b8 4441 552f 8d41 971a f941 e787 4541

fc2.weight f4 [8, 64]
-0.032413233 0.4370875 -0.18363789 0.22160508 -0.22632447 0.25890455 0.038179964 0.6212167
0.2845943 -0.25159976 -0.39105007 0.10340592 0.040099926 0.3331425 0.2248447 -0.57880473
-0.5328372 0.24887308 0.21851283 -0.27370256 -0.27837574 0.033771366 0.2506713 0.00047023874
0.23533033 -0.11670503 0.011455461 0.12889384 0.065529145 0.08233224 -0.35498822 -0.101182684
-0.11586912 0.08829796 0.010218777 -0.32118762 -0.23209795 -0.11217239 -0.2584666 -0.34772184
0.3914582 0.2271586 0.13597465 0.085776724 -0.391176 -0.62024903 -0.08398221 -0.8497598
-0.17992136 -0.44028312 0.4469995 0.22433692 0.23164164 0.36272535 0.14076793 -0.38572186
-0.24188922 0.1981666 -0.3778522 0.2480184 -0.31467545 -0.19012797 0.12193377 0.008447081
-0.20658755 -0.0927074 0.098290525 0.3132254 0.27711824 -0.41926357 -0.48026475 -0.45411047
-0.38765264 -0.097134925 -0.020141982 -0.05823861 0.19663374 -0.06374461 -0.28665456 0.35251668
0.0666864 -0.048908137 0.21904747 -0.62868047 0.11348141 0.4451285 -0.12338075 -0.12061225
0.22159517 -0.44794956 -0.32839495 0.19690798 -0.034299582 -0.06992405 0.014098118 -0.024496255
-0.042205766 -0.10095112 0.17583136 -0.14848633 -0.08779027 -0.19795753 0.39298964 -0.1491371
-0.359181 -0.39634666 -0.42865798 0.00043150302 -0.22624221 0.27480707 0.22671536 0.060503356
-0.32798907 -0.039068837 -0.4310567 0.088177264 -0.30058652 -0.32088712 -0.18044975 0.45964986
0.19965507 0.45728073 0.35171032 0.07050712 0.20403427 -0.14840364 0.45867413 0.37628752
0.052015822 0.2292796 0.17421556 0.044538733 0.14760889 -0.18324171 -0.601221 -0.24556775
0.12401524 0.15012428 -0.21698439 -0.11458293 -0.30960095 0.3230681 -0.42379108 -0.35139555
0.32500786 -0.342693 0.016473433 0.07813148 -0.015658673 -0.45982704 0.31509858 -0.28165567
-0.13717078 -0.021631517 -0.16343723 0.09915476 -0.20911044 -0.35582018 -0.29121628 -0.13833603
-0.099159315 0.06096217 -0.0069378032 -0.21113656 0.17465761 0.28394967 -0.10567848 -0.1944052
0.2597637 0.14693198 0.4688995 -0.23270418 -0.3595642 0.0051244674 -0.33995867 -0.15658364
-0.29617974 -0.6438483 -0.36390188 0.15076606 -0.18198046 0.3784038 0.10699146 -0.17163566
0.4692113 0.4717449 0.07974688 0.5130263 0.30294457 0.43573713 0.38438252 0.2086124
-0.5524204 0.28371632 0.11704859 0.041598823 0.15231372 -0.491853 0.33514416 0.3289791
0.4458051 -0.018830145 0.013488837 0.4202698 -0.20902212 -0.11421714 -0.4173719 0.21741858
0.1552288 -0.47479236 -0.43393254 0.18244371 -0.27993098 0.12440198 -0.3085451 -0.1452347
0.050588064 -0.121612236 -0.0669848 -0.62542325 -0.6204019 0.11129283 0.33788756 -0.49502283
-0.010681606 -0.5819775 0.40713477 0.20303443 0.3892671 -0.066509955 0.46418554 0.17685899
0.37140885 0.1661011 0.02686682 0.25543118 0.47702426 0.17971435 -0.42624348 -0.10136461
0.2614038 0.2246126 -0.076138824 0.45637748 0.035577964 -0.118529335 -0.09388392 -0.23716061
-0.35224557 -0.11154138 -0.29004392 -0.50528497 -0.49819538 0.37182274 -0.53508204 -0.5089609
00000000: bdc3 04bd efc9 df3e 920b 3cbe 71ec 623e
00000010: 9ac1 67be 238f 843e 9862 1c3d 0f08 1f3f
00000020: 58b6 913e afd1 80be b737 c8be 7cc6 d33d
00000030: d23f 243d a791 aa3e b03d 663e 8c2c 14bf
00000040: 0568 08bf 96d8 7e3e d4c1 5f3e be22 8cbe
00000050: 4487 8ebe d853 0a3d fd57 803e 608a f639
00000060: 6ffa 703e 0c03 efbd b0af 3b3c bffc 033e
00000070: 2534 863d ce9d a83d 04c1 b5be de38 cfbd
00000080: ca4c edbd 90d5 b43d a86c 273c b472 a4be
00000090: 16ab 6dbe a3ba e5bd bc55 84be 9908 b2be
000000a0: 366d c83e 449c 683e f03c 0b3e b5ab af3d
000000b0: 3848 c8be a4c8 1ebf ddfe abbd dc89 59bf
000000c0: 4e3d 38be ca6c e1be 1edd e43e 94b8 653e
000000d0: 7733 6d3e 23b7 b93e 7825 103e 567d c5be
000000e0: cfb1 77be 2fec 4a3e d875 c1be 89f8 7d3e
000000f0: 241d a1be e8b0 42be 6ab8 f93d a065 0a3c
00000100: b08b 53be 61dd bdbd 8b4c c93d 145f a03e
00000110: 71e2 8d3e b7a9 d6be 43e5 f5be 2b81 e8be
00000120: 687a c6be adee c6bd cc00 a5bc 9c8b 6ebd
00000130: 5b5a 493e 898c 82bd 63c4 92be 117d b43e
00000140: e192 883d e653 48bd fb4d 603e 34f1 20bf
00000150: f168 e83d e2e7 e33e 0caf fcbd 8e03 f7bd
00000160: d8e9 623e a559 e5be 6223 a8be 3fa2 493e
00000170: b87d 0cbd 5734 8fbd cbfb 663c 5fac c8bc
00000180: f4df 2cbd 76bf cebd 230d 343e cd0c 18be
00000190: 63cb b3bd 61b5 4abe f035 c93e 65b7 18be
000001a0: 92e6 b7be f3ed cabe 0f79 dbbe 5b3b e239
000001b0: 0aac 67be 83b3 8c3e 1228 683e 5ed2 773d
000001c0: 2fee a7be a506 20bd 77b3 dcbe 4896 b43d
000001d0: 7ae6 99be 514b a4be d2c7 38be 3a57 eb3e
000001e0: 6172 4c3e b320 ea3e 6013 b43e 0966 903d
000001f0: 5cee 503e 20f7 17be 56d7 ea3e c2a8 c03e
00000200: 8b0e 553d 45c8 6a3e 9065 323e 3f6e 363d
00000210: c926 173e b7a3 3bbe 9fe9 19bf 1d76 7bbe
00000220: b4fb fd3d 2eba 193e 2831 5ebe 75aa eabd
00000230: 0484 9ebe 2f69 a53e 25fb d8be 1eea b3be
00000240: 6e67 a63e 7575 afbe 4bf3 863c 6603 a03d
00000250: 9e46 80bc 736e ebbe 9a54 a13e 2c35 90be
00000260: 7f76 0cbe 9434 b1bc 175c 27be a711 cb3d
00000270: 0c21 56be 102e b6be 4d1a 95be f6a7 0dbe
00000280: 0a14 cbbd 78b3 793d 8356 e3bb 2f34 58be
00000290: 72d9 323e da61 913e f56d d8bd 2812 47be
000002a0: bfff 843e 5675 163e 9813 f03e 014a 6ebe
000002b0: cc18 b8be 26eb a73b 100f aebe 7657 20be
000002c0: dfa4 97be 3ed3 24bf 5951 babe 6b62 1a3e
000002d0: 1659 3abe 25be c13e 571e db3d 42c1 2fbe
000002e0: 773c f03e 8c88 f13e 5552 a33d b155 033f
000002f0: 8d1b 9b3e f018 df3e c9cd c43e 7d9e 553e
00000300: 6c6b 0dbf 4443 913e 2cb7 ef3d 8763 2a3d
00000310: 21f8 1b3e 28d4 fbbe 0498 ab3e f36f a83e
00000320: 9140 e43e ad41 9abc 4800 5d3c 9a2d d73e
00000330: e509 56be adea e9bd c5b1 d5be faa2 5e3e
00000340: 4cf4 1e3e fc17 f3be 682c debe 86d2 3a3e
00000350: 1d53 8fbe 77c6 fe3d a0f9 9dbe 68b8 14be
00000360: 6e35 4f3d d60f f9bd 542f 89bd bd1b 20bf
00000370: a9d2 1ebf 7fed e33d 99ff ac3e a273 fdbe
00000380: e701 2fbc 7afc 14bf f873 d03e 42e8 4f3e
00000390: 044e c73e 5f36 88bd baa9 ed3e 861a 353e
000003a0: 4d29 be3e 6816 2a3e ce17 dc3c e0c7 823e
000003b0: 863c f43e 0a07 383e 963c dabe 4098 cfbd
000003c0: b8d6 853e d800 663e acee 9bbd 4faa e93e
000003d0: 33ba 113d 82bf f2bd 3646 c0bd 3bda 72be
000003e0: 8859 b4be cf6f e4bd a380 94be 5b5a 01bf
000003f0: 7713 ffbe 8d5f be3e 23fb 08bf 434b 02bf

fc2.bias f4 [8]
0.29032233 0.33550805 0.14261027 0.09001508 0.050608948 0.34431866 0.08348905 0.13321716
00000000: 21a5 943e b6c7 ab3e 6d08 123e d459 b83d
00000010: 544b 4f3d 894a b03e 4ffc aa3d 146a 083e

fc3.weight f4 [5, 8]
-0.47024393 -0.3165752 -1.0885537 -0.25289148 -0.76090115 0.71579516 0.5994418 0.453887
1.0428151 -0.9100226 0.6422174 -0.6419589 -0.009088162 0.35935664 -0.4186642 -0.9308561
-0.8815253 0.92162776 0.15328272 -0.38988587 0.6451091 0.23930614 -0.78357154 -0.65663826
0.1263818 0.29403144 0.5072282 -0.21606755 -0.8360025 -0.868876 0.43357655 0.7322239
-0.068957284 -0.6783364 -0.41433346 0.969774 0.14914173 -0.7625983 -0.9762536 0.19377287
00000000: d0c3 f0be 2516 a2be ba55 8bbf fe7a 81be
00000010: 6bca 42bf 5a3e 373f 0575 193f e063 e83e
00000020: f77a 853f 3ef7 68bf 5c68 243f 6b57 24bf
00000030: 84e6 14bc 98fd b73e 275b d6be 964c 6ebf
00000040: a4ab 61bf ccef 6b3f 25f6 1c3e 1f9f c7be
00000050: df25 253f ab0c 753e 2598 48bf 7219 28bf
00000060: 3b6a 013e 4a8b 963e b5d9 013f d040 5dbe
00000070: 4304 56bf a86e 5ebf bffd dd3e 0773 3b3f
00000080: 7a39 8dbd 74a7 2dbf 8423 d4be 1c43 783f
00000090: 9cb8 183e a439 43bf c2eb 79bf 656c 463e

fc3.bias f4 [5]
-0.32115486 -0.23544878 -0.31122175 -0.3414784 0.19261084
00000000: 696e a4be 7c19 71be 7558 9fbe 42d6 aebe
00000010: c73b 453e
