tuning_results/best_models_during_tuning_lightning_logs/eo_standGCN_best_model_during_tuning/checkpoints/epoch=4-train_loss=1.27-train_f1=0.44-val_loss=1.58-val_f1=0.36.ckpt (torch, 105170 bytes, 38 tensors)

conv1.bias f4 [64]
000000 b2 c1 8e bc fc 05 57 bd 37 22 6c bd 03 f9 b4 bc
       -0.017426345 -0.05249594 -0.057649817 -0.022091394
000010 84 11 46 bd 30 60 2d bd 2a 78 d8 3c 3b f5 8d bd
       -0.048356548 -0.04232806 0.026424486 -0.069315396
000020 a7 d0 9e bd 73 c1 a7 bc 76 cb fd bd 7d 62 2b bd
       -0.07754641 -0.020477986 -0.12392323 -0.041841973
000030 78 56 d8 3c bb 5a ee bc 2d 75 0c 3c 26 60 87 3d
       0.026408419 -0.029095998 0.008572859 0.06610136
000040 6c af cd 3c ef 57 6a bc e1 f7 84 3d a0 63 8e bc
       0.025108062 -0.014303192 0.06492592 -0.01738149
000050 65 63 ac 3d 46 8e bb bc 9e 49 7b 3d 87 09 c4 bb
       0.084173955 -0.02289499 0.061349504 -0.005982581
000060 b6 a0 00 bd d1 3f 90 3c 90 a8 b3 bd 08 5b f5 bc
       -0.031403266 0.017608555 -0.08772385 -0.029950634
000070 46 7c de 3c 3d 08 e0 bc a3 a9 67 bd 25 70 19 bc
       0.027158868 -0.027347678 -0.056558263 -0.009365116
000080 47 04 44 3d b0 17 4e bd 90 1b 0d bd a6 34 20 3d
       0.04785564 -0.05031556 -0.034450114 0.03911271
000090 70 d6 c8 bc c8 a6 5e 3c f4 04 c7 bd cd 07 37 3c
       -0.024516314 0.013589568 -0.097177416 0.011171293
0000a0 88 62 1f be df 2e c4 bd a1 c1 d9 3d e9 dc 39 3d
       -0.1556493 -0.095792525 0.10632635 0.045376692
0000b0 df d7 0e bd b7 2e a1 bd 0c 40 bf 3c c2 4d 90 bd
       -0.03487384 -0.07870238 0.02334597 -0.07046081
0000c0 0e 07 5c bc eb 5e 63 3c ee 37 8f bd e3 40 45 bd
       -0.013429416 0.013877611 -0.069930896 -0.048157584
0000d0 dc f2 8f 3c 68 08 1c bc c7 8c 2a bc 51 93 09 3b
       0.017571859 -0.009523489 -0.0104095405 0.0020992348
0000e0 8d 0b 13 3b 9a 60 ef bc 92 27 57 bd 54 17 52 3d
       0.0022437305 -0.029220868 -0.05252797 0.05129178
0000f0 53 9b b6 bc 8a 75 98 bd 4e d1 49 3d 4e d2 dc bc
       -0.022290861 -0.07444294 0.049271874 -0.02695575

conv1.lin.weight f4 [64, 25]
000000 18 83 9f 3e ab 83 2d 3e 4d ac 66 be fb e6 00 be
       0.31154704 0.16944759 -0.22526665 -0.12588112
000010 04 34 37 be f1 af 49 bd 63 38 c7 3d 8c 4f 79 be
       -0.17890936 -0.049240056 0.09727552 -0.24346751
000020 ed dd 03 be b0 91 39 be 3d fc 6e bd a7 15 25 be
       -0.12877627 -0.18121982 -0.058346022 -0.16121541
000030 19 4f c4 bd ff a5 01 3e 37 69 31 be b7 9c 38 3e
       -0.09585399 0.12660979 -0.17325293 0.18028532
000040 a3 8e 1d be f4 69 2d be 15 1d e3 3d ee cb 88 3c
       -0.15386443 -0.16934949 0.11089531 0.016698804
000050 a9 6b 2e 3e d4 88 58 be 4e 90 10 3e 75 9c 47 3e
       0.17033257 -0.21145946 0.14117548 0.19493277
000060 25 e0 37 3e 0f 52 3c be 86 5d 64 be 1d c4 f7 3d
       0.17956598 -0.18390678 -0.22301301 0.120979525
000070 8e 2f 3d 3e 9b 6b 83 bc 95 4a e9 bd 9f 14 dd 3c
       0.18475172 -0.016042521 -0.113911785 0.026987372
000080 34 47 93 be d3 ba a3 3d d9 4a 6b 3e 10 78 99 3e
       -0.2876526 0.07994618 0.22977771 0.29974413
000090 7c b2 42 3e 1a ee 07 3d 55 04 14 3e d5 b8 06 3e
       0.19013399 0.033186056 0.14454778 0.13156445
0000a0 a8 82 19 3e f0 16 dc bd b1 ed a5 bd 59 f6 9e 3c
       0.14991248 -0.107465625 -0.08101977 0.019404577
0000b0 53 96 87 3d 90 af 75 bb 43 3c 57 3e c2 ad 00 3e
       0.06620469 -0.0037488677 0.21019082 0.12566283
0000c0 27 c7 39 3e 5b aa bd bc 37 c0 66 bd 90 6e b0 3d
       0.18142377 -0.02315252 -0.056335654 0.08614838
0000d0 e6 f7 ff bd 60 ea 97 be d3 fe 5e bd 48 19 7a 3d
       -0.12498455 -0.29671 -0.054442238 0.061059266
0000e0 28 02 36 be 90 4a 67 be 0e 5d 9a bd f8 c6 23 3e
       -0.1777426 -0.22587037 -0.0753728 0.1599387
0000f0 61 bf 85 3d 8b 6b 21 3e 5c cf 50 be ad b8 f2 3c
       0.06530643 0.1576368 -0.20391601 0.029629076
000100 07 27 14 bd 16 66 17 3e b8 97 8d 3e f0 97 f3 bd
       -0.036170032 0.14785036 0.27654815 -0.11894214
000110 fd fa ff 3d 0b ed 63 3e 70 b5 dc 3d 1c 8f 91 bd
       0.12499044 0.22258393 0.10776794 -0.07107374
000120 e9 ca 02 bd 4f ad 42 3e 63 c7 43 3e d7 f4 3c 3d
       -0.03193179 0.19011424 0.19119029 0.046131935
000130 5e ee 83 be 39 ca e9 bd 0d 23 a7 3c de 4e 84 be
       -0.25767797 -0.11415524 0.020402456 -0.2584142
000140 d4 6d ba bd f8 4d 90 3d a7 4d 0f be 81 34 a2 bd
       -0.09102979 0.07046121 -0.13994466 -0.079201706
000150 c1 f3 8e bd 0a 87 56 3e 58 bc 3a bd 71 f9 03 3e
       -0.06980086 0.20949951 -0.045589775 0.12888123
000160 73 99 92 bd 3b e2 75 3e c6 5d f4 3d c6 f6 1c 3d
       -0.07158174 0.24012081 0.11931948 0.03832128
000170 70 0a 19 3e 40 ba c3 bc a4 7f 47 be 7e af 02 be
       0.14945388 -0.023892522 -0.19482285 -0.12762257
000180 86 b4 6f be c3 ba 48 3e 12 7d 88 3e 0d 15 8f 3e
       -0.23408708 0.19602494 0.2665792 0.27945748
000190 27 a4 14 3e 27 ae 87 3d 9b f4 34 be 57 fd c0 3d
       0.14515744 0.06625014 -0.17671435 0.09423321
0001a0 fc 8e 78 bd 63 b8 d0 3d 94 f7 65 be e8 ed 28 3d
       -0.060683236 0.10191419 -0.22457725 0.04124251
0001b0 09 ef 0f be 0f eb 23 be 74 6e 98 bd 91 55 3f 3e
       -0.14056028 -0.16007636 -0.07442942 0.18684985
0001c0 6a 6e 52 3e ab 09 e4 3d e9 5c d1 3d 54 59 14 3e
       0.20549932 0.111346565 0.10222799 0.14487201
0001d0 72 28 7e be 0d 6d 98 be b9 4d b6 bd 89 32 de 3a
       -0.24820116 -0.297707 -0.08901543 0.0016952317
0001e0 3b 96 20 be 7b a5 66 3e 78 65 82 bb 48 00 55 3d
       -0.15682308 0.22524063 -0.003979381 0.05200222
0001f0 fc 5c 13 3e f3 d2 5a bd d0 43 41 3e 66 21 43 be
       0.1439094 -0.053423833 0.18873525 -0.19055709
000200 fd d3 78 be b8 48 57 3d c4 c5 92 3d b5 14 02 3c
       -0.24299617 0.052559584 0.07166627 0.007939507
000210 58 5a 80 3e 26 0d 50 3e 6c f5 3d 3d b6 04 0a 3b
       0.25068927 0.20317516 0.04637663 0.0021059937
000220 50 f9 31 3d f9 12 b5 b9 9b fc 1d bd 84 31 81 3d
       0.043450654 -0.00034537146 -0.03857098 0.063082725
000230 c2 e0 b7 3c 17 0d 57 be 4a d6 7d bb 6f 79 04 bd
       0.02244604 -0.21001087 -0.0038732463 -0.03234237
000240 68 a3 2b 3e 72 5e 25 be 95 de 72 be 96 08 76 3e
       0.16761553 -0.1614931 -0.23717721 0.24026713
000250 cc 7e 32 3e 04 88 23 3e 95 ab 49 be 6e 08 94 3d
       0.17431182 0.15969855 -0.1969436 0.0722817
000260 2b 31 16 be 31 c3 71 3d c0 cd 64 3e 2c 54 f0 bd
       -0.14667194 0.05902404 0.22344112 -0.117348045
000270 58 d2 61 3c 5c 41 83 be 79 3b 2b be 3e d4 2d be
       0.01378306 -0.25635803 -0.16721906 -0.16975495
000280 09 66 dd bd df 8f 3a be d3 e4 76 bd d7 25 96 3c
       -0.10810477 -0.18218945 -0.060276818 0.01832859
000290 5e 2e c0 bd 36 59 44 3e 04 a2 a1 3d b7 8d e1 3d
       -0.09383844 0.19174656 0.0789223 0.11013358
0002a0 f4 97 54 3e b0 f4 d2 bd 42 56 4e 3e 6e 7c 6d 3e
       0.2076109 -0.10300577 0.20150092 0.23191997
0002b0 b5 a9 e2 3d b6 47 8e bd 8b 1b ee 3d ae e0 01 3e
       0.11067525 -0.069472715 0.11626347 0.12683365
0002c0 dd 59 93 bd e6 1f d7 3d 9d dd 0d be ea ed b8 3c
       -0.071948744 0.10504131 -0.1385407 0.022574384
0002d0 e4 c8 54 3e c4 ca 9b bd fb 9b 7a be f3 6b 2d be
       0.20779759 -0.07607034 -0.24473564 -0.1693571
0002e0 dc bb 90 3d 76 29 69 3e 14 d9 3f 3e 0b b5 23 bd
       0.07067081 0.22769722 0.18735152 -0.039967578
0002f0 8e 11 b6 bd 6d ce bd bd 5e e7 41 be 35 a0 60 3d
       -0.08890067 -0.09267888 -0.18935916 0.054840285
000300 89 63 eb 3d dc b1 06 3e 57 96 9e 3e 9c 01 12 be
       0.11493594 0.13153785 0.30974075 -0.14258426
000310 8b d7 b9 3d 68 51 31 be df 56 c7 bd 19 33 62 3e
       0.09074315 -0.1731621 -0.09733366 0.22089805
000320 b0 45 33 3d 7e 5f 0c 3e 16 86 23 be 1a 47 45 3e
       0.04376763 0.13708302 -0.15969118 0.19265404
000330 4d 70 4c be cb b5 d9 bb 4f a6 52 be 9d 8e 7e 3e
       -0.19964714 -0.006643986 -0.20571254 0.2485909
000340 db 3b 90 be 72 b3 89 be 4e 4e 53 3d 54 64 4a be
       -0.28170666 -0.26894718 0.05158835 -0.19764835
000350 50 4a 0b 3e db 2f 37 bd cf ba 97 be 86 91 10 be
       0.13602567 -0.044723373 -0.2963471 -0.14118013
000360 70 75 21 3e bb ef 38 bc 9e e5 13 3d 04 69 8b bd
       0.15767455 -0.011287625 0.036107652 -0.068071395
000370 ed f3 85 3e 54 28 da 3d 99 7a 7b 3d 4a 4f 29 be
       0.26162663 0.10652223 0.061396215 -0.16534153
000380 c7 0f 81 bd 75 c7 37 3c 2f ac 60 be de f9 50 be
       -0.063018374 0.011216988 -0.21940683 -0.20407817
000390 64 d6 7b 3e 8a bb 17 be 3d e3 43 3e 74 8e 2b 3c
       0.24593502 -0.14817634 0.19129653 0.010470975
0003a0 54 70 d8 bd ad 51 e5 3d 14 ca 4b 3d 0e 18 9c 3c
       -0.105683 0.11197219 0.049753264 0.019054439
0003b0 c9 28 52 3e 7d 5f 68 be 73 d9 35 bd 02 7f b8 3b
       0.20523371 -0.22692676 -0.04439683 0.005630375
0003c0 38 f6 3e 3e c8 b1 03 bd 25 7b 7a 3e 35 2e fc bd
       0.18648612 -0.032151967 0.24461038 -0.12313501
0003d0 64 7a 6c 3e 12 fb 8b 3d ad cb 42 be bf 7f fa bd
       0.23093563 0.06834997 -0.19023009 -0.12231397
0003e0 28 d7 3e 3e 58 19 30 3e 18 5a 1c be 30 b9 4e 3d
       0.18636763 0.17197168 -0.15268743 0.050469577
0003f0 c1 d8 b3 3d 1b 5b 48 3c ed ab 4d bd 35 36 63 be
       0.08781577 0.0122287525 -0.05021279 -0.22188647

bn1.weight f4 [64]
000000 77 54 73 3f 56 ac 7b 3f b5 18 73 3f 06 96 78 3f
       0.9505076 0.9830984 0.94959575 0.9710392
000010 42 b1 7a 3f 23 cf 7f 3f 0c 16 87 3f 09 79 6d 3f
       0.97926724 0.9992544 1.0553603 0.9276281
000020 bd 76 7a 3f 45 5e 78 3f bf 55 7e 3f 6b 08 86 3f
       0.9783743 0.97018844 0.9934959 1.0471319
000030 ab 1a 88 3f 41 16 82 3f e7 7e 78 3f b1 71 81 3f
       1.0633138 1.0163041 0.9706864 1.0112821
000040 5c e6 80 3f f5 1e 79 3f 13 6b 84 3f 36 79 7a 3f
       1.00703 0.9731286 1.0345176 0.97841203
000050 83 95 7f 3f b3 ee 7a 3f ce 55 7c 3f a8 b8 67 3f
       0.9983751 0.98020476 0.9856843 0.9051614
000060 31 ff 7f 3f f9 ce 8a 3f 89 65 89 3f eb ee 81 3f
       0.99998766 1.0844413 1.0734111 1.0151037
000070 c5 3a 81 3f c7 6e 80 3f d4 e5 7d 3f 74 83 71 3f
       1.009606 1.0033807 0.99178815 0.94341207
000080 6e 41 7b 3f 93 51 85 3f 1a ea 87 3f 39 bd 82 3f
       0.9814671 1.041552 1.0618317 1.0213996
000090 93 a3 70 3f be 09 75 3f fc 18 84 3f f7 f2 7c 3f
       0.93999594 0.9571799 1.0320125 0.98808235
0000a0 30 e5 78 3f 24 96 70 3f f5 f6 80 3f c8 ec 78 3f
       0.9722471 0.93979096 1.0075365 0.972363
0000b0 0c fb 7b 3f e0 14 81 3f 87 0c 6c 3f 49 88 81 3f
       0.9842994 1.0084496 0.92206615 1.0119716
0000c0 bf af 80 3f 36 cf 78 3f 14 02 80 3f 5e 04 82 3f
       1.0053633 0.9719118 1.0000634 1.0157583
0000d0 7b 71 84 3f 93 5b 72 3f f6 8c 89 3f 21 4d 79 3f
       1.0347131 0.9467098 1.0746143 0.97383314
0000e0 16 5a 7e 3f 44 aa 80 3f 79 d9 86 3f 27 42 7d 3f
       0.9935621 1.0051961 1.0535117 0.98929065
0000f0 51 54 79 3f 4a f3 73 3f ce d3 81 3f 52 fa 88 3f
       0.9739428 0.95293105 1.0142763 1.0701392

bn1.bias f4 [64]
000000 a8 2d 9a bb 71 77 6c bd 3f 99 17 bd e1 bc f4 3d
       -0.0047051497 -0.057731096 -0.03701138 0.11950088
000010 80 68 9b 3b 8d 44 8b bc 23 7d 36 bd c1 7e e6 ba
       0.004742682 -0.017000461 -0.044552933 -0.0017585383
000020 35 64 b0 3c a4 60 86 bc bf 75 19 bc a3 4e 41 bd
       0.021532157 -0.016403504 -0.009366452 -0.047194134
000030 42 1a c7 bd bf d5 55 b9 1c 16 9c 3c 12 cc b5 3c
       -0.09721805 -0.0002039289 0.019053511 0.022192035
000040 71 47 69 3d 94 04 b5 bc 34 06 4d 3d 98 66 bc 3c
       0.056952897 -0.02209691 0.050054744 0.02299814
000050 f4 de 98 3c 24 58 ee 3b b7 ee 6e 3d ca ab e5 3a
       0.018661 0.007273691 0.058333125 0.0017522511
000060 38 35 24 3d 43 07 8c 3d fc 80 82 bd c1 30 7e bd
       0.040089816 0.068373226 -0.06372258 -0.062058214
000070 b5 92 5a bd 4c e9 4c 3d 70 d6 75 3d 9a 2d 00 3d
       -0.053362567 0.050027177 0.060018957 0.03129349
000080 26 a5 b6 3d ab 18 58 bd 63 30 75 3d e8 55 3a bc
       0.08918218 -0.0527579 0.0598606 -0.011373021
000090 b6 ce 82 3d a6 b1 49 3d df 9d 61 bd f5 98 08 3d
       0.06387083 0.049241684 -0.0550822 0.033348996
0000a0 0c 4e 65 bc 0c e1 01 bd 56 84 3a 3d d5 b0 bb bd
       -0.013995659 -0.031708762 0.04553636 -0.091645874
0000b0 c1 53 84 bc ef 43 aa bd b1 44 a8 3d 36 69 6f bc
       -0.016153218 -0.083137386 0.08216227 -0.014612487
0000c0 6a 7f 14 3c 3a 99 77 3d c8 3d 05 b9 fc 66 8c 3c
       0.009063581 0.060448863 -0.00012706884 0.01713895
0000d0 0a dd 04 3d 95 f0 9a bc cc 3b 23 3c 9e 38 16 bc
       0.03243736 -0.018913547 0.009962987 -0.009168772
0000e0 91 50 19 bc 10 7f 93 bd 6a 8b bd 3b 87 69 10 3c
       -0.009357587 -0.072019696 0.0057844417 0.008814222
0000f0 1c 22 97 3d e2 57 e5 3c 35 af 87 3d 59 29 f1 bc
       0.07379553 0.027996007 0.06625215 -0.029438661

bn1.running_mean f4 [64]
000000 c4 15 b9 3e d2 f1 c2 3e 6c 72 a3 3e 49 53 ba 3e
       0.36149418 0.3807512 0.31923234 0.36391667
000010 6b 9a 27 3e 11 19 c2 3e 29 0b ed 3e 72 a3 34 3e
       0.163675 0.3790975 0.46297577 0.17640474
000020 5b 80 ba 3e 22 c1 c2 3e ae f7 90 3e 06 ae 82 3e
       0.36426052 0.38037974 0.28313965 0.25523394
000030 94 47 fb 3e 17 e0 b4 3e bc 09 d3 3e 96 d2 ed 3e
       0.49078047 0.35327217 0.41218364 0.46449727
000040 fa 96 8f 3e 9f bb c4 3e 9a 3c d5 3e 8a 11 a4 3e
       0.28044873 0.38424394 0.41647798 0.3204463
000050 12 02 7f 3e ea f7 b7 3e 95 74 da 3e 23 ae 82 3e
       0.24903134 0.3593133 0.4266707 0.2552348
000060 67 a5 be 3e 01 fc dc 3e a9 42 aa 3e ea 56 8c 3e
       0.37235567 0.43161014 0.33253983 0.2741006
000070 8d b0 3c 3f 79 dc 75 3e a3 93 e1 3e a6 3e 19 3f
       0.73706895 0.24009885 0.4405795 0.5986122
000080 27 1c d0 3e 5b 11 58 3e 69 91 32 3e 4a 3e d5 3e
       0.4064648 0.2110037 0.17438282 0.41649085
000090 b7 39 c0 3e 26 88 ee 3e 17 8e b9 3e b8 1b 9c 3e
       0.37544033 0.46588248 0.36241218 0.30489898
0000a0 ab 39 3d 3e b0 59 ad 3e cd 13 9d 3e 8d 5c ac 3e
       0.1847903 0.3385749 0.3067917 0.3366436
0000b0 0b b5 90 3e 2f 92 af 3e 14 27 1a 3f a5 c2 19 3f
       0.28263125 0.34291217 0.6021588 0.6006263
0000c0 24 5e d4 3e d8 a6 9b 3e 2a 67 2a 3f 98 c7 d6 3e
       0.41478074 0.3040073 0.66563666 0.41949153
0000d0 08 9a a7 3e d2 d9 d1 3e 82 22 ea 3e 98 2c ca 3e
       0.32734704 0.40986496 0.45729452 0.39487147
0000e0 bf 94 9e 3e a8 06 c1 3e 78 34 64 3e f7 63 d3 3e
       0.3097286 0.3770039 0.2228564 0.41287205
0000f0 15 0f 12 3e a0 ec 5b 3e a1 c5 21 3f df d9 21 3e
       0.14263566 0.21476984 0.6319218 0.15805767

bn1.running_var f4 [64]
000000 b2 bc ff 3e 31 18 24 3f 85 0c e7 3e 1f df ee 3e
       0.4994865 0.64099413 0.4512674 0.46654603
000010 50 16 e1 3d 42 09 a8 3e 04 ce 7c 3f a7 63 0d 3e
       0.10990584 0.32819563 0.98751855 0.13807546
000020 f8 49 8d 3e ed 2e 04 3f 10 55 2b 3e 41 5b 44 3e
       0.27595496 0.51634103 0.16731668 0.19175436
000030 e8 ec 49 3f d2 d6 e7 3e 68 57 18 3f 52 2f 9b 3e
       0.78877115 0.45281082 0.5950837 0.3030954
000040 d8 20 4a 3e 7e 89 90 3e d5 32 ad 3e f3 c5 a3 3e
       0.19739091 0.28229898 0.33827844 0.3198696
000050 31 1a 8d 3d 3a a6 d1 3e b0 3f 6d 3e c7 15 4c 3e
       0.06889761 0.40947133 0.23168826 0.19930182
000060 95 e0 db 3e 7f 44 97 3e ca a3 95 3e fb cb 61 3e
       0.4294478 0.29544446 0.29226524 0.22050469
000070 62 67 2b 3f 62 94 72 3e 64 73 79 3f ec 34 93 3f
       0.66954625 0.23689416 0.974417 1.1500525
000080 16 08 ea 3e f3 0a 3f 3e 21 a2 e5 3d 7b b6 de 3e
       0.45709294 0.1865652 0.11212564 0.43498597
000090 9a e4 99 3e b4 cc 30 3f fa 54 68 3e b5 ec bd 3e
       0.30057222 0.6906235 0.22688666 0.37094656
0000a0 81 42 06 3e 87 51 37 3e 43 51 67 3e d4 2c a4 3e
       0.13111307 0.17902194 0.22589593 0.3206545
0000b0 39 e6 1f 3e b8 0e aa 3e 53 87 b2 3f 1a eb 14 3f
       0.15615167 0.33214355 1.3947548 0.58171237
0000c0 33 8e 77 3f fc bd 47 3e 44 c9 25 3f 05 ba 08 3f
       0.96701354 0.19506067 0.6476023 0.53408843
0000d0 5f a8 17 3f 7a f3 02 3f bc 76 9d 3e aa 97 93 3e
       0.5924129 0.51152766 0.3075465 0.28826648
0000e0 da a5 1b 3e d1 9d 86 3e da a0 3a 3e 7f 9b ac 3e
       0.15199986 0.2629228 0.18225423 0.33712384
0000f0 56 e8 ab 3d 0e 8d 20 3e 5f ba fc 3e 1f 0a 81 3d
       0.08393924 0.15678808 0.4936094 0.063007586

conv2.bias f4 [64]
000000 b4 01 b9 bc 73 a6 bb 3d 55 cf 77 bd fd ca f5 bd
       -0.02258382 0.09162607 -0.06050046 -0.120016076
000010 94 93 f2 3c 8b 9a c6 ba 88 cd c7 bd 84 f4 dc bc
       0.029611386 -0.0015152259 -0.09755999 -0.026972063
000020 0f ad 98 3c f7 f7 18 bd 02 e4 b1 bc e8 98 54 bd
       0.018637208 -0.037345853 -0.021715168 -0.051903635
000030 cd b2 5c bc 21 8e 0f bd 20 e8 f9 bc 56 b8 42 bd
       -0.013470364 -0.035047654 -0.030506194 -0.047539078
000040 cf 85 b0 bd 30 f8 2d bd e8 8a 8e bc 6b b4 9e bc
       -0.08619272 -0.04247302 -0.01740022 -0.01937314
000050 1d 43 86 bc ba 43 27 3b bf 5b f0 b9 2d 49 8d bc
       -0.016389424 0.0025522546 -0.00045844723 -0.017246807
000060 af e1 52 bc 42 29 a4 bd dd ec 2d bc 9c b7 b8 3b
       -0.01287119 -0.08015682 -0.010615555 0.0056371223
000070 85 6e 3e bc d0 7f 8c 3d 8e d8 95 3d 15 6e 1e bc
       -0.01162303 0.06860316 0.07316695 -0.0096698
000080 6f 6a 7a 3c 30 1a c2 3c 1a 0f 68 3d 28 e2 f2 bc
       0.015284165 0.023694128 0.056655027 -0.029648855
000090 9b a3 58 bd 3b e2 38 bd 6e f8 82 bd 2d 80 1d bd
       -0.0528904 -0.045137625 -0.063950405 -0.038452316
0000a0 3d 0a c4 bc 37 39 a3 bd eb 9c c1 3b f8 75 fc 3b
       -0.023930663 -0.07969897 0.0059085987 0.0077044927
0000b0 02 bc 56 bd 6d 8f f8 bc 3b 88 7d bc 15 d7 4b 3c
       -0.052425392 -0.030341828 -0.015474374 0.012441416
0000c0 31 8b 2a 3d c2 95 82 bc 01 66 18 3d a9 60 b6 bd
       0.04163665 -0.01594055 0.037206654 -0.08905155
0000d0 83 e6 1f bd 2a 72 01 bd df bd bb bb a6 10 71 3d
       -0.039038192 -0.031603016 -0.0057294215 0.058853768
0000e0 e8 03 93 bc 67 48 4a bd 05 be f0 bb 4b d9 16 bd
       -0.017946199 -0.049385455 -0.007346871 -0.03682832
0000f0 dd ac 91 3c 97 06 b9 3c 0e 44 d8 bc de 56 3f bc
       0.017782623 0.02258615 -0.026399639 -0.011678426

conv2.lin.weight f4 [64, 64]
000000 90 3b a1 bd d6 b5 15 be 66 1c 11 3e 4d 30 3c 3e
       -0.07872689 -0.14620146 0.1417099 0.183778
000010 d2 49 b9 3a b3 79 f7 3c 9d 3c cc 3d cc b8 82 3d
       0.001413638 0.030209398 0.099724986 0.063829035
000020 59 f8 83 3d 94 01 2a 3e d4 3e 9c 3c 38 88 70 3e
       0.06443853 0.16602165 0.019072928 0.23489463
000030 e2 d3 12 3e 52 69 01 be 74 0d 4d bd 63 de 00 be
       0.1433864 -0.12637833 -0.050061658 -0.12584834
000040 0b 7e 15 be 8c 27 1d be 5c 0f 30 3e 41 d3 42 bc
       -0.14598863 -0.15347117 0.17193359 -0.011891187
000050 8e 4f ea bd 3f 43 04 3d af 14 ee bd cc de be 3c
       -0.11440955 0.032290693 -0.11625039 0.023299597
000060 19 21 7d 3e 0c 95 8a 3c d5 10 40 3e 80 61 51 3d
       0.24719657 0.016916774 0.18756421 0.051118374
000070 08 16 ce bd cd 7a 44 bd 4e 10 6c 3e a2 80 ca bc
       -0.10062796 -0.047968674 0.23053095 -0.02471954
000080 86 6f 8e 3d 24 17 c8 bb 3b 9e 2c be f9 5b fe 3c
       0.06954865 -0.006106274 -0.16857235 0.031049715
000090 e8 71 ca bc a2 c6 54 be 93 c2 28 3e 0b 1e c1 bc
       -0.024712518 -0.20778897 0.16480474 -0.023573896
0000a0 21 43 17 3e 90 65 97 3c 65 7a 83 be 47 e2 3c 3e
       0.14771701 0.018481046 -0.25679317 0.18445693
0000b0 bd f6 34 be 43 3d 3c be cb f4 cb bd fe ba 48 be
       -0.17672248 -0.18382744 -0.099588 -0.19602582
0000c0 14 9e 2c be e5 04 27 bd 0c 55 9e 3d 5a 01 79 3d
       -0.16857177 -0.040776152 0.07731065 0.060792305
0000d0 af 0d 3d be b7 47 85 3d 9a 85 0c 3e e5 39 f5 bc
       -0.18462251 0.06507819 0.1372284 -0.029934833
0000e0 ac cb 4c 3c 17 72 36 3e 5e f8 33 be 35 2b 0d be
       0.012499731 0.1781696 -0.17575213 -0.13786013
0000f0 5c a5 10 3e 59 63 35 be 18 e4 76 be 47 2a 1a be
       0.1412558 -0.1771368 -0.24110448 -0.1505519
000100 77 96 1a 3e 75 79 5d be ea fb 7d 3d 13 14 e4 3d
       0.1509646 -0.21628363 0.062007822 0.11136641
000110 e6 43 cd bc 1e f2 93 bd 0b a7 49 3b 7a 5f 15 3e
       -0.02505679 -0.072239146 0.0030769731 0.14587203
000120 c3 05 f6 bd 5e 35 e7 3d c8 f0 6c 3d 47 19 03 be
       -0.12012818 0.11289476 0.057846814 -0.12802611
000130 a7 70 8a be b0 00 e0 bd 8c 3d c1 3d 69 67 d4 3d
       -0.27039072 -0.10937631 0.09435567 0.103712864
000140 a7 a2 2d 3e ed eb 39 bc a9 9a 4d 3d 89 de 3e bd
       0.16956578 -0.011347753 0.050196324 -0.046598945
000150 9a e2 79 3e 57 f4 11 3e 15 ab 30 be 89 83 bc bd
       0.24402848 0.14253365 -0.17252763 -0.09204776
000160 de 9b 10 ba 1f 12 19 be b5 af e1 bd 4a 39 1c be
       -0.000551639 -0.14948319 -0.110198416 -0.15256229
000170 51 62 aa 3d 7e 14 fc 3d d7 fb 2b be 5e 1c a0 3d
       0.083195336 0.12308596 -0.16795288 0.078179106
000180 17 5d 35 bd 31 dc 02 3e 6d e6 a9 3d f8 2d 03 be
       -0.04427823 0.12779309 0.08295903 -0.12810504
000190 dc f5 41 bd c2 4c 20 3e 31 84 8d be 7a 58 6e 3d
       -0.04735361 0.15654281 -0.27639917 0.058189847
0001a0 ff 1b ac bd 92 14 5d be 97 6b 3b 3e 5c da d2 bd
       -0.08403777 -0.21589878 0.18302761 -0.10295555
0001b0 01 39 a9 3d ac b0 0d 3e 9a 7d 44 3e 61 1a 1a be
       0.08262826 0.13836926 0.19188538 -0.15049125
0001c0 2c ea af bb a5 6b bd bc b4 67 10 be 1b 07 0c bd
       -0.0053684916 -0.023122618 -0.1410206 -0.034186464
0001d0 c2 a0 e5 bc 62 a3 b9 3d f5 2e 2d bd 0a cd d8 3c
       -0.028030757 0.09064366 -0.04228111 0.026464958
0001e0 0d 26 d3 3d ad 81 6c be 1f e4 26 3e 42 9a 0c be
       0.10309992 -0.23096342 0.16297959 -0.1373072
0001f0 f3 df 1d bd c1 d6 df 3c 24 e5 5f be 33 d0 87 be
       -0.038543653 0.027324082 -0.21864754 -0.2652603
000200 18 dd 49 3d ec 6f 2c be 36 5f ce 3d e5 26 a6 3d
       0.049283117 -0.1683957 0.10076754 0.08112887
000210 08 23 e1 bd 9a ad 70 3d 69 5d 45 3d 62 18 90 3d
       -0.1099301 0.05875931 0.048184786 0.07035901
000220 47 9e 5a bd bb 15 30 3e 57 76 13 be 76 05 66 3d
       -0.0533736 0.1719579 -0.14400612 0.05615755
000230 ff f8 a2 3d 23 a5 1b 3e 09 f8 d5 3d 3f e7 f7 bd
       0.079576485 0.15199713 0.104476996 -0.121046536
000240 f5 16 bc 3d 76 36 a4 bd 0d 5d 59 be 8d af 71 be
       0.09184066 -0.080182 -0.21226902 -0.23602124
000250 0f b9 7e 3e 33 98 2c 3d 8d 97 43 be 61 b2 5f 3e
       0.24875282 0.042137336 -0.19100781 0.2184539
000260 31 77 cc bd 1f 26 15 3e 4a 65 bb bc e1 36 db bc
       -0.099836715 0.14565323 -0.022875447 -0.026759567
000270 45 42 1d 3b 5f 9a a8 3d b9 70 2c 3e 9b 6d d5 bd
       0.0023995799 0.08232569 0.16839875 -0.10421296
000280 a5 e5 7c 3e 9f 87 36 3d f9 2a 44 3e eb f3 ec 3d
       0.24696977 0.044562932 0.19157018 0.11569961
000290 96 63 2d 3e 54 dd d3 bd ff f9 2f 3e db 06 17 3e
       0.1693252 -0.10344949 0.1718521 0.14748709
0002a0 90 ff 34 be 4a 78 01 bd 4f 3f c7 bd dc 65 f5 bd
       -0.17675614 -0.031608857 -0.09728872 -0.11982319
0002b0 20 51 f5 3d 46 8c 5f be 20 61 79 bd e2 ac cc bd
       0.11978364 -0.21830854 -0.06088364 -0.09993912
0002c0 a7 0b 19 3e 84 72 9b 3d c8 04 a7 bc 73 f0 f9 bd
       0.14945851 0.075902015 -0.020388022 -0.12204065
0002d0 5b 01 87 bc b4 76 30 be 15 8f fa bd 70 85 7f 3d
       -0.016480139 -0.17232782 -0.12234322 0.062383115
0002e0 f3 38 38 be 9b fa 93 3d 98 44 9e bd 43 d3 e3 bd
       -0.17990474 0.072255336 -0.07727927 -0.11124279
0002f0 b0 ab 6e be 26 a3 67 3e 5e 11 37 3e 52 e7 7e bd
       -0.23307681 0.2262083 0.17877719 -0.062232323
000300 f5 e7 3c 3b aa ff 81 3d 92 dc 06 3e d8 e2 2c be
       0.002882478 0.06347592 0.13170078 -0.16883409
000310 f6 7c c1 bd 56 43 f8 3d 79 2a a2 3b ce e4 24 be
       -0.094476625 0.12122218 0.004948911 -0.16102907
000320 81 ad 4d be 00 63 1c be 88 3e fd 3d b9 bd 82 bd
       -0.20085718 -0.1527214 0.123654425 -0.06383843
000330 24 d5 24 3e 66 47 19 bd a2 16 2c bc 97 60 4b be
       0.16096932 -0.037421606 -0.010503443 -0.19861065
000340 2a cc c4 bd bb ec 25 3e 4f ae a7 bd 7f c5 18 be
       -0.09609254 0.16203587 -0.081875436 -0.14919089
000350 f7 05 b9 bb 9c e5 97 bd f6 62 0e be ce 90 d1 bd
       -0.005646463 -0.074168414 -0.13904938 -0.102326974
000360 2c bb 50 3d 17 e4 15 3e aa ab 1b 3e 34 06 28 3e
       0.05095975 0.1463779 0.15202203 0.16408616
000370 3c e8 97 3e d5 82 91 3d 5e b3 32 3d fe be 06 3e
       0.29669368 0.07105032 0.04362809 0.13158795
000380 69 b0 e8 bd 24 9b 05 3e da 85 c0 bd 8c e1 c9 3d
       -0.113617726 0.13047463 -0.0940053 0.09857473
000390 74 95 03 3d 71 4a a2 3d e9 72 b0 3c e4 01 dc 3c
       0.03212495 0.07924355 0.021539168 0.02685637
0003a0 a9 a0 38 be e8 9d aa 3b 6e 12 7f 3e ac 38 dd 3d
       -0.18030037 0.005206812 0.24909374 0.10801825
0003b0 54 75 c8 3d 17 c2 4b 3e e0 16 64 be 07 cf 68 3e
       0.097880036 0.19898258 -0.22274351 0.22735225
0003c0 15 f7 31 3b c3 d2 78 bd 6d d0 f8 3d 73 1d d9 3d
       0.002715533 -0.060747873 0.12149129 0.1060132
0003d0 5d 37 16 be e4 3b 06 3c c4 ce 3e 3e 06 d4 29 3e
       -0.14669557 0.00819299 0.18633562 0.16584787
0003e0 12 e9 32 3e ad 12 18 3e 80 5f 08 3e 84 6d fc bd
       0.17471722 0.14850874 0.1331768 -0.12325576
0003f0 06 a4 e6 bb 91 65 22 3e 1d 49 2b be ad 0d 70 3e
       -0.007038596 0.15859057 -0.16727109 0.23442717

bn2.weight f4 [64]
000000 3f 58 84 3f c2 20 86 3f cc 7a 81 3f 6b bf 89 3f
       1.033943 1.0478747 1.01156 1.0761541
000010 25 13 88 3f 7a b8 7c 3f 84 d9 85 3f 0c a1 7c 3f
       1.0630842 0.9871899 1.0457006 0.9868324
000020 65 f3 7a 3f 44 2a 85 3f fc dc 73 3f 78 13 85 3f
       0.9802764 1.0403523 0.9525907 1.0396566
000030 d4 71 82 3f 07 e3 81 3f b1 30 73 3f 7e 65 79 3f
       1.0190988 1.0147408 0.9499617 0.9742049
000040 89 92 81 3f 20 f5 79 3f a4 fc 86 3f 0f 9c 6f 3f
       1.0122844 0.97639656 1.054585 0.935975
000050 b1 6c 87 3f 7d 3a 80 3f cf 6d 83 3f 53 94 7d 3f
       1.0580045 1.0017849 1.0267886 0.9905445
000060 67 d3 83 3f 34 ba 69 3f df 53 82 3f 4c 24 70 3f
       1.029889 0.9129975 1.0181845 0.93805385
000070 7e 88 83 3f ad 5a 82 3f b5 86 83 3f cc 9e 7f 3f
       1.0276029 1.0183922 1.0275484 0.9985168
000080 03 a5 7b 3f 6a ad 74 3f 3d df 78 3f 3e 1e 84 3f
       0.9829866 0.9557711 0.97215635 1.0321729
000090 af 4d 83 3f 60 2c 7e 3f e6 01 75 3f a9 7e 83 3f
       1.0258082 0.9928646 0.9570602 1.0273029
0000a0 ed 14 81 3f 47 12 76 3f d5 56 72 3f b4 55 81 3f
       1.0084511 0.9612164 0.94663745 1.010428
0000b0 4d 58 81 3f d5 10 73 3f 84 40 7a 3f 0b 08 82 3f
       1.0105072 0.9494756 0.97754693 1.0158705
0000c0 bd 42 78 3f ad b2 82 3f 87 31 86 3f 91 3e 84 3f
       0.96976835 1.0210778 1.0483865 1.0331594
0000d0 03 0b 7b 3f f4 2b 80 3f 18 40 7c 3f ec ba 79 3f
       0.9806368 1.0013413 0.985353 0.97550845
0000e0 dc ad 81 3f 8d 9d 80 3f c6 ae 7d 3f 88 76 83 3f
       1.0131183 1.0048081 0.9909481 1.0270548
0000f0 d9 82 74 3f 27 7d 81 3f 96 70 85 3f 8e c6 7a 3f
       0.9551216 1.0116318 1.0424984 0.9795922

bn2.bias f4 [64]
000000 30 ea 4a 3d 12 73 ad 3b cc 8c 89 bc ca 07 f1 bc
       0.049539745 0.0052932585 -0.01679077 -0.02942266
000010 a2 de 27 3d 5d a0 b9 3d 03 ff 86 b9 71 10 d5 3c
       0.040983804 0.0906379 -0.0002574847 0.026008816
000020 a5 b9 cc 3c 83 f6 26 bd e2 bf 15 bd f7 b6 f5 3b
       0.024990866 -0.040762436 -0.036559947 0.0074986177
000030 98 e4 61 3d a5 20 0a 3c ea da 91 3b 37 7a f6 3c
       0.055149645 0.008430635 0.0044511454 0.030087573
000040 13 08 1c 3d 13 3e ba 3d 04 e2 2f bd 12 15 96 bd
       0.038093638 0.09093871 -0.042940155 -0.073282376
000050 51 44 c3 bb c3 bb a9 3d 32 8d bb bc 58 8d 87 3d
       -0.0059590717 0.08287766 -0.022894476 0.06618756
000060 78 1b 50 3c 9f c0 45 3d 43 66 ae bd 16 ef bc 3d
       0.012701862 0.0482794 -0.085155986 0.092252895
000070 71 e0 37 3a e1 7f 56 3c 64 ea 10 3d cc 91 95 bd
       0.00070143404 0.013092012 0.035379782 -0.07303199
000080 c7 94 f3 bc 30 e5 03 bd d3 aa c0 3d 1f 9d 16 3d
       -0.029734029 -0.032200992 0.09407582 0.036770936
000090 2c bc c6 bb 03 69 de 3d bf 37 15 bd 6b 94 00 bd
       -0.0060649123 0.10859873 -0.036430117 -0.031391542
0000a0 fa f7 a5 bc 1c 92 51 3d 20 9d d2 3d 45 1c 96 bd
       -0.020259846 0.05116473 0.102838755 -0.07329611
0000b0 f2 bf 63 3c 39 af 8e 3d 64 30 2a 3c d2 b5 71 3c
       0.013900744 0.06967015 0.010387514 0.014752822
0000c0 0d d0 dd bb d9 f3 a6 3d 54 4f 38 3d 6b d3 3f 3d
       -0.0067691864 0.08151979 0.04499753 0.046832483
0000d0 03 07 35 3d f8 ce c0 bc 14 0f b6 3c a8 7d 09 3d
       0.04419614 -0.02353619 0.022223987 0.0335671
0000e0 fd 5a 2f 3d d8 1e 82 3d 04 c5 6d bc 76 b4 e4 3d
       0.042811383 0.06353539 -0.014512304 0.11167233
0000f0 44 3d a5 3c 97 89 f3 3b 34 53 8f bd 84 34 18 bc
       0.020170815 0.0074321735 -0.069982916 -0.009289864

bn2.running_mean f4 [64]
000000 82 32 27 3f 58 a5 34 3f af 25 f5 3e 41 6e 93 3e
       0.65311444 0.70564795 0.47880313 0.28795055
000010 17 9b 2a 3f b5 61 0b 3f 9a 2a ac 3e f6 30 2f 3f
       0.666429 0.54445964 0.33626252 0.68434083
000020 ef a8 21 3f 2c fb 1c 3f 91 08 ec 3e 9f 52 ee 3e
       0.631484 0.6132076 0.46100286 0.4654741
000030 b6 8c 18 3f a4 d3 18 3f f1 6a e1 3e 61 8d 33 3f
       0.5958971 0.5969794 0.44026902 0.701376
000040 e3 fc b1 3e a5 63 12 3f 9b 1a ab 3e 3d d2 ec 3e
       0.3476325 0.57183295 0.33418736 0.4625415
000050 32 00 d0 3e fc c6 d9 3e 00 f9 19 3f 6a 33 c6 3e
       0.4062515 0.42534626 0.6014557 0.387111
000060 65 6e 0a 3f be ed 1d 3f dd 99 de 3e d0 be 0a 3f
       0.540747 0.6169089 0.43476763 0.54197407
000070 ad 63 21 3f 53 12 27 3f 28 b1 36 3f 12 e7 fd 3e
       0.6304272 0.65262336 0.7136407 0.49590355
000080 6d a6 cb 3e 3e 95 2d 3f 0e c0 5b 3f 10 69 41 3f
       0.3977541 0.6780585 0.8583993 0.7555094
000090 78 ec 19 3f 43 4f 39 3f 99 32 26 3f 43 ae d3 3e
       0.6012645 0.7238657 0.64920956 0.4134389
0000a0 ef 94 f2 3e 02 14 19 3f 85 d5 12 3f 11 49 f2 3e
       0.47379252 0.59796154 0.57357055 0.4732137
0000b0 51 47 c1 3e 31 26 17 3f d9 d7 bb 3e 47 05 16 3f
       0.37749723 0.5904265 0.36688116 0.586018
0000c0 7d 08 ca 3e 96 e4 1d 3f 02 4e 34 3f fd d0 14 3f
       0.394596 0.6167692 0.7043153 0.5813139
0000d0 6f dc 04 3f 56 c4 18 3f 3f 67 ef 3e de 22 d8 3e
       0.51898855 0.59674585 0.46758458 0.42214102
0000e0 b7 45 f9 3e 08 f7 15 3f e9 90 f0 3e b9 38 00 3f
       0.48686 0.58580065 0.46985558 0.5008655
0000f0 24 5b 1b 3f 9f dc 09 3f 22 cf bf 3e 63 6a ba 3e
       0.60685945 0.53852266 0.37462717 0.36409292

bn2.running_var f4 [64]
000000 95 cc ae 3f 76 b5 73 3f a0 6b 5d 3f 65 ed ef 3e
       1.3656183 0.9519876 0.8649235 0.46860805
000010 b7 70 16 3f d7 37 27 3f 6c 3e 1b 3f 2f 07 aa 3f
       0.5876574 0.6531958 0.60642123 1.3283442
000020 f0 06 11 3f 3b fd 2c 3f 31 47 b1 3f 34 54 95 3f
       0.5665121 0.675739 1.3849851 1.1666322
000030 5d ca 6f 3f c8 0b d4 3f be 0f 31 3f 4b d5 9a 3f
       0.93668157 1.6566095 0.69164646 1.2096342
000040 18 30 d0 3e b2 e2 b7 3f 98 c9 f7 3e 4c a4 ac 3f
       0.40661693 1.4366057 0.4839599 1.348764
000050 36 b2 b0 3e bd 9f ee 3e 72 72 9b 3f 77 f7 8b 3f
       0.34510964 0.46606246 1.2144301 1.0934895
000060 cb ee 1b 3f 1c 0a a7 3f 6e 53 15 3f ca f1 38 3f
       0.60911244 1.304996 0.5833043 0.7224394
000070 c7 e2 b2 3f 73 84 b7 3f 56 aa 74 3f 4c c1 69 3f
       1.3975457 1.4337295 0.9557241 0.9131057
000080 04 a7 32 3f 5a c1 b5 3f 75 ba 3e 3f ad c7 4c 3f
       0.69786096 1.4199631 0.7450326 0.7999218
000090 28 13 2e 3f 0c 13 c2 3f 04 ac d6 3f 2a 1e 5c 3f
       0.6799798 1.5162063 1.6771245 0.85983527
0000a0 f7 1a c1 3f 0e 5c dc 3f d7 44 db 3e 44 61 9a 3f
       1.5086354 1.7215593 0.42825958 1.2060933
0000b0 73 1d 35 3f b7 13 81 3f 5c ee 1c 3f 37 6f 72 3f
       0.7074806 1.0084141 0.6130121 0.9470095
0000c0 a5 be 1b 3f 04 40 25 3f 0a 66 4e 3f ee 59 59 3f
       0.60837775 0.64550805 0.8062445 0.84902847
0000d0 12 94 36 3f fe e2 e1 3f b7 c3 53 3f 77 be cb 3e
       0.7131969 1.7647398 0.8272051 0.3979375
0000e0 ec 16 1c 3f 3d 08 21 3f db cd 56 3f 0f 30 ad 3f
       0.60972476 0.62903196 0.8390786 1.3530291
0000f0 33 f7 11 3f 0f b3 65 3f b8 3e f6 3e 44 07 0a 3f
       0.5701782 0.89726347 0.48094726 0.53917336

fc1.weight f4 [64, 64]
000000 8b 96 2e 3d 76 97 99 3d 36 58 85 3d 84 6d 01 bd
       0.042624038 0.07499592 0.065109655 -0.031598583
000010 5b 3b 4e 3d 1f bb 5e bd e6 b9 cc 3d 11 54 88 bd
       0.050349575 -0.05437767 0.09996395 -0.066566594
000020 02 3d d7 bc 9c 00 e1 bd 99 ae 8f 3d 36 ca 56 3d
       -0.026274208 -0.10986444 0.07015724 0.052438937
000030 12 50 15 3d db 6c d1 3d 71 dc d3 bc ff 02 a9 3d
       0.036453314 0.10225841 -0.02586195 0.082525246
000040 8b 94 79 3d 40 d5 f2 3d df 88 f2 3d 1e 14 8f bd
       0.060932677 0.118570805 0.11842512 -0.06986259
000050 ee f4 21 be a0 1d 97 bd 07 46 c0 3d 13 66 52 3b
       -0.1581609 -0.073786974 0.09388357 0.0032104298
000060 a4 fe a9 bc ec f1 19 3e 66 41 1f be 28 90 5f 3d
       -0.020751305 0.15033692 -0.15552291 0.054580837
000070 94 f0 f6 3d 13 09 19 be 91 11 91 bc e0 1f 21 bd
       0.120576054 -0.14944868 -0.017708572 -0.03933704
000080 b3 e7 62 bb 71 cb af 3d c4 bd a5 3d fc 40 3d 3d
       -0.0034622967 0.08583725 0.080928355 0.046204552
000090 75 32 c8 bd 9d 53 d2 bd 70 25 9e bd a4 69 d0 3c
       -0.09775249 -0.10269854 -0.077219844 0.025440998
0000a0 eb 76 09 3b 41 54 4f 3c e4 56 9b bc f6 b9 37 3d
       0.0020975422 0.012654365 -0.018962331 0.04485508
0000b0 0d 76 b8 bd 7b ef f4 bd 61 f7 0e 3e 53 da da 3d
       -0.090068914 -0.1195974 0.13961555 0.10686173
0000c0 cd 71 7f bd e0 5d ee 3c 88 c6 f2 bd 2e f2 14 3e
       -0.06236439 0.029097497 -0.11854273 0.14545509
0000d0 76 cf de 3d 1a 97 e7 bd 89 5b f8 3d 1b d9 24 3e
       0.10879414 -0.11308117 0.12126834 0.16098444
0000e0 df f2 97 bd 19 26 83 bd 51 54 fc 3c 43 ee a1 bd
       -0.07419371 -0.06403751 0.030801924 -0.07906773
0000f0 dd 4a 7d ba 2e c9 c0 bc b1 29 af 3d 9a 5c d3 bc
       -0.00096623396 -0.02353343 0.08552874 -0.025800992
000100 b1 3f 9d 3c 3b b7 11 3e 5f 8e 08 bd 89 c9 94 bb
       0.01919541 0.14230053 -0.0333389 -0.0045406264
000110 c6 7f a3 3d 1e 20 ff 3d 03 a7 2f be 05 7a 1c 3e
       0.07983355 0.12457298 -0.17153554 0.15280922
000120 03 b4 ee bd 8d 40 da bd 15 c7 8a 3d c1 6c 6f 3d
       -0.11655428 -0.10656843 0.06776253 0.058453325
000130 e8 17 dc 3d 0b b5 3f 3c ff 08 90 bd df 03 c8 bd
       0.10746747 0.011700879 -0.07032966 -0.09766363
000140 e4 89 ba 3d dc 36 2c bd 15 36 09 3d 65 4c 1e bd
       0.09108332 -0.042044505 0.033498842 -0.038647074
000150 4e 3c 97 bd dd 80 14 3d 17 60 5e 3b f0 13 68 bd
       -0.07384549 0.036255706 0.0033931786 -0.05665964
000160 2a a5 b1 bd 45 be fd 3d 3e 36 9a 3b bf bf 0e 3d
       -0.08674081 0.12389807 0.004706173 0.034850832
000170 e9 62 95 3c c3 22 c4 3d a1 78 0c be c8 83 b6 3d
       0.01823564 0.09576943 -0.13717891 0.08911854
000180 ef c6 1a be 38 0d 3c 3d b8 0d e7 3d f5 97 2e be
       -0.1511495 0.045911044 0.112819135 -0.17050155
000190 cc 36 3a bd 87 55 75 3d b0 e5 8c 3d f7 ff d6 3d
       -0.045462415 0.05989602 0.06879747 0.1049804
0001a0 12 29 80 bd 2f c3 fa 3c d6 c8 80 3d 32 dc b5 bd
       -0.062578335 0.030610649 0.062883064 -0.088798895
0001b0 59 e4 2c bb 02 f0 d8 bd 8f c9 e5 bd d0 d5 9e 3d
       -0.0026381223 -0.10592653 -0.11220085 0.07755625
0001c0 a1 c1 1a 3c 02 0c fe bc 19 c4 cb 3b 34 d7 8c 3d
       0.009445579 -0.031011585 0.006218445 0.06876984
0001d0 a1 1f 30 3d 98 c3 ae 3c a8 d1 99 3d 89 f8 28 bd
       0.042998914 0.0213335 0.07510692 -0.041252647
0001e0 5f 2a 95 bc 2e 5c 53 bd c3 4b d6 bc db 0b 75 bc
       -0.01820868 -0.05160158 -0.026159173 -0.01495644
0001f0 b5 62 e6 3d 0c 71 90 bd 6a 19 0e 3d 21 93 cd bd
       0.112492956 -0.07052812 0.034692205 -0.10037828
000200 8d ec e9 bc 01 d7 c1 bd aa 2c 06 be 20 7c fc bb
       -0.028555179 -0.09464837 -0.13102975 -0.0077052265
000210 e7 ee 1a 3c 9e fe 76 bd 8a 6d 16 bd 36 07 f1 bd
       0.009456373 -0.060301416 -0.03672556 -0.117689535
000220 e2 8a 06 bd f2 1d f0 bd 1e 1f 3d 3d e1 8f a7 3c
       -0.032847293 -0.117244616 0.046172254 0.020454349
000230 a7 a1 ba 3d 09 a8 d5 bc cd bd 83 3d 9a 40 29 3d
       0.09112864 -0.026081102 0.06432686 0.041321374
000240 7f e7 70 bd 2c 20 fb 3d a4 74 5f bd 33 e3 f0 bd
       -0.058814522 0.12261996 -0.054554597 -0.11762085
000250 67 f1 cd bd a9 3a fa bd 77 69 30 be 9c 15 34 3d
       -0.100558095 -0.1221822 -0.17227732 0.04396592
000260 f5 70 f8 bd 09 7e 26 3c 24 92 18 be cb f6 1d 3e
       -0.1213092 0.010161885 -0.14899498 0.15426175
000270 79 76 55 bd b3 38 ce bd 84 7b 8a bd d2 fc 04 3d
       -0.052114937 -0.10069408 -0.0676184 0.03246767
000280 93 52 ec 3a 25 1d 7c bd e1 03 da bd 8c c6 ae 3d
       0.001802998 -0.061551232 -0.10645271 0.085339636
000290 ce d9 cd 3d 7f 47 41 bd 96 49 db bd 4d 45 a0 bd
       0.100513086 -0.047187325 -0.10707395 -0.07825718
0002a0 04 80 b1 bc 0e a8 3f 3d d8 d8 64 bd 2c f6 3b 3e
       -0.021667488 0.04679113 -0.05587086 0.18355626
0002b0 d1 19 d5 3c 8d bb 4a 3d da 5d 4c bd d6 be 67 bd
       0.026013287 0.04949527 -0.04989419 -0.05657848
0002c0 99 12 b0 3c 9f e8 20 3d 80 27 16 3d 65 0a 4c 3d
       0.021493243 0.039284345 0.036658764 0.0498146
0002d0 ee b4 70 3d 67 e6 92 bd 41 8a 06 3d 19 d4 ea 3d
       0.058766298 -0.07172852 0.032846693 0.11466236
0002e0 e3 fc a9 bd ae 55 f5 bd 64 27 82 bd c5 39 04 3d
       -0.083001874 -0.11979233 -0.063551694 0.032281656
0002f0 f8 0c 06 bd 06 ef 49 bc 1b 02 57 3d dc 7a 7c bd
       -0.03272721 -0.012325054 0.052492242 -0.061640605
000300 06 52 39 bc 4e 36 37 be 75 4a cf bd 85 ae 36 be
       -0.01131106 -0.1789181 -0.101216234 -0.17840011
000310 05 eb 73 3c f6 93 45 3d 6a f8 02 be 9f 26 3a 3d
       0.014887576 0.04823681 -0.12790075 0.04544699
000320 60 ad 11 be 93 46 7a 3d 72 27 bd 3b d4 52 d7 3b
       -0.14226294 0.06110246 0.0057725245 0.006571153
000330 92 e4 98 3d 58 0c c3 3d d5 7e 88 3c 0e dc ff 3d
       0.07465471 0.09523839 0.01666204 0.12493144
000340 36 03 33 3e ac 6d 9c 3c f2 fb ad bd 81 9e f0 bc
       0.17481694 0.019095264 -0.084953204 -0.029372456
000350 68 65 92 3d 8a 55 ef 3d 30 8f c7 bd 5c a9 e2 3d
       0.07148248 0.11686237 -0.09744108 0.11067459
000360 43 1e f8 bb 74 21 d8 bc f7 7d fc bc 8f e1 3d 3d
       -0.007571967 -0.02638314 -0.030821783 0.046357688
000370 c0 2b 6b bd 00 e8 84 3c 97 6d 82 3d fe 5b c4 bd
       -0.05741477 0.016223907 0.06368559 -0.095878586
000380 a4 a2 48 bd 23 98 8d 3b 0e 59 3a 3d b2 73 ad 3d
       -0.04898323 0.0043211146 0.045495085 0.08469333
000390 d6 d7 a8 bd 72 a1 e9 bc 00 34 80 3c 16 1b 00 be
       -0.082442924 -0.028519366 0.015649796 -0.12510332
0003a0 7a 5e bf bd ea 4d 12 3d af 5f b3 bd bb a6 19 be
       -0.09344192 0.035718836 -0.087584846 -0.15005009
0003b0 1a 5e 97 3c da cd dc bc e8 53 6a bd 7e 40 fe bc
       0.018477488 -0.026953626 -0.057208925 -0.031036612
0003c0 80 68 6a bd c5 e4 0e 3d d7 96 e9 3d 20 49 19 be
       -0.057228565 0.03488614 0.114057235 -0.14969301
0003d0 63 e6 34 3d 0c 8b ec bc 78 03 5a 3b e0 3e eb bc
       0.044165026 -0.028874896 0.0033266228 -0.028716505
0003e0 65 b0 66 bd 4c a6 f0 3c 15 0a 74 3c 2f 07 39 3d
       -0.056320567 0.029376172 0.014894982 0.045172866
0003f0 94 03 3a bd 5b da 85 bd e0 88 e5 bd ec 50 34 ba
       -0.04541357 -0.065357886 -0.112077475 -0.00068785134

fc1.bias f4 [64]
000000 d3 30 97 3d 81 16 c5 bd f4 57 8b 3d ae f2 d6 3d
       0.07382359 -0.09623433 0.06803885 0.10495506
000010 b4 23 ef bd ee 64 f1 3c ba 1b 11 3e 76 42 0a be
       -0.11676732 0.029467072 0.14170733 -0.13501915
000020 7d 10 44 3e 7b 53 91 bb a7 fa b6 bd 78 99 19 3d
       0.19146915 -0.0044350005 -0.08934527 0.037499875
000030 3a 21 cd bd da 46 92 bd d8 bc dc 3d fa 50 8f bd
       -0.10016103 -0.0714242 0.107782066 -0.06997867
000040 13 9c 5d 3d d3 3b 0d 3d 89 1c fb 3c 8a 18 58 bd
       0.054103922 0.03448088 0.030653255 -0.052757777
000050 ed 81 fc 3d 37 dd 3c 3d ef a0 70 bd ed cf 86 bc
       0.12329469 0.046109404 -0.05874723 -0.016456569
000060 ab 56 47 3d 3b ee 47 bb ef 50 ef 3d c3 d2 4a 3e
       0.048666637 -0.0030506987 0.11685359 0.19806962
000070 77 cf f4 3c 8b c2 37 bd a8 ca d0 bd c2 a1 d2 3d
       0.029884083 -0.044863265 -0.101949036 0.10284759
000080 e9 6d 05 bd ec 44 13 be 72 8f 99 3d a7 1d cc bc
       -0.03257552 -0.1438176 0.07498063 -0.024916483
000090 de 40 dc 3d 59 7f a0 3d 86 33 ad 3c 8b dd 18 bd
       0.1075456 0.0783679 0.021142732 -0.037320655
0000a0 80 60 11 bc 06 db e4 bc 3b cb 65 bd f1 09 18 3d
       -0.008873105 -0.02793647 -0.05610202 0.037118856
0000b0 57 bb 27 bd a4 1c cf bd 37 41 d7 3c bb fc b0 3d
       -0.040950146 -0.10112885 0.026276214 0.086419545
0000c0 c8 e3 90 3c 26 86 13 3d 5b a6 44 3e 74 98 0f 3d
       0.01768674 0.036016606 0.19204085 0.0350575
0000d0 79 71 2a 3c e5 cf 28 bd 0c 9f db bd 6a bb 6d 3d
       0.010403031 -0.04121389 -0.10723695 0.05804006
0000e0 e3 5d f4 3d 1b 6f 9e 3d f4 22 0b be fe 20 f0 3d
       0.1193197 0.077360354 -0.13587552 0.11725043
0000f0 d1 58 10 3e 81 a7 b3 bc c5 ce ed 3d 0b 11 af bc
       0.14096381 -0.021930458 0.11611704 -0.021370431

bn3.weight f4 [64]
000000 58 0d 80 3f 62 96 83 3f 67 a9 8b 3f 9f 01 7e 3f
       1.0004072 1.0280268 1.0911072 0.99221224
000010 fb fa 86 3f 67 c9 89 3f d8 ff 88 3f a5 8a 91 3f
       1.0545343 1.0764588 1.0703077 1.1370436
000020 d3 61 87 3f 65 12 80 3f 6f c1 84 3f 59 31 80 3f
       1.0576729 1.0005614 1.0371531 1.001506
000030 9f b9 8c 3f c2 41 82 3f 3e 10 87 3f 02 6c 83 3f
       1.0994147 1.0176318 1.0551832 1.0267336
000040 38 14 78 3f c4 e8 8b 3f fa 2d 90 3f b1 f7 82 3f
       0.9690585 1.093041 1.1264031 1.023184
000050 39 15 85 3f 0d 8f 6a 3f 14 9e 80 3f 1d 74 87 3f
       1.0397102 0.9162453 1.0048242 1.058231
000060 71 cc 8d 3f 51 d2 7f 3f e5 1d 88 3f 91 8d 7b 3f
       1.1078016 0.9993029 1.0634123 0.9826289
000070 4f a4 85 3f d3 2a 8d 3f 7e d5 7c 3f 8c 83 7e 3f
       1.0440768 1.1028694 0.98763263 0.99419475
000080 6c 92 85 3f de 6d 81 3f cf 03 80 3f 89 74 83 3f
       1.043531 1.0111654 1.0001162 1.0269939
000090 83 09 8e 3f 91 b9 73 3f 78 76 7b 3f 1c b1 7c 3f
       1.1096653 0.95205027 0.98227644 0.9870775
0000a0 95 3f 83 3f 2f 08 79 3f 98 1a 7f 3f 43 87 98 3f
       1.0253779 0.9727811 0.99649954 1.1916279
0000b0 e6 64 8b 3f 97 c4 8b 3f 7f a0 89 3f 7f ed 86 3f
       1.0890167 1.091937 1.0752105 1.0541228
0000c0 5d c5 88 3f 33 17 81 3f 76 c6 83 3f ae 3a 8f 3f
       1.068523 1.0085205 1.029494 1.1189783
0000d0 0d 6f 86 3f 1c 7e 8a 3f 34 e9 80 3f 1b 94 7d 3f
       1.050264 1.0819736 1.0071168 0.99054116
0000e0 be 81 86 3f be 3a 80 3f a9 32 76 3f e5 2a 78 3f
       1.0508344 1.0017927 0.9617105 0.9694045
0000f0 e5 e7 81 3f 02 78 84 3f ac 43 8e 3f b1 89 7d 3f
       1.0148894 1.0349123 1.1114402 0.99038225

bn3.bias f4 [64]
000000 21 f1 c7 bd 9a ad 13 bd 09 0c c5 bc b4 ea 25 bd
       -0.097627886 -0.03605423 -0.02405359 -0.040507033
000010 77 e9 b1 3c bb 4e 13 bd bd cc 28 3d a1 05 c3 bc
       0.02171777 -0.035963755 0.04121088 -0.023806395
000020 a4 32 06 3d 0d 6c 97 bd 57 c5 de bc 20 51 d6 bc
       0.03276314 -0.07393656 -0.027193708 -0.02616173
000030 2b 08 f9 bc 51 66 11 3d 90 82 02 bd 2c 3b 6e 3d
       -0.030399403 0.035497967 -0.031862795 0.0581619
000040 da 19 0f bd cc ce 81 bc 48 75 7e bd b8 ac 82 bb
       -0.034936763 -0.015845679 -0.062123567 -0.003987875
000050 ac 59 88 bd 8e da 33 bc e5 65 20 bd 36 24 bd bc
       -0.066577286 -0.0109774005 -0.039159674 -0.023088556
000060 9f b7 65 3b b9 65 1a bd dc dc fa bc 75 79 ae 3d
       0.0035052074 -0.037694667 -0.030622892 0.0851926
000070 fb d9 88 bd 8e e7 a8 bc d0 47 91 bd 65 11 60 bd
       -0.066822015 -0.020618226 -0.07093775 -0.05470409
000080 e6 61 85 bd 8e d1 c0 3d 0f 7f 3d 3d 1b 04 e2 bc
       -0.06512813 0.094149694 0.04626375 -0.027589848
000090 61 06 92 bd 9f 5e 86 bd 51 a7 20 3c 25 39 b1 bd
       -0.07130123 -0.06561016 0.009805516 -0.086534776
0000a0 1e 37 5d 3d d8 61 2b 3d 2c 4a 5f 3c ec 50 a8 3d
       0.054007642 0.041841358 0.013628524 0.082185596
0000b0 c3 f6 1d bc a2 32 b6 bb ba b5 1e 3c ec 25 23 3b
       -0.009641352 -0.005560235 0.009686882 0.002489443
0000c0 95 fa 53 bd 6b 0e 4d bc ea 10 49 3c 89 80 88 3d
       -0.051752646 -0.012515645 0.012272099 0.06665141
0000d0 ea aa bb 3c 01 26 e4 3c 3c cf 84 bb 8a 76 12 bd
       0.022908647 0.027850153 -0.0040530246 -0.03575758
0000e0 0b 84 11 bc fd ee 6a 3d 63 27 05 bb 4f 6f 24 bc
       -0.008881579 0.057356823 -0.0020317666 -0.010036304
0000f0 67 5e 6f bc f2 6b 2a 3c 02 e7 45 3d 84 42 0b 3c
       -0.01460991 0.010401713 0.04831601 0.008499745

bn3.running_mean f4 [64]
000000 de 6b 2a 40 af b9 3d 40 41 6e 1e 40 3e 3d 3d 40
       2.6628337 2.9644582 2.4754794 2.956863
000010 0c 45 19 40 8b 86 45 40 4b fe 2f 40 a5 3e 49 40
       2.3948393 3.0863369 2.7498958 3.1444485
000020 d7 fe 1e 40 99 11 5d 40 ae 2f 2e 40 c1 68 5b 40
       2.4843042 3.454199 2.7216601 3.4282687
000030 2f f6 f4 3f 22 97 2c 40 0b 88 2d 40 c0 8f ca 3f
       1.9137629 2.6967244 2.7114284 1.5825119
000040 7c 44 31 40 c0 59 11 40 9a dd 5f 40 60 94 2d 40
       2.769805 2.271103 3.4979005 2.712181
000050 d5 3e 5b 40 41 76 25 40 bc c6 27 40 67 34 1c 40
       3.42571 2.5853426 2.6215048 2.4406984
000060 9a 65 77 40 9a 44 33 40 22 84 4e 40 bc 9a 1e 40
       3.8655763 2.801062 3.2268147 2.4781942
000070 a9 7a 2c 40 07 09 1c 40 69 ef 51 40 b0 ae 25 40
       2.6949866 2.438051 3.2802374 2.588787
000080 08 7c 09 40 ae 27 e2 3f b6 b4 0e 40 94 3c 40 40
       2.1481953 1.7668359 2.2297797 3.0036974
000090 18 9b 1b 40 a0 57 1c 40 6b fb 1f 40 3b 33 3c 40
       2.4313412 2.4428482 2.4997203 2.9406269
0000a0 83 5f 1d 40 91 23 44 40 ba 0d 08 40 3f 1e 3b 40
       2.4589546 3.0646708 2.1258378 2.923721
0000b0 f1 6c 4c 40 69 4a 23 40 d4 b6 20 40 55 ea 8d 40
       3.1941493 2.5514166 2.511159 4.434855
0000c0 a1 70 3e 40 44 04 3c 40 20 25 59 40 06 f5 19 40
       2.9756243 2.9377604 3.392891 2.40558
0000d0 3b 9b f4 3f f7 5f 21 40 8f a5 2e 40 c4 9a 16 40
       1.9109873 2.5214822 2.728855 2.3531961
0000e0 81 9e 57 40 3a ec 24 40 10 cc e2 3f 6c bc 2f 40
       3.3690493 2.5769181 1.7718525 2.7458754
0000f0 17 5b 85 40 b6 9f 3e 40 73 c9 66 40 62 79 33 40
       4.1673694 2.978498 3.6060455 2.8042836

bn3.running_var f4 [64]
000000 42 a9 d6 41 c1 f8 ae 41 05 21 63 41 01 7c 2e 41
       26.832645 21.871462 14.195561 10.905274
000010 97 fb d6 41 9d 88 4e 41 59 ed 3d 41 ec 2b 82 41
       26.872847 12.908353 11.870446 16.271446
000020 20 99 61 41 56 8f 2b 42 19 00 d9 41 e1 a2 27 42
       14.099884 42.889977 27.125048 41.90906
000030 20 71 84 41 47 d3 de 41 84 49 90 41 b2 00 32 41
       16.555237 27.853163 18.035896 11.12517
000040 1f 0d 12 42 28 d3 13 41 24 a3 9a 41 57 4e c9 41
       36.512814 9.239052 19.329659 25.163252
000050 5f 3d d0 41 b1 39 15 42 46 70 b6 41 55 e3 58 41
       26.029966 37.30634 22.804821 13.555501
000060 86 34 0d 42 c0 59 fe 41 c9 e4 83 41 1d e5 6b 41
       35.301292 31.793823 16.486712 14.743436
000070 5f 39 bc 41 81 4d e5 41 99 6b 68 41 1a 3d 9c 41
       23.528013 28.662844 14.526269 19.529835
000080 83 78 38 41 6c 01 23 41 fc 3a 3e 41 dc 6f d3 41
       11.529422 10.187847 11.8894005 26.429619
000090 b3 17 95 41 80 41 b1 41 9a 03 bd 41 0f 98 f6 41
       18.636572 22.156982 23.626759 30.824247
0000a0 30 37 5c 41 ec cf f1 41 90 aa 7b 41 1c 4c 87 41
       13.7634735 30.226524 15.729141 16.912163
0000b0 fc 47 f2 41 54 ac 2d 41 4a cd 96 41 2f b4 c4 41
       30.285149 10.854572 18.850239 24.58798
0000c0 51 7e 86 41 70 8d 3f 42 d4 2c 48 41 20 8a 87 41
       16.811678 47.888123 12.510944 16.942444
0000d0 23 29 36 41 b2 19 8b 41 36 36 d9 41 1c 5f 7f 41
       11.385043 17.387547 27.15147 15.96072
0000e0 dd f8 91 41 fe 0a 0f 42 e5 e7 65 41 90 c2 7a 41
       18.246515 35.760735 14.369115 15.672501
0000f0 0f 56 db 41 25 b7 91 41 5c 3f c4 41 bd f8 0e 42
       27.41702 18.214426 24.530937 35.74291
