tuning_results/best_models_during_tuning_lightning_logs/eo_standGCN_best_model_during_tuning/checkpoints/epoch=636-train_loss=0.26-train_f1=0.88-val_loss=6.86-val_f1=0.35.ckpt (torch, 105170 bytes, 38 tensors)

conv1.bias f4 [64]
00000000: 8053 44be 4da9 413e 91ee a1be 5ac7 91be
00000010: 348e 1dbe 5c04 c8be 4d4d adbe 80cb a6bd
00000020: ca3a b8be 4501 07bf f173 f3be 5d62 51be
00000030: d688 9dbe 4442 8abd 2752 ee3d 5b47 34be
00000040: 5fb8 8cbd 0e67 64be fe99 24be 980d 19be
00000050: a9a0 863c 985c 35be 90e7 84be ce14 cdbd
00000060: 9b88 98bd 3b13 653b 26bd 1abb d055 5cbe
00000070: 81cf e1bd d0ed 3abe 168b 613d 8311 86be
00000080: db3f 90be 73ae b9bd d287 75be 5a57 0cbd
00000090: 89a2 adbe 59b6 febd 5ef4 a9be c0e1 55bd
000000a0: 5981 b1be 02e7 debe a196 be3d 34f3 46be
000000b0: edff 1bbe e78b bcbe 9e5c 5f3d 0372 f2be
000000c0: 072c 253d 07d4 af3d 2ab0 abbe e3ae 33be
000000d0: 7340 29bc b706 b1be fdfb f1bd 4ffb e6be
000000e0: 1783 7cbe 51b7 0fbe e19b 9fbe 407d 1ebc
000000f0: b41c c8bd fb28 61be 7181 2bbe 98b3 b83d
-0.19172478 0.1891224 -0.31627324 -0.28472406 -0.15386277 -0.39065826 -0.33848038 -0.08144283
-0.35982352 -0.5273631 -0.47549394 -0.20447679 -0.3076846 -0.067509204 0.11636763 -0.17605345
-0.068711035 -0.22304937 -0.16074368 -0.14946592 0.01643403 -0.17711103 -0.25957918 -0.10013734
-0.074479304 0.003495409 -0.0023611276 -0.2151711 -0.11025906 -0.18254781 0.055064283 -0.26185235
-0.28173718 -0.09066477 -0.23977593 -0.034262992 -0.33913067 -0.12437124 -0.3319425 -0.052217245
-0.34668997 -0.4353562 0.09306074 -0.19428712 -0.15234347 -0.36825487 0.054531686 -0.4735261
0.04032519 0.08585363 -0.3353284 -0.17547183 -0.010330307 -0.34575436 -0.11815641 -0.45113608
-0.24659382 -0.14034773 -0.31173614 -0.009673417 -0.097711 -0.21988289 -0.16748597 0.0901863

conv1.lin.weight f4 [64, 25]
00000000: 6c43 d83e 49c5 473e af6a 4cbe 4441 49be
00000010: 355e 9abe 7b06 2b3e 039b ec3d 539e 66be
00000020: 6c25 d8bd aa17 61be 376c a9bd 8771 9fbe
00000030: 51f5 7bbe 1fdd 893e e9ae 83be d5fb e63e
00000040: 28b0 bd3c 3157 fb3b 0869 0c3e 2c01 883c
00000050: 4027 00be 9c09 3cbe 840f 2d3e c8fe ef3d
00000060: c121 313e 3b6e f5bd 855a 97be c329 463d
00000070: da4e 953e bc79 28bd 4425 9cbe 8cca 23bd
00000080: cc91 b5be d4ff d83d 62bc ab3e a69d ba3e
00000090: 521f 753e a1d0 a83d 2464 533e f300 c13d
000000a0: 285d 853d bbd5 88be 0197 76be f9b6 a53c
000000b0: 9a73 b33d a637 79bb 74a7 8e3e 3fc0 463e
000000c0: 1f92 233d b2a5 523c cd6c 5ebe 26a7 d13d
000000d0: 58bf debd 91ff 35bf ebbf 1bbd 3db8 bebd
000000e0: 9e77 cabd 1884 16be 4932 e0bd 159b 193e
000000f0: d770 5e3e e493 9a3d 8078 92be 044f d93d
00000100: d384 ddbd fe58 e13d df4b 9e3e fdc6 b0bd
00000110: 984a 053e b0d5 3a3e a053 c5bd 5eb5 f5bd
00000120: a58b a5bd f3b7 5e3e e388 293e 6ab9 b63c
00000130: b5ac 81be 04c4 e0bd 80e2 7dbc 5ec6 9abe
00000140: 5ce0 dcbd 479d cc3d ff4b e2bd 0293 a3be
00000150: 937e 0abe 7003 5c3e ee98 263c 2b12 3d3e
00000160: 7f5b c6ba 71f9 bd3e 1960 9e3d 932e 0e3d
00000170: 6058 153e e72e 24bd 9ee6 a1be 590e debe
00000180: 7052 90be 97ca 173e 4771 8d3e 3c7f 8a3e
00000190: 9163 183d f796 a33d f5ff 26be 99ca 1f3e
000001a0: 4fb0 1fbe 2475 363e 79fd a6be d71e 77bd
000001b0: 52dc 3cbe 70b0 8dbe ec85 64be 5403 603e
000001c0: 2d1c 733e 7be1 e13d 4b0b 0e3e bd80 563e
000001d0: 3403 e5be 075c febe 29ec fdbd 1d0d 98bd
000001e0: 3187 dbbd 635c 853e 0900 003d 0150 e83d
000001f0: d55e 983d 3618 46be 8a3a 3c3e ac2a 48be
00000200: f6fd 8ebe 22fc 403e f57e ebbc 38c3 a43d
00000210: 817a a53e 67e8 823e ec8f 6ebd 53d9 0fbe
00000220: 08a6 173d b4ec ddbb ebfa 373c 3e73 3a3e
00000230: 867f 483e 553f 94be a2d1 aabd a3ab bd3d
00000240: ad88 2b3d fc44 b2be 8f54 e8be 87ed c13c
00000250: 5d38 b73e f4f0 2c3d 3e83 18be debc 253e
00000260: 56e2 69bd 4a61 7a3d 910d a53e 672e 3c3c
00000270: b842 883d 6d7e 50be 7ecb 8ebe 3ba7 b1be
00000280: 8904 dcbc f683 98be 8231 34be 5be8 cc3a
00000290: 8d73 81be ae1b 993e 5028 fa3d ff09 1d3e
000002a0: 2b19 963e c2ab ccbd 76e0 42bc cf7d 833e
000002b0: c1d3 0a3e 1079 3fbb e71d 7d3e 60a0 873e
000002c0: 2e37 343c 6180 403e f625 56be 758a 15be
000002d0: 5ed6 b43e 2df6 8dbe 6f51 e4be f68d c9bd
000002e0: 8ba7 8cbd a9f0 693e 52c9 423e 81f4 17bd
000002f0: bc21 883c 92ad fdbc 706f 90be 5927 0a3d
00000300: 0627 c03d e3fe 903d 1732 8d3e ff51 49be
00000310: fad0 6d3c ff5f 7fbe d975 61be 5e88 a83e
00000320: ae11 193e cf20 413e ac89 ddbd 43c4 cc3e
00000330: 56cd 6cbe 0b31 97be 8be0 c4bd 2d62 b73e
00000340: a0e2 dbbe 3ce3 babe b13c 65bd aa06 06be
00000350: f8a7 4f3e df28 01be 3df4 5dbe 6554 8bbe
00000360: 4dd8 273e f585 a5bb 934a c03d b3b7 14be
00000370: f622 893e aa77 7d3d 7843 893c a167 57be
00000380: 0f45 aa3d 071c b03d 6c42 b0be 5369 a8be
00000390: 8c17 263e 0b21 1fbe 24b6 a43e ac2c bd3d
000003a0: 2bd6 c2bc db0c 3d3e fb14 e63c c47e 20be
000003b0: 955d 593e ab2a 61be 7bd4 b8bd 0705 2e3d
000003c0: 1fb3 1f3e ce88 9e3d 1656 b53e 5156 62be
000003d0: 6fbe 8f3e 88a7 2cbe d12f e4bd 5930 32bd
000003e0: f06f 6e3e c434 1d3e 8c30 31be e400 113e
000003f0: 003f 373e 8113 1fbd e5d4 6fbd ed8f bbbe
0.4223894 0.19508852 -0.19962572 -0.19653803 -0.3015 0.16701691 0.11553004 -0.22521333
-0.10554013 -0.21981683 -0.082725935 -0.31141302 -0.246053 0.26926515 -0.25719383 0.45114008
0.023155287 0.007670306 0.13711941 0.016602121 -0.12514973 -0.1836304 0.1690045 0.117185175
0.17298032 -0.119839154 -0.29561248 0.04837967 0.2916172 -0.04113172 -0.3049718 -0.039988086
-0.35462797 0.1059567 0.33542162 0.364484 0.23937729 0.08242918 0.2064367 0.09424009
0.06511909 -0.26725563 -0.24081041 0.02022885 0.087622836 -0.0038027554 0.27862132 0.19409274
0.039934274 0.012856888 -0.21721192 0.10236959 -0.1087634 -0.7109309 -0.038024824 -0.093124844
-0.098860964 -0.14698827 -0.10947091 0.15000565 0.21722732 0.07547739 -0.2860756 0.10610774
-0.1081635 0.11003302 0.3091726 -0.08631704 0.13016737 0.18245578 -0.09635091 -0.11997484
-0.08083276 0.21749859 0.16556124 0.02230521 -0.25327078 -0.10974887 -0.015495896 -0.30229467
-0.10784981 0.09990936 -0.11049651 -0.31948096 -0.13524847 0.21485686 0.010168297 0.18463962
-0.0015133469 0.3710437 0.07733173 0.034712385 0.14584494 -0.040083792 -0.3162126 -0.4337032
-0.28187895 0.14823376 0.27625486 0.27050197 0.03720433 0.07987779 -0.16308577 0.15604629
-0.155946 0.17818123 -0.3261526 -0.060332146 -0.1844342 -0.27673674 -0.22316712 0.2187627
0.23741217 0.11029335 0.13871495 0.20947547 -0.44729006 -0.49679586 -0.123985596 -0.07424376
-0.10719145 0.26047048 0.031250034 0.113433845 0.07439963 -0.19345173 0.18381706 -0.19547528
-0.27928132 0.18846181 -0.028747061 0.080450475 0.32320026 0.25567934 -0.058242723 -0.14047746
0.037023574 -0.006772602 0.011229257 0.18208024 0.19579896 -0.28954569 -0.083407655 0.09261253
0.04187839 -0.34818256 -0.45377013 0.023672832 0.3578519 0.04222198 -0.14893815 0.16185328
-0.057100616 0.06112794 0.32236913 0.011485673 0.066533506 -0.20360728 -0.27889627 -0.346979
-0.026857631 -0.29788178 -0.1759701 0.0015633212 -0.2528347 0.2990393 0.1221472 0.15335844
0.29316077 -0.09993698 -0.011894336 0.25681922 0.1355734 -0.0029216446 0.24718438 0.26489544
0.010999484 0.18798973 -0.20912918 -0.14603598 0.353198 -0.2772688 -0.4459338 -0.0984153
-0.06867894 0.22845711 0.1902211 -0.03709841 0.016617648 -0.030966554 -0.2821002 0.03372893
0.09382443 0.07079866 0.27577278 -0.19660185 0.014515156 -0.24938963 -0.22017612 0.3291654
0.1494815 0.18860172 -0.108172745 0.39993486 -0.23125204 -0.29529604 -0.09613141 0.3581709
-0.4294634 -0.3650149 -0.055966083 -0.1308848 0.20278919 -0.12613247 -0.21675201 -0.27212825
0.16391106 -0.0050513693 0.09389224 -0.145232 0.26784486 0.0618817 0.016755804 -0.21035625
0.08313953 0.08599096 -0.34425676 -0.32892856 0.1621992 -0.15539949 0.32170212 0.09237036
-0.023783764 0.18461935 0.028086176 -0.15673357 0.21227105 -0.21988933 -0.090249024 0.042485263
0.15595673 0.07740937 0.3541724 -0.2210324 0.28074977 -0.16860783 -0.11141933 -0.04350314
0.23284888 0.1535216 -0.17303675 0.14160496 0.17895126 -0.03883696 -0.05855264 -0.36633244

bn1.weight f4 [64]
00000000: bcde 4e3f 1960 5f3f 802a 813f e618 673f
00000010: 3fbf 8f3f 84b6 6d3f 910f 473f 0cf6 533f
00000020: f900 863f 16de 623f 692b 833f 507e 823f
00000030: e171 863f bd40 483f b533 4f3f 8f36 7d3f
00000040: a0c5 813f d162 8c3f 939f 833f 8e71 793f
00000050: c121 a43f ca4a 4f3f f149 8d3f 0e18 7c3f
00000060: 7d33 8f3f b7d9 833f 1e23 823f d788 593f
00000070: 5d5f 893f 9013 8d3f 6cd7 763f f954 533f
00000080: 43c4 5b3f af40 933f 4805 873f d44b 8c3f
00000090: 1b35 683f f0c4 6c3f 376e 7c3f 8aa3 443f
000000a0: 3dd3 863f f620 783f 0334 763f e62f 4e3f
000000b0: d222 843f 53c0 943f 1c43 463f 6c1b 783f
000000c0: 1f49 533f 73f9 873f c7f2 663f 94ad 7d3f
000000d0: 7077 3f3f da66 783f 7564 a43f b4b8 853f
000000e0: 063a 923f 926b 943f a338 a03f f649 933f
000000f0: 7e40 963f 8ca9 893f d73a 533f f4f5 8a3f
0.80808616 0.8725601 1.0091095 0.90272367 1.1230239 0.9285662 0.7775813 0.8279731
1.0469047 0.88620126 1.0247623 1.0194798 1.0503503 0.7822378 0.80938274 0.98911375
1.0138435 1.0967656 1.0283073 0.97438896 1.2822801 0.80973494 1.103819 0.98474205
1.1187588 1.0300816 1.0166967 0.84974426 1.0732228 1.1021595 0.9642246 0.82551533
0.85846347 1.1504115 1.0548487 1.0960641 0.9070603 0.92488 0.98605675 0.7681204
1.0533215 0.96925294 0.96173114 0.8054184 1.0323126 1.1621193 0.7744615 0.9691684
0.8253345 1.0623001 0.902142 0.99092984 0.7479162 0.9703194 1.2843157 1.0446992
1.1423957 1.1595328 1.2517284 1.1506946 1.1738431 1.0754867 0.8251166 1.0856309

bn1.bias f4 [64]
00000000: 063e 043e a73f 203e 868b d4bd cd8a e23e
00000010: 077a bcbc c905 b23b 16aa 3abe 6184 173e
00000020: 8957 e63d 4de7 0dbb 7946 e7bd ebe7 5abe
00000030: 3256 febd 9fdf 433e 41f5 133e a8c5 f63d
00000040: 407e 8e3e 76e2 9ebd 4310 c23d f42c fd3d
00000050: cba5 3bbe 1c28 e3bd 783e b33e 9186 323c
00000060: ea01 be3e 54e1 d5bd c9dc aabc a1e2 14be
00000070: 0179 c2be 3715 8a3d 8cc1 f63e 1e6b 773e
00000080: 3050 613e 56e7 84be 5994 713e ba36 0c3e
00000090: e4e0 ce3e a23a 983e 156b 0fbe ddd7 0f3e
000000a0: 0314 fa3d dba8 633e 0380 883e c0cd 62be
000000b0: d369 883a 3022 04be 687a c73e 6680 273d
000000c0: 5b5a 353e 58de 813e 4c90 a03d 3dc4 2a3e
000000d0: 416b 9e3e d0fb 843d 1db2 193e 6990 48bd
000000e0: bca6 dc3e bcdc 97be d337 2b3e 455d 043e
000000f0: 7989 9b3e 7643 943e 3a08 c13c 9c54 c53a
0.12914285 0.15649281 -0.103781745 0.44246522 -0.023007406 0.0054328186 -0.18228945 0.14796592
0.11247165 -0.0021652759 -0.112927385 -0.21377532 -0.12418784 0.19128273 0.14449026 0.12049419
0.27830696 -0.07758038 0.09475758 0.1236209 -0.18324964 -0.11091635 0.35008597 0.010896341
0.37110835 -0.104433686 -0.020857232 -0.14539577 -0.37982944 0.06742328 0.4819454 0.24161956
0.22003245 -0.25957745 0.23591746 0.13692752 0.40405953 0.29732233 -0.14005692 0.14047189
0.12210848 0.22232382 0.26660165 -0.221488 0.0010407515 -0.12903666 0.38960576 0.040893935
0.17710249 0.25364947 0.078400224 0.16676421 0.30941203 0.06493342 0.15009351 -0.048965845
0.43095958 -0.29660594 0.16720514 0.12926205 0.3037832 0.2895772 0.023563493 0.0015055123

bn1.running_mean f4 [64]
00000000: 2a1d ca3e d05f 083f 1751 983e 241b b63e
00000010: 3fb3 2e3e bb4a d33e 7eb9 d33e b2ea 5e3e
00000020: 3dcb bc3e 20d7 993e 2082 763e 6a4a 713e
00000030: 6bed a13e 3c20 123f 8dc7 dd3e 8047 7d3e
00000040: 9a53 ca3e ce6c ed3e 7b4c 253f 3517 ab3e
00000050: be50 ee3e 89e6 aa3e cfb3 173f 67fa 1e3e
00000060: 2b58 ee3e 8cc7 603f 4b98 1a3f 126a 883e
00000070: fb55 703f 4ba4 3b3e f9ca ea3e 2b96 eb3e
00000080: 944d 0f3f bdb7 9c3e d0a6 3f3e 44bd a73e
00000090: 2169 d83e e18e f73e 0176 9f3e 4e99 683e
000000a0: cf79 523e 70fd 5d3e 5143 d43e ac06 e33e
000000b0: 6e3c 6d3e 8175 2c3e 97e6 473f c3ff a63e
000000c0: a74e e93e 5f8a fc3e a2f6 a13e f71a bd3e
000000d0: 7e1f e13e df89 d23e 927e 003f 1146 b03e
000000e0: e5d6 8b3e c541 c33e b4cc 853e 1912 123f
000000f0: 1765 3f3e 3e9f 343e e641 7f3f 9dab 8c3e
0.39475375 0.532712 0.29749367 0.35567582 0.17060564 0.41267952 0.41352457 0.21769217
0.36873809 0.3004694 0.24073076 0.23563543 0.31626448 0.57080436 0.43316308 0.24734306
0.39516908 0.46372074 0.64569825 0.33416143 0.46545976 0.3337901 0.5925874 0.15525208
0.46551642 0.87804484 0.6038863 0.26643425 0.93881196 0.18324392 0.4585798 0.46013007
0.5597775 0.3060893 0.18715978 0.32761586 0.42267707 0.48351195 0.31144717 0.22714731
0.20554279 0.2167871 0.41457608 0.44341028 0.23167583 0.16841699 0.7808623 0.32617006
0.4556782 0.4932432 0.31633478 0.36934635 0.4396934 0.41120812 0.5019313 0.34428456
0.2731239 0.38136116 0.2613274 0.57058865 0.18690906 0.17638871 0.9970993 0.2747468

bn1.running_var f4 [64]
00000000: cf02 e63e 4dee 843f 247b c33e e1ad ef3e
00000010: 96b8 d43d fe83 d93e 3847 3c3f fffb 5a3e
00000020: 4260 773e 8801 cf3e e4fe 243e 9d8d 5b3e
00000030: ca8b cf3e c842 9c3f a7fb 053f e9b9 133e
00000040: b49a a73e ca16 963e f75c 1d3f e2f4 a63e
00000050: f15f 543e 3622 d53e e5b1 ed3e cfeb a73d
00000060: 5def 183f 1c98 3f3f 6f79 343f b7e7 493e
00000070: 7856 933f 8192 3f3e 89a3 8d3f e85c e93e
00000080: 6ce2 353f d572 943e 159c 333e 483c 9b3e
00000090: b929 b23e eb5a 0f3f b1d8 403e 9e8c 343e
000000a0: 098f 303e e502 103e 8d18 e23e 1c00 093f
000000b0: b49c 013e 8812 ed3d b452 da3f 18f0 9a3e
000000c0: 4ee7 643f f941 ac3e 1192 723e 272c e33e
000000d0: 6305 423f 6598 bc3e 4e68 bc3e e7cb 563e
000000e0: f16b 4d3e b84f a13e 64e6 833e 2aa5 c33e
000000f0: ce09 053e 5b95 f13d e840 9c3f 600d 193e
0.44924018 1.0385224 0.38179886 0.46812347 0.103867695 0.42483515 0.7354617 0.21385191
0.24157813 0.40430856 0.16112858 0.2144074 0.40536338 1.220788 0.52337116 0.14426388
0.32735217 0.29314262 0.6146998 0.32608706 0.20739724 0.41627663 0.46424785 0.08199274
0.5974024 0.74841475 0.7049779 0.19717298 1.1510763 0.1870823 1.1065532 0.45578694
0.7104862 0.2899386 0.1754001 0.30319428 0.34797457 0.55998105 0.18832661 0.17631766
0.17242064 0.14063604 0.44159356 0.5351579 0.12657434 0.115758 1.7056489 0.30261302
0.8941544 0.33644083 0.23688532 0.44369623 0.7578947 0.36835018 0.36798328 0.2097622
0.20060708 0.31506133 0.25761712 0.38211948 0.12992021 0.117960654 1.2207308 0.14946508

conv2.bias f4 [64]
00000000: aaf5 873c 435e 1bbd 711d aabd 82aa 88be
00000010: b9ed 03bc d890 a13c e075 39bd 1651 04bd
00000020: ce6d d23d 5d4f fb3d ef44 6ebc 9832 c9bd
00000030: d13c 1e3e 9c69 42be 6615 17bd 0f2c 5fbc
00000040: 37ff 09be 9ae0 a1be e996 6bbc 9e43 a0bd
00000050: 13e1 3b3d 082f b83c ed3d 073c 5a32 8dbe
00000060: c5af 23be 1bbc 46be 90a6 2abe 194d d1bd
00000070: b223 7ebe 4d69 3a3d 1fc3 d3bc f5a5 78bd
00000080: b0ec 9dbd ae45 3dbe 214a b23e f135 8e3e
00000090: 74e0 003d 1e14 283d fce6 59be 2256 81be
000000a0: 8505 03be 36c0 81bd c589 a33e 6627 bfbe
000000b0: 047b 93be de61 63bd 5b46 14bd 0d0c b8ba
000000c0: fa70 2dbe ef72 fa3d cd8b 723e 01f1 ff3d
000000d0: dc17 d03d 85c0 75be e75b d5bd 3ce1 55bc
000000e0: ce81 1bbe b776 a63c 1d86 86be 5959 1dbe
000000f0: ce21 ac3e d700 fabd 2ea3 21be ab05 00be
0.016596634 -0.03793169 -0.08306397 -0.26692587 -0.008052283 0.019722387 -0.04527843 -0.032303892
0.1027485 0.12270997 -0.014542802 -0.09824103 0.15452887 -0.189856 -0.03688564 -0.013621344
-0.13476263 -0.3161667 -0.0143792415 -0.07825397 0.045868944 0.022483364 0.00825451 -0.27577478
-0.1598502 -0.19407694 -0.16665101 -0.10219783 -0.24818304 0.04551058 -0.025849877 -0.060705144
-0.0771116 -0.18483612 0.3482218 0.2777553 0.031464055 0.04103481 -0.2127952 -0.25261027
-0.12795074 -0.063354895 0.31941047 -0.37334746 -0.2880479 -0.055513255 -0.03619991 -0.0014041677
-0.16937628 0.12228953 0.23686142 0.1249714 0.10160801 -0.23999222 -0.104179196 -0.013054188
-0.15186235 0.02032028 -0.26274195 -0.15366115 0.3361954 -0.122071914 -0.15784904 -0.12502162

conv2.lin.weight f4 [64, 64]
00000000: 797b 023d d189 8dbe 4557 cf3d 4553 6c3e
00000010: 38a3 66bd 9308 9a3c 6ea8 c23d 3a15 91be
00000020: 65c3 0abd f028 893d ee18 8dbe f45d aa3e
00000030: c13f f13d 118e 01bf 501d efbb cc6f 8a3d
00000040: e2fb e8bd 9d17 1ebe bce8 683e eb71 19bd
00000050: b636 0cbd 453d a63c 6601 a4be e34c acbe
00000060: f082 b83c 297a f2bd c3e0 d93d 3762 8bbc
00000070: 4539 acbc 7afb 5dbe f035 e03d 0447 9b3c
00000080: f7bf 04bd 5692 f73d b608 82be 6ae7 dabc
00000090: ebbd 84be a54e 2ebe a4d1 4c3e 89e8 10be
000000a0: d345 953e 8a6d df3d fad9 74be 1faa 343e
000000b0: dbe5 a9be f367 cfbe 8495 22bf 19e6 c4be
000000c0: 01ee 65be 8b7a f0bd 4d44 243d 44ae 4b3d
000000d0: a26d 1fbf ee00 0d3e 1fa6 233d d62b 6d3d
000000e0: cdd7 803d 3065 513e b032 35be 6c47 2bbd
000000f0: 4f81 7f3e 8ade 93bd 5cca 57be 5dee bbbc
00000100: 28f5 5f3e f72b f4be 58b5 07bd 390a af3d
00000110: 9300 3d3a a76b 66bd 21a0 f63d 6ab6 633e
00000120: c96e b0be 10d7 1cbd ef87 9e3b 94cb 9ebe
00000130: 917a 42be 0f51 d5bd 8d7c 0a3e 514b 8c3d
00000140: 7446 013f 8108 ab3b 1c7f a43d a9f1 283e
00000150: cf1f a33e 569f e43d a8fe 80bb b1df 93bd
00000160: 8586 163e d7ed 93be 2b90 59be bbfc 93be
00000170: 17e6 473e a8ca 873e 5cbc 37bf dd95 2d3e
00000180: edd6 60be d44a 6a3d d06b 843c aad8 f8bd
00000190: 062a 15be 68b8 a33e 0032 63be 28ba c2bc
000001a0: 0204 8dbe 773d dcbd 4c3b 913e 8cc2 17be
000001b0: a3b3 ed3d f02b 053e 8f2d 813d 33a5 4ebc
000001c0: 254c 953b 7cc1 923c b73f e6bd 8572 e6bb
000001d0: 9d10 cf3d 55b1 333e c208 b4bd d149 7b3e
000001e0: e785 a43e d416 04be 4fbc 523e 71ee 06be
000001f0: 39fe 0fbd ff86 043e f703 27be 9c2c b2be
00000200: 1719 e03d 0ad2 94be 09b4 223e f42b 413e
00000210: 0748 c43c dc96 1bbd d023 5abd 17cd 8cbe
00000220: 90ef 2dbd 94a5 5b3e 8245 a0be 18f0 e73d
00000230: fef2 cb3d ac81 36be 0e7e ba3d b36d adbd
00000240: ebc8 a03e 6025 063e de9b 46be c677 14bf
00000250: aecd da3e da41 543e 95c5 84be 9c58 8f3e
00000260: 004a a0bd 8820 b03d 8a75 afbe db8e fcbb
00000270: 0a58 503e 41e7 e5bc ae17 10bc 3bbd 75be
00000280: ef74 a33e d9dd 103c 71f7 4a3e f63f 153e
00000290: 885d 033c ef1d 1bbe 14d5 4a3c 89c0 0fbc
000002a0: ba9f e93b 65a3 3fbe cb3a 60be a0a7 7f3d
000002b0: 851f 033e e523 0ebe 39a3 11be 5371 16bd
000002c0: 5a89 c53d 21a8 3bbd 27d6 2a3e f502 babd
000002d0: f043 48bd f461 703c ce4b 55be 6395 07be
000002e0: 0319 c5be 4514 783e b91b a2be d59c 2cbe
000002f0: b812 c6be 7dbf 993e 80de ba3e eb77 3e3d
00000300: 5e23 983c 6c99 123e 41b0 f53d 5a08 90be
00000310: 0492 253d 8571 993e 49a6 8c3d 1b07 82be
00000320: 0aa3 7cbe d4df 01be fc03 593d eda5 f93c
00000330: c605 a63e a3ff 61bd 5b62 063e 4400 0fbe
00000340: 3705 d4bd d0bf 843e 2ab8 fbbc 8298 68be
00000350: 3ed8 e93c 047c a7be c6c2 f4bd 36c6 0cbe
00000360: f8e7 573e 5fb5 db3c 01f6 873e 8daa 8c3e
00000370: 814a 173f 84ca 503e a65c e43c 2850 423e
00000380: 36ee 4abd 692b 003e 84f1 f23b 957b ad3d
00000390: 5b61 2e3e 4229 2b3d 0bd3 9b3d 12d6 5dbd
000003a0: b85e 73be 2aa4 583d cf34 4e3e 2e65 2c3e
000003b0: 53c8 e33e b085 3c3e 0163 a8be 77b1 de3d
000003c0: 1f16 ef3d 76d2 18be aa4b f23d b279 4d3e
000003d0: eba0 09bd b33d d3bd 014f 903e 0e1e 863e
000003e0: a542 5f3e b591 303e 514b 083c 8a98 e0bd
000003f0: 376a b33e 48ac 4c3e 3b2d 5b3c dfb8 8a3e
0.031856034 -0.27644208 0.10124067 0.2307864 -0.056308 0.018802917 0.09504782 -0.28336507
-0.03387775 0.06697261 -0.27558082 0.33274806 0.11779738 -0.506074 -0.0072971955 0.06759605
-0.11376168 -0.15438695 0.22745031 -0.037462156 -0.034231864 0.020292887 -0.32032317 -0.3365241
0.022523373 -0.118397065 0.10638573 -0.017014606 -0.021023402 -0.21677962 0.10947788 0.018954761
-0.032409634 0.12088458 -0.2539727 -0.026721675 -0.25926146 -0.17022188 0.20001847 -0.14151205
0.29154834 0.10909565 -0.23911276 0.17643021 -0.33183178 -0.40508994 -0.6350939 -0.384568
-0.22454073 -0.11742123 0.0401042 0.04972674 -0.6227666 0.13769886 0.039953347 0.057903133
0.06291161 0.20448756 -0.17695117 -0.04181616 0.24951671 -0.0722018 -0.21073288 -0.022940809
0.21870863 -0.47689793 -0.033131927 0.08546872 0.00072098634 -0.05625501 0.12042261 0.22237554
-0.34459522 -0.038291037 0.004837982 -0.31014693 -0.18992068 -0.10415851 0.13524075 0.06850303
0.5049813 0.0052195196 0.08032057 0.16498436 0.31860206 0.111632034 -0.0039366074 -0.072204
0.14699753 -0.28892395 -0.21246402 -0.28903756 0.19521366 0.26521802 -0.7177179 0.169517
-0.21956988 0.057200268 0.01616469 -0.121507004 -0.14566812 0.31976628 -0.22187042 -0.023770407
-0.2754212 -0.10753911 0.28365552 -0.14820307 0.116065286 0.13005042 0.06307518 -0.012612629
0.0045561963 0.017914526 -0.112426214 -0.0070326948 0.101105906 0.17548116 -0.08790733 0.24539877
0.3213341 -0.12899333 0.20579647 -0.13176896 -0.035154555 0.12942122 -0.16310106 -0.3479966
0.109422855 -0.29066497 0.1588899 0.18864423 0.023960127 -0.037985668 -0.05325681 -0.2750022
-0.042464793 0.21449882 -0.3130303 0.11325091 0.099584565 -0.17822903 0.09106074 -0.08468189
0.31403288 0.13100195 -0.19395396 -0.5799526 0.42735046 0.20728245 -0.25931993 0.2799729
-0.078266144 0.08599955 -0.34269363 -0.0077074594 0.20346084 -0.028064372 -0.008794708 -0.23997967
0.3192515 0.008841955 0.19820954 0.1457518 0.008017905 -0.15148138 0.012379903 -0.008773931
0.0071296366 -0.18714674 -0.21897428 0.06241572 0.12804992 -0.1388088 -0.14222421 -0.03672917
0.09645338 -0.045814637 0.16683255 -0.09082595 -0.048892915 0.014671791 -0.20829698 -0.1324058
-0.38495645 0.24226482 -0.31661776 -0.16856702 -0.38686156 0.30028906 0.3649788 0.04650108
0.018571552 0.14316338 0.119965084 -0.28131372 0.040422454 0.2996942 0.06867654 -0.25396046
-0.2467157 -0.1268304 0.052982315 0.030474627 0.3242628 -0.055175435 0.13123457 -0.13964945
-0.10352557 0.2592759 -0.030727465 -0.22714427 0.028545495 -0.32711804 -0.119512126 -0.13747486
0.21084583 0.026819883 0.26554874 0.2747387 0.5909806 0.20389754 0.02787621 0.1897589
-0.049543582 0.1251656 0.007414045 0.08470837 0.17029326 0.041787393 0.076086126 -0.05415923
-0.23766601 0.052890934 0.20137332 0.16835472 0.44488773 0.18410373 -0.32888034 0.108736925
0.11674141 -0.14924034 0.11830838 0.20065954 -0.03360073 -0.103145026 0.28185275 0.26194805
0.21802767 0.17243083 0.008318738 -0.109665945 0.35041973 0.19987595 0.013377483 0.2709417

bn2.weight f4 [64]
00000000: e578 713f 09d0 883f a988 813f 04d2 923f
00000010: 79cc 883f 0856 893f 2bb1 853f 7b08 543f
00000020: d1ea 6b3f 2a4f 853f 244c 753f 1a00 733f
00000030: 7e98 763f c5e3 733f f021 8c3f 8e2a 873f
00000040: dfc4 8b3f 5ed5 753f a534 773f cfc4 703f
00000050: 8436 883f d8bf 6d3f e32c 833f 678f 6e3f
00000060: 4651 743f 8ec5 753f c1dd 8c3f 7168 6a3f
00000070: 395a 813f 572e 8c3f 821f 833f de7b 823f
00000080: 5677 883f e21b 743f a420 843f cbe3 7e3f
00000090: e720 883f 0d65 693f e8fc 703f 5f2a 5f3f
000000a0: e419 523f 59b6 603f d7ea 8e3f 0140 863f
000000b0: d72c 8a3f d296 8b3f 57f9 953f 49d6 613f
000000c0: e991 6f3f 4486 673f 14d6 7b3f ef2c 963f
000000d0: 7a20 773f 08a1 683f 59f7 763f 6473 883f
000000e0: b4c1 813f 598f 7f3f 8345 723f 87ba 733f
000000f0: 9175 813f 0cc2 7c3f 83c3 853f 5b7d 653f
0.94325095 1.0688487 1.011983 1.1470342 1.06874 1.072938 1.0444692 0.8282544
0.92155176 1.0414784 0.95819306 0.9492203 0.96326435 0.95269424 1.0947857 1.0559862
1.0919455 0.960287 0.96564704 0.94050306 1.0641637 0.92870855 1.0248073 0.93187565
0.95436513 0.9600457 1.1005174 0.91565615 1.0105659 1.0951642 1.024399 1.0194051
1.0661418 0.95355046 1.0322461 0.99566334 1.0635041 0.91169816 0.94135904 0.8717403
0.82070756 0.8777824 1.1165417 1.0488282 1.0794934 1.0905402 1.1716717 0.882176
0.93582016 0.9043925 0.9837353 1.1732463 0.9653393 0.90870714 0.9647117 1.0660214
1.0137239 0.99828106 0.94637316 0.95206493 1.0114003 0.9873359 1.045029 0.896444

bn2.bias f4 [64]
00000000: a425 a53e c1b4 753e 9c23 953e 0e31 043e
00000010: 5e3a 66bb 34b8 dc3e 6bce 0c3e ac75 5f3e
00000020: 667c 133e 3cc3 513c 17e9 673d d95b f93e
00000030: 20c6 ad3e 17e8 e63d ee78 f93d a14c 1b3e
00000040: 9466 7a3e 2b9e d03e 9344 a43d b7c9 13be
00000050: f191 363e 006c d13e 94aa f13e 250a bf3e
00000060: 5cdf 913e cd5f 2f3e 84af fa3d 7f03 083f
00000070: a45e 603e 2ce6 fd3d 699f ba3e ce09 6b3e
00000080: 9cf7 c33e ec08 e03d f9d1 983e 186a a53e
00000090: 7ad7 bd3a 13a1 c63e eb7d 403e 13df 43bd
000000a0: 919a 883d 749c cc3e 86d5 203d 027e 25bd
000000b0: 8100 cc3e 780c 3d3f 74d9 803e 825a 863d
000000c0: 940a ae3e a487 5d3d a2c1 2ebb 18fe 873e
000000d0: 674c 963d fe8d 543e aabc ee3e 8f75 e2bc
000000e0: a4fc 0e3f 2732 8b3e a012 803e cecf 353f
000000f0: f67d 87bd 017c cd3e a599 b23c 2b13 3ebe
0.3225528 0.23994733 0.2912873 0.12909338 -0.0035130004 0.43109286 0.13750617 0.21822232
0.14402923 0.012802895 0.056618776 0.48702887 0.3394022 0.112747364 0.12181269 0.1516595
0.24453193 0.40745673 0.08020892 -0.14432417 0.1782911 0.4090271 0.47200453 0.37312427
0.28490722 0.17126389 0.12240508 0.53130335 0.21911103 0.123974174 0.36449745 0.22952959
0.38274848 0.10939202 0.29847696 0.32307506 0.0014483773 0.38794765 0.18798034 -0.047820162
0.06670106 0.39963114 0.03926613 -0.040403374 0.39844134 0.7384715 0.25165904 0.06560232
0.33992445 0.054084435 -0.0026665707 0.26561046 0.07338791 0.2075729 0.46628314 -0.027643947
0.5585425 0.271867 0.2501421 0.7102021 -0.06615822 0.4013367 0.021801779 -0.18562

bn2.running_mean f4 [64]
00000000: b9f0 b33e 2959 733f 25da b13e 3d13 fd3e
00000010: b1a8 e43e 9750 293f 59ce e83e 786d c93e
00000020: 93ec 083f 7f0e 333f d12c 063f 29f2 093f
00000030: 50cf 453f 53e8 1b3f 5dff 203f 653c 713f
00000040: 6e40 af3e 613b f63e 9299 6b3e 1360 e63e
00000050: 5d19 033f 8fa1 8e3e ca9b 6a3f 67f8 eb3e
00000060: 334b 123f 141b cd3e d2b5 4b3f 0889 e43e
00000070: 2005 293f 79d5 2a3f fe09 593f ba8e 8a3e
00000080: 0ac0 233f 725c 193f 6eb6 5d3f eecf 1a3f
00000090: 9e4f 893e 39f0 af3e 8e7a 093f bbbb 1d3e
000000a0: 3023 cb3e 07b1 0f3f 3ac3 2e3f a95c b43e
000000b0: ee23 b33e 1258 263f af8a da3e b7b0 d63e
000000c0: e5b9 ee3e 243c 323f 21da 463f 62ca bc3e
000000d0: 9576 193f dbd7 253f 55df fe3e 043c e03e
000000e0: 102a 063f c34c 0e3f bc3f f43e b606 af3e
000000f0: b33c 233f 46e7 0b3f 5670 d33e 63c4 d33e
0.35144594 0.9505792 0.34736744 0.4942874 0.4465995 0.66138595 0.4546993 0.3934133
0.53485984 0.69943994 0.52412134 0.5388513 0.7726946 0.60901374 0.62889653 0.9423278
0.34228843 0.48092178 0.23007801 0.44995174 0.51210576 0.27857634 0.91643965 0.46087953
0.57145995 0.4005972 0.7957431 0.44635797 0.66023445 0.66731983 0.8478087 0.27062017
0.63964903 0.59906685 0.8660649 0.60473526 0.26818556 0.34362963 0.5370263 0.15403645
0.39675283 0.561295 0.6826664 0.35226944 0.3498835 0.64978135 0.42683932 0.41931698
0.466262 0.6962302 0.7767659 0.36873156 0.59946567 0.64782494 0.49779764 0.43795788
0.5240793 0.5558588 0.47704875 0.34184808 0.63764495 0.5464977 0.41296643 0.4136077

bn2.running_var f4 [64]
00000000: a9b8 ff3e 0d6d db3f afdd 063f d0e1 c13f
00000010: 4fa4 0d3f be36 903f 38c4 783f 809a f43e
00000020: 98cd 293f 724b 923f 196c 413f 6cba c23f
00000030: 56d9 953f 1378 a83f 0c04 5d3f ff74 ed3f
00000040: 3b5e 123f 030a 973f 723d 8c3e 01a9 8c3f
00000050: 5ad0 553f 1f72 c73e 05e8 0e40 f057 863f
00000060: f083 513f ad05 503f d159 f73f 38f5 423f
00000070: 795a 0c40 8fc0 7a3f 5776 9b3f f80a dc3e
00000080: d1a7 0140 3349 a63f f34a 723f bc88 303f
00000090: f077 8d3e 7691 0d3f 6b96 883f 4907 813e
000000a0: 9ea7 403f 2f1b 7b3f 0c2b 363f 1eaa 733f
000000b0: a15a 773f d688 913f f38e 373f f890 1e3f
000000c0: 80db 5b3f 6e89 6c3f fca8 5c3f 6b43 d73e
000000d0: e06d 643f e244 913f a1ba 5c3f 2a72 143f
000000e0: cc10 863f 5d66 5a3f b457 763f 3084 273f
000000f0: 99b0 2d3f 452a 923f 071c 2c3f a2ff 783f
0.49945572 1.7142655 0.5268201 1.5147038 0.5532884 1.1266706 0.97174406 0.47774124
0.66329336 1.1429274 0.7555557 1.5213141 1.1706951 1.3161644 0.863343 1.8551329
0.57175034 1.179993 0.2739063 1.0989076 0.83521044 0.38954255 2.2329113 1.0495586
0.81841946 0.8125866 1.9324285 0.76155424 2.193022 0.9795007 1.214549 0.42977118
2.0258677 1.2991089 0.94645613 0.6895864 0.27630568 0.5530008 1.0670904 0.2520087
0.75255764 0.98088354 0.71159434 0.95181453 0.96622664 1.1369884 0.717025 0.61939955
0.85881805 0.923972 0.8619535 0.42043623 0.89230156 1.1349146 0.86222273 0.579867
1.0473876 0.85312444 0.96227574 0.6543608 0.6784759 1.141915 0.67230266 0.97265065

fc1.weight f4 [64, 64]
00000000: be4a 053e 5fd9 55be 3c07 32be ba07 a6bd
00000010: 5c76 023e b4d6 cebe 473d 0a3e 038b 67be
00000020: 7f63 5cbe 355e 5bbe 5c9b 06bd ec21 1fbe
00000030: 353a 4f3e ddc2 473e 5bca 9a3e e7d7 a33e
00000040: 59d3 e3bc 048d 773e 66ed 123d 5937 913d
00000050: 8777 5f3c 4b4f 3bbe 72be aa3c c117 60bd
00000060: 9a10 ecbd 3e29 943e ed7c 74bd 4b82 153e
00000070: 7148 7a3e 5add 603d c09d 83be a870 9b3d
00000080: aa07 94bd 1fe3 74bb d7ed 683e 7118 bc3d
00000090: 28a9 55be 0d9f 96bd eae4 86bd 75e8 58bd
000000a0: 81af d1bd 2738 c03d 8e03 5fbc e356 9f3d
000000b0: d871 6abd 4d34 d0be e62d 8c3d 6575 d33c
000000c0: 83df 74be 79ce c03b 60d7 01be b631 693d
000000d0: cf62 99ba 2f65 abbd 71df f1bd d5de 34bd
000000e0: 8a50 e63d d695 b6bd 3c9c 9b3d 49bf 90be
000000f0: 294d c3bc 5cb9 253d f23b 0bbf c56a 8ebd
00000100: 7d74 a8be c9fe 053d 72c1 4fbd 4182 3c3d
00000110: 044d ba3d 4357 a03d 8c4d c7be ce7c db3d
00000120: 45ad 89bd 557f 34be 4643 1e3e 371a 45be
00000130: c1e9 bb3d f726 9ebd 022e 44be ba2f d7bd
00000140: 6a3d 43be 5d18 5ebd 980e 9e3d 880c ec3c
00000150: 2393 17be 4c20 9cbd 5d23 dabc 97c6 a6be
00000160: 74c1 9e3c 41ab 883e f456 a1bd 446c 9d3e
00000170: a92a a63e 04de 143e 4089 b5be b7cc 5b3e
00000180: bf7f bbbe af0b fa3c 2bb7 473e 4e02 11be
00000190: 1a17 c3bd 0c3b 25be 18cd 793d 75da 983e
000001a0: 4749 523c 4207 debd e904 ce3d 3042 eabd
000001b0: 26c6 343e 9bef 85bd 6e52 4dbe a4db 6a3d
000001c0: e4c1 25be c156 19bd a7d2 723e 2089 283e
000001d0: 9bcd 1d3b 6720 5bbe d1c2 eb3d 8aff 90be
000001e0: 75c3 e2bc 7780 6d3e a2a9 80be ab01 1d3d
000001f0: 29c4 a43d 2bdc eebc 9373 4abd bdd6 0dbe
00000200: e7da 2c3e c003 913d 296b 80be fc63 7a3e
00000210: d6b8 59bd 8865 2bbd af7f 8abc 52cd e5bd
00000220: a83a 4f3e 0ab5 2abe c657 f7ba 4997 3cbd
00000230: 5b16 a03e ea5d debc e6b8 8f3d e80d 993d
00000240: 03f0 203d 3d83 b93d b473 f1bd 2b09 843d
00000250: 502a a63e 1e12 9fbd dad3 f5be 038b ecbd
00000260: 2e6f d5be 8ebe c03d 3f3c 94be cd24 343d
00000270: 19d8 9d3d e062 9fbe 0004 eebb 9d6b 02be
00000280: ec56 2b3e 2d4d 88be 420a 3abe b62b 3f3e
00000290: 1aa9 9dbd f39f aebe 0017 bf3d 76e3 343e
000002a0: 364d 10be ef0d af3d 11c3 73be 871c 533e
000002b0: 705b 10bd a5fd 06be e89d ab3d 9fcb 8fbd
000002c0: 17e8 c23d 5b51 99bd 14d6 3cbd ccf5 d23d
000002d0: 61ac ec3d 77d8 463d 979e 6fbe 5a2d d33d
000002e0: e9a6 6bbd ccf3 18be 46c0 77bd f7ef 76be
000002f0: 0050 c43d 1c90 773d bddd 453e 9c94 fa3d
00000300: d95f a2bd 74c4 e7be 25d4 873c 0d96 06bf
00000310: 3236 423d 6797 cebd 8d9d 8dbd e5ee 583e
00000320: a62c 5bbe 4651 5f3e e364 40be e151 9fbe
00000330: 8e09 7c3e d4fd 103e a1bb b5bd 0f60 a03d
00000340: b889 8a3d b955 9bbc bd8e 6d3d ea7c 3d3e
00000350: 5af9 43bd 0c04 14be 8f45 b8bd 88cd 403d
00000360: 7154 c6bd 64a5 c0bd a438 d13d 5852 03bd
00000370: 153a 843d 36b6 633d b689 163e 274a 8fbd
00000380: ab84 aa3e 4289 2b3e e5f9 b13d e568 883d
00000390: 6e69 16bc 10b6 86bd 77fb 843e f204 f0bd
000003a0: 219b 343d efd7 cbba 11a7 0c3d 9d19 1ebf
000003b0: 79fc d2be 01bc d6bd e7b3 36bd 67ce 4abe
000003c0: 5b72 d13d 191e 4b3e 070c 523e 2515 adbd
000003d0: 2e9b c23c ffb5 fdbc bf18 23be 9c78 ce3d
000003e0: 0bf9 163d eb46 133e d971 a6be 58ec 8e3d
000003f0: d435 41bd 06f0 e4bd 33f0 f73d cdbf 0abe
0.13016793 -0.20883702 -0.17385572 -0.081069425 0.12740463 -0.4039818 0.13499938 -0.22611623
-0.2152233 -0.21422656 -0.032863006 -0.15540284 0.20237048 0.19507928 0.3023251 0.32000658
-0.02781074 0.24174887 0.035870932 0.07090635 0.013639337 -0.18291967 0.020842765 -0.054710153
-0.11526604 0.28937715 -0.05968945 0.14600484 0.24441697 0.054898597 -0.2570629 0.07589847
-0.07228024 -0.003736682 0.22746979 0.09184349 -0.20865309 -0.07354555 -0.06586631 -0.052956063
-0.10238553 0.0938571 -0.013611687 0.07780244 -0.057237476 -0.40664902 0.06844692 0.025812814
-0.23913388 0.0058839885 -0.12679815 0.056932174 -0.0011702421 -0.083689086 -0.11810196 -0.04415782
0.1124583 -0.08915298 0.07598159 -0.2827094 -0.023840504 0.040459976 -0.54388344 -0.069539584
-0.32901374 0.032713685 -0.050721593 0.046022657 0.09096721 0.07829144 -0.3892635 0.10717164
-0.06722502 -0.17626698 0.1545535 -0.19248281 0.091754444 -0.07722276 -0.19158176 -0.1050715
-0.19066396 -0.054222453 0.07717627 0.02881457 -0.14802222 -0.07623348 -0.02662819 -0.32573387
0.019379355 0.26693156 -0.07877913 0.30746663 0.32454422 0.14537817 -0.35456276 0.21464811
-0.366209 0.03052315 0.19503467 -0.14161035 -0.09525891 -0.16135806 0.06098661 0.2985417
0.0128348535 -0.10841228 0.1005953 -0.114384055 0.17653713 -0.06539842 -0.20050976 0.057338372
-0.16187245 -0.03743625 0.2371317 0.16458559 0.002407885 -0.2139908 0.11511768 -0.2831996
-0.027681092 0.23193537 -0.2512942 0.03833167 0.08045227 -0.029157719 -0.049426626 -0.13851447
0.1688038 0.070807934 -0.25081757 0.24452204 -0.05315479 -0.041844875 -0.016906587 -0.11220802
0.2023722 -0.16670623 -0.0018870763 -0.046042714 0.31267056 -0.027144391 0.070176885 0.074733555
0.039291393 0.09058235 -0.11789647 0.06447061 0.32454157 -0.077671275 -0.48013192 -0.11549952
-0.41686386 0.094113454 -0.28952214 0.04398041 0.07707233 -0.31130123 -0.0072636604 -0.12736364
0.16732377 -0.2662138 -0.18167976 0.18669018 -0.07698269 -0.34106407 0.09330559 0.17664894
-0.14091954 0.085475795 -0.2380488 0.20616351 -0.03524345 -0.13182695 0.083797276 -0.070212595
0.09516924 -0.074862204 -0.0461026 0.10300788 0.11556316 0.04854628 -0.23400341 0.103113845
-0.057532225 -0.14936751 -0.0604861 -0.24114977 0.09585571 0.060440168 0.19322868 0.12235376
-0.07928438 -0.4526707 0.01658065 -0.5257271 0.047414966 -0.100874715 -0.06914816 0.21184881
-0.21403751 0.21808347 -0.18788485 -0.31117156 0.2461302 0.14159328 -0.08873678 0.07830822
0.06764549 -0.018961774 0.057997454 0.18504682 -0.047845222 -0.14454669 -0.08997642 0.04707101
-0.09684075 -0.09406546 0.102158815 -0.03206095 0.06456391 0.05559369 0.1470097 -0.06996565
0.33304343 0.16751578 0.08690242 0.06660632 -0.00918041 -0.065776944 0.25973102 -0.11719693
0.044093255 -0.0015552024 0.034339014 -0.6175783 -0.41208246 -0.10485078 -0.044605162 -0.19805299
0.1022689 0.198357 0.205124 -0.084512986 0.023755636 -0.030970572 -0.15927409 0.10081598
0.0368586 0.14382522 -0.32508734 0.06978673 -0.047170475 -0.11178593 0.12106361 -0.13549729

fc1.bias f4 [64]
00000000: 6046 56be 9a63 79be 0b31 54be 2476 16be
00000010: 7593 d5be 9fe6 8ebc bc90 573e 70c7 36be
00000020: d766 73ba 368d af3d cb64 a5bd 4967 16bf
00000030: ba72 06bf 58a0 e1be b510 f0bb 3eb0 2dbe
00000040: e99b ddbe c648 e7bb cc0a 573d a7b7 29be
00000050: fa6c 70bc d3a5 b8be 65b7 ddbe bcbd 4fbe
00000060: 6b47 b5be 6421 19be a627 f13d dd01 8b3e
00000070: 5976 103d fd76 96bd 814c 54be 7a1e 4c3c
00000080: 5f6b 48be c148 a8be 8cb1 b9bd b794 3bbe
00000090: b30c 59bd dd99 12be 81c6 2bbe 4fca e8bd
000000a0: b85a f0bc 9c67 ecbd 437a 2cbe 0463 aabe
000000b0: 41c0 4ebd 66ae 10be dc57 24bc 0439 1e3e
000000c0: 2836 4f3e f728 cdbd c091 8e3e 73fc 27be
000000d0: 4639 0d3b ddaa 24be 0f5c c7bc a8cc fcbd
000000e0: b4cc fe3d 19f0 c8be 6a8c b4bd 854d 6fbe
000000f0: 70af 743d 4a64 16be a97d a0be c54b 7dbe
-0.20925283 -0.24354401 -0.20721833 -0.14693505 -0.41714063 -0.017443953 0.21051306 -0.17849517
-0.00092850387 0.08571856 -0.08075865 -0.5875135 -0.5251881 -0.44067645 -0.0073262104 -0.16961762
-0.43283013 -0.007058236 0.05250053 -0.16573964 -0.01467442 -0.36064014 -0.4330398 -0.20287222
-0.3540605 -0.14954144 0.117751405 0.2714986 0.035269115 -0.07346914 -0.20732309 0.012458438
-0.19572209 -0.32868007 -0.090670675 -0.18318449 -0.052990627 -0.14316507 -0.16774942 -0.11366712
-0.029340133 -0.115431994 -0.16843514 -0.33278668 -0.050476316 -0.14129028 -0.010030713 0.15451437
0.20235503 -0.10017579 0.27845573 -0.16404895 0.002154903 -0.16080804 -0.02433589 -0.123437226
0.12441388 -0.3924568 -0.08815844 -0.23369415 0.059737623 -0.14686695 -0.3134587 -0.24735935

bn3.weight f4 [64]
00000000: a8c3 d33f 60b9 e33f 635a cd3f 410b c53f
00000010: d5b6 af3f 2dd7 cc3f 27c5 d43f d710 d43f
00000020: 4a20 de3f 3e75 d53f 3fb0 c03f c345 b33f
00000030: bd49 ca3f 4d19 a63f e73b b83f c22b ca3f
00000040: 0156 d33f 1f07 c93f b6d8 cc3f c7c8 d03f
00000050: 68e7 c53f 4872 d13f 337f c63f 0115 b63f
00000060: 98d5 bf3f a232 a83f 288a ae3f 8fcf bc3f
00000070: 4398 bb3f 1472 ca3f 5722 b93f 7263 de3f
00000080: c2d2 b23f f92d ca3f 8d54 c73f c02c ac3f
00000090: 6bbd d33f 79f6 b73f f7e6 e43f a16d c73f
000000a0: 3d38 de3f ea4b c73f 5a24 c53f 9369 db3f
000000b0: 899b c93f 63fc e73f f5c9 c23f 6e60 cd3f
000000c0: 39ba c63f 13ae cb3f 5794 c83f 8a37 d13f
000000d0: 76e9 c53f f185 c73f 9b29 bf3f 9145 b83f
000000e0: e26d ba3f bd22 bf3f 4cae c83f 178e c83f
000000f0: 37a7 c73f ce35 cb3f 24f2 d53f 4ac2 ca3f
1.6544085 1.7790947 1.6043209 1.539406 1.3727671 1.6003166 1.6622666 1.6567639
1.7353604 1.6676404 1.5053786 1.4005665 1.5803753 1.2976471 1.4393281 1.5794604
1.6510621 1.5705298 1.6003635 1.6311272 1.5461245 1.6363001 1.5507568 1.422516
1.4987059 1.3140452 1.3635912 1.4750842 1.4655842 1.5816064 1.4463605 1.7374098
1.3970568 1.579528 1.5572678 1.3451157 1.6542181 1.4372092 1.7882985 1.5580331
1.7360913 1.5570042 1.5401719 1.7141594 1.575059 1.8123897 1.5217882 1.6045053
1.5525581 1.5912498 1.567027 1.6345074 1.5461872 1.5587751 1.4934572 1.439623
1.4564784 1.4932476 1.5678191 1.5668362 1.5597905 1.5875795 1.671452 1.5840542

bn3.bias f4 [64]
00000000: b4b2 f5be c9d8 12be f717 82be 559f 86be
00000010: 642a d93d 5cb3 62be d667 d93d ac14 0fbe
00000020: 0b1a 223e 6b97 1cbe 1a66 7fbe 7af0 323c
00000030: 875d 1b3e 7c3a d13d 2988 81be cc17 243e
00000040: 571c a7bd fdcd 493c 0a66 51bc bbee d4bc
00000050: ab09 9ebe c825 093c 4b71 c0bc 78e3 0ebe
00000060: cf7e 7ebd 966b 38be 07ed 1fbe fa21 7d3e
00000070: c8b7 30be 04c2 d73d b533 d5be 7b0c 53be
00000080: 2122 c0be 9945 1e3e 8a9a 6d3e 4f42 5abe
00000090: 2df1 05bd 4007 bbbe bd2f 743d 0edf 2abf
000000a0: 2819 c23e b74d 6d3e 745c 2a3d a149 a03d
000000b0: 3d11 1bbd 23ee 8a3d 8063 76bc a652 ddbd
000000c0: 495a 9ebe ece4 89bc 1477 a5bb 3c47 9a3e
000000d0: 472a 4b3e 88b7 c4bd ff2d 39bc af28 8ebe
000000e0: 0623 343d 1ab9 9e3e 9632 bfbd 8cfa 48bc
000000f0: c441 97bd bf21 3bbb 1fca 413e 0a47 38bc
-0.47987902 -0.1434051 -0.2540891 -0.26293436 0.106037885 -0.22138733 0.10615508 -0.1397273
0.15830247 -0.15292136 -0.24941292 0.010921592 0.15172397 0.10216233 -0.25299194 0.16024703
-0.08159702 0.012317178 -0.012780676 -0.025992742 -0.3086675 0.008370824 -0.023491522 -0.1395396
-0.062132653 -0.18009791 -0.15617763 0.24719992 -0.17257607 0.105350524 -0.41641012 -0.2061023
-0.37526038 0.15456237 0.23203483 -0.21314357 -0.032700706 -0.3652897 0.05961584 -0.66746604
0.37909818 0.23174177 0.041592076 0.078265436 -0.037858237 0.06783702 -0.015038371 -0.108067796
-0.30928257 -0.016832791 -0.0050495956 0.30132473 0.19840346 -0.09605318 -0.01130247 -0.27765414
0.043978713 0.31000596 -0.093358204 -0.012266766 -0.07385591 -0.002855405 0.1892476 -0.011247406

bn3.running_mean f4 [64]
00000000: 9fe7 f93f b63a 3d40 57f0 d33f 74ff 6540
00000010: 677b 5b40 d402 a13f 4ef6 4140 083a 0840
00000020: 9269 3840 9f04 e23f eca1 9740 c47b 3d40
00000030: 4e9b 573f 1d6b c33f 94c4 e43f 579f 983f
00000040: cfa0 943f 55c5 0040 709a f43f c25a b43f
00000050: 7d6c 5440 996d 3540 11e2 3b40 fe6d 8a3f
00000060: cf65 1340 f24a 3f40 97ec 3e40 a518 4240
00000070: 5c92 0940 d537 1f40 6027 3740 7c5e 0040
00000080: 897d bb3f ff42 4540 8bdf 733f 2f9b af3f
00000090: 2040 2740 06a9 3140 e4fb 883f 7304 573f
000000a0: fb3d 3240 6995 d53f 3311 3140 c29d 9640
000000b0: 57d0 5040 5fab ee3f 7ddf fd3f be60 d73f
000000c0: e297 1340 c3ee 2440 caa9 2740 338c 3240
000000d0: 1d83 b33f 3d1e 1e40 cc62 1040 8303 2c40
000000e0: faf0 1a40 7a7e 4340 9b64 db3f 9bde 4b40
000000f0: 4e98 4340 9cde 7640 18ac ac40 4a8b ec3f
1.952381 2.9567084 1.6557721 3.5937166 3.429407 1.2578988 3.0306582 2.128542
2.8814435 1.765766 4.738516 2.960679 0.8422135 1.5267063 1.7872491 1.1923627
1.1611575 2.0120442 1.910963 1.4090197 3.3191216 2.8348143 2.935673 1.0814817
2.303089 2.9889493 2.9831903 3.0327542 2.149558 2.4877827 2.8617783 2.0057669
1.4647685 3.082214 0.95262975 1.3719233 2.6132889 2.7759414 1.0701871 0.83991164
2.785033 1.6686221 2.7666748 4.7067575 3.262716 1.8646048 1.9833828 1.6826398
2.3061452 2.5770729 2.619738 2.789807 1.4024388 2.4705956 2.25603 2.6877143
2.420958 3.0545945 1.7140077 3.1854618 3.056171 3.857337 5.3960075 1.8480008

bn3.running_var f4 [64]
00000000: ae55 7541 16c6 d141 0fd7 6b41 eb98 0042
00000010: 213a 3142 e3de 1241 684a e541 e373 9b41
00000020: c265 bd41 1d5b 6f41 acf2 6a42 f58b fd41
00000030: 9707 cd40 0804 4941 f5d8 8741 36a0 4741
00000040: 0745 3541 e692 8641 c1b0 6641 879f 7e41
00000050: c76a 1742 697b d141 499c ed41 be14 f440
00000060: 37ea 9a41 211c e741 a9ba c941 4c9a cd41
00000070: 296d b041 a843 bb41 811e b441 b3fe 9041
00000080: f645 2941 9b76 0542 b4c8 ea40 cd81 4841
00000090: 449a cc41 b9e9 c241 f1d6 0d41 b01d b940
000000a0: 29d5 ac41 5b9a 9841 7aa2 0742 c93b 0f42
000000b0: fa23 3f42 025a 7741 9373 b441 09b6 4741
000000c0: 87e9 a541 c16b 0042 3f16 b841 914e ba41
000000d0: 8202 4741 72c2 c441 88cc ae41 c4c0 dc41
000000e0: 7972 9741 94ea d841 e214 7041 4bc3 f241
000000f0: fc07 df41 d395 1642 358f 8542 87ab 7a41
15.333418 26.221722 14.740005 32.149334 44.306767 9.179416 28.661331 19.431585
23.674686 14.959744 58.736984 31.693338 6.4071765 12.563484 16.980936 12.476614
11.329352 16.821728 14.418153 15.913947 37.854275 26.185259 29.701311 7.627532
19.364363 28.888735 25.216143 25.70034 22.0533 23.408035 22.514894 18.124365
10.57958 33.365826 7.337 12.53169 25.575325 24.364122 8.864976 5.784874
21.604082 19.075369 33.90867 35.808384 47.785133 15.459475 22.556433 12.481942
20.739027 32.10523 23.010862 23.288363 12.438112 24.594944 21.849869 27.594124
18.930895 27.11454 15.005098 30.345358 27.878899 37.646313 66.7797 15.666877

fc2.weight f4 [8, 64]
00000000: 7711 a5bd a98f 0c3f cf96 25be 5c68 8a3e
00000010: 8c4d 43be 8e22 a33e 1c69 1fbd ea36 353f
00000020: 1b2b b43e 38bc abbe edcf fcbe 97fe 5c3e
00000030: 5b84 973d 8a50 c73e bff3 153e 4ac2 2fbf
00000040: 6889 28bf 2793 7d3e bd1d a03e de93 a1be
00000050: 997a c7be 1805 8d3d 1ee1 9c3e 86ab 323d
00000060: bb32 8f3e e93a e1bd 3454 363d 63cc 1a3e
00000070: e9be 183e 747e c83d 9308 9fbe 48cc afbd
00000080: ae81 d3bd f60e 693d c008 d93c 28ed 91be
00000090: e71c 3cbe 5bbe 2bbe a498 94be 9dd6 c6be
000000a0: 05d1 df3e e41c 593e 1055 643e ea98 ab3d
000000b0: 014c d0be c628 22bf 34c1 18bd 3d9d 66bf
000000c0: c19b 3dbe 86e1 08bf 460b 013f 776a 543e
000000d0: 61f3 7d3e 9236 f03e 75a4 0b3e e959 dabe
000000e0: c49f 8ebe 545a 843e a029 ddbe a82a 913e
000000f0: 305a 94be ec8f 13be a4a0 893d 9c60 b7bc
00000100: a47d 51be c0ad c0ba 28d5 223e 9c66 c13e
00000110: 0e3e 9b3e f0b6 f3be 0568 0dbf 8de0 d6be
00000120: 7881 aebe 3061 d3bd 6819 2dbd a5d9 dbbd
00000130: e3bc 623e 6932 cfbd 6cfc c1be a548 c53e
00000140: 6f89 ba3d f76e e93c 6fe4 873e 8634 30bf
00000150: 13c8 443e bbe4 0e3f fe5d 60be f27c cdbd
00000160: 42c1 8f3e 96ff 04bf 21d1 a0be b84d 633e
00000170: ffde 1dbd 55a0 11bd b1eb 853c be44 0ebd
00000180: d20b a4bd 7f48 19be 529b 133e 7e93 1ebe
00000190: 6579 6ebd 4122 80be c4c3 f03e 2622 29be
000001a0: 55bb afbe d0d1 0abf b549 09bf 1a50 113d
000001b0: 4db9 33be a561 a33e 3ebb a03e 4c59 d13d
000001c0: e12b f1be 4d43 85bd baa1 fbbe 0cde 993d
000001d0: a181 99be 5917 b5be 4a28 06be 686e 0b3f
000001e0: 4855 723e 1270 0a3f 66b7 b03e 3fc6 a43d
000001f0: 532d 5a3e b035 adbd 50d9 123f 9c67 c23e
00000200: 3a6a 353d 91ac 9a3e 1ec3 233e e3be 513d
00000210: be6a 2d3e 3ee6 38be 4079 1dbf 8ce8 84be
00000220: 6dad e53d 344e 263e 40b2 93be 7ece 0cbe
00000230: 2997 89be 0d01 a23e 27bd 08bf ae35 a7be
00000240: cf7c d73e 0a1f ccbe abef 563d 5142 043e
00000250: 6948 abbd 4ce4 06bf 5835 9d3e bc38 5cbe
00000260: 80a1 f8bd 639c a93c 82c8 bbbd d70e f43d
00000270: fe15 81be 6241 cbbe 86b9 adbe f9d1 2abe
00000280: 9e58 21be 079f 9e3d c82d b93c 9fa9 90be
00000290: 86bf 5d3e 5271 ca3e 89b7 07be 8961 92be
000002a0: 80ff 8d3e f4a0 723e 6930 f53e 3b24 9dbe
000002b0: 3fd4 cabe a009 993d ec02 cbbe 2353 eabd
000002c0: 6957 65be 0bb0 42bf 0b08 d0be 2575 593e
000002d0: 6341 0cbe c098 c73e 3bb9 b03d c3a4 3ebe
000002e0: a90b 1b3f f1db e73e 34a5 ba3d 8f57 243f
000002f0: f5f9 e33e 179d 033f c339 ec3e 68fc 9c3e
00000300: 8449 23bf 760a d43e e894 763e c20e 123e
00000310: 6959 573e 7273 ffbe 996c c73e 1240 b93e
00000320: c984 d13e de11 e6bc 337d 5e3a 3a2e f33e
00000330: cce2 74be 0545 e5bd 705b ebbe 06c0 6e3e
00000340: 1943 083e 9f98 fabe 6e0e dcbe 2944 f63d
00000350: b758 9dbe a423 353e f7f1 d2be e5f2 69be
00000360: 51ff 0b3e 6846 c1bd 8df2 7cbd a0bf 3bbf
00000370: 3daa 2fbf 9d55 173e 8196 073f f876 2ebf
00000380: 7952 1dbd bed3 1abf 0f6c e93e 5919 603e
00000390: da47 013f a83b 2fbd 86c6 043f 2d4a 643e
000003a0: 505e f73e f2e7 403e b315 543d b597 a93e
000003b0: ac24 0c3f 2a8b 473e 0cb4 f8be 8850 bebc
000003c0: a633 a43e c3a2 623e 4c0c fabd dfdb e63e
000003d0: dbfb 8f3c 6384 60bd 2765 4abc 89f0 8abe
000003e0: a2c7 96be c220 02bd 9ddc b2be 4789 07bf
000003f0: a34c 08bf 9200 f43e cb89 1cbf 5d2f 0bbf
-0.08059972 0.5490671 -0.1617081 0.27032745 -0.1907255 0.318623 -0.0389186 0.7078692
0.35189137 -0.33542037 -0.49377385 0.21581493 0.07398292 0.38928634 0.14643763 -0.68655837
-0.65834665 0.24763165 0.31272689 -0.31558126 -0.38960722 0.06885737 0.306405 0.04362061
0.27968392 -0.10997564 0.044513896 0.1511703 0.14916576 0.09789744 -0.3106123 -0.085838854
-0.10327469 0.056899033 0.02649343 -0.28501248 -0.183704 -0.16771834 -0.29022706 -0.38835612
0.43714157 0.21202427 0.22298074 0.083787754 -0.40682986 -0.63343465 -0.037293628 -0.90083677
-0.18516447 -0.5346912 0.50407827 0.20743738 0.24799873 0.46916634 0.13636954 -0.4264672
-0.27856266 0.25850165 -0.4319582 0.28352857 -0.28975058 -0.1441037 0.06720093 -0.022384934
-0.20458084 -0.0014700219 0.15901625 0.37773597 0.3032078 -0.47600508 -0.55236846 -0.41968194
-0.34083152 -0.103212714 -0.042260557 -0.10734872 0.22142367 -0.10117037 -0.37887895 0.38531986
0.09108245 0.028495295 0.26541469 -0.68830144 0.19216947 0.55817765 -0.21910855 -0.10033597
0.28077132 -0.51952493 -0.31409553 0.22197616 -0.038542744 -0.035553295 0.016347738 -0.034733526
-0.08010067 -0.14969061 0.14414719 -0.15485951 -0.05822124 -0.25026134 0.47024357 -0.16516933
-0.3432261 -0.542264 -0.53628093 0.03547678 -0.17551155 0.31910434 0.31392854 0.1022211
-0.4710379 -0.06506977 -0.49146825 0.07513055 -0.29981712 -0.35369375 -0.13101307 0.5446534
0.23665345 0.54077256 0.34514922 0.08045625 0.21306352 -0.08457506 0.5736284 0.37969673
0.04429076 0.30209783 0.159924 0.051207434 0.1693525 -0.1805658 -0.6151314 -0.2595867
0.11214719 0.1624077 -0.2884693 -0.13750646 -0.2687314 0.31641427 -0.53413624 -0.32658142
0.4208741 -0.3986743 0.05247466 0.12915923 -0.083634205 -0.52692103 0.3070476 -0.21506017
-0.12140179 0.020704454 -0.09169103 0.11916893 -0.2521209 -0.3969832 -0.33930606 -0.1668166
-0.15756461 0.07745176 0.022604838 -0.2825441 0.21655092 0.39539582 -0.13253607 -0.28590038
0.27733994 0.23694211 0.47888497 -0.30691704 -0.39615056 0.07472539 -0.39650667 -0.11441638
-0.22396626 -0.7604987 -0.40631136 0.21236093 -0.13696818 0.38983727 0.0862908 -0.18617539
0.60564667 0.4528499 0.09113541 0.64196104 0.4452664 0.51411575 0.4613782 0.3066132
-0.6378405 0.4141423 0.2408024 0.14263442 0.21030201 -0.49892765 0.3895004 0.36181694
0.4092162 -0.028084692 0.0008487284 0.47496206 -0.23914641 -0.11194805 -0.459682 0.23315439
0.13306846 -0.48944566 -0.4297976 0.12024719 -0.30731747 0.17689377 -0.4120023 -0.22846563
0.13671614 -0.09437257 -0.061754752 -0.7333927 -0.6861914 0.14778753 0.52964026 -0.6815028
-0.03840873 -0.6047934 0.45590255 0.2188467 0.5050026 -0.042781502 0.5186542 0.22293921
0.48314142 0.1883848 0.051778506 0.33123556 0.54743457 0.1948668 -0.48574865 -0.02323176
0.32070655 0.22132401 -0.12209377 0.45089623 0.017576149 -0.054813754 -0.012353218 -0.2713664
-0.29449183 -0.03176952 -0.3493394 -0.52943844 -0.5324194 0.47656685 -0.61147755 -0.54369146

fc2.bias f4 [8]
00000000: 0184 843e 3a5f e03e 1dd0 2b3e 9039 0fbb
00000010: 56b7 45bc 6350 d53e 4fe3 393e 4679 2a3e
0.2588196 0.43822652 0.16778608 -0.0021854378 -0.0120676365 0.41662893 0.18153118 0.16647825

fc3.weight f4 [5, 8]
00000000: 5ac9 1abf 34d6 d6be 4ad1 9abf 0dd8 9bbe
00000010: b7d5 34bf 30f6 4b3f 8645 373f 3281 ee3e
00000020: e82d 903f 8bfa 81bf 5fb2 273f 9276 42bf
00000030: 2343 a5bd 2fa1 c73e 1834 ecbe 2564 81bf
00000040: d7eb 61bf d5bb 833f 0cca 203e cf1f eabe
00000050: 5956 3c3f fba8 773e 7b7e 6abf 8ae5 54bf
00000060: 74a5 f73d d5ff a03e 661e 163f b91f 7bbe
00000070: 5a8a 80bf e05b 82bf 6dc4 df3e 287d 503f
00000080: e35b c0bd 9ec1 37bf 3ff4 05bf f33a 8c3f
00000090: 2342 fe3d edc3 59bf 9d28 87bf eec0 463e
-0.6046349 -0.419603 -1.209512 -0.3043827 -0.706386 0.7967253 0.7159046 0.46582943
1.126401 -1.0154585 0.6550655 -0.75962174 -0.08069446 0.3899016 -0.46133494 -1.0108687
-0.8825049 1.0291697 0.15702075 -0.45727393 0.73569256 0.24185555 -0.91599244 -0.8316275
0.120921046 0.31445184 0.58640134 -0.2452382 -1.0042222 -1.0184288 0.43704548 0.81440973
-0.09392526 -0.7177981 -0.52325815 1.095549 0.12414958 -0.85064584 -1.0559269 0.19409534

fc3.bias f4 [5]
00000000: 25c6 cabe 57d4 80be f62c e3be cef6 ddbe
00000010: 3418 033f
-0.39604297 -0.25162002 -0.4437024 -0.4335236 0.51208806

square_avg f4 [64]
00000000: 1706 1639 afbf 6038 c78a 1639 6d76 d238
00000010: 5154 8a3a 5e74 1a39 ff05 4d38 7dd7 4b39
00000020: 96a9 5539 2298 8738 d9ae 043a 5846 b339
00000030: 9c76 6639 86c6 df37 ccd3 be38 19e5 273a
00000040: fefb bb39 c4c5 aa39 f3ac 1f39 ec17 6c39
00000050: 38e3 ec39 0ec5 ab38 2a0e 8839 00b3 173a
00000060: ffc2 3739 ce1a 9c38 20f3 e838 cab0 1c39
00000070: ff4c d938 8ad9 f939 aaa0 b138 8adc 1339
00000080: e553 9738 40e8 b039 c128 433a 462b 253a
00000090: ad4e 3339 0f17 e738 cf9f 0a3a cab0 5639
000000a0: 934b fa39 4e8f e739 5834 5139 4da3 8c38
000000b0: e642 973a 1a46 443a 944f 0e38 3b11 8f39
000000c0: f430 5838 31b3 8f39 e20a 6939 3350 5539
000000d0: 8388 1038 954e 4d39 b066 ce39 0462 bc39
000000e0: cf7e 2c3a 4bd7 b939 e713 193a bc8d 9839
000000f0: 6ab1 943a b562 2e3a 30ae c937 f53f 173a
0.00014307383 5.358428e-05 0.00014356813 0.00010035639 0.0010553693 0.00014729935 4.8881393e-05 0.00019439864
0.00020376439 6.4656386e-05 0.0005061455 0.0003419395 0.00021978695 2.6676116e-05 9.099356e-05 0.00064046826
0.00035855168 0.00032572274 0.0001522785 0.00022515625 0.0004518272 8.19062e-05 0.00025950494 0.0005786866
0.00017524882 7.4436524e-05 0.000111079076 0.00014943178 0.00010361708 0.0004765506 8.469944e-05 0.0001410117
7.215868e-05 0.00033742376 0.00074447325 0.0006300699 0.0001710008 0.00011019233 0.00052880956 0.0002047449
0.00047740023 0.00044166524 0.00019951293 6.706137e-05 0.0011540323 0.00074872526 3.392955e-05 0.00027287923
5.1544004e-05 0.00027408593 0.00022224666 0.0002034314 3.4459412e-05 0.00019579598 0.0003936789 0.00035931182
0.0006580175 0.00035446355 0.00058394525 0.000290973 0.0011344377 0.0006652282 2.404218e-05 0.0005769723
