tuning_results/internship_best_models_during_tuning_lightning_logs/eo_stand_GCN_best_model_logs/checkpoints/epoch=2655-train_loss=1.20-train_f1=0.41-val_loss=1.80-val_f1=0.35.ckpt (torch, 105170 bytes, 38 tensors)

conv1.bias f4 [64]
0.010024629 0.038235284 0.029530402 0.10122443 0.005307585 0.015482246 0.062435996 0.018669136
-0.007241088 0.076126374 0.01839627 -0.022165228 0.053663053 -0.023994552 0.09525528 -0.012046235
0.04366556 -0.0076592932 0.15063316 0.03474066 0.050970484 0.05596629 0.0065003745 0.03521407
-0.027017161 -0.055788077 -0.013663363 0.03676698 -0.059730776 0.08294226 -0.017301055 0.06621975
-0.08863001 0.100332215 -0.009216763 0.03535304 -0.066456206 0.07322312 -0.040508244 -0.028734423
-0.016464664 -0.048356973 -0.070320725 0.07454333 0.016470259 0.050770134 0.05145931 -0.016711462
-0.018286388 -0.06748125 0.026104016 -0.054108016 0.020120565 -0.13147528 0.021547552 0.090818316
-0.026799113 0.09195182 -0.11486566 0.06591882 -0.030568903 0.0863743 0.13319814 -0.053527355
00000000: 573e 243c 9a9c 1c3d bee9 f13c c14e cf3d
00000010: 40eb ad3b 3fa9 7d3c e3bc 7f3d 04f0 983c
00000020: a646 edbb 25e8 9b3d c6b3 963c da93 b5bc
00000030: cacd 5b3d 3990 c4bc 3315 c33d 925d 45bc
00000040: a9da 323d cffa fabb 943f 1a3e 394c 0e3d
00000050: 6dc6 503d e93c 653d 1801 d53b a13c 103d
00000060: 1853 ddbc 0a82 64bd 4cdc 5fbc f998 163d
00000070: 42a8 74bd a2dd a93d f1ba 8dbc 389e 873d
00000080: a783 b5bd fa7a cd3d e801 17bc 59ce 103d
00000090: 311a 88bd 01f6 953d f9eb 25bd 7464 ebbc
000000a0: e7e0 86bc f611 46bd 5004 90bd 2caa 983d
000000b0: a3ec 863c 58f4 4f3d ffc6 523d 7ae6 88bc
000000c0: 56cd 95bc 9c33 8abd 17d8 d53c 5ea0 5dbd
000000d0: e2d3 a43c 75a1 06be 7e84 b03c f4fe b93d
000000e0: d089 dbbc 3c51 bc3d b03e ebbd 7200 873d
000000f0: a36b fabc 02e5 b03d 1865 083e 803f 5bbd

conv1.lin.weight f4 [64, 25]
-0.090911314 0.061242778 0.23520406 -0.08669418 0.18780315 -0.06388384 -0.13334908 -0.15246099
-0.010421498 -0.1781091 -0.124542266 0.10406816 -0.09830788 0.1268829 -0.17587385 0.14499664
-0.007876906 0.025002936 0.12657818 0.22538845 -0.12058937 0.29180676 0.19561218 -0.12655613
-0.16021281 0.22062239 0.25075355 0.0133795915 0.1312498 -0.02099825 0.11093699 0.21502407
-0.053581756 -0.20643951 -0.014237693 -0.24093427 0.1631401 -0.1641223 -0.25068364 0.13673978
-0.08010201 0.12348963 -0.08591395 -0.2372553 0.15538016 0.13301691 0.12419689 0.24157707
-0.055780075 0.24115646 -0.23105867 0.07459204 0.14395341 0.16954863 0.06396356 -0.291373
-0.12979886 0.028856391 0.1131543 -0.1262372 -0.21066174 0.09909035 0.054296967 0.086513944
-0.19928786 0.21094248 0.16962406 0.04965728 -0.07653843 0.05314411 -0.14535257 0.09887438
-0.22775422 0.018261611 0.060550652 -0.28993455 -0.09641388 -0.018907579 -0.14433417 -0.11788725
-0.12621939 -0.1366352 0.24869788 0.20421986 -0.1424915 -0.23819102 0.16879265 0.12689644
-0.032484543 0.17712781 0.07930714 0.1311422 0.0024735106 -0.12006238 0.2502584 0.07420711
-0.1225759 0.098092124 0.099162124 0.006286633 0.11175747 -0.17608601 0.16436027 0.21064901
0.21877214 0.3400062 -0.049063858 0.022409508 0.2056281 0.051525466 0.011181072 -0.26167065
0.14485504 0.10872483 -0.02395838 -0.17002842 -0.16089872 -0.19505082 -0.13744026 0.16631113
-0.30670235 -0.17956097 0.029503092 0.11333517 0.09964408 -0.059024632 -0.072335266 0.052877348
-0.13944793 0.25701615 0.20386402 -0.20848286 0.13084686 0.13880587 -0.102076724 0.05161706
0.12442368 0.21340935 0.2031462 -0.09778158 -0.22692873 0.04535979 -0.23888738 -0.21569765
-0.0028400125 0.018745197 -0.08474193 0.17169288 -0.18207133 0.10166671 0.26117924 -0.18312913
0.25689575 0.00860986 -0.13022044 0.20709173 0.25662625 0.290614 -0.08829467 -0.21469504
0.09912739 -0.1637204 -0.025083123 0.059434496 -0.23328398 0.07692651 0.14583524 -0.039138965
0.05642669 -0.115332715 0.046361562 -0.06253903 0.15794112 0.011749198 0.022107808 -0.060788807
-0.08775684 -0.18429323 0.14066303 -0.08229016 0.08946585 -0.14246663 -0.15926325 -0.20133528
0.1635536 0.21810496 0.24925716 -0.14193237 0.09632359 0.0803545 -0.31830087 0.28047675
0.022538772 0.15953481 0.18114328 0.013368203 0.02343603 0.081964135 0.25400263 -0.20280711
-0.16503145 -0.02519886 -0.022870608 0.059782702 0.029729476 -0.08245447 0.08466595 0.2847955
-0.15408383 0.019496467 0.11328788 0.24329823 -0.045333266 0.113388255 0.14161053 0.005259528
-0.24716246 -0.052690927 -0.12440653 0.16650747 0.06623709 0.2539948 0.17316867 0.025552027
0.07399809 -0.1887726 0.22387275 0.0106485905 0.028860528 0.13982205 -0.25005287 -0.25307074
-0.11607448 0.11623565 -0.10035511 0.0839491 -0.1310868 0.18545493 0.19246474 0.07261094
0.19785 0.037468497 -0.1312433 0.026618633 -0.17100586 -0.14457537 0.24889316 0.12454887
-0.17916669 0.08593879 -0.18292147 0.19084203 0.21581466 -0.06697902 0.04823797 0.14239986
00000000: b62f babd b5d9 7a3d 55d9 703e b88c b1bd
00000010: 784f 403e 88d5 82bd a98c 08be bc1e 1cbe
00000020: eebe 2abc 3b62 36be 0410 ffbd b021 d53d
00000030: a455 c9bd 97ed 013e 4618 34be 007a 143e
00000040: 230e 01bc f5d2 cc3c b69d 013e 3bcc 663e
00000050: 8ff7 f6bd b267 953e 8f4e 483e ee97 01be
00000060: d40e 24be d6ea 613e c562 803e 1336 5b3c
00000070: 5966 063e 8604 acbc ef32 e33d 452f 5c3e
00000080: 8b78 5bbd e164 53be 3645 69bc 79b7 76be
00000090: 330e 273e ad0f 28be 9b59 80be 8305 0c3e
000000a0: 860c a4bd 22e8 fc3d a7f3 afbd 0ef3 72be
000000b0: fa1b 1f3e 9635 083e f05a fe3d fb5f 773e
000000c0: a679 64bd b8f1 763e a59a 6cbe b6c3 983d
000000d0: 8668 133e 289e 2d3e 54ff 823d d82e 95be
000000e0: fee9 04be 3d64 ec3c 71bd e73d 5344 01be
000000f0: b6b7 57be e2ef ca3d 7f66 5e3d 392e b13d
00000100: 1e12 4cbe 4e01 583e eeb1 2d3e 6f65 4b3d
00000110: 2ec0 9cbd a3ad 593d 4ed7 14be a77e ca3d
00000120: 6738 69be 6099 953c f603 783d 4d72 94be
00000130: a474 c5bd 11e4 9abc 56cc 13be df6e f1bd
00000140: a83f 01be 19ea 0bbe a8aa 7e3e 031f 513e
00000150: 4be9 11be 59e8 73be fbd7 2c3e 24f1 013e
00000160: 830e 05bd fe60 353e c86b a23d 244a 063e
00000170: 9f1a 223b 44e3 f5bd de21 803e e6f9 973d
00000180: 1309 fbbd 86e4 c83d 8315 cb3d 1a00 ce3b
00000190: 1ae1 e43d e44f 34be 0f4e 283e 60b4 573e
000001a0: ce05 603e 4b15 ae3e 2ff7 48bd 2594 b73c
000001b0: 2c90 523e 5e0c 533d d130 373c b2f9 85be
000001c0: e154 143e 20ab de3d 5d44 c4bc ee1b 2ebe
000001d0: a2c2 24be 67bb 47be 24bd 0cbe 774d 2a3e
000001e0: 1708 9dbe d5de 37be 78b0 f13c 451c e83d
000001f0: 3212 cc3d d0c3 71bd 8324 94bd eb95 583d
00000200: 70cb 0ebe 9f97 833e bbc1 503e 887c 55be
00000210: b8fc 053e 2023 0e3e 9a0d d1bd 696c 533d
00000220: d8d1 fe3d fb87 5a3e 8f05 503e b641 c8bd
00000230: 0160 68be 30cb 393d e59e 74be d8df 5cbe
00000240: 811f 3abb 878f 993c 2d8d adbd 42d0 2f3e
00000250: e870 3abe a336 d03d 49b9 853e 3486 3bbe
00000260: d787 833e 5f10 0d3c 8258 05be db0f 543e
00000270: 8464 833e 5ccb 943e d6d3 b4bd 04d9 5bbe
00000280: 4d03 cb3d 52a6 27be 1f7b cdbc 9671 733d
00000290: ffe1 6ebe a58b 9d3d d555 153e 2e50 20bd
000002a0: ac1f 673d 8f33 ecbd 9fe5 3d3d 7714 80bd
000002b0: 51bb 213e b57f 403c 6f1b b53c affd 78bd
000002c0: dcb9 b3bd 5db7 3cbe f809 103e be87 a8bd
000002d0: df39 b73d c6e2 11be e815 23be d62a 4ebe
000002e0: 987a 273e e856 5f3e 453d 7f3e b856 11be
000002f0: 4d45 c53d e690 a43d 55f8 a2be a69a 8f3e
00000300: 3ba3 b83c 185d 233e a07d 393e 4f06 5b3c
00000310: ebfc bf3c d0dc a73d a20c 823e abac 4fbe
00000320: 01fe 28be d76d cebc 245b bbbc b5de 743d
00000330: 3b8b f33c e4dd a8bd 5765 ad3d b7d0 913e
00000340: 27c8 1dbe 0eb7 9f3c 7a03 e83d 2c23 793e
00000350: 60af 39bd 1a38 e83d 5a02 113e 1e58 ac3b
00000360: 2818 7dbe 71d2 57bd dac8 febd ef80 2a3e
00000370: 50a7 873d 9b0b 823e 2153 313e 7c52 d13c
00000380: 508c 973d 9b4d 41be e63e 653e 6d77 2e3c
00000390: ea6c ec3c 832d 0f3e ee06 80be 7d92 81be
000003a0: 75b8 edbd f50c ee3d fb86 cdbd 81ed ab3d
000003b0: 9e3b 06be e6e7 3d3e 7a15 453e 0bb5 943d
000003c0: 3199 4a3e 9178 193d a564 06be 520f da3c
000003d0: 291c 2fbe 910b 14be d9dd 7e3e 7a13 ff3d
000003e0: 7977 37be ad00 b03d c44f 3bbe 186c 433e
000003f0: 85fe 5c3e 4c2c 89bd 2d95 453d 45d1 113e

bn1.weight f4 [64]
0.9714723 1.0019114 0.9471613 0.98344 0.9303635 0.9546538 0.9904191 1.035031
1.0109152 0.9919465 0.9631498 0.9998054 0.95325935 0.97663546 0.916918 0.97923815
1.0241058 1.001775 0.9487469 1.0463316 0.9638835 1.0589575 1.0134948 1.013756
0.8830987 0.8966446 1.0254004 1.0116048 0.99990493 1.0266694 0.9789805 1.0077385
0.99841964 0.98618907 0.94389236 1.0201305 0.98538107 0.95312995 1.0276395 1.0045266
0.99458605 1.0793957 1.064135 0.9307922 0.95788634 0.97011524 1.0226648 1.0237991
1.0215453 1.0133338 1.0109309 1.0003328 0.9782473 0.98434955 1.0073314 0.99172556
1.0141917 1.0514199 0.99538654 0.98626417 0.977518 1.0603517 1.0330131 1.1046987
00000000: 69b2 783f a23e 803f 2a79 723f b9c2 7b3f
00000010: 4d2c 6e3f 3164 743f 1b8c 7d3f e57b 843f
00000020: ab65 813f 35f0 7d3f fc90 763f 3ff3 7f3f
00000030: ce08 743f c804 7a3f 23bb 6a3f 5aaf 7a3f
00000040: e615 833f 2a3a 803f 14e1 723f 32ee 853f
00000050: 12c1 763f eb8b 873f 33ba 813f c2c2 813f
00000060: c212 623f 808a 653f 5240 833f 447c 813f
00000070: c5f9 7f3f e769 833f 779e 7a3f 93fd 803f
00000080: 6e98 7f3f e376 7c3f eea2 713f a393 823f
00000090: ef41 7c3f 5300 743f b189 833f 5494 803f
000000a0: 319d 7e3f a329 8a3f 9335 883f 6648 6e3f
000000b0: 0a38 753f 7959 783f aee6 823f d90b 833f
000000c0: ffc1 823f ecb4 813f 2f66 813f e80a 803f
000000d0: 6a6e 7a3f 55fe 7b3f 3cf0 803f bae1 7d3f
000000e0: 09d1 813f ed94 863f a7d1 7e3f cf7b 7c3f
000000f0: 9f3e 7a3f 9bb9 873f c639 843f c466 8d3f

bn1.bias f4 [64]
0.01685141 -0.11505049 -0.013838678 0.06994231 -0.0035791574 -0.13673355 -0.049702838 0.020096447
0.04832445 -0.005820361 -0.07901036 -0.03624656 0.016375061 -0.04506204 -0.045648865 -0.0704525
0.02208189 0.06841922 0.041235168 -0.058140516 0.05102768 -0.0770701 0.041452806 -0.0069526876
0.00642883 -0.04486335 -0.07952194 -0.012191334 0.055577092 0.0021188078 -0.060486324 -0.06067296
-0.045327447 -0.12779091 0.015105768 0.0065804836 -0.10542504 0.043015312 0.03921664 -0.04914706
-0.07792848 -0.019779138 -0.079551905 0.021673536 0.029709188 0.15171255 0.06896849 0.05731181
-0.05936445 0.1049632 0.0288106 -0.15262096 -0.019124135 -0.05692759 0.013383378 0.07835748
0.053955242 -0.026101135 0.06593546 -0.08004654 0.06728065 0.028515736 -0.056180153 0.022781253
00000000: f80b 8a3c 979f ebbd 9fbb 62bc ea3d 8f3d
00000010: 4c90 6abb e103 0cbe 3495 4bbd 4ea1 a43c
00000020: dcef 453d bab8 bebb 2fd0 a1bd 4677 14bd
00000030: fe24 863c f992 38bd 4efa 3abd 6649 90bd
00000040: 14e5 b43c 601f 8c3d 35e6 283d c024 6ebd
00000050: 6702 513d eed6 9dbd 6bca 293d 5fd3 e3bb
00000060: efa8 d23b a2c2 37bd 66dc a2bd 29be 47bc
00000070: cea4 633d b2db 0a3b 82c0 77bd 3684 78bd
00000080: 46a9 39bd 9fdb 02be 2f7e 773c 19a1 d73b
00000090: 15e9 d7bd d330 303d a1a1 203d 6d4e 49bd
000000a0: f898 9fbd dc07 a2bc 1cec a2bd b38c b13c
000000b0: af60 f33c 895a 1b3e 5a3f 8d3d cabf 6a3d
000000c0: 2328 73bd f2f6 d63d 3504 ec3c ab48 1cbe
000000d0: 38aa 9cbc e82c 69bd f545 5b3c e379 a03d
000000e0: 2c00 5d3d 0cd2 d5bc 2c09 873d 71ef a3bd
000000f0: 70ca 893d d599 e93c 291d 66bd c09f ba3c

bn1.running_mean f4 [64]
0.28227457 0.39111817 0.23169525 0.29285696 0.466885 0.21757223 0.34530142 0.33641538
0.20184642 0.33651924 0.38301396 0.2642036 0.28735805 0.19290298 0.31301713 0.23800851
0.25896975 0.16886206 0.33584556 0.24303289 0.31959367 0.22496876 0.31607565 0.21620229
0.26483804 0.1537696 0.2548799 0.29481012 0.2338802 0.3385578 0.25963297 0.25529572
0.22020407 0.33174574 0.33959496 0.3643076 0.2280934 0.30483237 0.16333282 0.31330973
0.2144455 0.24760754 0.18468443 0.19855578 0.28040797 0.40200648 0.18611911 0.21930186
0.16342014 0.3162059 0.26664987 0.2118347 0.44876108 0.21224752 0.19825907 0.258844
0.14962216 0.25253484 0.31062365 0.2553085 0.31431517 0.1855245 0.45966104 0.30839112
00000000: 4b86 903e a440 c83e 8541 6d3e 59f1 953e
00000010: 8d0b ef3e 41cb 5e3e 59cb b03e a33e ac3e
00000020: d4b0 4e3e 404c ac3e 681a c43e b245 873e
00000030: 9820 933e 5c88 453e c843 a03e 81b8 733e
00000040: af97 843e 2dea 2c3e f3f3 ab3e 9ddd 783e
00000050: c8a1 a33e 365e 663e abd4 a13e 2264 5d3e
00000060: da98 873e c775 1d3e 9e7f 823e 5af1 963e
00000070: 4b7e 6f3e 7357 ad3e 9dee 843e 1fb6 823e
00000080: 2d7d 613e 94da a93e 64df ad3e 8786 ba3e
00000090: 5191 693e fd12 9c3e b840 273e 226a a03e
000000a0: 9a97 5b3e d58c 7d3e ea1d 3d3e 3552 4b3e
000000b0: a291 8f3e cbd3 cd3e 0296 3e3e ab90 603e
000000c0: 9c57 273e bde5 a13e 5586 883e 32eb 583e
000000d0: 03c4 e53e 6a57 593e 6d04 4b3e 3387 843e
000000e0: 8d36 193e 3f4c 813e 100a 9f3e ccb7 823e
000000f0: ebed a03e 22fa 3d3e b158 eb3e 71e5 9d3e

bn1.running_var f4 [64]
0.22745398 0.26967746 0.121688485 0.13945188 0.6035535 0.13451917 0.1699208 0.29027277
0.108115554 0.27152047 0.28223872 0.14594702 0.24089184 0.1318354 0.2008933 0.09295984
0.21018998 0.05369437 0.2641642 0.16052054 0.2352754 0.065618716 0.3433824 0.08042551
0.12933774 0.084489845 0.13549246 0.20171845 0.18151349 0.13340966 0.09972353 0.09714183
0.16455565 0.09102107 0.20133987 0.32125288 0.15647519 0.18886112 0.10476193 0.17441145
0.14545329 0.09006168 0.052657384 0.059007894 0.20096996 0.2759607 0.048597116 0.07910007
0.08842147 0.288525 0.15981808 0.1286239 0.37744668 0.0885357 0.10963038 0.10859998
0.093720935 0.06860993 0.17681476 0.12845297 0.3281036 0.08999589 0.28126544 0.1308814
00000000: b2e9 683e 2a13 8a3e d037 f93d 79cc 0e3e
00000010: 7b82 1a3f 65bf 093e b8ff 2d3e a29e 943e
00000020: b06b dd3d bb04 8b3e 9881 903e 2373 153e
00000030: 5aac 763e dcff 063e f9b6 4d3e bb61 be3d
00000040: 0b3c 573e a1ee 5b3d 8840 873e 7f5f 243e
00000050: 09ec 703e 1b63 863d d1cf af3e 21b6 a43d
00000060: 1d71 043e 0309 ad3d 89be 0a3e 488f 4e3e
00000070: acde 393e 8b9c 083e da3b cc3d 4cf2 c63d
00000080: 4781 283e 4169 ba3d 0a2c 4e3e 427b a43e
00000090: 083b 203e cf64 413e 6c8d d63d ea98 323e
000000a0: b5f1 143e 4272 b83d 45af 573d 43b2 713d
000000b0: 12cb 4d3e b94a 8d3e c50d 473d 38ff a13d
000000c0: 5116 b53d 8cb9 933e 5aa7 233e fcb5 033e
000000d0: b140 c13e 3552 b53d e585 e03d ab69 de3d
000000e0: c3f0 bf3d 5d83 8c3d ee0e 353e 2d89 033e
000000f0: 32fd a73e c44f b83d 0602 903e c605 063e

conv2.bias f4 [64]
0.054063097 0.0009875838 0.11999461 0.052342143 0.023719355 0.01996303 -0.05123512 -0.0011396327
0.0029063933 0.12215233 0.1435696 0.20104659 -0.07856882 0.0739859 0.029581202 -0.09430633
-0.0055442024 -0.15867622 0.097061194 0.1005624 0.0905931 0.046916418 -0.06719105 -0.059023935
-0.12463446 0.21336353 -0.02636766 0.09553033 0.117920145 -0.0073444014 0.025242718 0.00070454984
-0.19705309 0.0049811197 -0.067107856 0.08410052 0.23441987 0.026351012 0.036961026 -0.090635516
-0.1965157 -0.1156649 -0.0006869142 0.12261328 0.0846712 -0.081833936 0.163906 0.10175709
-0.021398371 -0.14873067 -0.07029929 -0.039243743 -0.020302942 -0.02455827 0.13775995 -0.05604934
0.122689374 -0.015100301 0.030753313 0.26168236 -0.0009118078 0.08141796 0.15047745 -0.1869105
00000000: 4471 5d3d d071 813a bcbf f53d b764 563d
00000010: 184f c23c 8289 a33c ebdb 51bd ba5f 95ba
00000020: 3079 3e3b 002b fa3d e903 133e 28df 4d3e
00000030: b1e8 a0bd eb85 973d 4754 f23c ad23 c1bd
00000040: 24ac b5bb 057c 22be 05c8 c63d a9f3 cd3d
00000050: e088 b93d 6e2b 403d 769b 89bd 15c3 71bd
00000060: 5a40 ffbd f87b 5a3e fe00 d8bc 68a5 c33d
00000070: 1e80 f13d 4ea9 f0bb d1c9 ce3c 8ab1 383a
00000080: 49c8 49be a938 a33b d86f 89bd e53c ac3d
00000090: c30b 703e 14de d73c 7264 173d 1d9f b9bd
000000a0: 693b 49be b8e1 ecbd 0812 34ba ac1c fb3d
000000b0: 1868 ad3d 8d98 a7bd f9d6 273e 0566 d03d
000000c0: a34b afbc da4c 18be 13f9 8fbd 0cbe 20bd
000000d0: 5b52 a6bc 6d2e c9bc f210 0d3e fe93 65bd
000000e0: 9144 fb3d 4167 77bc 5fee fb3c 3bfb 853e
000000f0: 6306 6fba 76be a63d c316 1a3e 7765 3fbe

conv2.lin.weight f4 [64, 64]
0.21767311 -0.029724102 -0.21540341 0.122000694 -0.059433434 -0.17799172 -0.1086513 0.090869024
-0.22641544 0.22245601 -0.0070945546 0.045081228 0.05286825 0.044430666 0.16327462 -0.05776897
0.18265052 -0.14729561 0.120180435 -0.22821318 -0.16304868 -0.09316445 -0.1097628 -0.075710446
0.2083259 0.03369515 0.17366177 0.11611008 0.07999515 -0.14858943 0.12223466 0.10772489
-0.1826082 0.16569236 0.14255768 -0.16065107 0.18404257 -0.19460566 0.09077047 0.12737657
-0.031979334 -0.06100332 0.16974244 0.1833744 -0.057485223 -0.04598309 -0.08187025 -0.1463823
0.13566057 -0.007771824 -0.013425266 -0.06039455 -0.11935925 -0.1866603 0.18217005 0.113283254
-0.16736463 0.15649037 0.11473125 -0.1616099 -0.08341692 -0.123121664 0.2212548 0.2355582
0.031355236 0.055314276 -0.17836837 0.029580623 -0.050231244 0.020552976 0.09377906 0.1595684
0.20043997 0.19568977 0.19324146 0.116951674 0.15630545 0.16488509 0.16890164 -0.0584968
-0.10215817 0.12034052 -0.20194496 0.09093039 -0.09980176 0.1609719 -0.122709416 0.042880848
0.11548261 0.008658346 0.02482202 -0.11982221 0.19661096 -0.20764302 0.12130887 -0.06998475
-0.18619636 0.03182258 -0.059783928 -0.06195534 -0.006842977 -0.027886044 0.11751277 0.06282314
0.026779132 -0.27868715 -0.010509539 0.043847345 0.14522386 0.1340361 -0.16403103 0.03197292
0.021773646 -0.15857685 0.124273404 0.100540206 0.22276138 0.13800453 0.16753116 -0.2137724
0.031431265 -0.17596868 -0.13116169 0.035280023 0.2266252 -0.0021554653 -0.08832189 -0.06089822
0.07738996 -0.24857433 0.25204745 -0.02701025 -0.115607515 0.14864634 0.15164271 -0.16285667
-0.11520517 0.085614815 0.024768373 -0.024866082 -0.26761273 0.07549843 -0.11145895 -0.0136435
-0.18768118 -0.0075508226 -0.07896998 0.0021771367 -0.021996308 -0.058125757 -0.011605755 -0.07687928
-0.08230597 -0.017506637 0.11614647 0.22350274 -0.044303454 0.15596786 0.11007454 -0.1813561
-0.15450166 -0.077801384 -0.022654798 0.14894384 0.20640218 0.07690766 0.14437832 -0.061706793
0.06757502 -0.12110399 -0.1431041 -0.0772571 0.102571666 0.03705465 -0.008518654 0.1701883
0.19579314 -0.08025131 0.077302 -0.030153295 0.019408701 -0.019924745 0.13734786 -0.22593078
-0.065062255 -0.029377608 -0.04556002 -0.032422304 -0.03417563 -0.02473911 0.08086584 -0.23589385
0.037821017 0.09434137 -0.14384693 -0.11168412 -0.049385913 0.08130017 0.19033904 -0.22667918
-0.07477602 -0.14177091 -0.04105006 0.07711827 0.08875518 -0.08558057 0.15897505 0.11188635
0.11845933 0.13760187 -0.055168003 0.16785808 -0.18910947 -0.153284 -0.025950901 0.14534332
0.06074861 -0.014898733 -0.104509406 -0.15322185 0.064038195 -0.15739724 0.15527837 -0.15764894
0.012343581 0.26414767 0.12145297 0.07496602 0.03416856 0.1767051 0.11678476 -0.07385428
-0.11267339 0.13406697 0.12213502 0.08264117 0.13893047 -0.0482449 -0.046331134 0.09984564
0.07377733 -0.06918885 0.19038686 -0.017197696 -0.1600514 -0.14144026 0.15586533 0.19495562
0.060861103 -0.07579523 -0.21521299 -0.11851586 -0.21150003 -0.13679828 -0.010875783 0.05521196
00000000: b3e5 5e3e f67f f3bc b692 5cbe 80db f93d
00000010: 7970 73bd 7643 36be 9384 debd 8a19 ba3d
00000020: 73d9 67be 82cb 633e 7079 e8bb 18a7 383d
00000030: 618c 583d eefc 353d 7631 273e 289f 6cbd
00000040: bd08 3b3e a9d4 16be 2921 f63d b7b0 69be
00000050: 3cf6 26be 01cd bebd 52cb e0bd 140e 9bbd
00000060: 6253 553e ed03 0a3d 64d4 313e 1fcb ed3d
00000070: 7fd4 a33d d427 18be 2a56 fa3d de9e dc3d
00000080: a5fd 3abe 42ab 293e a4fa 113e b781 24be
00000090: a875 3c3e b546 47be dee5 b93d 016f 023e
000000a0: c3fc 02bd 9ede 79bd f6d0 2d3e 80c6 3b3e
000000b0: a075 6bbd c458 3cbd 97ab a7bd 3ee5 15be
000000c0: 9bea 0a3e c9aa febb a6f5 5bbc 4760 77bd
000000d0: 9f72 f4bd e123 3fbe c98a 3a3e 0d01 e83d
000000e0: a261 2bbe 033f 203e 38f8 ea3d 117d 25be
000000f0: 7dd6 aabd 3627 fcbd 9e90 623e 2b36 713e
00000100: 596e 003d 3991 623d 33a6 36be 1053 f23c
00000110: 47bf 4dbd b75e a83c 3c0f c03d e665 233e
00000120: 2340 4d3e e662 483e 17e1 453e 5c84 ef3d
00000130: 890e 203e a3d7 283e 8df4 2c3e 579a 6fbd
00000140: 4d38 d1bd 1775 f63d a9ca 4ebe b639 ba3d
00000150: dd64 ccbd d1d5 243e 134f fbbd d4a3 2f3d
00000160: 2682 ec3d bcdb 0d3c 8d57 cb3c 5965 f5bd
00000170: 6254 493e 5fa0 54be c970 f83d 2a54 8fbd
00000180: 42aa 3ebe 6558 023d fedf 74bd e2c4 7dbd
00000190: 0d3b e0bb 4671 e4bc 89aa f03d 6ba9 803d
000001a0: e95f db3c 15b0 8ebe 3430 2cbc 4699 333d
000001b0: 90b5 143e c240 093e c0f7 27be 09f6 023d
000001c0: a55e b23c f861 22be 0e83 fe3d 06e8 cd3d
000001d0: 8f1b 643e 0f51 0d3e 4a8d 2b3e 27e7 5abe
000001e0: 12be 003d 2231 34be 404f 06be c981 103d
000001f0: 7010 683e b542 0dbb 1be2 b4bd 6970 79bd
00000200: a17e 9e3d 458a 7ebe 5d0c 813e 9a44 ddbc
00000210: a2c3 ecbd bf36 183e 3a48 1b3e e6c3 26be
00000220: b0f0 ebbd d256 af3d 0be7 ca3c f4b3 cbbc
00000230: 8904 89be ec9e 9a3d 9744 e4bd fd88 5fbc
00000240: 7f2f 40be e46c f7bb 03bb a1bd 4bae 0e3b
00000250: 9a31 b4bc 4615 6ebd 1126 3ebc e272 9dbd
00000260: 0890 a8bd 146a 8fbc 33de ed3d e7dd 643e
00000270: 8a77 35bd 0ab6 1f3e c36e e13d 6ab5 39be
00000280: af35 1ebe 5556 9fbd 8e96 b9bc bc84 183e
00000290: 185b 533e c381 9d3d e9d7 133e 43c0 7cbd
000002a0: c664 8a3d 5e05 f8bd e289 12be f838 9ebd
000002b0: 1811 d23d 9ec6 173d d391 0bbc d745 2e3e
000002c0: ff7d 483e cc5a a4bd 8350 9e3d 0b04 f7bc
000002d0: fffe 9e3c 3839 a3bc eba4 0c3e 665a 67be
000002e0: 5c3f 85bd 4fa9 f0bc 259d 3abd 40cd 04bd
000002f0: bffb 0bbd ada9 cabc fd9c a53d 288e 71be
00000300: 36ea 1a3d 0c36 c13d 9c4c 13be a5ba e4bd
00000310: e248 4abd b480 a63d 3de8 423e 961e 68be
00000320: 2c24 99bd 652c 11be 1c24 28bd 2ff0 9d3d
00000330: 47c5 b53d de44 afbd 5bca 223e ac24 e53d
00000340: ce9a f23d 81e7 0c3e d8f7 61bd fde2 2b3e
00000350: eaa5 41be 7bf6 1cbe fc96 d4bc e1d4 143e
00000360: 89d3 783d d119 74bc 0709 d6bd 30e6 1cbe
00000370: 7526 833d be2c 21be 4b01 1f3e b96e 21be
00000380: bb3c 4a3c 5d3e 873e 56bc f83d c987 993d
00000390: 55f4 0b3d 2ff2 343e d92c ef3d ea40 97bd
000003a0: 4ec1 e6bd da48 093e ed21 fa3d c63f a93d
000003b0: ca43 0e3e 729c 45bd b7c5 3dbd df7b cc3d
000003c0: 9218 973d e2b2 8dbd c6f4 423e 2fe2 8cbc
000003d0: 84e4 23be b7d5 10be 299b 1f3e 72a2 473e
000003e0: 7e49 793d 883a 9bbd cb60 5cbe 71b8 f2bd
000003f0: 7793 58be d914 0cbe 5730 32bc f025 623d

bn2.weight f4 [64]
0.98885214 1.0441079 1.0238981 0.97904295 1.0113503 0.9341878 1.0123891 1.0173293
0.98786414 1.0186683 0.921005 0.9660255 1.0189357 0.99511415 0.99904317 1.0282117
0.9581525 0.9926378 1.0591558 1.0119327 0.97941136 1.0023421 0.96907926 0.9825663
0.9375823 0.9376036 0.93556964 0.9400367 1.0059987 1.0534191 0.99037904 1.044553
0.99249214 0.98453015 0.9709335 1.0117154 1.0362744 0.97685677 0.9728282 1.0570996
0.96317077 0.9438184 0.97018385 0.95840096 1.0279869 1.0199968 0.9734189 0.99344254
0.975943 0.96335334 0.94473505 0.9828578 0.9267314 1.0045938 0.9648021 0.9568873
1.0008367 1.0082868 1.0036035 1.0009918 0.9775488 1.0550919 1.034318 0.94982857
00000000: 6a25 7d3f 54a5 853f 180f 833f 8fa2 7a3f
00000010: ed73 813f ef26 6f3f f795 813f d937 823f
00000020: aae4 7c3f b963 823f fcc6 6b3f 724d 773f
00000030: 7c6c 823f cdbf 7e3f 4bc1 7f3f 719c 833f
00000040: 7b49 753f 831d 7e3f 6b92 873f 0387 813f
00000050: b4ba 7a3f bf4c 803f 9415 783f 7789 7b3f
00000060: 6505 703f ca06 703f 7e81 6f3f 3fa6 703f
00000070: 91c4 803f 70d6 863f 7b89 7d3f eab3 853f
00000080: f713 7e3f 2b0a 7c3f 198f 783f e47f 813f
00000090: a4a4 843f 4913 7a3f 450b 793f 0a4f 873f
000000a0: 5c92 763f 159e 713f f85d 783f c459 753f
000000b0: 1395 833f 418f 823f fb31 793f 4052 7e3f
000000c0: 67d7 793f 539e 763f 28da 713f 929c 7b3f
000000d0: 453e 6d3f 8896 803f 45fd 763f 91f6 743f
000000e0: 6b1b 803f 8b0f 813f 1476 803f 8020 803f
000000f0: a340 7a3f 400d 873f 8864 843f f727 733f

bn2.bias f4 [64]
0.08751079 0.10846383 0.080371544 0.054456588 0.18505768 0.2089501 -0.10934162 -0.026057031
-0.035549268 -0.008650248 0.10032068 0.14312847 0.024465943 0.12295517 0.028048996 -0.22786175
0.11061021 0.22529347 0.05118226 0.14627823 0.11211137 0.08059069 0.19934805 0.20931558
0.2226783 0.12412333 0.13812481 0.20690463 -0.06538536 0.10064183 0.1695114 0.06648134
-0.05593448 0.086811945 0.103490464 0.08308335 -0.03546662 -0.0008565822 0.05593435 0.2420805
0.27697608 -0.07053771 -0.0508002 0.047172554 -0.05639899 0.043550104 -0.025058694 0.041918296
0.065586 0.16075093 0.20387329 0.27803522 0.039298892 0.037769992 0.02002609 -0.04641816
0.0066614277 -0.032284506 0.108086534 0.1219997 -0.12802438 0.15651509 -0.01513359 0.019649219
00000000: db38 b33d 4922 de3d d699 a43d df0d 5f3d
00000010: c37f 3d3e 04f7 553e 80ee dfbd 8e75 d5bc
00000020: 1c9c 11bd c5b9 0dbc ee74 cd3d 4590 123e
00000030: cd6c c83c eccf fb3d 02c7 e53c 9754 69be
00000040: 9b87 e23d 55b3 663e 7da4 513d f6c9 153e
00000050: a59a e53d bb0c a53d e521 4c3e d356 563e
00000060: c805 643e 5f34 fe3d 9770 0d3e cfde 533e
00000070: c2e8 85bd 4e1d ce3d 6594 2d3e 5e27 883d
00000080: 8e1b 65bd 76ca b13d cff2 d33d 9a27 aa3d
00000090: 7245 11bd 428c 60ba 6b1b 653d f3e3 773e
000000a0: cfcf 8d3e 1376 90bd df13 50bd 0238 413d
000000b0: a102 67bd 9861 323d e447 cdbc 85b2 2b3d
000000c0: f451 863d e49b 243e 29c4 503e a25a 8e3e
000000d0: e0f7 203d b5b4 1a3d c10d a43c f820 3ebd
000000e0: 1b48 da3b c23c 04bd 795c dd3d fbda f93d
000000f0: d318 03be 7e45 203e e1f2 77bc 66f7 a03c

bn2.running_mean f4 [64]
0.3119488 0.33351207 0.32101247 0.314426 0.30390164 0.319152 0.38873962 0.29966253
0.38393307 0.43515247 0.31308413 0.42407262 0.24107791 0.3240661 0.33540335 0.27395934
0.39453813 0.2714184 0.42538106 0.43577635 0.4362134 0.34399295 0.44041157 0.30853674
0.27880818 0.55969757 0.33125165 0.48131657 0.64165276 0.28322738 0.2550603 0.46093863
0.36055627 0.3802108 0.3601117 0.40507206 0.4923899 0.41354996 0.32009533 0.42052084
0.34599087 0.2522214 0.37965584 0.4489705 0.38188377 0.4586361 0.37336496 0.3668447
0.17347662 0.26068768 0.568502 0.32787114 0.13945468 0.20166413 0.44563836 0.4314478
0.4560532 0.3797431 0.45245862 0.33837593 0.27008277 0.3633366 0.28734624 0.36089778
00000000: c1b7 9f3e 18c2 aa3e bf5b a43e 72fc a03e
00000010: ff98 9b3e e467 a33e e108 c73e 5e6d 993e
00000020: e092 c43e 4ecc de3e 904c a03e 0c20 d93e
00000030: 21dd 763e feeb a53e fdb9 ab3e 6644 8c3e
00000040: e700 ca3e 5af7 8a3e 8ccb d93e 141e df3e
00000050: 5d57 df3e d81f b03e a07d e13e 87f8 9d3e
00000060: f2bf 8e3e 5748 0f3f d199 a93e 206f f63e
00000070: 5b43 243f 2e03 913e 4397 823e 2600 ec3e
00000080: d59a b83e fdaa c23e 9060 b83e 9b65 cf3e
00000090: 871a fc3e d2bc d33e 89e3 a33e 824e d73e
000000a0: b725 b13e 2a23 813e 4062 c23e 76df e53e
000000b0: 4586 c33e 5ad2 ea3e b129 bf3e 12d3 bb3e
000000c0: dba3 313e db78 853e 5989 113f bade a73e
000000d0: 35cd 0e3e 0b81 4e3e b62a e43e bae6 dc3e
000000e0: ce7f e93e b06d c23e a8a8 e73e 9c3f ad3e
000000f0: 4a48 8a3e 4107 ba3e 0c1f 933e 98c7 b83e

bn2.running_var f4 [64]
0.5577953 0.7518238 0.3303425 0.44774887 0.34933066 0.5373345 0.6721386 0.38197848
0.7392373 0.6292707 0.37643155 0.44051123 0.44552004 0.4054215 0.7443513 0.5559196
0.5390939 0.7414266 0.54545146 1.0313597 0.95432395 0.46475103 0.78104687 0.9510159
0.4300074 0.6311733 0.7803244 0.905237 1.4717805 0.5072543 0.38017908 1.5130117
0.6582711 0.5064289 0.5734161 0.45383155 0.68310267 0.975772 0.4842253 0.9278998
0.7654422 0.47634673 0.83957165 0.6581738 0.72451466 1.4557068 0.39253855 0.48334837
0.23054041 0.36193836 1.3860085 0.76122934 0.11917748 0.32710686 0.6442243 0.776194
0.7352062 1.0724185 0.70565695 0.34441066 0.38284886 0.7389727 0.20807545 0.84366244
00000000: accb 0e3f 8677 403f a722 a93e 573f e53e
00000010: 78db b23e c18e 093f 4611 2c3f af92 c33e
00000020: a83e 3d3f e217 213f a3bb c03e b08a e13e
00000030: 341b e43e 6893 cf3e cf8d 3e3f bf50 0e3f
00000040: 0f02 0a3f 22ce 3d3f b5a2 0b3f 9803 843f
00000050: 934e 743f d9f3 ed3e b0f2 473f c775 733f
00000060: ee29 dc3e 9394 213f 57c3 473f 9dbd 673f
00000070: 4e63 bc3f 6bdb 013f d5a6 c23e 5eaa c13f
00000080: 7484 283f 53a5 013f 66cb 123f 9c5c e83e
00000090: d1df 2e3f 32cc 793f 61ec f73e d78a 6d3f
000000a0: 05f4 433f b8e3 f33e 2bee 563f 147e 283f
000000b0: cb79 393f 9a54 ba3f d0fa c83e 7079 f73e
000000c0: c912 6c3e fc4f b93e ba68 b13f eddf 423f
000000d0: 5313 f43d 8d7a a73e e2eb 243f a6b4 463f
000000e0: 7936 3c3f 0245 893f efa5 343f 9856 b03e
000000f0: c404 c43e 512d 3d3f bb11 553e 43fa 573f

fc1.weight f4 [64, 64]
0.029522486 0.123795 -0.039980263 0.017072735 -0.1189868 -0.058616675 -0.013208707 0.08361289
-0.0788827 0.015266483 -0.005972383 -0.16879772 -0.041373663 -0.11441225 0.022358531 0.06599506
0.08745581 -0.11175093 0.037483867 -0.13426985 0.025849113 -0.024412746 -0.10364144 -0.03112173
0.0010763627 -0.009234304 0.05476153 -0.078935444 0.12275027 -0.17792526 0.08235047 0.0371666
0.12037925 -0.036588058 -0.07374795 0.09214258 -0.09615401 0.062498454 0.02437647 0.047526035
0.018474864 -0.067799 0.10679284 -0.06001712 -0.014841033 0.019082053 0.12161439 -0.08404291
0.12191903 -0.12677242 -0.040106535 -0.0102543505 -0.01787613 -0.123740286 0.008270732 -0.016162757
0.04850932 -0.086993 0.07085196 -0.03359473 0.11209171 -0.15694018 -0.088543616 0.024402723
0.050372373 0.07477561 -0.0042554163 -0.068932995 0.06765405 0.013813049 -0.00020287889 -0.016345955
-0.070655465 -0.017999914 -0.09359594 -0.008727119 0.083273984 -0.044027474 0.06741712 -0.021580733
0.06611786 0.044313144 0.15101266 -0.031513672 -0.026802905 0.08460251 0.012169773 0.07811682
0.021276033 -0.07612701 0.09645118 0.0008259958 -0.021594822 0.103805445 -0.13611457 -0.028950235
0.09078447 -0.070562944 0.001784037 0.18897332 0.041909598 -0.110269874 0.026617529 0.08437812
0.03627152 -0.15737891 0.08230683 0.08479653 -0.10297916 -0.06148194 -0.043417428 0.05868983
-0.19848451 -0.12589093 -0.14432065 -0.07032411 -0.015318378 0.025555188 -0.049253058 0.01767178
-0.06662274 0.028775394 -0.06372575 -0.040622164 -0.01356287 -0.103904106 0.082008615 -2.1419575e-05
0.005735154 0.13031904 0.04443288 -0.028436426 0.102167055 -0.018605404 -0.18342309 0.05613613
0.062128168 -0.009936698 0.12637849 0.12039445 -0.007826154 0.03303712 -0.06913855 0.06714782
-0.10804085 -0.2407675 -0.038563244 -0.15196012 0.0127397105 0.02880111 0.06280138 -0.06739239
-0.11070736 0.02742346 -0.091515854 -0.08146269 0.009974365 -0.12338799 -0.0058993422 0.12241323
0.10293168 0.034854412 0.027628573 0.046610523 -0.025929542 -0.0069952398 0.08541629 -0.12977104
-0.050505247 -0.027430596 0.0069599883 -0.086024225 -0.061284054 0.0062563927 0.0029465058 0.04058856
-0.06996916 0.059761688 -0.13724601 0.08250521 0.05945133 -0.04442293 -0.058338158 0.07721917
-0.022010786 0.045009326 -0.062146377 -0.108952075 0.0146547705 -0.10136285 0.085048795 0.03480861
0.051649593 0.05535798 0.03616064 0.07741679 -0.04147401 0.064896 -0.160653 0.1394944
0.009659755 -0.022903891 -0.012755032 -0.08758915 -0.0947573 0.014756176 -0.13434027 -0.08689706
0.049029693 0.0064192107 -0.0714415 -0.10928256 -0.1216365 0.08418016 0.12274835 -0.08349045
0.0022562523 0.03372006 0.109937705 -0.031599686 0.026335575 0.08936521 0.07547633 -0.15635477
0.052991915 0.07485483 -0.0028962449 -0.02875878 0.024681373 0.08850877 -0.18680081 -0.042303145
-0.15024991 0.07478127 0.08668329 0.0130267115 0.15500522 0.0929313 -0.10939488 0.017210288
0.017400505 -0.03148927 -0.07342563 -0.053020585 -0.02589289 0.007837078 0.064498045 -0.022291532
-0.0017503178 -0.045378912 -0.018983716 -0.09941396 0.056584954 0.13087767 -0.019365149 -0.16287796
00000000: 24d9 f13c 3c88 fd3d 58c2 23bd 1fdc 8b3c
00000010: 5aaf f3bd 0a18 70bd 5569 58bc 3c3d ab3d
00000020: 418d a1bd 4520 7a3c fbb3 c3bb 4fd9 2cbe
00000030: 6e77 29bd f850 eabd 3d29 b73c 6b28 873d
00000040: 081c b33d acdd e4bd af88 193d 097e 09be
00000050: 85c1 d33c 3dfd c7bc f741 d4bd 00f3 febc
00000060: bd14 8d3a 7a4b 17bc a04d 603d e8a8 a1bd
00000070: 7e64 fb3d 0a32 36be 5da7 a83d 013c 183d
00000080: 6589 f63d 5cdd 15bd 2a09 97bd 40b5 bc3d
00000090: 65ec c4bd 61fe 7f3d 2ab1 c73c a9aa 423d
000000a0: 9958 973c 34da 8abd 34b6 da3d 83d4 75bd
000000b0: ce27 73bc f751 9c3c f710 f93d b01e acbd
000000c0: afb0 f93d a1d0 01be c046 24bd dd01 28bc
000000d0: f670 92bc 8c6b fdbd f781 073c c267 84bc
000000e0: b5b1 463d 6329 b2bd d51a 913d a19a 09bd
000000f0: 5790 e53d edb4 20be 5b56 b5bd 38e8 c73c
00000100: 4353 4e3d f423 993d 0571 8bbb be2c 8dbd
00000110: 358e 8a3d 2050 623c e3bb 54b9 f4e7 85bc
00000120: d0b3 90bd 8e74 93bc 3aaf bfbd 31fc 0ebc
00000130: 8d8b aa3d 2756 34bd fd11 8a3d 14ca b0bc
00000140: cd68 873d b381 353d 10a3 1a3e 7b14 01bd
00000150: c491 dbbc 1544 ad3d ba63 473c b6fb 9f3d
00000160: 134b ae3c 7ae8 9bbd 3288 c53d a487 583a
00000170: a0e7 b0bc f397 d43d 9e61 0bbe 0b29 edbc
00000180: 35ed b93d 4e83 90bd 59d6 e93a 3982 413e
00000190: 66a9 2b3d 2cd5 e1bd 010d da3c 70ce ac3d
000001a0: 7291 143d f027 21be 7c90 a83d cea9 ad3d
000001b0: bde6 d2bd 7dd4 7bbd 79d6 31bd bf64 703d
000001c0: 863f 4bbe 8de9 00be cbc8 13be 1606 90bd
000001d0: eff9 7abc 1d59 d13c 93bd 49bd 69c4 903c
000001e0: 8171 88bd 60ba eb3c a582 82bd 6d63 26bd
000001f0: cd36 5ebc adcb d4bd 22f4 a73d 30ae b3b7
00000200: f5ed bb3b 5b72 053e 40ff 353d 82f3 e8bc
00000210: f63c d13d 5c6a 98bc 43d3 3bbe 00ef 653d
00000220: 1b7a 7e3d 88cd 22bc 5d69 013e 5e91 f63d
00000230: 4539 00bc ee51 073d 8398 8dbd cc84 893d
00000240: 8544 ddbd c18b 76be 7ef4 1dbd 6f9b 1bbe
00000250: 38ba 503c 4ef0 eb3c 039e 803d 0505 8abd
00000260: 8aba e2bd 2aa7 e03c aa6c bbbd e9d5 a6bd
00000270: 856b 233c d8b2 fcbd 454f c1bb cab3 fa3d
00000280: d8cd d23d 80c3 0e3d 5155 e23c adea 3e3d
00000290: 316a d4bc 5338 e5bb bcee ae3d b3e2 04be
000002a0: 97de 4ebd 21b6 e0bc 9d10 e43b 782d b0bd
000002b0: fd04 7bbd 6d02 cd3b 2a1a 413b 3140 263d
000002c0: fe4b 8fbd acc8 743d 388a 0cbe 7ef8 a83d
000002d0: 3d83 733d d1f4 35bd fef3 6ebd 1625 9e3d
000002e0: f74f b4bc b35b 383d 338d 7ebd 4422 dfbd
000002f0: 901a 703c 5397 cfbd 102e ae3d 7993 0e3d
00000300: 868e 533d 0dbf 623d 2e1d 143d b28c 9e3d
00000310: a7e0 29bd 32e8 843d 3882 24be 9fd7 0e3e
00000320: f343 1e3c f1a0 bbbc 7bfa 50bc f161 b3bd
00000330: 1e10 c2bd e3c3 713c 7f90 09be 16f7 b1bd
00000340: 5cd3 483d 3e58 d23b ec4f 92bd 89cf dfbd
00000350: 8f1c f9bd a666 ac3d 7d63 fb3d 0bfd aabd
00000360: a2dd 133b 0c1e 0a3d 0527 e13d ac6e 01bd
00000370: b4bd d73c 1b05 b73d 5693 9a3d 771b 20be
00000380: 0d0e 593d 7d4d 993d edce 3dbb 8897 ebbc
00000390: 9730 ca3c 1644 b53d b648 3fbe 1046 2dbd
000003a0: 1ddb 19be ec26 993d 0287 b13d fd6d 553c
000003b0: b0b9 1e3e c452 be3d 6c0a e0bd 97fc 8c3c
000003c0: 818b 8e3c e5fa 00bd 2d60 96bd 1d2c 59bd
000003d0: 531d d4bc 1667 003c 8d17 843d bb9c b6bc
000003e0: eb6a e5ba 3ddf 39bd bd83 9bbc 8c99 cbbd
000003f0: a0c5 673d cc04 063e a9a3 9ebc 7bc9 26be

fc1.bias f4 [64]
0.06898738 -0.06496638 0.223418 0.097970076 -0.13216965 0.15908639 0.073676154 0.06100845
-0.11237019 0.2462707 0.119668886 -0.037734073 -0.06954734 0.101251446 0.11400476 0.056513432
0.14609253 0.050854325 0.10689761 0.18603998 -0.045907024 0.1464005 0.13237384 0.14376366
0.081641205 0.06821188 0.09212427 0.13765967 0.10163703 0.04085571 0.21950965 0.17487182
0.20957033 -0.032172266 0.069605306 -0.015318812 -0.012948708 0.09791736 0.038760204 0.032891158
0.032922227 0.10435542 0.15245035 -0.034061458 0.05164921 0.123716146 0.16323607 0.03401442
-0.06998353 0.044311173 0.18037912 0.020407517 -0.0056623113 0.102526456 0.018896244 -0.15500544
0.07785047 0.13918589 -0.07758168 0.1332197 -0.058201145 0.09112896 0.07522686 -0.10341782
00000000: 4149 8d3d 180d 85bd b0c7 643e 89a4 c83d
00000010: 7b57 07be 8be7 223e 86e3 963d ffe3 793d
00000020: 5822 e6bd 632e 7c3e f614 f53d 0b8f 1abd
00000030: d66e 8ebd eb5c cf3d 547b e93d a17a 673d
00000040: 4899 153e a04c 503d 22ed da3d 4481 3e3e
00000050: 0109 3cbd 03ea 153e 028d 073e c836 133e
00000060: 8133 a73d acb2 8b3d a6ab bc3d a8f6 0c3e
00000070: 1327 d03d 5158 273d 23c7 603e 9911 333e
00000080: 9b99 563e 11c7 03bd 3a8d 8e3d c1fb 7abc
00000090: d126 54bc e688 c83d 05c3 1e3d e1b8 063d
000000a0: 75d9 063d 4bb8 d53d f21b 1c3e 0784 0bbd
000000b0: 1f8e 533d e45e fd3d 5b27 273e b452 0b3d
000000c0: 8653 8fbd a27f 353d 4eb5 383e aa2d a73c
000000d0: e98a b9bb 64f9 d13d 4ccc 9a3c bfb9 1ebe
000000e0: 1170 9f3d bf86 0e3e 25e3 9ebd bf6a 083e
000000f0: 5364 6ebd d2a1 ba3d 8a10 9a3d b9cc d3bd

bn3.weight f4 [64]
1.3273326 1.1631594 1.2292991 1.0988572 1.2720352 1.2572107 1.2274379 1.2381716
1.3181341 1.3874408 1.3119912 1.2045919 1.354444 1.1844761 1.2648673 1.2804542
1.3786346 1.2620432 1.1627007 1.2920579 1.2899009 1.3150128 1.204872 1.2314445
1.2812846 1.2448645 1.2883582 1.232789 1.2754545 1.2628074 1.2386526 1.2001455
1.294312 1.2196177 1.2833356 1.1346021 1.2032552 1.2503002 1.3050265 1.2839265
1.2971786 1.179013 1.1676941 1.2140751 1.1023862 1.2645068 1.2262831 1.1629997
1.0973384 1.2567827 1.2041416 1.1030004 1.169945 1.1455971 1.1281927 1.2888676
1.2978728 1.1931051 1.2066386 1.2877927 1.139763 1.2226077 1.214963 1.1867757
00000000: 09e6 a93f 68e2 943f ac59 9d3f 5aa7 8c3f
00000010: 0dd2 a23f 48ec a03f af1c 9d3f 687c 9e3f
00000020: 9eb8 a83f a997 b13f 54ef a73f 1130 9a3f
00000030: 6c5e ad3f ea9c 973f 2ce7 a13f ece5 a33f
00000040: 1977 b03f a28a a13f 60d3 943f 2762 a53f
00000050: 791b a53f 5752 a83f 3f39 9a3f f99f 9d3f
00000060: 2201 a43f b857 9f3f ece8 a43f 08cc 9d3f
00000070: 1842 a33f aca3 a13f 2b8c 9e3f 5e9e 993f
00000080: 04ac a53f 6f1c 9c3f 5744 a43f a43a 913f
00000090: 4404 9a3f d609 a03f 1c0b a73f b457 a43f
000000a0: f309 a63f e6e9 963f 0077 953f d066 9b3f
000000b0: fe1a 8d3f 5cdb a13f d8f6 9c3f 2ddd 943f
000000c0: 9675 8c3f 41de a03f 5021 9a3f 1e2f 8d3f
000000d0: c2c0 953f eda2 923f 9e68 903f 9df9 a43f
000000e0: b220 a63f abb7 983f 2273 9a3f 64d6 a43f
000000f0: c1e3 913f 697e 9c3f e883 9b3f 44e8 973f

bn3.bias f4 [64]
0.12543486 0.05598194 -0.09207291 0.115420274 -0.17083715 -0.05105902 -0.006858833 -0.13243915
0.28986618 0.03251106 0.098125346 0.14747207 0.14878295 -0.13646972 0.035119426 0.09454172
-0.049460653 0.1032658 0.03176359 -0.20817678 0.049912497 0.13756353 -0.0011162824 -0.049157526
-0.057998676 -0.12846678 -0.0067765107 -0.029471993 -0.2000291 -0.09053297 -0.15625851 -0.20323673
-0.09440594 -0.1032352 0.14563285 -0.070694275 -0.04478062 0.01982409 -0.16880152 -0.0882242
-0.067221515 -0.0116368 -0.06867321 -0.019106109 -0.119761884 -0.049131308 -0.17901461 0.11141626
-0.014416646 0.014216088 -0.1130541 -0.10458106 -0.024605025 0.029456604 0.06059554 0.14868136
0.04727691 0.08119943 -0.23696171 -0.059182882 -0.21544148 0.20869721 -0.17194903 0.003484476
00000000: ff71 003e 524d 653d b990 bcbd 7761 ec3d
00000010: efef 2ebe 4323 51bd 10c0 e0bb 219e 07be
00000020: 5769 943e 512a 053d f1f5 c83d eb02 173e
00000030: 8f5a 183e b8be 0bbe 63d9 0f3d 179f c13d
00000040: 4197 4abd 057d d33d 8a1a 023d 4b2c 55be
00000050: 0c71 4c3d 74dd 0c3e 3950 92ba 6759 49bd
00000060: 0590 6dbd cc8c 03be 7e0d debb 406f f1bc
00000070: 6ed4 4cbe 5a69 b9bd 3b02 20be 4a1d 50be
00000080: e757 c1bd fa6c d3bd c720 153e 29c8 90bd
00000090: e26b 37bd 2166 a23c 4eda 2cbe e4ae b4bd
000000a0: 6fab 89bd 47a8 3ebc 8aa4 8cbd 6a84 9cbc
000000b0: b845 f5bd e93d 49bd 9b4f 37be 352e e43d
000000c0: cc33 6cbc 98ea 683c e888 e7bd 982e d6bd
000000d0: 7a90 c9bc fa4e f13c 0733 783d ed3f 183e
000000e0: 6fa5 413d e34b a63d 17a6 72be c069 72bd
000000f0: b19c 5cbe b9b4 553e 6813 30be ce5b 643b

bn3.running_mean f4 [64]
0.21816373 1.1838567 0.54851145 0.74899083 0.51837206 0.2374182 0.49804616 0.3420815
0.66062325 0.69478905 0.7159383 1.140126 0.63949126 0.23294924 0.91463774 0.8222383
0.6594167 0.44247591 1.7486014 0.48423812 0.5136684 0.90338856 0.3600391 0.33998078
0.5045602 0.66592383 0.4736369 0.6744592 0.46217063 0.31971294 0.24891242 0.3078833
0.43882275 0.6280247 0.6931886 0.6962187 0.7104206 0.44858536 0.56922114 0.38357666
0.4758875 0.7809026 0.6796045 0.4408765 0.6408361 0.5531793 0.57365257 1.3241557
0.6894852 0.44357222 0.66606057 0.19020988 0.26160836 0.5457421 1.4857895 0.39554244
0.49456164 0.7725234 0.5416148 0.5599842 0.89847773 1.3020952 0.4439321 0.5770864
00000000: 5066 5f3e 9e88 973f 3f6b 0c3f ddbd 3f3f
00000010: 08b4 043f c21d 733e e8ff fe3e 4e25 af3e
00000020: 9b1e 293f b2dd 313f bc47 373f a6ef 913f
00000030: b3b5 233f 3f8a 6e3e b325 6a3f 367e 523f
00000040: 88cf 283f 348c e23e 2cd2 df3f 0fee f73e
00000050: c67f 033f 7944 673f 0b57 b83e f611 ae3e
00000060: db2a 013f fc79 2a3f 8980 f23e 5ca9 2c3f
00000070: a1a1 ec3e 6ab1 a33e e6e2 7e3e e1a2 9d3e
00000080: 60ad e03e 3ac6 203f cf74 313f 643b 323f
00000090: 20de 353f fbac e53e 7ab8 113f 2964 c43e
000000a0: 87a7 f33e 3ce9 473f 8ffa 2d3f 91ba e13e
000000b0: d60d 243f 299d 0d3f e5da 123f ef7d a93f
000000c0: 1a82 303f e61b e33e f282 2a3f 61c6 423e
000000d0: 88f1 853e c1b5 0b3f 5a2e be3f 8a84 ca3e
000000e0: 2f37 fd3e 18c4 453f 44a7 0a3f 205b 0f3f
000000f0: a302 663f 0eab a63f 114b e33e efbb 133f

bn3.running_var f4 [64]
0.4601894 4.4665513 1.1246837 2.3257904 1.4810237 0.4396327 1.0702373 0.6215125
2.1066365 1.4386826 2.5147963 3.5346107 2.5597696 0.50987476 3.3830466 2.2131476
1.5488915 1.322782 7.036986 0.9199169 2.06618 3.421933 0.8130107 0.6602977
1.086679 1.8346909 1.2532252 2.2208645 1.0629833 0.7123444 0.3333327 0.45734435
0.9692001 2.035886 2.713536 1.8102793 1.8539381 1.1558965 1.617905 0.8422594
1.3109598 2.3740282 1.8510089 1.1232288 1.5438992 1.7789732 1.3633294 5.2819157
1.9096149 1.2365491 1.5068645 0.44997996 0.7174471 1.8034563 7.369559 0.9089481
1.5747446 2.29597 0.93787676 1.6435081 2.8936822 5.389579 1.0917763 2.2122123
00000000: f29d eb3e fded 8e40 a3f5 8f3f c0d9 1440
00000010: 2f92 bd3f 8a17 e13e 89fd 883f 711b 1f3f
00000020: 22d3 0640 c026 b83f 6cf2 2040 1037 6240
00000030: 44d3 2340 2787 023f d683 5840 36a4 0d40
00000040: 1442 c63f ec50 a93f fd2e e140 ad7f 6b3f
00000050: 4b3c 0440 f300 5b40 7821 503f 4509 293f
00000060: 4c18 8b3f 27d7 ea3f af69 a03f a522 0e40
00000070: d60f 883f 345c 363f 95aa aa3e 0a29 ea3e
00000080: 7f1d 783f f54b 0240 93aa 2d40 3bb7 e73f
00000090: d84d ed3f 6bf4 933f 8317 cf3f 509e 573f
000000a0: 88cd a73f 14f0 1740 dced ec3f f6c5 8f3f
000000b0: 7d9e c53f 65b5 e33f 9481 ae3f 7405 a940
000000c0: 436e f43f 3e47 9e3f f0e0 c03f c663 e63e
000000d0: 9daa 373f a8d7 e63f 6dd3 eb40 d3b0 683f
000000e0: 3b91 c93f 2cf1 1240 b118 703f 795e d23f
000000f0: 1732 3940 6e77 ac40 53bf 8b3f e394 0d40

fc2.weight f4 [8, 64]
0.37340686 0.091111004 0.020472998 0.14175625 -0.12663268 -0.16053313 -0.17654331 -0.25084677
0.19089097 -0.26431024 -0.2992182 0.17809312 0.24706838 0.20899759 0.21075456 0.16300796
0.13532555 0.111400664 0.17928694 -0.20640154 -0.08212367 -0.106604815 -0.1556662 0.07639433
-0.020040361 0.047120277 -0.08387544 0.23483418 -0.006662168 -0.33032972 -0.023940274 0.13670456
-0.40205276 -0.0077395616 0.32788554 0.078649014 -0.15274866 -0.03214251 0.21338192 -0.13294484
0.1942002 -0.006994199 -0.12191447 -0.32133988 -0.17915867 0.12346244 -0.13190316 0.1565977
-0.06554212 0.2569298 0.11143825 -0.026666861 -0.23993485 -0.23081313 0.08926326 0.02122556
0.05370095 0.14129178 0.04437874 0.074742906 -0.14102736 -0.059289224 -0.1449474 0.056380156
0.0049036588 0.035361893 -0.23987617 -0.06208517 -0.17432086 0.13319172 -0.29155546 0.31219912
0.26340967 0.042632055 0.040162567 0.20722587 0.1373384 -0.084639065 -0.15946345 0.2809645
-0.063867904 -0.2437553 0.10584594 -0.135509 -0.060388405 0.12024431 -0.06577731 0.046919663
-0.13566275 -0.3105684 0.116917185 0.013632147 0.03154096 0.2703743 0.124648586 -0.16093443
0.052147772 0.13318588 -0.19613798 -0.0075090188 0.15337378 -0.0873116 0.15866414 0.094786644
-0.21252944 -0.16264947 -0.0943781 0.14440127 -0.103346914 -0.03082384 -0.07972094 0.1179991
-0.001789256 0.023344114 -0.06554342 0.23143788 0.16826938 0.17540233 -0.19105676 0.20273715
-0.103569016 -0.061044894 -0.14856939 -0.14706038 0.027916037 0.14841932 -0.121074595 0.16202652
0.18457086 0.04875419 0.01250891 0.07677366 -0.26420107 -0.009361312 -0.020935727 -0.07644112
0.2622061 0.31415272 0.39765763 -0.17311004 0.36442706 -0.05344556 0.041344337 -0.17046511
0.037873406 -0.07015927 0.0023622762 -0.17914626 0.16909812 0.1916071 0.27287295 -0.036223795
0.04861272 -0.08648172 0.34834322 -0.21853288 -0.11441194 -0.056206346 0.041341554 -0.17023185
0.022025926 -0.22656442 0.10903146 -0.17197469 0.2578925 0.028741807 -0.13337812 -0.057119664
-0.083305165 -0.05071263 0.16130893 -0.09331296 -0.101479374 0.030535992 -0.13419457 0.18609019
-0.22522709 -0.19707936 -0.29401717 -0.2079239 0.15476355 0.020188728 0.16626121 0.26841092
0.2773459 0.20353246 -0.06557437 -0.24827164 -0.037431773 0.19343475 0.0026626296 -0.23084624
-0.12330882 -0.22259401 -0.28288305 0.09348649 -0.080495715 0.27651954 0.053401668 -0.05421287
0.16364606 -0.1926115 0.13173118 0.0057033054 -0.19446063 0.117331855 -0.27393177 0.16532497
-0.27234426 0.24247499 0.010280105 -0.17205884 0.43395758 0.00801712 0.080154754 -0.30084622
-0.36443332 -0.027992807 0.01763327 0.21179578 -0.05911813 0.055631053 -0.17636883 -0.08422826
0.07231742 -0.024641832 0.1592922 0.11925545 -0.18015106 -0.17182936 -0.16903622 0.23641163
-0.14648797 0.05976599 -0.12843183 0.048645243 -0.080232464 0.23797388 0.19463393 -0.24289195
-0.10023073 0.098408766 0.15240587 0.09123901 0.030831678 0.1165231 -0.052597698 0.097492285
-0.20901728 0.23855542 0.23762967 -0.02967968 0.049843 0.19266127 0.07352078 -0.10945661
00000000: 2f2f bf3e 6898 ba3d fdb6 a73c 8d28 113e
00000010: ffab 01be cc62 24be c5c7 34be fd6e 80be
00000020: ec78 433e ac53 87be 2133 99be 0b5e 363e
00000030: 7eff 7c3e 7703 563e 0bd0 573e 8feb 263e
00000040: c892 0a3e 0826 e43d ff96 373e ed5a 53be
00000050: 7430 a8bd a053 dabd f666 1fbe a174 9c3d
00000060: af2b a4bc 3101 413d e3c6 abbd 5f78 703e
00000070: 514e dabb fa20 a9be 651e c4bc 48fc 0b3e
00000080: dcd9 cdbe 269c fdbb 9de0 a73e bc12 a13d
00000090: 256a 1cbe dda7 03bd ca80 5a3e b122 08be
000000a0: 6bdc 463e 982f e5bb 4bae f9bd a986 a4be
000000b0: 5f75 37be e0d9 fc3d 9f11 07be 265b 203e
000000c0: f23a 86bd 4e8c 833e bd39 e43d 7674 dabc
000000d0: 7bb1 75be 475a 6cbe a8cf b63d 3ae1 ad3c
000000e0: 87f5 5b3d cbae 103e 7bc6 353d cf12 993d
000000f0: 7a69 10be 42d9 72bd 176d 14be e1ee 663d
00000100: dfae a03b a2d7 103d 19a2 75be 054d 7ebd
00000110: 2b81 32be 6963 083e c246 95be 90d8 9f3e
00000120: a2dd 863e f39e 2e3d 8181 243d 0533 543e
00000130: 70a2 0c3e 3f57 adbd 634a 23be 94da 8f3e
00000140: 2dcd 82bd fd9a 79be c2c5 d83d dfc2 0abe
00000150: d559 77bd a642 f63d 41b6 86bd d52e 403d
00000160: 2deb 0abe d202 9fbe 4772 ef3d 5e59 5f3c
00000170: 1831 013d 806e 8a3e c247 ff3d ffcb 24be
00000180: e798 553d e161 083e 65d8 48be 370e f6bb
00000190: 040e 1d3e 6dd0 b2bd da78 223e 801f c23d
000001a0: 51a1 59be 958d 26be 4e49 c1bd eddd 133e
000001b0: 8ca7 d3bd 4782 fcbc bb44 a3bd 83a9 f13d
000001c0: 7885 eaba 283c bf3c a13b 86bd 0dfe 6c3e
000001d0: cf4e 2c3e ab9c 333e 62a4 43be 549a 4f3e
000001e0: fe1b d4bd 360a 7abd 9322 18be ff96 16be
000001f0: 2cb0 e43c 3cfb 173e f5f5 f7bd 48ea 253e
00000200: 2500 3d3e 79b2 473d 2cf2 4c3c 823b 9d3d
00000210: 5d45 87be 3060 19bc 6781 abbc 298d 9cbd
00000220: e13f 863e a0d8 a03e c899 cb3e c243 31be
00000230: 2f96 ba3e bbe9 5abd ae58 293d 688e 2ebe
00000240: 2521 1b3d aaaf 8fbd 6bd0 1a3b 1e72 37be
00000250: 0f28 2d3e a734 443e 01b6 8b3e 675f 14bd
00000260: 221e 473d 541d b1bd 0b5a b23e 15c7 5fbe
00000270: cf50 eabd a038 66bd c355 293d 4251 2ebe
00000280: b76f b43c 8100 68be e34b df3d 221a 30be
00000290: 7c0a 843e f073 eb3c 4694 08be 4ff6 69bd
000002a0: e69b aabd 0cb8 4fbd 2b2e 253e dd1a bfbd
000002b0: 6bd4 cfbd 9e26 fa3c 4d6a 09be 6d8e 3e3e
000002c0: eea1 66be 2ccf 49be 6b89 96be 01ea 54be
000002d0: 567a 1e3e d562 a53c 6140 2a3e 286d 893e
000002e0: 4800 8e3e d06a 503e db4b 86bd ec3a 7ebe
000002f0: 0f52 19bd c213 463e 837f 2e3b f562 6cbe
00000300: 5689 fcbd afef 63be 0cd6 90be d875 bf3d
00000310: f0da a4bd f893 8d3e b5bb 5a3d 500e 5ebd
00000320: d592 273e f33b 45be 8ae4 063e cbe2 ba3b
00000330: b020 47be af4b f03d c940 8cbe f34a 293e
00000340: b570 8bbe 5d4b 783e e36d 283c 3130 30be
00000350: b02f de3e 3d5a 033c 2d28 a43d 8408 9abe
00000360: 0197 babe 2c51 e5bc a673 903c fee0 583e
00000370: da25 72bd 63dd 633d 089a 34be de7f acbd
00000380: 281b 943d abdd c9bc 7f1d 233e 343c f43d
00000390: 8579 38be 09f4 2fbe d517 2dbe e415 723e
000003a0: f100 16be 2fcd 743d a283 03be 3c40 473d
000003b0: eb50 a4bd 6daf 733e 1e4e 473e abb8 78be
000003c0: c545 cdbd 898a c93d 4910 1c3e 85db ba3d
000003d0: b792 fc3c aaa3 ee3d af70 57bd 09aa c73d
000003e0: a008 56be df47 743e 3155 733e cd22 f3bc
000003f0: 2c28 4c3d ff48 453e 1092 963d ca2a e0bd

fc2.bias f4 [8]
-0.02156736 0.18733017 0.012619102 0.017131366 0.008154965 -0.003798551 -0.01171696 0.09477978
00000000: 08ae b0bc 7bd3 3f3e 5ac0 4e3c 1457 8c3c
00000010: 679c 053c 1cf1 78bb 7ef8 3fbc e71b c23d

fc3.weight f4 [5, 8]
0.10873868 -0.7873519 0.6161035 0.16830425 0.47437802 -0.32398194 -0.27251375 -0.5750062
-0.63723046 0.40554747 -0.19301401 -0.5017054 0.3988222 0.5118759 -0.46074095 0.33668175
0.79447633 -0.5657012 -0.8517846 -0.17283803 0.45852485 0.043047618 -0.04352797 0.25691125
0.065054744 0.41172883 0.31516284 -0.41834494 -0.572275 0.02691676 0.6998396 -0.65288126
-0.2971775 0.12365912 -0.13205735 0.46110114 -0.39738122 -0.82042646 0.2216556 0.34261966
00000000: 63b2 de3d e58f 49bf f5b8 1d3f f357 2c3e
00000010: ade1 f23e f6e0 a5be ec86 8bbe 9b33 13bf
00000020: 8921 23bf eba3 cf3e 77a5 45be c46f 00bf
00000030: 6c32 cc3e 4d0a 033f 3de6 ebbe 8d61 ac3e
00000040: cd62 4b3f cbd1 10bf 8e0e 5abf 74fc 30be
00000050: c5c3 ea3e b352 303d 624a 32bd df89 833e
00000060: 6c3b 853d 1fce d23e 065d a13e 4f31 d6be
00000070: 9d80 12bf 8980 dc3c b028 333f 3a23 27bf
00000080: a627 98be fe40 fd3d 0b3a 07be 7315 ec3e
00000090: 8d75 cbbe 7807 52bf b0f9 623e d86b af3e

fc3.bias f4 [5]
0.107280985 -0.17437822 0.004677106 -0.09365514 -0.14364825
00000000: 22b6 db3d 3490 32be 6942 993b 44ce bfbd
00000010: 8718 13be
