tuning_results/best_models_during_tuning_lightning_logs/ec_stand_GCN_best_model_logs/checkpoints/epoch=3385-train_loss=0.78-train_f1=0.72-val_loss=1.87-val_f1=0.34.ckpt (torch, 56770 bytes, 22 tensors)

conv1.bias f4 [64]
-0.010305372 -0.016425323 -0.04846731 -0.0035111771 -0.04007822 -0.05828304 0.016444277 -0.060313627
-0.025951108 -0.011065352 0.045382548 -0.026903486 -0.013958839 0.007887275 0.018509755 0.042604543
0.008227962 -0.063479885 -0.005945927 -0.026585557 0.0024646318 0.005581685 0.009675203 -0.0035078814
-0.011140136 0.008160404 -0.070874475 -0.04518524 0.018886993 -0.023488326 0.039299242 -0.06382856
0.028175477 0.0005496303 0.00912636 -0.04995076 0.049565256 -0.012857425 -0.0130396 -0.011587153
-0.06491312 0.0007825656 0.06024242 0.0028644237 0.00951458 0.03905255 0.08781519 -0.03062752
-0.029863628 0.015916731 0.013693688 -0.03628461 -0.043838523 -0.0013154618 0.019887358 -0.012668246
-0.019144233 0.032436628 0.0110973315 -0.02334331 -0.016990531 -0.008032733 0.059853625 -0.00043205643
00000000: ddd7 28bc 668e 86bc a885 46bd c71b 66bb
00000010: 0f29 24bd 32ba 6ebd 26b6 863c 6c0b 77bd
00000020: 6b97 d4bc 734b 35bc 0de3 393d b364 dcbc
00000030: 9db3 64bc a139 013c c5a1 973c 1a82 2e3d
00000040: 93ce 063c be01 82bd 0dd6 c2bb f4c9 d9bc
00000050: a985 213b 91e6 b63b be84 1e3c 7ce4 65bb
00000060: 1e85 36bc 37b3 053c a326 91bd 2914 39bd
00000070: e5b8 9a3c 976a c0bc 3ef8 203d 8cb8 82bd
00000080: 42d0 e63c 1115 103a ba86 153c 2b99 4cbd
00000090: f004 4b3d f3a7 52bc 0ca4 55bc 0bd8 3dbc
000000a0: 2bf1 84bd 1725 4d3a c1c0 763d 0eb9 3b3b
000000b0: 0ae3 1b3c 91f5 1f3d 73d8 b33d 91e6 fabc
000000c0: 91a4 f4bc ce63 823c 7e5b 603c 2c9f 14bd
000000d0: 0690 33bd 936b acba d0ea a23c 7a8e 4fbc
000000e0: 5ed4 9cbc 45dc 043d 95d1 353c 783a bfbc
000000f0: ba2f 8bbc b99b 03bc 1329 753d a285 e2b9

conv1.lin.weight f4 [64, 25]
-0.024902992 0.24653606 0.14307082 -0.05754344 -0.103293404 0.16546169 -0.04298371 0.18905906
0.13469917 -0.01126717 0.14271577 0.012731512 -0.14573477 0.087580845 -0.26674306 -0.14186113
-0.080083184 -0.105098754 0.2204515 0.20591357 -0.032317944 0.10028264 0.22029051 0.123461336
-0.12213429 -0.10596608 -0.1710131 0.24664854 0.15817499 -0.23339017 0.12528016 0.18398196
0.13447453 0.15218164 -0.21775456 -0.010783499 0.054457333 0.21834268 -0.1910437 0.14256798
-0.24244185 -0.01668968 0.2695048 0.081686616 -0.22293042 0.081574224 -0.06601568 0.15562506
0.06887104 -0.055559497 -0.012474456 0.008661698 -0.16243418 -0.020784391 -0.1949015 -0.19233474
-0.1671083 -0.14237882 0.14881957 0.017954648 -0.2105985 -0.114477776 -0.17876877 -0.25819874
-0.10426142 -0.18094867 -0.22139046 0.12963574 -0.09678651 -0.25649792 0.045711167 -0.09097586
-0.24751319 -0.027545232 0.18041523 0.22650726 0.03284705 -0.07259266 -0.21588652 -0.16329393
-0.27098915 -0.19317102 -0.043252982 0.15826382 0.20175928 0.20671235 -0.09958152 -0.17804289
0.07207239 -0.21478708 0.27541074 0.002533613 -0.07574888 -0.21092305 0.094834395 -0.12618904
-0.1781322 0.18321776 0.039158966 -0.16913982 0.08484521 -0.12652941 -0.24054985 0.007780654
-0.15033877 -0.09202693 0.21082906 0.1305149 0.2273635 -0.012653515 -0.03843665 -0.1041554
0.14733475 -0.19584821 0.23965688 -0.22363903 0.19165243 0.03327217 -0.11137614 -0.122845516
0.15735151 -0.049718652 0.03210521 0.21358778 -0.19652364 0.14991724 0.021645382 -0.11264335
-0.0740435 -0.005768707 0.05428748 -0.24584407 0.18763323 0.05060486 -0.014500024 0.2534664
-0.0023325237 0.064561725 0.06691855 0.10169033 -0.21803527 -0.26287422 -0.113162026 -0.024027605
0.07946366 -0.13923955 -0.12534986 0.14309978 0.14067225 -0.18333268 -0.106776424 0.08129861
-0.2358018 -0.2498642 -0.096640304 -0.010661432 0.17860834 -0.26226267 -0.123544216 0.23120035
-0.07226042 0.25069457 -0.034914456 -0.15655646 0.16736856 0.015676593 -0.062518984 -0.12726669
-0.009476305 0.1105877 0.037770152 0.07353723 0.31468317 -0.17326964 0.1817985 0.13828278
-0.020402063 -0.21660714 -0.27568167 0.21892352 -0.14031038 0.1227866 -0.09747172 0.09914221
-0.13716431 0.016432337 -0.24613442 -0.124810584 -0.14803214 -0.142355 -0.2177743 -0.2261029
0.03209852 0.06251593 -0.21700917 0.017839395 -0.21031885 0.14053263 -0.14518476 -0.014657734
-0.19418614 -0.110264845 -0.07984935 -0.24390946 -0.041203257 -0.20708965 -0.08713776 -0.12255428
0.049205963 0.21715823 0.02384529 0.0060744104 0.11406846 0.1472314 -0.16259524 0.1207005
0.16275327 0.05553962 -0.047662493 -0.019818824 0.19159064 -0.020476159 0.20321187 0.20487554
-0.1624834 0.23764092 0.26775342 -0.17369562 -0.07412382 0.19745259 0.25641143 -0.22517997
-0.18244348 0.22189395 0.14897619 0.087709785 0.12706266 -0.2559067 0.2602844 -0.13538527
-0.22631122 -0.08496022 -0.1131155 0.11352517 -0.12647709 0.20512192 0.2684863 0.08387545
-0.13733925 0.23779789 0.01287221 -0.080740504 -0.111270994 0.030332642 0.11881694 -0.06449888
00000000: 5c01 ccbc f373 7c3e 2881 123e acb2 6bbd
00000010: 7e8b d3bd ca6e 293e b00f 30bd b398 413e
00000020: 94ee 093e f099 38bc 1524 123e d597 503c
00000030: 7f3b 15be 965d b33d 8c92 88be 0b44 11be
00000040: a702 a4bd 043e d7bd 0abe 613e 02db 523e
00000050: d25f 04bd fc60 cd3d d693 613e 4cd9 fc3d
00000060: 8b21 fabd bf04 d9bd 0f1e 2fbe 6f91 7c3e
00000070: a0f8 213e d5fd 6ebe 7149 003e c465 3c3e
00000080: b1b3 093e 81d5 1b3e 0dfb 5ebe 46ad 30bc
00000090: a70e 5f3d 3995 5f3e f6a0 43be 57fd 113e
000000a0: ad42 78be ccb8 88bc 88fc 893e 504b a73d
000000b0: df47 64be 6310 a73d 3b33 87bd 2d5c 1f3e
000000c0: 430c 8d3d 5b92 63bd a961 4cbc cbe9 0d3c
000000d0: 2555 26be 0744 aabc 4294 47be 66f3 44be
000000e0: 701e 2bbe c1cb 11be 2864 183e a015 933c
000000f0: 22a7 57be 5373 eabd 290f 37be a032 84be
00000100: 0387 d5bd 9c4a 39be 2eb4 62be 3bbf 043e
00000110: 0138 c6bd b253 83be a23b 3b3d 8d51 babd
00000120: 1974 7dbe 8aa6 e1bc c5be 383e 85f1 673e
00000130: a18a 063d 76ab 94bd 5b11 5dbe 8636 27be
00000140: 17bf 8abe a0ce 45be 0a2a 31bd e90f 223e
00000150: fc99 4e3e 67ac 533e 65f1 cbbd e050 36be
00000160: b09a 933d 25f1 5bbe a302 8d3e f90a 263b
00000170: 3b22 9bbd 36fc 57be 8938 c23d b337 01be
00000180: 4a68 36be 709d 3b3e 2765 203d fd32 2dbe
00000190: 53c3 ad3d ed90 01be b352 76be dbf4 fe3b
000001a0: 68f2 19be 9d78 bcbd 93e3 573e b3a5 053e
000001b0: fad1 683e b050 4fbc c06f 1dbd 6d4f d5bd
000001c0: ecde 163e 6f8c 48be 9d68 753e a101 65be
000001d0: 8940 443e 6648 083d 2c19 e4bd 6e96 fbbd
000001e0: c120 213e c9a5 4bbd c180 033d c1b6 5a3e
000001f0: 7e3d 49be e883 193e a851 b13c 8fb1 e6bd
00000200: 1ea4 97bd 6c07 bdbb 8c5c 5e3d 8cbe 7bbe
00000210: ed22 403e 0b47 4f3d 8291 6dbc 59c6 813e
00000220: 41dd 18bb f038 843d 980c 893d 0543 d03d
00000230: a344 5fbe 7397 86be 7ec1 e7bd 8ad5 c4bc
00000240: d8bd a23d d094 0ebe b75b 00be c088 123e
00000250: 630c 103e 90bb 3bbe 99ad dabd e37f a63d
00000260: 0776 71be 67dc 7fbe 5aeb c5bd 49ad 2ebc
00000270: 1be5 363e 4b47 86be c004 fdbd c9bf 6c3e
00000280: 45fd 93bd 0a5b 803e 7602 0fbd 5650 20be
00000290: aa62 2b3e 336c 803c f409 80bd 3352 02be
000002a0: 8142 1bbc ce7b e23d e0b4 1a3d b09a 963d
000002b0: 271e a13e 996d 31be 6329 3a3e 009a 0d3e
000002c0: 3a22 a7bc 43ce 5dbe 2626 8dbe 7d2d 603e
000002d0: 86ad 0fbe 8a77 fb3d 419f c7bd 120b cb3d
000002e0: cd74 0cbe 1c9d 863c a90a 7cbe b19c ffbd
000002f0: bd95 17be 82c5 11be 3a00 5fbe 8587 67be
00000300: bd79 033d 5a08 803d a737 5ebe ec23 923c
00000310: d35d 57be c9e7 0f3e 50ab 14be fe26 70bc
00000320: bbd8 46be 89d2 e1bd 0e88 a3bd 67c3 79be
00000330: bfc4 28bd 4f0f 54be 4875 b2bd bdfd fabd
00000340: 318c 493d ba5e 5e3e 3357 c33c d90b c73b
00000350: ba9c e93d d4c3 163e 5e7f 26be d331 f73d
00000360: cba8 263e 837d 633d bf39 43bd 165b a2bc
00000370: 5630 443e 9ebd a7bc c616 503e e5ca 513e
00000380: 0c62 26be 2458 733e fa16 893e 44dd 31be
00000390: 3bce 97bd 0331 4a3e 5c48 833e 9495 66be
000003a0: 77d2 3abe 2b38 633e 378d 183e 30a1 b33d
000003b0: b71c 023e 3406 83be ff43 853e 70a2 0abe
000003c0: 21be 67be a0ff adbd 19a9 e7bd e27f e83d
000003d0: 3683 01be 7b0b 523e 0977 893e e4c6 ab3d
000003e0: a9a2 0cbe 4a81 733e f6e5 523c 475b a5bd
000003f0: 0ce2 e3bd 297c f83c 4c56 f33d fd17 84bd

bn1.weight f4 [64]
1.0073167 1.0033661 0.9868646 0.9886518 1.0230772 0.9944914 0.98187405 1.0139786
0.992039 0.997278 0.9892629 1.000948 0.99580145 1.0303246 0.9788171 0.9824209
1.010038 1.0091865 1.0031923 1.0186015 0.9889656 0.9823964 0.9930713 0.9866102
0.9878809 0.99157524 1.0157324 1.011671 1.0087897 0.9943525 0.9816929 1.0474541
0.98587626 1.0295591 1.004659 0.9875646 1.0356296 1.0267864 0.97745734 0.98700607
1.010708 0.99751663 0.9805578 0.9771846 1.0162398 0.96153176 1.0036206 0.9869308
1.0050654 1.0079178 1.014004 1.0061399 1.0040772 0.9834843 0.9824581 1.0166072
0.994591 0.97984004 0.99319804 1.0084777 0.9756534 0.9812318 1.0456182 1.0057306
00000000: c1ef 803f 4d6e 803f 29a3 7c3f 4918 7d3f
00000010: 32f4 823f fd96 7e3f 195c 7b3f 0dca 813f
00000020: 45f6 7d3f 9c4d 7f3f 5540 7d3f 101f 803f
00000030: d8ec 7e3f ade1 833f c293 7a3f f07f 7b3f
00000040: ed48 813f 062d 813f 9b68 803f 8961 823f
00000050: d92c 7d3f 557e 7b3f ec39 7e3f 7c92 7c3f
00000060: c3e5 7c3f e0d7 7d3f 8503 823f 6f7e 813f
00000070: 0520 813f e38d 7e3f 3a50 7b3f fa12 863f
00000080: 6362 7c3f 98c8 833f ab98 803f 09d1 7c3f
00000090: 838f 843f bd6d 833f a53a 7a3f 6eac 7c3f
000000a0: e15e 813f 405d 7f3f d605 7b3f c528 7a3f
000000b0: 2514 823f f226 763f a476 803f 7fa7 7c3f
000000c0: fca5 803f 7303 813f e2ca 813f 31c9 803f
000000d0: 9a85 803f a1c5 7b3f 6082 7b3f 2f20 823f
000000e0: 849d 7e3f ccd6 7a3f 3a42 7e3f cc15 813f
000000f0: 6cc4 793f 0232 7b3f d1d6 853f c8bb 803f

bn1.bias f4 [64]
-0.0033059 -0.014162679 0.00017264484 0.009176532 -0.031050121 0.0106600225 0.01165042 0.025757646
0.01539932 0.04856004 -0.02368029 -0.00050085003 -0.016021052 0.01831947 0.0068081412 0.0071929637
0.03186048 0.0278429 0.030388344 -0.00897114 -0.028225766 -0.010100785 -0.02710726 -0.015663633
-0.0059452415 0.033368587 -0.006337775 0.00086756644 0.017668221 0.0039499635 0.016540607 -0.040095396
-0.0021246288 -0.03309536 -0.014267526 -0.0072173215 0.0009516156 0.0037734648 -0.026813766 0.008042195
0.016297761 -0.011964744 0.01768965 0.0138722425 0.026742365 -0.03704415 0.022396998 -0.018047241
-0.038639188 0.032029085 -0.0020444442 -0.038172327 -0.01428978 0.016434807 0.0031178263 0.01071844
-0.016063875 -0.00048012804 0.013608246 0.029876035 -0.012165466 0.014175551 0.007390725 0.0070648002
00000000: cca7 58bb 950a 68bc ff07 3539 2a59 163c
00000010: d35c febc 60a7 2e3c 67e1 3e3c b301 d33c
00000020: 6e4d 7c3c e4e6 463d 2bfd c1bc 7a4b 03ba
00000030: 953e 83bc b712 963c d416 df3b f4b2 eb3b
00000040: 2280 023d cb16 e43c faf0 f83c b0fb 12bc
00000050: b939 e7bc c37d 25bc 0b10 debc 0551 80bc
00000060: 4dd0 c2bb 80ad 083d 1cad cfbb 666d 633a
00000070: f2bc 903c b26e 813b 2b80 873c 123b 24bd
00000080: 5b3d 0bbb 008f 07bd 57c2 69bc 487f ecbb
00000090: d875 793a 3c4c 773b 8ba8 dbbc 69c3 033c
000000a0: e282 853c c607 44bc e3e9 903c 6748 633c
000000b0: ce12 db3c 9bbb 17bd e979 b73c cfd7 93bc
000000c0: 2044 1ebd ee30 033d 15fc 05bb 965a 1cbd
000000d0: ae1f 6abc 4aa2 863c 7254 4c3b 659c 2f3c
000000e0: 6398 83bc b2b9 fbb9 1ff5 5e3c 96be f43c
000000f0: aa51 47bc 9240 683c e52d f23b d77f e73b

bn1.running_mean f4 [64]
0.29090026 0.15055543 0.21289463 0.21676108 0.15862994 0.19060324 0.18749155 0.17280707
0.36230063 0.27248096 0.18699738 0.2079994 0.33280078 0.25540143 0.24480852 0.23736309
0.21288595 0.17197677 0.30401948 0.21324141 0.35993007 0.15258631 0.2708766 0.22452155
0.12241663 0.4228624 0.30129093 0.34014034 0.28511688 0.38695383 0.205316 0.077154875
0.24349491 0.19605021 0.22530292 0.1548947 0.14665736 0.14306152 0.18318526 0.15657921
0.13311844 0.29745156 0.24081674 0.27233768 0.23975348 0.1722519 0.21344163 0.33560893
0.28687745 0.18601364 0.25951597 0.24664026 0.34681162 0.119070776 0.2764873 0.25108576
0.20849928 0.15176632 0.28443545 0.34462208 0.1657146 0.2525841 0.14677101 0.19331968
00000000: e1f0 943e 342b 1a3e 0d01 5a3e 9ef6 5d3e
00000010: e36f 223e 7f2d 433e c9fd 3f3e 56f4 303e
00000020: 787f b93e a082 8b3e 3e7c 3f3e cbfd 543e
00000030: dd64 aa3e fac3 823e 16af 7a3e 4f0f 733e
00000040: c6fe 593e ae1a 303e 71a8 9b3e f55b 5a3e
00000050: c148 b83e 963f 1c3e 56b0 8a3e fae8 653e
00000060: 92b5 fa3d 6c81 d83e ce42 9a3e e026 ae3e
00000070: d7fa 913e d01e c63e 5c3e 523e 6003 9e3d
00000080: bb56 793e 63c1 483e cfb5 663e b79c 1e3e
00000090: 592d 163e b87e 123e eb94 3b3e 4d56 203e
000000a0: 3350 083e 924b 983e aa98 763e d86f 8b3e
000000b0: f081 753e cd62 303e 7190 5a3e efd4 ab3e
000000c0: 9ae1 923e 5c7a 3e3e 47df 843e 448f 7c3e
000000d0: 4b91 b13e 61db f33d be8f 8d3e 508e 803e
000000e0: d680 553e a168 1b3e 86a1 913e 4e72 b03e
000000f0: 17b1 293e b452 813e 244b 163e 98f5 453e

bn1.running_var f4 [64]
0.21601753 0.050279483 0.08204452 0.0975036 0.053998128 0.07409672 0.092858575 0.061896585
0.32541448 0.3903123 0.064999096 0.1310349 0.2764463 0.11420444 0.11541832 0.12506658
0.06756768 0.11643724 0.2630883 0.104168445 0.41008344 0.12029987 0.18236755 0.16684838
0.06341795 0.30438548 0.14598694 0.32631278 0.15839922 0.24543469 0.104629554 0.020446407
0.13022846 0.093624905 0.0734634 0.0664993 0.07451098 0.069921836 0.06238758 0.08286146
0.039052255 0.24018446 0.23944916 0.1908187 0.10043114 0.07487676 0.083603434 0.2209572
0.15171365 0.09373964 0.098328814 0.15316094 0.31166643 0.031610336 0.18678802 0.21972822
0.1779812 0.040096354 0.28391168 0.29280716 0.1287904 0.16744095 0.05877805 0.08387934
00000000: b333 5d3e dcf1 4d3d f506 a83d f8af c73d
00000010: 242d 5d3d 05c0 973d a32c be3d 4687 7d3d
00000020: ba9c a63e 04d7 c73e 3f1e 853d 032e 063e
00000030: 5f8a 8d3e 04e4 e93d 7160 ec3d 7411 003e
00000040: ec60 8a3d a676 ee3d 82b3 863e 4456 d53d
00000050: 75f6 d13e c75f f63d 8fbe 3a3e 4dda 2a3e
00000060: 45e1 813d 6ad8 9b3e 9a7d 153e 7812 a73e
00000070: 6833 223e 3b53 7b3e 0548 d63d 397f a73c
00000080: 9c5a 053e 6abe bf3d fb73 963d c930 883d
00000090: 3699 983d 2e33 8f3d 1e8a 7f3d 45b3 a93d
000000a0: 42f5 1f3d eaf2 753e 2932 753e fa65 433e
000000b0: d7ae cd3d fd58 993d 4738 ab3d 9b42 623e
000000c0: d35a 1b3e 92fa bf3d 9e60 c93d 39d6 1c3e
000000d0: be92 9f3e d779 013d 5c45 3f3e 6f00 613e
000000e0: b440 363e 133c 243d df5c 913e d2ea 953e
000000f0: a1e1 033e a475 2b3e 41c1 703d eec8 ab3d

conv2.bias f4 [64]
0.008332343 -0.00014468665 -0.033328604 -0.023556666 -0.009883669 0.00053260976 -0.008872377 0.01657565
-0.003819918 0.003915113 -0.0076918523 -0.0018927784 -0.011093362 -0.029312722 -0.008393271 -0.015160333
-0.00309922 -0.020247936 0.012750889 -0.03140157 -0.02394505 0.0050147837 0.0012961256 -0.008617543
-0.00039989213 0.0003113549 0.003589801 0.002048642 0.0070660664 -0.011409767 0.011657323 0.008023426
0.0039774776 -0.019299993 0.004287846 -0.0069619347 0.0014074143 0.0032278318 -0.011096866 -0.026745932
-0.023350112 -0.019352999 -0.010145206 0.003200958 0.013363884 -0.008412558 -0.019339642 0.0036911913
-0.023017392 -0.0196649 -0.017878855 -0.0028416442 0.019882718 0.016633969 -0.010191345 -0.0012562658
0.021104144 -0.02530074 -0.010300795 -0.011544411 -5.6603196e-05 -0.017074775 0.0031406502 0.0142270895
00000000: 6184 083c 07b7 17b9 9383 08bd e9f9 c0bc
00000010: 1def 21bc d69e 0b3a 725d 11bc a8c9 873c
00000020: 9757 7abb 594a 803b ef0b fcbb 1b17 f8ba
00000030: efc0 35bc 3c21 f0bc ee83 09bc 0c63 78bc
00000040: 491c 4bbb 00df a5bc 1be9 503c ef9e 00bd
00000050: 6928 c4bc 0e53 a43b c2e2 a93a 9830 0dbc
00000060: 9da8 d1b9 593d a339 de42 6b3b 8242 063b
00000070: 768a e73b 08f0 3abc 5bfe 3e3c b074 033c
00000080: 8055 823b 051b 9ebc 0f81 8c3b f120 e4bb
00000090: fd78 b83a 088a 533b a1cf 35bc 491a dbbc
000000a0: bc48 bfbc 2e8a 9ebc 1438 26bc 2ac7 513b
000000b0: 31f4 5a3c d3d4 09bc 2b6e 9ebc eae7 713b
000000c0: f88e bcbc 4918 a1bc ad76 92bc e13a 3abb
000000d0: 15e1 a23c f643 883c 99f9 26bc 49a9 a4ba
000000e0: 99e2 ac3c 7f43 cfbc aac4 28bc c524 3dbc
000000f0: 3869 6db8 66e0 8bbc 5ed3 4d3b bd18 693c

conv2.lin.weight f4 [64, 64]
0.13535373 0.08929716 0.12345383 -0.10177853 0.1976412 -0.024171028 0.027602397 0.14414002
-0.12645362 -0.053001694 0.0042749867 0.13384661 0.15866712 -0.044129785 -0.0008914326 -0.17323364
-0.19098207 -0.015028698 0.10993798 0.007692757 0.15310305 -0.15591215 0.009985899 -0.100475594
-0.09313389 -0.12942813 0.023304928 -0.20936534 -0.11461171 0.04344575 -0.12485844 -0.16104963
-0.028954256 -0.15071414 -0.0062879873 -0.13535652 0.0540746 0.10583515 0.20074604 0.084063105
-0.13247979 0.114085324 -0.0073350067 -0.12933722 -0.18582487 -0.028627722 -0.1407233 0.19370116
0.18614894 -0.122913614 -0.017417463 0.0060760686 -0.20744033 -0.06655189 -0.008244693 -0.21203426
-0.13534488 -0.06313909 -0.05018956 -0.06833741 0.19207144 0.14476344 -0.11092156 0.1316294
-0.184617 -0.15262423 -0.11521178 -0.09332107 0.122311205 0.20297168 -0.11688177 0.11605578
-0.028700255 -0.16664605 -0.06851778 0.020559812 -0.03338127 -0.032238886 -0.1195138 0.18308742
-0.080902405 0.006010086 -0.014429164 0.11773195 -0.13311014 0.12658912 -0.06635092 0.10017193
0.21770856 0.10237273 -0.11184202 0.115805164 -0.1581085 -0.17935224 0.20754768 0.10523326
0.042336196 0.019603293 -0.10430066 0.19295411 0.09407285 0.20372738 -0.17053342 -0.18806751
-0.15065853 -0.11204483 -0.0408892 0.010463137 -0.023877028 -0.04076616 0.11444513 -0.045361172
0.071775064 -0.20905168 -0.07778356 -0.16101457 -0.17382686 -0.105807185 -0.09502653 -0.024918051
-0.13093328 0.098843545 -0.20833059 0.12694286 -0.10472399 -0.18239516 0.020597488 -0.16356446
0.21559863 -0.118989825 -0.14874715 -0.080125615 -0.114466935 -0.17354852 0.17852564 0.00026123252
-0.18783686 -0.17657425 0.21414058 -0.20695566 0.17244636 0.10198156 -0.16738595 -0.2182565
-0.056110352 0.22067553 0.116510704 0.0590128 -0.03173437 -0.083865 0.10603802 0.026275547
0.07190533 -0.0069235633 0.14164424 0.20612375 0.17776531 -0.047916524 -0.19611219 -0.022152351
0.024487467 -0.101188615 0.1298701 0.07216185 0.21113805 -0.009467343 0.21238975 -0.04712591
-0.06365978 -0.13727312 0.0014546587 -0.17848352 0.04641937 0.15931316 -0.06942303 0.1940041
0.15655138 -0.0913828 -0.0134339295 0.06089981 0.05885676 -0.1688289 0.1306505 -0.09566646
0.02293476 -0.17516123 0.015758723 0.0023238934 -0.19040495 -0.16886131 0.047432926 0.11595621
-0.031364262 -0.10849359 -0.104852356 0.13986254 0.00870244 0.012629023 -0.18024203 0.06490953
-0.06957261 -0.06578895 0.13424335 -0.14508496 -0.05433441 -0.047283307 0.1363257 -0.030331595
-0.14359827 0.054252844 -0.16894324 0.12242211 -0.057506673 0.095083036 -0.21228164 -0.05426875
0.186167 0.07068352 0.078772806 -0.11347359 -0.15740514 0.08785155 0.017289234 0.20529798
0.12894103 -0.18310376 0.13822009 0.03887593 -0.06706858 -0.18243335 0.120878085 -0.13406064
-0.050451744 0.19906297 -0.09645387 -0.07956911 0.20635141 0.17671168 -0.046793852 0.19530465
0.23062588 -0.010232584 -0.07949938 0.079565875 -0.018784966 0.02335114 -0.034046974 -0.07244621
0.21061715 -0.18891132 -0.13444859 -0.038129546 0.18191549 -0.13246666 0.06565884 0.14535865
00000000: 2b9a 0a3e 6ee1 b63d 5dd5 fc3d 4371 d0bd
00000010: 7462 4a3e 5202 c6bc 6c1e e23c 7199 133e
00000020: 0f7d 01be 4e18 59bd 3015 8c3b 160f 093e
00000030: a279 223e 6fc1 34bd 07af 69ba 2964 31be
00000040: ce90 43be ee3a 76bc 2a27 e13d 8613 fc3b
00000050: 0cc7 1c3e 6fa7 1fbe e59b 233c 26c6 cdbd
00000060: fbbc bebd cf88 04be fae9 be3c de63 56be
00000070: 8bb9 eabd 2cf4 313d c8b5 ffbd 32ea 24be
00000080: 7a31 edbc cf54 1abe 760b cebb e69a 0abe
00000090: 547d 5d3d 19c0 d83d 5f90 4d3e 4729 ac3d
000000a0: c8a8 07be 91a5 e93d 7f5a f0bb fa70 04be
000000b0: e048 3ebe af84 eabc c519 10be 9959 463e
000000c0: d49d 3e3e 22ba fbbd 11af 8ebc c219 c73b
000000d0: 3d6b 54be 5b4c 88bd c014 07bc 821f 59be
000000e0: d997 0abe 114f 81bd 9193 4dbd 7cf4 8bbd
000000f0: 60ae 443e de3c 143e d82a e3bd dcc9 063e
00000100: 3d0c 3dbe 8749 1cbe 27f4 ebbd 1e1f bfbd
00000110: 4c7e fa3d cfd7 4f3e b65f efbd a7ae ed3d
00000120: cc1c ebbc 43a5 2abe 0d53 8cbd 0d6d a83c
00000130: ccba 08bd ec0c 04bd a7c3 f4bd 457b 3b3e
00000140: 29b0 a5bd 41f0 c43b 4d68 6cbc 731d f13d
00000150: 064e 08be 94a0 013e fee2 87bd f126 cd3d
00000160: feee 5e3e cba8 d13d 6e0d e5bd 422b ed3d
00000170: 32e7 21be 1da8 37be 6187 543e 8984 d73d
00000180: b868 2d3d 1697 a03c 969b d5bd c395 453e
00000190: 44a9 c03d e99d 503e 50a0 2ebe c594 40be
000001a0: 3b46 1abe c377 e5bd 6f7b 27bd 946d 2b3c
000001b0: c299 c3bc 6bfa 26bd 3562 ea3d a3cc 39bd
000001c0: cefe 923d a511 56be fd4c 9fbd 01e1 24be
000001d0: abff 31be 70b1 d8bd 459d c2bd f120 ccbc
000001e0: 6013 06be 7c6e ca3d 9d54 55be 4ffd 013e
000001f0: 8879 d6bd ccc5 3abe 10bc a83c 717d 27be
00000200: e3c5 5c3e f0b0 f3bd 2c51 18be e618 a4bd
00000210: a46d eabd b4b6 31be 6dcf 363e 09f6 8839
00000220: 4e58 40be e1cf 34be ab47 5b3e 2fec 53be
00000230: c795 303e b5db d03d 3967 2bbe a27e 5fbe
00000240: f8d3 65bd c4f8 613e 2a9d ee3d 68b7 713d
00000250: e6fb 01bd 6ac1 abbd 762a d93d d13f d73c
00000260: 1a43 933d 0fdf e2bb 300b 113e 1b12 533e
00000270: 1c08 363e 1e44 44bd a2d1 48be d978 b5bc
00000280: f199 c83c fa3b cfbd abfc 043e 98c9 933d
00000290: 9334 583e ea1c 1bbc b37c 593e 1907 41bd
000002a0: 0f60 82bd 5391 0cbe 3faa be3a 62c4 36be
000002b0: 3d22 3e3d fd22 233e a92d 8ebd 03a9 463e
000002c0: 014f 203e e826 bbbd fc19 5cbc 1472 793d
000002d0: c913 713d 7ce1 2cbe 3fc9 053e c7ec c3bd
000002e0: aee1 bb3c 775d 33be 7018 813c 764c 183b
000002f0: 84f9 42be fbe9 2cbe 0749 423d 737a ed3d
00000300: d077 00bd e331 debd d5bc d6bd 2038 0f3e
00000310: ae94 0e3c f6e9 4e3c 5e91 38be 4aef 843d
00000320: 167c 8ebd 5bbc 86bd 1777 093e 2791 14be
00000330: c28d 5ebd 24ac 41bd f798 0b3e f779 f8bc
00000340: 6d0b 13be 3b38 5e3d 75ff 2cbe 71b8 fa3d
00000350: 1e8c 6bbd e5ba c23d 5c60 59be e948 5ebd
00000360: 90a2 3e3e 85c2 903d a353 a13d d764 e8bd
00000370: d02e 21be 83eb b33d 27a2 8d3c a239 523e
00000380: 1e09 043e 8d7f 3bbe 9189 0d3e 5e3c 1f3d
00000390: 405b 89bd cfcf 3abe ee8e f73d 3147 09be
000003a0: 7da6 4ebd 2ad7 4b3e 9b89 c5bd 21f5 a2bd
000003b0: c94d 533e e8f3 343e e9aa 3fbd f1fd 473e
000003c0: 3129 6c3e 91a6 27bc 92d0 a2bd 6ff3 a23d
000003d0: eee2 99bc e44a bf3c d774 0bbd ae5e 94bd
000003e0: 06ac 573e f871 41be e4ac 09be ba2d 1cbd
000003f0: 0e48 3a3e 57a5 07be 2478 863d e6d8 143e

bn2.weight f4 [64]
1.0105752 0.9955353 1.0089532 0.98372525 1.0037906 1.0109444 0.9957033 0.98942083
1.0409747 1.0123492 0.9928008 0.9918575 0.9940298 0.99481344 1.0010412 0.98319435
1.016928 0.9984482 0.9849913 1.0087926 1.0120351 0.986835 0.99747574 0.9859337
0.99905497 1.0125921 0.9885572 1.0106366 0.98724324 1.0087433 0.99997497 1.0202593
0.9924118 1.0009913 1.0133018 1.0013183 0.99976426 0.985234 1.0125238 1.0230199
1.0071089 0.9915298 0.99069864 0.98426306 0.9680328 0.99626285 1.0047697 1.0019308
1.0109887 0.99962884 1.0103328 1.0059197 1.0078703 0.9836615 1.0159638 0.9882039
0.98581225 0.97666854 1.0197339 0.99487466 0.9964368 1.01192 0.99133766 0.9848704
00000000: 875a 813f 67db 7e3f 6125 813f 6bd5 7b3f
00000010: 367c 803f a066 813f 69e6 7e3f af4a 7d3f
00000020: a93e 853f a994 813f 3128 7e3f 60ea 7d3f
00000030: bd78 7e3f 18ac 7e3f 1e22 803f a0b2 7b3f
00000040: b22a 823f 4d9a 7f3f 6428 7c3f 1e20 813f
00000050: 5e8a 813f 38a1 7c3f 925a 7f3f 2766 7c3f
00000060: 11c2 7f3f 9e9c 813f 1612 7d3f 8a5c 813f
00000070: f9bb 7c3f 801e 813f 5cfe 7f3f db97 823f
00000080: b30e 7e3f 7c20 803f e0b3 813f 332b 803f
00000090: 8df0 7f3f 4c38 7c3f 619a 813f 51f2 823f
000000a0: f2e8 803f e6d4 7d3f 6d9e 7d3f aaf8 7b3f
000000b0: ffd0 773f 150b 7f3f 4b9c 803f 453f 803f
000000c0: 1468 813f ade7 7f3f 9652 813f fac1 803f
000000d0: e501 813f 3dd1 7b3f 1a0b 823f eefa 7c3f
000000e0: 315e 7c3f f306 7a3f a486 823f 1bb0 7e3f
000000f0: 7b16 7f3f 9886 813f 4ec8 7d3f 7720 7c3f

bn2.bias f4 [64]
-0.007244925 0.005703276 3.909931e-05 -0.007998908 0.015224581 0.006256379 0.0137908505 0.019278243
0.047813457 -0.015208418 0.00566994 0.019861124 0.016485028 0.0153699 0.025770545 0.020642294
0.052763466 0.012780184 -0.01435991 -0.0054366942 0.016321406 0.012857709 -0.009478278 0.015247127
-0.026379779 -0.032898106 0.01031592 0.01311268 0.0006973095 0.009056045 0.0056556975 0.028348127
0.008431975 0.0031971522 0.011405556 -0.006759747 0.020598475 -0.003167534 0.0153656155 0.016854681
0.021645159 0.016459266 0.0029831638 0.000105156825 0.037571784 0.023423197 0.008730037 0.01725339
-0.027492074 -0.0115180975 0.019688617 0.008983877 0.032149155 -0.017825652 -0.01137509 -0.029890465
0.0049316776 0.03406239 -0.0051831724 -0.0014613958 0.023008 -0.010743894 0.01637381 -0.04171829
00000000: d666 edbb 8ce2 ba3b 90fe 2338 da0d 03bc
00000010: 8570 793c 5002 cd3b 05f3 613c 68ed 9d3c
00000020: 0bd8 433d ba2c 79bc e7ca b93b ccb3 a23c
00000030: 9c0b 873c 08d2 7b3c c01c d33c 071a a93c
00000040: 811e 583d fa63 513c d445 6bbc 4c26 b2bb
00000050: 78b4 853c 24a9 523c c84a 1bbc 16cf 793c
00000060: 681a d8bc 2ac0 06bd 1b04 293c 91d6 563c
00000070: a6cb 363a ce5f 143c 6e53 b93b 553a e83c
00000080: 4426 0a3c 5087 513b 5fde 3a3c de80 ddbb
00000090: 22be a83c 6796 4fbb 10c0 7b3c d412 8a3c
000000a0: 3051 b13c 95d5 863c 2f81 433b a487 dc38
000000b0: dfe4 193d 01e2 bf3c 6e08 0f3c fb56 8d3c
000000c0: 0f37 e1bc 67b6 3cbc 064a a13c 1c31 133c
000000d0: d5ae 033d 1a07 92bc 965e 3abc d9dc f4bc
000000e0: e999 a13b 0185 0b3d 9ad7 a9bb 4e8c bfba
000000f0: 467b bc3c 2807 30bc 5e22 863c cce0 2abd

bn2.running_mean f4 [64]
0.4698441 0.3652669 0.2962154 0.27175447 0.33762276 0.24685828 0.46687564 0.40681225
0.262525 0.5061651 0.39401084 0.4250914 0.36711347 0.34431922 0.24604896 0.23913465
0.28094426 0.23499677 0.41348857 0.17761895 0.3097167 0.3873718 0.41168672 0.42976925
0.3677849 0.32594922 0.44260603 0.30921507 0.47168517 0.23206823 0.31170323 0.26817322
0.3648646 0.25299048 0.24348316 0.39088812 0.55318785 0.44547787 0.2368124 0.30647826
0.24740711 0.28051418 0.30021474 0.3337384 0.41851795 0.43590155 0.4247963 0.39934358
0.3520459 0.25074205 0.297316 0.24978362 0.277233 0.503159 0.26393038 0.41717577
0.38386118 0.23089188 0.15521075 0.4347351 0.5052779 0.260927 0.42861307 0.42328748
00000000: 688f f03e 4304 bb3e 8ba9 973e 6723 8b3e
00000010: e4dc ac3e 6bc8 7c3e 530a ef3e b249 d03e
00000020: ad69 863e 0994 013f cabb c93e 94a5 d93e
00000030: 4cf6 bb3e 9c4a b03e 42f4 7b3e b7df 743e
00000040: edd7 8f3e fea2 703e c6b4 d33e bee1 353e
00000050: 3093 9e3e 9955 c63e 9ac8 d23e b70a dc3e
00000060: 4d4e bc3e d1e2 a63e 429d e23e 7051 9e3e
00000070: b880 f13e 4ba3 6d3e 9197 9f3e 004e 893e
00000080: 88cf ba3e f887 813e a653 793e 7d22 c83e
00000090: b89d 0d3f ad15 e43e f37e 723e b8ea 9c3e
000000a0: 4a58 7d3e 8e9f 8f3e bfb5 993e c2df aa3e
000000b0: fc47 d63e 7d2e df3e e77e d93e c376 cc3e
000000c0: 5c3f b43e 4361 803e ce39 983e 47c7 7f3e
000000d0: 7cf1 8d3e 07cf 003f e221 873e 1098 d53e
000000e0: 7489 c43e ec6e 6c3e 91ef 1e3e 9995 de3e
000000f0: e459 013f 3998 853e 2c73 db3e 23b9 d83e

bn2.running_var f4 [64]
0.3259902 0.2277726 0.2010072 0.21574369 0.3457388 0.12240984 0.7201746 0.35510156
0.15614243 0.564521 0.3257394 0.67323744 0.343026 0.2107554 0.19242123 0.22736275
0.26229241 0.14450803 0.29115623 0.07134706 0.2561038 0.26463857 0.39357653 0.5772148
0.3209272 0.17162606 0.713192 0.22207266 0.39415446 0.1636239 0.21403661 0.1427055
0.3255397 0.18667568 0.13249317 0.2269226 0.57606417 0.7461224 0.09747132 0.14675054
0.30375174 0.1603797 0.2131748 0.26323017 0.58585465 0.3880359 0.7445985 0.45472586
0.45968923 0.16101539 0.19723679 0.17570585 0.19822545 0.91954666 0.1931114 0.60793847
0.34455705 0.20774816 0.05685498 0.49500743 0.5265884 0.12761772 0.6242416 0.5212703
00000000: 30e8 a63e 383d 693e d5d4 4d3e eaeb 5c3e
00000010: ad04 b13e 03b2 fa3d 5d5d 383f dfcf b53e
00000020: cde3 1f3e 7384 103f 51c7 a63e 4a59 2c3f
00000030: 1ba1 af3e 43d0 573e 120a 453e c8d1 683e
00000040: 314b 863e eaf9 133e 6e12 953e 681e 923d
00000050: 0a20 833e b57e 873e dd82 c93e 59c4 133f
00000060: 9250 a43e bebe 2f3e c093 363f 0467 633e
00000070: 9dce c93e 068d 273e 6a2c 5b3e 6421 123e
00000080: 24ad a63e e927 3f3e 4aac 073e 665e 683e
00000090: f178 133f e101 3f3f 0b9f c73d c645 163e
000000a0: 5985 9b3e 933a 243e 7f4a 5a3e 1bc6 863e
000000b0: 92fa 153f a4ac c63e 029e 3e3f d4d1 e83e
000000c0: 635c eb3e 38e1 243e 71f8 493e 3cec 333e
000000d0: 9dfb 4a3e 6967 6b3f ffbe 453e dba1 1b3f
000000e0: c869 b03e efbb 543e c4e0 683d 9d71 fd3e
000000f0: 7fce 063f 38ae 023e 4cce 1f3f f871 053f

fc1.weight f4 [64, 64]
-0.046958763 -0.016154502 -0.07332653 -0.021254934 -0.028099325 -0.08649643 0.080997474 -0.06602971
0.13942356 0.031073818 -0.01908067 0.02913839 -0.10842392 -0.027886568 -0.04726014 -0.07225525
0.05124354 -0.060488015 0.065063596 0.08141984 0.08670136 0.1072625 -0.08625161 0.10044696
-0.06845426 0.05019977 0.00087205414 0.06338736 0.06109243 -0.018277323 -0.069309644 0.05311797
-0.064977236 0.042442657 -0.12646921 -0.10505309 -0.10544246 0.0027384243 0.009778717 -0.11495243
-0.01402718 0.06293258 -0.10001583 -0.035340194 -0.03743449 0.12462858 0.0754195 -0.09881323
-0.024011696 -0.017098136 0.11163099 0.09740613 0.015118186 -0.056137376 -0.08811011 0.029554548
0.030115556 0.08907294 0.16446091 -0.032934308 -0.090516135 0.047090292 -0.110062405 0.02365317
0.05064309 -0.051804658 -0.13133624 -0.107818745 -0.09209315 0.10840835 0.11147807 0.055995688
-0.011415498 -0.08972818 0.045197297 -0.07907672 -0.04248544 0.11248988 0.07741959 -0.033130206
0.025252841 -0.12204001 -0.051099893 -0.06957614 -0.006022985 -0.08324032 -0.05632931 0.084603496
-0.13753669 -0.005663567 0.05120686 0.005613556 0.029221358 0.06728969 0.069208965 -0.074349195
0.08249311 0.0337009 0.028068436 -0.08225894 -0.119524054 -0.04212008 -0.014625142 0.019289628
0.010685275 0.05878911 -0.048067972 0.113545716 -0.028156849 0.009792766 -0.11988485 -0.10561751
0.10467013 -0.02971976 -0.03584251 0.08609432 -0.05570316 0.08468662 -0.0019752728 0.024969915
-0.020945722 0.06404168 0.06314202 0.048644934 0.027231267 0.069494024 0.10189532 0.033952687
0.07850956 0.026486011 -0.08946825 0.043190587 -0.0948514 0.11375925 0.07532729 -0.038197726
0.085124955 0.0761063 0.11090948 -0.10885055 -0.073010825 -0.06430063 0.008074477 -0.12521319
-0.013216247 0.03148471 -0.0610166 0.069849186 0.045082927 -0.055761468 0.10163402 -0.010563124
0.12765552 0.06648355 0.06237162 -0.04228967 -0.16457705 0.103454664 0.1066171 0.0798156
0.07515612 -0.10783185 -0.09784098 -0.07696133 0.065522216 0.04669959 0.030325323 0.077581234
-0.09373872 0.050178815 -0.071654506 0.01895667 0.040523563 -0.06904481 0.08985849 0.0017500367
0.06421885 -0.0655529 0.046779722 -0.018620105 -0.03094449 0.045499947 0.12973641 0.0406086
0.11648142 -0.07640478 0.11952299 0.03536448 0.031193761 0.01638868 -0.027905498 0.091703065
0.097445466 -0.061586324 -0.15493844 -0.06397342 0.003986658 -0.08838788 0.007146469 0.073456265
0.11706127 -0.08774542 -0.084205456 -0.12497401 0.051790513 -0.054163408 -0.011529651 0.104464665
0.10601886 0.043048378 -0.10372121 0.1367059 0.023854494 -0.05678926 -0.07278846 -0.03918225
0.1072769 0.059726857 -0.07143956 -0.038426228 -0.021502046 0.06223169 0.048510097 -0.09711214
0.06714063 -0.07587871 0.07974853 0.044065446 0.013838388 0.005789675 -0.063996926 0.0016690696
0.08038894 -0.077108294 -0.10368499 -0.048417825 -0.1182022 -0.008505066 -0.11717137 0.08506688
-0.04846482 -0.027069211 0.037440844 -0.114951886 -0.03437773 0.05644227 -0.12000239 0.10227313
-0.034740563 -0.0031071 0.115740955 0.04905404 0.037880905 0.0036826544 -0.044241577 0.016551485
00000000: d557 40bd 7256 84bc 382c 96bd d41e aebc
00000010: 8e30 e6bc 0a25 b1bd 01e2 a53d 963a 87bd
00000020: 0dc5 0e3e 858e fe3c 114f 9cbc a2b3 ee3c
00000030: 5c0d debd 5f72 e4bc d993 41bd 8ffa 93bd
00000040: bfe4 513d 48c2 77bd 1040 853d 72bf a63d
00000050: 7c90 b13d 71ac db3d afa4 b0bd 23b7 cd3d
00000060: bf31 8cbd 469e 4d3d 909a 643a 3bd1 813d
00000070: 0e3c 7a3d 53ba 95bc 37f2 8dbd 3a92 593d
00000080: c912 85bd 5ad8 2d3d 2581 01be 1326 d7bd
00000090: 37f2 d7bd 2377 333b e936 203c 2e6c ebbd
000000a0: 42d2 65bc cce2 803d 19d5 ccbd e1c0 10bd
000000b0: e854 19bd 453d ff3d 8a75 9a3d 975e cabd
000000c0: 2db4 c4bc 6411 8cbc ca9e e43d dd7c c73d
000000d0: 45b2 773c 4ef0 65bd 1373 b4bd 611c f23c
000000e0: e6b4 f63c e06b b63d 7168 283e 20e6 06bd
000000f0: 8660 b9bd c0e1 403d 6668 e1bd 4bc4 c13c
00000100: 216f 4f3d 1f31 54bd 027d 06be 13d0 dcbd
00000110: 559b bcbd 3205 de3d 9d4e e43d bc5b 653d
00000120: 1208 3bbc 68c3 b7bd cd20 393d faf2 a1bd
00000130: 3605 2ebd 1861 e63d 298e 9e3d 8ab3 07bd
00000140: 0cdf ce3c 1df0 f9bd 1f4e 51bd ef7d 8ebd
00000150: 765c c5bb e779 aabd 90b9 66bd 9944 ad3d
00000160: 6bd6 0cbe 7295 b9bb 49be 513d ecf1 b73b
00000170: a161 ef3c 2dcf 893d 6ebd 8d3d 6444 98bd
00000180: 26f2 a83d f409 0a3d c7ef e53c 6077 a8bd
00000190: 07c9 f4bd 1b86 2cbd 4b9e 6fbc 4805 9e3c
000001a0: 4b11 2f3c dacc 703d ece2 44bd a88a e83d
000001b0: 31a9 e6bc d671 203c 3086 f5bd fe4d d8bd
000001c0: 4b5d d63d db76 f3bc 99cf 12bd 3852 b03d
000001d0: ff28 64bd 2e70 ad3d 9473 01bb b58d cc3c
000001e0: 5d96 abbc 4928 833d 9a50 813d e93f 473d
000001f0: 1b14 df3c e252 8e3d 7eae d03d f911 0b3d
00000200: 9fc9 a03d 31f9 d83c 213b b7bd 9de8 303d
00000210: 7341 c2bd 9cfa e83d 3245 9a3d 3875 1cbd
00000220: fe55 ae3d 9fdd 9b3d 8224 e33d 0aed debd
00000230: b386 95bd 0cb0 83bd d04a 043c e337 00be
00000240: f588 58bc 1cf6 003d 8bec 79bd 170d 8f3d
00000250: e0a8 383d 2366 64bd 7f25 d03d f410 2dbc
00000260: 21b8 023e 8728 883d 6279 7f3d ef37 2dbd
00000270: e386 28be 0ae0 d33d 115a da3d 5c76 a33d
00000280: 74eb 993d f2d6 dcbd da60 c8bd e79d 9dbd
00000290: 8330 863d 1248 3f3d d06c f83c e9e2 9e3d
000002a0: 16fa bfbd 4d88 4d3d 99bf 92bd 054b 9b3c
000002b0: 09fc 253d 5e67 8dbd ba07 b83d 7d61 e53a
000002c0: 2c85 833d 9940 86bd 189c 3f3d 3189 98bc
000002d0: 4d7f fdbc 275e 3a3d 9fd9 043e 3455 263d
000002e0: d08d ee3d 1c7a 9cbd 78c8 f43d 58da 103d
000002f0: 0f8a ff3c 8e41 863c 129a e4bc d1ce bb3d
00000300: 7d91 c73d f141 7cbd 2fa8 1ebe 7f04 83bd
00000310: 83a2 823b b404 b5bd ed2c ea3b 3d70 963d
00000320: d2bd ef3d dfb3 b3bd e973 acbd 60f2 ffbd
00000330: 4a22 543d 73da 5dbd dce6 3cbc 92f1 d53d
00000340: 6b20 d93d 7f53 303d c96b d4bd a2fc 0b3e
00000350: 806a c33c db9b 68bd 1e12 95bd 917d 20bd
00000360: feb3 db3d 26a4 743d e74e 92bd d264 1dbd
00000370: 0f25 b0bc a8e6 7e3d 86b2 463d bbe2 c6bd
00000380: 0781 893d 4c66 9bbd 3353 a33d f87d 343d
00000390: 68ba 623c 50b7 bd3b d210 83bd afc4 da3a
000003a0: f5a2 a43d f4ea 9dbd cc58 d4bd c551 46bd
000003b0: ff13 f2bd d558 0bbc 8bf7 efbd 8b37 ae3d
000003c0: 0c83 46bd 40c0 ddbc 925b 193d e56b ebbd
000003d0: aacf 0cbd 0230 673d d0c3 f5bd 9374 d13d
000003e0: 1f4c 0ebd 7da0 4bbb 9809 ed3d e4ec 483d
000003f0: 0229 1b3d b058 713b a836 35bd fb96 873c

fc1.bias f4 [64]
0.04922447 0.031758726 0.06570437 -0.106066585 -0.07833756 0.03079136 0.063098535 -0.11700663
0.036470618 -0.06532963 0.046883255 -0.10624192 -0.014311591 0.102374844 0.07288108 -0.1014996
-0.07628373 0.058475845 0.02497309 0.03189302 -0.018059753 0.032854464 0.09313942 -0.117351405
0.09555821 0.12136312 0.055759996 0.04038009 -0.064851485 0.021230388 0.033487204 -0.043318674
-0.10271635 0.0745499 0.016409365 0.08420442 -0.10998427 0.0073556155 -0.0456513 -0.037703052
-0.0710321 0.02278325 0.115617014 0.0600026 0.1144009 0.10663091 0.093843855 0.005744149
0.117779605 0.039679516 0.0044013993 0.09897325 -0.023785017 -0.069186464 -0.10267166 0.06063465
0.016284926 0.005107195 0.03929105 -0.047528263 -0.014097795 0.06758583 -0.09641272 -0.018145937
00000000: 999f 493d 7015 023d 0390 863d 7039 d9bd
00000010: 716f a0bd 2a3e fc3c ce39 813d 2ca1 efbd
00000020: 3762 153d 8bcb 85bd a808 403d 5d95 d9bd
00000030: 2a7b 6abc e7a9 d13d ad42 953d 06df cfbd
00000040: a53a 9cbd 5e84 6f3d 5e94 cc3c 41a2 023d
00000050: 0cf2 93bc 6792 063d e1bf be3d ef55 f0bd
00000060: 06b4 c33d 3a8d f83d 9864 643d 9865 253d
00000070: dbd0 84bd 5aeb ad3c e129 093d ec6e 31bd
00000080: f35c d2bd 9ead 983d ef6c 863c 5e73 ac3d
00000090: 6f3f e1bd 6007 f13b dcfc 3abd 846e 1abd
000000a0: 4779 91bd f0a3 ba3c 9dc8 ec3d 49c5 753d
000000b0: 054b ea3d 4e61 da3d 3531 c03d 6a39 bc3b
000000c0: 6f36 f13d fd86 223d 9d39 903b 7db2 ca3d
000000d0: ccd8 c2bc a2b1 8dbd 8545 d2bd 0a5c 783d
000000e0: f767 853c 425a a73b a7ef 203d ffac 42bd
000000f0: 70fa 66bc 716a 8a3d 0874 c5bd caa6 94bc

bn3.weight f4 [64]
1.0485946 1.0242126 1.0361493 1.0353616 1.0383189 1.0348449 1.0042622 1.0025475
1.0036848 1.0123254 1.006537 0.99949837 1.0326791 1.0437655 1.058777 1.0591897
1.008491 1.0682114 1.0243603 1.0856429 1.0351695 1.0129136 1.049949 1.0203595
1.0351611 1.0095804 1.0108069 1.0785439 1.0046253 1.0531037 1.0837713 1.0155044
1.0544798 1.0269322 1.0203098 1.014674 1.0465595 1.0400314 1.0048689 1.0121584
1.0271459 1.104728 1.0166775 1.0064343 1.0735046 1.0438793 1.0061222 1.0715599
1.0385206 1.0401567 1.0320287 1.0825965 0.99632215 1.0395327 1.0394186 1.0062454
1.0507488 1.0935922 1.1089654 1.0314159 1.0376916 1.0084893 1.0217731 1.0496289
00000000: 5938 863f 6619 833f 8aa0 843f bb86 843f
00000010: a2e7 843f cc75 843f aa8b 803f 7a53 803f
00000020: be78 803f e193 813f 34d6 803f 20df 7f3f
00000030: d42e 843f 1c9a 853f 0186 873f 8793 873f
00000040: 3c16 813f 27bb 883f 3d1e 833f 59f6 8a3f
00000050: 6f80 843f 27a7 813f bb64 863f 249b 823f
00000060: 2980 843f ee39 813f 1f62 813f ba0d 8a3f
00000070: 9097 803f 1acc 863f 05b9 8a3f 0cfc 813f
00000080: 32f9 863f 8472 833f 8399 823f d6e0 813f
00000090: a9f5 853f c01f 853f 8b9f 803f 688e 813f
000000a0: 8479 833f ba67 8d3f 7d22 823f d7d2 803f
000000b0: 9968 893f d69d 853f 9dc8 803f e028 893f
000000c0: 3eee 843f db23 853f 8419 843f 8692 8a3f
000000d0: f80e 7f3f 680f 853f ab0b 853f a6cc 803f
000000e0: f07e 863f d4fa 8b3f 94f2 8d3f 7005 843f
000000f0: 14d3 843f 2d16 813f 76c9 823f 3d5a 863f

bn3.bias f4 [64]
-0.03295986 -0.0086943805 -0.044220377 0.015539181 0.06388231 -0.02961544 0.0030895618 -0.031317778
0.037759066 -0.030531606 0.0011439178 0.004664967 0.012005595 0.009449421 -0.0033499086 -0.038181577
0.023889752 -0.0067218626 0.011506635 -4.5368542e-05 -0.0031263893 -0.02317714 -0.032514673 -0.0151576605
0.047121476 0.002335467 0.012875514 0.0054609026 -0.01891471 0.0024890655 -0.033584252 -0.044777058
-0.02941104 -0.055742577 -0.0062397295 0.00027639224 0.029691776 3.4258173e-06 0.021160146 0.020606125
-0.07599168 -0.04305991 0.009276263 0.015131876 -0.037242852 0.024307525 -0.0059053814 -0.042339288
0.003932558 0.010347944 -0.041208796 -0.015572811 0.012893347 -0.022871207 0.0002324312 0.04561924
-0.025780626 0.01837615 -0.01058546 0.04084742 0.014026666 -0.019962559 -0.01557312 -0.047033552
00000000: eb00 07bd e072 0ebc 6d20 35bd 0d98 7e3c
00000010: bbd4 823d 149c f2bc 3f7a 4a3b 1247 00bd
00000020: 40a9 1a3d 6b1d fabc 83ef 953a 94dc 983b
00000030: 1db3 443c bfd1 1a3c 248a 5bbb 4964 1cbd
00000040: 71b4 c33c 1243 dcbb 5386 3c3c 1a4a 3eb8
00000050: 1ce4 4cbb fcdd bdbc 1b2e 05bd d657 78bc
00000060: 7302 413d a20e 193b d2f3 523c 5ff1 b23b
00000070: 06f3 9abc 971f 233b a48f 09bd 2668 37bd
00000080: 6cef f0bc 5452 64bd a576 ccbb bde8 9039
00000090: 2b3c f33c 18e7 6536 0b58 ad3c 2dce a83c
000000a0: 87a1 9bbd 975f 30bd 78fb 173c b0eb 773c
000000b0: f68b 18bd 9320 c73c ee81 c1bb f66b 2dbd
000000c0: b0dc 803b 6c8a 293c 8eca 28bd 1a25 7fbc
000000d0: 9e3e 533c 665c bbbc c6b8 7339 3ddb 3a3d
000000e0: e431 d3bc 9489 963c a36e 2dbc a04f 273d
000000f0: 1ad0 653c 8588 a3bc 6626 7fbc 41a6 40bd

bn3.running_mean f4 [64]
2.0313776 2.0892994 1.9660949 1.718258 1.4058094 1.7335784 3.0548482 2.6160004
2.4710119 1.727631 2.5393503 1.9863688 2.402972 1.2874441 1.2768689 1.5219926
1.660277 1.1941404 1.5682855 1.3851027 2.1865041 1.7891796 1.7216731 1.5639968
1.8330544 2.0100815 1.779646 1.3049484 2.4256876 2.0144863 1.1064663 2.062671
1.4776776 2.0615034 2.2169442 1.9616393 1.8467519 1.4264338 1.6691443 1.7938735
2.4181852 1.4568971 2.1532276 1.9835422 1.3890779 1.4735755 2.2067065 1.1213781
1.2863866 1.4737123 1.509422 1.7554001 1.8564551 1.4028615 1.7891583 1.7391894
1.526505 1.2001276 1.1800336 1.6804513 1.7012292 2.610137 1.6928492 1.706852
00000000: 1702 0240 15b7 0540 ffa8 fb3f e1ef db3f
00000010: 90f1 b33f e6e5 dd3f a282 4340 8d6c 2740
00000020: 0f25 1e40 0323 dd3f b784 2240 5541 fe3f
00000030: 4bca 1940 f8ca a43f 7170 a33f a7d0 c23f
00000040: f583 d43f 98d9 983f 94bd c83f 0c4b b13f
00000050: afef 0b40 d603 e53f c95f dc3f 0c31 c83f
00000060: 87a1 ea3f 2da5 0040 71cb e33f 8d08 a73f
00000070: 773e 1b40 58ed 0040 b0a0 8d3f cd02 0440
00000080: 8a24 bd3f acef 0340 6ae2 0d40 ff16 fb3f
00000090: 5e62 ec3f 6295 b63f 85a6 d53f a69d e53f
000000a0: 8cc3 1a40 9b7b ba3f 7bce 0940 b6e4 fd3f
000000b0: 4ecd b13f 1f9e bc3f ae3a 0d40 5189 8f3f
000000c0: 51a8 a43f 9ba2 bc3f bd34 c13f f3b0 e03f
000000d0: 52a0 ed3f f790 b33f 2403 e53f c29d de3f
000000e0: 8464 c33f c89d 993f 570b 973f 0719 d73f
000000f0: e1c1 d93f 7c0c 2740 48af d83f 207a da3f

bn3.running_var f4 [64]
7.432289 13.339285 17.823381 4.5185685 5.0397024 6.788239 41.185646 19.723415
24.382355 6.2923284 19.843435 11.410993 19.287304 3.4550848 3.4334147 4.672597
6.581187 2.783558 5.2571826 3.7295325 8.512676 8.109649 4.9974675 7.616399
5.7310133 14.655211 8.148389 3.3897414 13.875506 7.7832303 2.266635 11.127826
4.050403 9.465177 7.0920444 6.326124 13.243025 4.9648895 10.550158 6.0564737
10.436663 4.03901 20.252481 8.68039 3.4259818 4.014868 12.424874 2.3918192
3.2655098 5.8898873 4.54846 3.9775457 13.102855 4.7356505 7.2325244 8.700851
5.599442 2.8838954 2.1596923 4.9656644 6.624311 9.432814 8.028908 5.4034133
00000000: 50d5 ed40 b66d 5541 4996 8e41 1d98 9040
00000010: 3e45 a140 4139 d940 1abe 2442 8ec9 9d41
00000020: 100f c341 c15a c940 5bbf 9e41 6d93 3641
00000030: 664c 9a41 1c20 5d40 11bd 5b40 ea85 9540
00000040: 1599 d240 d025 3240 d73a a840 a9b0 6e40
00000050: ec33 0841 1fc1 0141 41eb 9f40 8ab9 f340
00000060: 7664 b740 bf7b 6a41 cd5f 0241 86f1 5840
00000070: 1302 5e41 3910 f940 8c10 1140 930b 3241
00000080: e79c 8140 5d71 1741 07f2 e240 9c6f ca40
00000090: 6ee3 5341 60e0 9e40 72cd 2841 a2ce c140
000000a0: 92fc 2641 923f 8140 1505 a241 e1e2 0a41
000000b0: 4943 5b40 cc79 8040 49cc 4641 9113 1940
000000c0: 1dfe 5040 f579 bc40 fc8c 9140 1c90 7e40
000000d0: 4ba5 5141 738a 9740 d770 e740 b036 0b41
000000e0: a12e b340 be91 3840 6638 0a40 b9e6 9e40
000000f0: 5bfa d340 ceec 1641 6876 0041 c3e8 ac40

fc2.weight f4 [8, 64]
-0.12794037 -0.09667621 -0.19704297 0.042628646 0.05066416 0.1910201 -0.023339111 -0.015605702
0.11432778 -0.034658946 0.11428458 -0.10600022 0.094342805 0.06353551 -0.15950206 -0.016617931
0.12155641 0.00055345084 -0.008776579 -0.049854122 0.10380781 -0.052815348 -0.078888245 0.009602545
0.19692323 0.12447454 -0.13463116 0.3235874 -0.019804582 -0.09123426 -0.21221812 0.038448673
-0.08054783 0.0015687244 -0.03627637 -0.06274826 0.13603032 -0.0019014378 -0.062124472 0.06516611
-0.108875595 -0.23183127 -0.0041826377 0.08408903 -0.13431844 -0.1537974 0.11765541 0.23880172
0.1199551 -0.18105468 -0.0074515888 -0.15500788 0.058832075 -0.013236568 -0.12006919 0.07329116
-0.20415412 -0.082536116 0.064999886 0.18126518 0.02144665 -0.11212759 0.12034486 0.03660772
-0.036948174 0.088938035 0.09486538 -0.039489634 0.16889143 -0.23272164 -0.037286308 -0.10450207
-0.08779279 0.03357493 0.12177446 0.12618075 -0.037140142 -0.06230046 0.19903481 0.09116717
0.054704104 -0.062024776 -0.12578972 -0.06979511 0.08676445 0.024908196 -0.067785256 -0.102018975
-0.043242685 -0.1304846 -0.09060326 -0.17994094 -0.03243524 -0.18218683 0.23796137 -0.107077986
0.076034464 -0.0825475 -0.016227514 0.09660803 0.13012134 -0.0111970045 -0.004794704 -0.008017237
-0.20537503 0.13287541 -0.11443959 -0.09754135 0.05428359 0.10428711 -0.001897245 -0.12460417
-0.120395154 0.08445372 -0.029417 -0.20253453 0.11763077 -0.2110667 -0.07058252 0.062246192
-0.019598804 0.30652058 -0.08759636 0.07920804 -0.01979408 0.05481949 -0.09257887 -0.024605833
0.25626716 -0.19928163 -0.015977439 0.25462195 -0.10513402 -0.013678695 0.10101847 0.032594115
0.028251631 -0.096589044 0.00396911 0.050530687 -0.18698542 -0.24214858 -0.20986283 -0.0970731
0.09303127 -0.2035004 -0.119677894 -0.22726643 0.120753795 0.0074800877 -0.25651962 -0.1823698
0.06445507 -0.019690968 0.017533114 0.016629674 -0.040962305 -0.10216725 -0.17334272 -0.14607331
0.2018023 -0.14960326 -0.13357365 0.011228981 0.25895154 0.1500973 0.112268165 0.08804241
-0.12655854 -0.2361548 0.12720524 -0.031741142 0.2763705 0.07409872 -0.048430495 -0.037050024
0.22170448 0.05933457 -0.08506983 -0.19876783 -0.06149748 0.11292271 0.2083826 0.14514601
-0.087283835 -0.1578983 -0.31654862 -0.14610162 0.1409086 0.0024831393 -0.05854307 -0.05463377
-0.14165588 0.15028237 0.1237773 0.09249994 0.036070712 -0.017726291 0.06811519 -0.00949967
0.011099207 -0.1595718 -0.11794014 0.022782905 0.15758161 -0.045392632 -0.0015132169 -0.20623454
-0.018315403 0.20132689 -0.036551386 0.21873902 -0.057479613 -0.06906349 0.13366982 0.0005778899
-0.017400477 -0.051095124 0.021887511 -0.101605 0.0966409 0.19650583 -0.12109764 0.02563466
-0.03675274 -0.107874356 -0.099368304 -0.076641865 -0.074132696 -0.05180406 0.11076097 0.14244452
-0.06607326 -0.084915206 0.11162809 -0.00064610224 -0.10697296 0.17862953 -0.06903444 -0.21694125
-0.16307141 -0.079655 -0.12177901 -0.036683485 0.03610817 0.10577153 -0.14933634 -0.12568922
0.22880067 -0.19914348 0.10110287 0.09883709 0.118965276 -0.013684215 -0.088457875 -0.20275714
00000000: cd02 03be 2dfe c5bd a2c5 49be 609b 2e3d
00000010: 3985 4f3d c69a 433e aa31 bfbc 0faf 7fbc
00000020: af24 ea3d 8af6 0dbd 090e ea3d a516 d9bd
00000030: cd36 c13d e81e 823d 8254 23be 5422 88bc
00000040: 91f2 f83d 7515 113a a4cb 0fbc d633 4cbd
00000050: 3099 d43d e854 58bd 2990 a1bd fe53 1d3c
00000060: 3ea6 493e 82ec fe3d c0dc 09be 3fad a53e
00000070: 383d a2bc 07d9 babd b54f 59be 5b7c 1d3d
00000080: 43f6 a4bd a89d cd3a 8896 14bd 2982 80bd
00000090: 884b 0b3e aa39 f9ba 3b76 7ebd cf75 853d
000000a0: 2bfa debd 2d65 6dbe 820e 89bb df36 ac3d
000000b0: c68a 09be 117d 1dbe 52f5 f03d 7088 743e
000000c0: 05ab f53d 6666 39be 752c f4bb 63ba 1ebe
000000d0: e7f9 703d 31de 58bc d6e6 f5bd ad19 963d
000000e0: c70d 51be b208 a9bd a91e 853d 949d 393e
000000f0: e3b0 af3c 26a3 e5bd 5e77 f63d faf1 153d
00000100: f856 17bd 2525 b63d c848 c23d e2bf 21bd
00000110: e0f1 2c3e 954e 6ebe 87b9 18bd 2e05 d6bd
00000120: b5cc b3bd de85 093d e364 f93d 8735 013e
00000130: 4320 18bd c42e 7fbd c8cf 4b3e dab5 ba3d
00000140: 6911 603d b10d 7ebd 05cf 00be bdf0 8ebd
00000150: 8fb1 b13d 460c cc3c ffd2 8abd 53ef d0bd
00000160: 3e1f 31bd c19d 05be 348e b9bd 7042 38be
00000170: d0da 04bd 2f8f 3abe 25ac 733e b44b dbbd
00000180: f5b7 9b3d aa0e a9bd 90ef 84bc 6eda c53d
00000190: 873e 053e a473 37bc e41c 9dbb bb5a 03bc
000001a0: d54d 52be 7e10 083e 4e5f eabd c2c3 c7bd
000001b0: 7858 5e3d 7b94 d53d faac f8ba 7930 ffbd
000001c0: bc91 f6bd 12f6 ac3d ecfb f0bc 3665 4fbe
000001d0: 67e8 f03d de21 58be 918d 90bd ddf5 7e3d
000001e0: ac8d a0bc 44f0 9c3e b865 b3bd d337 a23d
000001f0: 3227 a2bc 678a 603d fe99 bdbd 2c92 c9bc
00000200: 7335 833e 7c10 4cbe 1ee3 82bc cf5d 823e
00000210: 8150 d7bd 9b1c 60bc c6e2 ce3d 6881 053d
00000220: f76f e73c 7ad0 c5bd 4f0f 823b 44f9 4e3d
00000230: 1b79 3fbe ccf5 77be 48e6 56be 43ce c6bd
00000240: 2e87 be3d 6962 50be af19 f5bd 88b8 68be
00000250: c44d f73d 861b f53b 8a56 83be 26bf 3abe
00000260: 0501 843d f44e a1bc 9ba1 8f3c f43a 883c
00000270: 17c8 27bd 103d d1bd c180 31be 3e94 15be
00000280: 43a5 4e3e 9931 19be 88c7 08be c3f9 373c
00000290: 4c95 843e 1bb3 193e daec e53d 944f b43d
000002a0: 9098 01be 90d2 71be 1742 023e 0003 02bd
000002b0: 6f80 8d3e 12c1 973d 0e5f 46bd c4c1 17bd
000002c0: 8006 633e ce08 733d 1739 aebd cb89 4bbe
000002d0: c8e4 7bbd 0644 e73d 4062 553e 28a1 143e
000002e0: dec1 b2bd 18b0 21be a912 a2be aa9b 15be
000002f0: 584a 103e 2abc 223b dcca 6fbd a9c7 5fbd
00000300: 3d0e 11be 9fe3 193e f47e fd3d 9c70 bd3d
00000310: e2be 133d ba36 91bc fa7f 8b3d 81a4 1bbc
00000320: 73d9 353c ca66 23be 9a8a f1bd 37a3 ba3c
00000330: 135d 213e a0ed 39bd 2257 c6ba 262f 53be
00000340: 2f0a 96bc a328 4e3e e8b6 15bd 1ffd 5f3e
00000350: be6f 6bbd 2971 8dbd bee0 083e 897d 173a
00000360: 728b 8ebc 1f49 51bd 704d b33c 4816 d0bd
00000370: aaeb c53d d338 493e 0a02 f8bd c7ff d13c
00000380: 0b8a 16bd 3bed dcbd 9c81 cbbd 69f6 9cbd
00000390: e2d2 97bd 7e30 54bd a6d6 e23d fadc 113e
000003a0: 6b51 87bd 06e8 adbd 459d e43d 305f 29ba
000003b0: a414 dbbd a9ea 363e ee61 8dbd d925 5ebe
000003c0: 31fc 26be 2922 a3bd 4667 f9bd 6c41 16bd
000003d0: 29e6 133d be9e d83d a0eb 18be adb4 00be
000003e0: b94a 6a3e 45ec 4bbe 060f cf3d 1a6b ca3d
000003f0: 11a4 f33d c233 60bc 6729 b5bd 919f 4fbe

fc2.bias f4 [8]
0.19239873 0.0777772 0.096060894 0.07526923 -0.015022028 0.13088277 0.26553273 0.1097941
00000000: 2c04 453e a749 9f3d 93bb c43d c126 9a3d
00000010: f41e 76bc 2206 063e e8f3 873e bbdb e03d

fc3.weight f4 [5, 8]
-0.5874255 -0.13394073 -0.4066699 0.77612305 -0.20867771 -0.04797611 0.6851432 -0.011043702
-0.19001961 0.18321127 -0.2718534 0.035839733 -0.4629019 0.50254434 -0.3286464 0.24266109
-0.56982714 0.58617723 0.33662894 -0.13237517 -0.034486588 -0.58200765 0.35633168 0.58980376
0.2577497 -0.26228452 -0.4232931 0.32149252 0.64265203 0.2369947 -0.31334695 -0.11841598
0.29310763 -0.5506543 0.74792975 0.08843028 -0.3923567 -0.32397363 -0.4728222 -0.13579571
00000000: 8461 16bf c227 09be 0a37 d0be 00b0 463f
00000010: 9caf 55be 9982 44bd 8b65 2f3f a5f0 34bc
00000020: 8094 42be bc9b 3b3e 5e30 8bbe afcc 123d
00000030: 7a01 edbe bfa6 003f 5744 a8be 267c 783e
00000040: 31e0 11bf b60f 163f a15a ac3e 5b8d 07be
00000050: cf41 0dbd 74fe 14bf 1b71 b63e 61fd 163f
00000060: c5f7 833e 284a 86be e0b9 d8be ab9a a43e
00000070: d884 243f bdae 723e 036f a0be 1484 f2bd
00000080: 3412 963e aef7 0cbf 5378 3f3f ef1a b53d
00000090: fae2 c8be dfdf a5be c015 f2be 080e 0bbe

fc3.bias f4 [5]
-0.13983767 0.45097107 -0.021460155 0.056614883 0.118695356
00000000: 9b31 0fbe aee5 e63e 35cd afbc 02e5 673d
00000010: 8d16 f33d
