tuning_results/best_models_during_tuning_lightning_logs/ec_stand_GCN_best_model_logs/checkpoints/epoch=108-train_loss=1.53-train_f1=0.19-val_loss=1.55-val_f1=0.36.ckpt (torch, 157362 bytes, 54 tensors)

conv1.bias f4 [64]
000000 3f 49 27 3d 2c 75 13 ba b1 b3 4b bc e1 f8 68 3d
       0.040841337 -0.0005625065 -0.0124329785 0.056877974
000010 d6 6c 90 3a c4 b5 75 3c 8a e1 87 3c 6b 5b 23 bc
       0.0011018764 0.01499695 0.016587038 -0.009970526
000020 7e 69 ae bb b4 43 81 3c 42 76 a2 3b 39 d6 cc 3a
       -0.0053226342 0.015779354 0.004957945 0.0015627808
000030 60 68 49 3c 3e 6c 53 3d 73 00 08 bd e7 44 16 3c
       0.012292951 0.0516169 -0.033203553 0.009171701
000040 d5 7a ef bb 49 16 5f 3c f9 1d f2 3a dd d8 9a 3c
       -0.007308344 0.013616153 0.0018472067 0.018902237
000050 77 df 7f bc 06 56 1a bc a2 0a ae bb d4 05 84 bc
       -0.015617243 -0.009419924 -0.005311326 -0.01611606
000060 6b 57 bf 3c ce 2e ae 3c 2f 38 80 3c da 36 7d 3c
       0.023357114 0.021262553 0.01565179 0.015454972
000070 45 51 5c bb 5f 18 5a bd 5b 23 1d 3d 67 69 41 3c
       -0.0033617776 -0.0532459 0.038363796 0.011804915
000080 6d 0e 0b bd c5 19 81 bc 1e 47 3a 3b b5 34 7b 3c
       -0.033949304 -0.015759358 0.0028423737 0.015332391
000090 28 2d 37 bd 1f c6 47 3c 49 fc a5 3a 60 e4 71 ba
       -0.0447208 0.012193232 0.0012663688 -0.0009227451
0000a0 a5 de 0a 3d f3 c6 9c 3c 29 4e b3 3b 2f a7 06 bd
       0.033903737 0.019137835 0.005471964 -0.032874282
0000b0 86 b5 0d bc 96 80 5a 3c 25 0f 28 3b 11 ff f0 3b
       -0.008649236 0.013336321 0.0025643792 0.007354625
0000c0 25 90 87 bc 6d 33 06 3c b8 e6 a7 3c b6 b4 97 bc
       -0.016548226 0.008190972 0.020495757 -0.018518787
0000d0 fc 4b cc bc c8 6f 7d bc 83 11 29 3d 24 a4 17 3c
       -0.024938576 -0.015468545 0.041276466 0.009255443
0000e0 86 e8 a8 bc 0b 96 e4 3c de 71 f5 3a 96 ce 81 3b
       -0.020618688 0.027903577 0.0018725952 0.0039613945
0000f0 76 90 19 3d 55 d4 ac bc 98 ef 85 3b 11 4a 39 3c
       0.037491284 -0.021097342 0.0040873997 0.011309163

conv1.lin.weight f4 [64, 25]
000000 56 21 03 be 45 30 5c 3e f0 17 09 be 3a a0 db 3d
       -0.12805685 0.21502788 -0.13388038 0.1072392
000010 a1 b3 34 be 47 56 ae bd c7 c1 00 bd 74 fc 02 3e
       -0.17646648 -0.0851255 -0.0314348 0.12791616
000020 a2 85 69 3e 34 79 38 bd be f1 0f be 0c 56 0c be
       0.22804883 -0.045037463 -0.14057061 -0.137047
000030 b8 00 88 3e d0 b5 ed 3d 66 3b 27 be 5f f7 19 3e
       0.26563048 0.116069436 -0.16331252 0.15035771
000040 3e 2b f2 bd a3 ae 31 3d e6 2e 1c 3d f9 0e 71 be
       -0.11824654 0.043379437 0.038130663 -0.23540868
000050 4e a4 47 be ec c5 21 bd fa 94 68 3e be c5 47 be
       -0.19496271 -0.039495394 0.2271308 -0.19509026
000060 fd e7 0e be 1a 60 4b 3e 92 a1 cf 3d cf 0b d0 3b
       -0.13955684 0.19860879 0.10138239 0.006349064
000070 ce 8f 1c 3e a0 3b 57 be a4 9a 3a 3e 15 5e 08 be
       0.15289232 -0.21018839 0.18223053 -0.1331714
000080 35 2e d3 bd 06 61 67 be 77 e0 42 3e f1 c5 30 3c
       -0.10311548 -0.22595605 0.19030939 0.01078938
000090 52 f7 3d 3d 1d 21 61 3e a9 bb e7 3c a3 c8 3d be
       0.04637844 0.21985288 0.028287726 -0.18533568
0000a0 1d b4 2f be c0 2c 0f be 58 71 25 be a0 29 85 be
       -0.17158552 -0.13981915 -0.16156518 -0.2600832
0000b0 57 19 40 be 92 41 7f be 26 d6 0d be a9 4c 8f be
       -0.18759666 -0.24927357 -0.13851222 -0.27988175
0000c0 77 3c d3 3d 7e fb 1e be e4 9e 81 be 03 99 21 3e
       0.10314267 -0.15525624 -0.25316536 0.15781026
0000d0 3f f3 cc 3d b1 18 65 be 10 55 66 3d d8 95 64 bd
       0.10007333 -0.223727 0.056233466 -0.055806965
0000e0 24 8c 15 be c4 2b 0c 3d 0f a6 68 be 80 b1 5c be
       -0.1460424 0.034221426 -0.22719596 -0.21552086
0000f0 1b e0 6e 3d 15 56 8a 3d 68 d5 f3 3d 30 db 09 be
       0.058319192 0.067547 0.119059384 -0.1346252
000100 4b 64 12 be 59 e3 4e 3e da bd 4f be 55 53 95 3d
       -0.14296071 0.20203914 -0.20287266 0.07291285
000110 26 45 20 be 23 ba 95 3d cf 55 70 be 88 a9 3a be
       -0.15651378 0.073108934 -0.23470233 -0.18228734
000120 3c 5e 78 3d ee 31 c4 3d ed 34 a1 bd 05 98 bc 3d
       0.060636744 0.09579836 -0.07871423 0.09208683
000130 c3 33 58 be 22 ec ca bd f1 1e 67 3c 1a b8 33 3d
       -0.21113496 -0.0990832 0.014106498 0.043876745
000140 87 1c 09 bd 5f 62 6e 3e 1a e5 0a bd 17 be 73 3d
       -0.03347447 0.23279713 -0.033909895 0.059507456
000150 6e 7e 8d be d6 89 d5 3d 14 bd b3 3d c5 be 4f be
       -0.2763552 0.10426681 0.08776298 -0.20287617
000160 d5 71 64 bd 9a 41 0d 3e 17 42 89 3d d6 6c 1c bd
       -0.05577262 0.13794556 0.06702059 -0.03818973
000170 73 97 80 3e 70 b0 11 be 3c 24 a1 bd cd f5 73 3d
       0.25115547 -0.14227462 -0.07868239 0.059560586
000180 1f 29 dc bc 63 94 32 3e 12 73 74 be b8 2e ee 3d
       -0.026875077 0.17439418 -0.23872021 0.11630005
000190 aa cb 57 3e 6b 1f be 3d 96 11 00 be c4 cc 01 3e
       0.21073785 0.09283336 -0.12506709 0.12675768
0001a0 b6 10 c5 3d 52 6a 85 bd 63 03 42 3e 41 3d 9a 3d
       0.09622328 -0.065144196 0.18946604 0.075312145
0001b0 14 08 62 be 62 59 cb 3d 3a 55 fc 3d aa 3d 73 be
       -0.22073394 0.09929158 0.12320943 -0.23753992
0001c0 00 fa a2 3c 52 2f 31 3e 57 1f 0a 3e 54 c4 d5 3d
       0.0198946 0.17303208 0.13488518 0.10437837
0001d0 56 b4 81 be c3 c7 61 be fe cc 8c be 11 fc 85 be
       -0.25332898 -0.2204886 -0.27500147 -0.26168874
0001e0 aa 6e c4 bc e6 b8 34 3e 6e 35 54 3d ba 67 53 3e
       -0.02397855 0.17648658 0.051808767 0.20645037
0001f0 f6 0f 0d 3d 6a d5 59 3e 78 09 b4 3c b3 7c 85 3d
       0.03443905 0.21272817 0.021977171 0.06517925
000200 b1 2b 16 3e 62 ff 19 bd c5 4d 75 be 92 ca 12 3e
       0.14665104 -0.037597068 -0.23955448 0.14335087
000210 6b aa 6c 3e bd 4e ad ba 56 8a 87 be 3b 32 5d be
       0.23111884 -0.0013222318 -0.2647273 -0.21601193
000220 76 ee a8 bd 34 77 76 be 67 ee e2 bd 28 0a 07 be
       -0.08248608 -0.2406891 -0.11080628 -0.13187468
000230 9d 05 20 be df ae a1 bd 8d e6 83 be 28 00 44 3e
       -0.15627141 -0.07894682 -0.25761834 0.19140685
000240 87 f4 2f be 64 68 89 3d 59 e7 3d 3e c7 68 d4 bc
       -0.17183124 0.06709364 0.18545283 -0.025928868
000250 32 ba 68 3e d4 16 fe bc a3 77 14 bd d1 97 a9 3d
       0.22727278 -0.031016745 -0.036246907 0.0828091
000260 ee f0 5f be 2a 50 fd bd 63 bb 71 3e 35 f7 4a be
       -0.21869251 -0.12368806 0.23606639 -0.19820864
000270 d4 e3 38 3e e1 76 50 3d d8 68 84 3e 6d e7 2b be
       0.1805566 0.05089462 0.2586124 -0.167875
000280 85 3d 11 3e ed 9e 69 3d 68 5e 6e be 0a 74 23 3e
       0.14183624 0.05703633 -0.232782 0.15962234
000290 dc 59 03 bd ab 7b 52 be e7 0b 69 3d 77 2f 26 bc
       -0.03206812 -0.20554988 0.056896117 -0.010143152
0002a0 32 2c 62 bd 8b f8 08 bc 7e a9 e2 bd 7d 5a f1 bd
       -0.05521793 -0.0083600385 -0.11067484 -0.117848374
0002b0 d5 f1 63 3e f3 29 6d be 22 39 84 be 79 5d 74 be
       0.2226022 -0.23160534 -0.2582484 -0.23863782
0002c0 ca f6 e7 3d fe 81 ad bd ed 4e 60 be 9f 73 10 3e
       0.11326368 -0.0847206 -0.21905108 0.14106606
0002d0 c9 ae dd 3d 10 86 61 3d 5d 56 65 3e c2 39 06 bd
       0.10824353 0.055059493 0.22396226 -0.032769926
0002e0 c7 1d f0 3d 94 e0 2e be 80 30 29 3d 65 23 bc bd
       0.117244296 -0.17077857 0.04130602 -0.091864385
0002f0 8c 23 4a bd 62 73 71 bd 2b b7 bb bd 25 20 65 3d
       -0.049350306 -0.05894793 -0.09165796 0.05593886
000300 d1 25 25 3b 62 75 e5 bd 6d 25 50 3e 88 18 c5 bd
       0.0025199542 -0.112040296 0.20326777 -0.096238196
000310 62 15 00 3e 5a b8 24 3e 1f 13 7e 3e d2 91 0b 3d
       0.12508157 0.1608595 0.24811982 0.034074612
000320 08 d8 3f 3e df b9 8a bb 70 b7 1b be ed 96 9b 3c
       0.18734753 -0.0042335833 -0.15206695 0.018992865
000330 d2 40 08 be d4 94 81 be 99 c7 04 be c7 3c 31 3e
       -0.13305977 -0.2530886 -0.12966765 0.17308341
000340 af 8b fb 3c af e5 82 3d f8 2c 1c 3d da 54 4a 3e
       0.030706255 0.06391465 0.038128823 0.19758931
000350 7b 35 8e 3d 2f 5d 46 bd df 60 37 be 83 41 64 3e
       0.06943794 -0.04842871 -0.17908047 0.22290616
000360 2e 09 c0 3d af 1a 60 3e 66 c0 e7 bd 7f f1 b8 3d
       0.09376751 0.21885179 -0.11315994 0.09030437
000370 31 3f 17 be c8 c3 19 3e 8e 7a 7b 3e 41 4b 47 be
       -0.147702 0.15016091 0.2455847 -0.19462301
000380 51 be 41 be 30 3c 8c bd 1d 22 73 3e 84 c8 27 be
       -0.18920256 -0.06847417 0.23743482 -0.16385084
000390 53 6c 7b 3e 0f db 83 3e 6e 41 70 3e 91 82 4f 3e
       0.24553041 0.25753066 0.2346246 0.20264651
0003a0 94 dc 1e 3e 0f 99 04 3e 6b e4 b2 bb 88 b5 6c be
       0.15513831 0.12949012 -0.0054593585 -0.23116124
0003b0 73 7d d7 bc 4d 40 cc bd 07 5c 7c be 11 71 58 3e
       -0.026304936 -0.09973202 -0.2464448 0.21136881
0003c0 d7 95 30 3e 53 2f 12 be 2a d4 34 be 67 e7 d4 bd
       0.1724466 -0.14275865 -0.17659059 -0.10395699
0003d0 dc fc b8 bc 67 0d 2b 3e 9c 0d 80 3e b6 40 fa 3d
       -0.02258151 0.16704331 0.25010383 0.12219374
0003e0 6c 40 78 3e d2 4f 90 bd 08 27 c1 bd 05 19 2e 3e
       0.24243325 -0.070464745 -0.09431273 0.17001732
0003f0 92 df 31 be 63 15 50 bc ce 07 2a be 50 31 03 3d
       -0.17370442 -0.0127004115 -0.1660454 0.03202945

bn1.weight f4 [64]
000000 23 aa 83 3f 40 32 83 3f 87 e6 7d 3f e2 cf 80 3f
       1.0286297 1.024971 0.9917988 1.0063441
000010 8f 13 7d 3f c0 0a 81 3f 5e 18 7c 3f 2d 27 80 3f
       0.9885797 1.0081406 0.9847468 1.0011955
000020 5d 9a 7d 3f b2 3a 7b 3f ff 44 81 3f a3 f1 80 3f
       0.99063665 0.98136437 1.0099181 1.0073742
000030 5d 1c 7d 3f e9 92 7e 3f e9 db 80 3f 36 3b 80 3f
       0.98871404 0.9944292 1.0067111 1.001807
000040 5f 81 7d 3f c6 20 7b 3f 3a d2 82 3f 38 0f 7b 3f
       0.9902553 0.98096883 1.0220406 0.98070097
000050 9a 26 81 3f e4 b4 7d 3f 9a 0d 80 3f ae 69 81 3f
       1.0089905 0.9910414 1.0004151 1.0110376
000060 ac 28 7b 3f ab 5f 7d 3f 27 94 7c 3f 5a 5f 80 3f
       0.98108935 0.989741 0.9866356 1.0029099
000070 22 d8 83 3f b9 73 7d 3f 5e 1c 81 3f d1 80 7f 3f
       1.0300333 0.99004704 1.0086782 0.99805933
000080 4e 58 83 3f 06 8a 7b 3f 60 f4 80 3f ec 3e 80 3f
       1.0261323 0.9825748 1.0074577 1.0019202
000090 8c 0f 82 3f b4 6f 80 3f f2 c2 7f 3f 49 9b 7e 3f
       1.0160995 1.0034089 0.9990684 0.99455696
0000a0 b6 39 7f 3f fa cd 7f 3f 15 e7 7d 3f 74 39 82 3f
       0.99697435 0.9992367 0.9918073 1.0173783
0000b0 05 3d 80 3f 43 6c 7c 3f d1 a8 7e 3f 34 da 82 3f
       1.0018622 0.98602694 0.99476343 1.022284
0000c0 1f eb 7c 3f bd 15 80 3f bb 27 7b 3f 11 63 80 3f
       0.98796266 1.0006634 0.981075 1.0030233
0000d0 32 f5 81 3f fc 98 80 3f b8 66 81 3f f2 db 7c 3f
       1.0152953 1.0046687 1.0109472 0.9877311
0000e0 8b f9 80 3f 50 95 7d 3f dc 54 7e 3f 49 95 80 3f
       1.0076154 0.9905596 0.99348235 1.0045558
0000f0 fe ee 80 3f ed b2 7e 3f d4 1e 7e 3f 66 07 7c 3f
       1.0072935 0.9949177 0.9926579 0.9844879

bn1.bias f4 [64]
000000 39 42 0d 3d 0a 9d b6 3b c3 fe 63 bb a9 b3 d2 bb
       0.034486983 0.0055729197 -0.00347893 -0.0064301086
000010 d9 23 15 3c 56 3e 29 3c b8 55 6d ba 3e 98 22 3b
       0.009102785 0.010329803 -0.00090536056 0.0024809982
000020 3d bd b3 3c a3 19 27 3d 06 4f f6 bc 96 53 60 bc
       0.021940822 0.040795933 -0.030066978 -0.013691803
000030 fd 6c 50 bc f9 39 87 3b 15 53 03 bd 34 8f 93 3b
       -0.012721297 0.004126784 -0.032061655 0.004503155
000040 d3 53 df 3b 42 f3 09 bc 27 76 a4 3c 48 1e 81 bb
       0.0068154125 -0.008419814 0.02007587 -0.0039403774
000050 09 81 47 bd 8c 36 c3 bc d8 70 3b 3c b3 99 14 bc
       -0.048707042 -0.02382972 0.011440478 -0.009069848
000060 55 8d 7d bc fd b9 78 3c e2 68 6d 3c 12 a1 70 bc
       -0.015475591 0.015181062 0.014490338 -0.01468684
000070 0b 94 88 bc 9f 62 21 bc c1 f6 77 39 ae 97 3d 3c
       -0.016672155 -0.009850173 0.00023647679 0.011571808
000080 eb 8e d9 37 cd b6 13 bc 06 07 43 39 30 c2 4d 3b
       2.5934967e-05 -0.009015751 0.00018599266 0.0031396262
000090 2a 67 b4 3c 03 8a 5a bc 30 ab 3c bc dc 8e 5c 3c
       0.022021849 -0.013338569 -0.011515424 0.013461795
0000a0 3c 5c 41 bc 44 92 c2 3b 21 73 c1 bb a7 84 38 b9
       -0.011801776 0.0059378464 -0.005903617 -0.00017597024
0000b0 a3 c3 a4 bc e3 10 49 3b 72 36 41 bc e5 26 7f bc
       -0.020112818 0.0030680231 -0.011792766 -0.015573238
0000c0 13 2d 29 bc e4 ef 9f bc 95 f2 9d 3c 08 48 13 bd
       -0.010325688 -0.019523568 0.019280711 -0.035957366
0000d0 20 84 6e bc 1d a4 fc 3a b2 ca 9f 3c 04 0a 90 3c
       -0.014557868 0.0019274984 0.019505832 0.0175829
0000e0 3f 81 f5 3c c2 4e f0 bb 8c 76 51 3b 0e 2b 2b bd
       0.029968856 -0.0073336074 0.0031961529 -0.041789107
0000f0 2b c2 e3 3a b0 91 b7 bc b4 1f 0d bd ad dc ae 3c
       0.0017376592 -0.022408336 -0.034454063 0.02134546

bn1.running_mean f4 [64]
000000 d4 da 2c 3e d1 0b ac 3e fa ec 83 3e 31 9a 54 3e
       0.16880351 0.33602765 0.25766736 0.20761944
000010 a3 2f 8d 3e 25 6f d9 3e e0 71 44 3e 62 1e 3d 3e
       0.27575406 0.4246761 0.19184065 0.18468621
000020 ac 2f b6 3e 25 70 bd 3e 32 59 92 3e ff a3 63 3e
       0.35583246 0.36999622 0.28583676 0.22230528
000030 80 86 9b 3e 44 e8 88 3e 56 84 46 3e b3 2e 9a 3e
       0.30376053 0.26739705 0.1938642 0.30113754
000040 74 11 8d 3e 35 55 d8 3e 17 24 a1 3e 94 b2 9d 3e
       0.27552378 0.42252508 0.31472847 0.30800307
000050 aa 63 49 3e 4a 70 ff 3d 4f a4 a0 3e 5b 43 5f 3e
       0.19666925 0.12472589 0.31375358 0.21803038
000060 b7 0f 9b 3e d2 d1 59 3e 91 44 6e 3e ac a6 24 3e
       0.30285427 0.21271446 0.23268344 0.16079205
000070 89 d3 6a 3e f2 96 72 3e b0 c2 95 3e a2 f5 a4 3e
       0.22932257 0.23690394 0.29250097 0.32218653
000080 1a c7 62 3e 53 53 83 3e 20 a7 0c 3e 36 3f 78 3e
       0.22146264 0.2564951 0.13735628 0.24242863
000090 fa 1d 3b 3e 47 2d 8a 3e c9 22 52 3e fd b6 72 3e
       0.18273154 0.2698767 0.20521082 0.23702617
0000a0 d3 b1 42 3e a3 d0 c4 3e 7c 15 53 3e bd da 8c 3e
       0.19013147 0.38440427 0.20613664 0.27510634
0000b0 81 26 da 3e 56 18 6a 3e 06 bf 80 3e de 30 ec 3d
       0.426075 0.22860846 0.2514574 0.11532758
0000c0 e1 9f 24 3e 18 d9 1f 3e 54 00 7c 3e 55 4b 9e 3e
       0.16076614 0.15610158 0.246095 0.3091685
0000d0 52 2f 01 3e c7 d3 1a 3e b7 e3 82 3e 06 64 88 3e
       0.12615708 0.15119849 0.25564358 0.26638812
0000e0 d9 98 88 3e 71 ba 90 3e 63 bb 85 3e 3a 0d 3e 3e
       0.26679114 0.28267244 0.26119527 0.18559733
0000f0 ed 1e 8b 3e f7 78 18 3e 8d f9 63 3e 30 32 78 3e
       0.27172032 0.14889894 0.22263165 0.24237895

bn1.running_var f4 [64]
000000 75 51 e2 3c a9 3f 04 3e 3c 27 c8 3d b6 ac a2 3d
       0.027626732 0.1291491 0.09773108 0.07943098
000010 c6 be 42 3e 8d 29 e2 3e 2e 06 3a 3d dc 91 b2 3d
       0.19018087 0.44172326 0.04541605 0.08719227
000020 39 c8 96 3e a6 f3 ce 3e 3d ec 73 3e 85 ae ec 3d
       0.29449633 0.40420264 0.23820587 0.115567245
000030 6f b9 f1 3d d4 a4 be 3d 69 e4 43 3e 33 ad 30 3e
       0.11802947 0.09308782 0.191301 0.1725357
000040 cf 41 30 3e ae ac c0 3e 9b 81 73 3e 0d 24 42 3e
       0.17212604 0.37631744 0.2377991 0.18959065
000050 b6 37 d5 3d 87 f2 3d 3d e1 76 5b 3e 1c c9 01 3e
       0.10411017 0.04637387 0.21432067 0.12674373
000060 ed ca 50 3e 35 d3 2b 3e 68 fb cf 3d b7 99 83 3d
       0.2038991 0.16779788 0.10155374 0.06425803
000070 85 be ef 3d 95 e3 2c 3e b7 bd 4b 3e d4 fc 4a 3e
       0.117062606 0.1688369 0.19896589 0.19823009
000080 4a 7c f6 3d c3 29 db 3d 98 5e b4 3d bb 23 de 3d
       0.12035425 0.10701325 0.08807105 0.10846659
000090 2d 67 97 3d 36 a5 48 3e b4 72 d5 3d 29 b8 12 3e
       0.07392726 0.19594273 0.104222685 0.14328064
0000a0 cc 21 91 3d 11 84 b7 3e c9 c8 9c 3d bb 3f 29 3e
       0.07086524 0.35842946 0.07655484 0.16528217
0000b0 4b 1d a4 3e 9d a4 0d 3e 00 c4 58 3e a0 7e 31 3d
       0.320536 0.13832326 0.21168518 0.04333365
0000c0 1c a8 71 3d 42 0b a5 3d 07 3f 11 3e 82 f1 75 3e
       0.058998212 0.08058788 0.141842 0.24017909
0000d0 62 ec f1 3c 1b 45 6a 3d 9e a9 db 3d 1c af 1e 3e
       0.029531661 0.05719481 0.10725711 0.15496486
0000e0 d2 fb 38 3e 35 81 29 3e 61 32 02 3e d1 e2 cd 3d
       0.18064812 0.16553195 0.1271453 0.100530274
0000f0 c5 4a 6c 3e da 59 57 3d ef 97 a4 3d 71 2c 5b 3e
       0.23075397 0.052575924 0.080367915 0.21403672

conv2.bias f4 [64]
000000 f4 a0 fc 3c 58 e5 7f bb 09 0f 7c 3b f4 13 04 bc
       0.030838467 -0.0039046612 0.003846111 -0.008061398
000010 a3 df 23 3d 8e 07 f6 38 2c b3 d1 3c 8b 48 c1 3c
       0.0400082 0.00011731601 0.025598131 0.023594161
000020 5f 6c 86 3a 86 21 21 3c 47 be 58 bb 5f c7 14 3c
       0.0010255686 0.009834653 -0.0033072399 0.009080737
000030 d3 e4 cb 3c 72 23 6c 3d bb cc c4 b9 73 10 2f bb
       0.024889385 0.05765099 -0.0003753657 -0.0026712685
000040 b3 7b bc bc 07 99 0d 3d 4d 1f 2e 3d d8 94 ac 3b
       -0.023008203 0.034569766 0.04251032 0.005266767
000050 76 6c 0b bc 0c 62 2e bd ee 65 9c ba c8 48 c3 3c
       -0.008509746 -0.042573974 -0.0011932233 0.023838416
000060 3a ba 94 bc a0 f7 39 bc 17 c2 ef bb 6c 8d 2c 3c
       -0.018155206 -0.011350542 -0.0073168385 0.0105317645
000070 b2 d5 55 3c 04 ea 2a 3d 1c 15 0e 3a 76 2e c9 3a
       0.013051437 0.04172708 0.00054200157 0.001534893
000080 df c1 07 bd 4c 5c 67 3c 0b 3d c5 3c b6 9b 24 3d
       -0.033143874 0.014121126 0.02407696 0.04018756
000090 31 94 fa 3b 7c 2d 17 3c 07 ab f2 3c 73 ba de 39
       0.0076470603 0.009227153 0.029622568 0.00042482055
0000a0 b2 62 90 bc 1a 40 18 3d f2 e4 bf bc a8 52 0a 3d
       -0.017625187 0.037170507 -0.0234246 0.033770233
0000b0 3f 18 1d 3b d8 e3 f3 3b ca 13 aa 3b dc 77 4a 3a
       0.002397075 0.0074429326 0.0051903473 0.0007723549
0000c0 09 a5 a4 bc c2 7d bd ba 5f 45 db bc 26 db 45 3b
       -0.020098226 -0.0014457034 -0.026766477 0.0030190437
0000d0 d8 e4 c6 bc 1e 6f 65 3c ce 13 a5 3b 5e 55 54 3c
       -0.024279043 0.014003543 0.0050377613 0.012959806
0000e0 d8 c3 37 3d 28 b1 17 3b 07 08 2a bc a2 a3 9d bd
       0.044864506 0.0023146365 -0.01037789 -0.07697226
0000f0 37 4d a7 3b 26 74 2b 3c 1a e5 26 ba 31 e1 46 bc
       0.0051056403 0.010464704 -0.0006366536 -0.012138651

conv2.lin.weight f4 [64, 64]
000000 8b 27 cc 3d 47 1a 02 3e e6 af 2e 3e ff 36 1e be
       0.0996848 0.12705337 0.17059287 -0.15450667
000010 5c 40 01 3e 5a d7 43 be b4 e6 aa 3b a4 f0 09 be
       0.12622207 -0.19125119 0.0052154902 -0.13470703
000020 7e d4 64 bd bc 27 b9 bd 98 d3 74 bd c5 27 49 3d
       -0.05586671 -0.09040782 -0.059772104 0.049110193
000030 ed f6 3f be 28 92 0d 3e c4 db 3c bd 0d ca 37 3e
       -0.18746538 0.13825285 -0.046108022 0.1794817
000040 c9 81 35 be f0 8d 8b 3d 78 38 50 3e d0 a8 38 be
       -0.1772529 0.06814182 0.20334041 -0.18033147
000050 c7 4d ac bd a8 c0 a3 3d 9b 1b 79 3d 02 05 2f 3e
       -0.08413272 0.07995731 0.060817342 0.17091754
000060 31 31 b5 bd 75 fa e9 bd ff 2a bc 3d 4c 4a 1c be
       -0.08847273 -0.11424724 0.09187888 -0.15262717
000070 83 2e 46 bd 8f 3e 32 bd 55 30 bd 3d 0b d0 17 be
       -0.0483842 -0.04351669 0.09237734 -0.14825456
000080 c1 c6 31 be a3 cd 1b be c4 b9 90 bd a2 ff 05 be
       -0.17360975 -0.15215163 -0.07066682 -0.13085797
000090 53 d1 a2 bd 59 ae 00 bd 2b 60 5a 3e c2 18 ba bc
       -0.07950082 -0.03141627 0.21325748 -0.022716884
0000a0 3e 18 ae 3d 29 73 c0 3d f3 c5 58 be 60 7f f2 3d
       0.085007176 0.09396965 -0.21169262 0.11840701
0000b0 70 06 ee 3d ca 5a ff 3d 15 57 11 be 4f 6a eb bd
       0.116223216 0.124684885 -0.14193375 -0.11494886
0000c0 1e e5 ec bd f3 c6 be 3d cb b4 9a bd 48 ab d6 bd
       -0.11567138 0.0931529 -0.07554015 -0.10481888
0000d0 09 72 ed bd a3 1e aa 3d cf 80 2d be a3 35 b6 3c
       -0.11594016 0.08306625 -0.16943668 0.022242373
0000e0 f8 4e 0c be 71 3d 06 be 6f ab 16 3e 22 df 42 3e
       -0.13701999 -0.13109376 0.14713834 0.19030431
0000f0 1a ea ec 3d ec 1b 0e 3e 99 e8 13 3c 71 02 3e 3a
       0.11568089 0.13877839 0.009027624 0.00072482886
000100 4a 1e 30 3e f1 65 a6 3c 2d 51 1a bc 11 51 5a 3e
       0.17199054 0.020312281 -0.009418768 0.21319987
000110 56 1e c5 bb 19 c3 49 be a0 d0 53 3e 17 62 a8 bc
       -0.006015579 -0.1970333 0.20685053 -0.020554585
000120 c6 88 ce bd 25 5a 44 3e c0 c3 2a 3e c3 7e 93 3d
       -0.10084681 0.19175012 0.16676235 0.07201912
000130 fc e7 31 3e 46 94 ae 3d 0c 81 23 be 1e df 63 bd
       0.17373651 0.08524375 -0.15967196 -0.055632703
000140 9f b0 00 3e 1c 57 43 be d7 2e 79 3e a8 51 6c 3d
       0.12567376 -0.19076198 0.24334274 0.05769506
000150 12 8f 21 3e a3 89 9d 3d ac de 71 3e 67 5d dd 3d
       0.15777233 0.07692268 0.23620099 0.10808831
000160 74 32 2d 3d 7a 2b d2 bc ef cc f2 bd ed 0f b5 bd
       0.042284444 -0.025655497 -0.11855494 -0.08840928
000170 f6 53 af bc e0 a4 19 3d d1 e1 23 be 2d f5 1a 3e
       -0.02140234 0.037510753 -0.16004111 0.1513259
000180 a4 e0 b6 3d 23 3c 22 3d 7c d3 b6 3d ca e1 09 3e
       0.089295655 0.039608132 0.08927056 0.13465038
000190 78 59 d1 bd 87 71 d4 3d d4 09 0b 3e b8 b7 02 bc
       -0.10222143 0.10373216 0.13577968 -0.007978372
0001a0 20 de 40 3e 9d 53 f5 3c e5 7a 73 3d d2 92 22 bc
       0.18834734 0.029947096 0.059443373 -0.0099227
0001b0 be 4c 0a 3c 59 a3 09 be ec 8a 98 bd 3f 55 c7 bd
       0.008441148 -0.13441218 -0.07448372 -0.09733056
0001c0 98 e5 66 3d 69 47 be bd c6 39 3a 3d be e6 39 3e
       0.0563713 -0.09290964 0.045465253 0.18154427
0001d0 00 5c 12 3e 3f 11 16 3e ac 54 40 3d 32 ff bd 3d
       0.14292908 0.14655016 0.04695575 0.0927719
0001e0 6b 72 cc 3d 89 37 c5 3d 24 9f 8d 3d df e0 e1 bd
       0.09982761 0.09629733 0.06915119 -0.11029219
0001f0 c1 fa 3a 3d 21 19 db 3c 44 17 9d 3d 2d fd f5 bd
       0.045649294 0.02674538 0.07670453 -0.1201118
000200 67 25 0d 3e 32 9b 1c 3d 72 80 16 3d 8f a0 01 3e
       0.13783799 0.038233943 0.03674359 0.12658904
000210 87 f5 c4 ba b2 f1 fc 3c d9 1e c2 bd c6 26 40 3e
       -0.0015026786 0.030876968 -0.0947854 0.18764791
000220 ea 10 3c 3d d8 85 f9 3d 6b 19 bc 3d 8b db 35 3e
       0.045914568 0.12183732 0.091845356 0.1775953
000230 28 40 a9 bd f1 08 9d bd be a4 e5 3c cd 6e 2b be
       -0.0826419 -0.07667721 0.028032657 -0.16741486
000240 06 6c a8 bc a7 42 2a 3e 5f 99 3a be 5f e1 26 3e
       -0.020559322 0.16626988 -0.18222569 0.1629691
000250 06 0f 30 be 0d f0 8d 3d 49 d6 5e bd 1f 42 18 3d
       -0.17193231 0.06930552 -0.054403577 0.037172433
000260 48 cd 42 3e bc 8a 8d 3c f3 f7 f9 bd a0 af 9b bd
       0.19023621 0.017278068 -0.12205496 -0.07601857
000270 de 5f 81 bc 4d f2 54 3e 67 a5 49 be 9d 7c 24 3e
       -0.015792783 0.20795555 -0.19692002 0.16063161
000280 92 cc 2e be 51 85 a5 bd 9f e3 b8 3d 28 ab a9 3c
       -0.17070225 -0.08082069 0.0902779 0.020711496
000290 41 73 53 3d 34 ae 5b bc 87 86 30 3d 3b ba c0 bc
       0.051623587 -0.0134082325 0.043097045 -0.023526302
0002a0 29 be de bd 01 d2 d0 bd 43 b4 62 3e cf 46 cb 3c
       -0.10876114 -0.10196305 0.22139077 0.024814038
0002b0 71 ba 27 3e a4 8d fc 3c fa 46 db 3d 4b 7b 0d be
       0.16379716 0.030829258 0.10706897 -0.13816564
0002c0 71 92 24 be 6b 92 96 3d e5 45 09 3e 25 21 13 3d
       -0.16071488 0.07352146 0.13405569 0.03592028
0002d0 93 97 7c 3d 5b 4c 0c 3e 51 6a 44 3e 82 14 c4 bd
       0.06166799 0.13701002 0.19181181 -0.09574224
0002e0 85 54 84 3d 75 b5 07 bc 46 da 4d 3e 81 28 75 bd
       0.06461433 -0.008283009 0.20102796 -0.05985308
0002f0 9b 08 81 bc ff b4 25 3e e7 0f 3c 3d 89 cb 0b 3e
       -0.015751174 0.16182326 0.045913603 0.13651861
000300 99 36 1a 3e c8 13 4c 3e 1f 9d 13 3e 5d 42 2d be
       0.1505989 0.19929421 0.14415406 -0.16919847
000310 10 a1 35 3d bf 98 13 be af 95 47 3e 67 a4 28 3e
       0.044343054 -0.14413737 0.19490694 0.16468965
000320 f3 2e 5b be 20 66 2d be a3 cc e5 3d b6 65 2e bd
       -0.21404628 -0.16933489 0.11220672 -0.042577468
000330 57 c2 c0 3d 70 c1 ca bc 7d 5f 04 3e 4f 49 b2 bd
       0.094120674 -0.024750441 0.12927051 -0.08705389
000340 ce e4 07 be b6 f7 8d 3d f5 87 5d be 31 a0 10 be
       -0.13270876 0.06932013 -0.21633895 -0.14123608
000350 b8 4f 84 3d b5 76 59 3e 0d 33 35 3e ab 97 3f 3e
       0.06460518 0.2123669 0.17695256 0.187102
000360 ed 56 56 be 8b 6e 06 bd 42 fe 1b be 4f 48 21 3d
       -0.20931597 -0.032820266 -0.1523371 0.0393756
000370 f2 0d 4f 3e 59 c7 4d be 2a 9c 75 bd 9a 2b b6 3d
       0.20220163 -0.20095576 -0.059963383 0.08895035
000380 80 df af 3d 3a 93 23 be 61 20 e4 bd 2f b4 32 3d
       0.08587551 -0.15974131 -0.11138988 0.043628868
000390 37 2b c9 bd c8 29 e7 bd be e5 fa 3d 5b 21 04 be
       -0.09822696 -0.11287266 0.12250851 -0.12903349
0003a0 9a 95 2c 3e be 2f 6f 3d 46 28 25 be 8a b4 0a be
       0.16853943 0.05839514 -0.16128644 -0.13545433
0003b0 31 2d 9e 3d 9e 4a 5c 3c 09 fa 15 3e 1f 92 1b 3e
       0.07723463 0.0134455245 0.14646162 0.1519246
0003c0 43 52 10 3e 3f 57 5e bc 87 01 03 3d ba f7 16 be
       0.1409388 -0.013570606 0.03198388 -0.14742938
0003d0 86 53 00 3e 54 8d ea bb ea 13 15 3e 38 30 e5 bd
       0.12531862 -0.007157961 0.14558378 -0.111908376
0003e0 cb e2 05 be 70 32 64 3d 46 af 32 3e ca 4b e4 3d
       -0.13074796 0.055712163 0.17449674 0.11147268
0003f0 66 67 1b be 23 fd a5 3d 3c ab b4 bb 44 f0 ca bd
       -0.15176162 0.081049226 -0.005513577 -0.09909108

bn2.weight f4 [64]
000000 6d 1e 81 3f 4f e6 80 3f 46 cd 76 3f 29 67 81 3f
       1.008741 1.0070285 0.9640697 1.0109607
000010 c2 12 7d 3f f2 69 7f 3f 4e 54 7f 3f aa 3b 80 3f
       0.9885675 0.99771035 0.99738014 1.0018208
000020 b9 b0 80 3f 70 6a 80 3f 44 7b 83 3f 84 6b 81 3f
       1.0053931 1.0032482 1.0271993 1.0110936
000030 71 b8 7d 3f 26 c7 81 3f fc dd 7f 3f bc 3d 81 3f
       0.9910956 1.01389 0.99948096 1.0096965
000040 92 71 7b 3f 28 33 80 3f 51 0b 7f 3f 96 74 81 3f
       0.9822017 1.0015612 0.9962664 1.0113704
000050 41 7a 79 3f 07 39 7c 3f 1a 97 80 3f 6a e3 81 3f
       0.9745217 0.98524517 1.0046113 1.0147526
000060 6a da 76 3f 60 c0 80 3f c3 d6 82 3f 1f b1 7d 3f
       0.96427023 1.0058708 1.022179 0.9909839
000070 07 3f 80 3f 84 1f 80 3f 84 b9 81 3f 61 32 7d 3f
       1.0019234 1.0009618 1.013474 0.98905
000080 b4 64 80 3f 0f 3d 84 3f ac 7d 83 3f 1c 52 82 3f
       1.0030732 1.0331134 1.0272727 1.0181308
000090 ea 7b 7d 3f fd 8d 83 3f bb 87 81 3f 52 06 7d 3f
       0.990172 1.0277706 1.0119547 0.9883777
0000a0 33 5e 81 3f ee 7a 7b 3f 5a 2b 7e 3f 54 14 7f 3f
       1.0106872 0.9823445 0.992849 0.99640393
0000b0 b4 62 78 3f 4b a6 7e 3f e9 f9 7d 3f bf c8 80 3f
       0.9702561 0.9947249 0.9920946 1.0061263
0000c0 46 8b 7d 3f c2 93 80 3f 30 3b 7e 3f ad f5 82 3f
       0.9904064 1.0045092 0.9930906 1.0231224
0000d0 49 69 82 3f 69 67 7f 3f 0e 7f 80 3f 1a 82 7b 3f
       1.018838 0.99767166 1.0038774 0.98245394
0000e0 86 8f 7f 3f 67 fb 7e 3f 20 d7 81 3f 60 db 81 3f
       0.99828374 0.9960236 1.0143776 1.0145073
0000f0 40 e7 7a 3f 75 81 7b 3f fb db 7e 3f 96 81 7f 3f
       0.9800911 0.9824441 0.99554414 0.9980711

bn2.bias f4 [64]
000000 8f c6 d8 3c 65 2c 5d 3c 71 de 50 3c d6 7d 19 3d
       0.026461868 0.013499354 0.012748347 0.037473522
000010 3e ed 56 3c cf 7c ce 3c 11 8e 9b 3c 25 33 c9 3c
       0.013118086 0.025205998 0.018988641 0.02456052
000020 43 e3 d9 3a 21 65 ce 3a 85 cd 0d 3d b8 19 27 3c
       0.0016623515 0.0015746691 0.034619827 0.010199003
000030 de 12 8c bc 5c 70 f5 3c 79 44 9b 3c 9a 08 83 bc
       -0.01709884 0.029960804 0.018953549 -0.015995312
000040 e5 15 7e bc 82 09 10 3d 71 ba bb 3c a8 26 ce ba
       -0.01550815 0.035165317 0.02291605 -0.0015728073
000050 3f 35 30 bb 8a 91 13 bd 73 8b db 3c d8 87 fb 3c
       -0.0026887206 -0.03602747 0.026799893 0.030704424
000060 b1 2e 81 ba 86 07 ef 39 b1 64 4a 3b 57 b1 0b 3d
       -0.0009855834 0.00045591238 0.003088277 0.03410467
000070 a1 8b db 3c 86 47 bc bc 3f f7 16 3d 54 a6 a1 3c
       0.026799979 -0.022983324 0.036856886 0.019732632
000080 8d 1a e1 ba f3 42 a8 3b 48 bf 87 bc 45 ed a2 3c
       -0.001717405 0.005134934 -0.016570702 0.01988853
000090 09 55 0e bc 73 84 fb 3c c4 c6 59 3c fd c9 ea 3c
       -0.008687266 0.030702805 0.013292018 0.028660769
0000a0 89 b9 30 3a 20 71 88 3c 7a e0 5e bc 58 59 1d bc
       0.0006741514 0.016655505 -0.013603324 -0.009603821
0000b0 34 b2 14 bc ff b7 72 3c ef 75 8c 3c e3 61 87 3c
       -0.00907569 0.014814376 0.017146079 0.016526168
0000c0 93 81 34 bc 6d 07 ad bc cd cb 8e 3b 2b 9e 08 bc
       -0.011017221 -0.021121705 0.004357791 -0.008338491
0000d0 05 78 6b bc a0 f9 b1 3b 7e 6a aa 3b c4 81 90 3c
       -0.014371877 0.005431369 0.005200683 0.017640002
0000e0 12 cc 5a bc bd b6 73 bb 9c 66 88 3c 62 37 b9 3b
       -0.013354318 -0.0037187778 0.01665049 0.005652354
0000f0 99 80 ca 3b 18 c7 a2 3c ab cd be 3c 03 9c 21 3c
       0.006179881 0.019870326 0.02329143 0.009863856

bn2.running_mean f4 [64]
000000 02 9c a8 3e ed a5 c0 3e 52 1e fc 3e 02 e5 a5 3e
       0.32931525 0.3762659 0.49241883 0.32401282
000010 a8 5c c3 3e 93 f0 b5 3e 8b 95 1f 3f 40 a4 01 3f
       0.3815663 0.35535106 0.6233756 0.5064125
000020 a5 f1 ba 3e a2 5e 8d 3e 9c ac ab 3e d7 60 a9 3e
       0.36512485 0.27611262 0.33530128 0.33081695
000030 06 7d cc 3e 10 2e 28 3f 88 7f ac 3e f7 d4 c8 3e
       0.39939135 0.65695286 0.3369105 0.3922498
000040 42 b9 e8 3e 15 9b a4 3e 9a 52 8b 3e 73 3f ad 3e
       0.4545384 0.32149568 0.27211457 0.3383747
000050 05 4a d8 3e 5c 36 9c 3e 61 30 d3 3e b4 92 12 3f
       0.42243972 0.30510223 0.41247848 0.572551
000060 a7 fe eb 3e 97 57 b0 3e aa 97 ab 3e c6 27 c6 3e
       0.46092722 0.34441826 0.33514148 0.3870222
000070 03 78 cc 3e e7 78 c3 3e ca e1 ad 3e 7f e9 90 3e
       0.39935312 0.3817818 0.33961326 0.28303143
000080 ac 95 85 3e 0e 68 be 3e 28 59 b6 3e 14 a3 d3 3e
       0.26090753 0.37188762 0.35614896 0.41335356
000090 03 e9 b7 3e 72 35 b8 3e ad 59 b7 3e 9e 79 db 3e
       0.3591996 0.35978276 0.35810605 0.42866224
0000a0 0b d0 6a 3e f3 3e a1 3e ee 8c b5 3e 84 11 e3 3e
       0.22930925 0.3149334 0.35459083 0.443493
0000b0 0a 62 02 3f 1f 31 f0 3e 4e f6 07 3f 1b 26 c9 3e
       0.50930846 0.46912476 0.53110206 0.39286885
0000c0 76 75 9f 3e 07 d9 c2 3e 63 f7 c7 3e 6d 0d 97 3e
       0.31144303 0.38056204 0.3905593 0.2950243
0000d0 e2 16 f9 3e 6a a2 9c 3e 37 61 e7 3e 9e 39 d6 3e
       0.4865027 0.30592662 0.45191357 0.41840833
0000e0 cc f3 b4 3e 79 7e d6 3e 0d ea 7d 3e b1 64 e2 3e
       0.35342252 0.41893366 0.24796315 0.44217446
0000f0 e3 8e a0 3e c7 0c b2 3e 2b 1b 25 3f 10 d3 98 3e
       0.31359014 0.34775373 0.6449458 0.29848528

bn2.running_var f4 [64]
000000 ce 5d 8c 3e e0 d7 34 3f 83 fa 9a 3f 39 70 ca 3e
       0.27415317 0.706419 1.21077 0.39538744
000010 b3 52 10 3f 48 55 25 3f c1 73 9c 3f 06 e5 8e 3f
       0.5637619 0.64583254 1.2222825 1.1163642
000020 80 f7 da 3e af 76 81 3e c1 10 0b 3f 87 f5 ac 3e
       0.42766953 0.2528586 0.5432244 0.33781072
000030 af 5b 4a 3f ec 3c 79 3f 90 71 2d 3f aa 8a 44 3f
       0.7904615 0.97358584 0.6775141 0.76774085
000040 a6 a7 1f 3f 84 e8 9b 3e dc 6f 5e 3e 59 e1 03 3f
       0.62365186 0.30450833 0.21722358 0.5151573
000050 02 6c 3b 3f c6 95 20 3f 84 1c 09 3f 51 92 7e 3f
       0.7321168 0.62728536 0.53559136 0.9944201
000060 91 7b 95 3f 11 73 0f 3f bf d0 fe 3e 30 6d 6c 3f
       1.1678334 0.5603495 0.49768636 0.92354107
000070 55 ef be 3e 35 0e d3 3e 92 e9 14 3f 89 77 bd 3e
       0.3729197 0.41221777 0.581689 0.3700526
000080 92 77 88 3e 75 cd 5d 3f 59 75 e2 3e da 58 45 3f
       0.26653725 0.8664163 0.44230154 0.770887
000090 b9 46 12 3f ae e7 42 3f ab a3 b0 3e 41 e0 74 3f
       0.57139164 0.76134765 0.3449987 0.95654684
0000a0 73 9a 5d 3e da 97 dd 3e c5 dc d8 3e 22 de 28 3f
       0.21640949 0.43279916 0.42355934 0.6596395
0000b0 5d b1 41 3f b1 1e 6d 3f cd 98 6d 3f a9 ed fb 3e
       0.7566126 0.92624956 0.9281128 0.49204758
0000c0 b2 56 09 3f 6f a2 1a 3f 85 5a 2e 3f 63 5e 93 3e
       0.5364791 0.60404104 0.6810687 0.2878295
0000d0 e4 eb 8f 3f a2 5d e4 3e 32 1d 49 3f ff c4 05 3f
       1.1243863 0.44602686 0.78560174 0.5225372
0000e0 d4 39 02 3f 43 d8 2f 3f e2 0b 4c 3e 24 b8 81 3f
       0.5086949 0.68689364 0.19926408 1.013432
0000f0 22 f4 ab 3e 16 0a 94 3e 2a d1 d9 3f 42 e0 4f 3e
       0.33584696 0.28913945 1.7016957 0.20300391

fc1.weight f4 [64, 64]
000000 3a a7 0a 3d 67 68 e5 bc f3 81 09 3e 61 53 c3 bd
       0.033850886 -0.028003884 0.13428478 -0.09537388
000010 07 a2 5d bd d5 e2 e7 bd 87 d6 12 3d 1d f0 9c bc
       -0.0541096 -0.11322562 0.03584912 -0.019157464
000020 31 f7 a0 3d f5 a5 96 bd 03 41 d5 bd 0f 56 14 be
       0.07859648 -0.073558725 -0.104127906 -0.14485954
000030 59 58 d9 3d 79 d2 17 bd 50 2b c5 bd bb c3 f8 3d
       0.10612554 -0.037065957 -0.09627402 0.121467076
000040 37 cb 87 bd f2 45 c1 bd 35 2c cd 3c 9b c4 89 3d
       -0.06630557 -0.09437169 0.025045494 0.06726953
000050 4a 52 b2 3d fa eb a9 3d 53 bc fd bd 38 47 00 be
       0.08707102 0.08296962 -0.123894356 -0.12527168
000060 ce cf 1b bd db 6c 64 bd ce f3 49 3d 42 55 6a bd
       -0.038039975 -0.055767875 0.049304776 -0.057210214
000070 cb 77 76 3d 6d 34 8c ba a2 b8 8a bd 77 18 06 bd
       0.060172837 -0.0010696776 -0.06773497 -0.032738175
000080 81 c6 7c 3c 8c 2f 0e 3d 84 68 31 3d 73 39 1d bd
       0.015428186 0.034713313 0.043312564 -0.038384866
000090 b0 8a 92 3d 6d 72 7e 3d e0 e3 94 3a 63 33 96 3d
       0.07155359 0.062120844 0.0011359416 0.0733402
0000a0 75 4e c6 3d ec e8 b9 bc e8 c7 e2 bd 7d cf 3c bb
       0.09682933 -0.022694074 -0.11073285 -0.0028810196
0000b0 e1 d7 4e bd d7 83 aa 3d ee f9 ed bb 5e 1e 81 3d
       -0.050498847 0.08325928 -0.00726246 0.0630462
0000c0 8d e9 15 bd a6 a1 98 bc 82 24 b5 bc 64 34 31 3d
       -0.036599685 -0.018631767 -0.022112135 0.043262854
0000d0 00 6d 9c 3d 94 ac 88 bb 0d 24 67 bd e8 b4 e4 bb
       0.076379776 -0.0041709635 -0.056430865 -0.0069795735
0000e0 70 07 17 bd 27 6a 5f 3d 0d 65 d6 3c 7e 3d 08 3e
       -0.036872327 0.054544594 0.026171232 0.13304707
0000f0 ae ca 24 bd 9a be f0 3d e1 8f eb bd 32 3f 96 3c
       -0.040232353 0.11755104 -0.11502052 0.01834068
000100 33 1e 75 3d 22 07 0e bd 81 98 cf 3b 64 b8 6f bc
       0.059843253 -0.03467477 0.0063353186 -0.0146313645
000110 d8 fe 1b 3c 01 81 61 bc 88 3b 07 3d 61 81 03 3d
       0.009521209 -0.013763667 0.033015758 0.032105807
000120 73 89 a8 3d 4d 3f b0 bd 4d 21 cf 3d aa e2 6b 3d
       0.08229341 -0.08605824 0.101137735 0.05758921
000130 e9 51 a5 3d 45 e5 d2 3b d9 76 b2 bd a8 96 04 bd
       0.08072264 0.0064360225 -0.08714075 -0.03237024
000140 f8 ee 0d be b2 c0 41 bd 22 d2 24 bd b6 eb 3b 3d
       -0.1386069 -0.04730291 -0.04023946 0.04587909
000150 e6 12 14 bd fc 63 6c bd c5 af 14 3e a2 9c bb 3d
       -0.036150835 -0.05771254 0.14520176 0.09160735
000160 d8 a2 a9 3d 74 7f b8 bd 78 74 2d 3d d8 14 96 3d
       0.08283013 -0.09008685 0.0423474 0.073281944
000170 36 02 70 bd 7a 02 75 bd d1 0a 8b 3d 20 c2 c4 3d
       -0.05859586 -0.059816815 0.067891724 0.09607339
000180 99 bd 8d 3c 32 33 88 bd 2e e0 4b bd 6b d3 0b bd
       0.017302321 -0.0665039 -0.04977434 -0.03413717
000190 e7 3c c1 3d d6 47 f9 3d ed 35 d0 bb 39 c9 d6 3d
       0.09435444 0.12171905 -0.0063540847 0.10487599
0001a0 54 28 a5 3c 11 1d ad 3d 4a 46 b0 bc 5f 1a 39 3d
       0.020160832 0.084528096 -0.021517891 0.045191165
0001b0 b0 75 c9 bd 98 e3 82 bc f4 0e 85 3d 32 d4 bb 3d
       -0.098369 -0.015977666 0.06496993 0.091713324
0001c0 52 8a 36 bd a7 b9 cc bd 9a b1 41 3d 9e f3 a4 bd
       -0.044565506 -0.09996348 0.047288515 -0.08054279
0001d0 7e 0f ea bb cf e5 86 3d 1d ea 21 bd b7 24 a2 3d
       -0.00714296 0.06586801 -0.03952991 0.07917159
0001e0 73 ab b0 3d a2 6b de 3d 06 fa ed bb 62 63 5e bd
       0.08626451 0.10860373 -0.007262471 -0.054293998
0001f0 bc 7c 88 3d cf 6e a0 3c b0 3c 6d 3c 19 42 9b 3c
       0.06664416 0.019584088 0.014479801 0.018952416
000200 3d d5 d7 bc 54 c9 1c 3d f5 cc 02 be 17 14 83 3d
       -0.026346797 0.03827794 -0.12773497 0.06400316
000210 b6 c7 ff 3d d3 f3 a1 3d 67 c6 ee 3c e8 2e 80 3c
       0.12489264 0.07907834 0.02914734 0.015647367
000220 26 7b ef bd 80 4f f3 ba 35 4a 1e bd 71 99 6c bd
       -0.116934106 -0.0018563122 -0.038644988 -0.05776352
000230 f3 18 c7 3d f8 b4 b6 3a 01 47 5b bc a0 b1 8b 3a
       0.097215556 0.0013939431 -0.013383628 0.0010657795
000240 47 bd 6f 3d 61 1d 5a bc aa 62 7b 3c 11 3c f4 3d
       0.05853012 -0.013312669 0.015343348 0.11925519
000250 fb eb 40 3d c4 83 cc bd 6a c2 b8 bc 84 72 d4 bd
       0.04710005 -0.0998607 -0.022553641 -0.103734046
000260 0f 77 d0 bd 3d 8f 73 bd e0 de ea bd 02 80 e9 3c
       -0.101789586 -0.059462775 -0.11468291 0.028503422
000270 63 83 b0 3d af 55 4f bd 36 0b 4f 3c 2b 58 e6 3d
       0.0861881 -0.050618824 0.01263695 0.112472855
000280 9a f8 1d 3d 5a a7 d5 3d 9a 52 33 3d 6b c2 bd 3d
       0.038567163 0.104323104 0.043779947 0.09265598
000290 de ff 25 3d 6f 55 54 3d 5f 6c 4a bd 02 e1 1c 3b
       0.040527217 0.05183929 -0.049419757 0.0023937826
0002a0 1b 27 cf 3c e8 9b 97 3d b3 5f b5 3d 5e 85 72 3c
       0.025287202 0.07402784 0.08856144 0.014802305
0002b0 ab a2 5c bd de 2a f6 bd 2c cb ce bd b5 b7 6e bd
       -0.05386607 -0.12019895 -0.10097346 -0.058280665
0002c0 7f f9 85 3d 7a 8b 0a 3d e8 d0 d7 3d e7 db 81 bd
       0.06541728 0.03382442 0.105378926 -0.06340771
0002d0 cc b5 4c bd f1 92 03 3b fc d7 d9 3d c5 03 fb bd
       -0.049978063 0.0020076598 0.10636899 -0.12256578
0002e0 b0 9f f2 bd 73 a8 44 3d 22 46 de 3d 00 f1 83 3d
       -0.11846864 0.04801221 0.108532205 0.064424515
0002f0 cb 46 e9 bd 64 ec 1f bd 10 ce 1f bd 14 7d 8d bd
       -0.11390456 -0.0390438 -0.039014876 -0.069086224
000300 0e 04 4a 3d 8e cb a6 3c e7 05 9d 3d bd bc a1 3c
       0.049320273 0.020360734 0.076671414 0.019743318
000310 f6 b5 5c bd a9 1e 7e 3d d1 46 d2 3d cb c4 a1 3d
       -0.05388447 0.06204096 0.102674134 0.078988634
000320 1b af 43 bc 4f 54 51 3d a9 3b 2d bd 50 c7 37 3c
       -0.011943604 0.051105794 -0.042293224 0.011216953
000330 37 f9 91 3c 91 09 29 3d 69 a0 39 bc 3f 73 89 bc
       0.01781903 0.04126889 -0.011329749 -0.016778586
000340 75 86 81 3c a7 7d 06 3c aa 7b 5a 3c af c3 dd 3d
       0.015811184 0.008208669 0.013335148 0.10828339
000350 6d cf b8 bd f1 2b 5c bd 7e dd b0 3d 25 c1 55 3d
       -0.09023938 -0.053752843 0.08635996 0.05218615
000360 bc d2 96 3d 04 f3 81 3d 83 ce 78 bd bc a0 98 3c
       0.07364413 0.0634518 -0.06074382 0.018631332
000370 d6 5a 2b 3d ed 78 1f be 7f d5 9f 3c 18 e3 a7 3d
       0.041834675 -0.15573473 0.019510983 0.081976116
000380 b5 1f cf 3d d5 bf 5d bd 26 7a 63 3d f2 c6 d2 bd
       0.101134695 -0.054138023 0.05553641 -0.10291852
000390 60 1f b8 bd 36 6c 06 be 88 01 59 bc 10 12 2c bd
       -0.08990359 -0.13127217 -0.013244994 -0.042009413
0003a0 f9 1f f8 bd 5a 50 e8 bd ca 42 e8 bd 54 c1 7f 3d
       -0.12115473 -0.11343451 -0.11340864 0.06244023
0003b0 8e 77 a2 bd f8 fd 10 be bf 29 c9 bc 6d 3c c7 bd
       -0.079329595 -0.14159381 -0.024556039 -0.09728322
0003c0 6a ba 29 3b c3 ab 04 3e 59 c2 17 39 80 88 92 3b
       0.0025898465 0.12956147 0.00014472882 0.0044718385
0003d0 6e d4 3e 3d 58 d5 aa 3d 1f 75 ca 3d 6d e0 ac 3d
       0.046589307 0.08341473 0.0988562 0.08441243
0003e0 3c 05 09 be 23 1e 0a be 7b 53 95 bd 3b 8d 8c 3c
       -0.13380903 -0.13488059 -0.07291313 0.017157188
0003f0 37 96 75 bc b3 7c f5 3c 9a c9 4b 3d f9 38 f3 3c
       -0.014989427 0.029966688 0.04975281 0.029690253

fc1.bias f4 [64]
000000 27 55 aa bd 79 b3 07 3e 85 ea 34 bd 5f 6f ad 3d
       -0.08317023 0.13252057 -0.044168968 0.08468508
000010 aa 6a 32 3c 2c f4 b9 bd 11 ac 11 3e 05 90 b1 3d
       0.0108896885 -0.09079775 0.14225794 0.08670048
000020 1e 07 b3 bd 93 7d 58 3d 65 1c 3b 3b 19 6f 7f 3d
       -0.08741592 0.052854132 0.002855086 0.06236181
000030 47 c0 2b 3d 50 80 c5 bd f1 62 62 3d 34 8f b3 3c
       0.041931417 -0.09643614 0.05527014 0.02191887
000040 1f ba 03 be 59 a5 ba 3d 3e d9 e3 3d c0 5e 23 bc
       -0.12863968 0.09113569 0.1112542 -0.009971321
000050 b5 b3 3f 3d ce 42 02 b9 26 4c b3 bd e9 23 ae bd
       0.04680224 -0.00012422653 -0.087547585 -0.08502943
000060 67 08 e9 bc 01 41 8a bd 1b 9e 5d 3d bc bc 4c 3b
       -0.02844639 -0.0675068 0.05410586 0.0031240424
000070 ab 01 8e 3b c0 76 22 bd 65 a6 1d ba 7d 95 dc 3c
       0.004333695 -0.03966403 -0.00060138694 0.02692675
000080 a5 f5 68 bd 12 d5 00 be 24 3b a9 3c 6f be ba bd
       -0.05687489 -0.1258128 0.020658083 -0.091183536
000090 39 ff e3 bd dc 22 e5 3c 10 4f 2c 3c 7d f4 f2 bb
       -0.11132664 0.027970724 0.010516897 -0.007414399
0000a0 77 5e 3f 3d fc 01 34 3e 5f 0d 07 3e ac 37 76 3c
       0.046720948 0.17578882 0.13188694 0.015027922
0000b0 cd a0 aa 3d 19 69 ab 3b cb 28 5c bd 92 89 bf 3c
       0.083314516 0.0052310345 -0.05374984 0.023381028
0000c0 3b e0 ac 3d c2 50 c8 3d 50 f0 ad bd e9 ed 5d 3d
       0.08441206 0.09781028 -0.084931016 0.054181967
0000d0 e4 cb f7 bd 37 e1 65 3d e6 80 24 bd ee fb bc 3c
       -0.12099436 0.056122985 -0.04016199 0.023069348
0000e0 f7 3e b5 bd 9a 39 2d bd 0d c0 97 bd 11 86 09 bd
       -0.088499 -0.04229126 -0.07409678 -0.03357512
0000f0 69 7a da bd a2 61 bf 3d 3b 1f 73 bc 06 6d 23 bd
       -0.10667879 0.09344794 -0.014838989 -0.039898895

bn3.weight f4 [64]
000000 2b 3e 82 3f eb 68 7f 3f cd af 80 3f 71 2e 83 3f
       1.0175222 0.9976947 1.005365 1.0248548
000010 e0 0a 7f 3f ec 81 82 3f 2c 3b 81 3f 10 21 84 3f
       0.9962597 1.0195899 1.0096183 1.032259
000020 41 49 7a 3f 59 c1 7a 3f 9c b5 7b 3f ec db 84 3f
       0.97768027 0.97951275 0.9832399 1.0379615
000030 4c b7 82 3f 53 56 7c 3f 95 5b 79 3f 20 45 7d 3f
       1.0212188 0.9856922 0.9740537 0.989336
000040 1f dd 81 3f de 30 80 3f c8 78 83 3f e0 96 83 3f
       1.0145606 1.0014913 1.0271235 1.0280418
000050 0e ae 80 3f 3b ab 7c 3f c4 ee 86 3f e0 3f 81 3f
       1.0053117 0.98698777 1.0541615 1.0097618
000060 99 d8 80 3f c0 64 7b 3f 1a 4c 7f 3f f1 92 82 3f
       1.00661 0.9820061 0.99725497 1.0201093
000070 6b 6c 7a 3f bc dd 81 3f 68 5a 7d 3f db eb 7c 3f
       0.9782168 1.0145793 0.98966074 0.98797387
000080 97 fd 83 3f 9b 4c 7f 3f 1a c6 7c 3f 6c 36 80 3f
       1.0311764 0.99726266 0.9873978 1.0016608
000090 df 68 7a 3f 82 91 7f 3f 02 fc 85 3f c5 70 81 3f
       0.9781627 0.998314 1.0467532 1.011254
0000a0 22 95 7e 3f 05 46 82 3f e6 2f 83 3f a4 a1 81 3f
       0.9944631 1.0177618 1.0248992 1.0127454
0000b0 6e fe 80 3f ee 27 80 3f 29 13 81 3f c1 d2 7d 3f
       1.0077646 1.0012186 1.0083972 0.9914971
0000c0 f0 02 80 3f f1 d3 7b 3f d1 5a 82 3f b6 da 7f 3f
       1.0000896 0.9837027 1.0183965 0.999431
0000d0 70 c7 81 3f 5a d4 7d 3f 71 b8 81 3f 6f 62 84 3f
       1.0138988 0.9915215 1.0134412 1.034254
0000e0 6d f0 79 3f 50 0e 81 3f 9e dc 79 3f ee 12 7e 3f
       0.97632486 1.0082493 0.9760226 0.99247634
0000f0 65 e1 7c 3f 9a 11 86 3f 3a a8 7f 3f 49 d1 7d 3f
       0.98781425 1.0474122 0.9986607 0.9914747

bn3.bias f4 [64]
000000 d2 75 43 bd 30 9e c1 3c cb cd 1d 3b 96 c9 ef 3c
       -0.047719784 0.023635 0.002407896 0.029270928
000010 af 52 02 bd 39 fc 06 bc fb 6b e4 3b ce d4 d3 bc
       -0.031817134 -0.0082388455 0.00697088 -0.02585831
000020 0f 2a 1a 3c c2 78 0c 3c 15 1f ca bc c6 9a 7b bd
       0.009409442 0.008573713 -0.024673024 -0.0614269
000030 78 9c 1d 3d 3c 5f 05 3d b6 af d2 bb bd 12 bc bc
       0.0384793 0.032561526 -0.006429638 -0.022958154
000040 a3 64 f8 3b 1b 03 5a bd 01 45 8f bc b3 eb 0f bd
       0.007580356 -0.053225618 -0.017488958 -0.03513689
000050 12 33 0e bd c8 d8 4d 3d 55 91 f6 bd 91 ba 8c ba
       -0.034716673 0.050255567 -0.12039439 -0.0010736753
000060 b1 d4 d1 bc 8a a0 1f bd 7c 92 b1 bc b5 d2 35 bb
       -0.025614114 -0.03897146 -0.021676295 -0.0027744
000070 e1 89 86 3d 1a 77 f6 bb 9a 0c 14 bd c6 92 59 bc
       0.06569267 -0.007521522 -0.03614483 -0.013279622
000080 25 5f f0 bc 34 97 02 bd 53 ec 16 3d 39 80 b1 3c
       -0.029342243 -0.03188248 0.03684647 0.021667587
000090 a7 c7 7c 3c d3 4a f2 3a da 07 ec 3b e9 1c 67 3d
       0.01542846 0.0018485434 0.0072030844 0.056424055
0000a0 b7 bd 67 3c ec a1 13 3c 61 bc e7 3b e3 11 3a bd
       0.014144353 0.009010773 0.007072017 -0.045427214
0000b0 5d 3b 87 3d 2a d7 84 bc e5 d8 34 bd 09 69 3f 3c
       0.066031195 -0.01621588 -0.04415216 0.011682757
0000c0 7b c1 73 3d bb 9b 89 3d 1a d8 1d 3d 7e 95 35 3d
       0.05951069 0.06719156 0.03853617 0.04433202
0000d0 0f fd d1 bc 3c a4 5d 3d 0d 15 b8 bc 02 5d 44 bd
       -0.025633363 0.054111704 -0.022470975 -0.04794026
0000e0 14 bc de bb 58 4c 06 bd a8 7a 7a 3d 3d 14 03 bd
       -0.006797323 -0.03278765 0.06115213 -0.032001723
0000f0 6b 1b 89 ba ad 59 f6 bb 44 90 89 3d be 38 82 3d
       -0.0010460442 -0.0075180144 0.067169696 0.06358479

bn3.running_mean f4 [64]
000000 85 93 b8 3f 48 b2 0f 40 5b 48 ad 3f 0c a9 d8 3f
       1.4420019 2.2452564 1.3537706 1.6926589
000010 18 64 dc 3f 7a 3b e2 3f 20 04 dd 3f 78 98 df 3f
       1.7218046 1.7674401 1.7266884 1.7468405
000020 a0 1c e7 3f 2b 94 d1 3f 37 f9 c1 3f df 47 ca 3f
       1.8055611 1.6373342 1.5154179 1.5803183
000030 d7 38 a9 3f 2a 4f f5 3f 35 bd f8 3f 51 5b e8 3f
       1.3220471 1.9164784 1.9432741 1.8152868
000040 54 4d 0b 40 11 8a e7 3f 3b 20 2c 40 b5 96 d3 3f
       2.1765947 1.808901 2.6894672 1.6530367
000050 1b 97 ed 3f 62 a8 b3 3f 8a 98 f6 3f a6 d2 bc 3f
       1.8561739 1.4035761 1.9265301 1.4751785
000060 a6 ab ef 3f d8 36 12 40 4b 1d 1a 40 d7 2c a6 3f
       1.8724258 2.2845974 2.408038 1.2982434
000070 4f b3 ee 3f bd 69 0b 40 78 e3 e2 3f 76 7b d1 3f
       1.8648471 2.1783288 1.7725668 1.6365802
000080 18 c0 15 40 ab 5a af 3f f3 87 c6 3f 91 b0 cd 3f
       2.3398495 1.3699545 1.5510238 1.6069509
000090 85 26 02 40 3e 0f 0a 40 27 e3 af 3f b4 80 fc 3f
       2.033601 2.1571803 1.3741196 1.9726777
0000a0 e4 56 11 40 7a b9 01 40 25 77 1b 40 9e 39 e5 3f
       2.2709284 2.0269456 2.429147 1.7908208
0000b0 53 aa a1 3f 50 b9 c2 3f c6 a9 a9 3f e3 4a 22 40
       1.2630104 1.5212803 1.3254936 2.5358207
0000c0 54 77 da 3f 7a 6b f4 3f d6 5b af 3f 66 64 e0 3f
       1.7067666 1.9095299 1.3699901 1.7530639
0000d0 1e 11 b5 3f 47 dc c4 3f c9 32 cb 3f 3c db d3 3f
       1.4145849 1.5379723 1.5874873 1.655128
0000e0 6b 4f f1 3f 6e 96 ae 3f 70 43 ca 3f ee 61 f0 3f
       1.8852361 1.3639657 1.580183 1.8779886
0000f0 41 81 e7 3f b3 45 da 3f 44 f1 09 40 8f 14 d5 3f
       1.808632 1.705252 2.1553507 1.6646899

bn3.running_var f4 [64]
000000 79 e2 3d 41 98 2b 18 42 95 53 75 41 61 c3 24 41
       11.867791 38.042572 15.332906 10.2977
000010 6e a8 75 41 ee 9b 40 41 86 34 17 41 9a 33 0e 41
       15.353621 12.038069 9.450323 8.887598
000020 eb 9b d8 40 7e 88 6f 41 10 0e 2c 41 c9 fb bc 40
       6.769033 14.970823 10.753433 5.9057355
000030 7b 49 0a 41 8d f3 b2 41 fe c0 a7 41 ac cb b1 41
       8.64294 22.368921 20.969234 22.22445
000040 63 2f 41 41 69 e8 08 41 32 e5 37 42 f1 bd 8a 41
       12.074069 8.556741 45.973824 17.342745
000050 ca 0e 81 41 68 63 d3 40 38 9f f9 40 82 2e b5 40
       16.132221 6.6058846 7.800686 5.661927
000060 f5 e1 f2 40 37 0c 05 42 ff 40 2c 42 a2 67 f9 40
       7.5900826 33.26193 43.063473 7.7939005
000070 6e ec 97 41 57 af da 41 d7 a4 fe 40 2b a8 0c 41
       18.990444 27.335615 7.957622 8.791057
000080 23 c5 3d 41 e7 81 1f 41 4a ae 13 41 1a 80 35 41
       11.860629 9.969214 9.230051 11.343775
000090 7b 86 77 41 5e f1 f4 41 aa 29 dc 40 27 75 a6 41
       15.470332 30.617855 6.880086 20.807203
0000a0 36 08 c2 41 a1 5b 8c 41 c8 70 b4 41 a0 9f 72 41
       24.25401 17.54474 22.555069 15.163971
0000b0 90 16 cc 40 a0 0c b6 40 5f 61 67 41 08 dc 09 42
       6.377754 5.689041 14.461272 34.464874
0000c0 c2 23 52 41 ce db 57 41 a6 29 ae 40 56 7b 81 41
       13.13373 13.491163 5.442584 16.185223
0000d0 54 05 4b 41 bf 5d 05 41 e1 99 ec 40 7a 07 7b 41
       12.688801 8.335387 7.393784 15.689325
0000e0 69 81 92 41 a4 4c f4 40 f7 7f 5b 41 c6 cb 13 41
       18.313189 7.6343555 13.718741 9.237249
0000f0 e3 c6 68 41 3c 56 e2 40 ad c4 fe 41 ec 14 a0 41
       14.548556 7.0730267 31.846033 20.010216
