tuning_results/best_models_during_tuning_lightning_logs/ec_stand_GCN_best_model_logs/checkpoints/epoch=106-train_loss=1.53-train_f1=0.19-val_loss=1.55-val_f1=0.36.ckpt (torch, 157362 bytes, 54 tensors)

conv1.bias f4 [64]
00000000: ce00 223d 5175 aeb9 c582 4ebc d72e 6f3d
00000010: 33ad 8a3a fc77 713c 967c 943c 0243 13bc
00000020: 362f c0bb d164 8b3c e39f 9d3b 7c68 0e3b
00000030: 63ab 433c 09f6 513d 2a63 03bd 8b11 033c
00000040: 171c c2bb 4ef7 4b3c 4ef4 393b 8ba5 8e3c
00000050: 7208 80bc 7806 fabb b437 c9bb 5f4c 78bc
00000060: cfc1 b93c c716 aa3c a357 703c a8b7 6b3c
00000070: 1a6b 1dbb 248d 59bd 91f4 163d f9f8 3c3c
00000080: ec5f 0abd 992c 50bc 5d46 843b 4dfc 603c
00000090: 932e 2ebd 04aa 4d3c 7a87 783a ec08 d5ba
000000a0: 8360 023d 0e72 9c3c bdc1 aa3b b9ce f3bc
000000b0: 47b4 27bc 8afe 583c 4f2d 843a fb22 df3b
000000c0: 840b 85bc b181 ea3b ee91 a63c 289d 8bbc
000000d0: 1dda c7bc f4c4 5dbc c15e 243d dfd2 2b3c
000000e0: ac38 a4bc b42c e83c 69fa 4a3b f2df 933b
000000f0: 6a3d 163d 3609 b4bc 6f04 b03b a033 303c
0.03955155 -0.00033275274 -0.01260442 0.05839428 0.0010580182 0.014738079 0.018125813 -0.008988144
-0.005865003 0.017015846 0.0048103197 0.0021729758 0.011942717 0.051260028 -0.032076992 0.007999788
-0.0059237587 0.012449099 0.0028374377 0.017412921 -0.015629027 -0.0076301657 -0.0061406735 -0.015154927
0.022675423 0.020762814 0.014669332 0.014387049 -0.0024020136 -0.053113118 0.03685433 0.011533969
-0.033782884 -0.012705945 0.0040367083 0.013732028 -0.042524885 0.012552742 0.0009480637 -0.0016253269
0.031830322 0.019097354 0.0052110837 -0.029761659 -0.010235853 0.013244281 0.0010084304 0.00680959
-0.016240843 0.0071565737 0.020333257 -0.017042711 -0.024395997 -0.013535727 0.040129427 0.010487287
-0.020046555 0.028341629 0.003097201 0.0045127803 0.036679663 -0.021977048 0.0053716223 0.010754496

conv1.lin.weight f4 [64, 25]
00000000: ce5e 01be e91b 5e3e 4c2c 07be e4ce db3d
00000010: 8a79 34be 4aa4 acbd 9856 efbc 1142 053e
00000020: 883f 693e abff 38bd 4a56 12be 2e89 0ebe
00000030: 26e7 863e ffbf eb3d a3c5 28be 87f0 163e
00000040: 582c f5bd 71ac 2b3d fa2a 1e3d ac6e 6fbe
00000050: 83de 46be cc57 1ebd 8670 693e dac4 48be
00000060: a5f7 0fbe 5f77 4a3e 372f cf3d 17e6 c83b
00000070: 5613 1c3e edee 57be 7a8c 3a3e 872f 09be
00000080: 17d1 d4bd 2021 67be 4c47 433e d6d6 363c
00000090: 4e67 3f3d 1c7d 613e 9f23 e13c e0c7 3ebe
000000a0: 3dff 2ebe 4ede 0dbe e622 24be a343 85be
000000b0: b7d5 40be 1647 7fbe dd6f 0dbe 8519 8fbe
000000c0: 0820 d43d 6f1f 1fbe 8f5b 81be e963 233e
000000d0: 0889 d03d c014 6abe 99bf 523d 6b57 5dbd
000000e0: a235 13be cc85 153d 0ea7 68be 0302 5dbe
000000f0: ca5f 683d 71f8 853d c477 ef3d c191 0abe
00000100: d4c7 12be 1a99 4c3e a4a2 51be be89 913d
00000110: 35d9 1ebe 5b96 993d e5d4 70be 066e 3bbe
00000120: 464c 753d ff65 c43d 19ef a0bd 9dae bd3d
00000130: 3b18 57be 15b5 c8bd 8460 7e3c e707 3b3d
00000140: 957c 0abd f7ac 6e3e bbba 09bd f9e8 713d
00000150: eacf 8dbe 56af d73d 5c76 b23d 2462 50be
00000160: 07ae 59bd b96c 0f3e 4e52 8a3d 0288 20bd
00000170: 0f14 803e 1f5e 10be 4759 9ebd 580c 683d
00000180: a17d e3bc d1a9 313e 2d64 77be 33b3 e83d
00000190: b1e0 583e af5f c03d e9e2 fdbd 08d8 013e
000001a0: c1be c43d 1902 85bd 08c3 413e 8abc 993d
000001b0: 98b8 61be f402 cc3d d8f7 f93d df99 74be
000001c0: 5a18 983c 9239 323e d4a1 0b3e 568d d73d
000001d0: 127b 81be 3755 61be 12bd 8bbe aff8 84be
000001e0: 5b37 b8bc 4235 353e df26 563d a766 543e
000001f0: 4f1f 113d 3af8 593e 6003 b43c 2e7b 853d
00000200: 7d6a 163e 62ce 17bd e494 74be 5af5 133e
00000210: 33d5 6d3e f5a3 86ba 434a 87be 1ad4 5bbe
00000220: c753 a9bd dda9 76be 5648 debd a080 04be
00000230: bd13 21be 170c a4bd db7d 84be c6eb 423e
00000240: e1b6 30be 59cb 883d 26f4 3e3e 6702 ccbc
00000250: 88ff 673e 5928 02bd fee9 13bd 5c38 aa3d
00000260: a7a0 5fbe cf16 febd 161c 713e 4c46 4bbe
00000270: dc65 383e 057f 4e3d db3e 843e 0d5a 2cbe
00000280: b416 123e 4eea 683d 908b 6ebe 3e61 233e
00000290: 8505 07bd c35d 51be 862d 6a3d f9a8 21bc
000002a0: e125 62bd c02e 13bc ef24 e3bd 5966 f1bd
000002b0: e6eb 633e 5b3c 6ebe 56b4 84be 1a80 73be
000002c0: 8fa6 e83d 39d2 acbd 07b4 5fbe 9fdb 103e
000002d0: 2cae dd3d d6d1 613d 4d69 653e bbc1 04bd
000002e0: a669 f13d 4f72 2fbe d43f 273d bb1b bdbd
000002f0: 701e 46bd 76b9 6bbd 8b8e babd 7fa9 673d
00000300: 5fbb 4d3b 667f e6bd 46d5 4f3e d21d c5bd
00000310: 6093 003e 5936 253e 372a 7e3e f0ce 0d3d
00000320: 6af1 3f3e 46d3 81bb 3c70 1bbe 186b 9b3c
00000330: e151 08be 227a 82be f96f 06be 6794 2f3e
00000340: e93d f63c 7546 823d 028a 243d 995f 4a3e
00000350: fc4a 8e3d 6b7e 3cbd ff93 35be 7ed4 653e
00000360: b2b5 bf3d f0f0 5f3e c563 e3bd b2ae bc3d
00000370: 46ca 17be b256 193e 780d 7b3e aa79 47be
00000380: de51 42be 69b7 8abd d596 723e cc53 28be
00000390: bdd1 7b3e 181a 843e 32e3 703e e7c9 503e
000003a0: ea23 203e 2828 053e 99bf a2bb 3ffc 6cbe
000003b0: b3ca d2bc 9d13 cbbd 4928 7dbe 96ab 573e
000003c0: fe87 2e3e 857c 13be 5c21 36be 3089 d9bd
000003d0: fce0 c6bc 2611 293e 3021 7f3e a94c f83d
000003e0: 26df 753e 7145 94bd 0f39 c5bd 5257 2c3e
000003f0: 45a1 33be 9aaf 54bc 4559 2abe c7a7 fe3c
-0.12633821 0.21690334 -0.13200492 0.10732821 -0.17624488 -0.08429773 -0.029216096 0.13013484
0.22778141 -0.0451657 -0.14290729 -0.13919517 0.26348227 0.1151123 -0.16481642 0.14740191
-0.119713485 0.0419125 0.038615204 -0.23382062 -0.19420819 -0.03865795 0.2279683 -0.19606343
-0.14059313 0.19772099 0.101164274 0.0061309445 0.15241751 -0.21087237 0.1821765 -0.13397036
-0.10391443 -0.2257123 0.19070166 0.011159619 0.04672938 0.22020382 0.027482806 -0.18630934
-0.17089553 -0.13854334 -0.16028938 -0.26028165 -0.18831526 -0.24929461 -0.13812204 -0.27949157
0.10357672 -0.15539335 -0.25265166 0.15956081 0.10182387 -0.22859478 0.051452253 -0.054038446
-0.14375928 0.03650455 -0.22719976 -0.21582799 0.056731977 0.06541527 0.11692765 -0.13532163
-0.14334041 0.19980279 -0.20472199 0.0710635 -0.15512545 0.07499381 -0.23518713 -0.1830369
0.059887193 0.09589767 -0.07858104 0.092618205 -0.21005337 -0.09800164 0.015525941 0.045661833
-0.033810217 0.23308168 -0.033625346 0.05906007 -0.27697688 0.105314896 0.087139815 -0.20349938
-0.05314448 0.14006318 0.067539796 -0.039192207 0.25015303 -0.14098404 -0.07731872 0.056652397
-0.027769865 0.17349936 -0.24159308 0.113623045 0.21179463 0.0939325 -0.12396795 0.12680066
0.09606696 -0.06494541 0.18922055 0.07506664 -0.22043073 0.09961501 0.122054756 -0.23886822
0.0185663 0.17404774 0.13635951 0.105250046 -0.25289208 -0.22005163 -0.27292687 -0.2597098
-0.022487333 0.17696097 0.052283164 0.20742284 0.03543025 0.21286097 0.021974266 0.06517635
0.1468906 -0.037062056 -0.23884922 0.14449063 0.2322586 -0.0010272252 -0.26423845 -0.21467629
-0.082679324 -0.24088235 -0.10853641 -0.12939692 -0.15730186 -0.080101185 -0.2587727 0.19035253
-0.17257263 0.066794105 0.18647823 -0.02490349 0.22656071 -0.03177676 -0.036111824 0.08311531
-0.21838628 -0.12406694 0.2354587 -0.19851035 0.18007606 0.050414104 0.25829205 -0.16831227
0.14266473 0.056864075 -0.23295426 0.15955064 -0.03296425 -0.20445924 0.05717232 -0.009866946
-0.055211905 -0.008983314 -0.11091029 -0.117870994 0.22257957 -0.23265211 -0.25918835 -0.23779336
0.113598935 -0.08438534 -0.21846019 0.14146279 0.10824236 0.055131756 0.2240345 -0.03241132
0.11787729 -0.17133449 0.040832356 -0.09233805 -0.04836887 -0.057549916 -0.09109219 0.05655813
0.00313922 -0.11254768 0.20296201 -0.096248284 0.12556219 0.16134013 0.24820791 0.03462118
0.18744436 -0.0039619533 -0.15179533 0.018971965 -0.13312484 -0.25483805 -0.13128652 0.17146455
0.030058818 0.06361095 0.040170677 0.1976303 0.06947896 -0.046019 -0.17732237 0.2244434
0.093608275 0.21869254 -0.11103014 0.09213008 -0.14823255 0.14974478 0.24516857 -0.19480005
-0.18976542 -0.06773264 0.2369035 -0.16438216 0.24591728 0.25801158 0.23524168 0.2038952
0.156387 0.130036 -0.004966688 -0.23143099 -0.02573142 -0.0991585 -0.24722399 0.21061549
0.17044064 -0.14402969 -0.17786163 -0.106218696 -0.024277203 0.16510448 0.24915004 0.12123997
0.24010906 -0.072398074 -0.09630024 0.16830185 -0.17541988 -0.01298132 -0.16635616 0.031085862

bn1.weight f4 [64]
00000000: e3bb 833f e123 833f 6b4e 7e3f 32f0 803f
00000010: 2829 7d3f 00a8 803f 022e 7c3f 061c 803f
00000020: f28a 7d3f 519c 7b3f 632f 813f 64ee 803f
00000030: 7545 7d3f 9a8d 7e3f 69f1 803f 6e62 803f
00000040: a53c 7d3f 6d5b 7b3f 4ee6 823f 8e2b 7b3f
00000050: a93d 813f 2847 7d3f b612 803f 3160 813f
00000060: efcb 7a3f 1f97 7d3f 2e6e 7c3f 637b 803f
00000070: 30df 833f ae16 7d3f bff4 803f 718c 7f3f
00000080: 5716 833f a582 7b3f 1be7 803f 0815 803f
00000090: 3efd 813f 0566 803f 06ce 7f3f ef56 7e3f
000000a0: 5246 7f3f d826 7f3f f13d 7d3f fb48 823f
000000b0: 4f35 803f 37ee 7c3f 4a5b 7f3f 55c2 823f
000000c0: ffe3 7c3f ac25 803f 441d 7b3f 0b36 803f
000000d0: 4003 823f f99b 803f 0d6d 813f aa83 7d3f
000000e0: c3fb 803f d57f 7d3f a1bb 7e3f d4a5 803f
000000f0: 69e1 803f f9ae 7e3f e67d 7e3f 1436 7c3f
1.0291713 1.0245324 0.99338406 1.0073302 0.98890924 1.005127 0.985077 1.0008552
0.9904014 0.98285395 1.0092586 1.0072751 0.9893411 0.99434817 1.0073673 1.0030038
0.9892066 0.9818638 1.0226533 0.98113334 1.0096942 0.989367 1.000571 1.010748
0.9796743 0.9905872 0.9860562 1.0037655 1.0302486 0.9886273 1.007469 0.9982367
1.0241193 0.9824622 1.0070528 1.0006418 1.0155408 1.0031134 0.9992374 0.993514
0.99716675 0.99668646 0.9892264 1.0178522 1.0016268 0.98800987 0.9974867 1.0215555
0.98785394 1.0011497 0.9809153 1.0016493 1.0157242 1.0047599 1.0111405 0.9902903
1.0076832 0.9902318 0.9950505 1.0050607 1.006879 0.9948574 0.99410856 0.98520017

bn1.bias f4 [64]
00000000: 6885 093d 3521 a93b 3d35 3abb 8286 bfbb
00000010: 5afd f63b dfaa 2a3c 1cda deba a44b 1c3b
00000020: 8d3a be3c cb3d 243d 7e9e ecbc a0d1 71bc
00000030: 4dd1 5dbc acb1 8b3b ef18 f2bc 474a c93b
00000040: 01da c73b 05cb 11bc 6df5 9c3c 432b 9abb
00000050: 1bba 41bd 6b84 bcbc 7f8b 293c 8cc0 1bbc
00000060: ec51 63bc f74a 7e3c 8d2f 6b3c bab3 40bc
00000070: 1ba5 84bc 0ffc 10bc 468d 043b ebbc 293c
00000080: 953c 953a 94fe 02bc 0089 63ba 69fa 863b
00000090: 1843 b33c c734 4dbc b713 3abc c1bf 5f3c
000000a0: 9634 48bc b00a e23b 02cb b9bb e0f6 15b8
000000b0: ab11 acbc c368 443b f215 39bc 9aba 74bc
000000c0: 76c2 59bc 2624 a6bc 1b57 993c 6355 10bd
000000d0: cfc9 73bc e2bf 083b 8343 8e3c b25b 8f3c
000000e0: ebb8 ef3c 550c 0ebc c38b 133b 604f 26bd
000000f0: 8fbd 2f3b 77f9 a9bc 1e04 08bd 5792 b23c
0.03357449 0.0051614293 -0.002841308 -0.005844892 0.007537526 0.010416715 -0.0017002258 0.0023848796
0.023221279 0.040097993 -0.028884169 -0.014759451 -0.013538671 0.0042631235 -0.029552905 0.0061428878
0.006098986 -0.008898501 0.019159997 -0.004704864 -0.047296625 -0.02301236 0.0103482 -0.009506356
-0.013874512 0.015520803 0.014354599 -0.0117616 -0.01619201 -0.008849158 0.0020225807 0.010359983
0.0011385853 -0.0079952665 -0.00086797774 0.0041192067 0.021882579 -0.01252479 -0.011357239 0.013656558
-0.012219569 0.0068982467 -0.0056699524 -3.575429e-05 -0.021004518 0.002996967 -0.011296736 -0.014937067
-0.013290992 -0.020280909 0.018718293 -0.03523768 -0.014879658 0.0020866324 0.017366176 0.017499778
0.02926298 -0.008669932 0.0022513724 -0.04060304 0.0026815867 -0.020748837 -0.03320705 0.021798296

bn1.running_mean f4 [64]
00000000: bd62 2a3e 98dc ad3e fb4b 843e b0ce 533e
00000010: 77f6 8c3e a479 d93e c97e 443e 9135 3c3e
00000020: c8b9 b63e 1e14 be3e cac7 933e 1976 653e
00000030: 98d5 9b3e d7ff 873e 52a8 473e f4bc 993e
00000040: 05d4 8f3e bc87 d83e 489b a03e 5527 9d3e
00000050: a823 4b3e 76af 003e 9235 a13e 9bb5 5f3e
00000060: e33f 993e c2c0 5a3e 79c1 6e3e 8dc2 273e
00000070: 1164 6b3e 854f 703e f070 963e 229a a33e
00000080: 2541 653e 1e39 843e 93b7 0d3e 92ed 763e
00000090: c338 3b3e 2695 8b3e b5b5 523e 6ffe 6e3e
000000a0: 23ed 433e eca4 c63e 2e6c 543e df7d 8e3e
000000b0: ad6a d93e f804 6a3e 373f 803e 8321 ed3d
000000c0: 4e7f 233e 275e 203e 515f 7b3e 5524 9d3e
000000d0: 428a 013e 5d8d 1b3e dcc0 843e 86fa 863e
000000e0: 29e9 893e acd1 903e 869b 873e ad35 3f3e
000000f0: 728d 8b3e 9df7 173e 1151 643e 0f95 793e
0.16639228 0.33957362 0.25839218 0.20684314 0.27531788 0.42475617 0.1918899 0.18379809
0.35688615 0.37124723 0.28863364 0.22408332 0.30436397 0.26562378 0.19497803 0.30026972
0.28091446 0.42291057 0.3136847 0.3069407 0.1983782 0.12566933 0.31486183 0.2184662
0.29931554 0.21362594 0.23315991 0.16382809 0.22987391 0.23467834 0.2938304 0.31953532
0.22388132 0.25824827 0.1383956 0.24114063 0.18283372 0.2726223 0.20577128 0.23339246
0.19133429 0.387977 0.20744392 0.27830407 0.424642 0.22853458 0.2504823 0.115786575
0.15966532 0.15660916 0.24548079 0.30691782 0.12650397 0.15190645 0.2592839 0.2636301
0.269357 0.28284967 0.26485842 0.1867282 0.27256352 0.1484055 0.2229655 0.24373268

bn1.running_var f4 [64]
00000000: 287b de3c 8010 073e f3a5 c73d 4f51 a03d
00000010: 30ef 443e 937c e33e 1dba 383d ec73 b23d
00000020: 4bab 953e 814f d13e 0513 703e 2d9f ed3d
00000030: aae4 f63d 5509 be3d 1c38 403e 6aec 2c3e
00000040: d210 343e a9ed be3e 641f 6e3e 6704 413e
00000050: 664a d33d 2217 3f3d 8387 5d3e c4c7 003e
00000060: 4917 4f3e cba9 2f3e 720b d13d 052c 893d
00000070: d276 f83d 2e89 2b3e a2c3 4a3e ed89 483e
00000080: 11fb 033e d054 db3d 60c1 b73d 2933 de3d
00000090: af93 983d 20d3 4b3e 4cc1 d83d 08c0 0f3e
000000a0: c6a8 943d 030b bd3e 9710 a03d 5767 2c3e
000000b0: 9db7 a43e 59ee 113e 770d 553e 6f41 343d
000000c0: 6e71 6d3d 1295 ae3d d546 143e ef7f 743e
000000d0: ccd6 f23c fd0e 6e3d c1df e33d ef73 1d3e
000000e0: 824d 393e 67e5 2b3e 3e71 033e dd8e d13d
000000f0: dba7 6c3e 9516 553d fa0d a73d 1d9e 5c3e
0.027158335 0.13189888 0.09748449 0.078280084 0.19231868 0.4443098 0.045099366 0.087135166
0.2923225 0.4088097 0.23444755 0.11602626 0.12055333 0.09279124 0.18771404 0.1688706
0.17584541 0.37290695 0.23254162 0.18849336 0.10316925 0.04665292 0.21633725 0.12576205
0.20223726 0.17154615 0.10207261 0.06697849 0.12132038 0.16751549 0.1980119 0.19583865
0.12888743 0.10709536 0.0897243 0.10849602 0.074500434 0.19904757 0.105837435 0.14038098
0.072587535 0.36922464 0.07815664 0.16836296 0.32171336 0.14251079 0.20805918 0.044007715
0.057969503 0.08524527 0.14480145 0.23876928 0.029643439 0.058119763 0.11126662 0.15376256
0.18095973 0.16786729 0.12836167 0.10232327 0.23110907 0.05202349 0.08156963 0.2154469

conv2.bias f4 [64]
00000000: 64af ef3c b469 9dbb 9da1 773b d4d7 37bc
00000010: 9791 213d b177 2eb8 e37d d33c 3a82 bd3c
00000020: 5f1b 07b5 16c4 ff3b 0b44 24bb 5328 153c
00000030: 496a d63c 4feb 653d df95 04ba 7a77 f9ba
00000040: a189 c0bc 7097 0a3d 922c 2a3d fb56 ad3b
00000050: 550b 1ebc 76d9 29bd f9a1 61bb 9378 cb3c
00000060: a8df 96bc 6d4d 39bc 42c9 ddbb 24e8 563c
00000070: 3179 503c d147 233d 6b17 e23a 2d62 3a3b
00000080: 0448 06bd 7c05 4e3c f0e5 b63c 5edd 213d
00000090: 2ca6 f93b d5d1 213c 1743 de3c d4ee adb9
000000a0: 1e21 89bc d319 1a3d 5d27 adbc 0409 0a3d
000000b0: 7911 a13a 8f37 f93b f8fa 9b3b cafb 7bba
000000c0: a137 b3bc 6596 d139 1862 d0bc dc42 603b
000000d0: 981a cbbc b640 5e3c 3831 9f3b c418 4b3c
000000e0: cb08 353d 2c4a a03a 6623 1cbc 6fd5 9cbd
000000f0: 6a11 d53b f479 213c 8553 aab9 1101 48bc
0.029258437 -0.0048038606 0.0037785538 -0.011220891 0.039445486 -4.1596304e-05 0.025816863 0.023133386
-5.033125e-07 0.0078053577 -0.002506497 0.009103852 0.026173728 0.05613261 -0.0005057733 -0.0019032799
-0.023503127 0.03383583 0.04154641 0.00528991 -0.009646256 -0.041467153 -0.0034428819 0.024837768
-0.018417194 -0.011309964 -0.0067683766 0.01311687 0.012724207 0.03986341 0.0017249411 0.0028439865
-0.032783523 0.01257455 0.02232644 0.039517753 0.007618686 0.009876688 0.0271316 -0.00033175072
-0.016739424 0.037622284 -0.021136934 0.033700004 0.0012288532 0.0076055 0.0047601424 -0.00096124096
-0.021877112 0.0003997564 -0.0254374 0.0034219539 -0.024792954 0.013565233 0.0048581623 0.012396041
0.04419784 0.0012229136 -0.009529924 -0.07657897 0.00650232 0.009855736 -0.00032487154 -0.0122072855

conv2.lin.weight f4 [64, 64]
00000000: 89b2 cb3d c283 043e 4d34 2f3e ddfa 20be
00000010: 90e0 013e 7ac8 42be b5ff a33b 036e 09be
00000020: 7a92 68bd 23e3 b7bd b0b0 7ebd dfe0 4c3d
00000030: 781e 3fbe 6194 0d3e 1131 42bd a983 373e
00000040: 3d36 35be 432a 8b3d d707 503e 784c 38be
00000050: 83ed aebd acf9 a43d deea 763d 9092 2b3e
00000060: 2f8d b4bd 5e94 eabd 6117 bd3d ede9 1cbe
00000070: 671a 45bd 8c60 2fbd b545 b93d 7524 17be
00000080: 87c0 30be fbf4 19be 9c49 92bd 927c 06be
00000090: c736 a1bd 42e6 04bd 3064 5a3e 7dde b2bc
000000a0: 9b3b b13d 1678 bc3d f9a6 57be 8127 f43d
000000b0: 2728 f13d 3d37 ff3d b214 13be 5979 eebd
000000c0: 6987 eebd 00d4 be3d ea40 9abd 439c d4bd
000000d0: 02c7 edbd 5295 aa3d b959 2cbe 49f9 ae3c
000000e0: 47f3 0cbe 3478 06be d9f7 173e 2d2e 433e
000000f0: 90bf eb3d a520 0f3e e51c 253c ab69 a03a
00000100: ab9e 2f3e 7d53 983c 0755 38bc 0910 5b3e
00000110: 3264 c7bb 6a7d 4abe 8f6b 553e 0fba a8bc
00000120: 5bb3 d0bd fe3d 443e 5e4e 2a3e 0149 933d
00000130: b61f 303e 1ef2 af3d effe 23be 6d1a 68bd
00000140: 6d60 ff3d 4a78 44be de50 783e b8fb 6a3d
00000150: 292e 213e 1d33 9f3d f2c2 703e 8aa8 db3d
00000160: d20a 2d3d a7ae d2bc 05c9 f2bd dd08 b5bd
00000170: 81e9 b1bc 9bcb 173d cfaf 24be 4982 1b3e
00000180: e3db b73d 77ac 1d3d 4452 b73d 89e3 083e
00000190: 5348 d0bd 3b9d d43d 9277 0b3e 319c f5bb
000001a0: 892b 413e 842d f13c 9a35 733d 9292 3ebc
000001b0: 20b1 033c bbe4 09be 4f0a 9abd feea c7bd
000001c0: c713 633d c930 bfbd c066 3b3d bff3 393e
000001d0: 7d82 113e 33d4 163e 4c4d 3a3d 91a3 c03d
000001e0: 812d ca3d fb5f c53d e5b9 8c3d b5c2 e1bd
000001f0: c905 3c3d 99f1 ce3c 094b 9d3d 8a9b f5bd
00000200: 9f8e 0c3e 49ea 1b3d fa4e 193d 4940 003e
00000210: 059d 9eba 20f5 033d 0fae c1bd 40b4 403e
00000220: 496f 333d 1c0e f93d f006 b83d d237 343e
00000230: eca9 a7bd d6e0 9dbd f560 d63c 4519 2bbe
00000240: 3f49 acbc 9125 2a3e b355 3abe 3f80 263e
00000250: 9645 32be 485a 893d 8cf2 61bd 8531 163d
00000260: a513 423e 87eb 973c 4dee fabd 874c 9abd
00000270: d443 83bc 90f5 553e fd5c 4abe 4cc3 223e
00000280: 2b53 2fbe 8756 a4bd 08d2 b63d 3b56 b03c
00000290: 747c 503d 255c 4abc 86c3 2e3d 9671 b8bc
000002a0: e95e dcbd 35c6 d5bd 96a4 633e b60b c13c
000002b0: 705c 283e 5371 053d 51d2 d93d ee28 10be
000002c0: 11d2 24be 7166 933d f37e 083e 4847 153d
000002d0: 814d 7a3d 37b1 0b3e 6a4e 443e 67f9 c3bd
000002e0: f413 833d 59c5 e9bb 2964 4f3e 01ec 72bd
000002f0: a246 8ebc 5d23 263e 838e 423d 5296 0c3e
00000300: af36 1a3e c6ad 4b3e 1acb 133e 460e 2dbe
00000310: 18b6 373d b075 12be a0cf 463e 472a 2a3e
00000320: b541 5bbe db0a 2cbe e415 e73d 827c 2abd
00000330: c9d5 bf3d e6d7 ddbc 3a52 043e 7dd7 b1bd
00000340: 4452 09be 89b3 8c3d e1a0 5dbe c9e5 11be
00000350: a410 823d 2dd3 593e 65ce 353e 0baa 3f3e
00000360: ed81 56be 552a 08bd 2271 1dbe 8a66 213d
00000370: dc82 4e3e 2ece 4dbe fa11 70bd 3cc7 b23d
00000380: 28a9 af3d caf6 23be 8c46 e3bd cb2b 313d
00000390: 7f57 ccbd 4751 e5bd fa2f f63d 6d7e 04be
000003a0: 923a 2c3e 29bf 6e3d f3b5 23be 6903 0abe
000003b0: 6532 9c3d 44ab 5d3c 17ba 173e 308a 1c3e
000003c0: 48bd 103e e8b7 53bc 9289 fe3c a4c7 16be
000003d0: 3546 fe3d 7cf8 f5bb ffde 153e 155c e9bd
000003e0: 2ded 05be e68f 613d b598 323e e29f e53d
000003f0: 3b6d 1bbe fbdb a83d b0c3 c3bb 13ea c8bd
0.09946162 0.12940887 0.17109795 -0.15720697 0.1268332 -0.19021788 0.005004848 -0.13420872
-0.056780316 -0.0897887 -0.06218022 0.05001914 -0.18663967 0.13826133 -0.047410075 0.17921318
-0.17696472 0.0679517 0.2031549 -0.1799792 -0.085413955 0.08055434 0.06028258 0.16755128
-0.08815991 -0.1145408 0.09232975 -0.1532361 -0.048120882 -0.042816684 0.09046499 -0.14760001
-0.17260943 -0.15034859 -0.07142946 -0.13133457 -0.07871776 -0.032446153 0.21327281 -0.021834606
0.08653947 0.09202592 -0.21059789 0.11921597 0.117752366 0.12461708 -0.14363363 -0.11644239
-0.11646921 0.093177795 -0.075319126 -0.10381367 -0.11610223 0.08329262 -0.16831101 0.021359103
-0.13764678 -0.13131791 0.1484064 0.19060583 0.11511147 0.13977297 0.01007769 0.0012238523
0.17150371 0.018594498 -0.011250741 0.21392836 -0.0060849423 -0.19774404 0.20841812 -0.020596532
-0.10190459 0.19164273 0.16631457 0.07191659 0.17199597 0.08591102 -0.16015218 -0.056665827
0.12469564 -0.19186512 0.24249598 0.057368964 0.15740265 0.07773421 0.23511866 0.10725506
0.042246647 -0.025718046 -0.11854748 -0.08839581 -0.021717789 0.037059408 -0.1608269 0.15186419
0.08977487 0.038494553 0.08951238 0.13368048 -0.10170045 0.10381552 0.13619831 -0.007495426
0.18864264 0.029440649 0.05937729 -0.011631625 0.008037835 -0.1346616 -0.075214975 -0.09761618
0.055438783 -0.09335477 0.045752287 0.18159388 0.14209934 0.14729385 0.045483872 0.09406198
0.098719604 0.096374474 0.06871394 -0.110234655 0.045903955 0.025261687 0.076803274 -0.11992557
0.1372628 0.03806523 0.037428834 0.12524523 -0.0012101239 0.03221619 -0.09457027 0.1881876
0.0438073 0.12160894 0.08985698 0.17599419 -0.08186707 -0.077089 0.02616928 -0.16708858
-0.02103102 0.16615893 -0.18196754 0.1625986 -0.17409357 0.06706673 -0.05516295 0.03666832
0.18952806 0.018544925 -0.122524835 -0.07534128 -0.016023554 0.20894456 -0.19762035 0.15894812
-0.1712157 -0.08024316 0.08926779 0.021525493 0.050899938 -0.0123510705 0.042666934 -0.0225151
-0.1076029 -0.104381956 0.22230753 0.023565155 0.16441512 0.032578778 0.10635818 -0.14078113
-0.16095759 0.071972735 0.13329677 0.036444932 0.06110907 0.13641821 0.19170538 -0.09569054
0.0640029 -0.0071341214 0.20253052 -0.059307102 -0.017367665 0.16224428 0.04749919 0.13729218
0.15059923 0.19890508 0.14432946 -0.16899976 0.044851393 -0.14302707 0.1941514 0.1661769
-0.21411784 -0.16801016 0.11283472 -0.041622646 0.09366948 -0.027080487 0.12921992 -0.08683679
-0.13410288 0.06870181 -0.21643402 -0.14247812 0.0635083 0.21271963 0.17754515 0.1871721
-0.20948 -0.033243496 -0.15375188 0.03940443 0.20167106 -0.20098183 -0.058610894 0.08729407
0.08577186 -0.16012111 -0.1109744 0.043254655 -0.09977626 -0.11197143 0.120208696 -0.12938853
0.16819218 0.058287773 -0.15987377 -0.13477863 0.076267995 0.013529602 0.14817081 0.1528709
0.14134705 -0.012922265 0.031071458 -0.14724594 0.12415735 -0.0075064283 0.14635848 -0.113945164
-0.13078757 0.055068873 0.17441066 0.11212136 -0.15178387 0.08245083 -0.0059742555 -0.09810271

bn2.weight f4 [64]
00000000: be39 813f d8e7 803f 10ed 763f 0a7d 813f
00000010: a659 7d3f 51dd 7f3f 3c8c 7f3f 0242 803f
00000020: 3b86 803f f06b 803f 8f78 833f dfee 803f
00000030: d6a8 7d3f b2c8 813f 7f30 803f d74f 813f
00000040: da5e 7b3f be58 803f 0afb 7e3f 0373 813f
00000050: 9f97 793f c21f 7c3f fc79 803f 4eac 813f
00000060: 9dde 763f fa99 803f 8cfa 823f 1c8a 7d3f
00000070: 3658 803f 1eb5 7f3f d9bf 813f f930 7d3f
00000080: 5048 803f 5f65 843f 174e 833f 7930 823f
00000090: b55b 7d3f 96b1 833f e479 813f 305a 7d3f
000000a0: 3a14 813f 7aac 7b3f fe2e 7e3f 7a15 7f3f
000000b0: ada0 783f 32a2 7e3f 2a77 7e3f cebe 803f
000000c0: b653 7d3f cd6c 803f 6365 7e3f 14ca 823f
000000d0: f120 823f 04af 7f3f 3332 803f 51a4 7b3f
000000e0: 3af6 7f3f 1a2d 7f3f 2cdd 813f baff 813f
000000f0: b62a 7b3f 03aa 7b3f 8248 7f3f 6da7 7f3f
1.0095747 1.0070753 0.9645548 1.0116284 0.9896492 0.9994708 0.99823356 1.0020144
1.0040964 1.003294 1.0271167 1.0072898 0.9908575 1.0139372 1.00148 1.010249
0.98191607 1.0027082 0.99601805 1.0113224 0.9749698 0.9848596 1.0037227 1.0130708
0.9643343 1.004699 1.0232711 0.99038863 1.002692 0.9988574 1.0136672 0.9890285
1.0022068 1.0343436 1.0258206 1.0171043 0.9896806 1.028857 1.0115323 0.9896574
1.0084298 0.98310053 0.99290454 0.99642146 0.9712017 0.9946624 0.9940058 1.0058229
0.9895586 1.0033203 0.99373454 1.0217919 1.0166303 0.9987643 1.001532 0.982976
0.99985087 0.99678195 1.0145621 1.0156167 0.98112047 0.9830629 0.99720013 0.99864846

bn2.bias f4 [64]
00000000: 8bf1 e03c 605a 393c 833d 573c c3e3 0d3d
00000010: 2b46 2c3c c14e b53c 1b00 9d3c ded9 c53c
00000020: 8a8c 233a db0e bc3a f1ee 0d3d ab41 2c3c
00000030: d79c 81bc f3df eb3c 5b14 923c 827a 7cbc
00000040: 7df5 6dbc 32cb 0e3d 2b25 bd3c 2793 5eba
00000050: 4ffc 06bb f3be 1abd 04b6 da3c a40b f83c
00000060: 6052 7539 572c 4c3b c4b2 1d3b 3d4c 073d
00000070: f37b d33c cb03 b6bc db6a 0e3d 74b5 963c
00000080: d7eb b6ba 5a2b cc3a 106e 74bc 8002 983c
00000090: 9fac f4bb 0d67 fb3c df47 583c 8f32 dc3c
000000a0: d757 4439 7ac7 813c 44b0 48bc 8572 2fbc
000000b0: cac7 04bc 792a 763c 5561 923c 7a3a 903c
000000c0: 6c19 27bc e2b9 b0bc 62ac 523b 1fcd 09bc
000000d0: c29a 65bc b2b7 913b 09b0 553b b3f0 7d3c
000000e0: 48b0 4ebc e07f 57bb c85f 883c f9ad 9d3b
000000f0: 4733 a63b 3e30 a63c 033b b83c f84c 273c
0.027458927 0.011313051 0.013137224 0.03464104 0.010514776 0.02213228 0.01916509 0.024151739
0.00062388985 0.0014347689 0.0346517 0.010513703 -0.015821857 0.02879331 0.017831972 -0.0154100675
-0.014523861 0.03486175 0.023089012 -0.00084905553 -0.0020597165 -0.03777976 0.02669812 0.030278988
0.00023395708 0.0031154358 0.0024062851 0.03303169 0.02581594 -0.022218606 0.034769874 0.01839707
-0.0013955784 0.0015576885 -0.014918819 0.01855588 -0.007466867 0.030688787 0.013200729 0.026879577
0.0001872474 0.015842188 -0.012249056 -0.010708456 -0.008104274 0.015024775 0.017868677 0.017606009
-0.010198932 -0.02157301 0.0032146205 -0.008410721 -0.014013948 0.004446947 0.0032606146 0.015499282
-0.012615271 -0.0032882616 0.016647235 0.004811999 0.0050720307 0.020286676 0.022489076 0.010211222

bn2.running_mean f4 [64]
00000000: 2b96 a93e 0d37 ba3e 4ff4 f63e c57d ab3e
00000010: c830 c33e 055a af3e 78d5 223f 7416 033f
00000020: 38d7 b53e 8567 8b3e d0c2 a83e 2f12 a83e
00000030: 7ead cc3e 5b68 263f 6044 ab3e 4310 cf3e
00000040: 64dc e73e 8b5c 9d3e 443b 8c3e 5cdb a83e
00000050: 5791 d33e 07ae 9a3e 6cf0 d03e f0ad 133f
00000060: 2a9c e53e b65e b33e 6dd5 ab3e 2110 cf3e
00000070: fd8f cb3e bb04 c33e 20c6 a43e e864 8a3e
00000080: d717 873e ac11 b93e 6058 af3e d1f4 d33e
00000090: a0b5 b33e 8f9c b73e 5dc4 ab3e bf74 d83e
000000a0: 1095 6a3e c77e a03e b5d1 b73e daf2 e03e
000000b0: 9a5c fe3e 9dd7 ed3e 9fa6 093f e6c3 c53e
000000c0: 9866 993e 0388 bf3e e136 c83e ac5a 993e
000000d0: 8cbd f33e a4e5 9b3e 1b6a de3e 76c2 d13e
000000e0: 6c2a af3e 4b72 d13e 1bce 7f3e b4c5 e23e
000000f0: 21c7 a43e b3ba ad3e 0361 1f3f 63bf 973e
0.33122382 0.36370125 0.48233268 0.33494392 0.38123155 0.34248367 0.6360698 0.51206136
0.3551576 0.27227417 0.3296113 0.32826373 0.39976114 0.65002984 0.33450603 0.40442094
0.45285332 0.30734667 0.27388966 0.32979858 0.41321823 0.30210897 0.40808427 0.5768728
0.44845706 0.35033196 0.33561268 0.40441993 0.39758292 0.38089547 0.32182407 0.2703011
0.26385376 0.36146295 0.34247112 0.41397718 0.35099506 0.35861632 0.3354825 0.4227657
0.22908425 0.31346723 0.3590218 0.4393528 0.49680024 0.46453562 0.5376987 0.3862602
0.29961085 0.37408456 0.3910437 0.2995199 0.4760555 0.3044864 0.43440327 0.40968674
0.34212053 0.4090751 0.24980967 0.4429146 0.32183173 0.33931503 0.62257403 0.29638204

bn2.running_var f4 [64]
00000000: 827d 903e 3a7f 293f 544c 9f3f 0813 da3e
00000010: 34fe 153f dc92 163f ee7e a63f 80c5 9a3f
00000020: 2600 d13e 94d3 803e 2cd1 ef3e 8de7 a23e
00000030: 4da5 433f 659c 783f f2be 333f 7449 5f3f
00000040: 8cd5 1e3f 18f5 8d3e b9e3 793e e1b8 f63e
00000050: 4842 363f 9531 193f 7f3a 0b3f 67f3 853f
00000060: 78ad 963f edb6 173f fa51 0e3f 4915 863f
00000070: 6dcc be3e d2fa d13e 98be 023f de1b 9e3e
00000080: 1cc8 853e eb43 5e3f 8dd2 c93e 1e83 413f
00000090: ea07 093f 67f9 3e3f 3a6e a33e 3e89 703f
000000a0: 70a3 693e 2d26 cb3e f6d7 dd3e a4d5 2b3f
000000b0: 480f 413f ab75 6c3f ae91 6f3f 2cc0 023f
000000c0: 5beb 003f 880a 163f 754c 343f f214 993e
000000d0: 048f 8b3f f6dc e43e e566 4b3f 9980 003f
000000e0: 7e9d db3e 7e8e 2b3f e8dd 5b3e 7ae8 833f
000000f0: 66bd c03e ec40 913e 7703 cc3f 69c8 553e
0.28220755 0.6620976 1.2445168 0.42592645 0.5859101 0.5881784 1.3007486 1.2091522
0.40820426 0.2516142 0.46839273 0.31817284 0.76424104 0.9711364 0.70213234 0.87221456
0.62044597 0.27726054 0.24403276 0.48187926 0.7119489 0.5984128 0.5438613 1.0464906
1.1771688 0.592635 0.55593836 1.0475246 0.3726534 0.41011673 0.51072073 0.30880636
0.26129234 0.86822385 0.3941845 0.75590694 0.535277 0.7459931 0.31920034 0.93959415
0.22816253 0.39677563 0.43328828 0.67122865 0.7541394 0.9236705 0.93581665 0.5107448
0.50359124 0.5860982 0.70429164 0.29898793 1.090302 0.4469983 0.7945388 0.50196224
0.42893595 0.670143 0.2147137 1.0305321 0.376445 0.28369844 1.5938557 0.20877232

fc1.weight f4 [64, 64]
00000000: add4 0b3d bd11 e6bc 8cca 093e 7407 c4bd
00000010: 954f 5bbd 27de e6bd 413e 153d fe83 a2bc
00000020: 06b7 9e3d 6dba 96bd cffc d4bd d03c 13be
00000030: ae40 da3d 2e75 16bd d563 c4bd a67c f93d
00000040: c8cc 87bd 29a9 c0bd 77c6 d03c c59e 8b3d
00000050: 18ae b33d 3f74 ad3d 9ef4 fdbd 3c16 ffbd
00000060: ca84 15bd 5f3e 5fbd 5944 4c3d ea6e 66bd
00000070: 3e15 763d 307b 12ba cac2 88bd aa9a 04bd
00000080: afa8 803c f105 0e3d 4b77 303d 7a49 18bd
00000090: e6fd 923d b1e1 7c3d a5af bb37 a33f 973d
000000a0: d451 c73d 03f8 b7bc f944 e2bd e0e1 22bb
000000b0: e9d0 4bbd 884e ac3d ddf9 efbb deae 803d
000000c0: 30d3 0fbd 2c8e 92bc fb8b aebc 0262 373d
000000d0: 5324 9d3d 543b 45bb 6bed 64bd 5a31 b8bb
000000e0: 8a2c 12bd eb6e 633d d5c9 e83c 42d2 073e
000000f0: fcf8 1dbd 5f02 f23d 3d23 ecbd eb57 9e3c
00000100: 2565 733d 1840 0dbd 9a46 e53b 7cc0 7bbc
00000110: fbbc 143c 38f7 59bc 3c4b 043d 6c15 023d
00000120: c7a3 a93d e130 b0bd f13c ce3d 3f7c 693d
00000130: fef7 a23d 1c0c d63b 5aab b3bd 1d87 08bd
00000140: 2579 0dbe d2a2 3fbd a752 2abd 350d 3d3d
00000150: d15f 14bd 727c 70bd 1ff4 143e 14a7 bc3d
00000160: 1456 ab3d df97 bcbd b3a4 2a3d 5b63 943d
00000170: 66e0 6cbd dff2 72bd 03d4 8c3d c31c c53d
00000180: b195 853c 5676 86bd 7f84 4abd 30ba 0bbd
00000190: 17c1 bf3d c45f f93d d6b3 9bbb 275c d53d
000001a0: 6f6b a43c 665c ad3d ee6a aebc 149a 353d
000001b0: 2610 cabd 7d0f 85bc 5bd5 843d 9947 bc3d
000001c0: f2c2 34bd 46fa ccbd fa53 413d 6a98 a7bd
000001d0: 8e07 e4bb f152 883d e078 22bd 8427 a13d
000001e0: 6bfc ae3d dd4f de3d 1754 f3bb 5472 5bbd
000001f0: c0c2 873d d018 a93c 2484 7e3c bb74 9f3c
00000200: 993f dfbc 2743 143d 0cc9 02be e149 7e3d
00000210: 727f 003e 2335 a13d e480 e73c a948 803c
00000220: 2bfc f1bd be7c 50bb 308c 1ebd 73a4 6bbd
00000230: b949 c83d ca07 8a39 9b2b 5fbc 728e 3c3a
00000240: 0e15 6b3d de62 61bc 22a7 813c cfcb f43d
00000250: 0c5b 3e3d 665c c8bd f504 c2bc 36ca d4bd
00000260: 7a2e cebd a133 6abd 01e8 ecbd ae0a ee3c
00000270: c285 ad3d 95c9 50bd d2e4 393c bd4e e73d
00000280: 0fcc 183d 0300 d93d 18cc 2f3d 16c5 be3d
00000290: c805 2e3d 4e1a 563d fe60 4fbd 5ab1 5b3b
000002a0: 01bf ca3c f60d 9b3d b794 b23d 7684 6d3c
000002b0: 8aa7 57bd 871c f6bd c996 cdbd f0e1 6cbd
000002c0: e0d7 873d aeae 073d 4317 d63d 7f25 7ebd
000002d0: 7934 4fbd 6bfc 333b 7b7a d93d 2601 fbbd
000002e0: b42c f3bd 2d01 483d 16a2 df3d adff 873d
000002f0: 00e5 e6bd ff81 27bd 3fd0 24bd ae7a 8dbd
00000300: 55ce 3c3d b198 903c c1ee 9e3d 8ed0 953c
00000310: c9a2 5bbd b0b0 7f3d c846 d33d 6c50 a03d
00000320: e133 54bc 8966 433d 28cf 34bd 77e3 0d3c
00000330: 476f 913c 42cd 203d f031 4ebc 5329 85bc
00000340: a1a3 6d3c be03 d63b 4e21 543c 8273 da3d
00000350: e88f babd bfe5 61bd 19b0 aa3d ed99 553d
00000360: a338 9a3d b2ad 813d 769b 78bd 8d94 9f3c
00000370: 7d56 1e3d 8a20 1fbe 6e11 a13c a9dc a43d
00000380: ccd2 d13d 7007 5abd 82cf 593d 513c d3bd
00000390: bae9 b8bd c38e 08be ca37 61bc b1e8 31bd
000003a0: 362a f7bd 204c ebbd 417b e8bd 441f 7d3d
000003b0: 1466 a8bd 958a 0fbe 8da9 d8bc f098 c9bd
000003c0: 42e2 f33a e8e5 033e 3b64 9a3a eaad 153b
000003d0: 6c30 3a3d 6dd7 aa3d 1517 c63d 5f30 aa3d
000003e0: cf2b 0cbe 35dd 0bbe a002 99bd ca23 963c
000003f0: 4a28 77bc ae9c f13c 7e54 4e3d 686a f73c
0.03413837 -0.02808463 0.13456172 -0.09571734 -0.053542692 -0.11272841 0.036436323 -0.01983833
0.07749753 -0.07359777 -0.10399782 -0.14378667 0.10656868 -0.036732845 -0.09589354 0.12181978
-0.06630856 -0.09407265 0.02548526 0.06817392 0.0877344 0.08469438 -0.12400173 -0.12455413
-0.03650359 -0.05450284 0.04986987 -0.05625812 0.060078852 -0.00055878144 -0.06677778 -0.03237406
0.015705435 0.034673635 0.043082517 -0.037179448 0.071773335 0.061738674 2.2373928e-05 0.073851846
0.09732404 -0.022457128 -0.11048312 -0.002485387 -0.04975978 0.08413416 -0.007323487 0.06283353
-0.035113513 -0.017890058 -0.021306982 0.044771202 0.07672944 -0.0030095177 -0.055890482 -0.0056211175
-0.035687007 0.0555257 0.028416554 0.132638 -0.038567528 0.118168585 -0.11530159 0.019329032
0.05942263 -0.034484953 0.0069969418 -0.015365716 0.00907826 -0.01330357 0.03229831 0.03175871
0.08283191 -0.08603073 0.100702174 0.057003256 0.07957457 0.0065322053 -0.08772917 -0.03333198
-0.13815744 -0.046786137 -0.04158273 0.046155173 -0.03622419 -0.05871243 0.1454625 0.09211555
0.083660275 -0.092086546 0.041660976 0.07245513 -0.05783119 -0.05931365 0.068763755 0.096246265
0.01630673 -0.065655395 -0.049442764 -0.03411311 0.09363001 0.12176469 -0.0047516627 0.10417967
0.02007076 0.08464889 -0.021291222 0.044336393 -0.09866361 -0.016242737 0.06486007 0.09193344
-0.044131227 -0.10008673 0.047199227 -0.081833676 -0.0069589084 0.06656445 -0.039666057 0.07868865
0.08544239 0.108550765 -0.007425796 -0.05357583 0.066289425 0.020641714 0.0155344345 0.019464841
-0.027252005 0.036196854 -0.12772006 0.062082175 0.12548617 0.07871463 0.028259702 0.015659647
-0.11815675 -0.0031812633 -0.038707912 -0.057529878 0.097796865 0.00026327214 -0.013621236 0.0007192857
0.057393126 -0.013756482 0.015826765 0.11952936 0.046473548 -0.097832486 -0.023684004 -0.10390131
-0.100674585 -0.057178143 -0.11567689 0.029057827 0.08472778 -0.050973494 0.011346059 0.11294315
0.03730398 0.10595705 0.04291925 0.09314935 0.042485982 0.05227118 -0.05062961 0.0033522458
0.02474928 0.07571022 0.08719771 0.014496913 -0.052650012 -0.1201716 -0.100385256 -0.05783266
0.06632972 0.033125572 0.104536556 -0.062047478 -0.05058715 0.0027463685 0.106190644 -0.122560784
-0.11873761 0.048829246 0.10919587 0.06640563 -0.11274147 -0.04089546 -0.04023766 -0.06908165
0.04609521 0.017650934 0.077603824 0.018287923 -0.05362204 0.06242436 0.10316235 0.07827839
-0.012951822 0.047705207 -0.044142872 0.008660189 0.017753256 0.03925825 -0.012585148 -0.016255056
0.014504344 0.006531208 0.012947394 0.106665626 -0.09109479 -0.055150744 0.08334369 0.05214875
0.07530334 0.06331958 -0.060695134 0.019480014 0.0386567 -0.15539756 0.019661631 0.080499
0.102452844 -0.05322975 0.05317641 -0.10314239 -0.09028955 -0.1333571 -0.013746211 -0.043434802
-0.12068598 -0.11489129 -0.11351634 0.061797395 -0.08222595 -0.14017709 -0.026448036 -0.09843624
0.0018606859 0.12880671 0.0011779139 0.0022839257 0.045456335 0.083418705 0.09672371 0.08310007
-0.13688587 -0.13658603 -0.07471204 0.018327612 -0.015085289 0.029493656 0.050373547 0.030202106

fc1.bias f4 [64]
00000000: 2509 a9bd cfb2 053e b63c 3cbd 07c5 a93d
00000010: da54 283c 0a09 babd daa3 103e e2fc ae3d
00000020: 31e4 b3bd d50b 533d 8b8c 5b3b ff77 7a3d
00000030: dd65 2c3d ee5b c4bd 3faf 623d 654d b03c
00000040: 6a10 03be 6eb7 bb3d 173a e33d 7468 29bc
00000050: ed0e 3b3d 4e16 03ba 21b4 b0bd 73d8 adbd
00000060: 621d f8bc 367a 8bbd a686 553d a0ad 3e3b
00000070: 7ac2 8e3b 8043 23bd 4b15 023a 4128 d23c
00000080: 6ead 60bd 05e8 00be 387d a53c cfbb b9bd
00000090: 0953 e3bd daa9 e73c 0215 2c3c be33 e0bb
000000a0: d1e0 403d 41bf 323e 7f9e 073e a271 6f3c
000000b0: e370 aa3d 5034 9e3b f15a 61bd 15a7 c03c
000000c0: 7cfd aa3d 746d c83d 70b2 acbd 7b74 553d
000000d0: 3589 fabd ac1e 5d3d abf0 27bd 1209 bf3c
000000e0: 246b b9bd d058 2ebd 7087 95bd 6c0e 10bd
000000f0: 81d8 dabd fb7e bc3d 02ee 7bbc 559c 22bd
-0.08253697 0.13056491 -0.045956336 0.08289533 0.010274136 -0.09083755 0.14125004 0.08544327
-0.087837584 0.051524956 0.0033500518 0.061149593 0.042089332 -0.09587847 0.05534291 0.02152128
-0.1279923 0.09165846 0.11095064 -0.010339845 0.04566853 -0.0005000577 -0.08628107 -0.0848855
-0.030287448 -0.06810419 0.052130364 0.0029095188 0.0043566795 -0.039859295 0.00049622793 0.02565396
-0.054852895 -0.12588508 0.02020131 -0.09069025 -0.11099822 0.028279234 0.0105030555 -0.0068421056
0.0470894 0.1745577 0.13244055 0.0146144945 0.08322313 0.0048280135 -0.05501837 0.02351717
0.083491296 0.097865015 -0.08432472 0.052113038 -0.122332014 0.05398433 -0.041001003 0.023319755
-0.090536386 -0.042565167 -0.07301223 -0.035170004 -0.10685826 0.09203907 -0.01537657 -0.03969987

bn3.weight f4 [64]
00000000: f250 823f 222f 7f3f 70a9 803f aa2a 833f
00000010: b4ca 7e3f 4596 823f 4e3c 813f e722 843f
00000020: c972 7a3f 92b1 7a3f 1bf1 7b3f 49e7 843f
00000030: 988d 823f c83e 7c3f 5789 793f 540c 7d3f
00000040: ebb2 813f 9904 803f 5c91 833f d09b 833f
00000050: 5699 803f 2654 7c3f b3b0 863f 2f0c 813f
00000060: 68d0 803f 4fc5 7b3f 8305 7f3f 0f6b 823f
00000070: b72a 7a3f 3fcb 813f 596f 7d3f 75bf 7c3f
00000080: 5032 843f 050b 7f3f efef 7c3f b239 803f
00000090: 5c79 7a3f 181e 7f3f beec 853f 9e79 813f
000000a0: e2b3 7e3f 692d 823f ec0d 833f d59c 813f
000000b0: 1ed3 803f ebc5 7f3f c302 813f 14d3 7d3f
000000c0: 7bbb 7f3f 65bc 7b3f bd46 823f c7a1 7f3f
000000d0: dccf 813f 9592 7d3f f687 813f a96b 843f
000000e0: 9db3 793f eb1d 813f b509 7a3f 8813 7e3f
000000f0: c7f6 7c3f cefd 853f b474 7f3f 31b6 7d3f
1.0180953 0.99681294 1.0051708 1.0247395 0.9952805 1.0202109 1.0096529 1.0323151
0.978314 0.979272 0.9841477 1.0383083 1.0199461 0.98533297 0.9747519 0.98846936
1.0132726 1.0001403 1.0278735 1.0281925 1.0046794 0.985659 1.0522674 1.0081843
1.00636 0.98347944 0.99617785 1.0188922 0.9772143 1.0140151 0.9899803 0.9872964
1.0327854 0.9962619 0.9880361 1.0017607 0.9784143 0.99655294 1.0462873 1.011524
0.9949323 1.0170108 1.0238624 1.0125986 1.0064428 0.99911374 1.0078968 0.99150205
0.9989545 0.9833434 1.0177838 0.9985623 1.0141559 0.9905179 1.0119617 1.0345355
0.97539693 1.0087255 0.9767106 0.9924855 0.9881405 1.046808 0.9978745 0.9910613

bn3.bias f4 [64]
00000000: cab0 3fbd 1700 c63c d972 0c3b 0f98 de3c
00000010: 3299 03bd 72c0 01bc 49fe d73b cc92 c3bc
00000020: 1ef8 063c b845 fe3b 3e8a c9bc 95e7 6ebd
00000030: ca8b 1a3d 42aa 023d 3f8e dabb 3909 b9bc
00000040: 7cb8 003c c5b4 55bd b68a 83bc bee8 06bd
00000050: d4f9 0cbd fd3f 473d e88a f1bd ceab 43ba
00000060: 8562 d9bc 4aa8 19bd 12ba b5bc e9f8 0dbb
00000070: acbd 833d c270 d6bb 2ffe 0abd 8690 54bc
00000080: 8adf e6bc 5f4a f9bc 1d1c 123d a6c3 b13c
00000090: cc19 763c 6049 cd3a c513 ff3b f44c 613d
000000a0: 7e84 693c d65b 133c d662 de3b 8632 35bd
000000b0: 24b9 843d bb5d 89bc 204a 31bd b92e 343c
000000c0: 5111 703d b73d 863d f07d 173d 9982 2d3d
000000d0: 1d79 cdbc 2027 5d3d 60fb b3bc 2812 3cbd
000000e0: 7724 e5bb 53dd 04bd e9fb 713d 68fc fdbc
000000f0: 5dfc 6cba 623a 07bc 4052 853d 6265 803d
-0.04679946 0.024169965 0.002143076 0.027172117 -0.03212852 -0.007919418 0.0065915924 -0.02387371
0.008237867 0.007759776 -0.024602052 -0.058326323 0.03773097 0.03190065 -0.006669789 -0.022587406
0.0078564845 -0.05217435 -0.016057353 -0.032936804 -0.034417942 0.04864501 -0.117940724 -0.00074642606
-0.026536236 -0.03751401 -0.022183452 -0.0021663255 0.064326614 -0.0065442035 -0.033933815 -0.01297391
-0.028182764 -0.03043097 0.035671342 0.021699738 0.015020799 0.0015662126 0.007784339 0.05500503
0.01425278 0.008994063 0.0067866845 -0.044237636 0.06480625 -0.016768327 -0.04328358 0.010997468
0.058610264 0.0655474 0.036985338 0.042360876 -0.025082165 0.05399239 -0.02197045 -0.045915753
-0.0069928723 -0.032437634 0.05907813 -0.031004146 -0.00090402906 -0.008253666 0.065098286 0.06269337

bn3.running_mean f4 [64]
00000000: fb4f b83f 9d32 0f40 8e93 a63f 73ae d63f
00000010: c36c d63f c273 e03f 518c db3f a4a5 da3f
00000020: 7e8c e33f b6cd ca3f 9b2b cc3f d7e0 ce3f
00000030: 57be a73f bd08 ed3f 92fb f03f 0249 e13f
00000040: 74fe 0840 0f1e e13f 8b08 2840 aab1 c63f
00000050: cb36 d93f f44f b63f 826d ed3f 3af5 bf3f
00000060: cb7c f83f f859 0f40 a09f 1040 687b 9b3f
00000070: 7ff3 e53f 2942 0a40 cd27 e13f e3d5 d83f
00000080: 1b64 1540 9cc0 a83f 4495 c73f f711 c93f
00000090: 050d 0140 3806 0f40 d664 a83f 08f2 f03f
000000a0: 437d 0c40 dfac ff3f 3d61 1340 5c9c d43f
000000b0: 2bee a83f 1bdb b63f 890f ad3f 13c0 1d40
000000c0: f1fe d23f 7eb0 ed3f 5c8f b83f 1379 db3f
000000d0: a759 b43f de5c bf3f 9ba6 cf3f 0d53 c73f
000000e0: 70b1 d93f ab5f ad3f 2a0a bd3f 9250 f13f
000000f0: dd06 d43f ebdc d93f 9af8 0640 f3d6 cb3f
1.4399408 2.2374642 1.301378 1.6771988 1.6751941 1.7535326 1.7152196 1.70818
1.777725 1.5844028 1.5950807 1.6162366 1.3104962 1.8518292 1.8826773 1.7600405
2.1405306 1.7587298 2.6255214 1.5522969 1.6969846 1.424315 1.8549044 1.4996712
1.9413084 2.2398663 2.2597427 1.2147036 1.7964934 2.160288 1.7590271 1.6940273
2.334235 1.318378 1.5592427 1.5708607 2.0164196 2.2347546 1.3155773 1.8823862
2.1951454 1.9974631 2.30281 1.6610217 1.3197683 1.4285616 1.3520366 2.4648483
1.6484052 1.8569486 1.441875 1.7146324 1.408986 1.4950216 1.6222719 1.557222
1.7007275 1.354482 1.4768727 1.8852713 1.6564595 1.7020544 2.1089234 1.5924972

bn3.running_var f4 [64]
00000000: f2cd 5941 ffe6 0142 1aa4 6e41 2715 0f41
00000010: c147 6941 0a47 3041 a67b 0941 2e8c f640
00000020: afc3 cc40 5114 5541 5f75 4f41 b33b da40
00000030: 66aa 0841 0a5f ac41 7362 a241 dd2a bd41
00000040: 727c 2b41 280d 0541 c810 4142 883e 7641
00000050: 7cb3 5b41 3484 d840 97d7 e940 1ba4 a940
00000060: 7fd9 0041 e2e2 f241 d9c1 2342 920a e440
00000070: 85e4 9541 da33 db41 57af f240 9a9e 2441
00000080: 082f 4841 d9eb 2641 9835 0341 b263 2241
00000090: c7a3 7941 f5f4 0d42 2873 aa40 9777 8e41
000000a0: b42d af41 d16f 8841 4255 9541 8113 5941
000000b0: 8e5f da40 c581 a240 0876 7641 8834 0a42
000000c0: 80b3 5141 006b 6641 94b5 bb40 b109 7041
000000d0: 454e 4841 2dcd fe40 2d27 ea40 0f3d 4441
000000e0: 363b 7a41 2bf5 eb40 2bb2 2a41 db90 1641
000000f0: 4f71 5f41 8fa5 e140 9c5f 0242 9e38 8041
13.61278 32.475582 14.915064 8.942664 14.580018 11.0173435 8.592688 7.704612
6.398887 13.31746 12.966155 6.8197875 8.541601 21.546406 20.29807 23.64593
10.717882 8.315712 48.266388 15.390266 13.731319 6.766138 7.307567 5.3012824
8.0531 30.360783 40.939304 7.1262903 18.736582 27.400318 7.583904 10.288721
12.511482 10.43258 8.200584 10.14934 15.602485 35.489216 5.326557 17.808393
21.897316 17.054598 18.66663 13.567262 6.8241644 5.078341 15.403816 34.5513
13.106323 14.401123 5.8659153 15.002366 12.519109 7.962546 7.317282 12.264907
15.639456 7.3736777 10.668498 9.410365 13.965163 7.05146 32.59337 16.027645

fc2.weight f4 [8, 64]
00000000: 7723 593c edf5 4bbd d8cf a8bd 7ffa bebd
00000010: 8473 37bd 7a44 ddbd 3bb0 1cbd 86e6 a0bd
00000020: 733a 52bd 0bf7 19bd 1003 ec3d 8aa4 e4bc
00000030: ea30 a23d 297f 78bd 0c2b 97bd 0731 b3bd
00000040: 7aa4 cdbd 4e3d ddbd b45a 3dbb 354e acbd
00000050: 824d 0b3d bf68 eb3d 7c3d 8e3c 1c19 17be
00000060: 08ff 503c 088e ba3d c53c ae3d c095 0b3e
00000070: a648 153d 2f78 aebd 1ffc f63c ca6b aabd
00000080: 77d3 b9bd 9e5d 9d3d dd00 48bd 6193 bc3d
00000090: e8a9 ae3d cff8 dabd 9e66 88bd 41f6 c63c
000000a0: ba22 173d bab7 153d e48a 313d 0ca6 5f3d
000000b0: c8a8 91bd 9f72 cb3d 5037 00bc 0ab1 6f3d
000000c0: 6327 49bd b3a7 eb3c 6546 fdbd 5f9b ce3b
000000d0: 5014 723d fe26 f73c 3020 043e 8a50 4c3d
000000e0: 22e0 8bbd 3a9c 92bd 682a 97bd 54b1 f3bd
000000f0: 4186 cfbd 0115 0c3e 0d4b 1dbd 6c6a 95bc
00000100: e9f3 e63d 85d7 d8bd a770 5dbd 9e8e 64bd
00000110: 3906 c73c 7976 97bd 6eed 513d 110f f93d
00000120: b371 eabc 8c79 bcbd da7f d73d fa84 6f3d
00000130: ace3 d7bd e7ba 5e3d 5285 57bd 880f 0fbd
00000140: 8e0c a5bd 4784 12bd 2428 0b3e 169c c9b8
00000150: 6525 953d 9206 d2bd 924b 05bd 0dd8 dbbd
00000160: 80c1 a8bd 26e0 1ebd 6e02 22bc de7b 523d
00000170: f94f 58bd 6c21 a23d e215 53bd 3e50 813d
00000180: 3f6f 11bd 35cb 303d a61b ce3d 16b1 bebd
00000190: ed82 abbd 167e cb3d d478 d3bd 81f6 9bbd
000001a0: 14a6 57bd 8525 5c3c 2c44 e4bd 5f23 c73d
000001b0: a012 a7bd 20d5 73bc 0259 a73d f230 2abd
000001c0: 1688 88bd 8906 87bd 27e8 98bc 337b 40bc
000001d0: fdbe 04be 7b2f f03d 2dca 46bc 7f75 54bd
000001e0: 5f48 9b3d b7b2 e33d 4933 55bd 9670 b33d
000001f0: f6d8 97bd 17d6 c5bc 3f24 273d 0601 31bd
00000200: 5840 99bd 1c45 00bd 86dc f5bd 25bd 343d
00000210: f5ee 6fbd d87e 513d 7139 c1bc 4074 0a3c
00000220: f9b4 52bc 3c28 89bb 2361 b0ba 750a fcbc
00000230: b3c9 793d 981d 95bd 478c 1cbc 0eca d8bb
00000240: 5449 72bd 38a6 58bd 95dd f23c 0eb4 5fbd
00000250: 86ea fabd 6435 a93d 9e4c 79bd c147 8f3d
00000260: 5592 34bd 1195 d8bd 0721 d8bd f71b 103e
00000270: a4ca da3d 8fcb 9dbd 7490 44bd 8ee5 8dbc
00000280: c2df 81bd a0d3 9abc 058b ea3c 8008 8dbd
00000290: c056 fd3d a0aa 363d ab8b 8abd 8561 ed3d
000002a0: f2fb acbc 85f2 f4bd 1943 ffbc 1411 143d
000002b0: a939 42bc b938 b33c 0de8 86bd 274b 933b
000002c0: 9edd e43d bf19 a33c e5bc c63d d8de 83bc
000002d0: 3988 a9bd ee9f 6c3c db8d 09be 8e7d 9cbd
000002e0: c5f2 b13d 072e 18bc 9be0 013e 2102 28bd
000002f0: baed de3a 983a 0a3e 2513 083e 7d5e 48bd
00000300: e5b3 5dbc 040a dd3c 264d 77bb 3159 833b
00000310: f000 5c3d b622 d8bd 3480 9abd bb7b b5bd
00000320: 6ea0 6bbd e996 7b3d ac47 1a3d 9d0c 30bd
00000330: d980 1c3c b52b bfbc 382e dfbd 3345 ad3b
00000340: c305 363d 69e0 053d 6b9d d7bb 939e 6dbd
00000350: c35a 0a3d f7e2 cb3d b98d babd 8a70 ac3d
00000360: 0b5f fdbc 7b76 273d c60f 75bd 9223 883d
00000370: 0d8b b53d 93c9 4f3d c991 9dbd 858b 8b3d
00000380: 206e 33be 8921 d5bd f4ad 183d 0113 ed3d
00000390: 0fd6 d03d df71 d3bc 9b7f e43c 5367 b93d
000003a0: f8cf 383d 39bc c83d 631f 8bbd 53a0 5c3d
000003b0: f770 fb3d c2be 313b 7bd6 08bd ab96 d9bd
000003c0: 0019 fb3d fbff 833d b636 aebb 595a 8d3d
000003d0: 46d3 8fbd 157c c9bc dac3 b4bd ad0e 06be
000003e0: 7ec1 74bd 0d92 b73b 54d0 e43c 7f51 4b3d
000003f0: ee52 c3bd e160 aabd 9316 e53b cdd9 543d
0.013253084 -0.04979508 -0.08242768 -0.09325122 -0.0447879 -0.108040765 -0.038254004 -0.07856469
-0.051325273 -0.037589114 0.115240216 -0.02791049 0.07919486 -0.060668144 -0.073812574 -0.087495856
-0.10041137 -0.108027086 -0.0028893175 -0.08413354 0.034009464 0.11494588 0.017363302 -0.14755672
0.012756117 0.091091216 0.085076846 0.13631344 0.036446236 -0.08519017 0.030149518 -0.083213404
-0.09073537 0.07683872 -0.04882895 0.09207798 0.08528501 -0.10691988 -0.06660198 0.024287345
0.036898352 0.03655217 0.043345347 0.054601714 -0.071122706 0.099339716 -0.0078256875 0.058518447
-0.049109828 0.028766489 -0.12366942 0.006305143 0.059101403 0.03016996 0.12902904 0.049881496
-0.06829859 -0.07158704 -0.07381135 -0.11899057 -0.10133029 0.13679887 -0.038401652 -0.018239222
0.11276991 -0.10587982 -0.05406251 -0.055800073 0.02429496 -0.07395644 0.05125182 0.12161077
-0.02861867 -0.09202871 0.105224326 0.058476426 -0.10541472 0.054377463 -0.05261738 -0.03492692
-0.08059035 -0.03577068 0.13589531 -9.6135e-05 0.07282523 -0.102551594 -0.032542773 -0.10734568
-0.08240032 -0.038787983 -0.009888275 0.05138766 -0.052810643 0.07916531 -0.05153454 0.06314133
-0.035506483 0.043162543 0.10063867 -0.0931112 -0.083745815 0.09936158 -0.103257805 -0.07615376
-0.05264862 0.01343668 -0.11145815 0.097235434 -0.08157849 -0.014882356 0.08171274 -0.041550584
-0.06666581 -0.06593043 -0.018665386 -0.011748123 -0.12963481 0.11727806 -0.012133163 -0.051869866
0.07582163 0.111180715 -0.052050862 0.087617084 -0.07414429 -0.024149938 0.04080605 -0.043213867
-0.07482976 -0.031315908 -0.12004952 0.044125695 -0.058577497 0.05114636 -0.02358696 0.008450568
-0.01286053 -0.0041857045 -0.0013456683 -0.030766705 0.06098337 -0.07281035 -0.009554929 -0.0066158837
-0.059151962 -0.052892894 0.029646674 -0.054615073 -0.12251763 0.082621366 -0.060864083 0.06996108
-0.044084866 -0.10575307 -0.105531745 0.14073168 0.10683182 -0.07704841 -0.047989324 -0.017321374
-0.063415065 -0.018899739 0.028630743 -0.06886387 0.12370062 0.044596314 -0.06764921 0.11590866
-0.02111623 -0.119603194 -0.031159924 0.0361491 -0.011854568 0.021877633 -0.06587229 0.004495043
0.111750826 0.019909738 0.097039975 -0.016097471 -0.082779355 0.014442427 -0.1343302 -0.07641135
0.08688883 -0.0092883175 0.12683336 -0.041017655 0.0017008104 0.13498914 0.13288553 -0.048918236
-0.01353166 0.026982315 -0.0037735193 0.004008435 0.05371183 -0.105534956 -0.07543984 -0.0886149
-0.057526045 0.061423216 0.037666008 -0.04298078 0.009552204 -0.02333627 -0.108974874 0.00528779
0.04443909 0.032684717 -0.006580045 -0.058012556 0.033777963 0.099553995 -0.09109063 0.084199026
-0.03092911 0.040884476 -0.059829496 0.066474095 0.088644125 0.050729346 -0.07693822 0.068137206
-0.17522478 -0.10406787 0.03727527 0.1157589 0.101970784 -0.025811134 0.027892878 0.09052911
0.04512021 0.098015256 -0.06793096 0.053863835 0.12277406 0.0027121757 -0.03340767 -0.10624441
0.12260628 0.06445309 -0.0053165806 0.06901998 -0.07022719 -0.0245953 -0.08826418 -0.13091536
-0.05975484 0.0056021274 0.02793137 0.049638268 -0.09537302 -0.083192594 0.0069912164 0.051965524

fc2.bias f4 [8]
00000000: 73ba c83d 0878 d53d 5fb6 863d aedd 3b3e
00000010: c493 3cbd c432 ad3d 419a b0bc 21e4 a7bd
0.09801187 0.10423285 0.06577753 0.18346283 -0.046039358 0.084569484 -0.021557929 -0.08197809

fc3.weight f4 [5, 8]
00000000: 0bc0 843e c052 66be 980f 863e a529 02be
00000010: 4d14 5d3e 2414 8abc 9d1f dbbd b3cc 69bc
00000020: 5924 b1bd af16 d43d 1226 5a3e 4e3d a7be
00000030: de62 373e ae58 923e f28b babd 5c56 7abe
00000040: 609d a03e c064 88be a9fb 0f3e 5dee 853e
00000050: 415b 73be 2d1f 9bbe 81cb 9d3e c212 cbbd
00000060: 165e c83d 0c3d 9dbe 15f1 b0bd daa6 8e3e
00000070: 4f5c 8e3e 160a 89be fc01 183e 5f1b 9bbe
00000080: 4450 1cbe 44b3 aa3e 7cf4 b3be 184b 0e3e
00000090: ee2c 433e acc6 f13d ee9d 94bc 3887 713e
0.25927767 -0.22492504 0.26183772 -0.12711199 0.21589775 -0.016855307 -0.10699389 -0.0142699955
-0.08649511 0.10355889 0.21303585 -0.3266396 0.17908809 0.28583282 -0.09108724 -0.24447006
0.31370068 -0.26639366 0.14060844 0.2615842 -0.2376528 -0.30297223 0.30819324 -0.09915687
0.097835705 -0.30710638 -0.08639733 0.27861673 0.278048 -0.26765507 0.14844507 -0.3029432
-0.15264994 0.33339894 -0.35147464 0.13895833 0.19060108 0.11805472 -0.018141713 0.23586738

fc3.bias f4 [5]
00000000: 88d0 04be 76a6 853d 4cf9 0fbd f0d5 163d
00000010: fdfe a4bd
-0.12970173 0.065258905 -0.035149857 0.03682512 -0.08056448
