tuning_results/best_models_during_tuning_lightning_logs/ec_stand_GCN_best_model_logs/checkpoints/epoch=3384-train_loss=0.79-train_f1=0.70-val_loss=1.87-val_f1=0.34.ckpt (torch, 56770 bytes, 22 tensors)

conv1.bias f4 [64]
00000000: 9ca6 28bc 7c9b 86bc 2382 46bd 40d3 6bbb
00000010: b5a1 23bd ca99 6ebd eb17 873c aba5 77bd
00000020: a6a8 d4bc 4adb 34bc dbce 393d 6819 dcbc
00000030: f09a 63bc dff1 ff3b bcba 973c 8942 2e3d
00000040: 8616 073c abe2 81bd c48e c4bb 47c0 d9bc
00000050: b00a 213b b732 b63b 1e81 1f3c 2d34 67bb
00000060: 9356 36bc b267 053c 7f17 91bd ddfe 38bd
00000070: 15dc 9a3c 814e c0bc 4a02 213d 0a2a 82bd
00000080: c631 e63c 65ab e939 6bbc 143c cbe2 4cbd
00000090: b653 4b3d 5c40 53bc 88ab 55bc f5d8 3dbc
000000a0: 4322 85bd cbda 473a 68b9 763d eead 3e3b
000000b0: b61d 1c3c bce3 1f3d 6316 b43d fcc3 fabc
000000c0: df3d f4bc 109b 823c 9dd9 5f3c f7c6 14bd
000000d0: 4890 33bd 67a3 aeba 76c8 a23c aecf 4fbc
000000e0: 36b6 9cbc 7aeb 043d c9ed 353c dabb bfbc
000000f0: 08b9 8abc c66f 03bc 63d9 743d 763c fcb9
-0.010293629 -0.016431563 -0.04846395 -0.003598407 -0.039949138 -0.058252133 0.016490897 -0.060460728
-0.025959324 -0.011038611 0.04536329 -0.026867583 -0.01389192 0.0078108157 0.01852166 0.04254392
0.008245116 -0.063420616 -0.0059984643 -0.026580943 0.002457302 0.005560245 0.009735374 -0.0035278902
-0.011129039 0.008142399 -0.0708456 -0.04516493 0.018903771 -0.023474934 0.039308824 -0.063556746
0.028099906 0.00044568922 0.0090781255 -0.050020974 0.04964038 -0.012893762 -0.0130413845 -0.011587371
-0.065006755 0.000762385 0.06023541 0.002909537 0.009528568 0.039035544 0.087933324 -0.03061103
-0.029814659 0.01594308 0.013662723 -0.03632256 -0.04383877 -0.0013323844 0.019870978 -0.012683792
-0.019129854 0.03245113 0.011104056 -0.023405004 -0.016933933 -0.008022254 0.05977763 -0.00048110232

conv1.lin.weight f4 [64, 25]
00000000: aa18 ccbc 1d74 7c3e 5281 123e d8b6 6bbd
00000010: 8c88 d3bd 8e79 293e 28da 2fbd 15a6 413e
00000020: aff1 093e 8d83 38bc 1d1f 123e aacf 503c
00000030: 0238 15be f044 b33d 6f97 88be 164b 11be
00000040: 4926 a4bd a661 d7bd a6c3 613e 36d7 523e
00000050: c87e 04bd 2928 cd3d 6c77 613e dee7 fc3d
00000060: 060c fabd 4104 d9bd 830c 2fbe fba2 7c3e
00000070: b008 223e fbea 6ebe 0459 003e fa7a 3c3e
00000080: e7c8 093e 5ed3 1b3e bdfc 5ebe a8fc 31bc
00000090: 02bd 5e3d d080 5f3e 9599 43be da07 123e
000000a0: 2d53 78be 86d0 89bc 0ceb 893e 5d5e a73d
000000b0: 4243 64be c03b a73d 7741 87bd 0f55 1f3e
000000c0: 7a64 8d3d 8efc 62bd 601a 4dbc c6ca 0c3c
000000d0: 1567 26be 3a15 aabc d88d 47be f5ff 44be
000000e0: 663c 2bbe b7e9 11be 1f6f 183e 2148 933c
000000f0: 9191 57be 4e3c eabd a6f3 36be 2a2f 84be
00000100: c87c d5bd 2b41 39be dda9 62be 8cc9 043e
00000110: e634 c6bd 5152 83be 9b62 3b3d 3d4f babd
00000120: f172 7dbe 3ae3 e0bc 95d5 383e dafc 673e
00000130: 41ab 063d 269b 94bd 73fd 5cbe 6222 27be
00000140: ccbd 8abe a8cc 45be 2b22 31bd 211b 223e
00000150: 36a9 4e3e f7ad 533e 3f03 ccbd cd59 36be
00000160: 90c8 933d b0db 5bbe d009 8d3e bf75 283b
00000170: e50e 9bbd 79f3 57be cd4a c23d 0630 01be
00000180: e45c 36be d6a8 3b3e 3461 203d 5e35 2dbe
00000190: feaa ad3d ff9f 01be c561 76be ef14 003c
000001a0: 9aed 19be 5f7b bcbd 11d7 573e 3199 053e
000001b0: 25dc 683e 3d7c 4fbc 1c54 1dbd aa37 d5bd
000001c0: cdea 163e 0699 48be b05a 753e 02fc 64be
000001d0: 8d47 443e 7864 083d 7115 e4bd ec9c fbbd
000001e0: 1f25 213e a2ba 4bbd e86b 033d 46ad 5a3e
000001f0: c940 49be 676a 193e 6b62 b03c 5eed e6bd
00000200: f9b3 97bd 50cc bdbb bd86 5d3d 7cf8 7bbe
00000210: fde8 3f3e e12c 4f3d c7d0 6dbc 83d8 813e
00000220: 8a0a 0dbb 8697 843d 83fd 883d 3a37 d03d
00000230: 9538 5fbe cf8b 86be ee92 e7bd 4cd2 c4bc
00000240: d8cb a23d 8597 0ebe 4b59 00be 2c8b 123e
00000250: b9fc 0f3e dac7 3bbe 94af dabd 5171 a63d
00000260: 507d 71be a2d5 7fbe fbe0 c5bd 1311 2ebc
00000270: c0e6 363e 7946 86be 90f1 fcbd a0c7 6c3e
00000280: 6de6 93bd 8660 803e 99d6 0ebd b23e 20be
00000290: cf73 2b3e 78a0 803c 6301 80bd ea4d 02be
000002a0: 0b86 1abc dfa7 e23d b7c4 1a3d cf86 963d
000002b0: 2f19 a13e 0a6b 31be 4b30 3a3e bba4 0d3e
000002c0: a768 a7bc 11d7 5dbe 1f1c 8dbe 9b41 603e
000002d0: bda3 0fbe 4454 fb3d 87c2 c7bd 4e31 cb3d
000002e0: f167 0cbe 7609 873c 15fa 7bbe 8a7b ffbd
000002f0: dc9f 17be dcce 11be 3fec 5ebe 2080 67be
00000300: 5197 033d 9400 803d d046 5ebe 28a7 923c
00000310: 0f50 57be 8df5 0f3e fcc1 14be e396 70bc
00000320: 64e8 46be a9fa e1bd 2eb0 a3bd 27bc 79be
00000330: 8bad 28bd b70f 54be 6b76 b2bd e0fe fabd
00000340: da9b 493d 5c64 5e3e 7435 c33c 48f0 c93b
00000350: 01cb e93d e6b1 163e bf8b 26be 941f f73d
00000360: f8a4 263e 386e 633d e749 43bd 6075 a2bc
00000370: 7422 443e 2f5a a8bc 3403 503e 18c3 513e
00000380: b867 26be f755 733e 9918 893e 06da 31be
00000390: 5ae5 97bd ed23 4a3e a341 833e 239b 66be
000003a0: 06d8 3abe 7d2e 633e 6283 183e 8a95 b33d
000003b0: 0719 023e 0c08 83be 6045 853e a6a0 0abe
000003c0: e0c1 67be 5afb adbd d3a4 e7bd 8178 e83d
000003d0: 1287 01be 1417 523e 457d 893e d2df ab3d
000003e0: f4aa 0cbe b878 733e a1ff 513c e584 a5bd
000003f0: aa0b e4bd d07d f83c 1c59 f33d b2f7 83bd
-0.024914104 0.24653669 0.14307144 -0.05754742 -0.103287786 0.16550276 -0.04293266 0.18911012
0.13471101 -0.011261833 0.14269681 0.0127448235 -0.14572147 0.08753383 -0.26678035 -0.141888
-0.08015115 -0.10516672 0.2204729 0.20589909 -0.03234747 0.100174256 0.22018212 0.12348913
-0.122093245 -0.105965145 -0.17094617 0.24671547 0.15823627 -0.23331825 0.12533957 0.18406287
0.13455544 0.15217349 -0.217761 -0.010863461 0.05437947 0.21826482 -0.19101556 0.14260808
-0.24250479 -0.016823065 0.2693714 0.08172295 -0.22291282 0.08165693 -0.06604283 0.15559791
0.0690393 -0.055416636 -0.012518495 0.008593267 -0.1625026 -0.020762075 -0.19487703 -0.19238265
-0.16722259 -0.14249311 0.1488614 0.01797873 -0.21051623 -0.114372835 -0.17866382 -0.25817233
-0.10424191 -0.18091266 -0.2213511 0.12967509 -0.09678058 -0.2564874 0.045748334 -0.09097145
-0.24750878 -0.0274521 0.18050225 0.22655049 0.032878164 -0.07256155 -0.21581058 -0.1632171
-0.2709793 -0.19316351 -0.043245476 0.15830661 0.20181736 0.20671831 -0.09961557 -0.17807694
0.07215989 -0.21470523 0.2754655 0.0025704948 -0.075712 -0.21088971 0.09486923 -0.12615976
-0.17808872 0.18326125 0.0391552 -0.16914889 0.0847988 -0.1265869 -0.24060734 0.007817491
-0.15032044 -0.09203219 0.21078135 0.13046719 0.22740228 -0.012663898 -0.03841029 -0.10411008
0.14738007 -0.19589624 0.23960376 -0.22361758 0.1916792 0.03329894 -0.11136902 -0.1228579
0.15736817 -0.049738534 0.03208533 0.21355161 -0.1965362 0.14981996 0.021531304 -0.11275743
-0.07407374 -0.005792178 0.054083575 -0.24606508 0.18741222 0.05057991 -0.014515108 0.25360498
-0.0021521174 0.06474213 0.066889785 0.10166784 -0.21798928 -0.2627854 -0.113073215 -0.024026059
0.07949036 -0.13924988 -0.12534063 0.14310902 0.1406125 -0.18337956 -0.1067802 0.08127082
-0.23582959 -0.24983838 -0.09662052 -0.010624188 0.17861462 -0.2622564 -0.12350762 0.23123026
-0.072216846 0.25073642 -0.034872625 -0.15648916 0.16743396 0.015701517 -0.062502645 -0.12725034
-0.009431372 0.11067175 0.03778526 0.073499314 0.31464526 -0.17325988 0.18182485 0.13832371
-0.020435644 -0.21664073 -0.27560517 0.21900027 -0.14027305 0.12271932 -0.097539 0.099215135
-0.13711525 0.016484004 -0.24607117 -0.12474735 -0.14807075 -0.14239067 -0.21769808 -0.2260747
0.03212673 0.0625011 -0.217067 0.017901972 -0.21026634 0.14058514 -0.14527124 -0.014684412
-0.19424587 -0.11034138 -0.07992588 -0.2438818 -0.04118113 -0.2070912 -0.08713993 -0.12255645
0.049220897 0.21717972 0.0238292 0.006162677 0.11415673 0.147163 -0.16264246 0.1206657
0.16273868 0.055525035 -0.0476779 -0.01983136 0.19153768 -0.020550815 0.20313722 0.20484579
-0.16250503 0.23763262 0.2677658 -0.17368326 -0.07416792 0.19740267 0.25636014 -0.22520117
-0.18246469 0.22185703 0.14893869 0.08768757 0.1270486 -0.25592077 0.2602949 -0.13537845
-0.22632551 -0.08495207 -0.113107346 0.11351109 -0.12649181 0.20516616 0.26853386 0.083923
-0.13737088 0.2377652 0.012817294 -0.08081988 -0.11135037 0.03033343 0.11882231 -0.064437285

bn1.weight f4 [64]
00000000: 0ef0 803f b16e 803f afa2 7c3f 0917 7d3f
00000010: f2f4 823f c998 7e3f 235f 7b3f fdc8 813f
00000020: a2f5 7d3f c24e 7f3f 533d 7d3f 841f 803f
00000030: a4f0 7e3f 03e0 833f a793 7a3f 757f 7b3f
00000040: 584b 813f 962c 813f 9868 803f 4363 823f
00000050: 432c 7d3f 8e7c 7b3f bb39 7e3f 3090 7c3f
00000060: bae4 7c3f 69d7 7d3f c104 823f 597e 813f
00000070: 1722 813f 9b8e 7e3f 4954 7b3f 0714 863f
00000080: a465 7c3f cbc5 833f 5e99 803f 64ce 7c3f
00000090: 4990 843f a56d 833f 3939 7a3f f2ae 7c3f
000000a0: b65f 813f ba58 7f3f 8508 7b3f 6029 7a3f
000000b0: e712 823f 6223 763f 8b77 803f cba8 7c3f
000000c0: bfa4 803f 3803 813f 4fca 813f dec7 803f
000000d0: f984 803f dbc4 7b3f 6580 7b3f cd1f 823f
000000e0: 1c9e 7e3f 25da 7a3f d240 7e3f 5215 813f
000000f0: 03c2 793f ce34 7b3f 5ad6 853f abba 803f
1.0073259 1.003378 0.98685735 0.98863274 1.0231001 0.9945188 0.9819204 1.0139462
0.9920293 0.9972955 0.989217 1.0009618 0.9958594 1.0302738 0.9788155 0.9824136
1.0101118 1.0091732 1.003192 1.0186542 0.98895663 0.9823693 0.9930684 0.9865751
0.9878651 0.99156815 1.0157701 1.0116683 1.0088528 0.9943635 0.98175484 1.0474862
0.9859259 1.0294737 1.0046804 0.9875243 1.0356532 1.0267836 0.97743565 0.98704445
1.0107334 0.9974476 0.98059875 0.97719383 1.0162019 0.9614774 1.0036482 0.9869506
1.0050277 1.0079107 1.0139865 1.0060995 1.004058 0.9834725 0.9824279 1.0165955
0.99460006 0.9798911 0.9931766 1.0084631 0.97561663 0.9812745 1.045604 1.0056967

bn1.bias f4 [64]
00000000: 01e5 57bb 8606 69bc 77e6 2b39 8113 163c
00000010: fd0a febc 0f0c 2f3c dd30 3e3c 1d90 d33c
00000020: 3179 7b3c 1cc5 463d fb1a c2bc 4b7a 0aba
00000030: 1c5e 83bc 33e9 953c 1b4e de3b 7f30 eb3b
00000040: e659 023d 2847 e43c 80bf f83c 3578 13bc
00000050: ab9b e7bc 7e6d 25bc f811 debc 1608 80bc
00000060: dda2 c1bb f6aa 083d 4cf2 d0bb 1074 5f3a
00000070: 33e1 903c 6e17 813b 5eb1 873c 8715 24bd
00000080: 10a7 09bb 3db7 07bd 7eab 69bc 1773 ecbb
00000090: 9cf7 763a 2f05 793b decb dbbc 029b 023c
000000a0: de69 853c d7f0 42bc 5e19 913c ff93 633c
000000b0: fd63 db3c e6a2 17bd f935 b73c dee2 93bc
000000c0: 8d5d 1ebd d136 033d d16a 08bb 5945 1cbd
000000d0: c9f3 69bc b690 863c 9a6c 4a3b 2898 2f3c
000000e0: 89bb 83bc d232 f0b9 0631 5f3c 15ce f43c
000000f0: b1ef 46bc 99c6 673c cf70 f33b 30c5 e63b
-0.0032942893 -0.014222747 0.00016393686 0.0091599235 -0.031011099 0.010684027 0.01160833 0.025825555
0.0153487185 0.048527822 -0.023694506 -0.00052825053 -0.016036086 0.018299675 0.0067842132 0.007177412
0.031824015 0.027865961 0.030364752 -0.009000828 -0.02827247 -0.010096906 -0.027108178 -0.015628856
-0.0059093074 0.033366166 -0.0063765403 0.00085240696 0.017685508 0.0039395606 0.016564067 -0.040059593
-0.0021004118 -0.033133734 -0.014262078 -0.007215868 0.0009421052 0.0037997474 -0.02683061 0.007971527
0.016285833 -0.011898241 0.017712291 0.0138902655 0.026781077 -0.037020586 0.022364603 -0.018052515
-0.038663436 0.0320347 -0.002081562 -0.038152073 -0.014279314 0.016426425 0.0030887485 0.010717429
-0.016080635 -0.0004581423 0.013622528 0.029883424 -0.012142108 0.01414647 0.0074292193 0.0070425496

bn1.running_mean f4 [64]
00000000: 484a 953e 5e39 1b3e 307a 593e 2613 5c3e
00000010: 9339 233e f3c3 433e 070c 403e 6574 313e
00000020: a039 b83e a786 8c3e a8d2 3e3e 8e16 543e
00000030: 7dfe aa3e d76d 833e 8893 7b3e 77a1 733e
00000040: b524 593e c367 303e d178 9b3e 05fd 5b3e
00000050: 7379 b83e ca16 1c3e 5b55 8b3e f5d0 653e
00000060: f69b fc3d c99e d73e c428 9a3e 3b34 ae3e
00000070: cfb0 923e 82ba c43e eab2 533e c891 9e3d
00000080: 97e0 7a3e 5305 483e 7d3e 663e fb9e 1e3e
00000090: 2be4 163e fbd5 113e ca93 3a3e c767 203e
000000a0: f00c 083e 9fd2 973e 5840 783e 0ddb 8a3e
000000b0: ba14 763e 6b03 303e 7b0f 5a3e 46bb ac3e
000000c0: a4e6 913e 2ac9 3d3e 899b 843e 0764 7a3e
000000d0: 4e59 b03e 17c6 f23d d5ce 8d3e 3505 803e
000000e0: d5fb 543e 3e20 1b3e 54f5 903e f34d b13e
000000f0: 94a3 293e cf0a 823e 5990 163e 6130 453e
0.29158235 0.15158603 0.21238017 0.2149168 0.15939932 0.19117717 0.18754588 0.17329557
0.35981464 0.27446482 0.18635046 0.20711729 0.33397284 0.2566974 0.24567997 0.23792063
0.21205409 0.17227082 0.30365613 0.21483238 0.36030158 0.15243068 0.2721356 0.22442992
0.12334435 0.4211333 0.30109227 0.34024224 0.2865052 0.38423544 0.20673719 0.07742649
0.24499737 0.19533281 0.22484775 0.15490334 0.14735477 0.14241783 0.1822044 0.15664588
0.13286185 0.2965288 0.24243295 0.27120247 0.24031344 0.17188804 0.21294968 0.33736628
0.28496277 0.18533769 0.25899914 0.2445222 0.34443134 0.11854189 0.27696863 0.25003973
0.20799191 0.15149018 0.2831217 0.34629783 0.16566306 0.2539887 0.14703502 0.19256736

bn1.running_var f4 [64]
00000000: e051 5d3e 9e57 4e3d 6433 a73d 5164 c63d
00000010: 3646 5d3d a5b2 983d 1ed0 bd3d 3e85 7e3d
00000020: 3c6d a53e 5d36 cb3e cdc6 843d 107a 053e
00000030: 5516 8f3e 2e65 ea3d 09ad ec3d 3f81 003e
00000040: f0d7 893d db29 f03d 6c97 853e c222 d73d
00000050: e120 d23e 25d4 f33d a8e7 3a3e 4de3 293e
00000060: 9ff0 813d f860 9b3e c2be 153e 8d85 a73e
00000070: 404e 223e 762d 7a3e 29f3 da3d d143 a93c
00000080: 5c50 063e 9ab2 bd3d e7be 963d 7cd9 883d
00000090: 0ab1 983d 925a 8e3d e765 7e3d 6d29 a93d
000000a0: 4f23 1f3d ccd3 743e 5c58 793e 1650 423e
000000b0: 3e02 ce3d a173 983d c1f0 aa3d a04a 653e
000000c0: 5291 1a3e 27a8 be3d 3f66 c93d 4e43 1b3e
000000d0: e45f 9e3e f73a 013d d69b 3f3e 5ea2 5f3e
000000e0: 1b57 363e 3c48 243d ad47 903e 9051 973e
000000f0: 7775 033e dfe9 2d3e 4547 703d 76bd aa3d
0.21613264 0.050376527 0.08164099 0.096871026 0.054022036 0.07455949 0.09268211 0.06213879
0.32309902 0.39689913 0.06483231 0.13034844 0.27946725 0.1144508 0.11556441 0.12549303
0.0673064 0.11726733 0.26092088 0.105046764 0.4104071 0.11905698 0.18252432 0.16590615
0.06344723 0.3034742 0.1462355 0.3271908 0.15850163 0.24431404 0.1069091 0.02066222
0.13116592 0.09262581 0.073606305 0.06682107 0.074556425 0.06950869 0.0621089 0.082598545
0.038852032 0.23908919 0.24350113 0.18975863 0.100590214 0.074439295 0.083467014 0.22391748
0.15094498 0.09309416 0.09833955 0.15162393 0.30932534 0.031550374 0.1871179 0.21839282
0.17806666 0.04010795 0.28179684 0.29554415 0.12837778 0.16983746 0.058661718 0.08336918

conv2.bias f4 [64]
00000000: 8070 083c 7993 1db9 8386 08bd 08eb c0bc
00000010: 77cc 21bc 1076 093a 6555 11bc 5fa7 873c
00000020: b637 7ebb 543f 803b 11a4 fbbb 53ae f6ba
00000030: 74a5 35bc 240c f0bc 388b 09bc f1fe 77bc
00000040: 712f 49bb b055 a5bc 520e 503c 010c 01bd
00000050: febb c3bc db2a a53b 7f1a a93a fae9 0cbc
00000060: a579 ccb9 bb6f b439 02c8 6a3b c934 033b
00000070: 5054 e73b 947b 3bbc 3274 3e3c f565 043c
00000080: f20b 823b ab29 9ebc fa6d 8d3b 32b8 e2bb
00000090: a214 b53a b88d 523b 4d52 35bc 56fd dabc
000000a0: 0139 bfbc 9b5a 9ebc d243 26bc 0bcf 4f3b
000000b0: 05f9 5a3c c874 0abc 0f82 9ebc 6274 733b
000000c0: 87c1 bcbc 04b0 a1bc a0aa 92bc f6f5 37bb
000000d0: 42d5 a23c cc59 883c fa40 26bc 18ab a6ba
000000e0: 1085 ac3c 865e cfbc d7b2 29bc 94bd 3cbc
000000f0: fb7d 2bb8 a9fd 8bbc bb1c 4d3b 56ca 683c
0.008327603 -0.00015027625 -0.033331405 -0.023549572 -0.009875408 0.0005243728 -0.008870457 0.016559301
-0.003879053 0.0039137993 -0.0076794703 -0.0018820263 -0.01108681 -0.029302664 -0.008395009 -0.015136466
-0.0030698443 -0.02018246 0.012698727 -0.03150559 -0.023893353 0.005040509 0.0012901573 -0.008600706
-0.00039000544 0.0003441552 0.003582478 0.0020020476 0.0070596114 -0.011443038 0.011624383 0.008080949
0.003968709 -0.019306978 0.0043160887 -0.0069189304 0.0013815353 0.0032127928 -0.011066985 -0.026732128
-0.023342611 -0.019330313 -0.010148006 0.00317091 0.013365035 -0.008450694 -0.019349126 0.0037148227
-0.0230415 -0.019737251 -0.017903626 -0.0028070188 0.01987708 0.016644381 -0.010147328 -0.0012715785
0.021059543 -0.025313627 -0.01035758 -0.011519808 -4.0886905e-05 -0.017088728 0.0031297642 0.014208397

conv2.lin.weight f4 [64, 64]
00000000: 359f 0a3e cce8 b63d d4dd fc3d 8573 d0bd
00000010: e56a 4a3e dfcc c5bc fe24 e23c 4e99 133e
00000020: 2d7a 01be 0913 59bd 27db 8b3b fd12 093e
00000030: eb7b 223e 06a6 34bd d022 6cba 9562 31be
00000040: 2290 43be e7d9 75bc 823f e13d d749 fc3b
00000050: 6fc4 1c3e f0a7 1fbe b86c 233c 25bd cdbd
00000060: 13be bebd 8e88 04be 6edc be3c 4462 56be
00000070: eaaa eabd c2f7 313d b3b8 ffbd b8e6 24be
00000080: 171e edbc 854e 1abe c8b9 cebb 399d 0abe
00000090: 6b7c 5d3d febf d83d 228e 4d3e c43d ac3d
000000a0: 5cad 07be d9a9 e93d 007b efbb b16e 04be
000000b0: 2242 3ebe 462d eabc 8f10 10be a65f 463e
000000c0: 1da4 3e3e 45b5 fbbd 23a4 8ebc 8d44 c73b
000000d0: df63 54be 824f 88bd 44c4 06bc fd1a 59be
000000e0: c493 0abe a45f 81bd 2b88 4dbd 6bf3 8bbd
000000f0: dfb2 443e 0e44 143e 8c25 e3bd 68c8 063e
00000100: 201c 3dbe 6242 1cbe 7bdd ebbd d21c bfbd
00000110: 4d8b fa3d d8c4 4f3e f36b efbd 12b3 ed3d
00000120: b31e ebbc 6ab0 2abe 7e47 8cbd e6bd a83c
00000130: 2df9 08bd e5fc 03bd 35bf f4bd 6f84 3b3e
00000140: 92b4 a5bd 17db c53b 8865 6cbc f524 f13d
00000150: 5659 08be b895 013e 07fc 87bd c71f cd3d
00000160: 29f7 5e3e 41a2 d13d d818 e5bd 8f1f ed3d
00000170: a5e7 21be 7fae 37be 3278 543e 4191 d73d
00000180: 3844 2d3d 8ce0 a03c 67b0 d5bd 2c88 453e
00000190: c2ad c03d e8a1 503e 709f 2ebe d795 40be
000001a0: a441 1abe 6776 e5bd 1486 27bd 640c 2c3c
000001b0: 2acd c3bc 66f8 26bd ed50 ea3d a9f6 39bd
000001c0: 88e3 923d 1215 56be 0651 9fbd 14e5 24be
000001d0: dcfe 31be 55b3 d8bd e3aa c2bd 39ee cbbc
000001e0: 700d 06be 875e ca3d 6b4f 55be bbf2 013e
000001f0: ab72 d6bd 17d4 3abe 8ba0 a83c 5b78 27be
00000200: 41c2 5c3e 9b7d f3bd 9d54 18be f917 a4bd
00000210: eb46 eabd 62aa 31be e2c9 363e c340 b039
00000220: fa5f 40be 1fd0 34be c140 5b3e c1ee 53be
00000230: bd99 303e 930c d13d 7258 2bbe 9e81 5fbe
00000240: 1402 66bd 6cf2 613e 579f ee3d 9cf1 713d
00000250: 7417 02bd 8ad6 abbd 6e2f d93d 0b01 d73c
00000260: c046 933d 9798 e4bb 6f0c 113e 4d0d 533e
00000270: cc1d 363e d363 44bd d3ce 48be 5183 b5bc
00000280: b8e3 c83c 3633 cfbd a8f2 043e eac6 933d
00000290: f334 583e 9ccb 1abc 9879 593e 89ff 40bd
000002a0: 2d62 82bd ac90 0cbe e2b0 bf3a 79ca 36be
000002b0: 5f41 3e3d a225 233e 322a 8ebd c1ba 463e
000002c0: 5148 203e 5e2f bbbd 5334 5cbc 2042 793d
000002d0: 5f05 713d 0ee8 2cbe 44ca 053e 0ce3 c3bd
000002e0: 5bce bb3c 555f 33be 822e 813c 2b13 183b
000002f0: b204 43be c0e3 2cbe cf33 423d 786a ed3d
00000300: 5e85 00bd 2623 debd 82b3 d6bd f435 0f3e
00000310: 79a0 0e3c a309 4e3c e09f 38be 82fe 843d
00000320: 6977 8ebd e7ca 86bd 5d85 093e 4e93 14be
00000330: 7697 5ebd a785 41bd e29f 0b3e 340f f8bc
00000340: 340c 13be 194d 5e3d a600 2dbe f7c0 fa3d
00000350: 8d94 6bbd e7a6 c23d 765a 59be 404d 5ebd
00000360: bda8 3e3e b3c2 903d cb5c a13d 947b e8bd
00000370: 3d33 21be 93d9 b33d 406e 8d3c d741 523e
00000380: 5d08 043e b67b 3bbe a885 0d3e 1339 1f3d
00000390: a55c 89bd f8c9 3abe 2796 f73d 5c4e 09be
000003a0: c29a 4ebd b0d2 4b3e 2d94 c5bd cdec a2bd
000003b0: c947 533e bdef 343e 6ce5 3fbd 27f9 473e
000003c0: 5816 6c3e de7c 28bc 33c7 a2bd c7e6 a23d
000003d0: 49d8 99bc a61c bf3c 6391 0bbd 0657 94bd
000003e0: b7b0 573e ef7d 41be c2a4 09be 4256 1cbd
000003f0: eb42 3a3e 98ab 07be 516b 863d 66d7 143e
0.13537295 0.08931121 0.12346998 -0.101782836 0.1976734 -0.024145542 0.02760553 0.1441395
-0.12644263 -0.05299667 0.0042680684 0.1338615 0.15867583 -0.044103645 -0.0009007873 -0.17322762
-0.19097951 -0.015005565 0.10998441 0.007699232 0.15309308 -0.15591407 0.009974651 -0.10045842
-0.093135975 -0.12942716 0.023298468 -0.20935923 -0.114583805 0.04344917 -0.124864005 -0.16103637
-0.028945012 -0.15069015 -0.006308768 -0.13536538 0.054073732 0.105834946 0.2007375 0.08410218
-0.13249725 0.11409349 -0.007308364 -0.1293285 -0.18579915 -0.028586041 -0.14068817 0.19372424
0.18617292 -0.12290434 -0.01741225 0.00608117 -0.20741223 -0.0665579 -0.008225504 -0.21201701
-0.1353293 -0.0631707 -0.050178688 -0.06833538 0.19208859 0.14479086 -0.11091146 0.13162386
-0.1846776 -0.15259698 -0.115168534 -0.09331669 0.12233601 0.20289934 -0.116905116 0.116064206
-0.028701162 -0.16668859 -0.068495736 0.020598363 -0.033440758 -0.0322236 -0.11950532 0.18312238
-0.08091082 0.0060380804 -0.014428504 0.11774627 -0.13315329 0.1265477 -0.06639867 0.10015827
0.21773972 0.102360256 -0.11186379 0.11578285 -0.15811022 -0.17937659 0.20748976 0.10525752
0.042301387 0.019638322 -0.10434037 0.19290227 0.09408142 0.20374262 -0.17053008 -0.1880716
-0.15064102 -0.11204224 -0.04089935 0.010501001 -0.02390154 -0.040764235 0.114412166 -0.04540125
0.071723044 -0.20906475 -0.07779126 -0.16103011 -0.17382377 -0.1058108 -0.0950525 -0.024893867
-0.13091063 0.09881311 -0.20831077 0.1269025 -0.1047109 -0.18244968 0.020584365 -0.16354506
0.21558477 -0.11889192 -0.14876027 -0.08012385 -0.11439308 -0.17350152 0.1785045 0.00033617587
-0.18786612 -0.17657517 0.2141142 -0.20696546 0.17246147 0.102074765 -0.16732958 -0.21826789
-0.056154326 0.22065133 0.116514854 0.059068307 -0.031760648 -0.083905295 0.106047496 0.026245615
0.07191229 -0.006976198 0.141649 0.20610543 0.17784804 -0.047946762 -0.19610147 -0.022157343
0.024522647 -0.101171896 0.12983191 0.07215674 0.21113949 -0.009447958 0.2123779 -0.047118697
-0.06366382 -0.13727063 0.0014624859 -0.17850675 0.04644906 0.15932325 -0.06941642 0.19407178
0.15652587 -0.09139894 -0.013440209 0.060854077 0.058843013 -0.16885397 0.1306544 -0.0956479
0.022925546 -0.17516835 0.015769247 0.0023204784 -0.1904476 -0.16883755 0.04741269 0.11592573
-0.03137719 -0.10846548 -0.10483457 0.13985425 0.008705252 0.01257554 -0.18029737 0.06493856
-0.069563694 -0.06581669 0.1342978 -0.14509317 -0.054343663 -0.0472466 0.13635209 -0.030280687
-0.14360124 0.054272745 -0.16894779 0.122438364 -0.057514716 0.0950449 -0.21225914 -0.05427289
0.18619056 0.07068386 0.07879027 -0.11351696 -0.15742202 0.08781733 0.017264485 0.20532928
0.12893815 -0.1830891 0.13820517 0.03887279 -0.06707124 -0.18241107 0.12089186 -0.13408798
-0.050440557 0.1990459 -0.09647403 -0.079553224 0.20632853 0.17669578 -0.046849653 0.19528638
0.23055398 -0.010283677 -0.079481505 0.079541735 -0.01877989 0.02332909 -0.0340742 -0.07243161
0.21063505 -0.18895696 -0.13441756 -0.0381682 0.1818959 -0.13249052 0.06563438 0.14535293

bn2.weight f4 [64]
00000000: 335b 813f 68dc 7e3f d424 813f 5cd3 7b3f
00000010: 1d7c 803f 2466 813f 14e6 7e3f e04a 7d3f
00000020: a53d 853f 6994 813f fe25 7e3f 48ec 7d3f
00000030: 557b 7e3f 5faa 7e3f 2922 803f 1bb2 7b3f
00000040: 922a 823f 979a 7f3f e128 7c3f 8820 813f
00000050: 2c8b 813f 2ca2 7c3f 735a 7f3f db67 7c3f
00000060: 19c3 7f3f 709b 813f ef10 7d3f d35b 813f
00000070: edbc 7c3f b11d 813f 0cfd 7f3f 9c9a 823f
00000080: df0d 7e3f 7b20 803f 63b3 813f d22b 803f
00000090: 6fef 7f3f ad36 7c3f fd99 813f baf0 823f
000000a0: 9be8 803f 16d4 7d3f f39e 7d3f 92f9 7b3f
000000b0: 16d2 773f 740e 7f3f 129b 803f 093f 803f
000000c0: c466 813f 51e7 7f3f db51 813f bdc1 803f
000000d0: 4301 813f c8d1 7b3f 380c 823f 79fc 7c3f
000000e0: 915f 7c3f c007 7a3f d286 823f 73b2 7e3f
000000f0: 9c16 7f3f 4c87 813f 5ac9 7d3f fd20 7c3f
1.0105957 0.99555063 1.0089364 0.98369384 1.0037876 1.0109296 0.9956982 0.98942375
1.0409437 1.0123416 0.9927672 0.9918866 0.9940694 0.99478716 1.0010425 0.9831864
1.0169241 0.9984526 0.98499876 1.0088053 1.0120597 0.98684955 0.9974739 0.9859597
0.9990707 1.0125561 0.98853964 1.0106148 0.9872578 1.0087186 0.99995494 1.0203433
0.99239916 1.0009912 1.013287 1.0013373 0.9997472 0.9852093 1.0125118 1.0229714
1.0070986 0.9915174 0.9907066 0.9842769 0.9680494 0.9963143 1.0047324 1.0019237
1.0109487 0.99962336 1.0103105 1.0059124 1.007851 0.98366976 1.0159979 0.9882274
0.9858332 0.97668076 1.0197394 0.9949104 0.99643874 1.0119414 0.99135363 0.98487836

bn2.bias f4 [64]
00000000: c665 edbb e31f ba3b 0870 bd37 12d9 02bc
00000010: ff49 793c a498 cc3b b63e 623c 40cd 9d3c
00000020: 66c4 433d 5e36 79bc d73f ba3b 2fa5 a23c
00000030: bb0a 873c 0b75 7b3c 17d1 d23c 4109 a93c
00000040: 74fc 573d ef6a 513c 672f 6bbc a2ff b1bb
00000050: 3595 853c ca7e 523c c624 1bbc e98f 793c
00000060: 05ef d7bc 42b5 06bd 5a18 293c 9b79 563c
00000070: 8d62 363a cd37 143c 24ed b83b 2a0e e83c
00000080: 25ee 093c e9fd 4f3b ea2b 3b3c e80d ddbb
00000090: c196 a83c d3c7 4fbb b1f9 7b3c 4219 8a3c
000000a0: 7944 b13c 40cd 863c d7ce 423b bd78 da38
000000b0: 4dd3 193d 3ecf bf3c d092 0e3c 5e67 8d3c
000000c0: e31b e1bc f67b 3cbc a838 a13c db20 133c
000000d0: 1599 033d b3fa 91bc e78b 3abc d9e4 f4bc
000000e0: d2e0 a03b 507a 0b3d a5b9 a9bb 2671 bfba
000000f0: 3f87 bc3c 749a 2fbc 9e25 863c 33c1 2abd
-0.0072447984 0.0056800707 2.2582724e-05 -0.007986324 0.015215396 0.006243782 0.013808897 0.01926291
0.047794722 -0.015210716 0.00568388 0.019854156 0.016484609 0.015347729 0.025734467 0.020634295
0.052730992 0.012781843 -0.014354563 -0.005432085 0.016306499 0.012847612 -0.009469217 0.015232065
-0.02635909 -0.032887705 0.010320747 0.013090516 0.0006957434 0.009046507 0.0056435037 0.028327066
0.0084185945 0.0031737036 0.011424044 -0.0067460425 0.020579698 -0.0031704798 0.015379355 0.016857747
0.021639096 0.016455293 0.0029725337 0.00010417539 0.037555028 0.02341425 0.008701995 0.017261203
-0.027479118 -0.011504164 0.019680336 0.008980001 0.032128412 -0.017819738 -0.011385894 -0.02989428
0.004909613 0.034052193 -0.0051796013 -0.0014605864 0.02301371 -0.010717977 0.01637536 -0.041688155

bn2.running_mean f4 [64]
00000000: cd6c f03e 43e2 ba3e af9a 973e d905 8b3e
00000010: 2b99 ad3e 0dbd 7c3e 1e80 ee3e e6e7 d03e
00000020: acab 863e 40be 013f 5294 c93e 2b78 d93e
00000030: e2be bb3e a427 b03e af6a 7c3e 883d 753e
00000040: f620 903e a344 713e 039c d33e 762f 363e
00000050: e6ed 9e3e 6770 c63e 4dbd d23e 9949 db3e
00000060: 98d4 bb3e 71cf a63e 051c e23e 025c 9e3e
00000070: 0c8b f13e 3cd4 6c3e b9ad 9f3e 4d78 893e
00000080: 9c86 ba3e 8168 813e d991 793e 3435 c83e
00000090: b8bf 0d3f 7aff e33e c776 723e e488 9c3e
000000a0: 68be 7c3e 5cda 8f3e ba77 993e 70cc aa3e
000000b0: 6875 d63e ab96 df3e 1e80 d93e 6c4e cc3e
000000c0: 4e5e b43e 08c0 803e 9a5d 983e f4e3 7f3e
000000d0: 7f19 8e3e 5293 003f 106e 873e 7fed d43e
000000e0: 76b8 c43e 3313 6d3e dd0d 1f3e 9b6b de3e
000000f0: 567e 013f c5d0 853e 9e86 db3e 0193 d83e
0.46958008 0.3650075 0.29610202 0.271529 0.3390592 0.24681492 0.4658212 0.40801924
0.2630285 0.50680923 0.39370972 0.42474493 0.3666907 0.34405243 0.24650072 0.23949254
0.28150147 0.23561339 0.41329965 0.17791542 0.31040877 0.3875763 0.4116005 0.42829588
0.36685634 0.3258014 0.44162002 0.3092957 0.47176397 0.23127836 0.31187227 0.26849595
0.36430824 0.25275043 0.24372043 0.3910309 0.55370665 0.4453085 0.23678122 0.3057319
0.24682009 0.28096282 0.29974157 0.33359098 0.4188645 0.43669638 0.42480558 0.3990358
0.352282 0.25146508 0.29758912 0.24989301 0.27753827 0.5022479 0.2645116 0.41587445
0.38421983 0.23151855 0.15532632 0.4344147 0.505834 0.2613584 0.42876142 0.42299655

bn2.running_var f4 [64]
00000000: 0aa3 a63e 88b8 693e c213 4b3e 183f 5e3e
00000010: 1556 b23e d99a fb3d 7bfa 363f 5280 b63e
00000020: 7795 203e 15da 103f 1044 a53e 4d46 2f3f
00000030: 8c47 af3e 957a 583e 2035 453e 826b 6a3e
00000040: c52a 863e e33f 133e d925 953e e112 933d
00000050: 5aa0 843e a975 873e 9533 c93e 39e5 103f
00000060: fdf1 a33e 4e17 303e fa3c 343f e0e7 623e
00000070: 8605 c93e 9ff7 253e f5ed 583e 0fd1 123e
00000080: 08c0 a33e b4ee 3d3e 1b65 083e 9a76 683e
00000090: bcb5 133f b1be 3e3f ad55 c73d 25f4 143e
000000a0: 7d4a 9a3e 3416 253e 539a 5a3e 14a5 863e
000000b0: 17e2 143f 39d4 c73e 2e61 3e3f adba e63e
000000c0: a2d4 ea3e ef43 263e c9e2 4a3e a96b 333e
000000d0: fa60 4c3e 40bb 6a3f ac65 473e 120c 1a3f
000000e0: 8c8d b03e 139b 543e 1acd 673d 4dfd fc3e
000000f0: 41cd 063f 4e50 033e f259 1f3f bb49 043f
0.32546264 0.228243 0.19831756 0.21703756 0.348313 0.12285394 0.7147595 0.35644776
0.15682016 0.56582767 0.3227849 0.68466645 0.34234273 0.21140511 0.19258547 0.22892573
0.26204506 0.1437984 0.29130438 0.07181335 0.2590359 0.26456955 0.39297166 0.56599766
0.3202056 0.1719639 0.7040554 0.22158766 0.39262027 0.16207741 0.21184523 0.14337562
0.31982446 0.1854809 0.13319819 0.22701493 0.5769918 0.7450972 0.09733138 0.14546259
0.30134955 0.16121751 0.21347933 0.2629782 0.58157486 0.390291 0.74367034 0.45064297
0.4586535 0.16236852 0.19813074 0.17521538 0.19958869 0.9169197 0.19472378 0.6017467
0.34482992 0.20762281 0.056592084 0.49412003 0.5265694 0.12823603 0.6224662 0.51675004

fc1.weight f4 [64, 64]
00000000: 4329 40bd e749 84bc 5322 96bd 0b26 aebc
00000010: 9b71 e6bc 2714 b1bd dff4 a53d 3c52 87bd
00000020: eec2 0e3e ebab fe3c 8934 9cbc 66c9 ee3c
00000030: 8810 debd 0c09 e4bc 69b0 41bd 57f3 93bd
00000040: a3ea 513d f4b0 77bd 0160 853d c9ba a63d
00000050: 6884 b13d a0cc db3d bab2 b0bd 45c7 cd3d
00000060: c12c 8cbd 1a76 4d3d f16c 6d3a f3c4 813d
00000070: 3d52 7a3d 4ba7 95bc a8e0 8dbd b3a2 593d
00000080: b6f6 84bd 42d4 2d3d d17e 01be 252e d7bd
00000090: 6a03 d8bd b782 333b 709f 203c d459 ebbd
000000a0: d274 65bc e4e7 803d aece ccbd be96 10bd
000000b0: 6a68 19bd 2c2c ff3d fe75 9a3d bc62 cabd
000000c0: ecda c4bc 9632 8cbc 9195 e43d d57e c73d
000000d0: fd68 773c a4f4 65bd 986e b4bd 426f f23c
000000e0: a0c1 f63c 0b6d b63d 2667 283e 86c7 06bd
000000f0: 366c b9bd f5d7 403d 436b e1bd 89e5 c13c
00000100: cc79 4f3d 7032 54bd 607c 06be 51d5 dcbd
00000110: 6792 bcbd 1709 de3d f055 e43d e06d 653d
00000120: edca 3abc 14c1 b7bd e61c 393d a2ef a1bd
00000130: 1302 2ebd 8063 e63d c384 9e3d a5aa 07bd
00000140: 7ee6 ce3c 3bed f9bd 4b56 51bd 4a75 8ebd
00000150: 7183 c5bb 9f76 aabd 13b2 66bd 4948 ad3d
00000160: fcd3 0cbe 3db1 b9bb 31c9 513d 62fc b73b
00000170: 049a ef3c aacc 893d 5ab6 8d3d e048 98bd
00000180: 11f3 a83d 8c06 0a3d 68f1 e53c 4673 a8bd
00000190: bac3 f4bd ac84 2cbd 4392 6fbc 2f12 9e3c
000001a0: f235 2f3c cdcd 703d 52e2 44bd e78e e83d
000001b0: d1a6 e6bc 2467 203c 1c7f f5bd 5f53 d8bd
000001c0: f55a d63d d583 f3bc 89d1 12bd c251 b03d
000001d0: be22 64bd 0f72 ad3d 8e52 00bb 91af cc3c
000001e0: eabf abbc cf1f 833d 525c 813d 2952 473d
000001f0: dc10 df3c 9655 8e3d 17b3 d03d 6614 0b3d
00000200: c9d9 a03d ff05 d93c 4a34 b7bd b8e6 303d
00000210: 8345 c2bd daf3 e83d 6a51 9a3d 1560 1cbd
00000220: d065 ae3d e9d3 9b3d 9b23 e33d e9e1 debd
00000230: 8a83 95bd ffa9 83bd 72e8 033c c335 00be
00000240: 0efb 58bc d024 013d 7fdc 79bd c911 8f3d
00000250: b0b7 383d 5147 64bd 751a d03d da0a 2dbc
00000260: d4be 023e 7223 883d 1581 7f3d 6c28 2dbd
00000270: 4184 28be aed8 d33d 9e68 da3d 2875 a33d
00000280: edf1 993d 00d4 dcbd c569 c8bd 9592 9dbd
00000290: 5a32 863d 792a 3f3d 9020 f83c cae6 9e3d
000002a0: d2f9 bfbd 9e91 4d3d f0b8 92bd be67 9b3c
000002b0: 3bef 253d f95d 8dbd 0001 b83d c538 e23a
000002c0: a974 833d 673c 86bd c57b 3f3d 39d2 98bc
000002d0: cd4c fdbc 504d 3a3d e6e1 043e a469 263d
000002e0: 9393 ee3d f68a 9cbd 2fc6 f43d 2edf 103d
000002f0: 12aa ff3c 5559 863c a0d7 e4bc bed5 bb3d
00000300: e38a c73d 5462 7cbd 9da1 1ebe 34ff 82bd
00000310: 7b3d 813b 2ef6 b4bd 587b ea3b f975 963d
00000320: 2abe ef3d 38be b3bd 7868 acbd 42ea ffbd
00000330: 1fdf 533d 02e7 5dbd b964 3dbc 8be9 d53d
00000340: d929 d93d b95d 303d d955 d4bd b90b 0c3e
00000350: 074a c33c a794 68bd 7114 95bd 3c6f 20bd
00000360: 83a3 db3d 72c8 743d 3f42 92bd 5248 1dbd
00000370: d325 b0bc 74e1 7e3d ecf7 463d d4ed c6bd
00000380: e092 893d 3773 9bbd b942 a33d af66 343d
00000390: f9ee 623c a7f8 bd3b 860d 83bd b2da d93a
000003a0: d6b6 a43d acf2 9dbd c261 d4bd 0443 46bd
000003b0: ee23 f2bd 2765 0bbc b6f4 efbd 5039 ae3d
000003c0: e47d 46bd 048f ddbc 7555 193d 9664 ebbd
000003d0: 0faf 0cbd 5c2c 673d 06c0 f5bd 477b d13d
000003e0: 8812 0ebd 4a98 4bbb 6812 ed3d 1a05 493d
000003f0: 9f0b 1b3d 847c 723b 343d 35bd 587b 873c
-0.04691435 -0.01614852 -0.073307656 -0.021258375 -0.028130343 -0.08646422 0.08103346 -0.06607482
0.13941547 0.031087836 -0.01906802 0.029148769 -0.10842997 -0.027836345 -0.04728738 -0.07224148
0.051249158 -0.06047149 0.06512452 0.08141095 0.086678326 0.107323885 -0.086278394 0.10047773
-0.06844474 0.05016146 0.0009057066 0.06336393 0.061113585 -0.018268248 -0.069276154 0.053133678
-0.06492369 0.042438753 -0.12646033 -0.10506848 -0.10547526 0.0027391145 0.009803638 -0.11491743
-0.014004903 0.062942296 -0.100003585 -0.03530001 -0.037453093 0.12459597 0.075420365 -0.09882113
-0.024030171 -0.017113965 0.1116134 0.09740988 0.015100715 -0.05614151 -0.088101566 0.029594067
0.030121624 0.08907517 0.16445598 -0.032905124 -0.09053843 0.047080953 -0.11006787 0.023669021
0.050653264 -0.051805913 -0.13133383 -0.107828744 -0.092076115 0.108415775 0.11149204 0.056012988
-0.01140092 -0.089723736 0.045193575 -0.079070345 -0.042482447 0.11249447 0.07740166 -0.033121724
0.025256392 -0.12203451 -0.051107686 -0.06955965 -0.006027632 -0.083234064 -0.05632217 0.08461053
-0.1375274 -0.0056668804 0.05121726 0.005614803 0.029248245 0.0672849 0.069195464 -0.07435775
0.08249486 0.03369765 0.028069213 -0.08225112 -0.119513944 -0.042118713 -0.014622274 0.01929578
0.010694014 0.058790017 -0.0480674 0.113553815 -0.028155716 0.009790216 -0.11987135 -0.10562777
0.104665674 -0.029725948 -0.03584436 0.08609344 -0.055697195 0.084690206 -0.0019580456 0.02498606
-0.020965535 0.064025514 0.06316437 0.04866234 0.027229719 0.06949918 0.10190409 0.033955
0.07854039 0.026492117 -0.0894552 0.04318878 -0.094859146 0.11374636 0.0753506 -0.03817757
0.08515513 0.07608778 0.110907756 -0.10882933 -0.0730048 -0.064289086 0.008051025 -0.12520508
-0.01324345 0.031529248 -0.061001297 0.06985814 0.045097053 -0.055732075 0.10161296 -0.010561669
0.12768108 0.06647386 0.06237896 -0.042274877 -0.16456701 0.10344063 0.106644854 0.0798133
0.07516847 -0.10782623 -0.09785799 -0.07693974 0.065525725 0.046671364 0.030288965 0.07758863
-0.09373821 0.0501877 -0.0716418 0.018970367 0.04051135 -0.069026895 0.08984566 0.001725935
0.064187355 -0.065544896 0.046748895 -0.01865493 -0.03092041 0.045483887 0.12976798 0.04062809
0.11649241 -0.07643692 0.11951863 0.03536909 0.031209026 0.016400019 -0.02793485 0.091716275
0.097432874 -0.06161721 -0.15491338 -0.063963324 0.0039440966 -0.088360175 0.007155817 0.0734672
0.11706193 -0.08776516 -0.08418363 -0.12495853 0.051726457 -0.054175384 -0.011559659 0.104449354
0.10603685 0.04305813 -0.10367937 0.13676347 0.02383901 -0.05678239 -0.072792895 -0.03916858
0.10724547 0.059761472 -0.07141542 -0.03839905 -0.021502411 0.062226728 0.04857628 -0.09713331
0.06717467 -0.07590335 0.07971711 0.04404324 0.013850921 0.005797464 -0.06399064 0.0016620962
0.08042686 -0.077123016 -0.10370208 -0.048403755 -0.11823259 -0.008508003 -0.11716597 0.08507025
-0.048459902 -0.027045734 0.037435014 -0.114937946 -0.034346636 0.05643879 -0.11999516 0.102285914
-0.03468564 -0.0031066113 0.11575776 0.04907713 0.03785288 0.0037000487 -0.04424782 0.016538307

fc1.bias f4 [64]
00000000: e2a1 493d a913 023d 3e90 863d 2639 d9bd
00000010: 296d a0bd a93f fc3c f639 813d 31a1 efbd
00000020: 1662 153d 2bcc 85bd 7609 403d 7695 d9bd
00000030: 567e 6abc e3aa d13d 8141 953d 69dd cfbd
00000040: a83b 9cbd bf7e 6f3d 0695 cc3c c49f 023d
00000050: 3ff0 93bc 4992 063d 83bd be3d e455 f0bd
00000060: 54b5 c33d 208d f83d 7a64 643d 2166 253d
00000070: 20d0 84bd feee ad3c 4e30 093d fc6f 31bd
00000080: 655b d2bd f6ad 983d de70 863c 2573 ac3d
00000090: 2940 e1bd cbd1 f03b 80fc 3abd 266c 1abd
000000a0: f879 91bd 0da9 ba3c 0cc8 ec3d 1dc6 753d
000000b0: c44f ea3d 2c64 da3d 2831 c03d 4756 bc3b
000000c0: 8938 f13d 1c88 223d 8270 903b ecb0 ca3d
000000d0: 8ed7 c2bc 22b1 8dbd 8c46 d2bd 435b 783d
000000e0: 0d62 853c c961 a73b 83f7 203d d7ab 42bd
000000f0: fffd 66bc 326a 8a3d 8873 c5bd 97a2 94bc
0.04922665 0.03175703 0.06570481 -0.10606603 -0.07833321 0.030792074 0.06309883 -0.11700667
0.036470495 -0.065330826 0.046884023 -0.106242105 -0.014312347 0.10237672 0.072878845 -0.101496525
-0.07628566 0.058470484 0.024973404 0.031890646 -0.018058894 0.032854352 0.0931349 -0.11735132
0.0955607 0.121362925 0.055759884 0.0403806 -0.06485009 0.021232124 0.033493333 -0.043319687
-0.102713384 0.074550554 0.016411241 0.084203996 -0.10998566 0.007349228 -0.04565096 -0.037700795
-0.07103342 0.022785688 0.115615934 0.06000339 0.11440995 0.106636375 0.09384376 0.0057475897
0.11778361 0.039680585 0.004407943 0.098970264 -0.023784425 -0.06918551 -0.10267362 0.06063391
0.016282106 0.0051080924 0.039298546 -0.04752716 -0.014098643 0.067585364 -0.096411765 -0.018143935

bn3.weight f4 [64]
00000000: ad37 863f f018 833f 57a0 843f dd85 843f
00000010: cde6 843f 7875 843f c98b 803f 7053 803f
00000020: c478 803f 1c94 813f b4d5 803f 77de 7f3f
00000030: af2e 843f d798 853f ea84 873f c092 873f
00000040: e115 813f c8ba 883f 761d 833f 78f4 8a3f
00000050: 727f 843f 14a7 813f fd62 863f da9a 823f
00000060: 3a80 843f 133a 813f 3662 813f 520c 8a3f
00000070: a397 803f e0ca 863f 69b8 8a3f 14fc 813f
00000080: e6f8 863f 1f72 833f 9a98 823f a1e0 813f
00000090: 29f5 853f 7b1f 853f 8a9f 803f 308e 813f
000000a0: 3279 833f 7e66 8d3f 3e22 823f 91d2 803f
000000b0: 5a67 893f b99d 853f a1c8 803f cf27 893f
000000c0: 11ee 843f 5b23 853f ea18 843f af91 8a3f
000000d0: f20e 7f3f 5b0e 853f e50a 853f 4ecc 803f
000000e0: 297e 863f acf9 8b3f 8ff0 8d3f eb05 843f
000000f0: 87d2 843f e715 813f 06c9 823f 2c59 863f
1.0485741 1.0241985 1.0361432 1.0353352 1.0382935 1.0348349 1.0042659 1.0025463
1.0036855 1.0123324 1.0065217 0.9994883 1.0326747 1.0437268 1.0587437 1.059166
1.0084802 1.0682001 1.0243366 1.0855856 1.0351393 1.0129113 1.0498959 1.0203507
1.0351632 1.0095848 1.0108097 1.078501 1.0046276 1.0530663 1.0837528 1.0155053
1.0544708 1.0269202 1.020282 1.0146676 1.0465442 1.0400232 1.0048687 1.0121517
1.0271361 1.1046903 1.01667 1.006426 1.0734665 1.0438758 1.0061227 1.0715274
1.0385152 1.0401415 1.0320103 1.0825709 0.9963218 1.0395006 1.039395 1.0062349
1.0507251 1.0935569 1.1089038 1.0314306 1.0376748 1.0084809 1.0217597 1.0495963

bn3.bias f4 [64]
00000000: d8f0 06bd 12be 0ebc 2a41 35bd c03f 7e3c
00000010: e4bf 823d ac4c f2bc ba61 4a3b 9e36 00bd
00000020: 3bac 1a3d 99f9 f9bc f433 963a b21c 983b
00000030: 6f53 443c ee0b 1b3c 095c 5bbb 3b5a 1cbd
00000040: 53c0 c33c c188 dcbb ae8c 3c3c ad9d a4b8
00000050: 57c6 4bbb 89d3 bdbc 8926 05bd cb63 78bc
00000060: 5b1f 413d 30d8 193b b4c2 523c 4117 b43b
00000070: bad9 9abc 0c83 223b 3ca9 09bd 1c5f 37bd
00000080: 8613 f1bc ef31 64bd 189d cbbb 6450 8d39
00000090: a42f f33c c26b 96b6 1933 ad3c 8bdb a83c
000000a0: e48e 9bbd 9a77 30bd a2c6 173c 3d59 783c
000000b0: b397 18bd 9a04 c73c aa18 c1bb a13c 2dbd
000000c0: 8947 813b 573a 293c f3af 28bd d582 7fbc
000000d0: c104 533c 0b2b bbbc aa65 5e39 73dc 3a3d
000000e0: 6e52 d3bc b13f 963c 6827 2dbc 8058 273d
000000f0: aee1 653c f286 a3bc 5e7d 7ebc f068 40bd
-0.03294453 -0.0087123085 -0.0442516 0.015518129 0.063842565 -0.029577576 0.0030881003 -0.031302087
0.037761908 -0.030514525 0.0011459575 0.0046420926 0.011982783 0.0094632935 -0.0033471605 -0.038171988
0.023895418 -0.0067301695 0.01150815 -7.849499e-05 -0.0031093562 -0.023172157 -0.032507453 -0.015160511
0.047149044 0.0023474805 0.012863804 0.005495936 -0.018902648 0.0024797348 -0.03360866 -0.044768438
-0.029428255 -0.055711683 -0.0062137954 0.0002695351 0.029685803 -4.482893e-06 0.02114253 0.020612499
-0.075956136 -0.04308281 0.009263666 0.015157995 -0.037254047 0.024294186 -0.0058928328 -0.04229415
0.0039452952 0.010328851 -0.041183423 -0.015595158 0.012879551 -0.022847673 0.00021209443 0.045620393
-0.025796141 0.018340917 -0.010568477 0.040855885 0.014030857 -0.019961808 -0.01553282 -0.046975076

bn3.running_mean f4 [64]
00000000: b407 0240 ccbc 0540 527e fa3f 7256 dc3f
00000010: 51a9 b33f d4c7 dd3f b5e0 4340 230b 2740
00000020: fff5 1d40 e1ee dc3f 2231 2240 7fbd fe3f
00000030: dad2 1940 30e1 a43f a7d6 a33f 4a60 c33f
00000040: 7f35 d43f f825 993f 3721 c93f 1969 b13f
00000050: cc13 0c40 db6f e43f 13b0 dc3f 0d63 c83f
00000060: 2761 ea3f 7ad4 0040 d3d5 e33f 0959 a73f
00000070: 4e7b 1b40 c8e9 0040 91aa 8d3f f430 0440
00000080: fc3d bd3f 960e 0440 e6d5 0d40 8b38 fa3f
00000090: bb36 ed3f 8449 b63f 3e2b d53f cacf e63f
000000a0: 44e8 1a40 94d5 ba3f a0b9 0940 a922 fe3f
000000b0: 159b b13f 1b23 bc3f b946 0d40 2bcf 8f3f
000000c0: ba5d a43f 0a10 bc3f 999e c13f 0f15 e13f
000000d0: f2a8 ed3f c59a b33f a1cb e43f 7f2f df3f
000000e0: e4f2 c33f e6d0 993f 2935 973f 6dfa d63f
000000f0: 1075 da3f d1cb 2640 35b6 d73f 9b27 db3f
2.0317202 2.0896482 1.95698 1.7213881 1.4036046 1.7326608 3.06059 2.6100547
2.4681394 1.72604 2.5342488 1.990158 2.4034944 1.2881222 1.2799882 1.526376
1.6578826 1.1964712 1.5713261 1.3860198 2.1887083 1.7846636 1.7241234 1.5655228
1.8310899 2.0129685 1.7799629 1.3074046 2.429401 2.0142689 1.1067678 2.0654879
1.4784541 2.0633903 2.2161803 1.9548506 1.8532327 1.4241185 1.6653821 1.8032162
2.4204264 1.4596429 2.1519547 1.9854327 1.3875452 1.4698213 2.2074416 1.1235098
1.2841103 1.4692395 1.5126525 1.7584552 1.8567183 1.4031607 1.7874643 1.743637
1.5308499 1.2016876 1.1813098 1.6795174 1.7066975 2.60619 1.685248 1.7121462

bn3.running_var f4 [64]
00000000: 6ced ee40 2d21 5541 7d33 8c41 4834 9140
00000010: 94ef a040 2d52 d840 a92b 2642 6330 9d41
00000020: c14f c341 f903 c940 e505 9d41 50b5 3741
00000030: 0447 9941 cb19 5e40 2dc0 5a40 667a 9540
00000040: 298c d240 8234 3340 436c a840 4898 6e40
00000050: 33a4 0841 64dc 0041 4df9 9f40 2641 f340
00000060: 766d b740 f5c7 6841 7bcb 0141 83e9 5940
00000070: f61f 5e41 7904 f940 0f4c 1140 7d8a 3141
00000080: e13c 8240 7262 1741 1aca e140 d04a c940
00000090: 4624 5641 f594 9e40 1ab3 2841 f35b c340
000000a0: 3295 2741 c5e1 8140 9551 a241 8738 0c41
000000b0: 20fe 5940 c8f6 7f40 abfd 4641 120f 1940
000000c0: d439 5040 1d4b ba40 e8fc 9140 e0e3 7f40
000000d0: 69c0 5141 d04a 9840 e78b e640 4250 0c41
000000e0: 2541 b540 4244 3940 50b5 0a40 f104 9e40
000000f0: 7c3b d440 a3c9 1641 0ff0 fc40 71f3 ad40
7.466482 13.3206 17.52514 4.537632 5.0292454 6.760031 41.542637 19.648626
24.413942 6.281735 19.627878 11.481766 19.159676 3.4703243 3.4179795 4.671191
6.5796094 2.8000798 5.2632155 3.7280445 8.540088 8.053806 4.999182 7.6017027
5.732112 14.548818 8.112178 3.4048774 13.882803 7.781796 2.2702672 11.096311
4.0699315 9.4615345 7.0559206 6.2903824 13.383856 4.955683 10.543726 6.1049743
10.473925 4.0588098 20.289835 8.763801 3.4061356 3.9994373 12.436931 2.3915448
3.2535295 5.821669 4.5621223 3.9982834 13.109475 4.7591324 7.204578 8.769594
5.664202 2.8947911 2.1673164 4.938103 6.6322613 9.424228 7.904304 5.435967

fc2.weight f4 [8, 64]
00000000: 7100 03be 0df4 c5bd fcbd 49be d085 2e3d
00000010: 9d99 4f3d a793 433e 7719 bfbc 2b35 80bc
00000020: c22c ea3d 3a31 0ebd 8f0f ea3d 9b08 d9bd
00000030: 0d36 c13d c71e 823d ff52 23be 7d7e 88bc
00000040: cfe8 f83d ad7b 1c3a d2ca 0fbc 84fa 4bbd
00000050: 6395 d43d 8459 58bd de8e a1bd 7226 1d3c
00000060: 1a99 493e 6df0 fe3d dae0 09be baa4 a53e
00000070: 395d a2bc fbd5 babd f04e 59be 045f 1d3d
00000080: 20fc a4bd f4b6 c83a c5a3 14bd 4084 80bd
00000090: c94a 0b3e f62b f9ba 5c5e 7ebd 6e68 853d
000000a0: 5c06 dfbd 9865 6dbe e555 8abb 3e3d ac3d
000000b0: b58e 09be 3978 1dbe cc0c f13d b97d 743e
000000c0: 40a5 f53d 2360 39be 349b f3bb 3ab8 1ebe
000000d0: 1c1b 713d b864 58bc 0bd7 f5bd 1820 963d
000000e0: b703 51be a60c a9bd 1524 853d 96a0 393e
000000f0: 96bc af3c ed91 e5bd 3b6e f63d e2e1 153d
00000100: 1f31 17bd d51f b63d f93f c23d 1a9e 21bd
00000110: dee8 2c3e ec44 6ebe dfbb 18bd a1f6 d5bd
00000120: b5dc b3bd 559b 093d e352 f93d 6e25 013e
00000130: 422d 18bd e021 7fbd e3c1 4b3e 6ad0 ba3d
00000140: 4b04 603d b327 7ebd acc8 00be 4de5 8ebd
00000150: faa2 b13d 801a cc3c e1c7 8abd aae0 d0bd
00000160: 2ecf 30bd 0e9e 05be f27d b9bd 2a35 38be
00000170: bfca 04bd f378 3abe daab 733e 573e dbbd
00000180: 07b5 9b3d a601 a9bd 95f6 84bc fbd4 c53d
00000190: cd39 053e 3806 37bc 7375 9dbb 9e81 03bc
000001a0: 233f 52be 650b 083e 2e48 eabd a9d3 c7bd
000001b0: 5853 5e3d 7e9f d53d 9bba 00bb 6630 ffbd
000001c0: 3992 f6bd d8f1 ac3d 5d1d f1bc 5158 4fbe
000001d0: 0ede f03d db17 58be 7aa6 90bd 64bf 7e3d
000001e0: 7bb1 a0bc d3ec 9c3e 9a64 b3bd 7c37 a23d
000001f0: 641c a2bc 4663 603d f99d bdbd 8b89 c9bc
00000200: 0f30 833e 8a07 4cbe 18d8 82bc eb53 823e
00000210: d040 d7bd e4d1 60bc 67e0 ce3d 8b80 053d
00000220: 6a60 e73c 00cc c5bd 16b6 823b d0e7 4e3d
00000230: b072 3fbe e5db 77be bde2 56be 6bb5 c6bd
00000240: 9a79 be3d 635e 50be e7fd f4bd 41ad 68be
00000250: 8b37 f73d 86e3 f43b 3c4d 83be 05b7 3abe
00000260: 08f0 833d f11b a1bc 07d0 8f3c 24b0 873c
00000270: e2e2 27bd f93c d1bd a272 31be d992 15be
00000280: 779f 4e3e b12c 19be 8fb9 08be 1c17 383c
00000290: fc90 843e 0bb0 193e 09ed e53d 9f58 b43d
000002a0: ed91 01be 3fc7 71be 2938 023e 92f2 01bd
000002b0: 047b 8d3e 7ab9 973d 097a 46bd d9b7 17bd
000002c0: defe 623e 0329 733d fc30 aebd 517a 4bbe
000002d0: e9cd 7bbd 6832 e73d 4356 553e fb9d 143e
000002e0: 3abc b2bd cda7 21be 600b a2be b19b 15be
000002f0: 4b51 103e 6f9c 213b 65b5 6fbd 03c3 5fbd
00000300: 4009 11be 44da 193e 547d fd3d 2d81 bd3d
00000310: a292 133d f82e 91bc 418b 8b3d 8ce8 1bbc
00000320: 0d52 363c ea62 23be 8372 f1bd 2420 bb3c
00000330: 7759 213e 40eb 39bd 8f20 bfba 5d20 53be
00000340: 03f1 95bc 3b25 4e3e 81af 15bd fbec 5f3e
00000350: 594e 6bbd 2577 8dbd 53d4 083e d4b2 173a
00000360: ab89 8ebc 7f66 51bd 4e1a b33c 2f09 d0bd
00000370: cef5 c53d d624 493e affb f7bd c6db d13c
00000380: 1153 16bd e8da dcbd 437d cbbd 65d6 9cbd
00000390: 62c4 97bd d442 54bd 84d5 e23d 6de5 113e
000003a0: 4565 87bd ead3 adbd 1f99 e43d a32a 25ba
000003b0: 2df1 dabd 20e9 363e 3e48 8dbd 8d17 5ebe
000003c0: 1af9 26be fc28 a3bd e856 f9bd 1d52 16bd
000003d0: da00 143d 458e d83d 38df 18be bbab 00be
000003e0: a145 6a3e d2e1 4bbe c617 cf3d 0278 ca3d
000003f0: aba1 f33d 2aae 5fbc 1b1c b5bd 0897 4fbe
-0.12793137 -0.096656896 -0.1970138 0.042608082 0.050683606 0.19099294 -0.023327572 -0.015650352
0.11434318 -0.034714915 0.11428749 -0.105973445 0.094341375 0.063535266 -0.15949629 -0.016661877
0.1215378 0.0005969357 -0.0087763835 -0.049799457 0.10380056 -0.052819744 -0.07888578 0.009591686
0.1968731 0.12448201 -0.1346468 0.3235224 -0.019819843 -0.09122845 -0.21221519 0.038420692
-0.080559015 0.0015313313 -0.036288995 -0.06275225 0.13602747 -0.0019010294 -0.062101707 0.06514059
-0.10889885 -0.23183286 -0.004221665 0.084101185 -0.13433345 -0.15377893 0.11770019 0.23876084
0.119944096 -0.1810308 -0.007434273 -0.15499964 0.058863744 -0.013207607 -0.12003907 0.0733034
-0.20411573 -0.082543656 0.06501023 0.18127665 0.02145223 -0.11209474 0.120327435 0.03659237
-0.03691208 0.0889279 0.09484858 -0.039457418 0.16885707 -0.23268479 -0.037288543 -0.10447431
-0.08782331 0.0335954 0.121740125 0.12611935 -0.037152536 -0.062288165 0.1989818 0.09121783
0.054691594 -0.06204958 -0.1257655 -0.069773294 0.086736634 0.02491498 -0.06776405 -0.10199101
-0.043166332 -0.13048574 -0.09057225 -0.1798903 -0.032419916 -0.18210201 0.23796025 -0.1070525
0.076028876 -0.082522675 -0.01623086 0.096597634 0.1301033 -0.011170916 -0.004805261 -0.008026509
-0.20531897 0.13285597 -0.114395484 -0.09757168 0.0542787 0.10430811 -0.0019642476 -0.12460403
-0.120396085 0.084445655 -0.029432947 -0.20248534 0.117611036 -0.2110285 -0.07063003 0.062194243
-0.01961588 0.30649433 -0.087594226 0.07920739 -0.019788928 0.054782175 -0.092586465 -0.024601718
0.25622603 -0.19924751 -0.015972182 0.2545465 -0.10510409 -0.013721917 0.10101395 0.03259329
0.028244216 -0.096580505 0.0039889915 0.050514042 -0.18696094 -0.24204977 -0.20984931 -0.097025715
0.093005374 -0.20348506 -0.119624905 -0.22722341 0.12071141 0.007473412 -0.25644863 -0.18233879
0.06442267 -0.019666644 0.01755525 0.016563483 -0.040987857 -0.10216708 -0.17328885 -0.14606799
0.20178019 -0.14958455 -0.13352035 0.011235978 0.25891864 0.15008561 0.112268515 0.08805966
-0.12653323 -0.23611163 0.12716736 -0.031725474 0.27632916 0.07408424 -0.048456226 -0.037040565
0.22167537 0.059365284 -0.08505437 -0.19870879 -0.061475668 0.11288911 0.20833687 0.1451339
-0.087273076 -0.15786667 -0.31649303 -0.14610173 0.14093511 0.0024659892 -0.0585226 -0.054629337
-0.14163685 0.15024668 0.1237742 0.09253154 0.03602851 -0.017722592 0.0681367 -0.009515893
0.011127961 -0.15955701 -0.117894195 0.022842474 0.15756784 -0.045390368 -0.0014581847 -0.20617814
-0.0183034 0.2013139 -0.036544327 0.21867745 -0.057447765 -0.06907491 0.13362245 0.00057868403
-0.01739963 -0.05112314 0.021863129 -0.10158002 0.09666024 0.19642958 -0.12108552 0.025617491
-0.036700312 -0.107839406 -0.09936001 -0.0765808 -0.07410504 -0.051821545 0.11075881 0.14247675
-0.066111125 -0.08487685 0.11162018 -0.0006300604 -0.10690532 0.17862368 -0.06898545 -0.21688671
-0.16305962 -0.079668015 -0.12174779 -0.036699403 0.036133625 0.10574011 -0.14928901 -0.1256551
0.22878124 -0.19910362 0.10111956 0.09886171 0.1189607 -0.013652364 -0.08843251 -0.20272458

fc2.bias f4 [8]
00000000: d400 453e 8633 9f3d 0b8b c43d 9d19 9a3d
00000010: 643d 75bc a10c 063e d2ea 873e 22d4 e03d
0.19238597 0.07773499 0.09596833 0.075244166 -0.01496825 0.13090755 0.2654634 0.10977961

fc3.weight f4 [5, 8]
00000000: ca5d 16bf 281c 09be 6632 d0be e3a2 463f
00000010: dfbf 55be 834d 44bd a157 2f3f 4cdc 34bc
00000020: 95a6 42be 136e 3b3e 6f29 8bbe fdeb 123d
00000030: f3f4 ecbe 7595 003f e63a a8be bb61 783e
00000040: 0adc 11bf 410c 163f 0d4f ac3e be79 07be
00000050: dc79 0dbd 71f9 14bf 206e b63e 5cf8 163f
00000060: 90fc 833e 573a 86be 8ba3 d8be 1aa5 a43e
00000070: 3184 243f b4ca 723e 795c a0be 2d47 f2bd
00000080: b106 963e 9ef3 0cbf 296d 3f3f 3a23 b53d
00000090: 0fdf c8be f0db a5be ec12 f2be 40ff 0abe
-0.5873686 -0.13389647 -0.4066345 0.77592295 -0.20873974 -0.047925483 0.68493086 -0.011038851
-0.19008859 0.18303709 -0.2718005 0.035869587 -0.4628063 0.50228053 -0.32857436 0.24256031
-0.5697638 0.5861245 0.3365406 -0.13230035 -0.034540042 -0.5819312 0.35630894 0.58972716
0.25778627 -0.26216385 -0.42312273 0.32157212 0.6426421 0.23710138 -0.3132055 -0.11829982
0.2930198 -0.5505923 0.7477594 0.088446096 -0.3923268 -0.32394361 -0.4728006 -0.13573933

fc3.bias f4 [5]
00000000: a037 0fbe 45e0 e63e 22c9 afbc ea41 683d
00000010: c308 f33d
-0.13986063 0.4509298 -0.021458212 0.056703486 0.118669055
