tuning_results/best_models_during_tuning_lightning_logs/ec_stand_GCN_best_model_logs/checkpoints/epoch=3383-train_loss=0.77-train_f1=0.71-val_loss=1.87-val_f1=0.34.ckpt (torch, 56770 bytes, 22 tensors)

conv1.bias f4 [64]
000000 85 93 27 bc 29 a0 86 bc d0 49 46 bd 56 34 6d bb
       -0.0102280425 -0.016433792 -0.048410237 -0.0036194525
000010 b3 30 24 bd 99 ee 6e bd f1 8d 86 3c e6 dd 76 bd
       -0.040085506 -0.058333013 0.016425105 -0.060270213
000020 8c 5f d4 bc f5 90 34 bc 90 a8 39 3d 53 01 dc bc
       -0.025924467 -0.011020889 0.04532677 -0.0268561
000030 6e e5 62 bc a2 a1 fc 3b 9f 5b 97 3c d9 13 2e 3d
       -0.013848646 0.007709698 0.018476306 0.042499397
000040 fc 47 05 3c f3 eb 81 bd 91 14 c5 bb 03 0f da bc
       0.008134838 -0.06343832 -0.0060144146 -0.026618486
000050 62 25 1f 3b 8d 6c b5 3b 78 ea 1e 3c b4 f0 64 bb
       0.0024283757 0.005536622 0.009699456 -0.003493351
000060 f3 8f 35 bc 32 50 05 3c 82 f7 90 bd 1e 17 39 bd
       -0.011081683 0.008136796 -0.07078458 -0.045188062
000070 06 f5 9a 3c 33 2f c0 bc 3d 0f 21 3d a7 9c 82 bd
       0.018915664 -0.023460006 0.039321173 -0.06377535
000080 c6 c5 e5 3c b7 fa 03 3a 44 f9 14 3c b4 e8 4c bd
       0.028048407 0.0005034613 0.009092633 -0.05002661
000090 57 4a 4b 3d c1 41 53 bc cb 22 55 bc 6b 41 3e bc
       0.049631443 -0.012894095 -0.013008784 -0.011612277
0000a0 c9 bf 84 bd b2 5c 45 3a b9 9f 76 3d 11 b6 3b 3b
       -0.064818926 0.00075287663 0.060210917 0.0028642456
0000b0 ad d5 1b 3c c4 20 20 3d 66 39 b4 3d 73 a4 fa bc
       0.0095113935 0.039093748 0.088000104 -0.030595994
0000c0 bf 6e f3 bc 0f e8 82 3c 1a f7 60 3c d0 8e 14 bd
       -0.029715894 0.015979795 0.013730789 -0.03626901
0000d0 17 81 33 bd 64 f2 b8 ba d3 72 a2 3c 30 08 50 bc
       -0.04382428 -0.0014110324 0.019830143 -0.012697265
0000e0 49 e4 9c bc 7a 6e 04 3d 9e 0f 36 3c a6 cf bf bc
       -0.019151824 0.03233192 0.011112122 -0.023414444
0000f0 19 7f 8a bc 3c 80 03 bc 90 20 75 3d df df fc b9
       -0.016906308 -0.008026179 0.059845507 -0.00048231983

conv1.lin.weight f4 [64, 25]
000000 6d 6a cc bc 10 77 7c 3e 45 84 12 3e e8 06 6c bd
       -0.024953092 0.24654794 0.1430827 -0.057623774
000010 0d a7 d3 bd ce 6f 29 3e 6c c5 2f bd 44 ab 41 3e
       -0.10334597 0.16546556 -0.042912886 0.18912989
000020 92 e2 09 3e c1 72 39 bc 70 1c 12 3e b6 b0 50 3c
       0.13465336 -0.011318863 0.1426866 0.012737444
000030 f1 39 15 be 31 4b b3 3d de 94 88 be aa 4f 11 be
       -0.14572884 0.08754576 -0.26676077 -0.14190546
000040 48 2f a4 bd a5 6a d7 bd 64 c0 61 3e 00 d6 52 3e
       -0.08016831 -0.10518388 0.22046047 0.20589447
000050 27 68 04 bd 99 23 cd 3d 24 75 61 3e 72 fd fc 3d
       -0.03232589 0.10016555 0.22017342 0.12353028
000060 6e fc f9 bd 4b 49 d9 bd b2 1c 2f be cc 92 7c 3e
       -0.1220635 -0.10609683 -0.1710079 0.24665374
000070 de ef 21 3e dd fb 6e be 2a 29 00 3e c3 64 3c 3e
       0.15814158 -0.23338266 0.12515703 0.18397813
000080 b0 b2 09 3e 70 9d 1b 3e 11 25 5f be 20 46 32 bc
       0.1344707 0.15196776 -0.21791483 -0.010880977
000090 54 e5 5e 3d e5 8a 5f 3e 1a 9a 43 be 80 10 12 3e
       0.054417923 0.21830328 -0.19101754 0.14264107
0000a0 34 3c 78 be b3 14 89 bc c9 f6 89 3e 97 2f a7 3d
       -0.24241716 -0.016733503 0.26946095 0.08163374
0000b0 49 5b 64 be bf 50 a7 3d 2b 20 87 bd b5 65 1f 3e
       -0.22300448 0.08169698 -0.065979324 0.15566142
0000c0 50 65 8d 3d 6e e5 62 bd 8b 88 4c bc c3 ae 0d 3c
       0.069040895 -0.055394582 -0.012483726 0.0086476235
0000d0 d5 58 26 be 55 11 aa bc 2d 8a 47 be 95 f9 44 be
       -0.16244824 -0.020760218 -0.19486304 -0.19235833
0000e0 1d 28 2b be 6e d5 11 be 51 68 18 3e bf 0b 93 3c
       -0.16714521 -0.14241573 0.14883544 0.017949937
0000f0 ac aa 57 be 31 62 ea bd 98 06 37 be e2 30 84 be
       -0.210612 -0.1144451 -0.17873609 -0.25818545
000100 9a 7b d5 bd 6f 49 39 be 87 a5 62 be e2 cd 04 3e
       -0.10423966 -0.18094419 -0.22133456 0.12969163
000110 d1 47 c6 bd 04 55 83 be 87 70 3b 3d b9 3d ba bd
       -0.09681667 -0.256508 0.04576161 -0.09093804
000120 2f 6a 7d be fe c5 e0 bc b7 d6 38 3e 31 01 68 3e
       -0.24747537 -0.02743816 0.18050657 0.22656704
000130 91 8e 06 3d 7e a9 94 bd b7 ef 5c be f5 16 27 be
       0.032850806 -0.072588906 -0.21575819 -0.16317351
000140 72 bc 8a be f4 d1 45 be 5a 37 31 bd cb 28 22 3e
       -0.27096897 -0.19318372 -0.043265678 0.15835874
000150 41 b6 4e 3e 4c b2 53 3e ab e1 cb bd 03 49 36 be
       0.20186712 0.20673484 -0.09955152 -0.1780129
000160 d7 b2 93 3d 33 e2 5b be 7f 0a 8d 3e 6c 2d 26 3b
       0.07211845 -0.21473007 0.2754707 0.0025356663
000170 28 21 9b bd f2 eb 57 be d9 63 c2 3d ff 33 01 be
       -0.075746834 -0.210861 0.09491701 -0.12617491
000180 47 6a 36 be 73 9b 3b 3e 01 35 20 3d a9 39 2d be
       -0.17813979 0.18321018 0.03911305 -0.16916527
000190 6e 8c ad 3d 28 ad 01 be ee 6e 76 be 55 61 fe 3b
       0.084740505 -0.1266371 -0.24065754 0.0077630677
0001a0 2c fa 19 be d6 ee bc bd f8 c1 57 3e 18 84 05 3e
       -0.15036839 -0.09225242 0.21070087 0.13038671
0001b0 c5 c3 68 3e 83 93 50 bc d5 f9 1c bd ed 2c d5 bd
       0.2273093 -0.012730482 -0.038324196 -0.104089595
0001c0 2c f0 16 3e 2e 83 48 be 32 6a 75 3e 5f d9 64 be
       0.14740056 -0.19581291 0.23966292 -0.22348545
0001d0 40 70 44 3e 44 07 09 3d c5 ee e3 bd d1 72 fb bd
       0.19183445 0.033454195 -0.11129526 -0.12277759
0001e0 fd 3c 21 3e d2 00 4b bd b8 25 04 3d 7a ac 5a 3e
       0.15745921 -0.04956133 0.032262534 0.21354857
0001f0 c6 4b 49 be 36 80 19 3e 45 a0 b0 3c e7 dd e6 bd
       -0.19657812 0.14990315 0.021560797 -0.11272793
000200 06 7f 97 bd 99 5c ba bb ed 7d 5d 3d 01 09 7c be
       -0.07397275 -0.005687308 0.05407517 -0.2461281
000210 78 d8 3f 3e 60 6b 4f 3d ae c9 6c bc 57 d9 81 3e
       0.1873492 0.05063951 -0.014452381 0.2536113
000220 9d bf 0f bb dd 81 84 3d 1b 49 89 3d 1a 72 d0 3d
       -0.0021934279 0.06470082 0.06703397 0.10178013
000230 d1 35 5f be 73 82 86 be 7f 6d e7 bd 74 23 c5 bc
       -0.21797873 -0.262714 -0.113001816 -0.024064757
000240 2d bd a2 3d b7 8f 0e be 96 45 00 be e1 9e 12 3e
       0.07946239 -0.1392201 -0.12526545 0.1431842
000250 74 09 10 3e f1 bf 3b be 25 a9 da bd a5 5e a6 3d
       0.14066106 -0.18334939 -0.10676793 0.08123521
000260 a6 86 71 be ab c6 7f be 2b c9 c5 bd ca ff 2d bc
       -0.2358652 -0.2497813 -0.0965751 -0.010620067
000270 0e e2 36 3e d2 48 86 be 62 17 fd bd 82 be 6c 3e
       0.1785967 -0.26227432 -0.123579755 0.23119548
000280 db e0 93 bd 70 64 80 3e 4c b7 0e bd 51 4d 20 be
       -0.07220622 0.25076628 -0.034842774 -0.15654494
000290 53 66 2b 3e b9 ab 80 3c 2b c9 7f bd 83 3f 02 be
       0.16738252 0.015706884 -0.062447708 -0.1271954
0002a0 2f da 1a bc 15 a7 e2 3d 03 e8 1a 3d d4 98 96 3d
       -0.009451433 0.110670246 0.03781892 0.073533684
0002b0 b0 1d a1 3e b5 74 31 be 89 2b 3a 3e 2e 9a 0d 3e
       0.31467962 -0.17329676 0.1818067 0.13828346
0002c0 83 46 a7 bc cc d2 5d be 35 1b 8d be fe 46 60 3e
       -0.020419365 -0.21662444 -0.2755982 0.21902081
0002d0 d2 92 0f be 08 b3 fb 3d c3 63 c7 bd 2c 3f cb 3d
       -0.14020851 0.12290007 -0.09735825 0.099241585
0002e0 b8 61 0c be 8d f7 86 3c 95 09 7c be 8b 9a ff bd
       -0.13709152 0.016475463 -0.2461303 -0.124806486
0002f0 5d a4 17 be c0 dd 11 be d7 e7 5e be 2f 88 67 be
       -0.14808793 -0.14244747 -0.21768127 -0.22610544
000300 16 77 03 3d d2 40 80 3d e2 3f 5e be ce 9e 92 3c
       0.03209599 0.062623635 -0.21704057 0.01789799
000310 e8 50 57 be b4 f4 0f 3e 5e aa 14 be de 36 70 bc
       -0.21026957 0.1405819 -0.14518115 -0.014661519
000320 97 f1 46 be 82 01 e2 bd 07 b7 a3 bd 9e c0 79 be
       -0.19428097 -0.11035444 -0.07993894 -0.24389884
000330 2b b6 28 bd db 1b 54 be cb 8e b2 bd 40 17 fb bd
       -0.041189354 -0.20713751 -0.08718642 -0.12260294
000340 62 8b 49 3d fc 5e 5e 3e c9 99 c3 3c 27 81 cb 3b
       0.04920519 0.21715921 0.023877041 0.0062104645
000350 0f e4 e9 3d ec b7 16 3e 60 84 26 be 9a 1a f7 3d
       0.11420452 0.14718598 -0.16261435 0.12065621
000360 12 9b 26 3e a1 46 63 3d f7 53 43 bd 30 99 a2 bc
       0.16270092 0.05548728 -0.047687497 -0.019848436
000370 fb 10 44 3e be b2 a8 bc 22 f8 4f 3e f8 b6 51 3e
       0.19147103 -0.020593043 0.20309499 0.20479953
000380 18 71 26 be 57 59 73 3e 63 1a 89 3e 72 d6 31 be
       -0.1625408 0.23764549 0.26777944 -0.1736696
000390 63 df 97 bd 82 27 4a 3e 58 43 83 3e 4c 92 66 be
       -0.074156545 0.19741634 0.25637317 -0.22516745
0003a0 2f cf 3a be 3a 30 63 3e fc 85 18 3e c3 7f b3 3d
       -0.18243097 0.22186366 0.14894861 0.08764603
0003b0 1b 16 02 3e 82 09 83 be 28 3f 85 3e 25 ac 0a be
       0.12703745 -0.2559319 0.26024747 -0.1354223
0003c0 93 cb 67 be 02 0f ae bd 7b b8 e7 bd 70 6e e8 3d
       -0.22636251 -0.08498956 -0.11314484 0.11349189
0003d0 65 8c 01 be a9 1a 52 3e f9 77 89 3e a2 ca ab 3d
       -0.12651213 0.20517983 0.26849344 0.083882585
0003e0 bd a1 0c be e4 83 73 3e d4 5d 52 3c 57 7a a5 bd
       -0.13733573 0.23780781 0.012839753 -0.08079975
0003f0 1c 01 e4 bd 13 e5 f8 3c e8 75 f3 3d d1 f7 83 bd
       -0.11133024 0.030382669 0.11887723 -0.064437516

bn1.weight f4 [64]
000000 c2 ef 80 3f 11 6c 80 3f ce a4 7c 3f 8c 19 7d 3f
       1.0073168 1.0032979 0.9868897 0.98867106
000010 29 f7 82 3f 4b 93 7e 3f 23 5c 7b 3f 7d cc 81 3f
       1.0231677 0.994435 0.98187464 1.014053
000020 f1 fa 7d 3f 2e 50 7f 3f 3e 39 7d 3f bf 1f 80 3f
       0.9921103 0.9973172 0.9891547 1.0009688
000030 c1 f2 7e 3f 38 e3 83 3f a1 93 7a 3f cc 7a 7b 3f
       0.99589163 1.0303717 0.97881514 0.9823425
000040 d3 4b 81 3f 54 2b 81 3f f5 66 80 3f cb 62 82 3f
       1.0101265 1.0091348 1.003142 1.0186399
000050 88 28 7d 3f c2 7b 7b 3f f2 33 7e 3f 42 93 7c 3f
       0.9888997 0.98235714 0.9929801 0.986622
000060 75 e7 7c 3f 37 d7 7d 3f 5f 02 82 3f 29 80 81 3f
       0.98790675 0.99156517 1.0156974 1.0117236
000070 ce 20 81 3f 42 92 7e 3f 96 51 7b 3f 5d 12 86 3f
       1.0088136 0.9944192 0.98171365 1.0474354
000080 2c 68 7c 3f 87 c7 83 3f f3 9a 80 3f 64 ce 7c 3f
       0.98596454 1.0295266 1.0047287 0.9875243
000090 32 8f 84 3f 53 6b 83 3f d3 38 7a 3f dd af 7c 3f
       1.03562 1.0267128 0.97742957 0.98705846
0000a0 89 5f 81 3f 91 5b 7f 3f 3e 05 7b 3f ff 27 7a 3f
       1.010728 0.99749094 0.98054874 0.9771728
0000b0 de 12 82 3f 0a 26 76 3f 39 79 80 3f 6b a7 7c 3f
       1.0162008 0.96151793 1.0036994 0.9869296
0000c0 d0 a1 80 3f 4b 03 81 3f 6f c9 81 3f 58 c8 80 3f
       1.0049381 1.007913 1.0139598 1.006114
0000d0 11 87 80 3f 12 c1 7b 3f d3 81 7b 3f 1e 21 82 3f
       1.0041219 0.98341477 0.9824497 1.0166357
0000e0 ef 9c 7e 3f 77 dd 7a 3f d5 43 7e 3f d8 13 81 3f
       0.9945821 0.9799418 0.99322253 1.0084181
0000f0 7d c4 79 3f 88 33 7b 3f 34 d5 85 3f 11 bd 80 3f
       0.9756544 0.98125505 1.045569 1.0057698

bn1.bias f4 [64]
000000 42 1e 57 bb 01 cf 68 bc d9 a2 1c 39 a1 5a 16 3c
       -0.0032824432 -0.01420951 0.00014937985 0.009176881
000010 f3 13 fe bc 25 a7 2e 3c ab e9 3d 3c 61 eb d2 3c
       -0.031015372 0.010659968 0.011591355 0.025747003
000020 53 21 7b 3c eb ac 46 3d 8b 13 c2 bc 8a fa 06 ba
       0.015327769 0.04850475 -0.02369096 -0.00051490276
000030 78 5d 83 bc 50 fa 95 3c de 18 de 3b cf a0 ea 3b
       -0.01603578 0.018307835 0.0067778667 0.007160283
000040 b7 3d 02 3d 16 8d e4 3c d5 d1 f8 3c 23 38 13 bc
       0.031797137 0.027899306 0.030373493 -0.008985552
000050 7b a9 e7 bc 0d 26 25 bc 1d f9 dd bc c8 1b 80 bc
       -0.028279057 -0.010079873 -0.027096326 -0.015638247
000060 61 a3 c3 bb 64 ae 08 3d 3b 3d d0 bb 6a cc 59 3a
       -0.005970404 0.033369437 -0.0063549555 0.0008308353
000070 9a 93 90 3c 74 b1 81 3b aa 4b 87 3c e8 df 23 bd
       0.017648507 0.0039579216 0.016515572 -0.040008456
000080 f3 76 0c bb 47 9d 07 bd e8 c6 69 bc a3 61 ed bb
       -0.0021433204 -0.033108976 -0.014268614 -0.007244305
000090 88 61 7e 3a 3b d4 7b 3b d0 65 db bc d3 b3 02 3c
       0.00097038643 0.003842606 -0.026781946 0.007977444
0000a0 dd 87 85 3c c3 65 43 bc 91 fe 90 3c ca ff 63 3c
       0.016300136 -0.011926117 0.017699512 0.013915965
0000b0 d9 3f db 3c 5d 97 17 bd 20 35 b7 3c 15 ca 93 bc
       0.026763843 -0.037009586 0.0223642 -0.018040696
0000c0 bc 1b 1e bd 36 29 03 3d 88 dd 06 bb 07 27 1c bd
       -0.03860067 0.032021724 -0.002057882 -0.038123157
0000d0 34 a7 6a bc d0 26 86 3c a9 aa 48 3b 1d eb 2e 3c
       -0.014322091 0.01637593 0.00306193 0.010676173
0000e0 39 53 83 bc f4 10 fa b9 f4 7e 5e 3c a4 cc f4 3c
       -0.016030895 -0.00047696347 0.013580073 0.029882737
0000f0 cb 54 47 bc e3 f2 67 3c 0e b1 f4 3b 8e ea e4 3b
       -0.012166212 0.01415703 0.0074673956 0.006985969

bn1.running_mean f4 [64]
000000 00 87 94 3e 19 58 1b 3e ac 3c 5a 3e 6e 2c 5d 3e
       0.29009247 0.15170325 0.21312207 0.2159898
000010 ae b7 23 3e 18 88 43 3e a2 7d 40 3e f7 87 31 3e
       0.15988037 0.19094884 0.18797925 0.17337023
000020 16 26 b9 3e be 99 8b 3e 46 16 3f 3e c5 c9 53 3e
       0.3616187 0.27265733 0.1866084 0.20682438
000030 d5 ab aa 3e e1 83 83 3e 89 32 7b 3e 00 b7 73 3e
       0.33334222 0.25686553 0.24530996 0.23800278
000040 9b c1 59 3e fa 78 30 3e d7 ea 9a 3e bb 59 5b 3e
       0.21265261 0.17233649 0.30257294 0.21420948
000050 c7 0c b7 3e d8 04 1c 3e 27 34 8b 3e 96 97 64 3e
       0.35751936 0.15236223 0.27188227 0.2232345
000060 db f9 fb 3d bb 62 d8 3e 95 6c 9a 3e 3f 57 ad 3e
       0.123035155 0.42262825 0.30160967 0.33855626
000070 ff e1 92 3e b8 37 c5 3e 26 47 53 3e 92 c1 9d 3d
       0.28688046 0.38519073 0.2063261 0.07702936
000080 97 e7 79 3e 89 cd 48 3e 11 ba 66 3e 52 4d 1d 3e
       0.24404751 0.19609655 0.22531916 0.15361527
000090 51 15 16 3e dc 3f 12 3e b0 2b 3b 3e fe 2f 20 3e
       0.14656569 0.14282173 0.18278384 0.15643308
0000a0 54 ff 07 3e 70 28 98 3e bf 05 77 3e 87 fe 8a 3e
       0.13280994 0.2971835 0.24123286 0.27147314
0000b0 24 58 76 3e be c6 2f 3e 21 88 5a 3e ea 85 ac 3e
       0.2405706 0.17165658 0.21340992 0.33695918
0000c0 e7 08 92 3e 59 79 3e 3e 7e d5 84 3e 95 88 7b 3e
       0.28522417 0.18600978 0.25944132 0.2456382
0000d0 6a 0f b1 3e c2 76 f2 3d 96 44 8d 3e e8 67 80 3e
       0.34582072 0.118390575 0.2759139 0.25079274
0000e0 05 78 55 3e 2d 5d 1b 3e d1 72 91 3e 23 63 b0 3e
       0.20846565 0.15172262 0.2840791 0.34450635
0000f0 21 d1 29 3e de a6 81 3e 91 ef 16 3e d7 f6 44 3e
       0.16583683 0.25322622 0.14739825 0.19234787

bn1.running_var f4 [64]
000000 73 2b 5b 3e 02 ed 4d 3d 61 a0 a7 3d 16 01 c8 3d
       0.21403293 0.050274856 0.08184887 0.09765832
000010 b4 c1 5d 3d d0 b6 96 3d cb f2 bd 3d 3a 17 7e 3d
       0.054139808 0.073590875 0.09274825 0.06203387
000020 d6 f0 a6 3e 73 a0 c5 3e b4 41 84 3d 4a 3e 05 3e
       0.32605618 0.38598976 0.064578444 0.13012043
000030 16 5f 8d 3e f4 f6 e9 3d 41 e9 ea 3d 05 0f ff 3d
       0.27611607 0.11424056 0.11470271 0.124540366
000040 93 62 8a 3d 36 9e ef 3d 0e 18 85 3e 79 91 d5 3d
       0.06757083 0.11700098 0.25994915 0.10428137
000050 8a 6d cf 3e 19 fe f2 3d bc c9 38 3e b1 b2 28 3e
       0.4051326 0.118648715 0.18045706 0.16474415
000060 bd 04 80 3d 0b a6 9c 3e 6b 04 16 3e ca fa a6 3e
       0.06250904 0.3059543 0.14650123 0.32613212
000070 90 1b 22 3e 67 6d 7b 3e d8 2d d7 3d 12 67 a6 3c
       0.15830827 0.24553452 0.10506791 0.02031282
000080 bc f6 04 3e c4 e7 bd 3d e5 5e 97 3d 43 f2 86 3d
       0.12984747 0.092727214 0.073911466 0.065891765
000090 a0 38 96 3d 83 c1 8e 3d 8f 33 7f 3d 25 14 a9 3d
       0.07335019 0.06970503 0.06230503 0.082557954
0000a0 46 e0 1d 3d 28 9a 75 3e 45 24 73 3e 4d 61 42 3e
       0.038543962 0.23984587 0.23744304 0.1898243
0000b0 65 0f ce 3d 1f db 97 3d a8 d1 ac 3d fc e7 61 3e
       0.1006153 0.07414841 0.08438426 0.22061151
0000c0 46 1e 1b 3e c3 4a bf 3d c1 58 c9 3d a3 35 1d 3e
       0.15148267 0.093404315 0.098313816 0.15352492
0000d0 8e e6 9f 3e 41 34 00 3d 68 8c 3e 3e 98 56 60 3e
       0.31230587 0.031299833 0.18608248 0.21908033
0000e0 8a d6 35 3e b6 2f 24 3d 17 91 90 3e 90 c5 95 3e
       0.17757621 0.040084563 0.28235695 0.2925229
0000f0 f6 b9 03 3e 38 83 2b 3e e1 3d 71 3d 2a 18 ab 3d
       0.12863907 0.16749275 0.058896903 0.08354218

conv2.bias f4 [64]
000000 c5 3c 08 3c 4b 78 f6 b8 fa 7a 08 bd 7e d8 c0 bc
       0.00831527 -0.000117526004 -0.033320405 -0.023540732
000010 f5 78 21 bc 3a 53 0a 3a ed 27 11 bc b2 89 87 3c
       -0.009855499 0.0005276684 -0.008859617 0.01654515
000020 d5 c5 7b bb 3b 8a 7f 3b 3e 53 fb bb 33 22 f6 ba
       -0.0038417478 0.0038992304 -0.0076698354 -0.0018778503
000030 d7 7c 35 bc 59 1d f0 bc c5 8d 09 bc 93 ed 77 bc
       -0.011077127 -0.029310869 -0.008395617 -0.015132326
000040 da a7 49 bb 44 10 a5 bc 00 1f 50 3c 81 ee 00 bd
       -0.0030770213 -0.020149358 0.0127027035 -0.031477455
000050 31 cd c3 bc 5b c8 a4 3b 83 0d a4 3a 89 e9 0c bc
       -0.023901554 0.005028767 0.0012516234 -0.008600601
000060 70 50 cb b9 02 37 dd 39 48 16 6b 3b de f8 06 3b
       -0.00038779108 0.0004219339 0.0035871435 0.0020595114
000070 59 4c e7 3b 29 3b 3b bc 42 d3 3e 3c 33 72 03 3c
       0.007058662 -0.011427679 0.0116470475 0.008022833
000080 1f f0 80 3b eb b0 9e bc af 1e 8e 3b 20 86 e2 bb
       0.0039348747 -0.01937147 0.004337154 -0.0069129616
000090 12 4b b6 3a 9e 86 53 3b b6 c3 34 bc 93 41 db bc
       0.0013907871 0.0032276283 -0.011032989 -0.026764667
0000a0 58 43 bf bc b3 33 9e bc 4d 2a 26 bc 69 25 50 3b
       -0.023347542 -0.019311761 -0.010141921 0.003176058
0000b0 ce ee 5a 3c 28 1d 0a bc 47 81 9e bc 40 97 73 3b
       0.0133626 -0.008429803 -0.019348754 0.003716901
0000c0 d9 8b bc bc cb b3 a1 bc c4 4a 92 bc 17 bb 3a bb
       -0.023015903 -0.019739052 -0.017857917 -0.0028492862
0000d0 5e 45 a2 3c 16 64 88 3c 66 3f 26 bc c2 d2 a9 ba
       0.019808467 0.016649287 -0.010146951 -0.0012956487
0000e0 41 bf ac 3c 88 2a cf bc 48 0e 29 bc ab 04 3d bc
       0.02108729 -0.025288835 -0.010318346 -0.011536757
0000f0 64 82 5b b8 ae 1a 8c bc 4b b8 4b 3b 9e e8 68 3c
       -5.2335105e-05 -0.017102566 0.003108519 0.0142156165

conv2.lin.weight f4 [64, 64]
000000 0a a5 0a 3e 5d ee b6 3d 21 e8 fc 3d 20 72 d0 bd
       0.1353952 0.08932183 0.123489626 -0.101780176
000010 9a 6a 4a 3e 46 cf c5 bc f0 40 e2 3c d7 9b 13 3e
       0.19767228 -0.024146687 0.027618855 0.14414917
000020 b8 79 01 be 29 0b 59 bd 10 ba 8b 3b da 15 09 3e
       -0.12644088 -0.05298916 0.0042641237 0.13387242
000030 6d 7d 22 3e 65 a4 34 bd 1b e2 6c ba 47 60 31 be
       0.15868159 -0.04410209 -0.0009036378 -0.17321883
000040 df 8d 43 be 3e c2 75 bc 39 4b e1 3d 7b 7c fc 3b
       -0.19097088 -0.014999924 0.11000676 0.007705269
000050 73 c5 1c 3e 56 a2 1f be 99 87 23 3c 0f b5 cd bd
       0.15309696 -0.1558927 0.0099810595 -0.100443
000060 4d bb be bd c8 84 04 be c8 cf be 3c 59 5f 56 be
       -0.093130685 -0.12941277 0.023292437 -0.2093481
000070 7f af ea bd 39 ed 31 3d 81 b8 ff bd 08 e6 24 be
       -0.114592545 0.043439124 -0.12486363 -0.16103375
000080 72 1f ed bc d2 52 1a be 24 92 ce bb 44 9c 0a be
       -0.028945658 -0.15070656 -0.0063040424 -0.13536173
000090 20 8f 5d 3d 2c c4 d8 3d 93 8d 4d 3e f0 42 ac 3d
       0.054091573 0.10584292 0.20073538 0.08411205
0000a0 c9 ab 07 be 46 af e9 3d 56 37 ef bb c7 6d 04 be
       -0.13249125 0.11410384 -0.0073002977 -0.12932502
0000b0 18 43 3e be df f7 e9 bc ef 13 10 be 0b 5e 46 3e
       -0.18580282 -0.028560577 -0.14070104 0.19371812
0000c0 81 a4 3e 3e 91 b1 fb bd 83 a4 8e bc 69 cc c7 3b
       0.18617441 -0.122897275 -0.01741243 0.0060973656
0000d0 6f 64 54 be 15 4c 88 bd c2 bf 06 bc 32 19 59 be
       -0.20741437 -0.066551365 -0.00822443 -0.21201017
0000e0 2a 91 0a be d6 60 81 bd a1 7c 4d bd 42 ef 8b bd
       -0.13531938 -0.06317298 -0.050167684 -0.06832744
0000f0 98 b2 44 3e b2 43 14 3e 4b 21 e3 bd 1a cb 06 3e
       0.19208753 0.14478949 -0.110903345 0.13163415
000100 20 20 3d be f1 27 1c be 3e d6 eb bd 3b 37 bf bd
       -0.18469286 -0.15249611 -0.11515473 -0.09336706
000110 5c c9 fa 3d 3d dc 4f 3e 6e 72 ef bd 66 b0 ed 3d
       0.122454375 0.20298858 -0.116917476 0.11605911
000120 96 6c eb bc 3f b5 2a be f7 5c 8c bd 35 6f a8 3c
       -0.028738301 -0.16670702 -0.06853669 0.02056084
000130 ed c4 08 bd 44 8b 03 bd 1b ce f4 bd 4d 7e 3b 3e
       -0.033390928 -0.032115236 -0.11953374 0.18309899
000140 79 b4 a5 bd 01 73 c5 3b 07 cd 6c bc ce 0a f1 3d
       -0.08091063 0.0060256724 -0.014453179 0.11769639
000150 4b 65 08 be c5 8a 01 3e ca eb 87 bd da 07 cd 3d
       -0.1331989 0.12650593 -0.0663677 0.10011263
000160 e5 ea 5e 3e 5c 98 d1 3d 47 fb e4 bd 98 02 ed 3d
       0.21769293 0.10234138 -0.1118074 0.1157276
000170 8a c8 21 be 82 aa 37 be 86 85 54 3e ee 86 d7 3d
       -0.15799156 -0.17936137 0.2075406 0.10523783
000180 9c 41 2d 3d a0 4c a0 3c c5 b3 d5 bd d7 76 45 3e
       0.042298898 0.019567788 -0.10434679 0.19283615
000190 32 91 c0 3d 01 96 50 3e 0a aa 2e be a4 93 40 be
       0.09402694 0.20369722 -0.17057052 -0.1880632
0001a0 f1 38 1a be 7c 9b e5 bd 2b 89 27 bd 3f dd 2a 3c
       -0.15060784 -0.11211297 -0.040902298 0.010428726
0001b0 36 fe c2 bc f2 ea 26 bd c1 81 ea 3d dd a6 39 bd
       -0.023802858 -0.040751405 0.1145053 -0.04532515
0001c0 a3 f4 92 3d 51 22 56 be 68 57 9f bd 33 f2 24 be
       0.07175567 -0.20911528 -0.07780343 -0.16108017
0001d0 51 07 32 be 5d c3 d8 bd f2 b5 c2 bd 77 1a cc bc
       -0.17385603 -0.105841376 -0.095073596 -0.024914963
0001e0 14 10 06 be d0 45 ca 3d 8b 5a 55 be e5 e7 01 3e
       -0.13092071 0.09876597 -0.2083532 0.12686117
0001f0 ab 77 d6 bd f6 cb 3a be 4e 6e a8 3c a5 8c 27 be
       -0.104720436 -0.18241867 0.02056041 -0.16362245
000200 45 d3 5c 3e e3 3e f3 bd 20 62 18 be 8a 4b a4 bd
       0.21564968 -0.11877229 -0.14881182 -0.080222204
000210 3a 22 ea bd d1 a0 31 be 95 b7 36 3e ff 0d bd 39
       -0.114323094 -0.17346503 0.17843468 0.00036059317
000220 67 83 40 be a6 cb 34 be 01 16 5b 3e bd e6 53 be
       -0.18800126 -0.1765581 0.21395113 -0.20693488
000230 58 b3 30 3e 96 4c d1 3d db 54 2b be b9 80 5f be
       0.17255914 0.10219686 -0.16731589 -0.21826448
000240 3d 84 66 bd 71 ef 61 3e ea b3 ee 3d a9 ef 71 3d
       -0.056278456 0.22063996 0.1165541 0.05906645
000250 58 f8 01 bd 4c d1 ab bd 2d 4c d9 3d ac 38 d7 3c
       -0.03173098 -0.083895296 0.106102325 0.02627214
000260 a0 41 93 3d 74 ba e9 bb be 02 11 3e f8 19 53 3e
       0.07190251 -0.0071328226 0.14161202 0.20615375
000270 36 27 36 3e a5 40 45 bd eb c2 48 be eb 82 b5 bc
       0.17788395 -0.048157353 -0.19605605 -0.022157153
000280 22 56 c9 3c 2a 4a cf bd aa cf 04 3e 67 d8 93 3d
       0.024577204 -0.101215675 0.12969843 0.0721901
000290 91 38 58 3e bd 0b 1b bc 82 4e 59 3e ae d2 40 bd
       0.21115328 -0.009463248 0.21221355 -0.04707592
0002a0 43 56 82 bd 92 9a 0c be 95 a4 c3 3a c9 ca 36 be
       -0.06364109 -0.13730839 0.0014926369 -0.17850794
0002b0 60 14 3e 3d 23 31 23 3e 1f 33 8e bd 57 d0 46 3e
       0.04640615 0.15936713 -0.06943344 0.19415413
0002c0 5e 16 20 3e 23 4a bb bd 88 d5 5d bc 64 dc 78 3d
       0.15633532 -0.09145 -0.013539679 0.060757056
0002d0 7c 83 70 3d b2 f2 2c be 87 d4 05 3e 87 dc c3 bd
       0.058719143 -0.16889456 0.13069354 -0.09563547
0002e0 fd d5 bb 3c f0 88 33 be be 1b 81 3c 2b 01 1a 3b
       0.022929186 -0.17532706 0.015760299 0.0023499231
0002f0 d2 0a 43 be d2 d3 2c be 0f f7 41 3d 7d 71 ed 3d
       -0.19047096 -0.16877678 0.047354754 0.11593912
000300 a6 68 00 bd 8a 12 de bd ad c0 d6 bd 02 26 0f 3e
       -0.0313498 -0.1084338 -0.10485969 0.13979343
000310 b4 09 0f 3c 60 b5 4f 3c 3e a3 38 be bf 07 85 3d
       0.008730341 0.0126775205 -0.18031022 0.06495618
000320 cd 85 8e bd c7 b8 86 bd 35 72 09 3e c7 95 14 be
       -0.06959114 -0.06578212 0.13422473 -0.1451026
000330 16 48 5e bd c2 3d 41 bd 4b a0 0b 3e c1 dd f7 bc
       -0.054267965 -0.047178037 0.13635366 -0.030257108
000340 33 1a 13 be 65 72 5e 3d b6 01 2d be c6 c1 fa 3d
       -0.14365463 0.054308314 -0.16895184 0.122439906
000350 c8 8d 6b bd a8 b0 c2 3d 87 4c 59 be 8f 55 5e bd
       -0.05750826 0.09506351 -0.21220599 -0.054280814
000360 74 ad 3e 3e 7c a4 90 3d 31 5d a1 3d c1 7b e8 bd
       0.18620855 0.07062623 0.07879103 -0.11351729
000370 cd 2b 21 be e9 ba b3 3d 54 ff 8d 3c 26 49 52 3e
       -0.15739365 0.08775885 0.017333664 0.20535716
000380 7c 15 04 3e cf 89 3b be ce 81 0d 3e 12 3b 1f 3d
       0.1289882 -0.18314289 0.13819048 0.038874693
000390 85 5f 89 bd 4b cc 3a be 6f 71 f7 3d 30 4d 09 be
       -0.06707672 -0.18241994 0.120821826 -0.13408351
0003a0 40 ac 4e bd 72 ce 4b 3e 50 84 c5 bd c9 eb a2 bd
       -0.05045724 0.19902971 -0.09644377 -0.07955129
0003b0 bd 4c 53 3e 75 f3 34 3e de c4 3f bd 82 10 48 3e
       0.20634742 0.17670996 -0.046818607 0.19537547
0003c0 23 0c 6c 3e 0a 2f 29 bc 16 d7 a2 bd 8d d6 a2 3d
       0.23051505 -0.010326156 -0.07951181 0.079510786
0003d0 98 f3 99 bc 47 e2 be 3c 81 8c 0b bd 22 4e 94 bd
       -0.018792912 0.023301257 -0.03406954 -0.07241465
0003e0 7a bf 57 3e 38 8c 41 be 87 a1 09 be 8f 47 1c bd
       0.21069136 -0.18901145 -0.13440524 -0.03815418
0003f0 36 4a 3a 3e 72 99 07 be 3d 6a 86 3d fe cd 14 3e
       0.18192372 -0.13242128 0.06563232 0.14531705

bn2.weight f4 [64]
000000 14 5b 81 3f ce dc 7e 3f 6f 24 81 3f 88 ce 7b 3f
       1.010592 0.9955567 1.0089244 0.98362017
000010 bd 7b 80 3f 24 65 81 3f cb e6 7e 3f e0 45 7d 3f
       1.0037762 1.0108991 0.9957091 0.98934746
000020 de 3d 85 3f 60 93 81 3f c3 26 7e 3f 3e ed 7d 3f
       1.0409505 1.01231 0.99277896 0.9919013
000030 69 7a 7e 3f d7 a9 7e 3f cb 21 80 3f 1a b3 7b 3f
       0.99405533 0.99477905 1.0010313 0.9832016
000040 21 29 82 3f 3c 9a 7f 3f 28 2a 7c 3f bc 1f 81 3f
       1.0168802 0.9984472 0.98501825 1.008781
000050 f4 89 81 3f 6e a3 7c 3f 8f 59 7f 3f d6 68 7c 3f
       1.0120225 0.98686874 0.9974603 0.98597467
000060 0f c3 7f 3f a1 9a 81 3f 99 11 7d 3f 75 5d 81 3f
       0.9990701 1.0125314 0.98854977 1.0106646
000070 96 bc 7c 3f 55 1d 81 3f ae fe 7f 3f 91 9d 82 3f
       0.9872526 1.0087076 0.99997985 1.0204335
000080 02 0d 7e 3f d7 20 80 3f 8e b3 81 3f eb 2c 80 3f
       0.992386 1.0010022 1.0132921 1.0013708
000090 e9 ef 7f 3f 9d 37 7c 3f 20 9a 81 3f 2b f1 82 3f
       0.9997545 0.9852236 1.012516 1.0229849
0000a0 e6 e7 80 3f 0d d1 7d 3f c9 a0 7d 3f 8d fa 7b 3f
       1.007077 0.9914711 0.99073464 0.98429185
0000b0 25 d3 77 3f 57 11 7f 3f 0e 9b 80 3f e3 3e 80 3f
       0.96806556 0.99635834 1.0047319 1.0019192
0000c0 e2 67 81 3f b7 e6 7f 3f 13 53 81 3f 84 c2 80 3f
       1.0109828 0.9996142 1.0103477 1.0059361
0000d0 6f 00 81 3f 69 d2 7b 3f 54 0b 82 3f a6 fa 7c 3f
       1.0078257 0.98367935 1.0159707 0.9881996
0000e0 88 62 7c 3f 2b 09 7a 3f 59 88 82 3f f8 af 7e 3f
       0.98587847 0.9767024 1.019786 0.99487257
0000f0 f1 12 7f 3f 90 85 81 3f c1 cb 7d 3f 5e 23 7c 3f
       0.9963828 1.0118885 0.9913903 0.98491466

bn2.bias f4 [64]
000000 46 95 ec bb 2a 3c ba 3b 58 71 94 37 30 5e 02 bc
       -0.007219943 0.0056834416 1.7695755e-05 -0.007957026
000010 80 7f 79 3c 63 6e cc 3b 3e 59 62 3c bb ad 9d 3c
       0.015228152 0.006238745 0.013815222 0.01924788
000020 67 9b 43 3d d8 f9 78 bc 3f f8 b9 3b d6 66 a2 3c
       0.047755625 -0.015196286 0.005675345 0.019824427
000030 07 e5 86 3c 5e 3f 7b 3c 05 9e d2 3c e9 c9 a8 3c
       0.01646663 0.015334932 0.025710115 0.02060409
000040 c5 c8 57 3d 6d 97 51 3c 1d 33 6b bc 71 63 b1 bb
       0.052681703 0.01279245 -0.014355448 -0.0054134657
000050 2a a8 85 3c 4c 44 52 3c e6 f0 1a bc 1b 69 79 3c
       0.016315538 0.012833666 -0.009456849 0.015222813
000060 9d b4 d7 bc 52 b1 06 bd a7 ee 28 3c ae 2a 56 3c
       -0.02633124 -0.03288395 0.010310805 0.013071699
000070 50 db 34 3a 28 68 14 3c 72 cd b8 3b 15 ed e7 3c
       0.0006899135 0.009058036 0.0056397254 0.028311292
000080 91 e1 09 3c 9b 9c 4e 3b 4a 24 3b 3c 52 e6 dd bb
       0.008415596 0.003152645 0.011422226 -0.006771841
000090 59 b0 a8 3c 72 d8 50 bb ea e7 7b 3c 15 04 8a 3c
       0.020591902 -0.0031867293 0.015375117 0.01684765
0000a0 c7 36 b1 3c 26 d6 86 3c e9 ac 41 3b 78 5e f9 38
       0.021632565 0.016459536 0.0029552525 0.000118908414
0000b0 05 a3 19 3d 45 92 bf 3c ce 04 0e 3c 41 51 8d 3c
       0.037508983 0.023385176 0.008668138 0.017250659
0000c0 1d fd e0 bc c9 30 3c bc 2f 09 a1 3c 1f 11 13 3c
       -0.027464444 -0.011486241 0.0196577 0.00897625
0000d0 44 80 03 3d 10 e7 91 bc f6 66 3a bc e8 d7 f4 bc
       0.032104746 -0.017810374 -0.011377087 -0.029888108
0000e0 83 14 a0 3b 37 62 0b 3d d3 05 aa bb 06 ae be ba
       0.0048852577 0.03402921 -0.0051886826 -0.0014547713
0000f0 3b 70 bc 3c 45 4c 2f bc 47 20 86 3c d4 a2 2a bd
       0.023002734 -0.010699336 0.016372813 -0.04165919

bn2.running_mean f4 [64]
000000 12 a0 f0 3e 74 6d bb 3e ff 7b 97 3e ec f1 8a 3e
       0.46997124 0.36606944 0.2958679 0.27137697
000010 22 a6 ad 3e 9d 2d 7d 3e e8 e5 ee 3e db 33 d1 3e
       0.33915812 0.24724431 0.4665978 0.40859875
000020 83 db 86 3e 95 05 02 3f 7e 52 c9 3e cb 1e da 3e
       0.2633935 0.5078977 0.3932075 0.42601618
000030 a2 85 bc 3e 2c ba b0 3e 9c eb 7b 3e 83 1f 76 3e
       0.36820704 0.34517038 0.24601597 0.24035458
000040 0a 5f 90 3e b5 67 71 3e de bf d3 3e 56 d1 36 3e
       0.2819751 0.23574717 0.4135732 0.17853293
000050 d8 60 9f 3e 1f d1 c6 3e 24 a5 d3 3e 5e 9c da 3e
       0.31128573 0.38831422 0.4133693 0.42697424
000060 12 33 bc 3e 95 56 a7 3e 9c a5 e1 3e 91 24 9e 3e
       0.36757714 0.32683244 0.44071662 0.30887273
000070 6b 7d f1 3e 5c e9 6c 3e cc 3e a0 3e da 18 8a 3e
       0.47166 0.23135895 0.3129791 0.26972085
000080 ab dc ba 3e fd b8 81 3e 2a 1d 7a 3e d2 9d c8 3e
       0.3649648 0.25336447 0.24425188 0.39182907
000090 4a e7 0d 3f 53 d6 e3 3e 53 25 72 3e 98 22 9d 3e
       0.55431044 0.44499454 0.2364705 0.30690455
0000a0 32 ad 7d 3e 8b 36 90 3e 66 05 9a 3e bd 6e aa 3e
       0.247731 0.28166613 0.30082244 0.33287612
0000b0 16 7e d7 3e 3d 9e df 3e 3c d5 d9 3e 65 af cc 3e
       0.42088383 0.43675414 0.42545497 0.39977565
0000c0 dd a6 b4 3e 4c dc 80 3e 60 00 99 3e 1d 30 80 3e
       0.35283557 0.25168073 0.298831 0.25036708
0000d0 a8 f8 8d 3e 90 c3 00 3f fb 74 87 3e 4c d7 d4 3e
       0.27728772 0.50298405 0.26456437 0.41570508
0000e0 b6 f8 c4 3e 34 84 6d 3e 0f b3 1f 3e dc 60 de 3e
       0.38471 0.23194963 0.15595649 0.43433273
0000f0 32 7f 01 3f 09 f6 85 3e 27 a2 db 3e c6 4e d9 3e
       0.5058471 0.26164272 0.4289715 0.42442912

bn2.running_var f4 [64]
000000 eb e0 a6 3e 62 6e 6b 3e 2a 74 4b 3e 7d f5 5e 3e
       0.32593474 0.22991326 0.19868532 0.21773334
000010 5b f7 b1 3e 1e f3 fc 3d 28 00 38 3f ad 84 b7 3e
       0.3475903 0.123510584 0.7187524 0.3584341
000020 4b 8f 21 3e 94 4f 12 3f fb 7d a3 3e 69 af 31 3f
       0.15777318 0.57152677 0.31932053 0.6940828
000030 cc eb b1 3e bb 5e 5a 3e b2 7a 43 3e 37 bc 6b 3e
       0.3475021 0.213252 0.19089773 0.23021017
000040 33 81 85 3e 6a d8 13 3e 62 16 95 3e 77 48 93 3d
       0.26075134 0.14438024 0.2911864 0.07191556
000050 eb 0e 86 3e 8e 40 88 3e 5c d5 c9 3e 82 70 10 3f
       0.26183257 0.2661175 0.39420593 0.56421673
000060 f0 f5 a5 3e 8b 37 31 3e 9c e7 33 3f f1 0b 64 3e
       0.32414198 0.17306344 0.7027528 0.2227018
000070 f3 12 c8 3e 18 1a 26 3e 5b 44 5b 3e 4e c5 13 3e
       0.39076957 0.16220891 0.21412794 0.14430735
000080 f3 5e a4 3e 97 4c 3e 3e 9c 19 09 3e 3d e2 68 3e
       0.3210369 0.18583904 0.13388675 0.22742553
000090 43 95 13 3f 8c ab 3d 3f da 73 c7 3d 36 92 15 3e
       0.5764963 0.74089885 0.09738894 0.14606556
0000a0 4b b3 9a 3e 2d c9 25 3e 00 47 5a 3e ef c6 86 3e
       0.30214915 0.16190024 0.21316147 0.2632365
0000b0 db 96 16 3f c1 c6 c8 3e 63 b8 3d 3f a2 f8 e7 3e
       0.5882394 0.39214137 0.74109477 0.4530688
0000c0 3d 32 ec 3e 22 b0 25 3e c3 f0 4c 3e 9e de 33 3e
       0.4613208 0.1618047 0.20013718 0.1756539
0000d0 1c bc 4b 3e 3d bf 6b 3f f4 b4 47 3e d2 e7 19 3f
       0.19895977 0.9208868 0.19502622 0.60119355
0000e0 52 04 b2 3e 8b 28 54 3e 4c cb 68 3d 30 60 fc 3e
       0.3476892 0.20718591 0.056834504 0.49292135
0000f0 42 c7 06 3f a5 7c 03 3e fa 84 1f 3f c3 61 05 3f
       0.52647793 0.12840517 0.6231228 0.521023

fc1.weight f4 [64, 64]
000000 42 2f 40 bd 45 67 84 bc 38 22 96 bd 80 dd ad bc
       -0.04692007 -0.016162524 -0.073307455 -0.021223783
000010 d8 70 e6 bc 59 05 b1 bd 5f eb a5 3d 4e 4e 87 bd
       -0.02812998 -0.08643598 0.08101534 -0.06606732
000020 d2 c6 0e 3e 42 b3 fe 3c 3a d4 9c bc 2c 1e ef 3c
       0.13943031 0.031091336 -0.019144166 0.029189192
000030 1a 00 de bd 44 1f e4 bc 36 a9 41 bd 5b f0 93 bd
       -0.10839863 -0.02784694 -0.047280513 -0.072235785
000040 e6 c3 51 3d 71 be 77 bd dc 4b 85 3d 5a b4 a6 3d
       0.051212214 -0.060484353 0.0650861 0.08139868
000050 9e 95 b1 3d fa c4 db 3d 68 bb b0 bd 38 b4 cd 3d
       0.08671115 0.1073093 -0.08629495 0.100441396
000060 81 1a 8c bd 7a ac 4d 3d 4f 33 69 3a 2c d9 81 3d
       -0.06840993 0.050213315 0.000889589 0.063402504
000070 ec 4a 7a 3d 8e a6 95 bc f3 ee 8d bd 7b a3 59 3d
       0.061106607 -0.018267896 -0.069303416 0.053134423
000080 a1 ef 84 bd 95 e2 2d 3d b3 78 01 be ed 24 d7 bd
       -0.06491018 0.042452414 -0.126437 -0.1050509
000090 70 fd d7 bd c8 49 32 3b a1 08 20 3c 52 62 eb bd
       -0.10546386 0.0027204622 0.009767682 -0.114933625
0000a0 7b 8f 65 bc 0a 03 81 3d b0 c7 cc bd 74 c6 10 bd
       -0.014011259 0.06299408 -0.09999025 -0.03534551
0000b0 bb 2d 19 bd 34 4c ff 3d b1 6b 9a 3d ce 65 ca bd
       -0.037397128 0.124657065 0.07540072 -0.09882699
0000c0 da 91 c4 bc 45 f3 8b bc a4 a9 e4 3d 74 7d c7 3d
       -0.023995329 -0.017083773 0.11165169 0.09740725
0000d0 62 b4 76 3c 2e ee 65 bd eb 6e b4 bd ad f7 f1 3c
       0.015057655 -0.05613535 -0.088102184 0.029537046
0000e0 d0 b1 f6 3c 4b 65 b6 3d 18 66 28 3e 2c 01 07 bd
       0.030114084 0.08906039 0.16445196 -0.032960102
0000f0 20 5e b9 bd 30 ef 40 3d e4 77 e1 bd a9 24 c2 3c
       -0.09051156 0.047103107 -0.110091954 0.023699122
000100 8e 81 4f 3d 0c 22 54 bd 82 7a 06 be db d2 dc bd
       0.050660662 -0.051790282 -0.1313267 -0.10782405
000110 7e 90 bc bd d5 07 de 3d 37 61 e4 3d 10 64 65 3d
       -0.09207247 0.108413376 0.11151355 0.05600363
000120 f8 82 3a bc 60 b8 b7 bd 39 36 39 3d 39 ea a1 bd
       -0.011383764 -0.089707136 0.045217726 -0.079060026
000130 79 07 2e bd e1 62 e6 3d 48 7c 9e 3d 6f a3 07 bd
       -0.042487595 0.112493284 0.077385485 -0.033114847
000140 6c f2 ce 3c 39 e7 f9 bd 5c 4b 51 bd 3a 71 8e bd
       0.02526208 -0.12202305 -0.05109726 -0.0695519
000150 87 87 c5 bb 60 6e aa bd ac ad 66 bd c9 52 ad 3d
       -0.006028119 -0.083218336 -0.05631797 0.08463056
000160 73 d4 0c be d4 4d ba bb 56 d8 51 3d dd a5 b7 3b
       -0.13752918 -0.0056855474 0.051231705 0.0056044892
000170 d2 b0 ef 3c 70 d0 89 3d 8c b5 8d 3d 8b 4d 98 bd
       0.02925912 0.067292094 0.06919393 -0.07436665
000180 43 f7 a8 3d 2f 0b 0a 3d bd e3 e5 3c 89 77 a8 bd
       0.082502864 0.03370207 0.028062696 -0.082259245
000190 f0 c5 f4 bd 9b 7d 2c bd b7 95 6f bc 83 1e 9e 3c
       -0.11951816 -0.042111974 -0.014623097 0.019301658
0001a0 d3 6b 2f 3c 86 c8 70 3d 68 cd 44 bd e7 98 e8 3d
       0.01070686 0.058784984 -0.048047453 0.11357289
0001b0 71 a3 e6 bc 60 2f 20 3c 4f 7e f5 bd 7f 51 d8 bd
       -0.028154107 0.00977692 -0.11986982 -0.10562419
0001c0 41 56 d6 3d 8f 93 f3 bc 8b df 12 bd 6d 52 b0 3d
       0.104656704 -0.029733447 -0.03585772 0.086094715
0001d0 df 12 64 bd 57 71 ad 3d a2 82 ff ba 39 dc cc 3c
       -0.05568206 0.084688835 -0.0019493888 0.025007354
0001e0 dd ce ab bc 81 21 83 3d b2 5b 81 3d 32 64 47 3d
       -0.020972664 0.06402875 0.063163176 0.048679538
0001f0 e4 f0 de 3c ae 57 8e 3d 40 b8 d0 3d cf 0f 0b 3d
       0.027214475 0.06950317 0.10191393 0.033950623
000200 1f de a0 3d 18 e7 d8 3c 47 30 b7 bd 0e ef 30 3d
       0.07854866 0.026477382 -0.08944755 0.04319673
000210 c0 4d c2 bd c3 e0 e8 3d 97 4d 9a 3d ec 5b 1c bd
       -0.09487486 0.11370995 0.0753433 -0.0381736
000220 e1 6a ae 3d bd c7 9b 3d df 15 e3 3d 10 dd de bd
       0.08516479 0.076064564 0.11088156 -0.10882008
000230 04 79 95 bd ef a3 83 bd dc b1 03 3c 92 34 00 be
       -0.072984725 -0.06427752 0.00803801 -0.12520054
000240 e0 99 59 bc e4 35 01 3d e6 cf 79 bd 58 09 8f 3d
       -0.013281316 0.031545535 -0.060989283 0.06984204
000250 a0 b1 38 3d 92 3a 64 bd 97 07 d0 3d 44 4f 2d bc
       0.04509127 -0.05571992 0.10157698 -0.01057798
000260 b2 bc 02 3e 3f 2f 88 3d 2c 7e 7f 3d ae 26 2d bd
       0.12767294 0.066496365 0.062376186 -0.042273216
000270 ee 8a 28 be 71 d4 d3 3d e4 71 da 3d ff 8b a3 3d
       -0.16459247 0.10343254 0.10666254 0.079856865
000280 d6 f9 99 3d 9a d1 dc bd 39 75 c8 bd 73 97 9d bd
       0.075183555 -0.10782166 -0.097879834 -0.07694902
000290 e6 2a 86 3d 6a 13 3f 3d e1 cf f7 3c 21 f8 9e 3d
       0.06551151 0.046649374 0.030250492 0.077621706
0002a0 0e f8 bf bd ce ab 4d 3d b7 b9 92 bd b2 90 9b 3c
       -0.093734846 0.050212674 -0.071643285 0.018989895
0002b0 9b e3 25 3d 15 58 8d bd e9 f7 b7 3d d6 67 e2 3a
       0.040500265 -0.06901566 0.08982832 0.0017273377
0002c0 f1 66 83 3d 48 3a 86 bd b0 66 3f 3d 8e e8 98 bc
       0.06416119 -0.06554085 0.04672879 -0.018665578
0002d0 90 56 fd bc a0 47 3a 3d 6b e6 04 3e 91 67 26 3d
       -0.030925065 0.045478463 0.12978522 0.040626112
0002e0 51 9c ee 3d 36 92 9c bd 18 cc f4 3d 1a cb 10 3d
       0.11650909 -0.07645075 0.1195299 0.035349943
0002f0 6e e3 ff 3c 19 2f 86 3c c4 2e e5 bc 6f db bb 3d
       0.031236377 0.01637988 -0.027976401 0.09172713
000300 c9 79 c7 3d de 63 7c bd 7a 9c 1e be a2 e7 82 bd
       0.097400256 -0.06161868 -0.15489379 -0.06391837
000310 83 b3 80 3b f3 e1 b4 bd c4 38 ea 3b 82 9c 96 3d
       0.0039276495 -0.08832159 0.0071478803 0.0735407
000320 c5 c7 ef 3d 25 c4 b3 bd cc 67 ac bd 75 02 00 be
       0.11708025 -0.08777646 -0.08418235 -0.12500937
000330 f4 ee 53 3d a0 ff 5d bd 90 b0 3d bc b1 d9 d5 3d
       0.051741555 -0.05419886 -0.01157774 0.10441912
000340 e1 1e d9 3d f1 41 30 3d 22 4d d4 bd a6 09 0c 3e
       0.10601593 0.043031637 -0.103662744 0.13675556
000350 a8 91 c3 3c 0b b1 68 bd 3f 08 95 bd d1 8c 20 bd
       0.023873165 -0.056809466 -0.072769634 -0.039196793
000360 6f 90 db 3d 26 41 75 3d ae 50 92 bd f3 64 1d bd
       0.10720908 0.059876584 -0.07144295 -0.03842635
000370 6a c9 af bc d7 c6 7e 3d 4a fb 46 3d 10 ec c6 bd
       -0.021458346 0.062201347 0.04857949 -0.09712994
000380 5f 8f 89 3d ab 97 9b bd 21 44 a3 3d bf b0 34 3d
       0.06716799 -0.07597288 0.07971979 0.04411387
000390 74 97 62 3c 96 8b bd 3b ee f7 82 bd 04 4d d7 3a
       0.013830055 0.005784462 -0.06394945 0.0016426151
0003a0 58 b9 a4 3d db d0 9d bd 7d 50 d4 bd 0e 49 46 bd
       0.08043164 -0.07705852 -0.103669144 -0.048409514
0003b0 a3 2e f2 bd f2 86 0b bc b7 f8 ef bd f0 24 ae 3d
       -0.118253015 -0.00851606 -0.117173605 0.08503139
0003c0 f6 49 46 bd 93 96 dd bc 13 84 19 3d f7 60 eb bd
       -0.04841038 -0.027049338 0.03747947 -0.11493104
0003d0 06 cc 0c bd 31 12 67 3d af c6 f5 bd 07 7a d1 3d
       -0.03437426 0.056413833 -0.120007865 0.10228353
0003e0 4a 0f 0e bd d7 73 4c bb 6c 22 ed 3d ff 05 49 3d
       -0.03468255 -0.0031196976 0.11578831 0.049077984
0003f0 6e 13 1b 3d 8a 6a 75 3b 6d 42 35 bd 9e d6 86 3c
       0.037860326 0.0037447535 -0.0442528 0.01645976

fc1.bias f4 [64]
000000 28 a3 49 3d 5a 12 02 3d ce 91 86 3d e1 38 d9 bd
       0.049227864 0.031755783 0.06570779 -0.10606552
000010 25 6b a0 bd 38 48 fc 3c 00 3a 81 3d 1d a1 ef bd
       -0.07832936 0.030796155 0.06309891 -0.11700652
000020 7e 62 15 3d f6 cb 85 bd a6 09 40 3d b2 94 d9 bd
       0.036470883 -0.06533043 0.0468842 -0.106240645
000030 62 7e 6a bc 86 ab d1 3d 82 3f 95 3d ac da cf bd
       -0.014312359 0.102377936 0.07287504 -0.1014913
000040 f4 3a 9c bd 66 7f 6f 3d 88 9b cc 3c 05 9f 02 3d
       -0.07628432 0.058471106 0.024976507 0.031889934
000050 6c ed 93 bc c3 91 06 3d d2 be be 3d 19 56 f0 bd
       -0.018057548 0.032853853 0.0931374 -0.11735172
000060 ea b6 c3 3d 85 8d f8 3d 67 64 64 3d 10 6e 25 3d
       0.095563725 0.12136368 0.055759814 0.040388167
000070 c6 cf 84 bd ea f4 ad 3c 3e 37 09 3d 02 6f 31 bd
       -0.06484942 0.021234948 0.03349995 -0.043318756
000080 75 5b d2 bd 9a ad 98 3d de 75 86 3c 98 74 ac 3d
       -0.1027135 0.07454987 0.016413625 0.08420676
000090 87 3e e1 bd af b4 f0 3b 49 fc 3a bd df 6c 1a bd
       -0.10998254 0.007345758 -0.045650754 -0.037701484
0000a0 26 7a 91 bd 56 b1 ba 3c 16 c8 ec 3d ad c5 75 3d
       -0.07103376 0.022789638 0.11561601 0.06000297
0000b0 03 54 ea 3d c9 63 da 3d 3a 31 c0 3d bd 75 bc 3b
       0.11441805 0.10663564 0.09384389 0.00575134
0000c0 43 3a f1 3d 10 8d 22 3d 1b 84 90 3b 58 b1 ca 3d
       0.11778691 0.03968531 0.0044102794 0.09897107
0000d0 18 d8 c2 bc db af 8d bd 48 45 d2 bd a3 59 78 3d
       -0.023784682 -0.069183074 -0.102671206 0.06063236
0000e0 fc 5a 85 3c a7 8b a7 3b 44 fb 20 3d 67 af 42 bd
       0.016278736 0.0051130834 0.039302126 -0.047530558
0000f0 95 0d 67 bc 98 6a 8a 3d fb 71 c5 bd 2f 9f 94 bc
       -0.014102359 0.067586124 -0.09640881 -0.01814231

bn3.weight f4 [64]
000000 d0 37 86 3f e9 18 83 3f e9 9f 84 3f c7 85 84 3f
       1.0485783 1.0241977 1.0361301 1.0353326
000010 5f e6 84 3f f1 75 84 3f ab 8b 80 3f 59 53 80 3f
       1.0382804 1.0348493 1.0042623 1.0025436
000020 fe 78 80 3f 9c 93 81 3f 5b d5 80 3f ae dd 7f 3f
       1.0036924 1.0123172 1.0065111 0.9994763
000030 79 2e 84 3f 59 98 85 3f 32 83 87 3f e1 91 87 3f
       1.0326682 1.0437118 1.0586913 1.0591394
000040 c5 15 81 3f 56 ba 88 3f 34 1d 83 3f 4f f4 8a 3f
       1.0084769 1.0681865 1.0243287 1.0855807
000050 17 7f 84 3f ef a6 81 3f 3b 62 86 3f a4 9a 82 3f
       1.0351285 1.0129069 1.0498728 1.0203443
000060 d8 7f 84 3f f1 39 81 3f 45 62 81 3f da 0b 8a 3f
       1.0351515 1.0095807 1.0108114 1.0784867
000070 ba 97 80 3f ff ca 86 3f ed b6 8a 3f db fb 81 3f
       1.0046303 1.05307 1.0837075 1.0154985
000080 31 f8 86 3f 46 72 83 3f 63 98 82 3f dc e0 81 3f
       1.0544492 1.0269248 1.0202755 1.0146747
000090 de f4 85 3f 29 1f 85 3f 72 9f 80 3f 81 8d 81 3f
       1.0465353 1.0400134 1.0048659 1.0121309
0000a0 ce 78 83 3f 43 64 8d 3f db 21 82 3f a2 d2 80 3f
       1.0271242 1.1046222 1.0166582 1.006428
0000b0 d9 66 89 3f 8a 9c 85 3f 39 c8 80 3f 92 25 89 3f
       1.0734512 1.0438397 1.0061103 1.071459
0000c0 d7 ed 84 3f 46 22 85 3f 81 17 84 3f 3c 91 8a 3f
       1.0385083 1.0401084 1.0319673 1.0825572
0000d0 d5 0e 7f 3f 69 0d 85 3f 30 0a 85 3f 38 cc 80 3f
       0.99632007 1.0394717 1.0393734 1.0062323
0000e0 a2 7d 86 3f b7 f7 8b 3f 73 ee 8d 3f a9 05 84 3f
       1.050709 1.0934972 1.1088394 1.0314227
0000f0 6c d1 84 3f 02 16 81 3f cc c8 82 3f b5 58 86 3f
       1.037641 1.0084841 1.0217528 1.0495821

bn3.bias f4 [64]
000000 3e cc 06 bd 14 13 0f bc 48 3b 35 bd 9e 7b 7e 3c
       -0.032909624 -0.008732576 -0.044245988 0.015532402
000010 60 ad 82 3d d0 24 f2 bc 13 2c 4b 3b 5b 26 00 bd
       0.06380725 -0.02955857 0.0031001612 -0.03128658
000020 c7 a8 1a 3d 5b e4 f9 bc 08 8b 96 3a 5d 00 98 3b
       0.037758615 -0.030504396 0.0011485526 0.004638715
000030 ba ef 43 3c e4 b9 1a 3c 9e cb 5c bb ec 4f 1c bd
       0.011959011 0.009443734 -0.0033690701 -0.038162157
000040 72 ce c3 3c a3 34 dd bb 71 43 3c 3c 87 ba e1 b8
       0.023902152 -0.0067506596 0.011490689 -0.000107635795
000050 b9 27 4a bb 15 bf bd bc 7a 31 05 bd 41 99 78 bc
       -0.003084643 -0.023162404 -0.032517888 -0.015173257
000060 05 1f 41 3d 04 1b 1a 3b 94 9d 52 3c 56 75 b4 3b
       0.047148723 0.0023514638 0.012854952 0.0055071516
000070 93 d9 9a bc ad 7b 21 3b 56 b5 09 bd 47 59 37 bd
       -0.018902576 0.0024640367 -0.0336202 -0.044762876
000080 67 d4 f0 bc f5 22 64 bd f3 f1 cb bb e8 28 8f 39
       -0.029398156 -0.0556974 -0.006223911 0.00027305563
000090 41 5b f3 3c 35 e8 65 37 06 35 ad 3c 84 ea a8 3c
       0.0297066 1.3703529e-05 0.021143448 0.020619638
0000a0 1f 86 9b bd 0c 90 30 bd e1 e5 17 3c 07 5a 78 3c
       -0.07593941 -0.043106124 0.009271116 0.015158183
0000b0 85 71 18 bd 4a f2 c6 3c da 10 c1 bb 3b 21 2d bd
       -0.037217636 0.024285454 -0.0058919014 -0.04226802
0000c0 1e 16 82 3b 3e 30 29 3c 3d ab 28 bd 54 ee 7f bc
       0.0039699217 0.010326443 -0.04117893 -0.015620787
0000d0 b2 de 52 3c 62 f6 ba bc a9 69 66 39 48 dd 3a 3d
       0.0128704775 -0.022822563 0.00021973871 0.045621186
0000e0 b6 60 d3 bc 15 08 96 3c 4e 97 2d bc 52 44 27 3d
       -0.025802951 0.0183144 -0.010595156 0.04083664
0000f0 ef 17 66 3c 46 7d a3 bc 46 52 7e bc 6f 4f 40 bd
       0.014043792 -0.019957196 -0.015522545 -0.046950754

bn3.running_mean f4 [64]
000000 be 13 02 40 b6 a7 05 40 5c f3 fa 3f fb fe db 3f
       2.032455 2.0883613 1.9605517 1.7187189
000010 4b 1e b4 3f 87 09 de 3f e3 ef 43 40 e3 d4 26 40
       1.4071745 1.7346658 3.0615165 2.6067436
000020 49 09 1e 40 4c f6 dc 3f ee 1c 22 40 2c 6b ff 3f
       2.4693167 1.7262664 2.5330157 1.9954581
000030 00 43 1a 40 98 fb a4 3f c5 13 a4 3f 08 b0 c3 3f
       2.4103394 1.288928 1.2818533 1.5288095
000040 15 e8 d3 3f 33 19 99 3f 8f 24 c9 3f 9c c9 b1 3f
       1.6555201 1.1960815 1.5714282 1.3889651
000050 3c 14 0c 40 aa 75 e4 3f 4d c3 dc 3f 25 4b c8 3f
       2.188735 1.7848408 1.7247101 1.5647932
000060 88 59 ea 3f cb 03 01 40 8a 1c e4 3f bd f6 a7 3f
       1.8308573 2.0158565 1.782121 1.3122174
000070 94 67 1b 40 53 d1 00 40 cc d5 8d 3f c3 fc 03 40
       2.428197 2.0127761 1.1080871 2.0623024
000080 6c 50 bd 3f 25 35 04 40 83 df 0d 40 82 13 fa 3f
       1.4790168 2.0657437 2.216767 1.9537203
000090 70 69 ed 3f 20 ec b6 3f cc c3 d5 3f b1 67 e7 3f
       1.8547802 1.429081 1.6700377 1.8078519
0000a0 dc 1a 1b 40 30 90 ba 3f e7 80 09 40 3d e5 fd 3f
       2.4235144 1.4575253 2.1484926 1.9835583
0000b0 2d a3 b1 3f 94 d3 bc 3f 3e 7b 0d 40 5c fb 8f 3f
       1.3877922 1.4752069 2.210647 1.1248584
0000c0 f4 ca a3 3f 29 17 bc 3f 09 c2 c1 3f 44 ca e1 3f
       1.2796311 1.4694568 1.513734 1.7639852
0000d0 be de ed 3f 6e ff b3 3f 85 17 e5 3f 5d 6e df 3f
       1.85836 1.4062326 1.7897803 1.7455555
0000e0 90 5e c4 3f 2c fd 99 3f 76 92 96 3f 0f 3d d7 3f
       1.5341358 1.2030387 1.1763446 1.6815509
0000f0 6a 8d d9 3f b9 90 26 40 fc ec d7 3f 56 0c db 3f
       1.6996281 2.6025832 1.6869197 1.711314

bn3.running_var f4 [64]
000000 40 92 ef 40 f4 9a 53 41 ff 3c 8b 41 44 83 90 40
       7.486603 13.22533 17.404783 4.5160236
000010 5b 36 a2 40 35 7c d9 40 49 a0 24 42 2d 1b 9c 41
       5.069135 6.796412 41.15653 19.51327
000020 49 9e c2 41 46 45 c9 40 0d 60 9e 41 05 1d 3a 41
       24.327288 6.289706 19.7969 11.632085
000030 40 ce 98 41 6f 81 5f 40 66 76 5b 40 6f 11 96 40
       19.100708 3.492275 3.4291015 4.689628
000040 3a f1 d2 40 bd d9 32 40 bf 86 a9 40 2a 76 70 40
       6.5919466 2.7945397 5.2976985 3.7572122
000050 a6 16 08 41 62 c9 00 41 ac b5 9f 40 05 22 f0 40
       8.505529 8.049166 4.9909267 7.504153
000060 4d 8d b6 40 6c 0a 6a 41 cc 08 02 41 c5 47 5b 40
       5.7047486 14.627544 8.127148 3.4262555
000070 c2 38 5c 41 b8 fd f8 40 9c df 11 40 b4 c4 30 41
       13.763857 7.7809715 2.279273 11.048023
000080 0b da 82 40 60 74 16 41 20 fb e2 40 96 99 c8 40
       4.0891166 9.403412 7.093155 6.2687483
000090 7b 4a 56 41 50 16 a0 40 59 85 29 41 27 8c c5 40
       13.393184 5.0027237 10.595056 6.1733584
0000a0 04 1a 28 41 d7 4e 82 40 8c af a1 41 d8 9d 0c 41
       10.506351 4.072124 20.210716 8.788536
0000b0 a1 59 58 40 f1 37 7e 40 f6 04 48 41 80 b5 17 40
       3.3804705 3.9721644 12.501211 2.370453
0000c0 2a 33 4d 40 54 2a bb 40 5a 30 92 40 78 9a 80 40
       3.2062478 5.848917 4.5684023 4.018856
0000d0 1f 2b 52 41 e1 1e 9a 40 48 d2 e6 40 59 46 0e 41
       13.135528 4.8162694 7.213169 8.892175
0000e0 8c da b4 40 ce 83 39 40 55 67 0a 40 ec d2 9e 40
       5.651678 2.8986697 2.162557 4.9632473
0000f0 a3 fe d0 40 bf 44 16 41 1c 34 ff 40 31 60 ad 40
       6.5310836 9.391784 7.975111 5.417992
