tuning_results/best_models_during_tuning_lightning_logs/ratio_standGCN_best_model_during_tuning/checkpoints/epoch=645-train_loss=1.53-train_f1=0.28-val_loss=1.57-val_f1=0.30.ckpt (torch, 157362 bytes, 54 tensors)

conv1.bias f4 [64]
000000 0a 36 6a 3c fe 65 24 3c 0a 00 5d bb 62 0c fd bb
       0.0142951105 0.010034082 -0.0033721947 -0.0077224234
000010 74 c3 2e ba 22 51 55 bb ae af ee bb 62 21 62 3b
       -0.0006666698 -0.003254958 -0.0072841262 0.003450476
000020 0e 2c c4 bb 29 3d 45 bb cd 36 e3 39 44 b5 78 3a
       -0.005986697 -0.0030096269 0.00043337644 0.000948746
000030 d7 89 69 bc 51 48 5a bc bd af cb bb 6c e8 a8 3b
       -0.014254055 -0.013322906 -0.006216018 0.00515466
000040 0e 05 25 3b d1 b7 b2 bb d3 c4 9c bc 4d 02 ee bc
       0.0025180015 -0.0054540415 -0.019136822 -0.029053831
000050 c1 1f 9b bc 2a 05 09 3c 9c 41 7b 3c a8 71 cb bb
       -0.01893604 0.008363048 0.015335467 -0.0062086172
000060 b2 28 d6 3b c2 42 1e bc fc 83 fd bc 58 2b 93 3b
       0.006535613 -0.009659471 -0.030946724 0.004491251
000070 77 95 4d bb fc b1 4e 39 aa 36 7f 3c f8 85 09 bb
       -0.0031369606 0.00019711995 0.015576998 -0.0020984393
000080 57 49 ff 38 2f 6c d3 bb 86 9b 94 bb ed 1d 1b 3c
       0.00012173008 -0.0064521055 -0.0045351414 0.009467584
000090 f7 9e 3f 3c 71 ff a0 bb 0e 1c 0e bc 10 d4 3c 3b
       0.011695615 -0.0049132635 -0.008673681 0.0028812923
0000a0 a9 0a 92 bc 6c 8c c5 bb b4 02 b3 3b ec 89 b3 3c
       -0.017827349 -0.0060287025 0.0054629687 0.021916352
0000b0 c7 db 30 3c ca dd 9f 3c 65 31 df bb f0 1b a0 3c
       0.0107945865 0.019514937 -0.006811308 0.019544572
0000c0 ca fa 3b 3b 0d 8a 4c bc 27 8a 99 bb 61 8f 8d 3c
       0.0028683417 -0.012484086 -0.0046856585 0.017280282
0000d0 64 3e 3a 3b ad 03 1a 3c ed 58 7b 3b e3 16 2d 3a
       0.0028418535 0.00940029 0.0038352564 0.00066028367
0000e0 ba 8b 23 bc aa b0 21 3c bb b2 ea bb 8f eb 22 bc
       -0.009982044 0.00986878 -0.0071624196 -0.009943857
0000f0 dc 3b 5a 3c 93 fa 69 bb c6 54 28 bc fa 45 bb 3b
       0.013319936 -0.0035702332 -0.010274118 0.005715129

conv1.lin.weight f4 [64, 25]
000000 0d ed 37 3d 4f 0b 1f 3e 15 85 a2 3d 3f af 4f be
       0.044903804 0.15531658 0.0793554 -0.20281695
000010 93 8c 84 be 20 75 62 bd 0a 2a cb bd 0a 67 b0 3d
       -0.258885 -0.05528748 -0.09920128 0.08613403
000020 9b 15 f9 3d 8b c9 55 3e 4a 0a 10 3e bd 64 53 3e
       0.12162324 0.20877664 0.14066425 0.20643897
000030 d2 f6 00 3e ab 0c 72 be e7 e7 b7 3d c6 6f d2 3d
       0.12594154 -0.23637645 0.08979779 0.10275225
000040 fc 01 91 bd 82 07 22 bc 56 b9 ac 3c d5 37 e0 3d
       -0.070804566 -0.009889485 0.021084469 0.10948149
000050 88 97 1b 3e ff 4a 34 bd b3 ea 53 3e 01 7d 26 3d
       0.15194523 -0.044016834 0.20695 0.040646557
000060 f8 26 36 3e 9e 0f 13 be 05 97 2e be c6 16 96 3c
       0.17788303 -0.14361426 -0.17049797 0.018321406
000070 92 d5 ba 3d 50 b4 02 3e 0c d8 05 be 17 61 b7 3d
       0.091227666 0.12764096 -0.13070697 0.08954065
000080 1e 94 f1 bc 31 3f 2d 3e 16 7f 77 3e b8 c7 d9 3d
       -0.029489573 0.16918637 0.24169573 0.106337965
000090 28 a3 6f be b6 88 69 3e 30 4a 1d be 21 29 b1 bd
       -0.23402083 0.22806057 -0.15360332 -0.08650423
0000a0 ae 3b 6e 3e 56 98 29 3e b2 a3 76 3e 3b de 00 3e
       0.23264953 0.16562018 0.24085882 0.12584774
0000b0 e8 ff e2 3d 18 c4 cd 3c c8 8a f7 3d a9 1f 0f 3e
       0.110839665 0.025117919 0.12087017 0.13976921
0000c0 0c 6d af bc a2 bc 02 be 80 ad d0 bd 16 d1 6c 3e
       -0.021414302 -0.1276727 -0.101893425 0.23126635
0000d0 77 bc fb bc 14 a7 0b 3e a4 30 fb bd eb 11 05 be
       -0.030729515 0.13637954 -0.12265137 -0.12995116
0000e0 29 07 90 bd 6b ee e4 bd 2e 10 2f be b4 9e 68 be
       -0.07032616 -0.11178287 -0.17096016 -0.2271679
0000f0 6c e1 69 3e fd a7 7a 3d db 4c 89 be 63 e0 10 be
       0.22839898 0.061195362 -0.2681645 -0.14148097
000100 2e 5d 9c bd 6f 46 6e be ac 0b d7 3d 8d 3e 78 3e
       -0.0763496 -0.23269056 0.10500273 0.24242611
000110 72 d0 6b 3e b0 20 fb 3c 40 f2 26 3e 83 c4 52 be
       0.23028734 0.030655235 0.16303349 -0.20582776
000120 48 61 37 bd af 98 05 3e b8 15 9f bd 39 83 67 be
       -0.04477051 0.13046525 -0.077678144 -0.22608651
000130 fd 05 4e 3c 06 e2 82 be f0 44 1d 3b 41 af 5d 3e
       0.01257467 -0.25563067 0.0023997389 0.21648885
000140 cf d7 53 bd 85 51 9c bd b0 e4 6b 3e ad 4c 2e 3e
       -0.051719483 -0.07632736 0.23036456 0.17021437
000150 d6 55 16 be 82 5b 69 3d 51 25 63 be 04 78 82 3e
       -0.14681181 0.056972034 -0.22182204 0.2548219
000160 fb 52 e4 3d 78 bf c6 3d f8 1e 1e be 82 94 48 be
       0.1114864 0.097044885 -0.15441501 -0.19587901
000170 05 e9 13 be c4 2f dc bd 87 22 30 be 2a ca a9 3d
       -0.14444359 -0.10751298 -0.17200671 0.08290513
000180 9a 52 59 b9 1d 45 95 bd 56 a2 19 3e d1 07 29 3e
       -0.00020725504 -0.07288573 0.15003332 0.16506888
000190 79 21 3c be 12 19 e0 3d dd d3 1c 3e 11 b5 38 3e
       -0.18372144 0.10942282 0.15315194 0.18037821
0001a0 37 13 65 bd 0d 6f 00 be 54 b8 37 3e 5c 54 be 3d
       -0.055926528 -0.12542363 0.1794141 0.09293434
0001b0 a6 6e 55 3e 2b 64 96 3c cc 2a 2b be 7a 38 bc bc
       0.2084299 0.01835831 -0.16715544 -0.022976149
0001c0 2a 77 f6 3d c1 37 6c 3b e9 b7 3a bc f4 5e 09 be
       0.120344475 0.0036043974 -0.011396387 -0.13415128
0001d0 3d 44 22 3b 9a 73 60 be 72 c2 18 be f6 9f 1d 3e
       0.0024759911 -0.21919098 -0.14917925 0.15393052
0001e0 ed 4f 82 bd f1 4c 34 be fa 41 47 be aa 2b 81 be
       -0.06362901 -0.17607476 -0.19458762 -0.25228626
0001f0 1a 98 ff 3d e0 29 85 be 04 9b 4f be 81 11 2d bd
       0.12480183 -0.2600851 -0.20273978 -0.04225302
000200 b3 8c 7c 3e b1 46 77 bb 5b c8 c6 bc 02 b7 7f be
       0.24663047 -0.0037731344 -0.024265459 -0.24972156
000210 c4 df 27 be 6a 22 97 3d 8d 67 4b 3e cc 76 ca bd
       -0.16393954 0.07379611 0.1986372 -0.0988594
000220 c9 9d 5f 3d 2d 40 15 3e 6b d4 c7 bd c1 29 16 3e
       0.054593835 0.14575262 -0.097573124 0.14664365
000230 0e 84 95 bd 81 92 1c 3e eb 11 28 be 30 7b 14 3e
       -0.07300578 0.15290262 -0.16413085 0.14500117
000240 9a 75 0f 3e bc 0c 2d be be 63 ef bd 32 21 43 be
       0.14009705 -0.16899389 -0.11688946 -0.19055632
000250 d5 dd 52 3d 19 76 9c 3d 83 fc 6b be dc 5b 82 3e
       0.051481087 0.07639713 -0.23045544 0.25460708
000260 36 68 13 be 85 a0 80 3e a7 a2 1e 3b 52 d6 29 be
       -0.14395222 0.25122467 0.0024205835 -0.16585663
000270 3c f7 d5 3d b9 cc 5c 3e de 3a 32 3e f3 8a 73 be
       0.10447547 0.2156247 0.17405269 -0.23783474
000280 33 ff 23 3d 86 5f 7e be 47 11 4e 3e db a9 40 3c
       0.0400383 -0.24841127 0.20123778 0.011759247
000290 55 96 a1 bd 18 39 74 3e 22 9b 8a bc 71 0a d8 bc
       -0.07890002 0.23849905 -0.016919676 -0.026372166
0002a0 d2 da 01 3d 5a 4c 31 be 3b c5 39 bc 0f c5 31 3e
       0.031702824 -0.17314282 -0.011338527 0.17360328
0002b0 e8 78 5f be 1a 73 fe 3d 29 3c 04 3e 94 d1 12 bd
       -0.21823466 0.12424298 0.12913574 -0.0358444
0002c0 0a 0f 40 3e 9d 86 c0 3b 30 75 68 3e 35 6d 81 3e
       0.18755737 0.005875422 0.22700953 0.2527863
0002d0 6b ab 7a be 4d 05 3e 3e 68 6e 18 3e 92 c8 48 3e
       -0.24479453 0.1855671 0.14885867 0.19607762
0002e0 5d ee 68 3e 2c 2e 5b 3e a9 d7 5b 3e 25 c1 fd bd
       0.22747178 0.21404332 0.21468987 -0.12390355
0002f0 98 b5 90 3d fe e1 12 bd 26 f4 2b be 0e bd 3c be
       0.07065886 -0.035860054 -0.16792354 -0.18431494
000300 e9 33 8f bd 6d 55 65 3c c2 bb 1d be 9e 4d d7 bc
       -0.06992323 0.013997418 -0.15403655 -0.026282128
000310 eb 6e 55 3e a2 f0 f2 3d ca cd 5e bd ce c0 c2 3d
       0.20843093 0.11862303 -0.054395474 0.09509431
000320 6f 2d 4d be 26 5f 10 3e b2 d7 5b bd 12 4b 4f be
       -0.20036863 0.14098796 -0.0536725 -0.20243481
000330 85 b2 2e be fd 9b 3b be b9 a8 60 bd 09 1d 04 3e
       -0.17060287 -0.18321224 -0.054848406 0.12901701
000340 54 18 8b 3d 56 46 d9 3d 04 e5 00 3e f8 96 0a ba
       0.067917496 0.10609119 0.12587363 -0.00052867783
000350 29 eb 7f 3e 0a 81 65 be 35 f9 0b bd 10 0f 84 3d
       0.2499205 -0.22412506 -0.03417321 0.064481854
000360 e7 ae 73 be 8a 98 6a 3c 71 1c 0d 3e 5a 39 60 3e
       -0.23797189 0.014318595 0.13780381 0.21896878
000370 e4 f0 ee bd f8 b6 c8 3d a8 09 07 3e af 09 4f 3d
       -0.1166704 0.098005235 0.13187277 0.050546344
000380 88 32 f4 bd 79 32 52 3e 59 2f 43 be f3 40 3b 3e
       -0.119237006 0.20527066 -0.1906103 0.18286495
000390 ae 70 67 be 3b 6a 69 3e 4e d4 ae bd 5b be 38 3e
       -0.22601578 0.2279443 -0.08536588 0.18041365
0003a0 3b 88 5b 3e 7e ee 64 bc 7e 20 ee 3b fe b8 81 be
       0.21438687 -0.013972877 0.007267057 -0.2533645
0003b0 1e f1 f5 3d f0 aa fd 3d 82 bf 2f 3e 6e 4b f5 bd
       0.1200888 0.12386119 0.17162898 -0.11977278
0003c0 3b 88 71 3e 75 b4 82 3e 98 51 02 be 72 14 36 3e
       0.23587124 0.25528303 -0.12726438 0.17781237
0003d0 8f ad 1b be 85 e8 05 3e a0 17 b2 3d cc 46 d2 3d
       -0.15202926 0.1307698 0.08695912 0.1026741
0003e0 70 93 5b bd b5 ce 30 bd 3c 01 ac 3c 91 09 5e be
       -0.053607404 -0.04316588 0.020996682 -0.21683337
0003f0 fa 28 86 3e cf 0c 3e 3e 97 fe 4d be cc 36 e6 3d
       0.26203138 0.18559574 -0.2011665 0.112409204

bn1.weight f4 [64]
000000 25 7e 7f 3f da 63 80 3f d0 9c 7d 3f 01 39 7f 3f
       0.99801856 1.0030472 0.990674 0.99696356
000010 3e b6 7e 3f 77 3c 7e 3f 60 11 79 3f 49 5d 80 3f
       0.9949683 0.9931101 0.9729214 1.0028468
000020 f1 97 7e 3f d5 88 7c 3f 0d ae 80 3f ee 6a 81 3f
       0.99450594 0.9864629 1.0053116 1.0110757
000030 b4 03 80 3f 44 00 81 3f c1 46 79 3f 99 3b 7f 3f
       1.000113 1.0078206 0.97373587 0.99700314
000040 b5 62 7e 3f ca ea 80 3f 1f 2b 7d 3f 67 a3 7f 3f
       0.99369365 1.0071652 0.9889392 0.9985871
000050 92 2f 80 3f d4 c2 81 3f ae 05 80 3f b8 61 80 3f
       1.0014517 1.0137582 1.0001733 1.0029821
000060 47 34 81 3f d1 e8 7f 3f 83 92 7e 3f 4d 43 7d 3f
       1.0094079 0.99964625 0.9944231 0.9893082
000070 09 1b 7e 3f a3 b3 7e 3f 95 85 7d 3f 5e 0a 82 3f
       0.9926 0.99492854 0.99031955 1.0159414
000080 31 6c 7c 3f ba 2e 81 3f ba 2a 80 3f 04 92 81 3f
       0.98602587 1.0092385 1.0013039 1.0122685
000090 48 c2 80 3f 34 3e 7f 3f 87 2e 7b 3f f6 c0 7f 3f
       1.005929 0.9970429 0.9811787 0.9990381
0000a0 2c 92 80 3f 54 ec 80 3f 58 88 81 3f 75 54 80 3f
       1.0044608 1.0072122 1.0119734 1.0025774
0000b0 2a 1a 81 3f 58 8f 7e 3f ee a2 7c 3f dd 34 7d 3f
       1.008611 0.99437475 0.9868611 0.9890879
0000c0 2b 24 7e 3f e8 cd 81 3f 00 09 82 3f d1 65 80 3f
       0.9927394 1.0140963 1.0158997 1.0031072
0000d0 97 e4 7b 3f 58 ef 7e 3f 4f ec 80 3f d0 23 81 3f
       0.98395675 0.9958396 1.0072116 1.0089054
0000e0 1b 62 7f 3f 45 2d 81 3f f1 37 80 3f 54 fd 7d 3f
       0.9975907 1.009194 1.0017072 0.99214673
0000f0 77 f6 7e 3f 8e 2d 81 3f cd d5 82 3f 3f 88 82 3f
       0.99594826 1.0092027 1.0221497 1.0197829

bn1.bias f4 [64]
000000 ba 1b b5 3b a8 75 6e bc 9c 5c 24 3c 8a 74 17 3b
       0.005526987 -0.014554419 0.010031845 0.0023110234
000010 2a 0e 3b 3b 17 d3 d1 bc 01 e9 de bc 03 0b 0a 3d
       0.0028542378 -0.02561335 -0.027210714 0.033701908
000020 91 8d f8 39 be 2f 18 3c bd 51 82 bc 24 35 36 bc
       0.0004740772 0.009288726 -0.015908116 -0.011121068
000030 c7 89 55 3c a1 54 19 bc 08 d5 34 3c bc c6 72 3c
       0.013033337 -0.009358556 0.011037119 0.01481789
000040 40 94 2c 39 b5 ea c7 bb 27 10 9d bb 72 3c 38 bc
       0.00016458426 -0.0061009773 -0.0047931853 -0.01124488
000050 93 2b 57 bc 7d 80 d7 b8 fe 74 b9 bb bb 27 8e bb
       -0.0131329475 -0.00010275932 -0.0056596985 -0.0043382323
000060 b7 dd b2 3c b7 5f 90 bc 92 50 af 3a e0 38 bd 3c
       0.021834238 -0.017623765 0.0013375452 0.02309841
000070 e6 ee 44 bb da 50 e1 3a af ec bb 3c 87 c0 08 3c
       -0.003004962 0.0017190233 0.022940008 0.008346683
000080 0b 39 62 bb f1 de ea ba 48 6a 29 3a ea 90 91 39
       -0.0034518864 -0.0017919225 0.00064626755 0.00027764525
000090 08 a8 73 3b b9 fd 3e bb 68 0f 94 bc 94 8a 86 3c
       0.0037179012 -0.002914293 -0.018073753 0.016423501
0000a0 78 35 91 bc 10 0b 65 bc 8d 13 7e bc f2 92 82 3c
       -0.017725691 -0.013979688 -0.015507591 0.01593921
0000b0 5a 95 21 3b 0d e8 53 3c 2c c6 d3 3c 68 0a 90 3c
       0.002465567 0.012933743 0.025851332 0.017583087
0000c0 a1 13 c0 ba e6 b0 4c 3a 2a a1 4d bb 9f 0e 98 bb
       -0.0014654287 0.00078083423 -0.003137658 -0.004640415
0000d0 db a1 2c bc 8e ad d4 ba 56 67 23 3a fc a9 78 3b
       -0.010536636 -0.001622604 0.0006233355 0.0037943115
0000e0 c2 d8 8a 3c f7 df ce bb cd 00 ae 3c 9e 3f 5c ba
       0.016949061 -0.00631332 0.021240616 -0.00084018137
0000f0 4b 69 da 3b b2 94 59 3c 9e cb ae 3a fa ae 35 3c
       0.006665384 0.013280081 0.0013335829 0.011089081

bn1.running_mean f4 [64]
000000 eb 4d 5e 3e 96 04 b1 3e d2 93 4f 3e c4 73 96 3e
       0.21709411 0.3457381 0.20271233 0.29385197
000010 7e 93 9e 3e 97 f5 9d 3e c3 0c 24 3e f1 5d 8e 3e
       0.30971903 0.30851433 0.16020493 0.27806047
000020 4b 66 4e 3e 34 30 7f 3e 90 54 4c 3e e7 b8 7f 3e
       0.20156209 0.24920732 0.19954133 0.24972878
000030 02 fa 90 3e 7b 5e 9b 3e ca 42 7b 3e 4f 9f eb 3e
       0.2831574 0.3034552 0.24537197 0.4601998
000040 b2 1e 76 3e dd 76 7d 3e 40 d7 43 3e 31 4a c0 3e
       0.24035147 0.24752374 0.1912508 0.37556604
000050 10 6d 5e 3e 7c ee a2 3e 41 c5 39 3e d3 e8 39 3e
       0.21721292 0.31822574 0.18141653 0.18155222
000060 78 d3 6f 3e 19 a7 80 3e b1 cd 53 3e 74 eb 96 3e
       0.23420513 0.25127485 0.20683934 0.2947651
000070 09 b2 7a 3e 5c ba a3 3e 1b 42 77 3e 07 54 b0 3e
       0.24481978 0.31978118 0.24146311 0.34439108
000080 ab 30 2b 3e b4 af 45 3e d4 4d 72 3e d0 01 9f 3e
       0.16717784 0.19305307 0.23662502 0.3105607
000090 c8 d4 79 3e d4 83 a3 3e 23 96 54 3e 45 8e 84 3e
       0.24397576 0.31936514 0.20760398 0.25889793
0000a0 b3 ad 2a 3e 50 04 ef 3e e9 38 bc 3e b2 6f 85 3e
       0.16667823 0.46682978 0.3676217 0.2606178
0000b0 2e 74 37 3e 84 16 8e 3e c5 c1 9e 3e f6 e8 5d 3e
       0.17915413 0.27751553 0.3100721 0.21670899
0000c0 cb 55 91 3e 4e 1e 85 3e 71 ff 8b 3e ee 86 7c 3e
       0.28385767 0.25999683 0.27343324 0.24660847
0000d0 29 41 14 3e fb 72 a6 3e 5c 66 a4 3e bb 42 05 3f
       0.14477982 0.32509598 0.32109344 0.5205495
0000e0 f3 5b 96 3e 27 23 7e 3e 7b 19 51 3e b4 d9 e1 3e
       0.29367027 0.24818097 0.20419876 0.44111407
0000f0 04 cb 6a 3e 99 ab 31 3e 5c 94 e3 3e 10 33 bf 3e
       0.22929007 0.17350616 0.44449127 0.37343645

bn1.running_var f4 [64]
000000 24 b3 88 3e 5a 30 18 3f f0 dc 97 3d dc 79 53 3e
       0.26699173 0.5944878 0.07415187 0.20651954
000010 5c 25 29 3e 07 f1 52 3e d6 6a f3 3d 49 9b 88 3e
       0.16518158 0.20599757 0.11885612 0.26680973
000020 18 1a fc 3d ce 60 12 3f 58 3f 2f 3e 31 48 df 3d
       0.123096645 0.5717896 0.17114007 0.10902441
000030 c4 1d 67 3e 70 5b 41 3e 60 3b 9f 3e 4d c5 fd 3e
       0.22569948 0.18882537 0.31099987 0.4956459
000040 b7 a5 46 3e de bc 53 3e f9 da 68 3e ee e9 54 3e
       0.19399153 0.20677516 0.22739781 0.20792362
000050 f2 1b 03 3e c3 3e 3b 3e f2 fb 8b 3d 0c 80 77 3d
       0.12803629 0.1828566 0.06835164 0.06042485
000060 b5 af 52 3e f4 9b 0b 3e 8d 53 41 3e f5 19 16 3f
       0.2057484 0.1363371 0.18879528 0.5863336
000070 83 20 3e 3e 1c 04 c6 3e dd 84 a4 3e ed e1 8a 3e
       0.1856709 0.3867501 0.32132617 0.27125493
000080 30 12 87 3d 34 10 63 3e 15 2f 03 3e a9 93 a7 3e
       0.06595266 0.2217415 0.12810929 0.32729843
000090 ff 23 3b 3e d2 9c 94 3e 38 a0 90 3e b3 c0 be 3e
       0.1827545 0.29025894 0.28247237 0.37256393
0000a0 bf ad a7 3d 17 a7 02 3f d6 c6 af 3e f2 3e 25 3e
       0.08187436 0.5103621 0.34331387 0.16137293
0000b0 5f 5f e4 3d 7e 13 17 3e e7 b7 4e 3e c1 dc ba 3d
       0.11151003 0.1475353 0.2018734 0.09124137
0000c0 d1 cf 07 3e c5 8b 2d 3e 15 d3 6b 3e bf 4b 5f 3e
       0.1326287 0.16947849 0.2302974 0.21806239
0000d0 90 af 8c 3d f8 40 94 3e 41 be 0f 3e 2b 7f 54 3f
       0.068694234 0.28955817 0.1403742 0.8300654
0000e0 69 d2 9f 3e 92 e6 33 3e 9f 4e 77 3e 5d 51 d4 3e
       0.31215218 0.17568424 0.24151085 0.41468325
0000f0 a7 4e 2a 3e 80 bd cf 3d c6 67 1b 3f 26 15 46 3e
       0.16631566 0.10143566 0.6070522 0.19344005

conv2.bias f4 [64]
000000 91 74 7a 3c 91 fa 70 3c 10 ed 5b bc 72 06 f3 bb
       0.015286581 0.014708177 -0.013423219 -0.00741654
000010 4f eb 9e 3c c4 eb 8d bc 6d 17 20 bc b7 68 0c 3c
       0.019399313 -0.017324336 -0.00977121 0.008569888
000020 03 82 2b ba 3a 40 3f bb 50 e4 44 3b 99 cf 99 3b
       -0.00065425056 -0.002918257 0.0030043311 0.004693937
000030 d4 20 7a 3b 38 9c 53 3c 75 16 99 bb f6 a2 61 3c
       0.003816654 0.012915663 -0.0046718665 0.013771763
000040 5a 84 c1 3c 1a 8f 7d 3b 35 24 8d 3c 98 df ab 3c
       0.02362268 0.0038690032 0.017229179 0.020980641
000050 24 47 17 3c 21 b2 97 bb da fe 09 3b 79 fc 84 ba
       0.00923327 -0.004629389 0.0021056444 -0.0010146043
000060 e6 77 95 3c 6f 6f 56 3c 15 50 45 bc f1 69 6f 3c
       0.018245649 0.013088091 -0.012043019 0.014612661
000070 7f bd bb bc 5c e0 02 3c 57 6a 2b bc 5b af 4c 3c
       -0.022917507 0.007988062 -0.010462365 0.01249298
000080 f5 c5 21 3c b7 84 6e 3c d2 aa 16 bb 1e 72 38 bc
       0.009873857 0.014558009 -0.002299 -0.011257676
000090 9f fa 6e 3a f0 16 33 bc 66 66 4e 3c 43 90 73 3c
       0.0009116325 -0.010930762 0.012597656 0.014865938
0000a0 73 a8 b8 3c 94 2a ad 3c e8 79 12 3c 6e 34 99 3b
       0.02254126 0.021138467 0.0089401975 0.0046754396
0000b0 b3 aa 1d bb c4 12 1f 39 1d 9a 79 bc be 4d 88 3c
       -0.0024058043 0.00015170412 -0.015234497 0.016638633
0000c0 c3 4a c1 3c 42 73 3a bc 85 3e 76 bb a5 0c 0c ba
       0.02359522 -0.011380019 -0.0037573886 -0.00053424604
0000d0 b5 51 89 bc 56 fd 32 3c af 4c 83 3c dc 6a 2a bc
       -0.016762594 0.010924658 0.016027777 -0.010401454
0000e0 2f b4 fa 3b 0e 99 20 3a 17 59 ba 39 c5 d9 93 3c
       0.007650874 0.00061263226 0.00035543062 0.018048177
0000f0 c3 a9 67 bb f9 a5 79 bb f8 bc d2 3a 17 25 86 3c
       -0.0035348989 -0.0038093312 0.0016078046 0.016375108

conv2.lin.weight f4 [64, 64]
000000 09 61 5a 3e 1f 00 03 bc dc c4 f8 bd e7 8f 82 bd
       0.21326078 -0.007995634 -0.12146923 -0.063751034
000010 23 6f 53 3d c1 bd d7 bd 8a d2 2a 3e c6 a5 31 3e
       0.05161966 -0.105342396 0.16681877 0.17348394
000020 e9 25 0b 3d 2a 5b 0c 3e 66 6c 00 3e 02 f6 75 3c
       0.0339717 0.13706651 0.1254135 0.015012266
000030 b1 66 26 3e d6 49 38 be c9 ee 25 be ac 9d 1b 3e
       0.16250111 -0.17996916 -0.1620437 0.15196866
000040 eb 2c d1 bd 52 68 4e 3e b4 1b 47 be 5f 64 0a bd
       -0.102136455 0.20156983 -0.19444162 -0.033787128
000050 4e 71 20 3d ff 57 11 bd ba 1b 2a be c2 93 23 be
       0.039170556 -0.03548431 -0.1661214 -0.15974334
000060 2d 06 86 3d c0 9f 26 bd d7 5a dd bd c5 7d 3f 3c
       0.06544147 -0.040679693 -0.10808342 0.011687701
000070 4a d1 38 bc 3d 2c 20 bd cb 5b 3a 3e 97 c2 37 be
       -0.011280367 -0.03910469 0.18199079 -0.17945324
000080 a8 40 a7 bd 6b 2b 42 3e 4a 6c e6 bd a8 5c 30 bd
       -0.08166629 0.18961875 -0.11251123 -0.043057114
000090 bd 99 af bc d4 01 d8 bd 70 d0 3f 3e 3e 5a 35 3e
       -0.021435613 -0.10547224 0.18731856 0.17710206
0000a0 5a 94 90 bb 15 aa 51 3e 2a a2 40 3d df 46 24 3d
       -0.004412216 0.20475037 0.04702965 0.04010665
0000b0 ca f7 87 3d 61 94 2e 3e 6a 59 a0 bd c2 11 7f 3d
       0.06639059 0.1704879 -0.078295544 0.062272795
0000c0 03 d1 23 3e 34 ae 6a 3b 3c f4 36 3e d7 b2 e1 3d
       0.159977 0.00358094 0.17866606 0.11020439
0000d0 5e a5 2b be 12 35 d9 3d 60 99 53 be c8 cf 1a be
       -0.16762301 0.106058255 -0.20663977 -0.15118325
0000e0 b6 0c 2b 3e 5c d9 36 be 37 0e a8 bd cc f5 23 be
       0.16704068 -0.17856354 -0.08205836 -0.16011733
0000f0 f4 14 b5 3d 9b 18 56 be cf b4 a3 bd f8 c2 e9 bd
       0.08841887 -0.20907824 -0.07993471 -0.114141405
000100 24 a4 3f be 4e 97 ba ba cf cc 2d 3d 36 2e 07 3e
       -0.18714958 -0.0014235766 0.04243165 0.13201222
000110 a3 fd 13 be ed ef 2c be f7 06 8e bd 03 f5 6f be
       -0.14452223 -0.168884 -0.06934922 -0.23433308
000120 71 6d 90 3c 4c 70 09 3d dd c3 cb 3d a9 d4 63 be
       0.01763031 0.03355436 0.09949467 -0.22249092
000130 ef 69 a4 3d 76 49 3f be ab f7 2d 3e 35 26 da 3d
       0.08028018 -0.18680367 0.16989009 0.10651819
000140 9e 8a d3 bd 95 af 63 3d 0d e0 3e 3e 6d 42 39 bd
       -0.103291735 0.05558737 0.18640156 -0.045229364
000150 29 fd ad bc fa 52 ab bd 21 49 ab bd 78 ae 00 3e
       -0.02123888 -0.08365436 -0.083635576 0.12566555
000160 09 73 f3 3d ff 8e 9b 3d 44 60 50 bd 7d 9b c1 bd
       0.118871756 0.07595634 -0.050873056 -0.09453485
000170 70 c9 7d 3c b2 7b d3 3c 37 95 d6 3d 05 37 65 bd
       0.015489921 0.025815818 0.10477679 -0.055960674
000180 03 01 f5 3d a7 49 42 be b2 ae f0 3d df 0e 3d 3e
       0.119630836 -0.18973409 0.117520705 0.18462704
000190 bf 18 e6 bd bd cb 71 bd 1d cb 64 be 03 21 17 3e
       -0.11235189 -0.05903219 -0.22343107 0.14758687
0001a0 97 02 58 be 87 9b 1b 3e 1d aa 26 3d 7b 48 fe bd
       -0.21094738 0.15196048 0.040689576 -0.12416168
0001b0 44 cd 8a bd 81 d6 4a 3e 83 28 3d bd 8b a0 22 be
       -0.067774326 0.19808389 -0.046181213 -0.15881555
0001c0 1b 8c 18 be 42 6c 2e bd 46 c4 32 be df c2 71 bd
       -0.14897196 -0.04258371 -0.17457685 -0.059023734
0001d0 52 e5 3d bd 7c 67 d7 bd ff 82 5b 3e 89 75 54 3b
       -0.046361275 -0.10517785 0.2143669 0.003241869
0001e0 70 51 d0 3d 5a 3a 84 3d 0a 93 cb bd be 60 92 bd
       0.10171783 0.06456442 -0.09940155 -0.07147358
0001f0 90 90 cb 3d 81 8b 0f 3e 8a f7 fc bc af 06 23 3e
       0.099396825 0.1401806 -0.030879755 0.15920518
000200 02 19 3b be 58 2b c9 3d a8 b6 36 3e 9f 85 0f bc
       -0.18271258 0.0982272 0.17843115 -0.008759885
000210 92 af 44 3d d8 62 e7 3d d1 01 bf 3d d9 5e 72 3b
       0.048019 0.1129815 0.09326518 0.0036982803
000220 ca 1e 27 3e b1 dc 86 3b af ac 1c be 0e ef d7 3d
       0.16320339 0.004115664 -0.15300249 0.10543643
000230 7b b1 48 be c9 8d 26 be b0 41 bf ba 2f a9 04 bd
       -0.19598953 -0.16265024 -0.001459172 -0.03238791
000240 59 2d a5 bd c2 00 90 bd 2a 4d 09 be 8b b6 e6 3d
       -0.0806529 -0.070313945 -0.13408342 0.11265286
000250 0b 8e ca bd db 27 ed 3d f2 32 ba bd 70 56 4f be
       -0.09890374 0.115798675 -0.09091748 -0.20247817
000260 4d 02 ce bd f4 47 4a 3e cf 27 19 be 71 61 e3 bd
       -0.100590326 0.1975401 -0.14956592 -0.1110257
000270 52 65 6d be 55 ee 06 be 3a c7 b1 3d f6 77 be 3c
       -0.23183182 -0.13176854 0.086805776 0.023250561
000280 9c 36 ef 3d 5f 27 98 bd 90 b4 48 3e 30 0a 37 be
       0.11680338 -0.074293844 0.19600129 -0.1787498
000290 81 5e f5 bd 2e e9 85 3d 64 14 4d bc 90 76 8f bd
       -0.11980916 0.06538616 -0.012517069 -0.07005036
0002a0 5e f5 08 3e 98 a3 12 bb 04 de 6a 3d 1f 0c 55 3d
       0.1337485 -0.0022375342 0.057340637 0.052013513
0002b0 d4 52 25 3a a8 9e 8b bd 7a 52 2e bd d5 03 2e 3e
       0.0006306593 -0.06817371 -0.042559125 0.1699365
0002c0 c0 1b 6f bd e0 f8 71 bc 37 f4 b2 bb ae 18 c6 3d
       -0.058376074 -0.014768809 -0.0054612416 0.09672676
0002d0 d8 3f 0b 3d 31 32 3a be 3e 49 5c 3e d5 7b fc bd
       0.033996433 -0.18183209 0.21512315 -0.123283066
0002e0 fb 5e 08 bc 7f 5b 0b be c3 a2 f4 bd 34 37 13 3e
       -0.008323426 -0.13609122 -0.11945107 0.14376527
0002f0 60 37 96 bd 7f 18 0c 3d 3b 77 90 bc c5 cd 62 be
       -0.07334781 0.03420305 -0.017634979 -0.22148807
000300 8d f1 95 3d 46 25 9a 3d ff b1 62 bc 47 79 e4 3d
       0.07321463 0.075266406 -0.013836383 0.11155944
000310 bd 51 0e 3d 90 ae a0 3d e5 c5 4f be d3 6b 56 bd
       0.03474592 0.07845795 -0.20290335 -0.052348923
000320 bf 46 dd 3d f4 24 e5 bb 44 2c 27 3e 79 c5 35 bc
       0.10804509 -0.0069929305 0.1632548 -0.011094444
000330 18 38 13 3c 14 f3 2b be fe 81 3c 3d 45 33 44 bd
       0.008985542 -0.16791946 0.046022408 -0.047900457
000340 3f ad b2 3d fb 09 03 3e 1f 3c 4c be 8b 40 28 3d
       0.0872445 0.12796776 -0.1994481 0.041077178
000350 fe 91 c9 bd dd dc 31 3e 12 df 2a be c4 ae 4a 3e
       -0.09842299 0.17369409 -0.16686657 0.1979323
000360 85 7f dc 3a 87 bf 2b 3d 17 b7 75 bc bb 01 4f 3e
       0.0016822672 0.0419307 -0.014997265 0.20215504
000370 20 1d c3 bd 08 4f e5 3b a3 2f b3 bb 57 38 9b 3d
       -0.095270395 0.0069979466 -0.005468325 0.07579105
000380 bc 69 0e be 6b 9c 57 3e 4a 3b dc bd 46 80 09 3e
       -0.13907522 0.21055762 -0.10753496 0.13427839
000390 01 d2 84 bd 63 48 13 bd c0 88 51 3e ec dc a1 3d
       -0.064853676 -0.035957705 0.20462322 0.07903466
0003a0 f7 83 41 3e 28 01 e1 3d 06 57 b4 bd db ea 48 3e
       0.18897997 0.10986549 -0.08805661 0.1962084
0003b0 24 3c 23 3e 74 21 53 be a5 b0 a9 3d 73 82 cd bd
       0.1594091 -0.2061823 0.082856454 -0.10034647
0003c0 fd 3c bf bd a9 63 e1 3d 12 f9 db 3c 22 ec f6 3c
       -0.093378045 0.11005337 0.026852164 0.030141894
0003d0 54 c3 48 be 12 8c 6e bd 5c 6b f0 bd f8 91 91 bd
       -0.19605762 -0.05823905 -0.11739227 -0.071079195
0003e0 4b 3a 26 3e 5f 47 0c 3e 1f 67 68 3d f7 f3 f4 bd
       0.16233175 0.13699101 0.05673897 -0.11960595
0003f0 7c 05 19 be d7 a1 42 be 3c f4 19 bd ad 4c e4 3d
       -0.14943498 -0.1900705 -0.037586436 0.11147437

bn2.weight f4 [64]
000000 74 92 7f 3f 3d c3 80 3f 49 f3 7b 3f 90 aa 7f 3f
       0.99832845 1.0059582 0.984181 0.9986963
000010 69 b4 80 3f 1a 8c 80 3f 95 ed 81 3f 94 b6 7e 3f
       1.0055057 1.0042756 1.0150629 0.9949734
000020 56 26 80 3f d4 cf 7c 3f d8 25 81 3f 28 79 80 3f
       1.0011699 0.9875462 1.0089674 1.0036974
000030 fe 84 7f 3f e4 4c 7c 3f 9b ad 78 3f f6 9d 80 3f
       0.99812305 0.98554826 0.971399 1.0048206
000040 fd 8f 81 3f 73 2e 7e 3f c0 2c 81 3f ff 30 7f 3f
       1.0122067 0.99289626 1.0091782 0.9968414
000050 8f 6d 7f 3f 1b 5f 82 3f a6 8f 80 3f f1 3b 7e 3f
       0.9977655 1.0185274 1.0043838 0.99310213
000060 c8 59 80 3f d4 f6 7d 3f cb 64 7f 3f 7e c8 7f 3f
       1.0027399 0.99204755 0.9976317 0.999153
000070 9d 1d 7e 3f d8 df 7e 3f 86 4a 80 3f d5 ab 81 3f
       0.99263936 0.9956031 1.0022743 1.0130564
000080 38 cd 80 3f 6f e9 7d 3f 51 3f 80 3f 05 b0 7d 3f
       1.0062628 0.99184316 1.0019323 0.9909671
000090 a7 0d 80 3f e5 ab 82 3f 7a 7a 80 3f 6a 34 7d 3f
       1.0004166 1.0208708 1.0037377 0.989081
0000a0 96 ea 81 3f 31 19 81 3f 84 31 7e 3f e8 d0 7f 3f
       1.0149715 1.0085813 0.99294305 0.9992814
0000b0 41 b2 7f 3f b4 8f 80 3f 27 36 81 3f 15 20 80 3f
       0.9988137 1.0043855 1.0094651 1.0009791
0000c0 0a 11 82 3f c7 fd 7b 3f d0 2e 80 3f 93 23 7d 3f
       1.016145 0.9843411 1.0014286 0.98882407
0000d0 c6 a9 7e 3f 28 11 80 3f 2d 67 7f 3f 53 77 7d 3f
       0.99477804 1.0005236 0.9976681 0.990102
0000e0 96 90 80 3f e1 17 80 3f 01 52 7f 3f a8 1a 81 3f
       1.0044124 1.0007287 0.99734503 1.008626
0000f0 35 39 81 3f 43 26 7f 3f f6 ac 80 3f 25 31 80 3f
       1.0095583 0.9966776 1.0052783 1.0014998

bn2.bias f4 [64]
000000 bd 80 09 bc e0 9a bc 3b 3e ed 9e 3b 00 a1 5c bc
       -0.00839251 0.005755767 0.004850059 -0.01346612
000010 a7 f5 83 bb ef d6 0d 3c 1c 9c d8 3b df c9 04 bb
       -0.004027087 0.008657201 0.0066104066 -0.0020261926
000020 9f 9f 77 3c eb 15 64 bc 39 2e 0f 3c c1 b5 90 3c
       0.01511374 -0.013921241 0.008739048 0.017664792
000030 ae 92 77 3c ec c0 29 3b bb 88 8b 3c ac ae 74 3b
       0.015110655 0.0025902344 0.017032972 0.0037335558
000040 56 69 d8 3b da d8 7c 3c e7 62 d8 bb 8b 20 5b 3c
       0.006604354 0.015432561 -0.006603587 0.013374458
000050 e9 cb 2d 3b d2 4c 53 3c 1a fc a1 b8 a9 00 32 bb
       0.0026519245 0.012896733 -7.724036e-05 -0.0027161038
000060 ea 5d f5 3c 3d e0 b2 3b 1a 60 f8 bb f4 04 9a bb
       0.029952008 0.00545886 -0.0075798156 -0.0047002975
000070 38 07 2e bc 80 b3 37 bb d7 6c 97 bb fb f5 60 3b
       -0.010621838 -0.0028030574 -0.004621129 0.0034326303
000080 71 da 69 3c fb d6 a2 ba 51 37 3e 3c bc 0f b1 3b
       0.014273272 -0.0012423688 0.011609868 0.005403487
000090 16 4e 04 3c f8 e0 53 3b 78 4f 11 3c 74 29 26 3b
       0.008075258 0.0032330137 0.0088690445 0.0025354298
0000a0 cc 6b 09 bc 45 07 27 bc 93 11 99 bc 5f 90 83 bb
       -0.008387517 -0.010194604 -0.018685138 -0.004015013
0000b0 13 9c 77 bc d9 22 e5 3b 8a f5 d1 bb 5b 30 db 3b
       -0.015112895 0.0069926796 -0.0064074444 0.006689114
0000c0 dd c0 ab bc fc 80 92 3b 49 de 01 3c 77 0c 92 bc
       -0.020965988 0.0044709425 0.007926532 -0.01782821
0000d0 68 e8 1a 3b b2 e7 61 3b 09 81 f9 39 0c 25 6b 3c
       0.002363706 0.0034470377 0.0004758912 0.014352094
0000e0 e0 ef b4 bb 62 0a 90 3b 2e bb 9f 3b f7 14 36 b9
       -0.0055217594 0.004395769 0.0048746085 -0.00017364683
0000f0 12 f1 00 bb d2 c3 74 3b cf 56 fa 3b 95 d6 23 3b
       -0.001967494 0.0037348163 0.007639743 0.0024999727

bn2.running_mean f4 [64]
000000 5f 25 0f 3f 72 6f bc 3e 13 0e 13 3f c1 f4 c1 3e
       0.559164 0.36803776 0.5744335 0.37882045
000010 2d e0 02 3f 72 62 a3 3e 8c 80 a7 3e 31 f3 e5 3e
       0.51123315 0.31911045 0.3271526 0.44912103
000020 09 93 0f 3f 5d 35 e0 3e 81 0c 12 3f 8b ee da 3e
       0.5608373 0.43790713 0.5705033 0.4276012
000030 ac f1 e7 3e da b0 e0 3e c4 68 9a 3e fd b6 e6 3e
       0.45301569 0.43884927 0.30158055 0.45061484
000040 f3 14 ea 3e 91 c5 d4 3e 52 de d7 3e 94 1c 11 3f
       0.45719108 0.4155698 0.42161804 0.5668423
000050 f7 af 04 3f 20 82 44 3f e5 79 19 3f e7 98 0c 3f
       0.51831 0.76761055 0.5995162 0.5492081
000060 dc 6f d4 3e 3e 27 bc 3e 31 a1 0e 3f 0b 4d 9f 3e
       0.41491592 0.3674869 0.5571471 0.31113467
000070 20 d3 00 3f ca 35 bf 3e e8 ac 98 3e 47 6d 23 3f
       0.5032215 0.37345725 0.29819417 0.6383862
000080 b7 65 c2 3e 90 75 a9 3e c1 de d0 3e 69 28 20 3f
       0.37968227 0.33097506 0.40794948 0.6256166
000090 f3 3e e2 3e 68 2a d1 3e 72 bc f6 3e e6 bc ef 3e
       0.4418865 0.40852666 0.48190647 0.46823806
0000a0 95 2e 17 3f b9 7e bf 3e d5 d4 0e 3f ac 6b 93 3e
       0.59055454 0.3740137 0.55793506 0.28793085
0000b0 d7 60 f8 3e 75 97 01 3f 38 67 b1 3e a7 88 bf 3e
       0.48511383 0.5062173 0.34649062 0.37408945
0000c0 4a 55 ca 3e f5 12 ec 3e 09 49 ae 3e 6e 5a c0 3e
       0.39518195 0.46108213 0.34040096 0.37568992
0000d0 89 b4 e8 3e 31 7f f8 3e 89 8e 35 3f 3b 23 a1 3e
       0.45450237 0.4853454 0.70920616 0.3147219
0000e0 a6 84 0a 3f 0c af 26 3f c6 69 cb 3e 13 9a 19 3f
       0.54108655 0.6511085 0.39729136 0.60000724
0000f0 c3 81 db 3e ea e8 0d 3f 2c de d9 3e f4 6d e5 3e
       0.42872438 0.55433524 0.42552316 0.4481045

bn2.running_var f4 [64]
000000 65 14 16 40 1c 10 d4 3e ae 36 2a 3f d7 c0 86 3f
       2.3449948 0.4141854 0.66489685 1.05276
000010 c2 a1 85 3f 72 e1 e6 3e 33 cb d9 3e 28 8e 9d 3f
       1.043999 0.45093876 0.4253784 1.2309008
000020 c6 4f 8e 3f 13 57 4b 3f c3 02 4f 3f cd a1 6e 3f
       1.1118095 0.7942974 0.8086359 0.9321564
000030 e6 72 86 3f 9d ee 0c 3f b2 f6 9b 3e 1b 6b fb 3e
       1.0503814 0.55051595 0.3046165 0.49105152
000040 04 37 fa 3e 3b 67 20 3f 0a bb 38 3f 14 b7 23 3f
       0.488701 0.6265752 0.721604 0.6395123
000050 c5 b4 69 3f 79 5b 37 40 02 12 61 3f 71 c9 93 3f
       0.9129146 2.864958 0.879181 1.154585
000060 83 f7 23 3f be f1 19 3f 85 92 3e 3f bc 01 cc 3e
       0.6404955 0.60134494 0.7444232 0.39845073
000070 87 f1 81 3f fb e4 de 3e 2b dc ce 3e 8c 7e b7 3f
       1.0151833 0.43534073 0.4040235 1.4335494
000080 09 90 be 3e fe 5d d1 3e 76 1c 12 3f 0c 91 71 3f
       0.37219265 0.40892023 0.5707468 0.9436195
000090 00 89 b2 3e 12 e7 e7 3e 4d 5b 97 3f 54 a9 5a 3f
       0.34870148 0.4529348 1.1824738 0.85414624
0000a0 8b 47 a7 3f 4d 98 ef 3e ef 1c 23 40 70 9e 88 3e
       1.3068708 0.46795884 2.548641 0.26683378
0000b0 e3 4c ff 3e c2 42 47 3f e6 72 3a 3f 8c 1c cc 3e
       0.49863347 0.7783624 0.7283157 0.3986553
0000c0 88 32 a6 3f 1e 4f 34 3f 27 bf 19 3f f7 7a db 3e
       1.2984171 0.70433223 0.600573 0.42867252
0000d0 c3 67 14 3f 11 9b b3 3f e1 b5 88 3f 3e 37 da 3e
       0.5797083 1.4031698 1.0680505 0.4262027
0000e0 15 aa 30 3f 26 35 9b 3f 39 17 9c 3e d2 bb 5c 3f
       0.69009525 1.2125595 0.30486467 0.8622409
0000f0 af 97 52 3f 4d ca 36 3f ef 15 43 3f 30 80 86 3f
       0.822627 0.71402436 0.76205343 1.050787

fc1.weight f4 [64, 64]
000000 b9 52 82 3d b8 ab 86 bc 53 04 2d bc 0e 05 ed bb
       0.06363434 -0.016439304 -0.010560113 -0.0072332686
000010 16 28 25 3d dc f9 2e bd 6d a3 92 bd cd bb d7 3d
       0.040321432 -0.042718753 -0.07160077 0.10533867
000020 38 fd ec bc f3 0c 42 3c 78 ae 12 3d 75 80 bc bd
       -0.028929338 0.011843908 0.035810918 -0.09204189
000030 99 f2 8f bd 9e 2d 1e 3d dd 73 3b bd 57 51 17 bb
       -0.07028694 0.038617723 -0.045764793 -0.0023089254
000040 f7 d6 ce 3c e7 76 38 bd 2c d1 a8 3c 57 83 4f bd
       0.025248988 -0.04503527 0.020607553 -0.050662365
000050 d9 6c ce bc 3d 01 c5 bd 70 5f 04 bd 2f fd a2 3d
       -0.025198387 -0.09619377 -0.03231758 0.07958447
000060 f7 74 65 3d 8d 87 b1 3b 7a e8 1f bc 64 56 cf 3d
       0.05601975 0.0054177702 -0.009760017 0.101238996
000070 85 bf b2 bc 9b 59 8b 3d 67 d5 d8 3c f3 b0 64 bc
       -0.02181984 0.068042 0.026468946 -0.013958204
000080 40 61 91 3c 7e 0e aa 3d 1a ab d6 3d b9 22 ad bd
       0.017746568 0.083035454 0.10481854 -0.084538884
000090 b3 4f e7 bd 2d e0 6e bd 08 62 6f bd fa 3b 98 3d
       -0.11294498 -0.05831926 -0.0584431 0.074333146
0000a0 e8 fe c1 bd d4 21 b6 bd 3e 55 8d 3d fd 87 d2 bd
       -0.09472448 -0.08893171 0.06901024 -0.10279844
0000b0 7d 85 bb 3d 31 98 10 3d 8a a2 92 3d 22 8b a5 3c
       0.0915632 0.03530139 0.07159908 0.020207945
0000c0 2b 6e bc bb 4d 7b a6 bd 15 af b9 3d c6 48 bf bc
       -0.0057504377 -0.081289865 0.09066597 -0.02335013
0000d0 7b fb 39 bd 6b 85 01 be dd 85 95 3c a6 54 d7 bd
       -0.045405846 -0.12648551 0.018252308 -0.10514192
0000e0 f0 d1 34 bc 0f bb ca bd 7f ca 96 3d a8 c6 74 3d
       -0.011036381 -0.0989896 0.07362842 0.059759766
0000f0 45 81 8f 3d 16 a0 e1 bd 13 f7 e6 3d 42 5a 6e 3d
       0.07007078 -0.11016862 0.112775944 0.058191545
000100 15 c5 d8 bb 29 fc 21 3c cb 34 b2 3d 9b 6d ed bd
       -0.006615291 0.00988678 0.08701476 -0.11593171
000110 2c 45 b6 3c 7a 07 0a 3d e5 c5 37 3d e4 f1 12 bd
       0.02224978 0.033698536 0.04486646 -0.035875216
000120 f0 54 d8 bb 81 f0 2b 3d cb 8f 5a bd d8 05 3d 3d
       -0.006601922 0.04197741 -0.053359788 0.04614815
000130 98 c3 fc 3d 12 8f 0e bd 95 d3 a3 3d 10 3f aa bd
       0.12341994 -0.03480441 0.079993404 -0.083128095
000140 b9 d5 18 3d 16 2c 51 3c db 95 c4 bd 6a 79 e8 3d
       0.037313197 0.012766859 -0.09598895 0.11351283
000150 d3 81 05 3d 9b e4 b6 3d 20 c4 76 bd 2b 92 d7 3d
       0.032594513 0.08930322 -0.060245633 0.10525926
000160 8b ad 12 3d ce 56 2a 3d 1c 78 82 bd 55 94 42 3c
       0.035810035 0.04158669 -0.06370565 0.011876185
000170 cc 05 79 bd a1 b6 70 3c 21 9c 4c bc 95 f5 ca 3b
       -0.060796544 0.01469198 -0.012488396 0.0061938264
000180 ac 84 e8 bd b4 a2 01 3d d0 9b 37 bd 52 a5 89 3d
       -0.1135343 0.031649306 -0.04482633 0.067209855
000190 1d 50 04 3e 9b 49 69 bd 4e 32 76 3d 03 15 95 bd
       0.12921186 -0.05695496 0.060106568 -0.07279398
0001a0 35 b7 8e bc 31 44 18 bd c6 d2 c3 bd 1e d2 dd bd
       -0.017421344 -0.037174407 -0.09561686 -0.10831092
0001b0 a7 dd 99 39 1a a4 d7 bd 35 77 a1 bd 0b a4 c1 3d
       0.00029347578 -0.10529347 -0.07884065 0.09455117
0001c0 d2 43 75 3b c9 15 a8 3d a6 c7 eb 3d 3f e2 a9 3d
       0.0037424457 0.0820728 0.11512689 0.08295106
0001d0 d9 99 c3 bd 2e 17 60 bd 15 65 06 be a9 f1 f4 3c
       -0.095508285 -0.054709606 -0.13124497 0.029900389
0001e0 cc bd 16 3d d4 1d df 3d c8 01 17 3d 4c 3b 00 bd
       0.0368021 0.10894361 0.036866933 -0.03130655
0001f0 dd ff a0 bd fb 9b 0f bd a9 46 f3 bc 3e 8b 8a bd
       -0.07861302 -0.035060864 -0.02969678 -0.067648396
000200 95 c9 4a 3d c3 89 87 3d 18 09 e0 bc 86 0c f9 3d
       0.04950865 0.06618073 -0.027348086 0.12160592
000210 5d 38 af bd 1b 49 91 3d d8 f8 1a bd c2 d4 41 3d
       -0.08555672 0.07094022 -0.037834972 0.047322042
000220 05 1b 6e 3d 7f ca 7f bd ea b7 31 bc c1 ff d1 3b
       0.058131237 -0.062448975 -0.010847071 0.006408662
000230 f4 35 e2 bd d8 71 c6 3c d6 c7 b8 bd c3 df e7 3d
       -0.11045447 0.024224207 -0.09022491 0.11321976
000240 18 b8 81 3c 63 c9 b3 bd 11 d1 41 bd d4 a7 85 bc
       0.015834853 -0.08778646 -0.047318522 -0.016315378
000250 24 79 d0 3d ae 31 bd 3c 26 73 ae 3d d8 45 6e 3d
       0.10179356 0.023094978 0.085180566 0.058172077
000260 4e 25 01 3c 91 fe dd bd 28 c3 80 3d 00 ba 1a 3d
       0.007882429 -0.1083957 0.06287223 0.03777504
000270 89 cd 38 bc 8d 3f f6 b8 f4 4c 1c 3d ac b4 ec 3d
       -0.011279472 -0.00011742031 0.038159326 0.11557898
000280 44 40 54 bd 66 67 16 3d f2 13 94 3d f7 55 c3 3c
       -0.0518191 0.036719702 0.07230367 0.023844702
000290 8c d7 cb 3d c9 99 95 bd 14 cf d6 3c 8f 63 c6 bd
       0.09953222 -0.07304723 0.02622179 -0.09686958
0002a0 40 8d 63 3d 14 8e 69 bb cf e2 ac 3b 20 b1 ff 3d
       0.05555463 -0.0035637664 0.005276061 0.12484956
0002b0 e6 95 cf 3d f2 22 da bc 03 54 66 bb b3 e5 d4 3c
       0.10136013 -0.026627991 -0.003514529 0.025988435
0002c0 ae 45 1a 3d 73 00 79 3a 9c 84 77 3d 6b a0 e9 3d
       0.037664108 0.0009498663 0.0604292 0.114075504
0002d0 b6 c1 53 bd 81 16 99 bd e1 55 26 3d 8f 82 a9 bc
       -0.05169841 -0.074749954 0.040609244 -0.020692138
0002e0 2f bb 84 3d ac f5 0f bd b9 5e 19 3d 87 bf 87 3d
       0.06481015 -0.0351464 0.03744385 0.06628328
0002f0 97 31 47 bd 8e 0b 1b 3d 4f d0 b9 3d bc 0f 1a bd
       -0.048631277 0.037852816 0.09072935 -0.03761266
000300 39 10 ca 3c 28 6b c8 3d 2d bd 44 bc ef e7 a4 3d
       0.024665939 0.097860634 -0.012007994 0.0805205
000310 b2 4c 6e 3d 6c 66 67 3d 90 42 d4 bd c1 82 d7 3d
       0.05817861 0.05649416 -0.10364258 0.10522986
000320 21 01 d6 bd 5a f9 6e 3d 5b a7 b5 bc 6f 41 e3 bd
       -0.10449434 0.05834327 -0.022174528 -0.11096465
000330 14 9b e1 bd 49 e8 3a bc e4 c8 a7 bd 8a 55 af bd
       -0.11015907 -0.01140792 -0.08192614 -0.08561237
000340 df cf 84 bc 7a c8 40 3d 22 d2 68 3d 9f 1d e5 bd
       -0.016212402 0.04706619 0.056841023 -0.111872904
000350 c1 5c f2 bd 68 3f 88 bd 57 d9 37 3c 71 ea e5 3c
       -0.11834098 -0.06652719 0.011221251 0.028065892
000360 b9 39 a4 bd 4f ef 84 3d e0 80 9b bc 6b 09 c7 bd
       -0.08018822 0.06490957 -0.01898235 -0.09718593
000370 38 7c bd bc 0b 2a b3 bc 74 9f 38 bd 24 86 60 3d
       -0.023130521 -0.021870634 -0.04507394 0.054815426
000380 d1 6d 5b bc 99 68 a4 3d 83 1c f2 3d b6 d4 18 3d
       -0.0133928815 0.08027763 0.118218444 0.037312232
000390 e7 bc 9c bd ca d1 ba bd f9 76 80 bd 68 71 76 bd
       -0.07653218 -0.09122045 -0.06272692 -0.060166746
0003a0 c8 cb b5 bd 30 85 10 bd 84 7c 66 bd 5f fa 98 3d
       -0.08876759 -0.035283267 -0.05627109 0.074696295
0003b0 aa c8 8e 3d 59 dd 60 3d 98 23 d9 bd ad 53 9f 3c
       0.069718674 0.054898594 -0.10602492 0.01944908
0003c0 cf a6 e5 3d e0 ae b2 3c 38 d9 dd bd 8b 5a 09 3e
       0.11213457 0.021811903 -0.10832447 0.13413446
0003d0 22 2b e6 3d 6f 48 53 3d c2 da 5a 3d 7e ad 0c bd
       0.11238696 0.05158275 0.05343128 -0.034345143
0003e0 07 cf 8f 3d 79 e9 64 3d 63 8b 05 3e 92 1c 01 be
       0.07021909 0.05588672 0.13041453 -0.12608555
0003f0 a6 3c 99 bd ec 13 9f bc 08 c8 85 bb 40 ab 85 bd
       -0.07482271 -0.01941868 -0.0040826835 -0.06526804

fc1.bias f4 [64]
000000 36 f4 af bd 6a 0e af 3d f7 a9 dc bd 5d 97 4d 3d
       -0.085915014 0.08547671 -0.10774606 0.05019318
000010 cd d1 b1 bd d3 a4 aa bd b7 af 06 3e f2 0b 7a 3d
       -0.086825944 -0.08332219 0.13152967 0.06104655
000020 6d 32 d5 bd 24 5f 9d bd cc 14 ab bd 45 e6 ad 3d
       -0.104100086 -0.07684162 -0.08353576 0.08491186
000030 32 b5 dd bd 58 63 8a 3d 4e 0e ee bd 1c 15 db 3d
       -0.10825576 0.067572296 -0.11623822 0.10697386
000040 8e c5 cd bc 18 07 90 bb 68 39 60 bd d7 d3 1a 3d
       -0.025118615 -0.004395377 -0.054742247 0.037799682
000050 07 4b c0 3d 15 0b e6 bc 78 7b b9 bd db 12 6d bd
       0.0938931 -0.028081456 -0.09056753 -0.05787931
000060 61 23 a8 3b eb 1f 77 bd 81 15 27 3d 8d 45 cf bd
       0.0051311706 -0.060333174 0.040791992 -0.10120688
000070 dd c6 0a bd f4 8c e9 bc 00 c1 13 3d 08 39 97 3d
       -0.033881057 -0.028509595 0.03607273 0.07383925
000080 98 40 01 3e 94 db b8 bd 04 9c 7b 3d 42 c1 ba 3d
       0.12622297 -0.09026256 0.061428085 0.09118892
000090 09 0a ac 3d b6 cc fa bd 26 96 a8 3d 0f ee ce bd
       0.084003516 -0.12246077 0.082317635 -0.10104
0000a0 24 c6 8d bd a9 ea 6d 3d 2c d2 8d bd e3 ac 9a 3c
       -0.06922558 0.058085117 -0.06924853 0.018881267
0000b0 6e 5d 4a bd 3e 16 84 bd c0 2f f7 bc 4f 7c 53 3c
       -0.049405508 -0.06449555 -0.030174136 0.012908055
0000c0 84 24 8c 3d 65 bf 81 bc ea 04 79 3d 1c ee 91 3d
       0.06842902 -0.015838334 0.060795702 0.07125494
0000d0 ce 7f 20 bd 4a d0 1c 3d c5 ad d3 3c 94 22 a4 bb
       -0.039184384 0.038284577 0.025839696 -0.005009005
0000e0 68 06 40 bc 92 c5 cf 3d 2d fa c1 bc 75 7b 5e bd
       -0.011720277 0.101451054 -0.023678863 -0.054316957
0000f0 f7 63 50 bc 91 5c 62 3b 16 fa 06 3d 5f 88 1d 3d
       -0.012719146 0.0034540037 0.032953344 0.03846013

bn3.weight f4 [64]
000000 46 00 80 3f d5 f0 7f 3f 12 86 7f 3f 91 b8 7b 3f
       1.0000083 0.99976856 0.9981395 0.983285
000010 e8 2b 82 3f 4e 43 7e 3f 9d bb 80 3f b9 44 7c 3f
       1.0169649 0.9932145 1.0057255 0.9854236
000020 d1 d3 7e 3f 61 9c 81 3f 5c e4 7e 3f 83 6b 7e 3f
       0.99541956 1.0125848 0.995672 0.993828
000030 01 b6 80 3f db a8 81 3f 19 c6 7b 3f 03 42 7f 3f
       1.0055543 1.0129656 0.9834915 0.997101
000040 8a 94 7e 3f 68 70 80 3f d7 e0 7e 3f 04 90 7c 3f
       0.994454 1.0034304 0.9956183 0.9865725
000050 f8 04 7e 3f 3b df 81 3f 4f 6c 81 3f 98 d7 7e 3f
       0.9922633 1.014625 1.0111178 0.9954772
000060 4b f4 7b 3f 84 ec 81 3f 5d 98 7f 3f 37 de 80 3f
       0.98419636 1.0150304 0.9984186 1.0067815
000070 01 bc 7f 3f b1 87 7f 3f 50 04 81 3f 3e f9 81 3f
       0.99896246 0.99816424 1.0079441 1.0154188
000080 10 85 82 3f 01 53 82 3f c9 5e 7e 3f ae df 82 3f
       1.0196857 1.0181581 0.9936338 1.0224512
000090 3f 9d 80 3f 7f 80 7f 3f 50 79 80 3f fc 16 84 3f
       1.0047988 0.99805444 1.0037022 1.0319514
0000a0 93 19 7d 3f 2a ba 80 3f 38 d3 80 3f 48 51 81 3f
       0.9886715 1.0056813 1.0064459 1.010293
0000b0 9b 28 81 3f b6 81 7f 3f f2 81 79 3f 5a 1d 81 3f
       1.0090517 0.998073 0.97463906 1.0087082
0000c0 09 03 81 3f 58 92 80 3f 17 bf 7e 3f 1e 4d 7f 3f
       1.0079051 1.004466 0.9951033 0.99727046
0000d0 cc 82 81 3f 8e 4d 80 3f 98 b3 7f 3f 92 9a 80 3f
       1.0118041 1.0023668 0.99883413 1.0047171
0000e0 30 92 80 3f 19 85 80 3f 72 b4 83 3f 4b 8f 7e 3f
       1.0044613 1.0040618 1.0289443 0.994374
0000f0 7e c6 7b 3f aa 22 80 3f 8e e9 81 3f a9 fb 7e 3f
       0.9834975 1.0010579 1.01494 0.9960275

bn3.bias f4 [64]
000000 3c d8 09 3b a7 33 e9 38 05 6b 8d 39 89 07 95 3c
       0.0021033427 0.00011119927 0.00026973351 0.01819207
000010 21 d6 1b bc 9f 0c 42 3c 6c e0 3d 3c 1a 31 77 3c
       -0.0095115015 0.011843829 0.011589151 0.01508739
000020 ee 2e 25 bc 19 b1 76 bc f7 c0 08 bc 39 8a 3c 3b
       -0.01008199 -0.015056872 -0.008346788 0.002876891
000030 23 27 9e 3c 3d 35 6d bc a8 14 56 bc 46 30 56 3c
       0.019305771 -0.014478025 -0.013066448 0.013073033
000040 03 42 71 bb 79 01 89 bb da 8d cd bc 04 e9 27 bc
       -0.0036813028 -0.0041810838 -0.025092054 -0.010248426
000050 0b ff 29 3c bc 20 43 3b 37 0f 54 bb 7e 3b 29 3b
       0.010375748 0.002977415 -0.0032357702 0.0025822814
000060 03 b1 8b bb df e9 60 3c 1a 89 02 3c b0 c2 4c bc
       -0.004263045 0.013727634 0.007967258 -0.012497589
000070 3b 2e ad bc 5a 29 6d 3a 2e 99 ac bc 63 99 e2 bc
       -0.021140208 0.00090469944 -0.021069136 -0.027661031
000080 35 15 08 bb 56 be 0f 3c f2 b1 50 bb 30 43 5a 3c
       -0.0020764594 0.008773407 -0.0031844345 0.013321683
000090 f3 7d 09 3c c4 5b bb 3b e9 47 1c 3c bd 47 b0 bb
       0.008391845 0.0057177264 0.009538629 -0.0053796456
0000a0 91 30 10 bc b5 75 91 3b 6f 27 49 3c 00 61 b7 3c
       -0.008800642 0.0044390806 0.012277468 0.02238512
0000b0 93 d2 7e bb f4 39 6c ba 6e 08 f4 bc 12 ec 43 3c
       -0.0038882836 -0.0009011321 -0.029789176 0.011958139
0000c0 5f bb 09 3c b4 cb cb 3c cf 04 a0 bc 1c 16 91 bc
       0.008406489 0.024877407 -0.019533543 -0.017710738
0000d0 1b 24 99 bb ae 31 f2 3c 98 67 12 3d 0a 5b 51 ba
       -0.0046734936 0.029564705 0.035743326 -0.0007986283
0000e0 a2 ec 7f 3c 02 6a 84 bc 82 e6 45 bc d5 d9 2f bb
       0.0156203825 -0.01616383 -0.012078883 -0.002683272
0000f0 22 2b b2 bc 3e 6f 10 3c 8e 7d b0 bc 90 8b 0d bd
       -0.021749083 0.008815585 -0.021544244 -0.034556925

bn3.running_mean f4 [64]
000000 53 90 ad 3f 8e 24 aa 3f 11 29 e7 3f 30 0e fe 3f
       1.3559669 1.3292406 1.8059407 1.984808
000010 51 76 ee 3f c3 ab b1 3f dd 68 d5 3f 83 1a b6 3f
       1.8629857 1.3880543 1.6672627 1.4226841
000020 2e eb 00 40 0f 0e ce 3f c9 d2 c1 3f 41 4d cb 3f
       2.0143542 1.609804 1.5142452 1.5882951
000030 71 59 ba 3f 41 0d c1 3f 5f e2 04 40 d2 fb c4 3f
       1.4558545 1.508217 2.0763166 1.538935
000040 d9 de bf 3f c6 b7 cd 3f 2e 36 c1 3f 34 04 e3 3f
       1.4989883 1.6071708 1.5094659 1.7735658
000050 7f e5 b1 3f de 8d d1 3f 10 2b d4 3f 4b 09 c7 3f
       1.3898162 1.637142 1.6575642 1.5549711
000060 df a4 cf 3f e5 7a c1 3f e4 57 fc 3f d7 fc fe 3f
       1.622219 1.511563 1.9714322 1.9920911
000070 bc d1 13 40 f9 5d c2 3f 7a 54 dc 3f aa 7e c3 3f
       2.3096762 1.5184928 1.721328 1.527303
000080 5d df e9 3f d7 cd e4 3f eb 41 cd 3f 55 74 b2 3f
       1.827129 1.7875317 1.6035742 1.3941752
000090 59 f6 c5 3f fd 37 f8 3f db e0 b6 3f 1b bb a0 3f
       1.5465804 1.9392086 1.428737 1.25571
0000a0 af 06 06 40 0e ad 16 40 ac bf 1d 40 2a 75 c6 3f
       2.094158 2.3543124 2.4648237 1.5504506
0000b0 09 b4 b4 3f 99 47 bd 3f 9a 9c 04 40 c8 41 17 40
       1.4117442 1.4787475 2.0720582 2.36339
0000c0 e2 b6 f6 3f 4d 9a 07 40 b0 fc e4 3f 80 ed 10 40
       1.9274561 2.1187928 1.7889614 2.2644958
0000d0 e4 c8 c2 3f 74 46 ee 3f 02 8d ac 3f fb 47 b1 3f
       1.5217557 1.861525 1.3480532 1.3850092
0000e0 f8 44 06 40 7f 71 ea 3f bd cf dd 3f b7 cc ce 3f
       2.0979595 1.8315886 1.7329022 1.6156224
0000f0 fa 47 cd 3f f8 b4 ce 3f 84 ee 94 3f 4b 83 de 3f
       1.603759 1.6148977 1.1635289 1.7383817

bn3.running_var f4 [64]
000000 90 f7 e0 40 30 ff 9b 40 ea 8d 42 41 0c 80 3b 41
       7.03022 4.874901 12.159647 11.718761
000010 2f 42 e8 40 ef 7a 3b 41 6b 48 ad 40 29 22 12 41
       7.258079 11.717513 5.41509 9.13334
000020 ec f4 a2 41 07 e5 e5 40 12 a0 10 41 ec e7 07 41
       20.36959 7.1842074 9.03908 8.494122
000030 22 92 3b 41 25 bb f3 40 5e cc 6b 41 4c fa cd 40
       11.723177 7.616595 14.737394 6.436804
000040 ce ef 16 41 bb 6f 20 41 cb 46 fb 40 18 73 44 41
       9.433546 10.027278 7.8523917 12.278099
000050 12 e7 95 40 de f1 9b 40 7e 8b b5 41 90 eb 24 41
       4.684457 4.873275 22.693111 10.30751
000060 62 73 8f 40 1f 01 ae 40 5f 98 b4 41 5a de 17 41
       4.482835 5.437637 22.5744 9.491785
000070 5c 05 17 42 6b 0b f6 40 d0 ac 9a 40 fb 72 9d 40
       37.755234 7.688894 4.8335953 4.9202857
000080 67 41 ce 40 a4 1a 1f 41 39 3d d3 40 fe a4 b9 40
       6.4454837 9.944004 6.6012235 5.8013906
000090 b8 f7 d6 40 a5 f2 1e 41 c0 6f f2 40 81 58 56 40
       6.717739 9.934239 7.5761414 3.3491518
0000a0 b3 7a ee 40 38 c7 aa 41 1d 73 26 41 11 f8 ed 40
       7.452478 21.347275 10.403104 7.4365315
0000b0 ea 4b e0 40 7b 44 f3 40 02 2f 68 41 1b a9 cf 41
       7.009267 7.6021094 14.5114765 25.957571
0000c0 42 26 43 41 95 b4 0a 41 b6 d5 31 41 77 8b 73 41
       12.19684 8.669087 11.1146755 15.221549
0000d0 35 96 e9 40 d1 ca e3 40 aa 02 05 41 50 99 00 41
       7.299586 7.118508 8.31315 8.03743
0000e0 ce 0b f4 40 bc f1 27 41 23 c4 e0 40 15 eb 95 40
       7.626441 10.496517 7.0239425 4.6849465
0000f0 dc f0 ce 40 84 d0 08 41 d3 74 2c 40 61 f0 fd 40
       6.466902 8.550907 2.6946304 7.935593
