tuning_results/best_models_during_tuning_lightning_logs/ratio_standGCN_best_model_during_tuning/checkpoints/epoch=622-train_loss=1.53-train_f1=0.28-val_loss=1.57-val_f1=0.30.ckpt (torch, 157362 bytes, 54 tensors)

conv1.bias f4 [64]
00000000: 72fe 5c3c 5887 293c 76f7 6bbb 23f8 f0bb
00000010: 0a24 83ba 2fe6 46bb 7a8a ddbb 60c4 703b
00000020: fe00 bdbb 3565 35bb 1d65 8739 0312 a33a
00000030: 95ba 69bc e66f 4dbc 8d11 c1bb 054e 9e3b
00000040: dd14 0d3b 704a adbb 00dd 98bc c9ea e6bc
00000050: 5fb5 95bc 1ea7 063c 9c0a 753c 45b6 c3bb
00000060: 25c9 c83b 48a6 22bc e9c0 f6bc 1e1e 933b
00000070: 946d 4cbb ee93 3439 a67b 783c ae3d f1ba
00000080: c8dd 1b38 5a86 bdbb 564d 8cbb 0ed2 193c
00000090: 80fe 3a3c a447 9ebb 0722 0dbc d5fb 2b3b
000000a0: 0086 90bc fe11 cabb 44bf a53b ade4 ae3c
000000b0: 5733 323c 008c 983c 26da d1bb a888 993c
000000c0: ecf1 293b b539 3fbc 7eb9 82bb f488 883c
000000d0: 2282 323b dfca 1a3c 6740 5c3b cfd1 b639
000000e0: d64f 17bc 82b7 1e3c bf3c ecbb f115 28bc
000000f0: 3466 563c 50fc 6bbb 0aa3 1fbc a72c bd3b
0.013488399 0.01034721 -0.0036005653 -0.007353799 -0.0010005247 -0.0030349602 -0.0067608925 0.0036738142
-0.0057679405 -0.0027678732 0.00025824542 0.0012441281 -0.014265676 -0.012538886 -0.005891985 0.004831078
0.0021527328 -0.0052884147 -0.018660069 -0.028188126 -0.018274961 0.008218555 0.014956143 -0.005972656
0.006127494 -0.00992734 -0.030121284 0.0044896742 -0.0031193243 0.00017221246 0.015166199 -0.0018405223
3.716143e-05 -0.005783838 -0.00428168 0.00938846 0.011413217 -0.0048303176 -0.00861407 0.0026242633
-0.017642021 -0.0061666956 0.005058201 0.021349275 0.010876498 0.018621445 -0.006404179 0.01874192
0.002593155 -0.011671473 -0.0039893975 0.016666867 0.002723821 0.009447782 0.0033607723 0.00034870065
-0.009235343 0.009687306 -0.00720939 -0.0102591375 0.013085891 -0.0036008544 -0.009743461 0.0057731452

conv1.lin.weight f4 [64, 25]
00000000: 579b 363d cfaf 1e3e 8bdd a13d a76e 4fbe
00000010: 0867 84be 4126 62bd 4dfc cabd fccc b03d
00000020: 7a27 fa3d fd82 563e aa12 103e f389 533e
00000030: da22 013e 8e48 72be 54cf b73d 83ae d13d
00000040: d3c7 91bd 2584 25bc 0c2a af3c e21e e13d
00000050: 1065 1b3e bef3 35bd 0360 533e d372 263d
00000060: aa0b 363e 2046 12be 6be2 2dbe 9914 9b3c
00000070: 4d08 bb3d fcaa 023e 5250 05be e960 b93d
00000080: 5b23 eabc 44e2 2c3e 161c 773e 8951 d93d
00000090: 2459 6fbe 822a 6a3e a1fd 1dbe bd0a b2bd
000000a0: 369f 6d3e d54c 293e 81fd 763e 0fd2 003e
000000b0: edba e33d 5c0e d23c 8bdf f83d 6a85 0f3e
000000c0: a3d5 adbc 7f7b 02be 6d4f d2bd fee5 6b3e
000000d0: 4146 02bd a65c 0b3e 18c3 fbbd 39e2 05be
000000e0: ac13 91bd c03f e5bd c8a5 2fbe a3e6 68be
000000f0: dfcd 693e f6d6 7b3d 2eef 88be c365 11be
00000100: 6aff 9cbd 2ddd 6dbe 3103 d83d 01ad 783e
00000110: ee26 6c3e 0b31 fc3c 68cc 263e f09e 52be
00000120: 0e42 36bd fb1e 053e ce67 9fbd 7ae4 67be
00000130: b72c 463c 0cdb 82be ee47 053b 3854 5d3e
00000140: b40e 55bd 4af6 9cbd d381 6b3e c41b 2e3e
00000150: 0d6c 16be 2dec 6a3d 4d24 63be ea57 823e
00000160: 495b e53d 0748 c73d f266 1ebe 43ef 48be
00000170: 0c23 14be 1e31 dbbd 9fdd 2fbe 5128 a93d
00000180: b402 1cba 4942 96bd 20ad 193e 581e 293e
00000190: b86a 3cbe 0f32 df3d 1024 1c3e 5c66 383e
000001a0: 0152 66bd 4029 00be 49e9 373e aeb3 be3d
000001b0: 64a9 553e 8b75 983c fd19 2bbe 090b b7bc
000001c0: cfaa f83d 97fc 623b 4396 3dbc 0897 09be
000001d0: a68f 133b 02a7 60be ed36 19be 7f5a 1d3e
000001e0: 1d34 80bd 975d 33be 5960 46be 906d 81be
000001f0: 6138 ff3d c413 85be 6165 4fbe ec62 2dbd
00000200: 79d0 7c3e 9175 77bb b5e3 c1bc 9b07 7fbe
00000210: 3c8f 27be 2722 983d b29d 4b3e 9286 cabd
00000220: 74f6 5f3d d041 153e 5dba c7bd 7a33 163e
00000230: 01b0 95bd 0252 1c3e f83e 28be 3a75 143e
00000240: 8091 0f3e 9f9b 2dbe 4106 f0bd 864c 43be
00000250: 9b56 523d acad 9c3d 5677 6cbe a51d 823e
00000260: 748d 13be 8685 803e 2b1b 0c3b db3e 2abe
00000270: 431e d53d eac1 5c3e 7223 323e 30c0 73be
00000280: e439 213d 79eb 7ebe 2ef8 4d3e c874 3c3c
00000290: 08de a1bd a9d7 733e 0fe3 8cbc e026 d9bc
000002a0: a243 003d 58d5 31be a7d7 3abc 60b2 313e
000002b0: 8f9a 5fbe 0260 fe3d 7e29 043e a1d2 11bd
000002c0: cb60 403e a90f ca3b f11e 683e 8041 813e
000002d0: 9ee3 7abe 8b44 3e3e dced 183e 4adc 483e
000002e0: af38 693e 7605 5b3e 4ab9 5b3e 47f1 fdbd
000002f0: a234 903d 5913 15bd 2fa3 2bbe 7c57 3cbe
00000300: 3777 8ebd 6e53 633c ccb4 1dbe c412 d8bc
00000310: 7964 553e 3b4c f33d ae48 5ebd 7b93 c23d
00000320: a88d 4cbe 7b2e 113e e25c 59bd c6b3 4fbe
00000330: 924b 2fbe e127 3bbe 5a75 60bd 7ddf 033e
00000340: e1fc 8c3d 955f db3d 5d9b 003e 6063 76ba
00000350: d67b 7f3e 7a9c 65be 50cd 0cbd e30d 843d
00000360: e663 73be 62fd 713c 89d2 0c3e 4f10 603e
00000370: 42c8 edbd c5aa c93d 9d63 073e f746 4f3d
00000380: 5247 f4bd 8ed7 513e 5116 44be a431 3a3e
00000390: a2a1 67be 9a14 693e 1f72 aebd 5cb1 383e
000003a0: 5437 5b3e 019b 64bc da20 ee3b b5cd 81be
000003b0: 38bd f53d aa6e fd3d 5a48 2f3e 7260 f6bd
000003c0: 8bf9 713e 50f6 823e 41ef 01be 8a05 363e
000003d0: 0cd9 1bbe cbcb 053e 1e39 b23d 62d8 d23d
000003e0: 0621 5fbd 582f 33bd 7b68 ab3c e567 5ebe
000003f0: 84e1 853e 4cee 3d3e cc50 4ebe 1df9 e63d
0.044581737 0.15496753 0.07903584 -0.20257054 -0.25859857 -0.055212263 -0.09911404 0.08632848
0.12214561 0.20948406 0.1406962 0.20658092 0.12610951 -0.2366049 0.089750916 0.102383636
-0.071181916 -0.0101023065 0.021382354 0.109922186 0.15175271 -0.044421904 0.20642094 0.04063685
0.17777887 -0.14284563 -0.16980903 0.01893072 0.091324426 0.12760538 -0.13018921 0.09051687
-0.028581312 0.16883188 0.24131808 0.10611255 -0.23373848 0.22867778 -0.15428783 -0.086934544
0.23205265 0.16533215 0.24120142 0.12580131 0.11119638 0.025641613 0.121520124 0.14015737
-0.021220034 -0.12742423 -0.102690555 0.23036954 -0.03180528 0.13609561 -0.122930706 -0.13074578
-0.0708383 -0.111938 -0.17153084 -0.22744231 0.2283244 0.0614843 -0.2674498 -0.14198975
-0.07665904 -0.23228903 0.10547484 0.24284746 0.23061725 0.030785104 0.16288912 -0.20568442
-0.04449659 0.130001 -0.07783471 -0.2264575 0.012095622 -0.25557745 0.0020337063 0.21614158
-0.052015975 -0.076641634 0.22998743 0.17002779 -0.14689656 0.05735414 -0.22181816 0.25457698
0.11199052 0.09730535 -0.15468958 -0.19622521 -0.14466494 -0.10702728 -0.17174385 0.08259643
-0.00059513305 -0.07336862 0.15007448 0.16515481 -0.18400085 0.1089822 0.15248132 0.18007797
-0.05623055 -0.12515736 0.17960085 0.09311615 0.20865399 0.018610736 -0.16709132 -0.02234413
0.12141954 0.0034635419 -0.01157147 -0.1343652 0.002251604 -0.21938708 -0.14962359 0.15366553
-0.0625994 -0.1751617 -0.19372691 -0.25278902 0.12461925 -0.25991642 -0.20253517 -0.042330667
0.24688901 -0.0037759284 -0.02366815 -0.24905245 -0.16363233 0.07428389 0.19884375 -0.098889485
0.054678395 0.14575887 -0.09752343 0.14668074 -0.07308961 0.15265658 -0.1643027 0.14497843
0.14020348 -0.16953896 -0.11719943 -0.1907216 0.051352125 0.07650313 -0.23092398 0.25413242
-0.14409429 0.2510187 0.0021378498 -0.1662554 0.104061626 0.21558347 0.17396334 -0.23803782
0.03936185 -0.24894513 0.20114204 0.011502452 -0.07903677 0.23812737 -0.017198114 -0.026507795
0.0313145 -0.1736654 -0.011403955 0.17353201 -0.21836303 0.12420656 0.12906453 -0.035601262
0.18786924 0.0061664176 0.22668053 0.25245285 -0.24500892 0.18580835 0.14934486 0.19615284
0.2277553 0.21388802 0.21457401 -0.123995356 0.07041289 -0.036395404 -0.16761468 -0.18392748
-0.06956332 0.013874872 -0.15401 -0.026376136 0.20839109 0.11879774 -0.05426853 0.09500786
-0.19975913 0.14177887 -0.053067096 -0.20283422 -0.17118672 -0.18276931 -0.054799415 0.12878223
0.0688417 0.1071159 0.12559266 -0.00093989633 0.24949583 -0.22422972 -0.03437549 0.06447961
-0.23768577 0.014769884 0.13752188 0.21881221 -0.11610462 0.09847025 0.13221593 0.050604787
-0.11927666 0.20492384 -0.19149138 0.18182999 -0.22620252 0.22761765 -0.085178606 0.18036407
0.21407825 -0.013952971 0.0072671 -0.25352255 0.11998981 0.12374623 0.17117444 -0.12030114
0.2363035 0.25578547 -0.12688924 0.1777555 -0.15219516 0.13066022 0.087023005 0.10295178
-0.054474853 -0.043746322 0.020923844 -0.2171932 0.26148617 0.18547934 -0.20148009 0.11277983

bn1.weight f4 [64]
00000000: 848c 7f3f 0061 803f 3d9b 7d3f 7e45 7f3f
00000010: c49a 7e3f e254 7e3f d553 793f f462 803f
00000020: f6ae 7e3f 0aa6 7c3f 7ab3 803f a16a 813f
00000030: 68ee 7f3f 58f6 803f f77b 793f 1c22 7f3f
00000040: 9953 7e3f acdf 803f 3048 7d3f 6796 7f3f
00000050: 4f2a 803f ceb9 813f c307 803f 9e58 803f
00000060: cb29 813f 21e6 7f3f dd7b 7e3f 3a66 7d3f
00000070: 070b 7e3f 1fb2 7e3f 1c99 7d3f 81f0 813f
00000080: 3d71 7c3f fb2a 813f 292c 803f 1480 813f
00000090: 8cbd 803f 7e4a 7f3f 3334 7b3f a9d9 7f3f
000000a0: c58e 803f f3ea 803f 707d 813f 7a4d 803f
000000b0: d414 813f ada6 7e3f e6c6 7c3f 6a77 7d3f
000000c0: 8d2c 7e3f d3c0 813f 75f6 813f 4e6b 803f
000000d0: bdfc 7b3f c3e4 7e3f a3eb 803f 1037 813f
000000e0: bb5b 7f3f d723 813f aa31 803f 0807 7e3f
000000f0: 7031 7f3f 6022 813f 93c4 823f aa7d 823f
0.99823785 1.0029602 0.99065 0.9971541 0.99454904 0.9934827 0.9739354 1.0030198
0.9948572 0.98690856 1.0054772 1.0110666 0.99973154 1.0075178 0.9745478 0.9966142
0.9934631 1.0068259 0.98938274 0.9983887 1.0012912 1.0134828 1.0002369 1.0027044
1.0090879 0.99960524 0.9940775 0.9898411 0.99235576 0.9949054 0.9906175 1.0151521
0.9861029 1.0091242 1.0013477 1.0117211 1.0057845 0.9972304 0.98126525 0.999415
1.004357 1.0071701 1.0116405 1.0023644 1.0084481 0.9947308 0.98740995 0.99010336
0.9928673 1.013697 1.0153338 1.0032747 0.98432523 0.9956781 1.0071911 1.0094929
0.99749345 1.0089062 1.0015156 0.9922948 0.9968481 1.0088615 1.021624 1.01946

bn1.bias f4 [64]
00000000: 993d a63b 7fd3 63bc cb0d 1a3c 324e 193b
00000010: 9ec6 363b 3c6b c7bc 40a6 d5bc 874b 063d
00000020: 459c b237 e688 163c 7936 7ebc 49c5 35bc
00000030: ed1f 503c 7f5b 15bc e93c 383c 9bb3 693c
00000040: 2d56 9739 100f c5bb b981 98bb 8e1f 33bc
00000050: 983b 57bc c87b 3bb9 877d aabb 14b1 7ebb
00000060: df18 ad3c fe87 8dbc 32d5 a63a 5ad1 b43c
00000070: 3733 35bb ce8d fe3a 7053 b23c 83bf 0d3c
00000080: 5b20 4fbb e923 e8ba a3d9 6b39 eaa5 74b8
00000090: d752 743b 3873 59bb 8466 8fbc 0254 853c
000000a0: d1c0 8ebc 6c02 5abc 6ebb 71bc b7a0 7d3c
000000b0: 38fe 1c3b f8ba 4c3c f97a cb3c e2c6 8b3c
000000c0: 313c c0ba cb59 6f3a ac27 56bb c7d6 96bb
000000d0: 174c 2abc e707 a8ba e4b2 773a 6296 503b
000000e0: 296b 853c fc64 cebb 8174 a53c 5274 79ba
000000f0: 0b58 cf3b b2c6 4b3c bcda 893a 166d 323c
0.005073261 -0.013905405 0.009402703 0.0023392555 0.002788938 -0.024343126 -0.02608025 0.032786872
2.1292022e-05 0.009187913 -0.015515917 -0.0110944 0.012702924 -0.009116053 0.011244991 0.014264013
0.0002886517 -0.0060137585 -0.004654136 -0.010932816 -0.013136767 -0.00017879822 -0.0052029523 -0.003886287
0.021130024 -0.01727676 0.0012728332 0.022072483 -0.0027648935 0.0019420923 0.021768302 0.008651617
-0.0031604979 -0.0017710897 0.00022492422 -5.8328653e-05 0.0037280822 -0.0033180248 -0.017504938 0.01627541
-0.017425926 -0.0133062415 -0.014754159 0.015480212 0.0023955237 0.012495749 0.024838911 0.017062608
-0.0014666376 0.00091305067 -0.0032677455 -0.00460324 -0.010394118 -0.0012819738 0.0009448959 0.0031827916
0.01628645 -0.0062986594 0.020197155 -0.0009515929 0.006327634 0.012437509 0.0010517458 0.010890266

bn1.running_mean f4 [64]
00000000: 86ac 5a3e ede5 ae3e 3a77 4f3e 8deb 963e
00000010: 0499 9e3e 9264 9d3e 9a13 223e 0199 8f3e
00000020: d6f7 4d3e 17d6 773e 8bd7 493e 6f4e 7f3e
00000030: 281b 903e 08eb 9b3e 6675 793e 6505 eb3e
00000040: 1411 753e 22c0 7f3e e38a 413e 29a8 c03e
00000050: 4e4b 5e3e 88ac a33e fda6 393e 623e 3b3e
00000060: 9261 6e3e c4f5 813e f664 553e 260e 953e
00000070: abc6 783e df8e a03e b6f0 753e 7dad ae3e
00000080: fae9 2c3e f9cb 443e ac3e 6f3e e5d6 9c3e
00000090: 987e 7a3e a068 a43e efee 523e 625a 833e
000000a0: c77e 293e 6b5e f03e 6b8f bc3e 0de0 833e
000000b0: 1fdb 363e 3f16 8e3e d8b7 9d3e 1902 5c3e
000000c0: 07c9 903e 17d8 843e 2e66 8b3e ce9f 7a3e
000000d0: 8a49 113e e63b a53e ffe3 a33e 8f4b 053f
000000e0: 121d 943e 672b 7d3e 6cce 523e 89ca e43e
000000f0: 631d 6a3e 7b8d 2e3e 030a e53e 32b3 c03e
0.21354875 0.34159794 0.20260325 0.29476586 0.30976117 0.30740792 0.1582779 0.2804642
0.20114073 0.24202763 0.1971113 0.24932264 0.2814572 0.30452752 0.2436119 0.45902553
0.23932296 0.24975637 0.18900637 0.37628296 0.21708414 0.31967568 0.18130107 0.18285516
0.23279408 0.25382817 0.20839295 0.29112357 0.24294536 0.31359002 0.24017605 0.34116736
0.1688613 0.19218434 0.23363751 0.30632702 0.24462354 0.32111073 0.20598958 0.25654894
0.16552268 0.46947035 0.3682817 0.25756875 0.17857026 0.27751347 0.30804324 0.21485175
0.28278372 0.25946113 0.27226394 0.24475023 0.14188209 0.3227226 0.32009885 0.5206842
0.2892843 0.24723588 0.20586556 0.44685772 0.22862773 0.17046158 0.447342 0.37636715

bn1.running_var f4 [64]
00000000: ae3d 7e3e 80a9 093f 84c9 963d f7b1 533e
00000010: bb6e 253e f4b2 4f3e d52b d73d a67f 863e
00000020: 7d30 fe3d ceb3 ef3e a0b6 1d3e 8ee7 de3d
00000030: 489f 643e fd2b 463e 3b22 983e 69db f53e
00000040: 43e9 433e d0f0 573e 2545 563e 39f7 523e
00000050: 852a fc3d fd78 3a3e cafc 8d3d 9cab 793d
00000060: 6296 493e 4d92 0d3e 1670 353e 412c 023f
00000070: ed80 353e 874f a63e d10b a33e ab9d 853e
00000080: eda1 8a3d 4e39 583e c5c5 013e 0606 9e3e
00000090: 85cc 3a3e 5d67 8d3e 0a3b 803e 8ee5 ad3e
000000a0: 85d1 9d3d 6068 033f 3e4c a73e 2ff0 223e
000000b0: 43ca d73d 3ba8 103e 5a70 4e3e 7805 b63d
000000c0: 4e7d 073e 115e 2e3e 72eb 653e b9db 4a3e
000000d0: 5c70 863d 6e17 8e3e a29d 113e fb95 493f
000000e0: cc1f 963e 57b1 353e 1294 6e3e ec27 d93e
000000f0: 1b90 293e 1014 c73d 8750 1b3f 26a9 483e
0.24828216 0.5377426 0.07362655 0.20673357 0.16155522 0.20283109 0.10506407 0.26269263
0.12411592 0.46816868 0.15401697 0.10884009 0.22326386 0.19352718 0.29713616 0.4801896
0.19131951 0.21087956 0.20924814 0.2060212 0.123127975 0.18210216 0.06932981 0.060954675
0.19686273 0.1382534 0.17718539 0.50848776 0.17724963 0.3248255 0.31844953 0.26096854
0.06769166 0.2111561 0.126731 0.3086397 0.1824208 0.27617922 0.25045043 0.339642
0.07705978 0.5133114 0.32675356 0.15911935 0.10536625 0.14126675 0.20160046 0.08887762
0.13231394 0.17028071 0.22453097 0.1981038 0.065643996 0.2775225 0.14220288 0.7874448
0.29321134 0.17743431 0.23298672 0.4241327 0.16558878 0.097206235 0.6066975 0.19595775

conv2.bias f4 [64]
00000000: 31e4 743c 07f1 6b3c 65d6 59bc c47b e9bb
00000010: 125f 9a3c a1ed 85bc f8c3 1dbc e1a9 063c
00000020: 8438 fab9 d210 32bb 42ff 3d3b 50af 853b
00000030: 7ef1 673b 57f3 4e3c 08d7 97bb dd97 523c
00000040: 8b90 bb3c 79d4 853b 59fd 863c 6921 a23c
00000050: 756d 103c 0a78 8bbb 9116 ff3a 9d87 80ba
00000060: 9816 923c c36c 4e3c fde9 3dbc b3a1 673c
00000070: 8bc4 b8bc 5910 023c 7503 2bbc c8db 413c
00000080: 254f 233c 719b 6d3c 5c6c 25bb b3a8 38bc
00000090: 10bd 7f3a b842 28bc c6da 4c3c 0ff3 713c
000000a0: e1f6 b13c 42d8 a73c d439 0a3c 1640 993b
000000b0: 5eba 21bb 5bf3 8539 7d2a 78bc 5ba5 863c
000000c0: 699c bd3c da42 35bc 0db9 6cbb 195b 57ba
000000d0: fee4 85bc 84b3 243c 3fe3 7f3c 86ed 23bc
000000e0: b7d8 f23b df30 033a f2f9 ab39 d66c 8b3c
000000f0: 38d6 4dbb 0977 57bb 0bc0 bf3a e09b 813c
0.014946983 0.014400727 -0.013295745 -0.0071253497 0.018844161 -0.016348662 -0.009629242 0.008219213
-0.00047725823 -0.002717067 0.0028991257 0.004079737 0.0035391743 0.012631259 -0.004633788 0.01285359
0.022896072 0.0040841666 0.016478227 0.019791322 0.008815159 -0.004256253 0.0019461681 -0.0009806041
0.01783304 0.012599173 -0.011591432 0.014137673 -0.022554656 0.007938468 -0.010437836 0.011832185
0.0099676 0.014502392 -0.002524159 -0.01127069 0.00097556505 -0.010269813 0.0125033315 0.014767422
0.021724166 0.020488862 0.008436639 0.004676829 -0.0024677734 0.0002554905 -0.015146849 0.01643627
0.023145871 -0.011063302 -0.003612104 -0.0008215174 -0.016344544 0.0100525655 0.015618145 -0.0100053605
0.0074110883 0.0005004536 0.00032801885 0.01701967 -0.0031408202 -0.0032877347 0.0014629377 0.015821397

conv2.lin.weight f4 [64, 64]
00000000: 12ac 5a3e 792b fbbb 3569 f8bd d4de 82bd
00000010: c3c5 533d c5e7 d7bd c40d 2b3e d706 313e
00000020: 4c9a 0c3d ad67 0c3e 3cce ff3d f7f9 743c
00000030: 6719 263e e8c7 38be bd3d 26be 0b7b 1b3e
00000040: 8c78 d1bd 52c1 4d3e 25fe 46be 4311 0bbd
00000050: 0418 213d b256 10bd 487c 2abe 0539 24be
00000060: a90b 853d ca73 26bd ef97 ddbd 8b44 403c
00000070: 1bea 3abc 5d8f 1fbd 34f5 393e aa8f 37be
00000080: 6b4a a7bd 6011 423e f797 e6bd 6d02 30bd
00000090: 0ca9 abbc 91a7 d7bd f52d 403e 7355 353e
000000a0: ab7e 85bb 1fb7 513e 0c92 413d e65b 243d
000000b0: 5c1d 883d 76d5 2e3e e79f a0bd 2d27 7f3d
000000c0: c913 243e c914 623b c3a7 363e bbfa e13d
000000d0: fba8 2bbe 5b30 d93d e6a5 53be e9eb 1abe
000000e0: 30ee 2a3e 3859 36be 5ebd a8bd d22f 24be
000000f0: b93c b53d 6e74 56be b012 a4bd 1d52 e9bd
00000100: 435d 3fbe c99c 97ba 9e6c 2d3d c3cb 063e
00000110: ca2d 14be a187 2dbe 9568 8fbd a415 6fbe
00000120: 459b 8d3c 33c7 0a3d 7338 cd3d ea00 64be
00000130: bc00 a43d 7410 3fbe 655a 2e3e 3a8c d93d
00000140: cac4 d2bd 30e8 653d 2f5b 3f3e ab8e 3abd
00000150: 3b66 afbc a36d acbd a37a abbd ee0d 013e
00000160: 5e73 f33d 3dbd 9a3d f381 4dbd b94e c1bd
00000170: 1f98 823c fa40 d13c b06a d63d dc58 64bd
00000180: 75b1 f53d ea46 42be 3850 f03d 044c 3d3e
00000190: 610c e7bd bcd4 72bd e9a1 64be c96e 173e
000001a0: 46b0 57be 427c 1b3e 7d55 253d b635 febd
000001b0: 9f11 8bbd fe07 4b3e b371 3ebd 1cfd 22be
000001c0: 9a68 19be 744a 2dbd 1833 32be 2267 6fbd
000001d0: e1ba 3cbd bfec d7bd 53fb 5a3e e1a7 593b
000001e0: a62d d13d b81a 833d ffdb c9bd 64c0 92bd
000001f0: b855 cc3d 1b6f 0f3e e5fa fdbc d851 223e
00000200: ba80 3bbe 4c5d c93d e814 373e 436b 15bc
00000210: 503c 453d 1256 e63d be6f be3d 35e8 5b3b
00000220: cc30 273e d5ab 843b fb8d 1cbe d574 d93d
00000230: 4f2f 49be 98ad 26be 623e 01bb 0e9d 04bd
00000240: cf41 a5bd 08a1 90bd 4615 09be d2c1 e63d
00000250: 4a4a cabd f494 ec3d c382 b9bd 5e6c 4ebe
00000260: ae03 cfbd bc26 4a3e 6fd6 18be ff58 e4bd
00000270: 0614 6dbe bd82 06be e645 b13d 1f98 c33c
00000280: ce37 ef3d 9350 98bd fbc3 483e 5c08 37be
00000290: e6ff f5bd c615 853d f1ba 4bbc 3a0b 90bd
000002a0: 2aae 083e cc1f daba 70b2 693d 189a 563d
000002b0: e1eb a239 9be0 8bbd 9c55 30bd 6429 2e3e
000002c0: 88ac 6dbd 801a 71bc 2585 c6bb 71f4 c63d
000002d0: b845 0c3d 76dc 39be d360 5c3e 76f9 fbbd
000002e0: c4e8 0abc c21c 0bbe a5ba f4bd a7b9 133e
000002f0: fcb6 96bd cce2 0b3d e0cc 90bc 0a7b 62be
00000300: 39d8 963d 100b 9b3d 8bf7 57bc a208 e43d
00000310: b1b2 0d3d c9dc a03d 76b2 4fbe 1823 55bd
00000320: 38d3 dc3d 3a8f e5bb 4d11 273e f1cb 31bc
00000330: 78cb 0e3c d2b9 2bbe ada4 3a3d af05 43bd
00000340: ef6b b13d 26c0 023e 4cad 4cbe aba8 273d
00000350: 2d8e c9bd ab5f 323e c1f4 2abe 5421 4b3e
00000360: 2be3 843a ad65 2b3d b696 7abc b63a 4f3e
00000370: 7453 c3bd 1ea9 e93b 9de4 bdbb 8098 9c3d
00000380: 42c9 0dbe 026a 573e f739 ddbd 9019 093e
00000390: a48b 83bd fd1b 12bd 9bb4 513e 84bc a13d
000003a0: 05d8 403e c03d e03d f06a b3bd d356 483e
000003b0: 56ce 233e abff 52be c83c a93d 4615 cebd
000003c0: 8015 bebd ca93 e13d 3ac2 d83c 1fb2 fa3c
000003d0: ac7c 49be 2210 6ebd 86a7 eebd 30d0 91bd
000003e0: 653a 263e 84ae 0c3e 4da6 673d 0a77 f4bd
000003f0: 585e 19be 8f38 43be 3af0 1abd 56e3 e43d
0.21354702 -0.0076650945 -0.12129442 -0.06390157 0.051702272 -0.105422534 0.1670447 0.17287765
0.034326836 0.13711424 0.12490508 0.014952174 0.16220628 -0.18045008 -0.16234489 0.15183656
-0.102280706 0.20093277 -0.19432886 -0.03395201 0.039329544 -0.03523893 -0.16648972 -0.16037376
0.064963646 -0.04063777 -0.10819995 0.011735092 -0.011408354 -0.03895508 0.18159944 -0.17925897
-0.08168491 0.1895194 -0.11259454 -0.042971063 -0.020954631 -0.10530008 0.18767531 0.17708378
-0.004073938 0.20480011 0.04725842 0.040126704 0.06646225 0.17073616 -0.07842999 0.06229322
0.16023172 0.0034497252 0.17837434 0.11034151 -0.1676368 0.10604926 -0.20668754 -0.15129055
0.16692424 -0.17807472 -0.08239244 -0.16033867 0.088494726 -0.20942852 -0.08011377 -0.11392615
-0.1868792 -0.0011567111 0.042339914 0.13163666 -0.14470592 -0.1694627 -0.07002369 -0.23348099
0.017285952 0.033881377 0.100205325 -0.22265974 0.080079526 -0.1865862 0.1702667 0.10622449
-0.10291441 0.056129634 0.18687128 -0.045546215 -0.021411052 -0.08419349 -0.083730005 0.1260297
0.11887239 0.075556256 -0.050172757 -0.09438843 0.015941678 0.025543679 0.10469568 -0.055748805
0.11996738 -0.18972364 0.117340505 0.18486029 -0.11281658 -0.05928491 -0.22327389 0.14788355
-0.21063337 0.1518412 0.04036473 -0.12412588 -0.0679047 0.19827268 -0.04649515 -0.15916866
-0.14981309 -0.042307332 -0.17402303 -0.058447964 -0.04607666 -0.105432026 0.21384935 0.0033211636
0.10213785 0.064015806 -0.09856414 -0.07165602 0.09977287 0.14007227 -0.031003425 0.15851533
-0.18310824 0.09832248 0.17879069 -0.0091198115 0.04815322 0.11246885 0.09298657 0.0033555154
0.16327208 0.0040488043 -0.15288536 0.10617987 -0.19646953 -0.16277158 -0.001972102 -0.03237634
-0.080691926 -0.07061964 -0.13387021 0.11267437 -0.09877451 0.11551848 -0.09058144 -0.20158526
-0.10108124 0.19741338 -0.1492555 -0.11149787 -0.2315217 -0.1313581 0.0865591 0.023876248
0.11680566 -0.07437243 0.1960601 -0.17874283 -0.120116994 0.064982936 -0.012434707 -0.07033391
0.13347688 -0.0016641556 0.057054937 0.05239305 0.0003107479 -0.068299495 -0.043050393 0.17007977
-0.058025867 -0.014715791 -0.0060583525 0.09714592 0.034246176 -0.18150505 0.2152131 -0.1230344
-0.008478347 -0.13585189 -0.11949662 0.1442629 -0.0735912 0.034151837 -0.017675817 -0.22117248
0.0736546 0.075704694 -0.013181577 0.11134459 0.03459424 0.078546114 -0.20282921 -0.05203542
0.10782474 -0.0070055993 0.16315193 -0.010851846 0.008715503 -0.16770104 0.045567203 -0.047612842
0.08663165 0.12768611 -0.19987983 0.04093234 -0.09841571 0.17419307 -0.16694929 0.19836932
0.0010138502 0.041845012 -0.015294721 0.2023724 -0.09537402 0.007130756 -0.005795075 0.076462746
-0.13846305 0.21036533 -0.108020715 0.13388658 -0.06423119 -0.035671223 0.20479052 0.078972846
0.18832405 0.10949278 -0.08760631 0.19564371 0.1599668 -0.20605342 0.08263546 -0.10062651
-0.092814445 0.11014517 0.026459802 0.030602513 -0.19676465 -0.058120854 -0.11653046 -0.07119787
0.16233213 0.13738447 0.05655508 -0.119367674 -0.14977396 -0.19064544 -0.037826754 0.111761734

bn2.weight f4 [64]
00000000: e895 7f3f 3fb8 803f 8201 7c3f bb9b 7f3f
00000010: 3bb7 803f 0d92 803f fbdc 813f 54d0 7e3f
00000020: aa2f 803f 94da 7c3f 0f22 813f c47c 803f
00000030: 219a 7f3f b875 7c3f f3e1 783f 7491 803f
00000040: 7e92 813f 1d31 7e3f fe25 813f 0b16 7f3f
00000050: fb79 7f3f 9f49 823f 838a 803f e347 7e3f
00000060: a361 803f 11d1 7d3f d164 7f3f e9de 7f3f
00000070: c813 7e3f 9fd2 7e3f c64a 803f 7fa6 813f
00000080: 4bc3 803f 3700 7e3f 9939 803f 09d5 7d3f
00000090: 4015 803f a0a2 823f 246a 803f 234f 7d3f
000000a0: d0d4 813f fc17 813f 2143 7e3f 1adc 7f3f
000000b0: f3b6 7f3f d786 803f a426 813f 9225 803f
000000c0: b307 823f adf9 7b3f 4622 803f 8f3b 7d3f
000000d0: 11be 7e3f 9405 803f 885c 7f3f a271 7d3f
000000e0: 929b 803f 3718 803f a668 7f3f b91d 813f
000000f0: f332 813f c632 7f3f 9fbc 803f 6327 803f
0.99838114 1.0056227 0.984398 0.99847 1.0055918 1.0044571 1.0145563 0.99536633
1.0014546 0.98771024 1.0088519 1.0038075 0.9984456 0.98617125 0.9721977 1.0044389
1.0122831 0.9929369 1.0089719 0.9964301 0.997955 1.0178717 1.004227 0.9932844
1.0029796 0.99147135 0.9976321 0.9994951 0.99248934 0.9954013 1.0022819 1.0128936
1.0059599 0.9921908 1.0017577 0.9915319 1.0006485 1.0205879 1.0032392 0.9894888
1.014307 1.0085444 0.9932118 0.99945223 0.99888533 1.004115 1.0089917 1.0011466
1.01586 0.9842785 1.001046 0.98919004 0.9950877 1.0001702 0.99750566 0.99001515
1.0047476 1.000739 0.99769056 1.0087196 1.0093673 0.9968685 1.0057563 1.001202

bn2.bias f4 [64]
00000000: 3c29 05bc 3d48 ba3b 7d17 953b df40 60bc
00000010: 047b 7abb 9bd1 053c 5db4 cd3b ffbc 22bb
00000020: 5e09 713c 0cc0 5abc d377 093c 7168 8f3c
00000030: 06c2 743c 9ba2 1d3b e447 873c 6129 4a3b
00000040: 62bf c43b 0458 713c e64f d4bb 79f1 533c
00000050: 80d1 153b 74f6 4a3c f8ee ebb9 2ca5 1ebb
00000060: 7a0b ee3c 420c b93b 2769 00bc 3a3e a7bb
00000070: c6e0 2bbc 42ae 2ebb 83cb 8fbb 3650 673b
00000080: bf90 673c a29f 6eba 1550 323c ec86 b33b
00000090: acda fb3b f279 4a3b f193 093c 07cd 263b
000000a0: 8c08 0ebc a19f 2fbc 2729 97bc dd02 a2bb
000000b0: d644 6ebc 5e05 d63b 9a8c d1bb 7e54 d13b
000000c0: 0995 a5bc b36b a03b 8b22 003c 2283 8bbc
000000d0: 9c1b 2d3b 87d7 593b 2605 1d39 70ab 6e3c
000000e0: 46ae afbb 7753 873b 1997 9e3b 367a 75b9
000000f0: c851 1bbb 681e 823b 3da3 ec3b eadd f93a
-0.008127507 0.005684881 0.004549919 -0.0136873415 -0.0038220296 0.00816765 0.0062776045 -0.0024831889
0.014711706 -0.013351452 0.008390385 0.017505856 0.014938837 0.002405322 0.016513772 0.0030847418
0.00600426 0.014730457 -0.006479251 0.01293599 0.0022860467 0.012387861 -0.00045000738 -0.0024207337
0.029058207 0.005647213 -0.00783757 -0.0051038535 -0.010490602 -0.0026654159 -0.004388274 0.0035295612
0.014133631 -0.00091027666 0.010883351 0.0054787304 0.00768598 0.003089544 0.008397088 0.0025451796
-0.00866903 -0.010719211 -0.01845224 -0.004944189 -0.014542779 0.0065314015 -0.006394935 0.006388246
-0.020212667 0.0048956512 0.007820736 -0.017030302 0.0026414162 0.0033240037 0.00014974605 0.014567241
-0.005361351 0.004129823 0.0048397896 -0.00023410548 -0.0023699868 0.00397091 0.007221608 0.0019063328

bn2.running_mean f4 [64]
00000000: f842 103f 44df be3e 2e49 153f 58e1 c63e
00000010: ec02 033f 3678 a93e c623 a73e 55e8 e53e
00000020: e535 093f c6da e03e 6bae 113f 67a8 d93e
00000030: 0b01 e13e 87da e13e 30c0 9a3e 3c12 e83e
00000040: 7ebe e53e d983 d53e e45f d93e d14f 123f
00000050: 6054 063f b778 433f effe 173f 3c26 0a3f
00000060: a8f3 d13e 1491 bd3e 2fb0 0f3f 9b73 9b3e
00000070: 950c 033f e62b bf3e 0dac 903e 4ecd 213f
00000080: 7540 c53e 8864 a63e 0277 cd3e 2899 233f
00000090: 8bfd e43e a652 d23e 3467 f93e 966a f03e
000000a0: d55c 183f d26c bd3e 51f5 0c3f 280c 973e
000000b0: 9efa fb3e c463 033f bb2a b43e 9d7a bf3e
000000c0: 46e7 ca3e a333 f23e de76 b13e 1174 bc3e
000000d0: ce0d eb3e 3a65 f63e d4da 353f df23 a53e
000000e0: d02b 0c3f 248f 283f 041b cd3e 06fd 1c3f
000000f0: e3f5 dd3e 963a 0b3f 99b0 dd3e abbe e63e
0.56352186 0.37279713 0.5831479 0.388438 0.51176333 0.33099526 0.3264448 0.44903818
0.5359786 0.4391691 0.56906766 0.42511293 0.43946108 0.44112036 0.30224752 0.45326412
0.44871897 0.41702154 0.4245597 0.5715304 0.52472496 0.7635607 0.5937337 0.5396459
0.41006207 0.37024748 0.5612821 0.30361637 0.51191074 0.3733818 0.28256264 0.63203895
0.3852574 0.32498574 0.40129858 0.6390557 0.44724688 0.4107868 0.4871155 0.4695632
0.5951665 0.36997086 0.55061823 0.29501462 0.49214643 0.51324105 0.3518885 0.37398234
0.39629573 0.4730502 0.34661 0.36807302 0.4590897 0.48124105 0.7103703 0.3225393
0.5475435 0.65843415 0.40059674 0.61323583 0.4335166 0.5438627 0.43298796 0.45067343

bn2.running_var f4 [64]
00000000: aba5 1840 799a c83e 758c 2c3f 34df 7c3f
00000010: e26a 793f b72f f63e 9efc dd3e 6465 953f
00000020: 1b30 803f 1b11 423f 42c4 4b3f e8b8 6c3f
00000030: 6967 743f 9b7c 133f d0d1 9b3e 33b0 fb3e
00000040: f244 f03e 2a60 183f 708b 453f cb64 253f
00000050: c069 6e3f ff87 2440 fd0c 663f 03a8 8a3f
00000060: bab3 283f c885 173f c185 3b3f c1ad cf3e
00000070: cda3 863f e99c da3e 1494 b43e 0aa4 bc3f
00000080: 095c c53e a6ee d73e f723 0a3f ce91 7a3f
00000090: b117 bd3e 8c04 e23e 801f 9b3f 0494 583f
000000a0: 2fb9 b13f 9ff5 e13e 4564 1a40 f41b 8d3e
000000b0: 83a2 043f 904d 4f3f 366c 2a3f 7b81 da3e
000000c0: af2c 8f3f 5876 393f 1dbb 0f3f 138b d93e
000000d0: fbc1 173f 8303 ae3f 3241 843f 3b2e ea3e
000000e0: 0582 313f 950f 983f fb52 a43e 6c1f 653f
000000f0: b546 4a3f e1b7 313f bd8c 3c3f 4040 8a3f
2.3851116 0.39180353 0.6740182 0.9877808 0.97428715 0.4808328 0.43356794 1.1671567
1.0014681 0.7580735 0.7959634 0.92469645 0.9547029 0.5761201 0.30433512 0.49157867
0.469276 0.59521735 0.7716589 0.6460692 0.9313011 2.5708005 0.8986357 1.0832523
0.6589924 0.5918851 0.7325097 0.4056225 1.0518738 0.42697838 0.35269225 1.4737561
0.3854678 0.42174262 0.5396113 0.9787873 0.36932138 0.44144094 1.2118988 0.84600854
1.3884639 0.44132707 2.41237 0.2756039 0.51810473 0.80977726 0.66571367 0.4267691
1.1185511 0.72446203 0.5614489 0.42488918 0.59280366 1.3594822 1.0332396 0.45738396
0.6933902 1.1879755 0.3209456 0.8950107 0.7901414 0.694212 0.7365225 1.0800858

fc1.weight f4 [64, 64]
00000000: 859a 813d 455e 85bc 7fe1 2dbc 716c f9bb
00000010: 7eef 263d 07da 2dbd aa28 93bd eb7f d73d
00000020: f798 eebc 667d 393c 3954 113d d86f bdbd
00000030: b771 90bd aafb 1a3d 5220 3ebd 744e 10bb
00000040: 6a59 ce3c 4912 38bd 1eae a73c 8e27 4dbd
00000050: 8388 ccbc d186 c4bd 85d0 01bd 2050 a33d
00000060: 806c 643d 0c25 aa3b 218d 22bc 4a51 cf3d
00000070: 9698 b0bc e5ba 8b3d 1b5c db3c 5c75 68bc
00000080: 8059 953c df5c a93d 0c28 d73d fc4c adbd
00000090: 193b e6bd 5c75 70bd e8cf 6fbd 48fe 983d
000000a0: c9a2 c2bd bfb7 b5bd c1ca 8d3d 03de d2bd
000000b0: e218 bc3d 8852 0f3d d0cd 923d ea35 a53c
000000c0: 5f7d c8bb 9936 a6bd 3341 ba3d 41b6 c3bc
000000d0: e57e 37bd d85a 01be 9626 933c f66c d7bd
000000e0: a841 2ebc 0928 cbbd cb4e 973d b9eb 743d
000000f0: 4197 8e3d 22b1 e1bd 90a1 e63d 10bc 6c3d
00000100: 7c5f ebbb d2f6 2c3c 0672 b33d 4131 edbd
00000110: b49a b83c 28c4 093d d391 373d 3c92 12bd
00000120: cf12 dabb e2d5 2b3d 1117 5bbd e0ab 3e3d
00000130: 2712 fc3d 7140 0fbd 5f3d a33d e6f7 a9bd
00000140: 4021 1c3d 1cbf 573c 8003 c4bd 2b6b e83d
00000150: 7fb2 053d fc6d b63d 44c6 75bd 639e d73d
00000160: d131 153d 7403 2a3d c26a 81bd a8ce 413c
00000170: 270a 7bbd 3c82 703c b054 47bc 4f60 d83b
00000180: 0ffb e8bd cf6f 023d 7f1a 39bd ae24 893d
00000190: 1c69 043e ca8b 69bd f33e 773d 92bd 95bd
000001a0: fbd2 8ebc b556 15bd f085 c4bd f8fa dbbd
000001b0: 9e0a 8c3a 617b d7bd bcea a0bd 7565 c23d
000001c0: 13a9 803b ba5b a83d 46b2 eb3d 50da aa3d
000001d0: 5b26 c3bd b5e7 5dbd 8af7 05be a3e9 f83c
000001e0: 623e 183d 76e4 de3d d1db 163d 8f31 00bd
000001f0: e38e a1bd 39b3 0bbd e986 f7bc 23af 8bbd
00000200: b59a 4a3d 9ddb 863d 5cd8 debc bfe3 f83d
00000210: 9c50 afbd 88eb 913d 7419 17bd df99 433d
00000220: a640 6d3d 1ce9 7fbd 5f8d 27bc e6a4 c03b
00000230: f16c e1bd 971c c83c d8de b8bd 569f e83d
00000240: 1ea7 813c 4770 b3bd 4a82 44bd fb43 86bc
00000250: f51c d13d 47fe bc3c 34d8 ad3d c452 703d
00000260: 2630 0a3c 0e1e debd f24b 813d b0c8 1a3d
00000270: b7d8 32bc d017 9539 57ae 1c3d ee61 ed3d
00000280: 7870 52bd 00a1 193d 4927 943d cbbe c33c
00000290: 612c cc3d e0ef 94bd 2a9d d83c 4341 c6bd
000002a0: 5e8d 643d 190c 6fbb 1502 b73b 7a75 ff3d
000002b0: 6aa9 ce3d a036 d7bc 0571 4bbb 8230 d23c
000002c0: fe12 1d3d 00db 563a f9db 753d 0f6b e93d
000002d0: aac3 54bd 6a81 97bd e28e 253d 5ca7 a9bc
000002e0: d2f0 833d bdeb 0fbd 089c 193d a2e4 873d
000002f0: e800 45bd ef5d 1a3d 5d4e bb3d 1c02 1cbd
00000300: a117 ca3c b9c5 c73d 1a02 3cbc 6a30 a43d
00000310: 02c6 6f3d 25b9 663d cb4e d4bd cfbc d73d
00000320: 818e d7bd 7fd3 6d3d 840d b5bc 42b8 e3bd
00000330: aa4d e2bd cb3b 37bc 0b25 a8bd 88e6 aebd
00000340: 822e 8cbc a258 3f3d 4b22 693d e02e e6bd
00000350: 7c89 f2bd c458 89bd 1bb4 383c b145 e53c
00000360: 1d7f a4bd 5ab2 843d 13cd 98bc 5e36 c8bd
00000370: fedb c1bc 9f21 b4bc b28c 37bd 884b 5e3d
00000380: 4b37 5bbc a204 a43d 3903 f23d 38d6 183d
00000390: d3a2 9cbd ef31 babd fb27 80bd 4a24 77bd
000003a0: 1713 b6bd f464 11bd f987 67bd 1b5d 993d
000003b0: 2f51 8f3d 14ee 603d c107 d9bd 8494 9c3c
000003c0: 982e e53d ec80 af3c 7fa5 dcbd ed37 093e
000003d0: 8509 e63d c67d 513d 9b97 583d 04f5 0cbd
000003e0: 5eb5 903d 79c8 623d c889 053e 60fc 00be
000003f0: fb24 99bd 9d79 a2bc f852 8ebb 6633 86bd
0.063283004 -0.016280303 -0.0106128445 -0.007611804 0.04075574 -0.042444255 -0.071854904 0.10522445
-0.029125674 0.011321401 0.03548071 -0.09249848 -0.070529394 0.03783766 -0.04641754 -0.0022019418
0.02518912 -0.044939313 0.020468768 -0.05008655 -0.024967438 -0.09596027 -0.031693 0.07974267
0.055767536 0.0051924046 -0.009921343 0.101229265 -0.021557134 0.06822757 0.026777318 -0.014188137
0.018231153 0.08269667 0.10505685 -0.08461949 -0.11241741 -0.058705673 -0.058547884 0.07470375
-0.09503705 -0.088729374 0.06923438 -0.102962516 0.091844335 0.034990817 0.07168162 0.02016731
-0.006118461 -0.081158824 0.09094467 -0.023890616 -0.04479875 -0.1263231 0.017962735 -0.105188295
-0.010635771 -0.099197455 0.073880754 0.059795115 0.06962443 -0.110201135 0.11261284 0.057796538
-0.0071830135 0.010556893 0.087619826 -0.1158166 0.022534706 0.033634335 0.044816803 -0.03578399
-0.006655074 0.04195202 -0.053488795 0.04655063 0.1230815 -0.034973565 0.0797069 -0.08299236
0.038117647 0.013168123 -0.0957098 0.11348566 0.03264093 0.089076966 -0.060003534 0.10528257
0.03642446 0.0415072 -0.063191906 0.011829056 -0.06128898 0.014679488 -0.012166187 0.0066032778
-0.113760106 0.03184491 -0.045191284 0.06696449 0.12930721 -0.05701808 0.060362767 -0.07311548
-0.017434588 -0.036459643 -0.09595859 -0.10741228 0.0010684317 -0.105215795 -0.07857272 0.09492008
0.003926405 0.082206205 0.11508612 0.08342421 -0.095288 -0.05417605 -0.1308271 0.030384844
0.037168868 0.10883419 0.036830727 -0.031297263 -0.078885816 -0.034106467 -0.030215697 -0.06820514
0.049463946 0.06584857 -0.027202778 0.12152814 -0.08560297 0.07125002 -0.03688951 0.047754165
0.05792298 -0.06247817 -0.010226577 0.0058790324 -0.11007107 0.024427695 -0.09026879 0.11358516
0.015826758 -0.087616496 -0.047975816 -0.016389837 0.10210601 0.023070468 0.08488503 0.05867268
0.008434331 -0.10845576 0.063133135 0.037789047 -0.010915927 0.00028437236 0.0382522 0.11590944
-0.05137679 0.037507057 0.072340555 0.023894688 0.09969402 -0.07272315 0.02644213 -0.096804164
0.05579888 -0.0036475717 0.005584965 0.12473579 0.10090907 -0.026271164 -0.0031042707 0.025657896
0.03834819 0.00081960857 0.060024235 0.11397373 -0.051944412 -0.07397731 0.040419467 -0.020709686
0.06442417 -0.035136927 0.03750232 0.06635405 -0.048096567 0.03768724 0.09145806 -0.03808795
0.02466947 0.097545095 -0.01147511 0.08017047 0.058538444 0.05632891 -0.10366591 0.10534059
-0.10525227 0.058063027 -0.022101171 -0.11119129 -0.110499695 -0.011183689 -0.082101904 -0.08540064
-0.01711202 0.046715386 0.05691747 -0.112394094 -0.11842629 -0.06706384 0.011273409 0.027987333
-0.080320574 0.0647933 -0.018652475 -0.09775995 -0.02366447 -0.021988688 -0.044811912 0.05427125
-0.013379882 0.08008696 0.11817021 0.03731367 -0.07648244 -0.09091555 -0.06257626 -0.060337342
-0.0889036 -0.035496667 -0.056526158 0.074884616 0.069979064 0.05491455 -0.10597182 0.019113787
0.11190528 0.02142378 -0.107737534 0.1340024 0.112322845 0.051145338 0.052878957 -0.034413353
0.07065843 0.055366967 0.1304084 -0.12596273 -0.074777566 -0.01983338 -0.0043433867 -0.06552772

fc1.bias f4 [64]
00000000: 570f afbd 2429 af3d 537c ddbd 7ca0 513d
00000010: e816 b3bd 6845 abbd 5afe 053e edfb 7b3d
00000020: acee d4bd 4121 9ebd de6b acbd 8b39 ad3d
00000030: cab2 ddbd a80e 8b3d 0158 eebd 508d db3d
00000040: c2c4 cbbc be11 b3bb 676f 60bd 8084 1b3d
00000050: e2f0 c03d fbd0 e9bc ad3d babd 9dff 6bbd
00000060: 6914 9a3b fbcf 75bd eba2 263d 9544 cebd
00000070: 9858 0cbd 919b eebc dec9 103d 1356 973d
00000080: 045c 013e d25d b9bd 5489 7b3d 6bd7 b93d
00000090: 4ef8 ab3d a117 fbbd 311f a73d 82c8 cebd
000000a0: df12 8ebd 0be8 6d3d 1d29 8ebd 4c6d 9a3c
000000b0: 625e 4cbd 8d5e 83bd f8a9 febc a633 553c
000000c0: 5428 8c3d 6a57 7fbc 7736 7a3d 9879 903d
000000d0: 4ac0 20bd fbe3 1c3d 12e5 cf3c 0f16 a2bb
000000e0: d0de 3abc e6f3 cf3d 26d7 c3bc 8aab 5bbd
000000f0: 109d 4dbc a7c7 4a3b 6942 083d 5ccf 1b3d
-0.08547848 0.08552769 -0.108147286 0.05117844 -0.087446034 -0.083628476 0.13085309 0.061519552
-0.103970855 -0.077211864 -0.084190115 0.08458241 -0.10825117 0.06789905 -0.11637879 0.107203126
-0.024874095 -0.0054647615 -0.05479374 0.03796816 0.09420945 -0.028542032 -0.09093795 -0.05761682
0.00470214 -0.0600128 0.040682714 -0.10071675 -0.034264177 -0.029126914 0.035348766 0.07389464
0.12632757 -0.09051098 0.061410263 0.09074291 0.0839697 -0.12260366 0.08160246 -0.100968376
-0.06937193 0.05808262 -0.069414355 0.018850945 -0.049894698 -0.064145185 -0.031086907 0.013012802
0.068436295 -0.015584806 0.061087098 0.07054442 -0.03924588 0.038303357 0.025377784 -0.0049464772
-0.011405662 0.10153942 -0.023906302 -0.05363039 -0.012549654 0.0030941756 0.03326646 0.03803955

bn3.weight f4 [64]
00000000: 29d9 7f3f 5bd9 7f3f ef74 7f3f 07c1 7b3f
00000010: 0b13 823f 2439 7e3f 26aa 803f 1e46 7c3f
00000020: 98dd 7e3f 808b 813f aec6 7e3f 885d 7e3f
00000030: 62af 803f fa87 813f 6adb 7b3f 5f25 7f3f
00000040: 1e8b 7e3f 015c 803f 84df 7e3f 338c 7c3f
00000050: b4fc 7d3f 15ca 813f 3065 813f 14d9 7e3f
00000060: fee7 7b3f ffcb 813f d767 7f3f 0bd4 803f
00000070: 73c4 7f3f 3882 7f3f c900 813f 44e4 813f
00000080: 8166 823f 0439 823f ab65 7e3f dbc0 823f
00000090: 289f 803f 8373 7f3f b475 803f 5ce7 833f
000000a0: ef0e 7d3f 8db4 803f 58b6 803f 2533 813f
000000b0: 2b09 813f a659 7f3f f99d 793f ed13 813f
000000c0: c30a 813f fa79 803f a790 7e3f f61b 7f3f
000000d0: 4e63 813f cc32 803f bc8a 7f3f ff77 803f
000000e0: 2782 803f 927d 803f 3484 833f 2280 7e3f
000000f0: a6a1 7b3f 2a0b 803f 7ccb 813f eae4 7e3f
0.99940735 0.99941033 0.997878 0.9834141 1.0162061 0.9930594 1.0051925 0.9854449
0.99556875 1.0120697 0.9952191 0.9936147 1.0053523 1.0119622 0.98381674 0.996664
0.99431026 1.0028077 0.9955981 0.9865143 0.9921372 1.0139796 1.0109005 0.99549985
0.98400867 1.014038 0.9976782 1.006471 0.9990913 0.99808073 1.0078365 1.0147786
1.0187532 1.017365 0.99373883 1.0215105 1.0048571 0.9978563 1.003592 1.030498
0.9885091 1.00551 1.0055647 1.0093733 1.0080923 0.9974617 0.9750667 1.0084206
1.0081409 1.0037224 0.9943947 0.9965204 1.010843 1.0015502 0.99821067 1.003662
1.0039719 1.0038321 1.027472 0.99414265 0.9829353 1.0003407 1.0140224 0.99568045

bn3.bias f4 [64]
00000000: fbee cc3a cfbe 9d38 13d2 513a fa48 903c
00000010: ff45 18bc eae5 2c3c 409f 333c 8add 6c3c
00000020: ebda 26bc c3d9 62bc d1d5 11bc 4197 2e3b
00000030: f68d 9f3c 572e 66bc 6be3 47bc 6677 593c
00000040: 13fb 80bb 5c44 95bb 5984 c0bc f066 28bc
00000050: 4332 203c f56d 5a3b 375b 33bb 4f58 e03a
00000060: 54b9 80bb 0dea 513c 4d0f fd3b 7f9c 40bc
00000070: 713b a7bc 2e6a 463a e792 a7bc 7c09 d8bc
00000080: 666f 04bb 1a51 1b3c 90b7 44bb a465 593c
00000090: 1b32 023c b246 b73b bbeb 1b3c 84ea a4bb
000000a0: a2b8 06bc 3df2 9a3b d0d3 493c 0316 af3c
000000b0: 8121 8abb 0b41 62ba de79 edbc ed50 493c
000000c0: d7d0 053c dc9b ca3c a28d a1bc cb4e 87bc
000000d0: 55ee 8abb 4424 e73c 6000 0f3d aed5 32ba
000000e0: 4826 7b3c cc47 7fbc 6f3c 31bc f898 28bb
000000f0: c67f aabc fbac ed3b d8ef afbc 8e37 0abd
0.0015635187 7.521884e-05 0.0008004021 0.017612923 -0.009294032 0.010552863 0.010963261 0.014457116
-0.01018403 -0.013845864 -0.008901075 0.0026640447 0.019476872 -0.014049134 -0.012200217 0.013273096
-0.0039361804 -0.004555268 -0.023500608 -0.010278448 0.009777608 0.00333297 -0.00273676 0.0017116162
-0.003928343 0.01281215 0.0077227713 -0.011756062 -0.020414086 0.00075689226 -0.02045579 -0.02637171
-0.0020208 0.009479785 -0.0030016638 0.013268862 0.007946516 0.0055931443 0.009516652 -0.0050328393
-0.008222731 0.004728584 0.012318566 0.0213728 -0.0042154198 -0.0008630908 -0.028988775 0.012287361
0.008167467 0.024732523 -0.019720856 -0.016517064 -0.004239837 0.028215535 0.034912467 -0.0006822002
0.015328951 -0.015581083 -0.010817631 -0.0025725942 -0.02081288 0.007253287 -0.021476671 -0.033744387

bn3.running_mean f4 [64]
00000000: 7672 ac3f c806 a83f 1f34 e73f 1aa7 f93f
00000010: 44b8 f23f 218c af3f d37b d43f e609 ba3f
00000020: ee59 fe3f 4d46 ce3f 92cd bf3f 9639 d03f
00000030: 3e22 be3f 9837 be3f 6e8c 0340 ea6b c33f
00000040: 3a0d bd3f 6d17 c83f 531a c63f 0d7e e33f
00000050: cf40 b13f aad0 d53f b223 d23f 051f c23f
00000060: 350a d03f b232 c13f e3b9 f63f c2d8 f13f
00000070: f199 1140 276e b93f 14c7 dd3f d64a c13f
00000080: 8f4e ef3f 8c06 ec3f 7096 ca3f f0b6 af3f
00000090: 43eb c13f 010f f93f d2c6 b33f 3b45 a03f
000000a0: 1832 0540 6868 1740 cd40 1b40 d9e2 c33f
000000b0: 19e0 b03f 3364 b73f fa5c 0640 5768 1440
000000c0: acd0 fd3f 660d 0340 3832 e43f 67ed 1040
000000d0: 9191 bc3f 1e11 ed3f ec9b aa3f 1aad b33f
000000e0: c3a6 0340 0cde e93f c9fd d93f f081 cc3f
000000f0: f9c1 d33f 155f cc3f 265b 913f 6cae df3f
1.3472431 1.312707 1.8062781 1.950412 1.8962483 1.3714639 1.6600288 1.4534271
1.9871194 1.6115204 1.498461 1.6267574 1.48542 1.4860716 2.0554461 1.5267308
1.4769661 1.5632149 1.5476784 1.7772843 1.3847903 1.6704304 1.6417143 1.5165716
1.6253115 1.5093596 1.9275478 1.8894274 2.2750208 1.4486741 1.7326379 1.5100963
1.8695849 1.8439498 1.582716 1.3727703 1.5149921 1.9457704 1.404505 1.2521127
2.0811825 2.3657475 2.4258301 1.5303603 1.3818389 1.4327453 2.0994248 2.3188684
1.9829307 2.0476928 1.7827826 2.26449 1.4731923 1.8520849 1.3328834 1.4037201
2.0570533 1.8270888 1.7030574 1.5977154 1.6543571 1.5966517 1.1355941 1.7475104

bn3.running_var f4 [64]
00000000: d768 e740 f2a0 a040 ac0c 4541 167c 4641
00000010: f518 f640 9f2f 2841 729c a540 f48f 0f41
00000020: 894d a741 4c54 db40 385a 0241 c7f8 1341
00000030: 29c6 2941 753d f440 2864 6241 c655 d440
00000040: 94c1 0f41 5125 0e41 9c20 0641 3aa3 4941
00000050: f783 9940 2e1b a640 ead0 9341 52d5 1141
00000060: 0b1a 9040 c135 b040 634d 9d41 cb21 1341
00000070: 84b3 0242 62d4 d240 bbc0 9e40 31f9 a540
00000080: 8a4e e240 0cb7 2741 59b5 ce40 11f8 b140
00000090: c10e ca40 3604 2541 9b73 d840 84d6 5340
000000a0: bac7 f040 7f65 a841 2c3d 2841 3a01 e940
000000b0: f9f5 ce40 0435 eb40 9b28 8141 7ab8 c741
000000c0: 9604 5241 3a34 0641 3e05 2441 876a 8641
000000d0: a5ba ec40 48b0 e340 c32e 0141 0c3c e340
000000e0: 4bbd e140 c1d9 3741 179c d840 0b79 9840
000000f0: eaa9 eb40 5941 eb40 4b6b 1e40 6cde ea40
7.231548 5.0196466 12.315594 12.405294 7.6905465 10.511626 5.1753473 8.972645
20.912859 6.85404 8.147026 9.248237 10.610879 7.632502 14.149452 6.6354704
8.98476 8.88411 8.382961 12.60235 4.797359 5.190818 18.477009 9.11458
4.503179 5.5065618 19.662786 9.19575 32.67531 6.5884256 4.9610267 5.186669
7.0720873 10.482189 6.459637 5.5615315 6.314301 10.313528 6.764112 3.309968
7.5243807 21.049559 10.514935 7.2813997 6.467526 7.3502216 16.144827 24.965076
13.12612 8.387751 10.25128 16.802015 7.3977838 7.1152687 8.073916 7.10108
7.054357 11.490663 6.769054 4.7647758 7.3644915 7.351727 2.4752986 7.339651

fc2.weight f4 [8, 64]
00000000: 53ba f7bc c5e1 9f3d 3797 d33c 60e0 a03d
00000010: 103c d2bd 7fd2 e03d 5f0b 943d cc3f e63c
00000020: 197e 2cbc 78a6 cfbc d12f 97bd ae5e 6d3d
00000030: 732b 00be 2575 903d bf65 2cbd 4ce2 3dbc
00000040: af25 debd 4109 913d deca c3bd 03a1 b2bc
00000050: 92d7 083c ac84 c23d cdac d0bd 4992 663c
00000060: 84d3 273d 797c 9b3d e1c9 a93c f508 43bd
00000070: da42 c2bd 53b3 b43d 1c6a cbbd a0f3 09be
00000080: 8275 09be cbbf 9f3c 38e8 ccbd 44f6 ebbc
00000090: 28c4 50bc 6090 103d 3d99 903d 7bf7 11be
000000a0: ed0e cd3d 4ba3 fa3c e44a 743d d4c8 4ebd
000000b0: 2a7b 9c3d 4e3a 0c3d c396 e8bc 68e9 e23d
000000c0: b26c c0bd 5922 dd3d 2abd 823c 2799 883b
000000d0: e252 adbd b8b2 5b3d 21ca 8f3d 4276 de3d
000000e0: 789d bb3d 5528 a0bd 46f7 80bd ad62 ce3d
000000f0: 8e9c d33d 8abe dd3d 843b afbd d281 c5bd
00000100: 8b83 0b3e 2205 0ebc 3586 7dbd f900 e0bd
00000110: d855 e2bc b448 3f3c 6c7a 1bbd df74 403d
00000120: 7a01 383c 4a9d 09be be9c a93d 3430 8bbd
00000130: f1d3 2d3d da53 013e d9c1 f1ba ff61 b8bd
00000140: 2e55 81bd 5871 f83d 0a9f afbd a92a 9bbd
00000150: 327d d93d a8dc 41bd 0102 443c db02 e73d
00000160: b0f0 00be 19c1 b4bd 4160 fa3d 37dc c6bc
00000170: 7250 45bc 1153 e5bd 39c0 c9bd f092 8cbd
00000180: 57ba a8bd 6c58 be3b f62b f0bc a8d6 efbc
00000190: 3ad9 a0bc 2f0f 8cbc 09e3 98bb 0a1a acbd
000001a0: 8183 3e3c 61be 253d 359d 333d f73e 773d
000001b0: ee73 d6bd 1c6e f3bd f780 a8bd 6df0 99bd
000001c0: 1df6 e5bd d32f 863d 1bf6 963c 0c98 b93c
000001d0: 28ac b43d 22b6 7d3d ef65 b5bc be78 f43d
000001e0: 914e 853d a53e e03d 7563 f6bd 1813 963d
000001f0: afc9 90bd e55b ddbc 0a83 36bd f849 b8bd
00000200: f530 e33c dbd1 06bd f5cc 3abd 6798 9abd
00000210: 62d2 9bbd 6802 b33d 871f 21bd 003c b33b
00000220: d5e9 a23d b4de 0ebd 6fc8 fb3c 19bc 993d
00000230: 1189 c8bd e0d0 ee3d 456c c23d 4465 e1bd
00000240: 65a4 b03d 73da d43d 643d 573d 6b02 4f3d
00000250: d9e6 87bd 2d91 acbd 9b9a c6bd b948 ea3d
00000260: c579 cd3d c211 63bd 902f 55bd 121d bebd
00000270: 5585 113d bf08 cebd 84d5 e13d 238a bd3d
00000280: d763 c3bd a872 b3bd 32cc fcbd eb61 cdbb
00000290: 9c04 1bbc 0565 e33d 0d56 293d 5e65 363d
000002a0: e987 273d d09c cbbd 8a8f 09bd fe6f 3f3d
000002b0: 5b68 13bd 0455 2e3d a4fd cd3d c7a5 86bd
000002c0: e722 b2bd 6503 9ebd c7df cdbc a4a6 2b3d
000002d0: d20c 873d 2fe0 82bd 46c6 52bd b95c 8d39
000002e0: 5b70 4abd d5fc 8c3d 674a 3d3d 31a0 303d
000002f0: 730b 1e3c 3636 7d3c 5477 843d 6e78 223d
00000300: f8bc 123d 4999 293c ce25 cebd 6d70 cd3d
00000310: 064b 88bd 5013 7b3c b82b 9d3d 0d3b a33d
00000320: 2c87 9f3d 10c1 01be 9541 3f3c 74de 8dbd
00000330: c6c4 f23d d3d4 9dbd a735 b33b c319 993d
00000340: b489 003e 45de 853d 8cdf c6bd 011b 77bd
00000350: 8f84 963d 9062 5a3d 2e1f 143b fa8c 9d3c
00000360: 4ebd 943d a628 b53d bdf9 a6bd 0003 e8bd
00000370: 0325 9d3c 6e7e f7bd d63e 99bd b602 92bd
00000380: 5e2f 8b3d 3a57 01bd a401 ae3d 9bfa e63d
00000390: 869e f83d 6815 853d 78a0 b33d d69f 733d
000003a0: 0224 69bd 25c6 043b 9fc1 83bd c90a ca3d
000003b0: 4d83 b0bd dce4 973d bec3 febc dcd2 36bd
000003c0: 4e3c c03d c1a3 9d3c b71b 42bd 9200 f2bd
000003d0: c5bc adbd b1fb 653d dee8 223d 1a23 8cbd
000003e0: f430 3b3d 6a1c 93bd df71 c8bd 9116 7d3b
000003f0: bb7f e6bd f83a 243d 873a a7bd 9a2d 8cbd
-0.030240213 0.07806734 0.02582894 0.07855296 -0.10265362 0.10977649 0.07228731 0.028106593
-0.010528111 -0.025347933 -0.07382167 0.05795162 -0.12516575 0.070535935 -0.04208922 -0.011589598
-0.10847031 0.07081843 -0.09560178 -0.021805292 0.008352177 0.094979614 -0.10189209 0.014072963
0.0409732 0.07592101 0.020726146 -0.047615964 -0.09485407 0.08823266 -0.09932348 -0.13471842
-0.13423732 0.019500634 -0.1000523 -0.028803952 -0.01274208 0.035293937 0.07060478 -0.14254563
0.100126125 0.030595442 0.059641734 -0.050484493 0.07640679 0.03423529 -0.028392201 0.11079675
-0.09395732 0.10797567 0.015959341 0.004168648 -0.08463074 0.053637236 0.07020975 0.108624
0.09160894 -0.07820193 -0.06297164 0.10077415 0.10332595 0.10827358 -0.085562736 -0.09643902
0.13624398 -0.008668216 -0.061895568 -0.109376855 -0.027628824 0.011675049 -0.037958547 0.046986457
0.011230821 -0.13438907 0.08281849 -0.067963034 0.04243845 0.12629643 -0.0018444612 -0.09003066
-0.06315075 0.121309936 -0.08575256 -0.07576496 0.10619582 -0.047329575 0.011963368 0.112798415
-0.12591815 -0.08825893 0.1222539 -0.024274928 -0.012043105 -0.11197484 -0.09851117 -0.068639636
-0.082386665 0.0058088806 -0.029317837 -0.02927716 -0.019634832 -0.017097084 -0.0046657366 -0.08403404
0.011628033 0.040464763 0.043851096 0.060362782 -0.104713306 -0.11886236 -0.08227723 -0.07516561
-0.11228583 0.065520905 0.0184279 0.02265551 0.08821899 0.061941274 -0.022143332 0.11937092
0.06509126 0.109494485 -0.12030689 0.073278606 -0.07069718 -0.027021358 -0.044558562 -0.089984834
0.027733305 -0.032914978 -0.04560562 -0.075486 -0.07608487 0.08740693 -0.039336707 0.005469799
0.07954756 -0.034880355 0.030735223 0.0750658 -0.09791768 0.116609335 0.09493307 -0.11005643
0.08625106 0.103932284 0.05254878 0.050539415 -0.066358276 -0.084261276 -0.096974574 0.11439652
0.10032991 -0.055436857 -0.052047312 -0.092828885 0.035527546 -0.10060262 0.11027053 0.09254863
-0.09540527 -0.08762103 -0.12343635 -0.0062677762 -0.009461548 0.11103252 0.04134183 0.044530265
0.0409011 -0.09942019 -0.033584155 0.046737663 -0.035988193 0.042561546 0.10058144 -0.06574588
-0.08698063 -0.07715491 -0.02513112 0.041906968 0.06594242 -0.06390416 -0.05145862 0.000269627
-0.049423557 0.068841614 0.046213534 0.04312152 0.009646284 0.015454819 0.064680725 0.039665632
0.035824746 0.010351487 -0.100658044 0.10031209 -0.066549346 0.015324429 0.07674354 0.079702474
0.07789454 -0.12671304 0.011673351 -0.06927195 0.11853938 -0.077066086 0.0054690423 0.07475617
0.1255253 0.06536535 -0.09710607 -0.060328487 0.07349502 0.053316653 0.0022601592 0.019232262
0.072626695 0.08845644 -0.081531025 -0.11328697 0.019182688 -0.120846614 -0.07482688 -0.07129423
0.06796144 -0.031577326 0.08496407 0.11278268 0.12139611 0.064982235 0.08770841 0.059478603
-0.056919105 0.0020259705 -0.06433415 0.09865338 -0.08618794 0.07416698 -0.031099197 -0.044634685
0.09386502 0.019243123 -0.047389712 -0.11816515 -0.084832706 0.056148235 0.03977286 -0.068426326
0.045700982 -0.07183154 -0.09787344 0.0038618187 -0.112548314 0.0400953 -0.0816546 -0.06844635

fc2.bias f4 [8]
00000000: 4a59 ed3d 6178 ba3d 4688 e83d f4c7 623d
00000010: 924b ba3b cd09 9b3d a216 c2bd 40d4 883d
0.11589296 0.09104992 0.11354117 0.05536647 0.005685278 0.07570229 -0.09476973 0.066811085

fc3.weight f4 [5, 8]
00000000: 89e4 2ebe 43c9 7dbe a9c9 96be e826 8e3e
00000010: 55c1 63be bb9a d73c 05a7 2e3e c300 0a3e
00000020: a0da 15be bcd2 a9be 3595 ac3d 7858 f6bc
00000030: 3028 1f3d 544d 183e b753 813d e183 9b3e
00000040: 3394 47be 2c6e 8d3e ae3d ab3e c89c a6be
00000050: 6470 8d3e ffee 203e 00d7 aa3d 836f 00be
00000060: ab76 2a3e 6c5f 9bbd 208a 27be 95ab fcbd
00000070: 4285 ab3d 366a 44be 4520 99be c23b 4dbe
00000080: 6d2b 573e e437 553e 8de9 623e 955a 7bbe
00000090: e63b b4be 6d51 053d d852 903e 0c5a 5abe
-0.17079367 -0.24783807 -0.2945073 0.27764058 -0.22241719 0.026318898 0.170559 0.13476853
-0.1463418 -0.3316859 0.084268965 -0.030071482 0.038856685 0.14873248 0.063147955 0.30374053
-0.19490127 0.27623117 0.33445495 -0.3254149 0.2762481 0.1571617 0.08341789 -0.12542538
0.1664683 -0.0758656 -0.16361284 -0.12337414 0.08375026 -0.19181141 -0.29907432 -0.20042327
0.2101266 0.20822102 0.22159405 -0.24546273 -0.3520195 0.032548357 0.28188205 -0.21323413

fc3.bias f4 [5]
00000000: 29bf 583e e9c5 1f3e 7e7a 813d 3e4b 9c3e
00000010: 7b45 8e3d
0.21166672 0.1560284 0.06322192 0.30526155 0.06946846
