tuning_results/best_models_during_tuning_lightning_logs/ratio_standGCN_best_model_during_tuning/checkpoints/epoch=631-train_loss=1.53-train_f1=0.30-val_loss=1.57-val_f1=0.30.ckpt (torch, 157362 bytes, 54 tensors)

conv1.bias f4 [64]
0.013856033 0.010240277 -0.0034647384 -0.007577773 -0.0007173684 -0.0031798994 -0.0069006057 0.0036286663
-0.005903144 -0.0029061937 0.00029383294 0.00096949155 -0.014261873 -0.012792433 -0.0060627353 0.0049656522
0.0023202207 -0.005344671 -0.018788617 -0.028530478 -0.018496403 0.008251875 0.015200724 -0.005981473
0.0062388694 -0.009889455 -0.030455645 0.004579244 -0.0031358118 0.00014180645 0.015425168 -0.0020820957
0.0001443242 -0.006180001 -0.004290535 0.009263921 0.011562332 -0.00488063 -0.008581626 0.0026923139
-0.017814923 -0.0060496596 0.005108553 0.02135153 0.010818381 0.01904096 -0.006662144 0.019064356
0.0026576598 -0.012102555 -0.004334971 0.016945628 0.0028810347 0.009429425 0.0036796094 0.00028697113
-0.009470933 0.009640681 -0.0071653747 -0.010065614 0.013168465 -0.0036599813 -0.010012102 0.005680941
00000000: 6a04 633c d6c6 273c aa10 63bb f84e f8bb
00000010: c70d 3cba dc65 50bb 7a1e e2bb ebce 6d3b
00000020: 296f c1bb d775 3ebb 970d 9a39 7a25 7e3a
00000030: a2aa 69bc 5a97 51bc e9a9 c6bb e9b6 a23b
00000040: d80e 183b 5a22 afbb 96ea 99bc c0b8 e9bc
00000050: c585 97bc df32 073c 750c 793c 3b00 c4bb
00000060: 6e6f cc3b 6107 22bc 1e7e f9bc 7c0d 963b
00000070: 3182 4dbb e1b1 1439 d8b9 7c3c c573 08bb
00000080: bc55 1739 9b81 cabb 9e97 8cbb b3c7 173c
00000090: ef6f 3d3c b1ed 9fbb f399 0cbc 8871 303b
000000a0: 9af0 91bc 393c c6bb a665 a73b 67e9 ae3c
000000b0: 943f 313c cafb 9b3c 1d4e dabb da2c 9c3c
000000c0: 222c 2e3b cb49 46bc 5f0c 8ebb 8fd1 8a3c
000000d0: becf 3c3b e07d 1a3c 9a25 713b 9d74 9639
000000e0: f92b 1bbc f2f3 1d3c 85cb eabb 3fea 24bc
000000f0: 8cc0 573c 4cdc 6fbb cd09 24bc 3027 ba3b

conv1.lin.weight f4 [64, 25]
0.044727683 0.15515767 0.079200685 -0.20259885 -0.25867698 -0.05517975 -0.09908191 0.08625687
0.12184663 0.2090834 0.14062968 0.20649026 0.12604581 -0.23659411 0.08967633 0.10246048
-0.07095829 -0.009875164 0.021149857 0.10962217 0.15177616 -0.044148892 0.20683713 0.040753767
0.17798352 -0.14323997 -0.17009518 0.018778214 0.09110944 0.12744758 -0.13039096 0.09019375
-0.02882087 0.16884637 0.24130987 0.10602078 -0.23396263 0.2284499 -0.15405314 -0.086767286
0.2323079 0.1655814 0.24121349 0.12573546 0.11095846 0.025440246 0.12137338 0.14013569
-0.021204798 -0.12737273 -0.102586284 0.23051287 -0.031491246 0.13612084 -0.12287436 -0.13056068
-0.070788935 -0.112014264 -0.17124538 -0.22730297 0.22838946 0.061424557 -0.26765034 -0.14173768
-0.07645121 -0.23233616 0.105359875 0.24275449 0.2306037 0.030857189 0.16302621 -0.20569569
-0.04460372 0.1301266 -0.07784065 -0.2264783 0.012161976 -0.25565913 0.0020483513 0.21617554
-0.051870327 -0.07647698 0.23014621 0.17002499 -0.14692318 0.057214953 -0.22182833 0.25463098
0.11176009 0.0971516 -0.15457706 -0.19616166 -0.14467344 -0.10693894 -0.17159283 0.08285268
-0.0003961393 -0.07326183 0.15014581 0.1651836 -0.18390292 0.10921053 0.152824 0.18011469
-0.056217667 -0.12547432 0.1793291 0.092936784 0.20851387 0.018460033 -0.1672339 -0.022701854
0.120932594 0.0034928783 -0.0115022175 -0.13432808 0.0023167867 -0.21930593 -0.14957145 0.15365002
-0.063060984 -0.17548795 -0.19400191 -0.2526499 0.124675274 -0.25997573 -0.20266217 -0.042441905
0.246746 -0.003857229 -0.023874681 -0.24926628 -0.16367675 0.074066 0.19869703 -0.09891844
0.05469016 0.14585519 -0.09752256 0.14673208 -0.07311017 0.15270407 -0.16425747 0.14494929
0.14011648 -0.16948 -0.11718035 -0.19073091 0.051364552 0.07642518 -0.23072726 0.25431812
-0.14392994 0.25110853 0.0022682631 -0.1661195 0.10424696 0.21570611 0.1738772 -0.2380966
0.039777946 -0.24864045 0.20121844 0.011790202 -0.07885125 0.23833834 -0.017024122 -0.026391132
0.031445917 -0.17340982 -0.011460745 0.17356645 -0.21827139 0.1242166 0.12912242 -0.035747677
0.18769524 0.0059937243 0.22688562 0.25263804 -0.2451586 0.18553069 0.14903212 0.19609435
0.22767259 0.21384026 0.21456268 -0.12395988 0.07035651 -0.036285613 -0.16769888 -0.18398555
-0.06958827 0.0139052635 -0.15404592 -0.026244747 0.20856299 0.11893341 -0.054444067 0.094959654
-0.20001799 0.14146765 -0.05328459 -0.20271887 -0.17098725 -0.18297185 -0.054783877 0.12894881
0.0684262 0.10667445 0.1256615 -0.0008045825 0.2496738 -0.22419101 -0.034274496 0.06448491
-0.23778293 0.014626436 0.13758872 0.21881512 -0.11632572 0.0982954 0.13208856 0.05051411
-0.119368665 0.2050775 -0.19115295 0.18219633 -0.2260665 0.22781335 -0.08504288 0.18057068
0.21430768 -0.0140039865 0.0071751084 -0.2533219 0.12015173 0.123851724 0.17124361 -0.12019307
0.236122 0.25548536 -0.12718424 0.17776197 -0.15210548 0.13062131 0.08692728 0.10280403
-0.05425274 -0.04360995 0.0209563 -0.21712075 0.2615897 0.18555029 -0.20129968 0.11268037
00000000: 6034 373d a7e1 1e3e f833 a23d 1376 4fbe
00000010: 4f71 84be 2904 62bd 75eb cabd 71a7 b03d
00000020: ba8a f93d f519 563e 3a01 103e 2f72 533e
00000030: 2712 013e ba45 72be 39a8 b73d cdd6 d13d
00000040: 9452 91bd 71cb 21bc 7742 ad3c 9781 e03d
00000050: 366b 1b3e 78d5 34bd 1dcd 533e 6ced 263d
00000060: 5041 363e 80ad 12be 6e2d 2ebe c5d4 993c
00000070: 9697 ba3d 9e81 023e 3585 05be 80b7 b83d
00000080: bf19 ecbc 10e6 2c3e ef19 773e 6c21 d93d
00000090: e693 6fbe c5ee 693e 1bc0 1dbe 0cb3 b1bd
000000a0: 1fe2 6d3e 2c8e 293e ab00 773e ccc0 003e
000000b0: 303e e33d 1068 d03c 9b92 f83d bb7f 0f3e
000000c0: afb5 adbc ff6d 02be c218 d2bd 910b 6c3e
000000d0: f7fc 00bd 4363 0b3e 8da5 fbbd b3b1 05be
000000e0: caf9 90bd bc67 e5bd f35a 2fbe 1cc2 68be
000000f0: edde 693e 5198 7b3d 7709 89be af23 11be
00000100: 7492 9cbd 88e9 6dbe ebc6 d73d a294 783e
00000110: 6023 6c3e 37c8 fc3c 58f0 263e e4a1 52be
00000120: 64b2 36bd e83f 053e eb6a 9fbd ede9 67be
00000130: 0643 473c c1e5 82be a23d 063b 1f5d 5d3e
00000140: fb75 54bd f69f 9cbd 73ab 6b3e 081b 2e3e
00000150: 0873 16be 3a5a 6a3d f726 63be fe5e 823e
00000160: 79e2 e43d 6bf7 c63d 7349 1ebe 9ade 48be
00000170: 4625 14be ce02 dbbd 08b6 2fbe aaae a93d
00000180: ebb0 cfb9 4c0a 96bd d3bf 193e e425 293e
00000190: 0c51 3cbe c5a9 df3d e57d 1c3e fc6f 383e
000001a0: 7f44 66bd 577c 00be 0ca2 373e a455 be3d
000001b0: a984 553e 7f39 973c 5d3f 2bbe 3df9 b9bc
000001c0: 82ab f73d c6e8 643b cc73 3cbc 4d8d 09be
000001d0: 3bd5 173b bc91 60be 4229 19be 6e56 1d3e
000001e0: 1e26 81bd 1db3 33be 70a8 46be 545b 81be
000001f0: c055 ff3d 8a1b 85be ac86 4fbe 90d7 2dbd
00000200: fcaa 7c3e 90c9 7cbb d694 c3bc a93f 7fbe
00000210: e19a 27be eaaf 973d 3c77 4b3e c095 cabd
00000220: ca02 603d 105b 153e e8b9 c7bd ef40 163e
00000230: c9ba 95bd 755e 1c3e 1c33 28be 966d 143e
00000240: b27a 0f3e 2a8c 2dbe 40fc efbd f74e 43be
00000250: a363 523d ce84 9c3d c443 6cbe fc35 823e
00000260: 5f62 13be 4c91 803e 24a7 143b 3b1b 2abe
00000270: 6e7f d53d 10e2 5c3e dd0c 323e 98cf 73be
00000280: 33ee 223d 9a9b 7ebe 350c 4e3e b12b 413c
00000290: c47c a1bd f70e 743e 2c76 8bbc 3732 d8bc
000002a0: 6fcd 003d 5892 31be d9c5 3bbc 67bb 313e
000002b0: 8982 5fbe 4665 fe3d ab38 043e 286c 12bd
000002c0: 2e33 403e 0167 c43b b454 683e c659 813e
000002d0: db0a 7bbe c2fb 3d3e e09b 183e f5cc 483e
000002e0: 0123 693e f1f8 5a3e 52b6 5b3e adde fdbd
000002f0: 1317 903d 39a0 14bd 41b9 2bbe b566 3cbe
00000300: 4b84 8ebd e7d2 633c 37be 1dbe 39ff d6bc
00000310: 8991 553e 5c93 f33d be00 5fbd 357a c23d
00000320: 84d1 4cbe e5dc 103e f140 5abd 8995 4fbe
00000330: 4817 2fbe f95c 3bbe 0f65 60bd 280b 043e
00000340: 0923 8c3d 2278 da3d 69ad 003e 9eea 52ba
00000350: 7daa 7f3e 5492 65be 6a63 0cbd aa10 843d
00000360: 5e7d 73be b8a3 6f3c 0fe4 0c3e 1211 603e
00000370: 2e3c eebd 194f c93d 3942 073e e2e7 4e3d
00000380: 8f77 f4bd d6ff 513e 99bd 43be ad91 3a3e
00000390: fa7d 67be e747 693e f62a aebd 85e7 383e
000003a0: 7973 5b3e fa70 65bc 2c1d eb3b 68b3 81be
000003b0: 1c12 f63d f9a5 fd3d 7c5a 2f3e c927 f6bd
000003c0: f7c9 713e face 823e 963c 02be 3c07 363e
000003d0: 8ac1 1bbe 98c1 053e ee06 b23d eb8a d23d
000003e0: 1f38 5ebd 59a0 32bd 8cac ab3c e754 5ebe
000003f0: 16ef 853e e500 3e3e 8121 4ebe f7c4 e63d

bn1.weight f4 [64]
0.9983264 1.00316 0.99062425 0.9970471 0.99483615 0.99325556 0.97352177 1.0029039
0.99475956 0.98662925 1.0055449 1.010973 0.9999151 1.0076426 0.9743953 0.9966985
0.99369705 1.0068911 0.9891812 0.9984201 1.0013454 1.0135974 1.0003031 1.0027032
1.0091898 0.9996414 0.9942286 0.9897939 0.9924904 0.994815 0.9905165 1.015374
0.9861559 1.0091218 1.0013143 1.0118601 1.0059395 0.99727 0.98133385 0.999255
1.004369 1.0072726 1.0117962 1.002495 1.0085948 0.99447554 0.98708576 0.98953485
0.9927141 1.0138631 1.0155305 1.0031344 0.9843248 0.9958 1.007084 1.0091898
0.997422 1.0090339 1.0016459 0.992397 0.99652296 1.0089422 1.0216551 1.0196053
00000000: 5292 7f3f 8c67 803f 8d99 7d3f 7b3e 7f3f
00000010: 95ad 7e3f ff45 7e3f b938 793f 285f 803f
00000020: 90a8 7e3f bc93 7c3f b2b5 803f 9067 813f
00000030: 70fa 7f3f 6ffa 803f f871 793f a227 7f3f
00000040: ee62 7e3f cfe1 803f fb3a 7d3f 7698 7f3f
00000050: 162c 803f 8fbd 813f ef09 803f 9458 803f
00000060: 222d 813f 80e8 7f3f c485 7e3f 2263 7d3f
00000070: da13 7e3f 32ac 7e3f 7d92 7d3f c6f7 813f
00000080: b774 7c3f e72a 813f 112b 803f a284 813f
00000090: a0c2 803f 164d 7f3f b238 7b3f 2dcf 7f3f
000000a0: 2a8f 803f 4fee 803f 8a82 813f c251 803f
000000b0: a219 813f f395 7e3f a7b1 7c3f 2852 7d3f
000000c0: 8322 7e3f 44c6 813f e7fc 813f b566 803f
000000d0: b6fc 7b3f c0ec 7e3f 21e8 803f 222d 813f
000000e0: 0c57 7f3f 0628 813f ef35 803f bb0d 7e3f
000000f0: 211c 7f3f 0525 813f 98c5 823f 6d82 823f

bn1.bias f4 [64]
0.0052902186 -0.014118614 0.0095881885 0.002322369 0.0028658584 -0.024766214 -0.026568031 0.033097398
0.00017212861 0.009201071 -0.015468042 -0.01115804 0.012777986 -0.009266127 0.011054161 0.014573365
0.00016290344 -0.006084652 -0.004672101 -0.011075564 -0.013065011 -9.708312e-05 -0.005384271 -0.0039219465
0.021438956 -0.017383056 0.0014085186 0.022338629 -0.0030013705 0.0019229386 0.022114795 0.008657828
-0.0034011547 -0.0017826047 0.000427236 -1.695439e-05 0.0037711165 -0.0032893817 -0.017789656 0.016342154
-0.017637681 -0.013701393 -0.01519274 0.015472014 0.0024002828 0.012756628 0.025181556 0.017429871
-0.0013769083 0.00087210146 -0.0032258483 -0.0045149056 -0.010387484 -0.0013247057 0.0008020411 0.0034585188
0.016503766 -0.00629278 0.02046981 -0.00085975847 0.0065122177 0.012892279 0.0012162206 0.010896764
00000000: 9259 ad3b c251 67bc c717 1d3c e332 183b
00000010: 20d1 3b3b 84e2 cabc 33a5 d9bc 2391 073d
00000020: 6c7d 3439 17c0 163c ac6d 7dbc 36d0 36bc
00000030: c25a 513c f4d0 17bc 831c 353c 20c5 6e3c
00000040: 0fd1 2a39 c361 c7bb 6c18 99bb 4876 35bc
00000050: a10e 56bc 1a99 cbb8 8a6e b0bb ac83 80bb
00000060: c0a0 af3c e966 8ebc 0b9e b83a 80ff b63c
00000070: a4b2 44bb 1d0b fc3a 162a b53c 90d9 0d3c
00000080: e8e5 5ebb 4aa6 e9ba a5fe df39 4639 8eb7
00000090: d624 773b ab92 57bb 9dbb 91bc fbdf 853c
000000a0: e67c 90bc cf7b 60bc f8ea 78bc 557e 7d3c
000000b0: 104e 1d3b 2d01 513c 8d49 ce3c 17c9 8e3c
000000c0: 6079 b4ba bd9d 643a c168 53bb c6f1 93bb
000000d0: 4430 2abc bfa1 adba 1140 523a 51a8 623b
000000e0: e832 873c aa33 cebb 4eb0 a73c 6a61 61ba
000000f0: 7164 d53b 233a 533c 9769 9f3a 5788 323c

bn1.running_mean f4 [64]
0.21680573 0.34661695 0.20017032 0.293459 0.30892572 0.30993834 0.15963167 0.281254
0.20127748 0.24787654 0.19832185 0.24937262 0.28429103 0.30455592 0.25035167 0.46401796
0.23849572 0.24777326 0.19033863 0.37515628 0.21790563 0.31861025 0.18236478 0.18369316
0.2352187 0.2542125 0.20776588 0.29612523 0.24377537 0.3167057 0.23963201 0.34716812
0.16759719 0.19113459 0.23929104 0.30496654 0.24626696 0.31944144 0.21009982 0.25940657
0.16492951 0.4676282 0.37292424 0.26172075 0.17996497 0.2772176 0.31228703 0.21667723
0.28369197 0.2644652 0.27772874 0.24646223 0.14382924 0.32379937 0.31992844 0.5186318
0.29134825 0.24912554 0.20490661 0.44223762 0.22805375 0.1742958 0.44845405 0.37573832
00000000: 5202 5e3e c777 b13e 73f9 4c3e 4240 963e
00000010: 832b 9e3e 3db0 9e3e 7c76 233e 8600 903e
00000020: af1b 4e3e 59d3 7d3e e214 4b3e 895b 7f3e
00000030: 988e 913e c1ee 9b3e 182e 803e c393 ed3e
00000040: 3938 743e 46b8 7d3e 21e8 423e 7c14 c03e
00000050: a722 5f3e e220 a33e d5bd 3a3e 0f1a 3c3e
00000060: 2cdd 703e 2428 823e 94c0 543e ba9d 973e
00000070: 40a0 793e 4027 a23e 1862 753e 05c0 b13e
00000080: 999e 2b3e c9b8 433e b608 753e 9324 9c3e
00000090: 682d 7c3e d48d a33e 6824 573e f0d0 843e
000000a0: 48e3 283e f76c ef3e edef be3e 4300 863e
000000b0: bd48 383e 77ef 8d3e 16e4 9f3e a3e0 5d3e
000000c0: 1340 913e fc67 873e 7632 8e3e 9860 7c3e
000000d0: f947 133e 08c9 a53e a9cd a33e 0ec5 043f
000000e0: 992b 953e c41a 7f3e 0ad3 513e f86c e23e
000000f0: ec86 693e 997a 323e c59b e53e c660 c03e

bn1.running_var f4 [64]
0.2614985 0.584713 0.07267689 0.206722 0.16300459 0.20658955 0.11539637 0.26952213
0.123312935 0.5371255 0.16715124 0.108543046 0.2263882 0.1908103 0.32791758 0.5036853
0.19000332 0.20556179 0.21382287 0.20790377 0.12777703 0.1829628 0.069262095 0.062254585
0.20754372 0.13917129 0.18478179 0.56543976 0.18508942 0.36067662 0.32069087 0.27459085
0.06606532 0.21770868 0.12924437 0.30689186 0.18598056 0.28878847 0.27551034 0.365036
0.07801778 0.502818 0.3456682 0.16041404 0.11338668 0.14649183 0.20462693 0.08995232
0.131773 0.17324233 0.23907904 0.21108004 0.067988254 0.28210434 0.1410799 0.80195177
0.29847965 0.18003325 0.23675328 0.41127673 0.1672879 0.10201626 0.6164801 0.19480097
00000000: 22e3 853e c0af 153f 9fd7 943d efae 533e
00000010: adea 263e 368c 533e ef54 ec3d cefe 893e
00000020: 7e8b fc3d 0f81 093f b229 2b3e d14b de3d
00000030: 4fd2 673e c663 433e d0e4 a73e 85f1 003f
00000040: 3b90 423e ca7e 523e 62f4 5a3e bae4 543e
00000050: fbd7 023e 9a5a 3b3e 49d9 8d3d aafe 7e3d
00000060: 5786 543e eb82 0e3e 7037 3d3e a9c0 103f
00000070: 1588 3d3e 9baa b83e 9831 a43e 2c97 8c3e
00000080: 414d 873d 06ef 5e3e a358 043e ee20 9d3e
00000090: b071 3e3e 15dc 933e b10f 8d3e 00e6 ba3e
000000a0: c9c7 9f3d aeb8 003f 6cfb b03e 9443 243e
000000b0: 4737 e83d f401 163e b989 513e ec38 b83d
000000c0: 80ef 063e 7066 313e 23d1 743e 5e25 583e
000000d0: 6d3d 8b3d fb6f 903e 4077 103e b64c 4d3f
000000e0: 53d2 983e a35a 383e 746f 723e dd92 d23e
000000f0: 854d 2b3e e7ed d03d a4d1 1d3f e879 473e

conv2.bias f4 [64]
0.015252286 0.014557786 -0.013209707 -0.007436835 0.019186838 -0.016836569 -0.009658636 0.008262338
-0.0006167218 -0.0028941706 0.0029120015 0.0042252825 0.0037647607 0.012839191 -0.004653977 0.013082927
0.023259891 0.004071128 0.016657785 0.020323271 0.009075957 -0.0043970267 0.002094937 -0.0010655142
0.017887982 0.012855837 -0.011651746 0.014314533 -0.02260802 0.007955409 -0.0104255555 0.012147171
0.00989873 0.014311129 -0.0023906322 -0.011140005 0.0008335806 -0.010423471 0.012543125 0.014842877
0.022199461 0.02068914 0.008744285 0.004693705 -0.0023854533 0.00034544352 -0.015056384 0.016511722
0.023339665 -0.011189474 -0.0036515493 -0.00065048516 -0.01631109 0.010421704 0.01579443 -0.010221036
0.007404741 0.00059982226 0.00026040923 0.01742532 -0.0031991054 -0.0032685802 0.0014388056 0.016122792
00000000: b9e4 793c c883 6e3c 876d 58bc b2b0 f3bb
00000010: b72d 9d3c d8ec 89bc 413f 1ebc c25e 073c
00000020: 80ab 21ba 20ac 3dbb 47d7 3e3b 3d74 8a3b
00000030: 34ba 763b 785b 523c 6480 98bb c659 563c
00000040: 878b be3c 1967 853b e875 883c fd7c a63c
00000050: 53b3 143c ef14 90bb 364b 093b b9a8 8bba
00000060: d189 923c 4aa1 523c f7e6 3ebc 8187 6a3c
00000070: 7434 b9bc 6757 023c f3cf 2abc ee04 473c
00000080: 482e 223c 3a79 6a3c 27ac 1cbb 9184 36bc
00000090: a684 5a3a 35c7 2abc ae81 4d3c 8a2f 733c
000000a0: a5db b53c 457c a93c 3144 0f3c a7cd 993b
000000b0: 4455 1cbb a51c b539 0daf 76bc 9743 873c
000000c0: d332 bf3c 0e54 37bc d54e 6fbb 5285 2aba
000000d0: d69e 85bc cbbf 2a3c 5263 813c 2276 27bc
000000e0: 78a3 f23b 643d 1d3a 8987 8839 8bbf 8e3c
000000f0: 15a8 51bb ad35 56bb 4e96 bc3a f213 843c

conv2.lin.weight f4 [64, 64]
0.21348664 -0.0077563496 -0.121341184 -0.06374383 0.051589184 -0.105325975 0.16693358 0.17311016
0.034234688 0.13713606 0.12505366 0.014843462 0.16239406 -0.18024065 -0.16220832 0.15186875
-0.10221154 0.20125443 -0.19437951 -0.03398897 0.03933524 -0.035402924 -0.16648601 -0.16008659
0.065108076 -0.040844012 -0.10820715 0.011742996 -0.011522599 -0.038974624 0.1817903 -0.17928782
-0.081607535 0.18944758 -0.11241321 -0.04305303 -0.021178003 -0.10539139 0.1876205 0.1771756
-0.0041610776 0.20465724 0.04711819 0.040239535 0.06641558 0.17055434 -0.07827136 0.06207875
0.16000512 0.0035566988 0.17857604 0.1103091 -0.16762476 0.10593477 -0.2067065 -0.15133244
0.16688716 -0.17832756 -0.08224304 -0.16029844 0.08860945 -0.20926708 -0.08017209 -0.11416672
-0.18703741 -0.0012670162 0.04233149 0.13174675 -0.14466631 -0.1692981 -0.06968802 -0.23377399
0.017234216 0.033678733 0.09996374 -0.2226321 0.08004513 -0.18663852 0.17016871 0.10632365
-0.102984734 0.055928316 0.18676451 -0.04541919 -0.021365054 -0.08403315 -0.08375235 0.12587723
0.11897036 0.07572522 -0.05035579 -0.094498634 0.015796402 0.025576906 0.10466655 -0.05585496
0.11976675 -0.18965887 0.1173389 0.18478379 -0.112623736 -0.059167173 -0.22342037 0.14776203
-0.21084614 0.15186387 0.040516663 -0.12421956 -0.06784767 0.19821112 -0.046450417 -0.15901394
-0.14946492 -0.042480085 -0.17430551 -0.058826067 -0.046049863 -0.10537267 0.2139896 0.003327993
0.101983145 0.064156264 -0.09884467 -0.07160769 0.09951728 0.14005099 -0.030908087 0.15876535
-0.18291067 0.098280914 0.17859378 -0.008883454 0.048059903 0.11274282 0.09307652 0.0036267291
0.16339482 0.004037986 -0.15293247 0.10584385 -0.19630063 -0.16263674 -0.0017769883 -0.032431487
-0.080665246 -0.070396386 -0.13402234 0.11262313 -0.09873532 0.11565229 -0.09079219 -0.20196664
-0.10099228 0.1973805 -0.1493374 -0.11136877 -0.23180562 -0.13157608 0.0866069 0.023647146
0.1169252 -0.07450072 0.19597386 -0.17883755 -0.119991936 0.065201506 -0.012366044 -0.070235595
0.13360766 -0.0020062646 0.05711019 0.05228433 0.00043255996 -0.0683011 -0.042780284 0.16975142
-0.05832088 -0.014743229 -0.005854225 0.09697182 0.034182332 -0.18183583 0.21503913 -0.123173706
-0.00860528 -0.13591298 -0.11952443 0.1440836 -0.07345235 0.034080986 -0.017725836 -0.22133878
0.07356268 0.07568097 -0.013386467 0.11123746 0.03465462 0.07846984 -0.20276202 -0.052132286
0.107907094 -0.0068667615 0.16319618 -0.010944081 0.008771224 -0.16778065 0.045799404 -0.047677044
0.08681324 0.12762298 -0.19975305 0.040955916 -0.09849167 0.17403266 -0.16699943 0.19804232
0.001361539 0.041998085 -0.015179483 0.20240577 -0.095349096 0.0070857373 -0.005639595 0.07626114
-0.13867606 0.21049884 -0.10778558 0.13417579 -0.06443064 -0.035624057 0.20479776 0.07909405
0.1886767 0.10971472 -0.08773782 0.19591556 0.15967365 -0.20611939 0.082638286 -0.100446805
-0.093055956 0.11011211 0.026598591 0.030433046 -0.19649713 -0.058089312 -0.11684368 -0.07110145
0.16237476 0.13724978 0.056596998 -0.11945355 -0.14969677 -0.19033782 -0.037584726 0.11174345
00000000: 3e9c 5a3e fa28 febb ba81 f8bd 208c 82bd
00000010: 2e4f 533d 25b5 d7bd a3f0 2a3e ca43 313e
00000020: ac39 0c3d 656d 0c3e 110e 003e fe31 733c
00000030: a14a 263e 0191 38be f019 26be 7b83 1b3e
00000040: 4954 d1bd a415 4e3e 6c0b 47be 0538 0bbd
00000050: fd1d 213d a802 11bd 4f7b 2abe bded 23be
00000060: 6257 853d 0d4c 27bd b69b ddbd b265 403c
00000070: 48c9 3cbc dba3 1fbd 3d27 3a3e 3a97 37be
00000080: da21 a7bd 8cfe 413e e638 e6bd 6058 30bd
00000090: 7e7d adbc 71d7 d7bd 971f 403e 856d 353e
000000a0: a659 88bb ab91 513e 01ff 403d 36d2 243d
000000b0: e404 883d cca5 2e3e bc4c a0bd 4a46 7e3d
000000c0: 62d8 233e 8117 693b a3dc 363e bde9 e13d
000000d0: d3a5 2bbe 54f4 d83d deaa 53be e4f6 1abe
000000e0: 78e4 2a3e 809b 36be 0a6f a8bd 4625 24be
000000f0: df78 b53d 1c4a 56be 4431 a4bd 3ed0 e9bd
00000100: bc86 3fbe 0212 a6ba c963 2d3d 9fe8 063e
00000110: 6823 14be 7b5c 2dbe 98b8 8ebd 7362 6fbe
00000120: c52e 8d3c b6f2 093d cab9 cc3d abf9 63be
00000130: b3ee a33d 2b1e 3fbe b540 2e3e 37c0 d93d
00000140: a9e9 d2bd 1715 653d 323f 3f3e 7909 3abd
00000150: c405 afbc 9219 acbd 5a86 abbd f6e5 003e
00000160: bba6 f33d d315 9b3d df41 4ebd 8088 c1bd
00000170: 7567 813c a986 d13c 6b5b d63d 2cc8 64bd
00000180: 4548 f53d ef35 42be 614f f03d f637 3d3e
00000190: 46a7 e6bd 4759 72bd 4fc8 64be ee4e 173e
000001a0: 0de8 57be 3482 1b3e cdf4 253d d366 febd
000001b0: b8f3 8abd dbf7 4a3e cb42 3ebd 8dd4 22be
000001c0: 550d 19be 99ff 2dbd 257d 32be 9af3 70bd
000001d0: c89e 3cbd a0cd d7bd 1720 5b3e 751a 5a3b
000001e0: 8adc d03d 5c64 833d 136f cabd 0da7 92bd
000001f0: b7cf cb3d 8769 0f3e f532 fdbc 6293 223e
00000200: ef4c 3bbe 8147 c93d 4ae1 363e e88b 11bc
00000210: 76da 443d b5e5 e63d e79e be3d 6bae 6d3b
00000220: f950 273e 1551 843b 549a 1cbe a9c4 d83d
00000230: 0803 49be 3f8a 26be d5e9 e8ba e1d6 04bd
00000240: d233 a5bd fb2b 90bd 273d 09be f5a6 e63d
00000250: be35 cabd 1cdb ec3d 41f1 b9bd 58d0 4ebe
00000260: 0ad5 cebd 1d1e 4a3e e7eb 18be 4f15 e4bd
00000270: 745e 6dbe e1bb 06be f55e b13d a9b7 c13c
00000280: 7b76 ef3d d593 98bd 5fad 483e 3121 37be
00000290: 55be f5bd 5e88 853d f39a 4abc aed7 8fbd
000002a0: 72d0 083e 897b 03bb 60ec 693d 1828 563d
000002b0: 37c9 e239 72e1 8bbd 613a 2fbd 51d3 2d3e
000002c0: e0e1 6ebd 968d 71bc ccd4 bfbb 2999 c63d
000002d0: c602 0c3d 2c33 3abe 3833 5c3e 7f42 fcbd
000002e0: 29fd 0cbc c62c 0bbe 39c9 f4bd a78a 133e
000002f0: 306e 96bd 8198 0b3d c635 91bc a2a6 62be
00000300: 08a8 963d a0fe 9a3d e952 5bbc 77d0 e33d
00000310: 01f2 0d3d ccb4 a03d d9a0 4fbe aa88 55bd
00000320: 65fe dc3d 9202 e1bb e61c 273e cd4e 33bc
00000330: 2eb5 0f3c b1ce 2bbe 2898 3b3d 0149 43bd
00000340: 24cb b13d 99af 023e 108c 4cbe 64c1 273d
00000350: 00b6 c9bd 9e35 323e e601 2bbe 9bcb 4a3e
00000360: ab75 b23a 2f06 2c3d 5eb3 78bc 7543 4f3e
00000370: 6346 c3bd 792f e83b 5acc b8bb cd2e 9c3d
00000380: 1901 0ebe 028d 573e b0be dcbd 6165 093e
00000390: 36f4 83bd 88ea 11bd 81b6 513e 10fc a13d
000003a0: 7734 413e 1cb2 e03d e3af b3bd 179e 483e
000003b0: 7d81 233e f610 53be 433e a93d 0eb7 cdbd
000003c0: 1f94 bebd 7582 e13d 4ae5 d93c b94e f93c
000003d0: 8b36 49be 0fef 6dbd bd4b efbd a39d 91bd
000003e0: 9245 263e 358b 0c3e 41d2 673d 10a4 f4bd
000003f0: 1c4a 19be ebe7 42be 71f2 19bd c0d9 e43d

bn2.weight f4 [64]
0.99838823 1.005623 0.9843909 0.99843246 1.005545 1.0044776 1.0147295 0.99511147
1.0015068 0.9874939 1.0088514 1.0039059 0.9984199 0.9858966 0.97190726 1.0045512
1.012302 0.9930467 1.0089977 0.99652195 0.99781597 1.0181544 1.0043468 0.99332505
1.002756 0.9917014 0.9975973 0.9994193 0.99247986 0.9954265 1.0023062 1.0130383
1.0060402 0.99190456 1.0017945 0.99142694 1.000488 1.0207987 1.003456 0.9893009
1.0146114 1.0084893 0.99318916 0.9992442 0.9987628 1.0040646 1.0092269 1.0011662
1.0159583 0.9842995 1.0012764 0.9890225 0.9948172 1.0002868 0.9975569 0.99011767
1.0045524 1.0007291 0.9977266 1.0088509 1.0095267 0.9968851 1.0054524 1.0012544
00000000: 5f96 7f3f 41b8 803f 0b01 7c3f 4599 7f3f
00000010: b3b5 803f b992 803f a8e2 813f a0bf 7e3f
00000020: 6031 803f 66cc 7c3f 0b22 813f fd7f 803f
00000030: 7298 7f3f b863 7c3f eace 783f 2295 803f
00000040: 1d93 813f 4f38 7e3f d626 813f 101c 7f3f
00000050: de70 7f3f e252 823f 708e 803f 8d4a 7e3f
00000060: 4f5a 803f 25e0 7d3f 8962 7f3f f1d9 7f3f
00000070: 2913 7e3f 45d4 7e3f 924b 803f 3dab 813f
00000080: edc5 803f 75ed 7d3f cd3a 803f 28ce 7d3f
00000090: fe0f 803f 88a9 823f 3f71 803f d342 7d3f
000000a0: c9de 813f 2d16 813f a541 7e3f 78ce 7f3f
000000b0: ebae 7f3f 3085 803f 592e 813f 3726 803f
000000c0: ec0a 823f 0dfb 7b3f d329 803f 9430 7d3f
000000d0: 57ac 7e3f 6609 803f e45f 7f3f 5a78 7d3f
000000e0: 2c95 803f e417 803f 036b 7f3f 0722 813f
000000f0: 2c38 813f dd33 7f3f aab2 803f 1b29 803f

bn2.bias f4 [64]
-0.008286989 0.0056105144 0.004733395 -0.013462571 -0.0037807338 0.008356342 0.0063950615 -0.0021784792
0.014883652 -0.013644141 0.008525396 0.01753797 0.014932646 0.0023750667 0.01659554 0.0034092513
0.0063315663 0.014982428 -0.006408217 0.013067578 0.0024603065 0.012606179 -0.00032658043 -0.0026343302
0.02926566 0.00561511 -0.0076503074 -0.0048803226 -0.010478566 -0.0028693967 -0.004588238 0.003443838
0.014110449 -0.0010368467 0.011161568 0.005446007 0.0078015868 0.0033268717 0.008570085 0.0025805417
-0.008468972 -0.010378859 -0.018446853 -0.004535745 -0.014700689 0.006702358 -0.0063468544 0.0064485963
-0.020409817 0.0047085006 0.0077020703 -0.017190827 0.002580248 0.0033683176 0.0003439097 0.014478067
-0.005492779 0.0041711414 0.004875366 -0.0002612395 -0.0022050592 0.0039587985 0.0073378715 0.0020527483
00000000: 27c6 07bc 68d8 b73b 981a 9b3b 1e92 5cbc
00000010: 30c6 77bb 0ae9 083c aa8d d13b d1c4 0ebb
00000020: 90da 733c ad8b 5fbc 1aae 0b3c caab 8f3c
00000030: 0fa8 743c 02a7 1b3b 5ff3 873c bf6d 5f3b
00000040: 0779 cf3b dc78 753c 05fc d1bb 6519 563c
00000050: 183d 213b 268a 4e3c e238 abb9 baa4 2cbb
00000060: 8abe ef3c f5fe b73b 6eaf fabb 1deb 9fbb
00000070: 4bae 2bbc 7d0c 3cbb ee58 96bb 04b2 613b
00000080: 832f 673c cde6 87ba 02df 363c 6b74 b23b
00000090: 74a4 ff3b a507 5a3b 8b69 0c3c 4e1e 293b
000000a0: 71c1 0abc 170c 2abc db1d 97bc 96a0 94bb
000000b0: 29db 70bc 749f db3b 46f9 cfbb bf4e d33b
000000c0: 7d32 a7bc c449 9a3b a661 fc3b c7d3 8cbc
000000d0: 6119 293b febe 5c3b c74e b439 6a35 6d3c
000000e0: c5fc b3bb 12ae 883b 89c1 9f3b f9f6 88b9
000000f0: c182 10bb cfb8 813b 8772 f03b 6787 063b

bn2.running_mean f4 [64]
0.58055097 0.36734253 0.5750646 0.38167164 0.5063797 0.32706413 0.33164102 0.4455638
0.5478498 0.43804592 0.5706997 0.4188148 0.45002118 0.44456756 0.29828256 0.44580865
0.45735115 0.4204923 0.41270086 0.5572821 0.5285159 0.7882617 0.59623 0.5552434
0.4180281 0.37232837 0.5529134 0.3031796 0.51544714 0.374223 0.29779497 0.6422732
0.3838765 0.32435638 0.39849746 0.61539006 0.4588215 0.40488032 0.49020347 0.45978585
0.5912242 0.37984234 0.5579295 0.29228827 0.48960498 0.5176637 0.36096343 0.36637744
0.39305514 0.47692192 0.33367828 0.37099525 0.4549423 0.50140554 0.70105857 0.33261123
0.55411565 0.6528952 0.40616685 0.59949434 0.43161875 0.54506415 0.43304512 0.45437497
00000000: fd9e 143f 5214 bc3e 6f37 133f 776a c33e
00000010: 1aa2 013f f374 a73e dacc a93e f020 e43e
00000020: e23f 0c3f 8e47 e03e 6019 123f e56e d63e
00000030: 2d69 e63e 5c9e e33e 7eb8 983e 0841 e43e
00000040: ee29 ea3e c44a d73e 874d d33e 0aaa 0e3f
00000050: d14c 073f 85cb 493f 87a2 183f 6e24 0e3f
00000060: c707 d63e d3a1 be3e bc8b 0d3f 5b3a 9b3e
00000070: 58f4 033f 289a bf3e 9578 983e 046c 243f
00000080: 768b c43e 0a12 a63e dc07 cc3e 348a 1d3f
00000090: a7ea ea3e 794c cf3e f3fb fa3e 0d69 eb3e
000000a0: 785a 173f b27a c23e 78d4 0e3f cfa6 953e
000000b0: 81ad fa3e 9c85 043f 33d0 b83e d395 bb3e
000000c0: 863e c93e 1c2f f43e e1d7 aa3e 17f3 bd3e
000000d0: 32ee e83e 1d5c 003f 9378 333f 054c aa3e
000000e0: 86da 0d3f 2424 273f 1af5 cf3e 7678 193f
000000f0: 22fd dc3e 5389 0b3f 17b8 dd3e d6a3 e83e

bn2.running_var f4 [64]
3.0711503 0.38111204 0.672894 1.0839636 1.006895 0.45669317 0.4160886 1.216264
1.0865239 0.7944006 0.8122914 0.93041396 1.0222064 0.5726139 0.2911197 0.47878444
0.48622414 0.59717613 0.70866567 0.5965497 0.94135725 3.0281653 0.8431862 1.1477615
0.66049176 0.5944566 0.7206023 0.36965197 1.0377885 0.42903933 0.378572 1.4802192
0.40264925 0.40168405 0.5495767 0.9320396 0.38120502 0.4263971 1.2996854 0.87614566
1.3330213 0.48597857 2.6427374 0.27759442 0.50662595 0.8392483 0.7643289 0.4043969
1.1883489 0.71912605 0.60377437 0.40999523 0.58986515 1.4752244 1.0277787 0.5009823
0.717569 1.2184787 0.30985668 0.8523236 0.7861838 0.70249796 0.74334073 1.1171552
00000000: ba8d 4440 1e21 c33e c842 2c3f 52bf 8a3f
00000010: efe1 803f b0d3 e93e 9109 d53e 8aae 9b3f
00000020: 3713 8b3f d65d 4b3f 54f2 4f3f 9c2f 6e3f
00000030: a9d7 823f d396 123f a40d 953e 3c23 f53e
00000040: 5ff2 f83e 89e0 183f 1d6b 353f 7bb7 183f
00000050: cafc 703f 76cd 4140 0ddb 573f d9e9 923f
00000060: fd15 293f 4f2e 183f 6479 383f 0643 bd3e
00000070: 41d6 843f 0bab db3e 30d4 c13e d377 bd3f
00000080: 0b28 ce3e 88a9 cd3e 0fb1 0c3f 269a 6e3f
00000090: 4e2d c33e b850 da3e 175c a63f 154b 603f
000000a0: 71a0 aa3f 2fd2 f83e 9c22 2940 db20 8e3e
000000b0: 3db2 013f fad8 563f 0fab 433f 1c0d cf3e
000000c0: d11b 983f a518 383f f590 1a3f e5ea d13e
000000d0: 6701 173f 27d4 bc3f 418e 833f 6040 003f
000000e0: 9ab2 373f 1cf7 9b3f 89a5 9e3e e131 5a3f
000000f0: 5743 493f e8d6 333f 944b 3e3f f1fe 8e3f

fc1.weight f4 [64, 64]
0.06332336 -0.016283935 -0.010526917 -0.007480908 0.040629 -0.042694733 -0.07171884 0.10529089
-0.028967747 0.011603789 0.03571412 -0.09226105 -0.070393175 0.03796805 -0.046217088 -0.0022373444
0.025353052 -0.04499221 0.020521443 -0.050362837 -0.02503076 -0.09608106 -0.03193394 0.079624966
0.05578548 0.005230793 -0.009818167 0.10114442 -0.02165073 0.06813522 0.026605805 -0.014077262
0.01802397 0.08276445 0.10496926 -0.08474664 -0.11265328 -0.05860216 -0.058689207 0.07459102
-0.09490448 -0.08882911 0.06920136 -0.10292147 0.091727324 0.03498904 0.07153521 0.020220114
-0.006006341 -0.08120702 0.09089407 -0.02361942 -0.045039486 -0.12636548 0.018059477 -0.10520118
-0.010838332 -0.09911742 0.07376987 0.059805267 0.069697954 -0.110165074 0.11272786 0.05800271
-0.0068364367 0.010246811 0.08743502 -0.11565992 0.02246813 0.033636324 0.044715628 -0.03568121
-0.0065928227 0.04209776 -0.05338573 0.046458248 0.12335019 -0.03493476 0.079890385 -0.0830184
0.037804812 0.013102257 -0.09583224 0.11343529 0.032624673 0.089217775 -0.060163595 0.10542787
0.036157932 0.041672718 -0.063351765 0.011727187 -0.061061196 0.014706965 -0.012140476 0.006496872
-0.113652006 0.031762563 -0.045065787 0.06708587 0.1291856 -0.05689825 0.060183425 -0.07298135
-0.017476875 -0.03666545 -0.09578694 -0.1076955 0.00080338353 -0.10509334 -0.07861926 0.09468909
0.003988936 0.08223603 0.11519557 0.08341967 -0.095323496 -0.05434812 -0.1310042 0.030369157
0.037013434 0.10892831 0.036879573 -0.031330213 -0.07883401 -0.034507386 -0.029990496 -0.06787486
0.04930701 0.065972626 -0.027262107 0.12145423 -0.08561942 0.07108572 -0.03728196 0.047609787
0.05796253 -0.062492177 -0.010469567 0.0060840985 -0.11020896 0.024256416 -0.090266086 0.11344659
0.01587643 -0.08768947 -0.047765266 -0.016244505 0.1020256 0.02308996 0.08504428 0.058463685
0.008187942 -0.10853967 0.06319491 0.037866957 -0.011032067 0.00018289192 0.038271833 0.11564565
-0.051612604 0.037210956 0.07230922 0.023642719 0.09971042 -0.07281901 0.026285456 -0.0967728
0.055661403 -0.0036529882 0.0054594334 0.12469685 0.10107383 -0.026536705 -0.0034339933 0.025772193
0.038086113 0.0009507324 0.06019638 0.1139722 -0.05178557 -0.074336864 0.040621717 -0.020648194
0.06464467 -0.03510987 0.03743725 0.06651292 -0.048328344 0.037779868 0.09116498 -0.0380641
0.024746358 0.09762504 -0.011799231 0.08031132 0.058364443 0.05636808 -0.10378221 0.10523218
-0.10499503 0.058091514 -0.022258744 -0.11113397 -0.11037711 -0.011225045 -0.082058705 -0.085516155
-0.016881535 0.046947025 0.056916118 -0.11220822 -0.11838647 -0.06673187 0.0112245185 0.028053928
-0.08033142 0.06487726 -0.018846273 -0.097440936 -0.02348456 -0.021869088 -0.044865824 0.05449
-0.013432537 0.08009516 0.11810107 0.037342183 -0.07647 -0.09098125 -0.06260687 -0.060311053
-0.08891768 -0.03545966 -0.05654607 0.07485319 0.06978889 0.05497805 -0.105957784 0.019165587
0.11210105 0.021637915 -0.108053945 0.13397466 0.11222428 0.051349238 0.05318964 -0.03447478
0.07048139 0.055580445 0.13047071 -0.12597749 -0.07471328 -0.019741539 -0.004364342 -0.06541003
00000000: aeaf 813d e365 85bc 1779 2cbc 6822 f5bb
00000010: 986a 263d ace0 2ebd 54e1 92bd c0a2 d73d
00000020: c54d edbc d21d 3e3c f848 123d 5df3 bcbd
00000030: 4c2a 90bd 6384 1b3d 214e 3dbd 69a0 12bb
00000040: 34b1 cf3c c049 38bd 961c a83c 4349 4ebd
00000050: 4f0d cdbc 26c6 c4bd 2acd 02bd 6a12 a33d
00000060: 517f 643d 1267 ab3b 61dc 20bc ce24 cf3d
00000070: df5c b1bc 7a8a 8b3d 6bf4 d93c 51a4 66bc
00000080: 01a7 933c 6880 a93d 20fa d63d a58f adbd
00000090: c3b6 e6bd d208 70bd 1864 70bd 2dc3 983d
000000a0: 485d c2bd 09ec b5bd 71b9 8d3d 7ec8 d2bd
000000b0: 89db bb3d ab50 0f3d 0d81 923d a7a4 a53c
000000c0: d7d0 c4bb de4f a6bd ac26 ba3d 847d c1bc
000000d0: 537b 38bd f465 01be 78f1 933c b773 d7bd
000000e0: 4293 31bc 13fe cabd a814 973d 5ef6 743d
000000f0: cdbd 8e3d 3a9e e1bd dddd e63d 4094 6d3d
00000100: 3004 e0bb 3ee2 273c 2211 b33d 1cdf ecbd
00000110: 150f b83c 3ec6 093d bc27 373d 7626 12bd
00000120: 9b08 d8bb b36e 2c3d ffaa 5abd 014b 3e3d
00000130: 069f fc3d c017 0fbd 929d a33d 8d05 aabd
00000140: 38d9 1a3d d9aa 563c b243 c4bd c350 e83d
00000150: 73a1 053d cfb7 b63d 1a6e 76bd 91ea d73d
00000160: 571a 143d 03b1 2a3d 92be 81bd 6323 403c
00000170: 4e1b 7abd 7bf5 703c d9e8 46bc b6e3 d43b
00000180: 62c2 e8bd 7619 023d e796 38bd 5164 893d
00000190: 3b49 043e 240e 69bd e582 763d 3f77 95bd
000001a0: aa2b 8fbc 832e 16bd f12b c4bd 758f dcbd
000001b0: 289a 523a 2d3b d7bd 2203 a1bd 5bec c13d
000001c0: 9fb5 823b 5d6b a83d a8eb eb3d efd7 aa3d
000001d0: f738 c3bd 229c 5ebd f725 06be bdc8 f83c
000001e0: 669b 173d ce15 df3d 090f 173d 1c54 00bd
000001f0: ba73 a1bd 9e57 0dbd a1ae f5bc f901 8bbd
00000200: 26f6 493d a81c 873d c854 dfbc ffbc f83d
00000210: 3c59 afbd 6495 913d f8b4 18bd 7b02 433d
00000220: 1e6a 6d3d ccf7 7fbd 8c88 2bbc 1e5d c73b
00000230: 3cb5 e1bd 64b5 c63c 6ddd b8bd b056 e83d
00000240: 490f 823c 8996 b3bd 83a5 43bd 3213 85bc
00000250: ccf2 d03d 2827 bd3c b22b ae3d 9e77 6f3d
00000260: b826 063c 0c4a debd 556c 813d 621a 1b3d
00000270: d8bf 34bc adc6 3f39 edc2 1c3d a0d7 ec3d
00000280: bd67 53bd 846a 183d db16 943d 60ae c13c
00000290: fa34 cc3d 2222 95bd 9954 d73c d130 c6bd
000002a0: 36fd 633d f966 6fbb 0ce5 b23b 1061 ff3d
000002b0: ccff ce3d 8163 d9bc d90c 61bb 3520 d33c
000002c0: 2f00 1c3d 923a 793a 7b90 763d 426a e93d
000002d0: 1b1d 54bd ed3d 98bd f562 263d 6726 a9bc
000002e0: 6d64 843d 5ecf 0fbd cd57 193d ed37 883d
000002f0: f1f3 45bd 10bf 1a3d b4b4 ba3d 1ae9 1bbd
00000300: e0b8 ca3c a3ef c73d 9051 41bc 437a a43d
00000310: 8e0f 6f3d 37e2 663d c48b d4bd f883 d73d
00000320: a207 d7bd 5ef1 6d3d f857 b6bc 359a e3bd
00000330: 650d e2bd 40e9 37bc 650e a8bd 1823 afbd
00000340: 254b 8abc 864b 403d e020 693d 6ccd e5bd
00000350: 9b74 f2bd b8aa 88bd 0be7 373c 5ad1 e53c
00000360: cd84 a4bd 5ede 843d 8063 9abc 1d8f c7bd
00000370: b162 c0bc cd26 b3bc 3ac5 37bd e830 5f3d
00000380: 2514 5cbc ee08 a43d f9de f13d 1ef4 183d
00000390: 4e9c 9cbd 6154 babd 0838 80bd b908 77bd
000003a0: 791a b6bd 263e 11bd da9c 67bd a14c 993d
000003b0: 7aed 8e3d aa30 613d 6500 d9bd 2601 9d3c
000003c0: 3c95 e53d ff41 b13c 634b ddbd a730 093e
000003d0: d8d5 e53d 9453 523d 61dd 593d 6d35 0dbd
000003e0: 8c58 903d 52a8 633d 1d9a 053e 3e00 01be
000003f0: 4703 99bd 02b9 a1bc c102 8fbb b2f5 85bd

fc1.bias f4 [64]
-0.08574663 0.08541162 -0.1080437 0.050777767 -0.08710353 -0.08348784 0.13116112 0.061407696
-0.10401376 -0.07721761 -0.083833754 0.08475967 -0.10821154 0.067797974 -0.1162239 0.10713995
-0.025028426 -0.0050349208 -0.054669317 0.03785291 0.094097555 -0.02827961 -0.09087674 -0.0577816
0.004849657 -0.060116995 0.040770456 -0.10087866 -0.034118075 -0.028690776 0.03545228 0.073856466
0.12610693 -0.090338714 0.061506893 0.09085018 0.08383943 -0.12261874 0.08192954 -0.10128071
-0.069283195 0.058049474 -0.069344595 0.01900042 -0.049610812 -0.06428107 -0.030845737 0.01305372
0.068433955 -0.015751172 0.061155558 0.07077192 -0.03908847 0.038208567 0.025549255 -0.0049519646
-0.0116105 0.101465136 -0.02392105 -0.05392239 -0.012458587 0.0033070897 0.033162024 0.03833685
00000000: ee9b afbd 4aec ae3d 0446 ddbd 59fc 4f3d
00000010: 5663 b2bd acfb aabd 1a4f 063e a386 7b3d
00000020: 2b05 d5bd 4424 9ebd 08b1 abbd 7a96 ad3d
00000030: 039e ddbd aad9 8a3d cc06 eebd 316c db3d
00000040: 6a08 cdbc fafb a4bb efec 5fbd a70b 1b3d
00000050: 38b6 c03d a4aa e7bc 961d babd 66ac 6cbd
00000060: dfe9 9e3b 3d3d 76bd ecfe 263d 7999 cebd
00000070: 65bf 0bbd eb08 ebbc 6936 113d 0f42 973d
00000080: 2d22 013e 8103 b9bd a7ee 7b3d a90f ba3d
00000090: 02b4 ab3d 891f fbbd adca a73d 436c cfbd
000000a0: 59e4 8dbd 49c5 6d3d 8a04 8ebd c5a6 9b3c
000000b0: b534 4bbd cba5 83bd 33b0 fcbc 45df 553c
000000c0: 1a27 8c3d 9a08 81bc 407e 7a3d def0 903d
000000d0: 3b1b 20bd 9680 1c3d ac4c d13c 1744 a2bb
000000e0: f739 3ebc f4cc cf3d 14f6 c3bc b9dd 5cbd
000000f0: 1a1f 4cbc c2bb 583b e7d4 073d 1a07 1d3d

bn3.weight f4 [64]
0.99957985 0.9993996 0.9979779 0.98346955 1.0164902 0.99313384 1.0053749 0.9853788
0.9956644 1.0123676 0.9953388 0.9936505 1.0054265 1.0123549 0.9836519 0.9968222
0.9943786 1.0030515 0.995457 0.98661166 0.9922218 1.0141025 1.0109541 0.99555314
0.9841242 1.0143393 0.9980102 1.0065476 0.9990652 0.99802893 1.0078285 1.0150898
1.0191333 1.017717 0.99364835 1.0219631 1.0047834 0.9978928 1.0036403 1.0310774
0.98854023 1.0055507 1.0057715 1.0098392 1.0084867 0.9977282 0.9749093 1.0084871
1.0080888 1.0039018 0.9945946 0.9967389 1.011333 1.0019453 0.99846435 1.004028
1.004019 1.0037707 1.028131 0.9943408 0.98322695 1.0007288 1.0144012 0.9956507
00000000: 77e4 7f3f a7d8 7f3f 7b7b 7f3f a9c4 7b3f
00000010: 5a1c 823f 053e 7e3f 20b0 803f c941 7c3f
00000020: dde3 7e3f 4395 813f 86ce 7e3f e15f 7e3f
00000030: d1b1 803f d894 813f 9cd0 7b3f bd2f 7f3f
00000040: 998f 7e3f fe63 803f 45d6 7e3f 9592 7c3f
00000050: 3f02 7e3f 1cce 813f f266 813f 92dc 7e3f
00000060: 90ef 7b3f dfd5 813f 997d 7f3f 8dd6 803f
00000070: bdc2 7f3f d37e 7f3f 8600 813f 76ee 813f
00000080: f672 823f 8d44 823f bd5f 7e3f b0cf 823f
00000090: be9c 803f e775 7f3f 4977 803f 58fa 833f
000000a0: f910 7d3f e3b5 803f 1fbd 803f 6942 813f
000000b0: 1816 813f 1e6b 7f3f a893 793f 1b16 813f
000000c0: 0e09 813f db7f 803f c09d 7e3f 482a 7f3f
000000d0: 5c73 813f be3f 803f 5c9b 7f3f fd83 803f
000000e0: b283 803f 8f7b 803f cc99 833f 1e8d 7e3f
000000f0: c3b4 7b3f e217 803f e6d7 813f f7e2 7e3f

bn3.bias f4 [64]
0.0018001272 0.00018634932 0.00057762064 0.017873095 -0.009309481 0.01089726 0.011232342 0.014695722
-0.010176291 -0.014330149 -0.008748214 0.0026583276 0.019550381 -0.014262866 -0.012526425 0.013297823
-0.0037822493 -0.004525126 -0.02405733 -0.010398432 0.009998493 0.0033007597 -0.002838169 0.0019694774
-0.0040744366 0.0131808575 0.00781935 -0.011947648 -0.020732818 0.0008100047 -0.020769652 -0.026914608
-0.0019296695 0.009284504 -0.0029349774 0.01335678 0.008103102 0.0055691483 0.009506399 -0.005125557
-0.008468021 0.00478066 0.012237125 0.02169654 -0.0041222237 -0.0009610168 -0.029397182 0.012235672
0.008319328 0.024828259 -0.019658705 -0.01698556 -0.004458748 0.028729038 0.03523111 -0.00080560363
0.015514582 -0.0157995 -0.011330482 -0.0026829173 -0.021228291 0.0077320454 -0.021568255 -0.034040116
00000000: 3ff2 eb3a c466 4339 776b 173a 996a 923c
00000010: cb86 18bc 6c8a 323c db07 383c 53c6 703c
00000020: 75ba 26bc 00c9 6abc ab54 0fbc 5637 2e3b
00000030: 1f28 a03c ccae 69bc a23b 4dbc 1ddf 593c
00000040: 9ddf 77bb 8247 94bb e113 c5bc 2f5e 2abc
00000050: b8d0 233c 8f51 583b 9300 3abb 5912 013b
00000060: da82 85bb 86f4 573c bb1c 003c 11c0 43bc
00000070: dfd7 a9bc 7f56 543a 1e25 aabc 067c dcbc
00000080: f7ec fcba 081e 183c c058 40bb 65d6 5a3c
00000090: e0c2 043c 677d b63b bac0 1b3c 4af4 a7bb
000000a0: 74bd 0abc 15a7 9c3b 397e 483c f1bc b13c
000000b0: b813 87bb bfec 7bba 5cd2 f0bc 2178 483c
000000c0: ca4d 083c a264 cb3c 4b0b a1bc 4d25 8bbc
000000d0: b01a 92bb 2959 eb3c 7f4e 103d 252f 53ba
000000e0: e030 7e3c f46d 81bc 7ca3 39bc e2d3 2fbb
000000f0: f4e6 adbc 195d fd3b e9af b0bc a66d 0bbd

bn3.running_mean f4 [64]
1.3123128 1.3141407 1.8413311 2.0073411 1.8307054 1.378606 1.6722132 1.4519325
2.0594487 1.6138085 1.5053797 1.6627595 1.4662215 1.463874 2.0755074 1.580147
1.5070068 1.6190153 1.5035203 1.7407544 1.3622587 1.687335 1.6326237 1.4842145
1.6232669 1.4889117 1.9799371 1.965785 2.2572718 1.4823319 1.710349 1.5056043
1.8683013 1.7727537 1.595607 1.3860018 1.5280606 1.9954989 1.4024053 1.2488164
2.1019986 2.365796 2.4323235 1.549168 1.4113084 1.4528201 2.117925 2.3578708
1.9868195 2.047957 1.8122842 2.302657 1.480467 1.8655846 1.317235 1.404743
2.0359983 1.7776259 1.7312673 1.5525796 1.6517736 1.5646583 1.1508052 1.7046391
00000000: def9 a73f c335 a83f bdb0 eb3f 4778 0040
00000010: 8e54 ea3f 2976 b03f 150b d63f edd8 b93f
00000020: 02ce 0340 4791 ce3f 48b0 c03f 4ed5 d43f
00000030: 25ad bb3f 3960 bb3f 1dd5 0440 4242 ca3f
00000040: 99e5 c03f e53b cf3f 5a73 c03f 0ad1 de3f
00000050: 7e5e ae3f 98fa d73f d0f9 d03f befa bd3f
00000060: 36c7 cf3f a994 be3f 946e fd3f d89e fb3f
00000070: 2477 1040 0dbd bd3f b7ec da3f a4b7 c03f
00000080: 7f24 ef3f 98e9 e23f da3c cc3f 8268 b13f
00000090: 7d97 c33f 826c ff3f 0482 b33f 37d9 9f3f
000000a0: 2587 0640 3469 1740 30ab 1b40 234b c63f
000000b0: c1a5 b43f 02f6 b93f 158c 0740 5be7 1640
000000c0: 1a50 fe3f ba11 0340 eef8 e73f bb5e 1340
000000d0: f17f bd3f 7acb ee3f 289b a83f 9ece b33f
000000e0: cc4d 0240 3f89 e33f 2b9a dd3f eeba c63f
000000f0: 516d d33f b946 c83f 964d 933f 9d31 da3f

bn3.running_var f4 [64]
6.390391 4.779249 12.711074 12.681143 7.290092 11.027035 5.319649 8.809104
22.537312 6.760996 8.053758 9.438343 9.953982 7.8474336 14.919454 7.181184
9.345622 10.729261 7.7769527 12.182279 4.647947 5.4583573 20.973753 9.030449
4.1422048 5.4803524 22.403185 9.381781 32.86551 7.104049 5.0836177 5.001944
7.151458 9.710841 6.5962443 5.9541087 6.0957227 11.287712 7.369179 3.4804919
7.567347 20.344234 10.5565815 7.7871337 6.9138145 7.924824 15.570273 26.378176
13.631852 8.466518 11.015601 16.318983 7.509245 7.0547323 7.854562 7.4639683
7.245704 9.652804 7.318306 4.5414176 6.8086686 7.377596 2.8525412 7.140149
00000000: 157e cc40 9cef 9840 8f60 4b41 f6e5 4a41
00000010: 6f48 e940 bc6e 3041 913a aa40 17f2 0c41
00000020: 6a4c b441 145a d840 31dc 0041 7403 1741
00000030: 8343 1f41 2d1e fb40 15b6 6e41 42cc e540
00000040: ab87 1541 0eab 2b41 ccdc f840 9dea 4241
00000050: fbbb 9440 ddaa ae40 3fca a741 b87c 1041
00000060: f18c 8440 0c5f af40 b939 b341 c61b 1641
00000070: 4876 0342 5f54 e340 ffac a240 ed0f a040
00000080: bed8 e440 9b5f 1b41 6f14 d340 0f88 be40
00000090: 2910 c340 789a 3441 50d0 eb40 61c0 5e40
000000a0: b527 f240 fec0 a241 c2e7 2841 3330 f940
000000b0: f83d dd40 2998 fd40 d71f 7941 8106 d341
000000c0: 111c 5a41 dc76 0741 e73f 3041 478d 8241
000000d0: bc4b f040 5ec0 e140 9258 fb40 d4d8 ee40
000000e0: cfdc e740 e371 1a41 902f ea40 4b53 9140
000000f0: 9de0 d940 4415 ec40 0990 3640 1a7c e440

fc2.weight f4 [8, 64]
-0.030031547 0.07812212 0.025882656 0.07860212 -0.102732666 0.109794766 0.07253196 0.0283243
-0.010546926 -0.025244303 -0.07399435 0.058242735 -0.12535515 0.07070711 -0.04190154 -0.011735358
-0.10861695 0.07074502 -0.0953353 -0.021767743 0.008311401 0.09501462 -0.10178826 0.014090083
0.04115698 0.07564479 0.020987883 -0.047681935 -0.09480885 0.08809386 -0.09953056 -0.13487269
-0.13443832 0.019441724 -0.09988479 -0.028755663 -0.01261688 0.035332017 0.07057247 -0.14281927
0.10018222 0.030486139 0.05946123 -0.05062049 0.07662438 0.034165185 -0.028241394 0.110905424
-0.093649566 0.107982896 0.016097136 0.004144076 -0.08460651 0.053525552 0.07039144 0.1085658
0.09174845 -0.07808743 -0.06325486 0.100993246 0.103918485 0.108448125 -0.08587267 -0.096345015
0.13664061 -0.008701171 -0.061870333 -0.109406844 -0.027661625 0.01168292 -0.037993252 0.046781413
0.011296621 -0.13453667 0.083051994 -0.0678762 0.042444866 0.12661093 -0.001797064 -0.09007236
-0.06300233 0.12141686 -0.085525624 -0.075818576 0.10613191 -0.047445796 0.01200708 0.11284889
-0.12607013 -0.08840449 0.122493826 -0.024510207 -0.011947293 -0.112037584 -0.098505415 -0.06852603
-0.0824077 0.0059881615 -0.029401705 -0.029473675 -0.01975602 -0.017189847 -0.0044872253 -0.08400186
0.011621376 0.04046154 0.043763865 0.06049772 -0.10491188 -0.1191532 -0.082205996 -0.0751003
-0.11236722 0.065460645 0.018170023 0.022644604 0.08849672 0.061828066 -0.02236121 0.11976304
0.06494722 0.10948244 -0.1204991 0.07343071 -0.07055575 -0.026986277 -0.044686466 -0.09007091
0.02776041 -0.033057995 -0.045686115 -0.0754829 -0.07627764 0.08750477 -0.039297387 0.005289052
0.07958732 -0.03512454 0.030717872 0.07501413 -0.09805355 0.1168496 0.09490513 -0.1102366
0.08628284 0.10394345 0.05240791 0.050637916 -0.066529445 -0.08432164 -0.096981116 0.1144416
0.10000642 -0.055845726 -0.05200008 -0.092983834 0.035498492 -0.100587055 0.10996867 0.09264186
-0.09550639 -0.08788895 -0.12362136 -0.006453779 -0.009491788 0.1111289 0.04135503 0.044599257
0.04082118 -0.09940077 -0.033536132 0.046842735 -0.036163475 0.04234294 0.10055558 -0.06584578
-0.08703035 -0.077354155 -0.025210045 0.04175191 0.06594484 -0.06396049 -0.05160517 0.00037615205
-0.04947024 0.06884073 0.04606828 0.04312281 0.009606228 0.01541708 0.06481446 0.03968512
0.035593133 0.010166042 -0.100678384 0.1003801 -0.06658964 0.015155165 0.07677552 0.07963023
0.07790626 -0.12676652 0.01148775 -0.06926699 0.11857432 -0.07741819 0.0053704637 0.07492409
0.12551144 0.06557262 -0.09737089 -0.06035356 0.07365106 0.05351278 0.0022239292 0.019216523
0.07280988 0.08884412 -0.081825085 -0.11317794 0.019239213 -0.12082323 -0.075116545 -0.071652025
0.06807309 -0.031922158 0.08484838 0.11303575 0.121367574 0.06500201 0.08771979 0.059889715
-0.056884985 0.002083049 -0.064451076 0.0988855 -0.08623203 0.074303664 -0.031159095 -0.044676203
0.09380588 0.018855289 -0.04740032 -0.11851123 -0.08535749 0.056258947 0.04005121 -0.06864262
0.045631014 -0.071896434 -0.09815436 0.0035576678 -0.11276718 0.040158205 -0.08210394 -0.06853293
00000000: b804 f6bc 7dfe 9f3d dd07 d43c 26fa a03d
00000010: 8165 d2bd 14dc e03d a38b 943d 5d08 e83c
00000020: 04cd 2cbc 24cd cebc 5a8a 97bd ef8f 6e3d
00000030: 1a5d 00be e4ce 903d f3a0 2bbd a945 40bc
00000040: 9072 debd c4e2 903d 273f c3bd 4452 b2bc
00000050: 8b2c 083c 0697 c23d 5d76 d0bd 17da 663c
00000060: 3994 283d a8eb 9a3d c8ee ab3c 224e 43bd
00000070: 242b c2bd 8e6a b43d aed6 cbbd 111c 0abe
00000080: 33aa 09be 4044 9f3c 6690 ccbd ff90 ebbc
00000090: 08b7 4ebc 4eb8 103d 4d88 903d 373f 12be
000000a0: 562c cd3d 11be f93c 9e8d 733d 6e57 4fbd
000000b0: 3eed 9c3d cbf0 0b3d 7f5a e7bc 6222 e33d
000000c0: 58cb bfbd 2326 dd3d 24de 833c 07cb 873b
000000d0: 2e46 adbd 9c3d 5b3d 6329 903d bf57 de3d
000000e0: 9de6 bb3d 4dec 9fbd c48b 81bd 8cd5 ce3d
000000f0: 37d3 d43d 0d1a de3d 03de afbd 8950 c5bd
00000100: 84eb 0b3e 5b8f 0ebc bf6b 7dbd b210 e0bd
00000110: a29a e2bc b869 3f3c d09e 1bbd de9d 3f3d
00000120: 7615 393c fbc3 09be 2a17 aa3d ad02 8bbd
00000130: abda 2d3d 4ca6 013e 768b ebba dc77 b8bd
00000140: 5e07 81bd 67a9 f83d 0f28 afbd c546 9bbd
00000150: b05b d93d 8656 42bd 58b9 443c 521d e73d
00000160: 8718 01be 6a0d b5bd 0bde fa3d a1c9 c8bc
00000170: 94be 43bc f673 e5bd 35bd c9bd 6057 8cbd
00000180: 5ec5 a8bd 5738 c43b d8db f0bc c772 f1bc
00000190: 60d7 a1bc b9d1 8cbc 9309 93bb 2b09 acbd
000001a0: 9567 3e3c 00bb 253d bd41 333d 75cc 773d
000001b0: 0adc d6bd 9806 f4bd 9e5b a8bd 30ce 99bd
000001c0: c920 e6bd 3b10 863d 4dd9 943c 2d81 b93c
000001d0: c53d b53d 6d3f 7d3d db2e b7bc 5346 f53d
000001e0: 0c03 853d 5438 e03d 3bc8 f6bd d762 963d
000001f0: 887f 90bd 5312 ddbc 2809 37bd 1977 b8bd
00000200: cd69 e33c d267 07bd 5d21 3bbd c796 9abd
00000210: 7437 9cbd b335 b33d 4cf6 20bd c94f ad3b
00000220: adfe a23d c0de 0fbd 0ca4 fb3c 02a1 993d
00000230: 4dd0 c8bd d84e ef3d 9f5d c23d bac3 e1bd
00000240: 0fb5 b03d 4ee0 d43d ada9 563d b469 4f3d
00000250: 9740 88bd d3b0 acbd 099e c6bd 5c60 ea3d
00000260: 2ad0 cc3d 7dbe 64bd 09fe 54bd 4f6e bebd
00000270: de66 113d 9600 cebd 4137 e13d 04bb bd3d
00000280: db98 c3bd 1fff b3bd 322d fdbd 397a d3bb
00000290: 7283 1bbc 8c97 e33d e463 293d b6ad 363d
000002a0: 1c34 273d a292 cbbd 2f5d 09bd 2bde 3f3d
000002b0: 2720 14bd ca6f 2d3d 15f0 cd3d 27da 86bd
000002c0: f83c b2bd db6b 9ebd 4c85 cebc 0d04 2b3d
000002d0: 170e 873d b8fd 82bd f15f 53bd 4636 c539
000002e0: 4ea1 4abd 5efc 8c3d 18b2 3c3d 8ba1 303d
000002f0: 7163 1d3c ec97 7c3c 72bd 843d dd8c 223d
00000300: 1bca 113d 788f 263c 7830 cebd 1594 cd3d
00000310: 2660 88bd 5f4d 783c 7c3c 9d3d 2d15 a33d
00000320: 518d 9f3d 15cf 01be 1e37 3c3c dadb 8dbd
00000330: 18d7 f23d 6e8d 9ebd b7fa af3b cd71 993d
00000340: 1286 003e f04a 863d 646a c7bd 4b35 77bd
00000350: 5ed6 963d 3830 5b3d 57bf 113b f86b 9d3c
00000360: 591d 953d e8f3 b53d e993 a7bd d6c9 e7bd
00000370: 8e9b 9d3c 2b72 f7bd b4d6 99bd 4cbe 92bd
00000380: e769 8b3d cfc0 02bd fdc4 ad3d 4a7f e73d
00000390: 908f f83d c61f 853d 6fa6 b33d eb4e 753d
000003a0: 3b00 69bd c383 083b edfe 83bd 7b84 ca3d
000003b0: 6b9a b0bd 852c 983d 5c41 ffbc 65fe 36bd
000003c0: 4c1d c03d 6876 9a3c d726 42bd 04b6 f2bd
000003d0: e8cf aebd c86f 663d bd0c 243d 8194 8cbd
000003e0: 96e7 3a3d 703e 93bd 2705 c9bd c327 693b
000003f0: 7bf2 e6bd ee7c 243d 1c26 a8bd fe5a 8cbd

fc2.bias f4 [8]
0.11576962 0.09140082 0.11400638 0.055266913 0.0059904195 0.076038554 -0.094792604 0.067018874
00000000: 9f18 ed3d 5a30 bb3d 2d7c e93d 8f5f 623d
00000010: 484b c43b 1aba 9b3d a022 c2bd 3141 893d

fc3.weight f4 [5, 8]
-0.17080715 -0.2480212 -0.2948397 0.27822152 -0.22273012 0.025883611 0.1707951 0.13465063
-0.14660446 -0.3323985 0.0840327 -0.030524421 0.038902357 0.14888425 0.062816955 0.3043485
-0.19517279 0.27628693 0.33473495 -0.32578 0.27634847 0.15708397 0.083264746 -0.12587371
0.16685584 -0.07567279 -0.16391264 -0.12341724 0.084231615 -0.1914641 -0.29961208 -0.20030206
0.21015897 0.20850256 0.22191359 -0.24554455 -0.35262856 0.03250232 0.28223428 -0.21371073
00000000: 12e8 2ebe 45f9 7dbe 3bf5 96be 0d73 8e3e
00000010: 5d13 64be de09 d43c e9e4 2e3e dbe1 093e
00000020: 7b1f 16be 2330 aabe 5619 ac3d 5a0e fabc
00000030: 1458 1f3d 1d75 183e 2da6 803d 91d3 9b3e
00000040: 60db 47be 7b75 8d3e 6162 ab3e a3cc a6be
00000050: 8c7d 8d3e 9fda 203e b586 aa3d 0ae5 00be
00000060: 42dc 2a3e 56fa 9abd b7d8 27be 2ec2 fcbd
00000070: a081 ac3d 2a0f 44be c166 99be fc1b 4dbe
00000080: ea33 573e b281 553e 513d 633e 0870 7bbe
00000090: bb8b b4be 2721 053d 0381 903e fcd6 5abe

fc3.bias f4 [5]
0.21144323 0.15621929 0.06322754 0.3053708 0.06938116
00000000: 9384 583e f3f7 1f3e 717d 813d 9059 9c3e
00000010: b617 8e3d
