tuning_results/best_models_during_tuning_lightning_logs/ec_standGCN_best_model_during_tuning/checkpoints/epoch=90-train_loss=1.39-train_f1=0.34-val_loss=1.65-val_f1=0.35.ckpt (torch, 105170 bytes, 38 tensors)

conv1.bias f4 [64]
0.26388934 -0.42001778 -0.59983844 -0.630897 -0.556064 -0.22742918 -0.21940029 -0.35591587
-0.7202485 0.3399295 -0.9134223 -0.17590727 -0.37148187 -1.0545218 0.14786793 -1.239632
-0.7170006 -5.8225745e-05 -0.21511555 -0.26795092 -0.8505377 0.10172611 -0.030991565 -0.6628656
-0.9563071 -0.31280103 -0.10555016 0.08553023 -0.28684124 0.059674483 -0.06283249 0.11869988
-0.52581286 -1.0600195 -0.5052003 0.030638449 0.15237166 -0.35340703 0.75369203 -0.120013796
-0.07223012 -0.90004414 -0.23003186 -0.042305496 -0.95828044 -0.36500037 -0.58274513 -0.22867605
-0.38281643 -0.47927982 -0.26164478 -0.29147187 -0.54467106 -0.37129107 -0.81450975 -0.07471266
-0.8605081 0.24444754 -0.25739554 -0.6913584 -0.68525 0.059989557 -1.1374459 -0.091962785
00000000: 811c 873e 920c d7be 038f 19bf 7782 21bf
00000010: 365a 0ebf 32e3 68be 78aa 60be 9b3a b6be
00000020: 3562 38bf 3d0b ae3e 0bd6 69bf 0921 34be
00000030: df32 bebe 92fa 86bf b16a 173e 43ac 9ebf
00000040: 5a8d 37bf 6b37 74b8 4047 5cbe dd30 89be
00000050: d7bc 59bf c755 d03d 06e2 fdbc 8fb1 29bf
00000060: 8bd0 74bf 7527 a0be af2a d8bd 792a af3d
00000070: dbdc 92be 3b6d 743d 52ae 80bd ec18 f33d
00000080: ac9b 06bf b8ae 87bf cf54 01bf 7cfd fa3c
00000090: 5107 1c3e c4f1 b4be f6f1 403f cbc9 f5bd
000000a0: 63ed 93bd 4b69 66bf 798d 6bbe 8748 2dbd
000000b0: de51 75bf 54e1 babe c92e 15bf 0e2a 6abe
000000c0: 8400 c4be 2a64 f5be 4ef6 85be cd3b 95be
000000d0: 906f 0bbf dd19 bebe b683 50bf f302 99bd
000000e0: 424a 5cbf 7550 7a3e 59c9 83be ddfc 30bf
000000f0: 8b6c 2fbf 9cb7 753d d497 91bf fc56 bcbd

conv1.lin.weight f4 [64, 25]
0.3508624 0.26617834 0.48215643 -0.03736548 0.34008184 -0.25232026 -0.26491007 -0.36084956
-0.17609882 -0.24851932 -0.73103523 -0.17859267 -0.22669752 -0.08795867 -0.19454633 -0.050243642
-0.8760579 -0.8648986 -0.2466106 0.53340125 0.20470096 -1.2151262 -1.1158298 0.24594912
-0.2478242 -0.07642525 0.666129 0.2643419 0.33499706 0.29072037 -0.61194754 -0.06298214
0.07746951 0.07022243 -0.21535677 -0.53081155 -0.48578352 -0.2822094 -0.29862478 0.13623306
0.27366102 0.4492893 -0.0049732444 -0.18103488 0.029318105 -0.549541 -0.8663641 -0.97963536
-0.31050488 -0.47451735 0.043659754 0.55796456 0.30382556 -0.5729201 -0.36703846 -0.34484056
-0.08790242 0.21681176 -0.03438424 -0.18551916 0.68720436 -0.18247065 -0.04934236 0.5190552
0.35042614 -0.30569154 0.28387222 0.36673558 0.0003144931 -0.099516325 0.62387145 -0.47528479
-0.6202419 0.514646 0.30844262 0.16863841 0.09972658 -0.031554244 -0.7074597 -0.8159749
0.7867888 0.4017731 0.27743664 0.38469777 0.22269121 -0.12639521 -0.38518754 -0.08803522
-0.12104844 0.037266426 -0.3302767 -0.26255944 -0.06756548 0.32151592 -0.16193594 -0.69518155
0.21403873 0.2034818 -1.0231931 -0.2390922 -0.07423194 0.40250993 0.4770651 -0.13629097
-0.14047904 -0.12605216 0.29349315 0.2430563 0.013276226 -0.14533538 0.55523044 -0.2061057
-0.42837203 0.23700231 -0.25909394 0.6632943 -1.280439 -1.3417931 0.3388802 0.029256428
-0.3324963 0.18696648 0.19594271 0.68542534 -0.05145339 0.33205262 0.3183543 0.21284555
0.050468493 -0.032876227 0.19014393 -0.23826021 -0.20086539 -0.45042363 -0.5327828 0.84201884
0.085338585 0.1710688 0.24010952 0.12082039 -0.16489589 -1.1999472 -1.1436621 0.21238676
-0.34255368 0.06761622 0.4084529 0.3702637 0.36403668 -0.08743771 0.61717725 -0.00036719858
-0.17672682 0.43122318 -0.2796141 -0.47815567 1.1396846 1.1022834 -0.300714 0.2651787
0.6721015 0.26916894 0.43744573 -0.009867338 -0.06787565 0.205189 0.34724277 0.33667305
0.30726743 -0.007699221 -0.023504475 0.3340047 0.5329643 -0.7319175 -0.49091536 -0.013308917
-0.07688339 -0.09115265 -0.059749216 -0.19166104 -0.048535217 -0.7113692 -0.5342192 0.18700093
-0.49209183 -0.042783435 0.35795298 0.2507703 0.20027876 0.11243526 -0.36806968 -1.1170355
-1.1552248 -0.3947791 -0.24891317 -0.085671335 -0.9022537 -0.8008748 0.35777593 -0.042349465
-0.24572639 -0.2013438 0.18360633 0.07726353 0.053119294 0.47282827 0.7216678 0.73912543
-0.07379654 -0.34206435 -0.50368536 -0.6348511 -0.87984645 0.2785224 0.25849566 0.2941886
0.21351092 0.277267 -0.2475541 -0.36298087 -0.22830467 0.4600285 0.028708538 -0.004953507
0.45791888 0.43236545 0.53115594 0.6563108 -0.13614166 0.40713304 0.34618828 -0.5589334
-0.32683522 -0.086626545 -0.20225343 -0.24158894 -0.3439639 -0.56079227 -0.23522255 0.010704579
-0.1507478 0.562196 0.38858113 -0.25226668 0.26673314 0.56073695 -0.803876 -1.2321479
0.30436385 -0.3032491 0.11389193 0.16489008 -0.05473776 -0.04077479 0.08743068 -0.16909823
00000000: 3da4 b33e 8748 883e 35dd f63e 8c0c 19bd
00000010: 351f ae3e 1f30 81be 4ba2 87be 46c1 b8be
00000020: 4053 34be d97b 7ebe 2025 3bbf ffe0 36be
00000030: 6523 68be ad23 b4bd 2737 47be 47cc 4dbd
00000040: 5545 60bf ff69 5dbf 7d87 7cbe fc8c 083f
00000050: 219d 513e 4189 9bbf 83d3 8ebf 16da 7b3e
00000060: a1c5 7dbe d784 9cbd 6e87 2a3f d257 873e
00000070: bc84 ab3e 4dd9 943e 98a8 1cbf c8fc 80bd
00000080: 56a8 9e3d c7d0 8f3d 7c86 5cbe 44e3 07bf
00000090: 9eb8 f8be c07d 90be 59e5 98be ae80 0b3e
000000a0: 4c1d 8c3e 3f09 e63e 99f6 a2bb 3561 39be
000000b0: 862c f03c b8ae 0cbf 0aca 5dbf 62c9 7abf
000000c0: 7ffa 9ebe f0f3 f2be 92d4 323d c4d6 0e3f
000000d0: 068f 9b3e e4aa 12bf 77ec bbbe f18e b0be
000000e0: 2f06 b4bd e703 5e3e 7dd6 0cbd bcf8 3dbe
000000f0: a0ec 2f3f 96d9 3abe 371b 4abd cde0 043f
00000100: 0e6b b33e 9a83 9cbe b357 913e c4c4 bb3e
00000110: 8de2 a439 37cf cbbd 0ab6 1f3f 8758 f3be
00000120: 2cc8 1ebf d7bf 033f 31ec 9d3e 8caf 2c3e
00000130: 733d cc3d 063f 01bd 141c 35bf bbe3 50bf
00000140: fe6a 493f 34b5 cd3e 2d0c 8e3e 1bf7 c43e
00000150: 2a09 643e bf6d 01be 4d37 c5be cf4b b4bd
00000160: 3fe8 f7bd aea4 183d 071a a9be 316e 86be
00000170: c55f 8abd bc9d a43e 89d2 25be 6bf7 31bf
00000180: f82c 5b3e 885d 503e fef7 82bf 96d4 74be
00000190: ea06 98bd c815 ce3e e041 f43e dc8f 0bbe
000001a0: bdd9 0fbe d113 01be bc44 963e c0e3 783e
000001b0: 8784 593c ccd2 14be 9523 0e3f 5f0d 53be
000001c0: 9453 dbbe bcb0 723e f6a7 84be a8cd 293f
000001d0: 6de5 a3bf e0bf abbf b581 ad3e 2dab ef3c
000001e0: f43c aabe 2474 3f3e 35a5 483e 0978 2f3f
000001f0: cac0 52bd cd02 aa3e 56ff a23e 2ff4 593e
00000200: 0db8 4e3d 39a9 06bd 17b5 423e 7cfa 73be
00000210: a8af 4dbe ed9d e6be 7464 08bf 8c8e 573f
00000220: ffc5 ae3d a92c 2f3e 45df 753e ae70 f73d
00000230: 78da 28be df97 99bf 8563 92bf ea7b 593e
00000240: 3263 afbe 5f7a 8a3d bd20 d13e 3493 bd3e
00000250: 0463 ba3e 8b12 b3bd 54ff 1d3f 8f84 c0b9
00000260: e0f7 34be 49c9 dc3e 9429 8fbe d2d0 f4be
00000270: 2fe1 913f 9f17 8d3f 2ff7 99be 81c5 873e
00000280: d80e 2c3f 83d0 893e e3f8 df3e 9eaa 21bc
00000290: 6402 8bbd 111d 523e cec9 b13e 6960 ac3e
000002a0: 2852 9d3e bf49 fcbb 758c c0bc aa02 ab3e
000002b0: 5970 083f f25e 3bbf 4259 fbbe a50d 5abc
000002c0: 0a75 9dbd 3eae babd 98bb 74bd cb42 44be
000002d0: ddcc 46bd 4b1c 36bf 97c2 08bf 2c7d 3f3e
000002e0: 76f3 fbbe af3d 2fbd 9d45 b73e f764 803e
000002f0: e015 4d3e 7544 e63d a173 bcbe 05fb 8ebf
00000300: 68de 93bf 7c20 cabe 18e3 7ebe 7474 afbd
00000310: 19fa 66bf 2206 4dbf 682e b73e a276 2dbd
00000320: b39f 7bbe 122d 4ebe 4c03 3c3e 573c 9e3d
00000330: 9e93 593d 8c16 f23e 39bf 383f 5337 3d3f
00000340: a422 97bd 0f23 afbe 86f1 00bf 9a85 22bf
00000350: 9e3d 61bf 7d9a 8e3e 8b59 843e e39f 963e
00000360: 9ba2 5a3e f1f5 8d3e d27e 7dbe a1d8 b9be
00000370: b3c8 69be db88 eb3e 2b2e eb3c 0751 a2bb
00000380: 5874 ea3e 015f dd3e d6f9 073f fc03 283f
00000390: b868 0bbe be73 d03e 973f b13e 4216 0fbf
000003a0: f256 a7be 4269 b1bd 861b 4fbe 1763 77be
000003b0: 091c b0be 1590 0fbf 2ede 70be 4262 2f3c
000003c0: a25d 1abe 14ec 0f3f 1bf4 c63e 1929 81be
000003d0: 3f91 883e 758c 0f3f d1ca 4dbf 06b7 9dbf
000003e0: 94d5 9b3e 7743 9bbe 2c40 e93d f2d8 283e
000003f0: b434 60bd 7703 27bd db0e b33d 1628 2dbe

bn1.weight f4 [64]
0.8959633 0.6758418 1.0000951 0.7932391 0.91834444 0.82874227 1.4268253 1.797799
0.67967284 1.2710533 0.93254846 0.53541636 0.977012 1.0043635 0.8778189 0.8125311
1.3240728 1.1963834 1.3829675 1.3600068 0.87372476 1.239171 1.0960457 0.8858602
0.9289372 1.3489616 0.6960699 0.6115636 1.028925 0.4780126 1.060116 1.1019062
1.7524159 0.9113429 0.40957123 0.97972864 0.5103809 1.3924288 0.9494077 0.7999889
1.1284808 1.5680188 1.2780073 1.4395697 1.1219217 1.2911463 1.0980103 0.68723506
1.3284365 1.1789875 0.97910047 0.4253538 1.4046136 0.6742629 1.3613586 1.1336768
1.3729005 0.40348834 1.2833185 0.6976106 0.94909847 1.1190659 0.9905404 1.0026379
00000000: da5d 653f f803 2d3f 1e03 803f b811 4b3f
00000010: 9f18 6b3f 7428 543f 36a2 b63f 471e e63f
00000020: 0aff 2d3f e0b1 a23f 7fbb 6e3f 0c11 093f
00000030: 751d 7a3f fc8e 803f bdb8 603f 0a02 503f
00000040: 387b a93f 1723 993f 1405 b13f b414 ae3f
00000050: 6dac 5f3f 289d 9e3f 3a4b 8c3f bcc7 623f
00000060: d4ce 6d3f c6aa ac3f a331 323f 6f8f 1c3f
00000070: d0b3 833f 11be f43e e2b1 873f 430b 8d3f
00000080: 2a4f e03f c54d 693f 52b3 d13e 7fcf 7a3f
00000090: 53a8 023f 1b3b b23f 620c 733f 13cc 4c3f
000000a0: 0f72 903f d7b4 c83f be95 a33f d243 b83f
000000b0: 219b 8f3f 4844 a53f 9a8b 8c3f a3ee 2f3f
000000c0: 350a aa3f 10e9 963f 54a6 7a3f f9c7 d93e
000000d0: 61ca b33f 7e9c 2c3f 0041 ae3f 521c 913f
000000e0: 34bb af3f 0696 ce3e c843 a43f 9c96 323f
000000f0: 1ef8 723f 8d3d 8f3f 0e94 7d3f 7056 803f

bn1.bias f4 [64]
-0.17609294 -0.05616937 -0.28494123 0.76520765 -0.36738133 0.64968 0.26620802 -0.23820262
0.07614297 -0.044881728 0.028680477 -0.4201658 0.71497923 -0.11838977 0.056578774 -0.29950923
0.45305887 0.63356894 -0.5715534 0.41412 -0.15969205 0.28281885 -0.28215572 0.05239365
-0.43550658 0.82843626 0.31881544 -0.5082852 -0.26691574 -0.07142935 0.31651625 0.75139356
0.09474904 0.08744195 0.13632044 0.53113616 -0.5368492 0.13672464 0.14788099 0.9482498
0.37720007 -0.3408333 -0.03801927 -0.20710194 -0.2092955 -0.57478815 -0.54454726 -0.16432944
-0.07701695 -0.10757875 -0.83232975 0.41458482 -0.20846608 0.4050978 -0.19837025 0.08189432
0.5286235 0.059678473 0.21071807 0.31130537 0.2537742 -0.039998516 0.092163675 -0.15873288
00000000: b551 34be da11 66bd d1e3 91be a6e4 433f
00000010: 6819 bcbe 6e51 263f 6b4c 883e 63eb 73be
00000020: d8f0 9b3d e7d5 37bd 52f3 ea3c f91f d7be
00000030: e108 373f 5676 f2bd 25bf 673d 4659 99be
00000040: 55f7 e73e 9331 223f 5351 12bf 8907 d43e
00000050: 5086 23be a2cd 903e b776 90be b99a 563d
00000060: b8fa debe 6614 543f c73b a33e fb1e 02bf
00000070: 2ea9 88be 8d49 92bd 6b0e a23e 545b 403f
00000080: c90b c23d c414 b33d 9697 0b3e 8af8 073f
00000090: f36e 09bf 8b01 0c3e 1d6e 173e 80c0 723f
000000a0: 5e20 c13e b481 aebe 18ba 1bbd 8812 54be
000000b0: 8f51 56be 5125 13bf 7367 0bbf fa45 28be
000000c0: 10bb 9dbd 3f52 dcbd 9013 55bf 7644 d43e
000000d0: 2278 55be fb68 cf3e 9221 4bbe 36b8 a73d
000000e0: df53 073f 6a71 743d 7ac6 573e 6b63 9f3e
000000f0: b1ee 813e 7cd5 23bd 4fc0 bc3d df8a 22be

bn1.running_mean f4 [64]
2.053784 1.1053256 0.69095004 1.5614364 1.5598941 1.0782712 0.9275592 1.1180277
1.5763736 1.6484984 0.8312478 2.4889023 1.241192 0.56394213 1.1965563 0.581182
0.5549595 1.1972717 1.1159006 0.90719444 0.2802312 1.2656047 1.1483994 0.9882527
0.75185734 0.59685 1.2390019 1.8517421 1.0130768 0.9873006 2.0180771 1.0653366
2.0768163 1.001095 2.1110659 1.0204712 1.9621296 1.3272339 2.2033315 1.1381013
1.7609153 2.1917078 1.4554198 1.3800874 0.48148808 1.3224406 1.9844259 1.5164535
2.1662056 1.0463668 1.2692974 0.93480825 0.75743407 1.020491 0.78632706 1.3102669
1.1390952 1.2447724 1.2534838 1.1310235 1.1010598 1.6267546 0.38170925 1.5004013
00000000: 3271 0340 4f7b 8d3f 1ae2 303f 26dd c73f
00000010: 9caa c73f ca04 8a3f 8574 6d3f 881b 8f3f
00000020: 9cc6 c93f ff01 d33f a8cc 543f 2d4a 1f40
00000030: 61df 9e3f 835e 103f c228 993f 58c8 143f
00000040: d311 0e3f 3340 993f d5d5 8e3f e53d 683f
00000050: 777a 8f3e 56ff a13f c0fe 923f 21fe 7c3f
00000060: b979 403f 29cb 183f 9d97 9e3f e305 ed3f
00000070: 80ac 813f bbbf 7c3f 2d28 0140 f35c 883f
00000080: 8fea 0440 e223 803f b41b 0740 cd9e 823f
00000090: 1027 fb3f cde2 a93f 6203 0d40 4ead 913f
000000a0: ac65 e13f f144 0c40 324b ba3f b4a6 b03f
000000b0: 9b85 f63e bc45 a93f ab01 fe3f 261b c23f
000000c0: 1da3 0a40 59ef 853f 5678 a23f 984f 6f3f
000000d0: 33e7 413f 739f 823f bb4c 493f d3b6 a73f
000000e0: dfcd 913f b454 9f3f 2872 a03f 61c5 903f
000000f0: 87ef 8c3f 7f39 d03f 656f c33e 260d c03f

bn1.running_var f4 [64]
6.087442 2.060525 1.9004772 4.007618 4.6390066 2.0417523 1.567725 2.2742267
3.8952346 3.9559433 1.4924979 10.390747 3.0870008 2.403146 2.833679 2.3683121
1.5735434 5.1478295 2.252299 2.2471182 0.3659984 6.3418765 3.31185 1.9871188
2.723929 0.99916613 3.5895827 5.8248453 3.4925525 2.9187026 5.4614697 5.08702
3.4711943 4.7278943 7.9897532 2.998524 7.370669 2.4078293 5.75959 5.840893
3.2622306 7.9487915 3.0726807 4.425103 1.2545131 5.2966785 6.8546658 2.8156822
6.2559967 2.8248231 4.3949895 3.7606308 1.6484194 3.9681501 2.4330902 2.4880054
3.6386163 4.7340264 3.8517058 7.465222 2.6118183 3.3253534 1.1521343 2.9898255
00000000: 53cc c240 a4df 0340 d642 f33f 683e 8040
00000010: be72 9440 12ac 0240 36ab c83f ee8c 1140
00000020: 864b 7940 2d2e 7d40 2c0a bf3f 8040 2641
00000030: 6c91 4540 25cd 1940 ff5a 3540 6d92 1740
00000040: df69 c93f 05bb a440 ab25 1040 c9d0 0f40
00000050: 2464 bb3e a7f0 ca40 5af5 5340 e959 fe3f
00000060: da54 2e40 5ac9 7f3f b9bb 6540 2265 ba40
00000070: fb85 5f40 06cc 3a40 5cc4 ae40 dec8 a240
00000080: 0c28 5e40 e94a 9740 0fac ff40 d1e7 3f40
00000090: 85dc eb40 e019 1a40 904e b840 98e8 ba40
000000a0: 63c8 5040 805c fe40 cda6 4440 729a 8d40
000000b0: e393 a03f 647e a940 6c59 db40 2334 3440
000000c0: 2031 c840 e7c9 3440 c1a3 8c40 2dae 7040
000000d0: 68ff d23f 2cf6 7d40 c0b7 1b40 7b3b 1f40
000000e0: 17df 6840 257d 9740 5982 7640 19e3 ee40
000000f0: 0828 2740 97d2 5440 2379 933f 4d59 3f40

conv2.bias f4 [64]
0.018999984 0.13753963 0.6956504 0.1235666 0.13765606 0.48332834 0.2994677 -0.03231509
0.14558387 -0.20828782 0.17195334 0.8709652 0.8504467 0.7072356 0.48133194 -0.008111328
0.042242974 0.53869045 0.24385747 0.6750889 0.73566633 0.09475111 0.40747973 0.6428264
0.061548557 0.19189936 0.5291809 -0.14118907 0.3865919 0.4227399 0.11131627 0.12806693
0.71340966 0.31956914 -0.23879625 -0.5275257 0.4701951 -0.8618135 -0.10892762 0.709038
0.22275035 0.097609736 -0.048988692 0.26816025 0.25784954 0.14213525 -0.17533201 -0.035445627
0.06630667 -0.034120597 -0.60696226 -0.032258194 0.45016646 0.8825642 0.7088205 1.057383
0.39309427 0.031443052 0.2733133 -0.40213674 0.0681985 0.18017474 0.45845416 0.082007185
00000000: dba5 9b3c 30d7 0c3e 2516 323f 7c10 fd3d
00000010: b6f5 0c3e d076 f73e d553 993e d45c 04bd
00000020: f013 153e 6749 55be 8914 303e 93f7 5e3f
00000030: e0b6 593f 640d 353f 2471 f63e 60e5 04bc
00000040: f806 2d3d 9ee7 093f c6b5 793e a0d2 2c3f
00000050: a154 3c3f df0c c23d 2fa1 d03e 4590 243f
00000060: 571a 7c3d 4481 443e 6678 073f de93 10be
00000070: 60ef c53e 5d71 d83e c9f9 e33d fa23 033e
00000080: 04a2 363f 919e a33e 0187 74be ed0b 07bf
00000090: 6abd f03e cf9f 5cbf 7215 dfbd 8483 353f
000000a0: ab18 643e 9de7 c73d 5ea8 48bd 4d4c 893e
000000b0: db04 843e e78b 113e 3c8a 33be 6f2f 11bd
000000c0: cbcb 873d 0ac2 0bbd e161 1bbf 2b21 04bd
000000d0: 387c e63e baef 613f 4375 353f 5358 873f
000000e0: a743 c93e 6eca 003d b9ef 8b3e dee4 cdbe
000000f0: a8ab 8b3d ba7f 383e 81ba ea3e 62f3 a73d

conv2.lin.weight f4 [64, 64]
0.04063156 -0.07769558 0.40371716 0.4311381 -0.14260909 -0.16211694 0.16134626 -0.09992253
-0.04397248 -0.14652678 -0.11805642 0.56920826 -0.7690688 0.30969393 0.33736792 0.14020245
-0.46080047 -0.11269093 -0.13021937 0.18582836 0.46405393 -0.1405327 -0.25705343 0.20778021
0.2836419 -0.7312243 0.47941396 0.14804077 0.7331139 -0.42484796 0.4286743 -0.123401046
-0.9250825 -0.26778674 0.072315425 -0.03591283 0.43139383 -0.6762136 0.5422014 0.11212741
-0.034404565 0.10063535 -0.31248006 0.8134267 0.15538068 0.51037514 0.14143659 0.18767698
0.19037808 0.25633532 0.48625183 -0.3034843 -0.41585064 0.15450072 -0.43045637 0.30011326
-0.49339345 0.39740783 0.4046735 -0.30817756 0.9939244 -0.4296281 0.33556986 -0.386203
-0.13635784 0.6431082 0.16763584 -0.3274924 0.14176816 -0.57393503 0.38996887 0.1433396
0.9320626 -0.455383 0.024008326 0.5336046 0.1558886 -0.01758225 -0.1630296 0.1710727
0.032532096 -0.8943121 0.10068174 -0.3404921 0.7785825 -0.9521557 0.20916915 0.29952663
0.06762426 -0.7259746 -0.8716968 0.48435393 0.3561434 -0.19456246 0.5794677 0.09983108
-0.5923296 0.15330204 0.051830303 -0.636912 0.5858253 -0.36243036 -0.44255668 -0.5316726
0.45091754 0.9594633 0.030117879 0.23818617 -0.03795737 0.38008308 -0.42293698 0.33783764
0.6045112 -0.33583036 -0.13623685 -0.00045211532 0.22175731 -0.0029748036 -0.06405162 0.13841996
0.5725893 -0.05796921 -0.5638454 0.04651254 0.2982555 -0.24908291 -0.6344787 0.6207761
0.48940483 0.2957882 -0.6713786 -0.60620844 -0.24824314 -0.05599801 -0.18995945 0.9424271
-0.54261774 0.3117382 0.66019076 -0.022789408 -0.22645348 0.26157764 -0.50652105 -0.7241723
-0.22447896 -1.5119942 0.32747844 -0.79667646 0.18702693 -1.0047 -0.42007852 -0.77663404
-0.10960166 0.014220037 -0.3835243 -0.24577585 0.6794061 -0.323182 -0.14415534 -0.132479
-0.28533772 -0.3136642 0.014939658 -0.061549746 -0.12186819 -0.19408303 0.26725936 -0.23325938
0.33321822 -0.09172135 0.24472776 0.15203646 0.583628 0.023110615 -0.264543 0.25109288
-0.43736464 -0.6251078 -0.17132892 -0.16269737 -0.42849386 -1.0498657 0.0850703 -0.7419267
-0.9133758 -0.06983212 -0.2193279 0.27570093 -0.32254225 0.21369196 -0.45483965 0.24348702
-0.17363957 -0.5250105 -0.007253728 0.07690059 0.16578434 -0.11865951 0.97903335 0.10606627
-0.8469517 -0.4248703 -0.013868785 -0.21665812 -0.3484253 -0.2222052 0.16451895 -0.1612123
-1.278147 0.5811268 0.46761635 -0.12688726 -0.045391448 0.44502565 0.63056296 -0.18908565
0.15159498 0.111152485 0.34594536 -0.29528436 0.6582458 0.09078356 0.13199584 -0.26787966
0.89692867 -0.18250595 -0.5792954 0.15655486 -0.27376887 0.44784418 -0.09431634 -0.07571214
0.39919946 -0.008141506 0.02914961 -0.028385365 -0.027182993 0.26749513 -0.15152748 -0.040001143
0.17160885 -0.33556706 0.3842292 0.2547802 0.42150715 -0.13450487 0.7593508 0.15953377
-0.27776545 0.37268332 -0.31435236 -0.42078212 -0.59455043 0.6770639 -0.7003594 0.022127459
00000000: 476d 263d dc1e 9fbd 04b4 ce3e 22be dc3e
00000010: 1e08 12be fc01 26be f437 253e 2fa4 ccbd
00000020: 7d1c 34bd 1e0b 16be 90c7 f1bd a2b7 113f
00000030: b1e1 44bf 3490 9e3e 7dbb ac3e 3b91 0f3e
00000040: 0aee ebbe 81ca e6bd 3a58 05be ca49 3e3e
00000050: 7a98 ed3e cee7 0fbe 829c 83be 56c4 543e
00000060: 8339 913e 8431 3bbf bf75 f53e 0098 173e
00000070: 5aad 3b3f ac85 d9be 337b db3e b0b9 fcbd
00000080: 35d2 6cbf 581b 89be 1c1a 943d 5519 13bd
00000090: a7df dc3e 561c 2dbf b6cd 0a3f 0ea3 e53d
000000a0: cdeb 0cbd e819 ce3d 63fd 9fbe bb3c 503f
000000b0: 1d1c 1f3e f2a7 023f c1d4 103e 652e 403e
000000c0: 79f2 423e 623e 833e 00f6 f83e 4b62 9bbe
000000d0: 60ea d4be 7035 1e3e c764 dcbe 72a8 993e
000000e0: 119e fcbe 0a79 cb3e 5d31 cf3e 73c9 9dbe
000000f0: d471 7e3f 37f8 dbbe d0cf ab3e 66bc c5be
00000100: 64a1 0bbe bda2 243f bba8 2b3e 15ad a7be
00000110: ac2b 113e 68ed 12bf 00aa c73e 9ec7 123e
00000120: a89b 6e3f f627 e9be 1cad c43c 509a 083f
00000130: 43a1 1f3e a708 90bc 3bf1 26be af2d 2f3e
00000140: 6040 053d a3f1 64bf 3a32 ce3d fb54 aebe
00000150: 2f51 473f 7ac0 73bf 7030 563e 8e5b 993e
00000160: 977e 8a3d 79d9 39bf 8627 5fbf 3dfd f73e
00000170: 6d58 b63e 623b 47be ff57 143f 3d74 cc3d
00000180: eaa2 17bf 36fb 1c3e 034c 543d aa0c 23bf
00000190: a6f8 153f 7990 b9be ca96 e2be b21b 08bf
000001a0: aade e63e 639f 753f c5b9 f63c 13e7 733e
000001b0: 3079 1bbd 409a c23e 328b d8be 0ef9 ac3e
000001c0: 3fc1 1a3f f5f1 abbe ac81 0bbe e409 edb9
000001d0: 5914 633e ecf4 42bb 7f2d 83bd f6bd 0d3e
000001e0: 3695 123f 1f71 6dbd 2c58 10bf ef83 3e3d
000001f0: f2b4 983e 970f 7fbe 326d 22bf 2feb 1e3f
00000200: 4593 fa3e 8d71 973e 78df 2bbf 7a30 1bbf
00000210: 7333 7ebe 2b5e 65bd bb84 42be e742 713f
00000220: ffe8 0abf 269c 9f3e 4302 293f dab0 babc
00000230: 6ce3 67be 81ed 853e 5dab 01bf 5b63 39bf
00000240: d0dd 65be 0789 c1bf 41ab a73e fdf2 4bbf
00000250: fd83 3f3e 029a 80bf 8814 d7be 7dd1 46bf
00000260: d676 e0bd 28fb 683c 4c5d c4be aaac 7bbe
00000270: 8fed 2d3f 1c78 a5be 759d 13be 93a8 07be
00000280: c917 92be 9898 a0be 78c5 743c 961b 7cbd
00000290: 0896 f9bd b4bd 46be 38d6 883e 8cdb 6ebe
000002a0: 949b aa3e 67d8 bbbd ea99 7a3e 72af 1b3e
000002b0: a568 153f 7952 bd3c 2e72 87be 3f8f 803e
000002c0: 42ee dfbe 1107 20bf d970 2fbe 249a 26be
000002d0: 8c63 dbbe 0062 86bf 5639 ae3d e9ee 3dbf
000002e0: ffd2 69bf 2404 8fbd 7e97 60be ac28 8d3e
000002f0: 4224 a5be 11d2 5a3e bee0 e8be a954 793e
00000300: 92ce 31be 1767 06bf aeb0 edbb 0e7e 9d3d
00000310: 5fc3 293e c203 f3bd eea1 7a3f 4639 d93d
00000320: d4d1 58bf 9a88 d9be e739 63bc a0db 5dbe
00000330: cd64 b2be c389 63be a877 283e d614 25be
00000340: 529a a3bf bac4 143f 696b ef3e bcee 01be
00000350: 62ec 39bd 67da e33e 936c 213f ab9f 41be
00000360: b73b 1b3e eaa3 e33d c01f b13e 832f 97be
00000370: cc82 283f bbec b93d eb29 073e 8627 89be
00000380: 1e9d 653f d7e2 3abe b44c 14bf eb4f 203e
00000390: 6f2b 8cbe d54b e53e ed28 c1bd f70e 9bbd
000003a0: df63 cc3e f463 05bc 2acb ee3c 6d88 e8bc
000003b0: deae debc 1ff5 883e 052a 1bbe 3dd8 23bd
000003c0: 3bba 2f3e 72cf abbe b1b9 c43e 8d72 823e
000003d0: c9cf d73e a5bb 09be d064 423f d25c 233e
000003e0: 4637 8ebe 59d0 be3e cbf2 a0be c170 d7be
000003f0: 7534 18bf 0f54 2d3f c14a 33bf a544 b53c

bn2.weight f4 [64]
0.90238124 1.4387237 1.3359134 1.1873791 0.99817014 0.9082435 0.57766736 1.2335306
1.2883773 0.6913594 1.0290468 1.1109293 1.5163982 0.9765229 1.1094502 1.2373412
0.5616621 1.2442447 1.0575039 1.0952581 1.1384199 1.1757009 0.85863006 0.82395154
0.7953151 1.0150918 1.0214487 1.1743884 0.98058426 0.9420146 1.2280629 1.5920671
1.1762116 0.55117434 1.236775 1.2167397 0.2720028 1.5536447 1.2668592 1.6425681
1.1316303 1.3425565 0.9724301 0.61097234 0.7570186 1.1708009 1.0132325 0.99411917
1.2789111 0.8178415 1.3357067 1.3956358 1.1736389 0.21563111 0.9455767 0.587298
1.1226811 0.6915351 1.1997758 0.5572611 1.0565692 0.9200865 1.164733 0.9361267
00000000: 7502 673f 1928 b83f 36ff aa3f 0afc 973f
00000010: 1488 7f3f a582 683f 02e2 133f 55e4 9d3f
00000020: 8ce9 a43f eefc 303f ceb7 833f ee32 8e3f
00000030: 5619 c23f 68fd 793f 7702 8e3f 3261 9e3f
00000040: 16c9 0f3f 6943 9f3f 4a5c 873f 6b31 8c3f
00000050: beb7 913f 5e7d 963f 2ecf 5b3f 7dee 523f
00000060: c599 4b3f 87ee 813f d5be 823f 5c52 963f
00000070: 9207 7b3f de27 713f 2a31 9d3f dbc8 cb3f
00000080: 1a8e 963f c319 0d3f a54e 9e3f 20be 9b3f
00000090: f343 8b3e d4dd c63f 7128 a23f ac3f d23f
000000a0: 43d9 903f e4d8 ab3f 2ef1 783f af68 1c3f
000000b0: f9cb 413f cedc 953f 9ab1 813f 987e 7e3f
000000c0: 5cb3 a33f 0f5e 513f 70f8 aa3f 32a4 b23f
000000d0: cd39 963f 67ce 5c3e 5111 723f 2959 163f
000000e0: 04b4 8f3f 7208 313f 4192 993f aaa8 0e3f
000000f0: a93d 873f ca8a 6b3f f915 953f 00a6 6f3f

bn2.bias f4 [64]
0.2460657 0.37899867 0.08289566 0.34549576 0.1580361 0.437367 0.17467643 0.07962463
0.51789993 0.19321342 0.13009432 0.28250515 0.37702993 0.524807 -0.0184723 0.026896153
0.33111194 0.15674745 0.32185808 0.23382926 0.34435275 0.20794457 0.4414504 0.37712952
0.3302657 0.33617386 0.27311158 0.3478751 0.2668369 -0.05903021 0.22758287 0.16815843
0.43239745 0.2673884 0.13914406 0.19186231 0.11669056 0.30387628 0.435888 0.49274173
0.29979232 0.24095705 0.3517061 0.2528599 0.3605548 0.060281858 0.082676746 0.33551377
0.30313513 0.04305685 0.20648105 0.21965328 0.38820544 0.21195967 0.43079883 0.6007069
0.25115988 0.07496817 0.3106378 0.2591171 -0.082043335 -0.028959228 0.4804922 0.13283636
00000000: a6f8 7b3e 1d0c c23e 33c5 a93d d2e4 b03e
00000010: 37d4 213e 91ee df3e 61de 323e 3d12 a33d
00000020: 1795 043f bdd9 453e 7237 053e 84a4 903e
00000030: 110a c13e c059 063f 3953 97bc 5255 dc3c
00000040: 8187 a93e 6782 203e 95ca a43e f070 6f3e
00000050: 014f b03e 6cef 543e c905 e23e 1f17 c13e
00000060: 9618 a93e fb1e ac3e 48d5 8b3e af1c b23e
00000070: d99e 883e a9c9 71bd 7c0b 693e b931 2c3e
00000080: 3363 dd3e 22e7 883e c87b 0e3e 8e77 443e
00000090: 76fb ee3d ac95 9b3e b62c df3e a548 fc3e
000000a0: 617e 993e 72bd 763e d212 b43e da76 813e
000000b0: a49a b83e 1cea 763d 6d52 a93d 76c8 ab3e
000000c0: 8734 9b3e 615c 303d c56f 533e caec 603e
000000d0: ddc2 c63e f50b 593e aa91 dc3e edc7 193f
000000e0: 0798 803e e988 993d eb0b 9f3e ffaa 843e
000000f0: 5606 a8bd e73b edbc 1303 f63e 4106 083e

bn2.running_mean f4 [64]
1.1338977 1.2925555 1.3894657 1.6534909 0.5533322 1.9915408 0.89146155 0.2880134
2.2680058 0.5304807 1.4320068 2.8995705 2.6356153 3.2037425 1.2876642 0.7296956
2.3965662 1.9270777 1.2409095 1.4203844 1.4740564 1.226381 3.2161767 2.7452796
0.82023764 2.1376219 2.978499 0.95111084 1.6398654 0.87407887 1.5877957 1.4752115
2.4113038 2.189805 0.4875993 0.8018478 1.7867573 0.56276125 1.225338 2.667465
2.2757537 0.6754027 1.6611093 3.2156126 2.383068 0.8697529 0.93436617 1.3131399
1.2135144 0.56907606 0.5266649 0.455925 1.211969 3.7415624 2.560279 8.000934
1.234717 0.99642265 1.2135178 0.56569767 0.55687475 0.5107142 2.7659388 0.59386367
00000000: 8f23 913f 7572 a53f 03da b13f 97a5 d33f
00000010: 2ea7 0d3f cfea fe3f d336 643f 7e76 933e
00000020: 0227 1140 95cd 073f 004c b73f 9092 3940
00000030: ecad 2840 1e0a 4d40 2ed2 a43f 55cd 3a3f
00000040: 5761 1940 7baa f63f 1fd6 9e3f 28cf b53f
00000050: e1ad bc3f 0dfa 9c3f d7d5 4d40 a9b2 2f40
00000060: 18fb 513f ccce 0840 ba9f 3e40 007c 733f
00000070: 1ce7 d13f a2c3 5f3f e43c cb3f bbd3 bc3f
00000080: cd52 1a40 c425 0c40 9ea6 f93e e645 4d3f
00000090: 77b4 e43f 1f11 103f e0d7 9c3f bfb7 2a40
000000a0: f3a5 1140 31e7 2c3f 3b9f d43f 99cc 4d40
000000b0: 3084 1840 20a8 5e3f 9f32 6f3f f814 a83f
000000c0: 7154 9b3f f8ae 113f 83d3 063f 006f e93e
000000d0: cd21 9b3f c275 6f40 9cdb 2340 d303 0041
000000e0: 350b 9e3f 8e15 7f3f 8d54 9b3f 90d1 103f
000000f0: 588f 0e3f 2abe 023f 2405 3140 7307 183f

bn2.running_var f4 [64]
11.277681 11.321296 8.354689 17.781494 6.7589035 12.6526575 4.380982 2.9258823
22.876251 4.2802215 29.38965 17.307392 22.443935 30.040546 7.688039 7.763901
23.615532 20.624908 10.068039 16.97037 9.184326 22.71409 21.898767 22.153223
5.360369 18.807158 35.473427 8.336965 21.394068 5.5018196 14.850824 14.823255
15.733082 26.771025 4.412104 19.71871 15.801785 4.9214993 12.716225 19.28797
23.760883 6.9074306 22.030745 23.400866 16.946795 12.136665 12.613948 19.202612
7.8747067 5.9837713 7.478641 5.0416884 6.055452 21.667316 15.418873 47.40932
17.51495 14.739838 7.8104835 7.1007447 7.385249 5.073802 23.529608 7.79146
00000000: 6271 3441 0724 3541 ceac 0541 8040 8e41
00000010: f048 d840 4971 4a41 0131 8c40 a841 3b40
00000020: 9002 b741 93f7 8840 011e eb41 8a75 8a41
00000030: 2e8d b341 0a53 f041 6a04 f640 e171 f840
00000040: 9cec bc41 d0ff a441 b016 2141 51c3 8741
00000050: 00f3 1241 75b6 b541 ad30 af41 cd39 b141
00000060: 2588 ab40 0f75 9641 cae4 0d42 3564 0541
00000070: 0d27 ab41 e80e b040 fa9c 6d41 0d2c 6d41
00000080: b4ba 7b41 0f2b d641 f52f 8d40 ebbf 9d41
00000090: 1dd4 7c41 ec7c 9d40 a875 4b41 c34d 9a41
000000a0: 4a16 be41 ac09 dd40 f73e b041 f934 bb41
000000b0: 0993 8741 c82f 4241 bbd2 4941 f39e 9941
000000c0: 99fd fb40 0e7b bf40 0751 ef40 8355 a140
000000d0: 43c6 c140 aa56 ad41 b4b3 7641 25a3 3d42
000000e0: 9e1e 8c41 60d6 6b41 7bef f940 4d39 e340
000000f0: f653 ec40 965c a240 a33c bc41 a453 f940

fc1.weight f4 [64, 64]
-0.22446439 -0.090869896 0.23848745 -0.120404445 -0.018207101 -0.6546913 -0.06689213 -0.020951731
0.68165535 0.3563564 0.35464653 -0.44833395 -0.49231207 -0.42486846 0.16907892 0.18041767
0.12532942 -0.7175445 -0.30178276 -0.37802702 -0.21761681 -0.2546063 0.27762502 -0.25380623
0.342045 -0.33619353 -0.20364878 -0.43537238 0.33707213 0.57773143 0.46855247 -0.35125393
-0.025377667 0.40755963 -0.009652781 0.04286801 0.040956344 -0.6786806 -0.1300539 -0.37620044
-0.06692488 -0.67728055 -0.4943694 0.14513186 0.22108854 0.6673886 0.54443455 -0.22762267
0.6938108 0.2056706 0.37160906 0.26065743 -0.70046854 -0.45857736 -0.23857974 -0.16447598
0.22452527 -0.3358029 -0.052853886 -0.054382626 -0.22961141 0.438351 -0.22143781 0.20494823
-0.0088821 -0.65854305 0.17105265 0.057330396 -0.10724783 -0.09701001 -0.12567848 0.010347831
-0.33779147 -0.16161212 0.19129144 0.32070357 -0.36333647 -0.4418728 0.6387709 -0.059361644
-0.6837568 0.26315284 0.20744777 0.16405548 -0.41399163 -0.012912719 -0.18626902 0.07966973
-0.6768778 -0.44853133 -0.101793475 -0.31370065 -0.35719657 0.5174771 -0.008349385 -0.6046872
0.08611379 -0.27349845 -0.64924455 -0.2122654 -0.60745496 0.21422291 0.31526473 0.36067247
-0.3148156 0.083194554 -0.7397814 -0.3466445 -0.43885884 -0.3978734 -0.1005789 -0.58114105
-0.20549968 0.29816338 -0.595985 -0.4305541 -0.2885564 -0.21253553 -0.26787233 -0.43084764
-0.14947358 -0.20237081 -0.88689566 -0.15515617 0.008098206 0.4394003 -0.6826444 0.07477569
0.50730056 -0.04812295 -0.2545784 -0.36544266 0.09237526 0.39128593 -0.07813339 -0.33126473
0.3025834 0.35874686 -0.1108738 -0.4017495 0.36752027 -0.3676465 -0.25171325 -0.12377186
0.2283106 0.024595635 0.3238336 0.5644613 -0.56168264 0.290773 -0.06401263 -0.33914658
-0.2753822 -0.12225137 0.19080442 -0.31055605 0.3117989 0.14806046 -0.04352475 -0.14309686
-1.0392884 -0.2841095 0.052834116 0.5453907 0.01271542 0.37933147 0.49331605 0.60566914
0.3186408 0.41626406 0.135111 -0.09315773 -0.2747624 -0.05571988 -0.10187395 -0.10482602
-0.31714183 -0.061806854 -0.06062562 0.18685465 0.28987998 -0.5212269 -0.6198827 -0.2469149
0.555424 -0.086689405 0.02886387 0.26625377 -0.06660664 -0.0018866239 0.09350449 -0.071953945
0.063969634 0.21780172 0.026998399 0.18105222 -0.065641806 0.14931689 -0.103869274 -0.13977924
0.5488571 -0.27067903 -0.15973908 0.105328046 0.401962 0.3302432 -0.11834889 0.26275608
0.30975464 0.27295378 0.47866598 -0.3778004 0.1847101 0.12796941 0.41485596 0.108478725
0.3926928 0.21186607 0.2430368 -0.03814587 -0.1414242 -0.11758094 -0.040309317 -0.049494635
-0.10947496 0.04818863 0.26489055 -0.016335981 0.19121946 0.24552584 -0.16240606 0.2494483
-0.06398294 -0.030649858 -0.14824235 0.2507008 0.22408424 -0.2775386 0.06296705 0.10515833
-0.12965924 -0.23840669 0.2865653 -0.32327265 0.2684613 0.45515174 0.50001943 0.5409929
0.015336541 -0.03429302 0.24343626 0.34348288 -0.06781104 -0.5755754 -0.24116744 0.34881985
00000000: fed9 65be ff19 babd 0e36 743e 9b96 f6bd
00000010: 0f27 95bc d999 27bf befe 88bd f7a2 abbc
00000020: f780 2e3f 5974 b63e 3b94 b53e 078c e5be
00000030: 5410 fcbe 5c88 d9be 0623 2d3e 69bf 383e
00000040: 5b56 003e ffb0 37bf 4583 9abe c28c c1be
00000050: f1d6 5ebe c25b 82be de24 8e3e e4f2 81be
00000060: 8620 af3e 8f21 acbe 4e89 50be 21e9 debe
00000070: b894 ac3e 35e6 133f 1ce6 ef3e 8ed7 b3be
00000080: d3e4 cfbc a8ab d03e b326 1ebc 5e96 2f3d
00000090: d7c1 273d 03be 2dbf d92c 05be 589d c0be
000000a0: e90f 89bd 4262 2dbf fc1d fdbe 729d 143e
000000b0: 0965 623e fbd9 2a3f 1060 0b3f eb15 69be
000000c0: 969d 313f 509b 523e 8b43 be3e e474 853e
000000d0: e851 33bf a7ca eabe 3f4e 74be 646c 28be
000000e0: f4e9 653e 5cee abbe 517d 58bd 51c0 5ebd
000000f0: 411f 6bbe 8b6f e03e 98c0 62be f3dd 513e
00000100: 3a86 11bc 4796 28bf 6d28 2f3e 47d3 6a3d
00000110: c0a4 dbbd 2fad c6bd dcb1 00be f389 293c
00000120: 01f3 acbe a67d 25be e7e1 433e 4233 a43e
00000130: 3d07 babe 273d e2be 7d86 233f 3225 73bd
00000140: b00a 2fbf f8bb 863e 306d 543e 29fe 273e
00000150: b6f6 d3be de8f 53bc 4ebd 3ebe e229 a33d
00000160: dd47 2dbf e6a5 e5be 1979 d0bd 5f9d a0be
00000170: 78e2 b6be 6179 043f dccb 08bc c8cc 1abf
00000180: 6d5c b03d fd07 8cbe e434 26bf 1a5c 59be
00000190: 2b82 1bbf 405d 5b3e 616a a13e 10aa b83e
000001a0: 832f a1be e861 aa3d 5062 3dbf 637b b1be
000001b0: 1bb2 e0be 10b6 cbbe 4ffc cdbd a9c5 14bf
000001c0: 826e 52be dfa8 983e 7992 18bf 9671 dcbe
000001d0: aabd 93be eaa2 59be 9026 89be 1098 dcbe
000001e0: 9a0f 19be 4b3a 4fbe 980b 63bf 42e1 1ebe
000001f0: 56ae 043c 13f9 e03e c9c1 2ebf ff23 993d
00000200: 73de 013f 921c 45bd 1a58 82be 4d1b bbbe
00000210: 3e2f bd3d a156 c83e 6604 a0bd 889b a9be
00000220: 36ec 9a3e abad b73e ce11 e3bd 1cb2 cdbe
00000230: 9e2b bc3e 293c bcbe 8fe0 80be 1a7c fdbd
00000240: 41ca 693e c97c c93c 85cd a53e 8980 103f
00000250: 6fca 0fbf 33e0 943e 0e19 83bd 9fa4 adbe
00000260: e5fe 8cbe ed5e fabd 3c62 433e 3401 9fbe
00000270: 1ba4 9f3e 299d 173e 0247 32bd fc87 12be
00000280: 6707 85bf cd76 91be 9668 583d ba9e 0b3f
00000290: 5654 503c bc37 c23e ec93 fc3e 220d 1b3f
000002a0: e324 a33e 9020 d53e 8a5a 0a3e 7bc9 bebd
000002b0: a8ad 8cbe 873a 64bd 4aa3 d0bd 06af d6bd
000002c0: 6a60 a2be 2f29 7dbd 9252 78bd d356 3f3e
000002d0: 266b 943e 206f 05bf a2b0 1ebf 42d7 7cbe
000002e0: 4430 0e3f 378a b1bd ec73 ec3c 6a52 883e
000002f0: 1069 88bd 9848 f7ba 487f bf3d 975c 93bd
00000300: 8302 833d 6a07 5f3e bf2b dd3c c165 393e
00000310: 366f 86bd 87e6 183e 6ab9 d4bd 4a22 0fbe
00000320: e681 0c3f 7196 8abe a492 23be 3bb6 d73d
00000330: f7cd cd3e a315 a93e e760 f2bd f787 863e
00000340: 2998 9e3e 99c0 8b3e b513 f53e 0e6f c1be
00000350: a524 3d3e 6a0a 033e 0068 d43e 182a de3d
00000360: 080f c93e 6bf3 583e a4de 783e d83e 1cbd
00000370: 81d1 10be 47ce f0bd 621b 25bd e3ba 4abd
00000380: 6834 e0bd 7161 453d bc9f 873e 09d3 85bc
00000390: 09cf 433e 206b 7b3e c64d 26be 606f 7f3e
000003a0: 7d09 83bd 6915 fbbc d8cc 17be db5b 803e
000003b0: 5776 653e 8a19 8ebe def4 803d 405d d73d
000003c0: 64c5 04be e220 74be b0b8 923e fe83 a5be
000003d0: c273 893e a609 e93e 4601 003f 837e 0a3f
000003e0: 1e46 7b3c d676 0cbd 5b47 793e fddc af3e
000003f0: 84e0 8abd e958 13bf 99f4 76be 8498 b23e

fc1.bias f4 [64]
0.48548895 0.47365865 0.5972898 -0.17012301 0.77588105 1.2216946 1.5170366 1.2283554
0.993076 0.8909547 0.13956682 0.46631348 -0.26387534 0.65720606 0.011077788 0.7404287
0.81287307 0.6543787 0.47678939 0.254485 0.11353665 -0.05504259 0.29207894 1.359554
-0.04994831 0.5712395 1.2674183 0.4040648 0.38564602 0.9972076 0.9167227 0.5771448
0.44351995 -0.24688876 -0.027827324 0.4661462 0.7340567 0.27349687 0.14711523 0.7152631
1.3262869 0.58428735 0.8219867 0.22711208 0.5929087 -0.48784047 -0.40785003 -0.26001543
0.28539217 1.695888 0.3329442 0.76978606 1.213873 1.0358658 1.002007 -0.21808715
1.2060546 1.2945814 1.4795346 0.10887531 1.7890632 0.74156237 1.0109147 0.86135924
00000000: 0292 f83e 6383 f23e fce7 183f ba34 2ebe
00000010: 24a0 463f 7d60 9c3f 412e c23f c03a 9d3f
00000020: 3b3a 7e3f 9b15 643f 9bea 0e3e a4c0 ee3e
00000030: ab1a 87be a83e 283f 9c7f 353c bc8c 3d3f
00000040: 7318 503f 5d85 273f bd1d f43e dc4b 823e
00000050: e785 e83d 5774 61bd 5f8b 953e de05 ae3f
00000060: 9996 4cbd c03c 123f c33a a23f 95e1 ce3e
00000070: 6573 c53e ff48 7f3f 57ae 6a3f c3bf 133f
00000080: 0c15 e33e 68d0 7cbe 21f6 e3bc b7aa ee3e
00000090: 24eb 3b3f c807 8c3e 60a5 163e 7c1b 373f
000000a0: c5c3 a93f db93 153f b86d 523f 1290 683e
000000b0: ddc8 173f 3ac6 f9be b8d1 d0be be20 85be
000000c0: ec1e 923e dc12 d93f aa77 aa3e b310 453f
000000d0: 3160 9b3f 4097 843f c441 803f 3d52 5fbe
000000e0: ff5f 9a3f d8b4 a53f 6461 bd3f 05fa de3d
000000f0: 0600 e53f 08d7 3d3f a765 813f 0a82 5c3f

bn3.weight f4 [64]
1.0011978 0.59191096 0.13844463 0.033912487 0.87006426 0.5797426 0.6855291 0.3037427
0.754761 0.60667926 0.17880604 0.70484483 0.031618256 0.33006474 0.8686532 0.8225258
0.7408899 0.34474784 0.919914 0.43845063 0.6197044 0.84009933 1.0256925 0.77046907
0.44708276 0.886217 0.6199132 0.17684272 0.5753582 0.8259387 0.60863775 0.4152508
0.8189548 0.056997094 0.035757303 0.84021145 0.7331891 0.93736136 0.7447999 0.724656
0.7887413 -0.022837088 0.52206874 0.52143174 0.6634452 0.36178795 -0.0075075794 0.35836118
0.6452226 0.5792532 0.45318526 0.7909936 0.9557175 0.8688504 0.52213365 0.38705117
0.93340945 0.7760349 0.9495341 0.95194614 1.0907191 0.6918359 0.76342344 0.86327314
00000000: 4027 803f 7a87 173f 6ec4 0d3e d2e7 0a3d
00000010: 88bc 5e3f 036a 143f d67e 2f3f 2a84 9b3e
00000020: 0438 413f 554f 1b3f ee18 373e b670 343f
00000030: 2582 013d 3ffe a83e 0e60 5e3f 0d91 523f
00000040: f6aa 3d3f ca82 b03e 7c7f 6b3f 9a7c e03e
00000050: f3a4 1e3f c010 573f e449 833f 763d 453f
00000060: 08e8 e43e 1edf 623f a2b2 1e3f 4216 353e
00000070: ad4a 133f b870 533f afcf 1b3f c19b d43e
00000080: 06a7 513f c975 693d 4076 123d 1918 573f
00000090: 48b2 3b3f eaf6 6f3f 35ab 3e3f 0e83 393f
000000a0: f3ea 493f d814 bbbc 4ca6 053f 8d7c 053f
000000b0: 8bd7 293f 453c b93e 2402 f6bb 1e7b b73e
000000c0: 4f2d 253f f049 143f e607 e83e 8e7e 4a3f
000000d0: e7a9 743f fb6c 5e3f 8daa 053f 922b c63e
000000e0: ecf3 6e3f 39aa 463f ab14 733f beb2 733f
000000f0: af9c 8b3f 281c 313f b86f 433f 78ff 5c3f

bn3.bias f4 [64]
0.038989827 0.007333608 0.04727425 0.032168627 0.22307554 0.09834893 0.1748535 0.14174166
0.07990475 0.09192858 0.07685785 -0.05391839 0.0065445383 0.08545547 0.20300077 0.18136236
0.11726073 0.08265703 -0.02097118 0.11394994 0.1393455 0.24183254 0.13707732 0.0893164
0.08887261 0.014231219 -0.066906765 0.05734388 0.19894715 0.09653965 0.120201975 -0.06743915
0.02582409 0.04233965 -0.014099829 0.22886339 0.09469866 0.16579506 -0.14618513 0.13601923
0.20538583 -0.015094806 0.13914329 -0.010120774 0.20660494 0.015393444 -0.004338935 0.045361374
0.11219528 0.12481833 0.124641895 0.13129485 0.12061042 0.0757498 0.14482386 0.10768182
-0.0076899566 -0.011529187 -0.059417184 0.15839216 0.16735812 0.21814646 0.1505685 -0.093451485
00000000: ccb3 1f3d c34e f03b a5a2 413d 40c3 033d
00000010: ea6d 643e 2a6b c93d cc0c 333e ba24 113e
00000020: 1aa5 a33d 0d45 bc3d a667 9d3d 88d9 5cbd
00000030: 9173 d63b 4703 af3d 6fdf 4f3e 0eb7 393e
00000040: 6526 f03d 1748 a93d c1cb abbc 965e e93d
00000050: 96b0 0e3e f3a2 773e ff5d 0c3e 84eb b63d
00000060: d802 b63d 0f2a 693c 6a06 89bd 6be1 6a3d
00000070: cdb8 4b3e 94b6 c53d 742c f63d 891d 8abd
00000080: 0b8d d33c 576c 2d3d f802 67bc 2a5b 6a3e
00000090: 5ff1 c13d 2ec6 293e 8eb1 15be a048 0b3e
000000a0: aa50 523e 3550 77bc 947b 0e3e 9ad1 25bc
000000b0: 3f90 533e c934 7c3c a02d 8ebb d9cc 393d
000000c0: a4c6 e53d c1a0 ff3d 4044 ff3d 2872 063e
000000d0: 9902 f73d b622 9b3d b54c 143e 4988 dc3d
000000e0: 08fc fbbb eae4 3cbc 6f5f 73bd 8e31 223e
000000f0: ed5f 2b3e c961 5f3e a12e 1a3e 7e63 bfbd

bn3.running_mean f4 [64]
8.92613 2.004661 12.688377 22.524895 8.13936 9.307042 8.010579 7.8104377
4.52386 9.912863 11.742039 2.272078 18.15014 7.263314 14.500249 7.267967
12.508503 10.342389 3.9110339 4.4156075 9.491801 8.655441 7.845282 9.708683
10.73138 4.9749184 1.7577866 20.741266 5.7380447 11.562492 12.583787 9.794862
4.57679 13.634372 16.127905 5.754539 5.013225 11.225307 4.587392 6.932165
9.840435 6.328036 6.425542 2.741393 6.0520544 3.2786078 7.4825115 4.561327
11.943572 12.044137 4.2776027 6.6561327 11.291739 4.23125 4.020053 8.554273
7.4860373 7.907967 12.945574 3.0253758 12.464565 6.2646923 15.431515 14.998945
00000000: 6ed1 0e41 5e4c 0040 9803 4b41 fc32 b441
00000010: d23a 0241 a5e9 1441 552b 0041 1bef f940
00000020: 76c3 9040 169b 1e41 64df 3b41 ba69 1140
00000030: 7d33 9141 116d e840 0501 6841 3093 e840
00000040: d422 4841 6d7a 2541 614e 7a40 a84c 8d40
00000050: 6bde 1741 b07c 0a41 8d0c fb40 c456 1b41
00000060: bcb3 2b41 8832 9f40 27ff e03f 1dee a541
00000070: 109e b740 f8ff 3841 3157 4941 c1b7 1c41
00000080: 1075 9240 6326 5a41 f305 8141 2f25 b840
00000090: 576c a040 dc9a 3341 eacb 9240 4cd4 dd40
000000a0: 6c72 1d41 457f ca40 0a9e cd40 fc72 2f40
000000b0: 6eaa c140 b6d4 5140 bc70 ef40 64f6 9140
000000c0: df18 3f41 c9b4 4041 1fe2 8840 0aff d440
000000d0: f7aa 3441 6666 8740 46a4 8040 4dde 0841
000000e0: 9e8d ef40 110e fd40 1221 4f41 c29f 4140
000000f0: dc6e 4741 5c78 c840 7ce7 7641 aefb 6f41

bn3.running_var f4 [64]
545.9586 57.55547 1035.3857 597.41595 382.66415 261.70642 185.77275 171.74387
304.34894 333.32864 576.3157 62.993065 580.0831 269.21063 724.7594 288.15182
547.63745 533.0755 123.109924 93.53719 550.72784 601.15955 1228.7917 250.6085
926.0499 358.6511 32.001453 2112.7898 243.31636 271.73798 1076.4495 320.285
143.76602 346.87158 1026.1295 194.80618 155.03874 433.76086 165.93732 795.1003
409.4741 88.39032 181.49373 117.394135 199.08429 88.7352 524.55835 323.6486
960.6954 278.38873 371.80133 455.0237 277.69342 205.67786 108.07234 408.46112
326.3822 223.94876 563.7395 197.54037 457.2334 137.41254 1636.5424 607.47144
00000000: 5a7d 0844 cd38 6642 586c 8144 9f5a 1544
00000010: 0355 bf43 6cda 8243 d3c5 3943 6ebe 2b43
00000020: aa2c 9843 11aa a643 3414 1044 e6f8 7b42
00000030: 5205 1144 f69a 8643 9a30 3544 6f13 9043
00000040: cce8 0844 d544 0544 4838 f642 0b13 bb42
00000050: 95ae 0944 364a 1644 5699 9944 c79b 7a43
00000060: 3283 6744 5753 b343 7d01 0042 a30c 0445
00000070: fd50 7343 76de 8743 628e 8644 7b24 a043
00000080: 1ac4 0f43 906f ad43 2544 8044 62ce 4243
00000090: eb09 1b43 64e1 d843 f4ef 2543 6bc6 4644
000000a0: afbc cc43 d8c7 b042 657e 3543 ccc9 ea42
000000b0: 9415 4743 6c78 b142 bc23 0344 05d3 a143
000000c0: 812c 7044 c231 8b43 92e6 b943 0983 e343
000000d0: c2d8 8a43 88ad 4d43 0a25 d842 063b cc43
000000e0: ec30 a343 e2f2 5f43 54ef 0c44 568a 4543
000000f0: e09d e443 9c69 0943 5b91 cc44 2cde 1744

fc2.weight f4 [8, 64]
0.18277702 -0.05505313 -0.10049696 -0.044303272 0.29693508 0.16429716 -0.24877873 0.053664293
0.24715333 -0.4185129 0.07224454 0.37128124 -0.009060555 -0.097255096 -0.4963442 0.20013049
-0.18366644 0.27693087 0.44208422 -0.4795187 0.068830185 0.13939805 0.08315894 -0.31689796
0.19548272 -0.09535246 0.111238815 0.06851447 0.07411437 -0.14475045 -0.39716774 -0.3431848
-0.22169334 -0.080189176 -0.054051436 -0.18688725 0.09883265 0.19672842 -0.037517898 0.2848284
-0.07104353 0.094630904 0.07099925 -0.20063075 0.3421754 -0.20951544 -0.030326895 -0.085348405
-0.32643273 -0.24484996 0.13667443 -0.33409876 -0.044263463 0.21689698 -0.21066707 0.24152075
0.21678172 -0.31624776 -0.31453177 0.42306724 -0.46196038 -0.17071538 -0.17310628 -0.40434504
-0.6502196 -0.3487129 0.0010623164 0.0057493253 -0.17616773 -0.46477515 -0.23674197 0.18831067
-0.2249543 0.038432024 -0.0361515 -0.35912454 0.018968867 0.12811685 -0.09829567 -0.06666374
-0.141318 0.016365033 -0.6277228 0.050134834 -0.30324104 0.13739932 0.3161719 -0.056081496
0.037122924 0.13749896 -0.124135174 0.19940367 -0.071772285 -0.236536 0.19148181 -0.28147525
-0.1307304 -0.02254468 0.013105153 -0.29923102 0.22438127 -0.08854908 -0.48447463 -0.21826448
0.09082534 0.09437255 -0.13582146 -0.034170676 -0.18644287 0.022409698 -0.019483814 -0.073986724
-0.051709533 0.18751043 -0.0153364595 -0.011126923 0.30189145 -0.4423259 0.2766622 0.08811567
0.2890292 -0.52876246 -0.017039241 -0.26199752 0.35770103 0.24729979 0.578731 -0.034553166
0.0010779388 -0.30139872 0.102573715 -0.11381684 -0.16078176 0.24597725 0.11717068 -0.26104477
-0.29791716 0.07363048 -0.17701584 -0.38723603 -0.06426447 -0.06813496 -0.17374119 -0.6075068
-0.6186351 -0.34068426 -0.16080672 -0.028073208 0.22476867 0.065607235 -0.25736076 -0.20468272
-0.09658073 -0.0428273 -0.24177569 -0.10893537 -0.041674532 0.45978808 0.093864515 0.0607874
0.3528386 -0.17214489 -0.036416948 0.34678906 -0.100626394 0.16420817 0.1208777 0.023276722
0.16257375 0.015755273 -0.46987197 -0.40347555 0.2477315 -0.12993483 0.016454946 -0.24309504
-0.12791242 0.0014932636 -0.1027544 -0.3089951 0.25800088 -0.11488787 -0.4645899 0.037532657
0.26673344 -0.07689483 -0.7275876 -0.22069834 -0.3167502 0.32565108 0.20610586 -0.60165507
-0.18025139 0.0066934004 0.13536175 -0.023465008 -0.56627214 -0.0541456 -0.32701427 -0.019778255
0.21329324 0.09953113 0.009399818 0.20193645 -0.009187422 -0.20731133 0.098636426 -0.27459517
-0.33224723 -0.14946632 -0.096437186 -0.26783237 0.024804099 -0.31626937 0.110572845 -0.2820325
-0.045527246 -0.004514439 0.33323294 0.056476492 -0.48630723 0.16650704 -0.13713351 0.034521658
-0.1416331 0.2161491 -0.179173 -0.33270642 -0.04132543 0.12722692 0.3694563 -0.26417562
-0.453759 -0.071877725 0.091577776 -0.15174146 -0.27082974 0.18620329 0.0039433795 -0.28488067
0.17859459 -0.11716741 -0.3024898 -0.20012707 -0.22393087 0.107785255 0.022160865 -0.02663759
0.1108155 0.3663164 0.13763882 0.10002846 0.27683663 -0.043034922 0.34819645 0.17473608
00000000: e629 3b3e 647f 61bd 5ad1 cdbd 5977 35bd
00000010: e007 983e 843d 283e dabf 7ebe 17cf 5b3d
00000020: c315 7d3e 5347 d6be f2f4 933d 9318 be3e
00000030: b972 14bc ae2d c7bd d420 febe 02ef 4c3e
00000040: 0e13 3cbe e2c9 8d3e dd58 e23e 7a83 f5be
00000050: d7f6 8c3d 5dbe 0e3e 3c4f aa3d 7340 a2be
00000060: 9f2c 483e 2748 c3bd 2dd1 e33d 5051 8c3d
00000070: 46c9 973d 7639 14be 9259 cbbe ebb5 afbe
00000080: 9403 63be 393a a4bd 0a65 5dbd 5f5f 3fbe
00000090: c668 ca3d 2d73 493e 5eac 19bd 07d5 913e
000000a0: 457f 91bd d9cd c13d 0e68 913d 2672 4dbe
000000b0: 9d31 af3e 378b 56be 1c70 f8bc 25cb aebd
000000c0: 3122 a7be f3b9 7abe 62f4 0b3e fe0e abbe
000000d0: 9b4d 35bd 3e1a 5e3e 1cb9 57be 3751 773e
000000e0: 07fc 5d3e 3aeb a1be 4f0a a1be 459c d83e
000000f0: 1286 ecbe 03d0 2ebe c642 31be 5006 cfbe
00000100: cb74 26bf 7f8a b2be 6c3d 8b3a d664 bc3b
00000110: 5065 34be 02f7 edbe 7d6c 72be 83d4 403e
00000120: 6c5a 66be e66a 1d3d 9813 14bd 2cdf b7be
00000130: 9964 9b3c 1031 033e 3d4f c9bd 0087 88bd
00000140: aab5 10be f60f 863c 71b2 20bf 2f5a 4d3d
00000150: 6942 9bbe 68b2 0c3e 49e1 a13e b6b5 65bd
00000160: 350e 183d 87cc 0c3e 953a febd 7a30 4c3e
00000170: 59fd 92bd 7e36 72be cf13 443e 861d 90be
00000180: 31de 05be 9faf b8bc ffb6 563c cf34 99be
00000190: 34c4 653e 3859 b5bd 0f0d f8be b980 5fbe
000001a0: a302 ba3d 6546 c13d c814 0bbe 8df6 0bbd
000001b0: e1ea 3ebe 8b94 b73c 859c 9fbc 5a86 97bd
000001c0: 60cd 53bd bc02 403e c645 7bbc b34d 36bc
000001d0: 8491 9a3e 8a78 e2be aba6 8d3e fd75 b43d
000001e0: a3fb 933e fa5c 07bf e195 8bbc 8a24 86be
000001f0: 9724 b73e 283c 7d3e b727 143f 9f87 0dbd
00000200: a049 8d3a ef50 9abe 2b12 d23d ce18 e9bd
00000210: f9a3 24be 76e1 7b3e 2ef7 ef3d a9a7 85be
00000220: 9988 98be 94cb 963d a443 35be cd43 c6be
00000230: 179d 83bd 588a 8bbd 36e9 31be 9185 1bbf
00000240: df5e 1ebf 2b6e aebe 84aa 24be c9f9 e5bc
00000250: c229 663e 165d 863d cac4 83be 5998 51be
00000260: 1ecc c5bd ae6b 2fbd 0c94 77be 8219 dfbd
00000270: eab2 2abd 5869 eb3e 0a3c c03d 35fc 783d
00000280: 43a7 b43e c046 30be f029 15bd 568e b13e
00000290: 3615 cebd 3026 283e ba8e f73d d3ae be3c
000002a0: bc79 263e 3411 813c 0f93 f0be 5994 cebe
000002b0: 54ad 7d3e a30d 05be 86cc 863c e8ed 78be
000002c0: 79fb 02be 9db9 c33a e670 d2bd 9b34 9ebe
000002d0: b118 843e 554a ebbd bade edbe d8bb 193d
000002e0: 4991 883e 097b 9dbd 2e43 3abf bffe 61be
000002f0: 152d a2be bdbb a63e 6a0d 533e 1106 1abf
00000300: d293 38be 5054 db3b 459c 0a3e b039 c0bc
00000310: 36f7 10bf c7c7 5dbd 6a6e a7be 0206 a2bc
00000320: 8b69 5a3e fad6 cb3d b201 1a3c 6ec8 4e3e
00000330: d786 16bc 6c49 54be e501 ca3d bd97 8cbe
00000340: 4f1c aabe b30d 19be dc80 c5bd 5321 89be
00000350: f731 cb3c 0fee a1be 0474 e23d 9066 90be
00000360: c77a 3abd dced 93bb 829d aa3e e553 673d
00000370: 43fd f8be d280 2a3e ba6c 0cbe 9566 0d3d
00000380: 4408 11be 3156 5d3e 2079 37be 7f58 aabe
00000390: db44 29bd c647 023e 6029 bd3e 0742 87be
000003a0: 1a53 e8be a134 93bd 218d bb3d 1d62 1bbe
000003b0: 32aa 8abe 13ac 3e3e 7737 813b e1db 91be
000003c0: 80e1 363e 78f5 efbd f1df 9abe 1cee 4cbe
000003d0: 224e 65be 84be dc3d b48a b53c 1337 dabc
000003e0: 3df3 e23d d38d bb3e 31f1 0c3e b9db cc3d
000003f0: 88bd 8d3e 6345 30bd ce46 b23e 04ee 323e

fc2.bias f4 [8]
-0.11133415 -0.020358209 -0.036807664 -0.45717695 -0.80936456 -0.4197399 -0.22031322 -0.20436113
00000000: 2903 e4bd 42c6 a6bc a2c3 16bd 1913 eabe
00000010: 8432 4fbf 26e8 d6be ca99 61be 0b44 51be

fc3.weight f4 [5, 8]
-0.0063965498 -0.4494615 0.0337155 0.085166514 0.17712061 -0.12486611 0.11801595 0.3854797
-0.19523603 0.3736385 0.2672003 0.23067915 -0.22146799 -0.3244713 0.1904077 -0.25534317
-0.072951816 0.20273522 0.4287744 -0.093863785 -0.12080501 0.075505115 -0.32406694 -0.08567324
-0.33982265 0.18477468 0.3945718 0.18569432 -0.20857559 -0.40743828 -0.1272674 0.27121472
-0.4664014 0.26581353 -0.102291964 0.089613244 0.1315075 0.13948229 0.071609706 0.20338081
00000000: 269a d1bb d11f e6be 4419 0a3d c86b ae3d
00000010: 1b5f 353e ceb9 ffbd 59b2 f13d 985d c53e
00000020: f4eb 47be 8c4d bf3e 7ace 883e 2837 6c3e
00000030: 81c8 62be 1a21 a6be 3cfa 423e 57bc 82be
00000040: c367 95bd d299 4f3e 5188 db3e a83b c0bd
00000050: 9e68 f7bd 6da2 9a3d 1aec a5be 7475 afbd
00000060: 3cfd adbe 9335 3d3e 5105 ca3e a726 3e3e
00000070: d794 55be c09b d0be 6352 02be a8dc 8a3e
00000080: 2acc eebe b618 883e 737e d1bd 2687 b73d
00000090: e7a9 063e 72d4 0e3e 1ca8 923d 0f43 503e

fc3.bias f4 [5]
0.10486793 0.1625179 0.1451657 0.10143274 0.09425369
00000000: ffc4 d63d 186b 263e 51a6 143e f8bb cf3d
00000010: 1408 c13d

square_avg f4 [64]
9.064983e-07 1.7175612e-06 5.6613967e-06 1.8755026e-06 1.6174737e-06 1.5756224e-06 1.7245451e-05 3.7157097e-05
6.80785e-07 6.588209e-06 3.4574846e-06 1.7324089e-07 2.5430443e-06 1.5079797e-06 1.5513025e-06 8.704483e-07
1.16739875e-05 3.0960734e-06 5.0644567e-06 7.866839e-06 1.7379838e-05 4.803499e-06 2.9178934e-06 4.106546e-06
1.6611042e-06 1.947464e-05 7.1583474e-07 5.263797e-07 4.1269673e-06 4.4568404e-07 2.7367041e-06 2.8966049e-06
1.361546e-05 2.9787404e-06 7.554002e-08 2.1567457e-06 1.7413939e-07 6.926047e-06 1.6549104e-06 1.0905425e-06
1.9081372e-06 8.360198e-06 6.437579e-06 7.254857e-06 1.1698225e-05 2.6507926e-06 1.5746538e-06 7.377253e-07
2.7916522e-06 4.812211e-06 1.3122599e-06 2.507851e-07 1.1783183e-05 4.2465214e-07 1.0256242e-05 4.147399e-06
7.2952403e-06 1.4328668e-07 3.6360182e-06 5.6003245e-07 2.2212382e-06 4.08575e-06 5.5576506e-06 2.0612956e-06
00000000: 1756 7335 f486 e635 07f7 bd36 c7b9 fb35
00000010: f917 d935 f979 d335 53aa 9037 21d9 1b38
00000020: 30bf 3635 4910 dd36 2207 6836 1804 3a34
00000030: 2ba9 2a36 ca65 ca35 5936 d035 c0a8 6935
00000040: 65db 4337 23c6 4f36 5aef a936 d1fb 0337
00000050: ebca 9137 be2d a136 07d1 4336 f6ca 8936
00000060: 1bf3 de35 795d a337 ca27 4035 8a4c 0d35
00000070: 617a 8a36 5946 ef34 38a8 3736 4b63 4236
00000080: f56d 6437 5fe6 4736 9138 a233 9cbc 1036
00000090: 12fb 3a34 4a66 e836 4a1e de35 c15e 9235
000000a0: 8c0d 0036 c742 0c37 6202 d836 bf6e f336
000000b0: 7e43 4437 45e4 3136 b158 d335 1908 4635
000000c0: 3858 3b36 9478 a136 e820 b035 a4a3 8634
000000d0: 63b0 4537 bffb e334 3912 2c37 e329 8b36
000000e0: a3c9 f436 58da 1934 5102 7436 2355 1635
000000f0: 9510 1536 5318 8936 db7b ba36 ca54 0a36
