tuning_results/best_models_during_tuning_lightning_logs/ec_standGCN_best_model_during_tuning/checkpoints/epoch=86-train_loss=1.41-train_f1=0.31-val_loss=1.63-val_f1=0.35.ckpt (torch, 105170 bytes, 38 tensors)

conv1.bias f4 [64]
000000 d3 dc 49 3e 1a d4 ce be 7e 5a 11 bf 05 13 ea be
       0.19713144 -0.40396196 -0.56778705 -0.45717636
000010 8e 48 10 bf 89 7e 51 be 5f 6b 96 be b8 06 d3 be
       -0.5636071 -0.20458426 -0.29378793 -0.41216063
000020 2c a7 34 bf b1 61 a8 3e 68 16 5a bf 90 42 13 be
       -0.70567584 0.32887033 -0.8519044 -0.1438086
000030 34 49 6e be 59 f7 7d bf 84 19 58 3e 63 7b 9a bf
       -0.23270112 -0.9920555 0.21103483 -1.2068905
000040 28 fc 3a bf 58 19 d3 bb 43 d3 90 be 27 49 93 be
       -0.7304101 -0.00644223 -0.2828618 -0.28766748
000050 98 fe 67 bf 67 c4 84 3d 29 43 53 3c ad eb 18 bf
       -0.90622854 0.06482773 0.01289443 -0.5973461
000060 4e dc 64 bf a5 7d c9 be f4 ae 1a be 04 c6 98 3d
       -0.8939866 -0.39353672 -0.15105802 0.074596435
000070 d9 d0 9d be c2 49 1f ba 4a ad df bd a3 5a e3 bc
       -0.308234 -0.00060763594 -0.10921724 -0.02775318
000080 d8 39 f1 be 21 55 74 bf 1a 67 fc be 68 a1 cb 3c
       -0.47114444 -0.95442396 -0.4929741 0.024857238
000090 c7 28 03 3e 70 30 e3 be 3a 8c 2f 3f 74 34 02 be
       0.12808524 -0.44372892 0.68573344 -0.12715322
0000a0 25 66 4f bd 90 4c 66 bf d3 7c 90 be f1 40 1c be
       -0.050634522 -0.89960575 -0.28220233 -0.15259148
0000b0 f2 6b 76 bf 94 fe 94 be 6c 2e 0e bf ce 5b 8e be
       -0.9625846 -0.29100478 -0.55539584 -0.27804416
0000c0 ed 4b f0 be 6d 54 c1 be 75 52 83 be 18 1c a1 be
       -0.46932927 -0.37759724 -0.25648847 -0.31466746
0000d0 57 27 05 bf 6b 94 a4 be 81 b4 42 bf 32 0a a3 bd
       -0.5201315 -0.32144484 -0.7605668 -0.07960929
0000e0 80 a0 44 bf 3a e2 39 3e 1b 6d 61 be 3d a2 2c bf
       -0.76807404 0.18152705 -0.22014277 -0.67435056
0000f0 cb 4b 2d bf 2d 29 12 bc 73 b2 94 bf 0d 3b 08 be
       -0.67693776 -0.00892095 -1.1616958 -0.13303776

conv1.lin.weight f4 [64, 25]
000000 2f 21 aa 3e c8 06 73 3e 15 18 e8 3e bb 5e de b8
       0.33228442 0.23733056 0.45330873 -0.0001060343
000010 4c 5e c2 3e 9f 1c 8d be da 0b 9b be d5 2a cc be
       0.37962568 -0.275609 -0.3028248 -0.39876428
000020 4c d7 f9 bd 80 d4 43 be 4f 6b 3c bf d5 37 15 be
       -0.12199268 -0.19124031 -0.7360124 -0.1457208
000030 3c 7a 46 be fd fa 2e be 66 cd 54 be c9 31 7b bd
       -0.19382566 -0.17087932 -0.20781478 -0.061326776
000040 ac aa 53 bf 56 cf 50 bf c4 fc b7 be 8a ed e2 3e
       -0.826823 -0.8156637 -0.35935032 0.44321853
000050 59 11 d8 3d 6e 1d 9c bf b0 67 8f bf 3e 46 2a 3e
       0.10550184 -1.2196481 -1.1203518 0.16628358
000060 f2 33 9d be 4b 5e a2 bd 2e 4c 24 3f a8 c2 75 3e
       -0.30703694 -0.07928141 0.6417874 0.24000037
000070 dd 0e ab 3e f4 f8 8d 3e 2c af 19 bf e5 ae 03 bd
       0.33409777 0.27729 -0.60032916 -0.032149214
000080 ab cd dd 3d a3 27 aa 3d 0b 25 51 be f4 37 04 bf
       0.10830244 0.08308341 -0.20424287 -0.5164788
000090 a4 a7 f7 be c7 6c 8f be f0 8c 89 be 89 fa 3c 3e
       -0.48370087 -0.28012678 -0.2686534 0.18454947
0000a0 0f c0 96 3e 77 7d db 3e 15 7a d1 bc 71 04 47 be
       0.29443404 0.4286916 -0.025570909 -0.19435288
0000b0 da a6 58 3d 85 52 08 bf 59 e1 52 bf b1 e0 6f bf
       0.052893497 -0.53250915 -0.82375103 -0.93702227
0000c0 e6 e2 ab be 5c 5e 06 bf 5b f9 ad 3d 80 95 15 3f
       -0.33571547 -0.5248773 0.084948264 0.58431244
0000d0 81 0c a9 3e d6 e5 12 bf d1 00 ca be 61 79 89 be
       0.33017352 -0.5738195 -0.39453748 -0.26850417
0000e0 50 e9 ed bd 53 12 41 3e 6e d2 04 3c b6 da 20 be
       -0.116167665 0.18854646 0.008106811 -0.15708432
0000f0 ef df 29 3f 7d 14 4d be 6b 83 89 bd 0d 8c 04 3f
       0.6635732 -0.20027347 -0.06714519 0.517762
000100 f9 a1 ad 3e e8 63 94 be 2d db 97 3e 3e 48 c2 3e
       0.33912638 -0.28982472 0.29659405 0.3794574
000110 9f 94 90 bd 35 42 31 be aa 73 0f 3f 73 ee 03 bf
       -0.07059597 -0.17310412 0.56035864 -0.5153572
000120 5a 0a 29 bf bc a0 f3 3e 1e 1d 8b 3e 0d da 71 3e
       -0.6603142 0.47583568 0.27170652 0.23618336
000130 3c 38 c8 3d 79 49 09 bd c2 98 17 bf de d2 32 bf
       0.09776351 -0.033517335 -0.59217465 -0.6985301
000140 76 d4 67 3f 0e 37 c6 3e 06 8e 86 3e 03 93 05 3f
       0.90558565 0.38713878 0.2628023 0.5217745
000150 47 00 b4 3e 8d 25 e3 bd d0 66 bf be df 09 9d bd
       0.35156462 -0.110911466 -0.37383127 -0.076678984
000160 ae 54 c9 bd 81 12 75 3d 59 81 a0 be 34 ae 4b be
       -0.098306045 0.0598321 -0.31348684 -0.19890672
000170 bb 36 80 bb 1c 9c 9a 3e 36 fb 31 be 55 0b 3f bf
       -0.0039127744 0.30197227 -0.17380986 -0.74626666
000180 85 b3 35 3e 16 e4 2a 3e fa 02 75 bf 2a ce 32 be
       0.17744263 0.1668857 -0.95707667 -0.17461458
000190 7f d5 dd bd 71 4f b8 3e 89 7b de 3e af 26 e3 bd
       -0.10831737 0.3599811 0.43453625 -0.11091363
0001a0 7e f1 f9 bd b9 38 38 be 3a 20 9f 3e 62 4d 85 3e
       -0.12204264 -0.17990388 0.31079274 0.260356
0001b0 18 ab 78 bd 7e 0d 68 be 9d 15 14 3f c6 6e 22 be
       -0.060710043 -0.22661397 0.5784548 -0.15862569
0001c0 44 04 c3 be 55 9a 50 3e fe 8c 90 be 77 18 1a 3f
       -0.38089192 0.20371373 -0.28232569 0.6019358
0001d0 0f ba a4 bf 82 94 ac bf 3f 19 a0 3e 8e 82 6a 3c
       -1.286928 -1.3482821 0.3126926 0.014313353
0001e0 79 97 86 be 84 72 2b 3e 95 a3 34 3e 58 91 33 3f
       -0.2628744 0.16742903 0.17640527 0.7014365
0001f0 2f b2 c8 3b 95 8c d4 3e 69 af ab 3e 54 54 6b 3e
       0.0061247568 0.41513506 0.33532265 0.22981387
000200 1f 3c e9 3d e1 b1 43 3d 91 49 89 3e 05 32 39 be
       0.1138842 0.04777706 0.2681394 -0.18085487
000210 32 e7 12 be 96 9d c6 be 61 78 ef be a3 27 52 3f
       -0.14346007 -0.38792104 -0.4677153 0.8209173
000220 f8 cf 87 3d a4 b1 1b 3e 10 cc 5d 3e 3e cf cc 3d
       0.06631464 0.15204483 0.21659875 0.10000466
000230 5c c8 0f be 6a ce 9a bf 10 9a 93 bf 10 c8 7b 3e
       -0.14041275 -1.2094243 -1.1531391 0.24588037
000240 80 fc 9e be a2 3a 87 3d 72 58 a8 3e e9 ca 94 3e
       -0.31052017 0.0660298 0.32879978 0.29061058
000250 66 78 c9 3e f9 9c 05 bd 4b a5 07 3f e0 df 7f bd
       0.3934967 -0.032620404 0.5298659 -0.062469363
000260 96 8f 74 be d7 01 de 3e 36 4b 6d be 12 04 c9 be
       -0.23882899 0.4336078 -0.23173222 -0.39260918
000270 76 3f 91 3f e6 75 8c 3f 28 f5 88 be 61 5b 92 3e
       1.1347492 1.097348 -0.2674954 0.28585342
000280 1e 27 48 3f 62 47 a9 3e c3 6f ff 3e 41 8b c9 3c
       0.7818469 0.33062273 0.49889955 0.024602534
000290 26 c4 79 bd 87 a6 81 3d 9b 9c 81 3e 6c 66 78 3e
       -0.060978077 0.06330591 0.25314793 0.24257821
0002a0 23 0e 77 3e fe 20 92 bd 44 f4 11 ba 7a 25 b7 3e
       0.24126486 -0.07135199 -0.00055677094 0.3577078
0002b0 bf 81 0e 3f 1f c3 2d bf 76 74 dd be ce 07 c0 bd
       0.55666727 -0.67875856 -0.43252915 -0.093764886
0002c0 82 7d a7 bd b6 b6 c4 bd c4 08 af bd e7 4e 5f be
       -0.081782356 -0.09605162 -0.08546594 -0.21807443
0002d0 cc ba da bd b8 2a 34 bf 04 d1 06 bf 66 95 48 3e
       -0.1068016 -0.70377684 -0.5266268 0.19588241
0002e0 e0 cf f0 be d9 d4 a1 bd e3 eb b7 3e 3e 0b 81 3e
       -0.47033596 -0.079019256 0.35922155 0.2520389
0002f0 70 86 2a 3e 53 f1 e5 3d 0d dc b0 be 0b e6 86 bf
       0.16652846 0.112276696 -0.34542885 -1.0538954
000300 6e c9 8b bf c9 2a eb be 19 a5 a4 be 0b 4d b9 bd
       -1.0920846 -0.4593108 -0.3215721 -0.09047898
000310 79 cb 6a bf 82 d7 50 bf 8b f8 9a 3e 89 3f c1 bd
       -0.91716725 -0.8157884 0.30267748 -0.094359465
000320 ac 29 11 be 75 15 10 be e9 1a 7a 3e a2 94 d6 3d
       -0.14176053 -0.14070685 0.24424328 0.10477568
000330 ed f2 67 3d 6f de dc 3e f6 48 26 3f 10 c1 2a 3f
       0.056628156 0.43138453 0.6495508 0.6670084
000340 dc f1 a5 bd 93 b4 b0 be cb 47 0d bf 97 fc 2c bf
       -0.08102772 -0.34512767 -0.5518767 -0.6757292
000350 9b b4 6b bf 7e 28 9b 3e 06 a9 98 3e 90 10 ad 3e
       -0.9207246 0.3030433 0.29816455 0.338017
000360 8a 1d 63 3e 6c 33 92 3e f1 b1 2d be 74 7f 94 be
       0.22179237 0.28554857 -0.1696241 -0.2900349
000370 2a 6a e9 bd b5 f2 f5 3e c2 e5 48 3d 88 4e 0f 3d
       -0.11397202 0.48036733 0.04904724 0.034987003
000380 e2 7a eb 3e ed 05 b6 3e 11 8a f3 3e 2e cf 19 3f
       0.4599219 0.35551396 0.47566274 0.60081756
000390 ce e1 69 be 50 28 97 3e 92 33 ad 3e 7c e1 10 bf
       -0.22840044 0.29522943 0.33828408 -0.5659406
0003a0 65 ed aa be bc a1 1a be 75 f2 8a be 2c 7e 70 be
       -0.33384243 -0.1510076 -0.27138105 -0.23485631
0003b0 7f 4d 95 be d1 28 02 bf d0 b4 96 be 3a cd f9 bc
       -0.29160687 -0.5084353 -0.29434824 -0.030493367
0003c0 1a 0d 08 be a7 af 0d 3f 43 7b c2 3e bc 36 78 be
       -0.13286248 0.5534615 0.37984666 -0.2423963
0003d0 ac 72 9a 3e c9 de f5 3e 64 41 58 bf 50 f2 a2 bf
       0.30165613 0.48021534 -0.8447478 -1.2730198
0003e0 b7 f0 91 3e 8d 32 a9 be 30 a1 16 3c 79 82 ff 3d
       0.28503963 -0.3304638 0.0091937035 0.124760576
0003f0 c6 49 c2 bd 69 df 9e bd 8d 03 96 3d a0 e5 5f be
       -0.094867274 -0.07757456 0.07324896 -0.21864939

bn1.weight f4 [64]
000000 fb 76 65 3f c9 c7 2b 3f e8 37 81 3f 2b 18 4f 3f
       0.89634675 0.6710172 1.0095186 0.8089625
000010 12 17 60 3f 0a c9 3b 3f b2 e6 b3 3f ea d3 e1 3f
       0.875352 0.73353636 1.4054778 1.7642796
000020 2e ad 2e 3f b7 b5 a1 3f 79 57 6e 3f eb c2 0c 3f
       0.68233 1.263358 0.9310222 0.5498492
000030 66 b8 79 3f 40 e6 63 3f f1 22 64 3f 4f 81 48 3f
       0.97546995 0.8902321 0.89115816 0.7832231
000040 64 81 aa 3f 5c 04 98 3f c5 f5 b1 3f 4b 38 a5 3f
       1.3320737 1.187633 1.3903128 1.2907804
000050 7a 30 70 3f de 18 94 3f 32 5e 8e 3f 1f d8 65 3f
       0.9382397 1.1570089 1.1122496 0.897829
000060 21 6e 81 3f 2f 2f a8 3f e0 66 30 3f 35 7b 24 3f
       1.0111734 1.3139399 0.68906975 0.642505
000070 c0 96 75 3f cb 48 04 3f 94 e3 7b 3f 5d 1e 92 3f
       0.9593315 0.51673573 0.9839413 1.1415516
000080 46 55 da 3f e8 61 80 3f b9 b0 b8 3e 32 28 79 3f
       1.7057273 1.0029879 0.3607233 0.9732696
000090 aa 08 ff 3e 98 d0 b3 3f c3 3b 61 3f 3c 3a 5b 3f
       0.49811298 1.4048033 0.87981814 0.85635734
0000a0 f7 d4 86 3f 64 be cd 3f 52 c8 a2 3f 6d e4 b5 3f
       1.0533742 1.6073728 1.2717383 1.4210335
0000b0 ae 60 8c 3f 78 57 a7 3f 50 d9 89 3f de e2 39 3f
       1.0967004 1.3073568 1.0769444 0.72611797
0000c0 cc 02 a5 3f 69 41 99 3f 12 b2 89 3f 38 19 c9 3e
       1.2891479 1.1973087 1.0757468 0.39277053
0000d0 9a 82 b4 3f 79 5d 16 3f bd 0f a3 3f a0 79 91 3f
       1.4102356 0.5873638 1.2739178 1.1365242
0000e0 d7 0c b4 3f 3d 05 ad 3e f6 91 a4 3f 5e b4 2a 3f
       1.4066418 0.3379306 1.2857044 0.6668147
0000f0 f5 2f 83 3f ca e0 8c 3f cf 3f 7d 3f 88 49 7a 3f
       1.024901 1.10061 0.9892549 0.9776845

bn1.bias f4 [64]
000000 17 9f 43 be 27 39 e5 bd 22 9d a1 be 30 87 55 3f
       -0.19103657 -0.111925416 -0.31565195 0.83409405
000010 7a 3e c1 be be 41 2c 3f 6d 98 95 3e f1 d5 80 be
       -0.37742978 0.67287815 0.29217854 -0.25163224
000020 df e9 58 3d e0 9b ad bd 91 e8 bf 3d eb ac cd be
       0.05295741 -0.084769964 0.093705304 -0.40170988
000030 04 2e 49 3f d5 1b dd bd 58 60 af bb c5 7d a1 be
       0.7858584 -0.10796324 -0.0053520612 -0.31541267
000040 0e 38 ed 3e 67 0a 0c 3f b8 0d 23 bf 8d e0 c3 3e
       0.4633183 0.5470337 -0.6369281 0.38257256
000050 aa e3 f9 bd b5 fa 61 3e 8f f1 a3 be cc a5 9e 3d
       -0.122016266 0.22068293 -0.32020232 0.07746467
000060 22 e3 d9 be be 55 59 3f 6c d2 86 3e cb cf f6 be
       -0.425561 0.8489646 0.26332414 -0.48205408
000070 75 b0 8e be 3d 69 09 be fd e7 9e 3e 95 ca 43 3f
       -0.27869 -0.13419051 0.31036368 0.7648099
000080 00 30 70 3d 85 c9 aa 3d d4 1e 08 3e 82 97 05 3f
       0.058639526 0.08339218 0.1329301 0.5218431
000090 05 98 0d bf 52 fa b0 3d 34 4f 1e 3e bc 33 7a 3f
       -0.5531009 0.08641495 0.15459901 0.9773519
0000a0 c1 09 fb 3e 4f d0 af be db 29 34 3d 0a 5e 10 be
       0.4903088 -0.34338614 0.04398523 -0.14098373
0000b0 8a 87 65 be e8 27 1f bf 94 13 16 bf b6 59 3b be
       -0.22414985 -0.6217027 -0.58623624 -0.18295941
0000c0 9f 89 31 bd 4f c8 51 be 34 d4 5d bf bb 56 e0 3e
       -0.043344136 -0.20486568 -0.8665192 0.4381617
0000d0 03 7f 6c be 7c 0c cb 3e 68 e5 5a be 68 5c b4 3d
       -0.23095326 0.39657962 -0.21376574 0.088066876
0000e0 06 38 04 3f 5e 17 73 3d 25 ae 85 3e 1d 38 bc 3e
       0.51647985 0.059348457 0.26109424 0.3676156
0000f0 2e d7 5a 3e d9 2e 52 bd 33 7d 9b 3d 36 51 da bd
       0.21371147 -0.05131421 0.07592239 -0.10660021

bn1.running_mean f4 [64]
000000 3b ab f2 3f f2 3c 90 3f 59 c2 34 3f d9 00 b7 3f
       1.8958505 1.1268599 0.7060905 1.4297134
000010 8d 7b c1 3f e3 67 9d 3f a0 86 6a 3f 0a d9 83 3f
       1.511583 1.2297329 0.9161167 1.030061
000020 c6 29 e1 3f f5 11 ce 3f 9a df 73 3f b8 0a 24 40
       1.7590873 1.609923 0.95263064 2.5631542
000030 15 e6 a2 3f 8c aa 18 3f d6 48 91 3f 7f 30 1e 3f
       1.2726465 0.59635234 1.1350353 0.6179275
000040 f9 3e 09 3f d9 fa 9a 3f a1 3e 82 3f 34 5a 63 3f
       0.53611714 1.2107803 1.0175363 0.88809514
000050 f1 1a 9c 3e de 8d a1 3f e2 33 91 3f 17 52 70 3f
       0.30489305 1.262142 1.1343958 0.9387526
000060 cd 37 5a 3f 9d 7e 16 3f e6 0c 95 3f 9d 03 f1 3f
       0.85241395 0.58786947 1.1644561 1.8829228
000070 c6 34 7d 3f f2 56 6f 3f c9 cd ee 3f c4 91 87 3f
       0.9890865 0.93492043 1.8656551 1.0591359
000080 9d 05 07 40 bc 55 78 3f 48 d5 02 40 ce 45 77 3f
       2.1097176 0.9700582 2.0442677 0.9659089
000090 88 4c fe 3f 0e c7 95 3f 06 40 0c 40 a1 2d 92 3f
       1.9867105 1.1701372 2.1914077 1.1420175
0000a0 a5 63 db 3f 4b 47 0f 40 82 a3 b9 3f 89 b9 b7 3f
       1.7139784 2.2387264 1.4503024 1.4353496
0000b0 e9 51 ee 3e bd 53 b0 3f 5f 1b fb 3f 5c 44 c1 3f
       0.46546867 1.3775555 1.9617728 1.5098987
0000c0 0f 6d f9 3f 30 0b 8c 3f 15 58 9e 3f 51 e6 60 3f
       1.9486407 1.0940914 1.237063 0.87851435
0000d0 b0 43 3a 3f a2 45 81 3f 83 bd 37 3f b9 c3 ab 3f
       0.7275953 1.0099375 0.71773547 1.3419105
0000e0 63 e7 92 3f c9 cd a1 3f 43 f9 a4 3f 88 f2 93 3f
       1.1476864 1.2640926 1.2888569 1.155839
0000f0 ef 85 85 3f 54 4c cf 3f 7c 87 d3 3e 10 22 c2 3f
       1.0431498 1.6195168 0.41314304 1.5166645

bn1.running_var f4 [64]
000000 1c 0d a1 40 b2 07 06 40 e7 4c e9 3f 0e 2e 7b 40
       5.0328503 2.0942197 1.8226594 3.924686
000010 cc aa 85 40 60 fb 23 40 a8 c7 ea 3f 6f 91 06 40
       4.177099 2.5622177 1.834218 2.1026266
000020 5d 8e 9c 40 af 2e 72 40 34 03 e3 3f 26 de 28 41
       4.8923783 3.7840993 1.7735353 10.554235
000030 5a 3b 41 40 99 e7 30 40 17 81 32 40 15 98 22 40
       3.0192475 2.7641356 2.789129 2.5405324
000040 83 85 c8 3f 8d 4b a9 40 c7 74 06 40 b9 b4 00 40
       1.5665745 5.2904725 2.1008775 2.0110304
000050 e3 43 c0 3e 87 b7 c0 40 96 8f 4a 40 6d 11 06 40
       0.37551793 6.0224032 3.1650138 2.0948136
000060 34 25 37 40 9f d7 82 3f 9b 0b 66 40 91 f9 c0 40
       2.8616457 1.0222052 3.5944583 6.0304646
000070 d7 76 58 40 16 7d 2b 40 4c 2b a2 40 c6 ed 9b 40
       3.3822534 2.6795096 5.0677853 4.872775
000080 2d a7 66 40 5a 23 87 40 df ff f4 40 7b f8 3b 40
       3.6039536 4.2230654 7.6562343 2.937041
000090 76 72 e1 40 20 9c 18 40 0f aa b4 40 0b 0a cc 40
       7.0452223 2.384529 5.645759 6.376226
0000a0 03 ea 57 40 06 f5 04 41 09 1f 3a 40 0e 75 8c 40
       3.373658 8.30982 2.9081442 4.389289
0000b0 e1 4e 94 3f 58 ff b3 40 5f f4 ca 40 f6 88 32 40
       1.1586572 5.62492 6.3423305 2.7896094
0000c0 99 b2 aa 40 9c 0b 3a 40 7a 75 85 40 43 e2 73 40
       5.3343015 2.9069586 4.1705904 3.810685
0000d0 d6 a8 bd 3f 71 4e 82 40 a6 9e 07 40 a6 c9 2f 40
       1.481715 4.0720754 2.1190581 2.7466826
0000e0 09 80 6a 40 5c 40 ac 40 ac 4c 7a 40 0f 05 e4 40
       3.6640646 5.3828564 3.9109297 7.1256175
0000f0 dd 82 20 40 f8 b8 3c 40 37 08 8e 3f 55 28 49 40
       2.5079873 2.9487896 1.1096257 3.1430867

conv2.bias f4 [64]
000000 79 d2 02 bb 7f 0e 28 3e 33 c5 2d 3f 3b db f9 3d
       -0.0019961877 0.1641178 0.6787903 0.12200018
000010 80 dd 0f 3e ab ee 02 3f d9 99 af 3e 1f 85 5e bd
       0.1404934 0.5114543 0.34297064 -0.054326173
000020 61 92 03 3e c7 16 0c bd 4b ce 44 3e ed 7a 56 3f
       0.12848808 -0.03420141 0.1921932 0.8378132
000030 8b 96 3f 3f 6a 27 44 3f ba 73 03 3f b1 a0 38 3d
       0.74839085 0.7662264 0.5134846 0.045075122
000040 51 2f 01 bd 76 d5 0b 3f ea 1f 91 3e 36 d8 3d 3f
       -0.031539265 0.5462259 0.2834466 0.74158037
000050 d8 de 33 3f fc 71 0d 3e 36 de 9c 3e 73 d2 13 3f
       0.7026191 0.13813013 0.30638283 0.57742995
000060 d2 40 da 3c 94 1f 33 3e 56 cf 07 3f 02 65 d6 bd
       0.026642237 0.17492515 0.53050745 -0.104684845
000070 1f 54 cb 3e 35 d3 a5 3e 65 fc dd 3d 7a 1c 1e 3e
       0.39712617 0.323877 0.10839156 0.1544055
000080 13 e8 2f 3f 87 85 89 3e 0e 8b 8d be de 5a 08 bf
       0.6871349 0.26859686 -0.27645153 -0.5326365
000090 9d bd 06 3f 48 cb 50 bf a3 9a 8b bd 26 7d 35 3f
       0.52633077 -0.8156018 -0.06816604 0.70894086
0000a0 cd 00 3f 3e 06 91 2e 3e 5e ec 28 bd af 88 83 3e
       0.18652649 0.1704751 -0.041241042 0.2569022
0000b0 e0 c9 0d 3e 21 ca e8 3d 40 01 e9 bd 06 07 8e 3c
       0.1384654 0.11366678 -0.113771915 0.017337333
0000c0 6a 2c c6 3d ed 95 9e bc 9f b4 0a bf a1 41 f2 bc
       0.0967644 -0.0193586 -0.54181856 -0.02957231
0000d0 d6 c5 02 3f d5 30 6f 3f 79 4a 2a 3f 65 ad 80 3f
       0.51083124 0.93433887 0.66519886 1.0052916
0000e0 e7 88 f8 3e 15 83 c4 3d 46 13 8d 3e c6 0b ae be
       0.48541948 0.095953144 0.27553767 -0.33993357
0000f0 c5 0f e5 3d e9 2f 70 3e 06 09 e1 3e d0 77 58 bd
       0.111846484 0.23455776 0.43952197 -0.052848637

conv2.lin.weight f4 [64, 64]
000000 c4 94 e2 3d 17 88 17 bd a9 54 a3 3e 67 0d d0 3e
       0.11063531 -0.03699502 0.31900528 0.40635225
000010 54 a6 f9 bd 41 b9 ed bd e8 16 37 3e db 93 16 be
       -0.12189928 -0.116076 0.17879832 -0.1470484
000020 14 2e 28 bd 76 8c ee bd fb 68 a6 bd 37 2f 19 3f
       -0.04105957 -0.116478845 -0.08125492 0.5983767
000030 ae 20 45 bf 2b 06 86 3e c7 a6 96 3e 6f 41 c5 3d
       -0.7700299 0.2617658 0.29424116 0.09631621
000040 a2 91 db be 41 da ac bd 20 1e 07 be 2c 65 20 3e
       -0.42884547 -0.08440066 -0.13195086 0.15663594
000050 4a 9d f4 3e 4e 2d 3d be 25 c4 63 be 56 b2 72 3e
       0.47776252 -0.18474314 -0.22242792 0.23700842
000060 27 86 9a 3e 7c e4 39 bf 93 e9 c6 3e f9 92 2d 3e
       0.30180475 -0.72614264 0.38850078 0.16950597
000070 16 0f 2c 3f 09 65 d4 be cf f3 d9 3e a3 f6 03 be
       0.6721052 -0.41483334 0.42568824 -0.12887053
000080 5a 8a 68 bf ff 84 b9 be 8b a8 ba 3d 40 fc cd bd
       -0.9083611 -0.3623428 0.09114178 -0.100578785
000090 3b 6a ee 3e 3f d3 2f bf fe 27 07 3f 2b 9e ad 3d
       0.46565422 -0.6868171 0.527954 0.08477434
0000a0 e9 ac ac bc ca 85 04 3e a5 d9 ad be 2b 11 57 3f
       -0.021078544 0.12941661 -0.33955112 0.8401057
0000b0 54 4a e5 3d 1a c7 f7 3e de 7c 7f 3e d9 8c 85 3e
       0.111958176 0.4839409 0.24949977 0.2608402
0000c0 a3 5c 54 3e d1 ec 62 3e 21 e8 fc 3e a6 72 8d be
       0.20738463 0.22160651 0.4939585 -0.27626532
0000d0 1f 0b c3 be 7f d5 0a 3e 9f 79 de be 4c 62 c6 3e
       -0.38094422 0.13558005 -0.43452165 0.3874687
0000e0 1a 28 e6 be fb 27 bb 3e ea 92 ca 3e 6b e4 a2 be
       -0.4495247 0.3655394 0.39565212 -0.31814894
0000f0 55 39 74 3f cb 2d e4 be fe 9d a7 3e bb 76 a0 be
       0.9539998 -0.44566187 0.32737726 -0.31340584
000100 a2 d9 24 be d3 f6 21 3f 42 68 1b 3e 2c f9 ba be
       -0.16098645 0.6326725 0.1517649 -0.36518228
000110 bd e5 06 3e 5c db f0 be e3 fd c9 3e 95 d0 82 3d
       0.13173576 -0.47042358 0.39451513 0.0638744
000120 8b cc 79 3f 79 80 de be e1 64 1d bc 98 6e 13 3f
       0.9757773 -0.43457392 -0.009606571 0.5759063
000130 9e 8c 27 3e b2 0f aa bb 1a 4b 46 be 79 d9 51 3e
       0.16362235 -0.0051898593 -0.19364586 0.20493115
000140 93 ae 65 3d b0 66 60 bf c4 c5 72 3d e7 4f c3 be
       0.05607469 -0.8765669 0.059270635 -0.38146898
000150 e7 89 43 3f 01 8b 69 bf 10 50 3a 3e e6 c5 a0 3e
       0.763823 -0.9122773 0.18194604 0.31400985
000160 35 82 d8 3c ee 04 35 bf aa c7 65 bf 3b 44 ec 3e
       0.026429275 -0.7071065 -0.8975779 0.46145806
000170 e1 a5 b5 3e 96 6b 63 be 73 1f 06 3f 59 6b f6 3d
       0.35478118 -0.2220901 0.5239174 0.12032194
000180 9b af 15 bf 3f 85 47 3e 41 9b 0c 3d f0 6d 16 bf
       -0.5847108 0.19484423 0.03432775 -0.587615
000190 df c2 21 3f f1 17 bf be 54 47 e5 be 45 63 e5 be
       0.63187975 -0.37322953 -0.44780982 -0.448023
0001a0 57 82 c7 3e 54 15 80 3f b0 97 17 bd 48 bf 57 3e
       0.3896663 1.0006509 -0.037009895 0.21069062
0001b0 97 a7 8e bd 43 90 a6 3e 1c f9 d8 be 0c 8b 91 3e
       -0.06965559 0.32531938 -0.42377555 0.28426397
0001c0 3d f4 09 3f 74 6e bb be 0f 91 43 be 18 42 ec 3d
       0.53888303 -0.36607707 -0.19098304 0.11536044
0001d0 e0 2d 3f 3e 81 e6 95 3d 0f f9 14 be 7e 2a 0e 3e
       0.18669844 0.07319356 -0.14548133 0.13883397
0001e0 a1 e1 26 3f 2a bf f4 bc df c2 08 bf cd 34 0a 3e
       0.6518803 -0.02987631 -0.5342235 0.13496704
0001f0 7b e7 8f 3e fe f7 86 be 4e 9b 22 bf 04 22 15 3f
       0.28106293 -0.26361078 -0.63518226 0.5825503
000200 9b 56 f5 3e 5a db c6 3e 69 cf 38 bf b7 9c 11 bf
       0.47917637 0.38839227 -0.7219148 -0.5687975
000210 c0 71 95 be 04 24 b9 bd b4 90 55 be b2 d1 66 3f
       -0.29188347 -0.090400726 -0.20855981 0.9016372
000220 00 16 04 bf 55 13 a0 3e 00 d5 33 3f ab af 14 bd
       -0.5159607 0.3126475 0.7024689 -0.036300343
000230 6a ff 2e be a0 ec 46 3e 07 7c 0b bf 7f 6e 48 bf
       -0.1708962 0.19426203 -0.54486126 -0.78293604
000240 86 44 96 bd fb 06 ae bf c7 63 ab 3e 42 0f 3a bf
       -0.073372886 -1.359588 0.33474562 -0.7267953
000250 51 64 27 3e b0 ba 70 bf 29 2c e6 be 51 68 5a bf
       0.16346861 -0.9403486 -0.44955567 -0.85315424
000260 7e b1 58 be c6 9d ce bd a0 e8 b7 be 4e 90 85 be
       -0.21161458 -0.10088687 -0.35919666 -0.26086658
000270 1e 32 16 3f 92 9c ae be 5b e8 ed bd 33 f1 43 bd
       0.5867022 -0.3410383 -0.11616584 -0.047837447
000280 1d 54 93 be 4e e5 7d be 7b fe 1c 3c 85 db 80 bd
       -0.2877511 -0.24794504 0.009582157 -0.0629187
000290 bb 86 44 be 6b 19 3a be 63 65 2c 3e 7c 6f 77 be
       -0.1919202 -0.18173759 0.16835551 -0.24163622
0002a0 a7 74 a1 3e 69 52 a4 bd 38 ff 48 3e 16 3e b5 3d
       0.3153431 -0.08023531 0.19628608 0.088497326
0002b0 3e 19 17 3f 88 fe af bc 74 e8 a5 be 52 30 8b 3e
       0.5902289 -0.021483675 -0.3240391 0.27185303
0002c0 6f 3a d1 be 92 f0 29 bf de 78 79 be 93 56 ef bd
       -0.40864894 -0.66382706 -0.24362513 -0.116864346
0002d0 99 1b d2 be 19 f4 82 bf ae 3a d2 3d b1 4d 33 bf
       -0.4103668 -1.0230743 0.102650985 -0.7004042
0002e0 5b 2c 6c bf a2 2e 52 bd b9 43 89 be 36 db 87 3e
       -0.9225518 -0.051314004 -0.2680948 0.26534432
0002f0 a7 db a7 be 2a 81 24 3e a3 67 c6 be ab 43 9b 3e
       -0.3278477 0.16064897 -0.38750944 0.30325064
000300 1e d8 43 be 75 c8 14 bf bf 49 c4 bb 29 6a 09 3e
       -0.19125411 -0.58118373 -0.0059902365 0.13419403
000310 1c 40 18 3e d5 1e 82 bd b2 8d 7e 3f d1 e7 e5 3d
       0.14868206 -0.06353537 0.9943496 0.11225856
000320 3e d4 53 bf d3 b1 ed be b5 08 95 bd 6e 3f 6b be
       -0.8274573 -0.46424732 -0.07277051 -0.22973415
000330 22 6f d3 be 22 26 50 be 15 01 45 3e e9 bd 2a be
       -0.41295725 -0.20327047 0.19238694 -0.16674007
000340 04 19 93 bf 26 c5 f3 3e 0a 2c ca 3e 76 b9 b2 bd
       -1.1492009 0.4761135 0.39486724 -0.0872678
000350 c3 10 a8 bd 15 21 b3 3e a6 bc 2d 3f fd ea 23 be
       -0.08206322 0.34986177 0.6786598 -0.1600761
000360 f5 04 53 3e 24 25 27 3e fc 4c f5 3e e1 b2 a2 be
       0.2060736 0.16322762 0.47910297 -0.317771
000370 32 b9 1c 3f e2 91 32 3e 75 e5 61 3e 45 8a 4b be
       0.61220086 0.17438462 0.22060187 -0.19876964
000380 b9 bb 64 3f 9b d6 6a be 99 e5 0c bf 4f 3f a4 3e
       0.8934894 -0.22933428 -0.5503784 0.3207955
000390 5a da 94 be e1 eb ea 3e 69 a5 6b bd 9a 95 5a bd
       -0.2907284 0.45883086 -0.057530794 -0.053365327
0003a0 38 10 c8 3e 86 74 e8 bd 5b 4f 0e bb d2 88 cb 3b
       0.39074874 -0.1135035 -0.002171478 0.0062113786
0003b0 86 6d 98 bd 2d 24 91 3e 79 7c 2f be 30 07 66 3b
       -0.07442765 0.28347912 -0.17137326 0.00350995
0003c0 0c 6c 5c 3e 25 6b 6d be 1d 32 d2 3e 90 58 70 3e
       0.21525592 -0.23185404 0.41053858 0.23471284
0003d0 df 3a b5 3e a1 e5 95 bd 60 d7 2e 3f a4 dd 30 3e
       0.35396478 -0.07319189 0.68297386 0.17272049
0003e0 92 e2 98 be cd 50 bc 3e ba 54 86 be ef 05 ad be
       -0.2986036 0.36780396 -0.26236516 -0.3379359
0003f0 a9 39 1b bf 0d 6e 2b 3f fd 97 2a bf de 62 7b 3c
       -0.6063486 0.669648 -0.66638166 0.015343396

bn2.weight f4 [64]
000000 6d 56 6d 3f 92 cb b5 3f a6 94 a6 3f 17 f6 9d 3f
       0.9271 1.420275 1.3014114 1.2340726
000010 84 a6 81 3f b7 eb 63 3f 5b dd 0d 3f c6 d4 aa 3f
       1.0128942 0.8903155 0.55415887 1.3346183
000020 6f 48 aa 3f 61 db 37 3f ab ac 83 3f c0 74 82 3f
       1.3303355 0.7181912 1.0287069 1.0191879
000030 bc 35 ba 3f 6b 9e 7d 3f 5d 68 8e 3f b2 61 99 3f
       1.4547648 0.9906985 1.1125599 1.1982939
000040 e7 d8 14 3f 40 bd 98 3f bf 7b 7a 3f be f1 8a 3f
       0.58143467 1.1932755 0.9784507 1.0855024
000050 85 74 8f 3f fa 97 8b 3f 23 a7 5b 3f 4d d2 56 3f
       1.1207434 1.0905755 0.85801905 0.83914644
000060 1a fc 60 3f c3 5e 8f 3f 08 80 86 3f 93 0f 8c 3f
       0.87884676 1.1200794 1.0507822 1.0942253
000070 53 d0 5f 3f 71 f6 5f 3f 17 08 9d 3f e5 b1 cb 3f
       0.8742725 0.87485415 1.2268094 1.5913664
000080 be b2 88 3f c7 d7 22 3f 70 e4 99 3f a3 63 9a 3f
       1.0679548 0.636105 1.2022839 1.2061657
000090 98 43 ae 3e 99 88 c0 3f 23 64 a1 3f 29 b3 d2 3f
       0.34035945 1.5041686 1.2608684 1.6460925
0000a0 d7 77 91 3f 45 dc af 3f a3 c3 85 3f e4 5e 1f 3f
       1.1364697 1.3739096 1.0450329 0.62254167
0000b0 7d c4 38 3f 31 68 8c 3f bb 2a 81 3f 19 34 6e 3f
       0.7217482 1.0969297 1.0091165 0.93048245
0000c0 76 ed a7 3f 41 b4 45 3f d6 ae a7 3f 7c 98 ad 3f
       1.3119342 0.7722817 1.3100231 1.356216
0000d0 65 65 98 3f 68 bc 59 3e 92 5d 83 3f 00 c6 19 3f
       1.1905943 0.21263278 1.026293 0.6006775
0000e0 e6 b3 8d 3f 56 56 3f 3f 03 b4 a2 3f d5 8a 09 3f
       1.1070526 0.74741113 1.2711185 0.53727466
0000f0 09 d7 92 3f df b2 66 3f bd 92 9b 3f a0 04 71 3f
       1.1471874 0.90116686 1.2154156 0.9414768

bn2.bias f4 [64]
000000 db b2 7d 3e fa af c6 3e 3b db c6 3d 73 ec a0 3e
       0.24775259 0.38806134 0.09709784 0.31430396
000010 6d cd 31 3e 6b 63 ee 3e bf 69 23 3e 1f ea e2 3d
       0.1736352 0.46560225 0.15958308 0.11079811
000020 33 16 ec 3e 00 0f 0e 3e 34 0f f2 3d 6e c5 8d 3e
       0.46110687 0.1387291 0.11819306 0.2768969
000030 1b 2c aa 3e f0 3c 09 3f d0 f1 d0 bc 14 c9 84 3d
       0.33236775 0.5360861 -0.02550593 0.06483665
000040 90 a5 b6 3e 44 27 08 3e 29 b3 a1 3e 56 3c 5d 3e
       0.3567319 0.13296229 0.31582 0.21605048
000050 c2 77 be 3e 70 85 3b 3e 62 ca b9 3e 47 fc c2 3e
       0.37200743 0.18312621 0.36287218 0.38083097
000060 fb 08 bc 3e 20 a3 a6 3e f3 ef 7c 3e 6a 41 b6 3e
       0.36725602 0.3254633 0.24700908 0.35596782
000070 ee 1d a0 3e ee 5e b1 bd 97 4b 60 3e a4 e7 18 3e
       0.31272835 -0.086606845 0.21903835 0.14932114
000080 cd 05 d3 3e 93 1c 82 3e b2 35 01 3e 2e bf 15 3e
       0.41215363 0.25412425 0.1261814 0.1462371
000090 98 7c 44 3e 36 ba 87 3e e6 1c d8 3e 5c 40 d5 3e
       0.19188154 0.26509255 0.42209548 0.41650665
0000a0 af b8 92 3e c2 2f 75 3e dd a0 b4 3e 6b b9 6d 3e
       0.28656527 0.23944 0.3527898 0.23215263
0000b0 5a 44 a4 3e df 5d 9e 3d f0 32 03 3e 2c b5 bd 3e
       0.32083398 0.07732748 0.128124 0.37052286
0000c0 b3 7a a0 3e 37 ed 7f 3d e4 ee 48 3e aa fc 8b 3e
       0.31343612 0.062482085 0.1962238 0.27341205
0000d0 3d 25 ac 3e d5 ec 55 3e 66 d5 bb 3e 2c fb 12 3f
       0.3362216 0.20891126 0.36686248 0.5741451
0000e0 6e 1d 67 3e 87 2a 0a 3e 76 63 9d 3e 1c 03 ac 3e
       0.2256982 0.13492785 0.30739945 0.33596122
0000f0 5e f5 69 bd 17 68 bf bc 82 4f f0 3e d8 6b 26 3e
       -0.057118766 -0.023365064 0.4693566 0.16252077

bn2.running_mean f4 [64]
000000 8e 23 94 3f 5c 18 be 3f 51 83 db 3f 79 a9 20 40
       1.157335 1.4851184 1.714945 2.5103438
000010 83 e5 27 3f da 87 9f 3f 66 4a ac 3f 94 43 07 3e
       0.6558458 1.2463334 1.3460205 0.13209373
000020 0f 21 28 40 bf 6a 52 3f 0d 4a 84 3f e2 ec 35 40
       2.6270177 0.8219413 1.0335099 2.8425832
000030 19 12 16 40 47 5c 4c 40 f0 26 b7 3f cc a3 3e 3f
       2.3448546 3.1931322 1.4308758 0.74468684
000040 50 59 f4 3f c5 e2 d2 3f dd e9 8a 3f 4e e3 b3 3f
       1.9089756 1.6475455 1.085262 1.4053743
000050 95 a6 cc 3f 56 bd 62 3f bd 06 4c 40 b4 ed 30 40
       1.5988337 0.88570154 3.1879113 2.7645082
000060 fa ca 68 3f e6 65 3b 40 71 e4 20 40 a8 d7 9e 3f
       0.9093472 2.9280944 2.513943 1.2409563
000070 20 66 d6 3f c7 72 5b 3f a3 2e da 3f 2b 9a e0 3f
       1.6749916 0.8572201 1.7045482 1.7547048
000080 98 0d 2a 40 d8 03 eb 3f bf c3 34 3f d3 4d 0f 3f
       2.6570797 1.8360548 0.70611185 0.55978125
000090 f4 65 b5 3f 17 8d 0f 3f af 2a aa 3f ea 19 14 40
       1.4171739 0.5607466 1.3294276 2.3140817
0000a0 8f 05 29 40 26 94 39 3f eb 91 a4 3f 6e 51 47 40
       2.6409643 0.7249168 1.2857031 3.114345
0000b0 cb 87 ef 3f a5 5a 6f 3f bc 2c 5e 3f 8d 29 b5 3f
       1.8713316 0.9349769 0.8678701 1.4153305
0000c0 77 00 b8 3f 3a d1 ba 3e 1a d3 d0 3e 3a 6d df 3e
       1.4375142 0.36487752 0.40786058 0.4363802
0000d0 2e 86 af 3f b6 9b 7b 40 92 6d 31 40 5a e2 05 41
       1.3712823 3.9313788 2.7723126 8.367762
0000e0 3d 8c c3 3f 6a ef 51 3f 6e cf aa 3f f1 5b 32 3f
       1.5277172 0.8200594 1.3344553 0.6967154
0000f0 26 a4 e8 3e 32 02 b8 3e 2a 39 38 40 be db 35 3e
       0.45437735 0.35939175 2.878489 0.17759606

bn2.running_var f4 [64]
000000 8d 79 5f 41 e3 a9 51 41 6e 3f 28 41 91 49 e1 41
       13.9671755 13.103976 10.515486 28.160921
000010 9e f7 1b 41 1f 63 08 41 c1 13 e3 40 0b a8 6d 3f
       9.747953 8.5241995 7.0961614 0.9283454
000020 b7 9e ea 41 09 a9 f0 40 d2 ac 73 41 2c 3f 79 41
       29.327497 7.520634 15.229692 15.577923
000030 47 96 8d 41 a3 3e e0 41 bf 0d 06 41 b2 a4 f2 40
       17.698378 28.030584 8.378356 7.5826044
000040 dc 71 bb 41 f9 64 84 41 c7 fe 09 41 ec 41 80 41
       23.430595 16.549303 8.6247015 16.032188
000050 9b a2 1a 41 58 0f 5d 41 d1 da c2 41 fe 41 c9 41
       9.664699 13.816246 24.356844 25.157223
000060 76 f7 f5 40 f0 0a d9 41 4a 05 de 41 15 97 24 41
       7.6864576 27.13034 27.752583 10.286885
000070 d2 39 c5 41 bf 09 b2 40 d2 8a 80 41 f5 09 93 41
       24.653233 5.5636897 16.067783 18.379862
000080 1a 55 76 41 8c 18 ac 41 26 f8 ed 40 47 08 38 41
       15.395777 21.511986 7.4365416 11.502021
000090 bf 35 2e 41 09 50 9d 40 8e 3d 6e 41 65 67 7d 41
       10.888122 4.91602 14.890028 15.837743
0000a0 8c 2c 04 42 e7 ae d2 40 59 3e 72 41 92 1c 99 41
       33.043503 6.5838504 15.140222 19.13895
0000b0 80 9c 49 41 69 5d 45 41 70 f1 25 41 35 92 a2 41
       12.600708 12.335305 10.371445 20.32139
0000c0 29 14 32 41 62 5a 63 40 bf d9 a4 40 e9 2f b5 40
       11.129922 3.5523915 5.1515803 5.6620984
0000d0 ae 99 ed 40 e6 bf a3 41 e8 8c 87 41 27 56 48 42
       7.4250097 20.4687 16.943802 50.084133
0000e0 42 7e b1 41 70 73 13 41 56 7c 0f 41 e9 f1 ea 40
       22.18665 9.215683 8.967855 7.34203
0000f0 1d fb 9f 40 16 7f 10 40 b4 e7 e0 41 eb ae 99 3f
       4.9994035 2.2577567 28.113136 1.2006506

fc1.weight f4 [64, 64]
000000 d2 26 83 be a2 f3 a8 bd 7f 15 7c 3e fd 65 11 be
       -0.25615555 -0.08249594 0.24617575 -0.14199062
000010 68 1e 6f bd 44 3e 3f bf 6b 5f 9d bd 82 27 33 bd
       -0.058378607 -0.74704385 -0.07684215 -0.04373885
000020 64 11 26 3f 99 64 a1 3e 57 85 ca 3e ac 6b f0 be
       0.64870286 0.31522062 0.39554855 -0.46957147
000030 4b ba ee be b8 6e df be 77 65 04 3e 8b ed 12 3e
       -0.46626505 -0.4363916 0.12929331 0.14348428
000040 54 6b 0f 3e 56 7f 27 bf a6 9b 9d be b4 c6 8f be
       0.14005786 -0.65428674 -0.30782813 -0.28081286
000050 e0 0b 84 be e6 60 34 be 3a 27 6d 3e 2b 6a 67 be
       -0.2579031 -0.17615089 0.23159495 -0.22599094
000060 f1 98 9b 3e 53 f6 90 be 35 3f 2d be bc 74 da be
       0.30390123 -0.2831293 -0.16918643 -0.42667186
000070 c4 48 8b 3e b3 f5 f3 3e d5 54 e7 3e 10 b4 b1 be
       0.27203953 0.4764839 0.4518191 -0.3470769
000080 f3 1f 15 bd 3c ee cf 3e aa 9d 9e 3c 01 1e 91 3d
       -0.036407422 0.40611446 0.01936229 0.07085801
000090 15 77 85 3d 4c b9 34 bf 5d 65 4a be c3 43 ae be
       0.06516854 -0.7059524 -0.1976523 -0.34036073
0000a0 47 d1 c8 bd ef 0a 36 bf 72 56 ec be e1 77 5e 3e
       -0.098055415 -0.71110433 -0.46159703 0.21725418
0000b0 ae 1e 82 3e e3 b7 1a 3f 23 99 0f 3f 78 ee 78 be
       0.25414032 0.6043684 0.56093043 -0.24309719
0000c0 1b 7f 39 3f 19 44 29 3e 72 6b a8 3e 75 b9 68 3e
       0.7245957 0.16529883 0.32894474 0.22726996
0000d0 f4 6c 2e bf 40 26 e7 be 30 73 7b be c4 cb 32 be
       -0.68135 -0.4514637 -0.2455566 -0.17460543
0000e0 e1 93 1e 3e 63 79 b9 be ae c6 e5 3a 9d 81 bc bd
       0.15486099 -0.36225423 0.0017530525 -0.09204409
0000f0 35 5b 46 be e3 5a bc 3e 76 f3 70 be 9c 49 a1 3e
       -0.1937073 0.3678809 -0.23530373 0.31501472
000100 2b e5 13 3d 77 bf 3c bf 1f cd 86 3d 6a 81 b3 3d
       0.036107223 -0.7372965 0.065820925 0.08764918
000110 83 8d 97 bd 05 3d c6 bc d1 e2 48 be 0a f4 59 bd
       -0.07400038 -0.024199018 -0.19617774 -0.05321125
000120 46 de c8 be 58 e4 81 be 81 6b 8c 3e bf ca 7f 3e
       -0.3923208 -0.25369525 0.2742577 0.24979685
000130 62 2d a1 be b2 bd e8 be 14 2e 03 3f 18 91 70 bd
       -0.31479937 -0.45457226 0.51242185 -0.058732122
000140 f8 69 1f bf 1d f6 9a 3e ef 0d 3e 3e 3c d2 75 3e
       -0.6227107 0.30265895 0.18560003 0.2400598
000150 f4 14 01 bf 72 20 bf bb a9 bd 7e be 02 5e 85 3d
       -0.50422597 -0.005832725 -0.24877037 0.06512071
000160 cb c9 27 bf 12 c9 ed be 76 25 67 bd e7 9b aa be
       -0.65542287 -0.46442467 -0.05643221 -0.3332207
000170 c3 f1 90 be 3b 0f a5 3e 97 81 f0 bd 76 02 22 bf
       -0.2830945 0.32238182 -0.11743467 -0.63285005
000180 82 1f 16 bc ab ea 92 be f9 5e 2e bf dc 9b 0c be
       -0.0091627855 -0.28694662 -0.68113667 -0.1373133
000190 25 94 03 bf d2 0d 4f 3e 33 61 b3 3e b4 a7 a1 3e
       -0.51397926 0.20220116 0.35035095 0.3157326
0001a0 90 d9 a9 be 45 f4 f2 3d e2 a0 3e bf 6c 12 a9 be
       -0.331738 0.11862997 -0.7446424 -0.33021867
0001b0 e5 5e e2 be 0d b8 c7 be cc 81 fb bd 7a 8b 14 bf
       -0.44213024 -0.39007607 -0.12280616 -0.58025324
0001c0 b7 21 12 be 37 de 91 3e 79 22 21 bf ad 80 d9 be
       -0.14270674 0.2848985 -0.62943226 -0.42480984
0001d0 14 aa a4 be a5 c4 7e be f6 43 66 be ec 3d f6 be
       -0.3216101 -0.24879701 -0.22486863 -0.48094118
0001e0 9d 0c ba bd 52 19 94 be 8a 44 5b bf e6 86 1c be
       -0.09084437 -0.28925568 -0.8565146 -0.15285835
0001f0 f4 52 de bb c8 b0 a6 3e f1 73 57 bf c0 8d 3e 3e
       -0.006784791 0.32556748 -0.8416129 0.18608761
000200 5e d4 08 3f b7 b4 fc bb 64 c1 88 be 43 2b b1 be
       0.53449047 -0.0077119726 -0.26710045 -0.3460332
000210 2a e8 b9 3d 91 ad da 3e c8 3e 39 bd 31 19 95 be
       0.09077485 0.42710546 -0.04522589 -0.29120782
000220 f4 e2 aa 3e 0a 1e d5 3e b1 c1 2b be 17 4f b5 be
       0.33376276 0.4162448 -0.16773106 -0.35411903
000230 20 88 b7 3e df 97 ae be bd f8 26 be d9 03 20 be
       0.35846043 -0.34100243 -0.16305824 -0.15626468
000240 7e a3 85 3e d0 9a 0a 3d b7 a5 9a 3e 46 1c 0c 3f
       0.26101297 0.033839047 0.30204555 0.5473064
000250 9f 22 0e bf fd 7a 88 3e 57 ad 13 bc 76 e4 9c be
       -0.5552158 0.26656333 -0.009013495 -0.30643052
000260 d9 b9 7b be 94 54 db bd 34 6f 20 3e b8 0a 9e be
       -0.24582614 -0.10709491 0.1566742 -0.30867553
000270 03 84 93 3e 38 eb 40 3e 6f bc 65 bc 64 98 06 be
       0.28811654 0.18839729 -0.014021977 -0.1314407
000280 40 89 85 bf e0 96 92 be 75 3c 41 3d fa fa e8 3e
       -1.043251 -0.28630733 0.047176797 0.4550398
000290 18 c1 11 ba 85 b5 c1 3e 09 8b f7 3e 74 89 25 3f
       -0.0005560084 0.378338 0.48348263 0.6466286
0002a0 8f 05 a0 3e 19 44 d4 3e dc 0c f5 3d 68 da fe bd
       0.3125424 0.41458204 0.11965343 -0.124440014
0002b0 a8 51 85 be 2e 4e ec bc 3f 49 e5 bd 3e e5 88 bd
       -0.2603886 -0.028845873 -0.11195611 -0.066843495
0002c0 5b 39 a7 be 8a 13 2c bc 92 ff 38 bd 1d a7 3f 3e
       -0.32660946 -0.010502705 -0.045165606 0.18716092
0002d0 ff b6 8a 3e 19 05 f6 be ff 38 19 bf 06 fe 5f be
       0.2709274 -0.48050764 -0.59852594 -0.21874246
0002e0 76 4f 12 3f 89 29 be bd 2a 17 1c bc a2 a2 52 3e
       0.571525 -0.09285266 -0.009527007 0.20569852
0002f0 7d 1f 9e bd dc 6d ca 3c f5 2c 9e 3d 3e 34 13 be
       -0.0772085 0.024710588 0.077234186 -0.14375398
000300 04 f5 3f 3d a5 52 64 3e 21 c1 17 3c c1 e7 41 3e
       0.046864524 0.22297151 0.009262354 0.18936063
000310 6f 07 a6 bd ac 75 ee 3d bd 75 f1 bd f7 1c 12 be
       -0.081068866 0.11643538 -0.11790035 -0.14268862
000320 38 ff 0d 3f 83 51 8f be cf 6d 1c be ed 20 c8 3d
       0.5546756 -0.27991876 -0.15276264 0.09771905
000330 fd ca c2 3e bb ca a4 3e 76 7f e5 bd 41 40 86 3e
       0.38045493 0.3218592 -0.11205952 0.26220897
000340 5e 9f a1 3e c6 62 8d 3e 21 d1 00 3f 43 27 c3 be
       0.315669 0.2761442 0.50319105 -0.38115892
000350 65 0b 35 3e 36 7e 05 3e 39 65 d9 3e bf 65 01 3e
       0.17680128 0.13036427 0.4246004 0.1263647
000360 47 4d c0 3e 19 44 51 3e 1b 39 7d 3e 28 7c 26 bd
       0.37558958 0.20436133 0.24728815 -0.04064575
000370 f4 7f 0e be ee 2a c4 bd d6 ec 18 bd 05 b0 93 bd
       -0.13915998 -0.09578501 -0.03733524 -0.072113074
000380 c8 aa e0 bd 02 8b 57 3d f7 ae 86 3e a7 82 b5 bc
       -0.10970074 0.052622803 0.26305363 -0.022157026
000390 4d 2f 47 3e ed b1 6f 3e d2 1d 2d be 9d 7a 83 3e
       0.19451638 0.23407717 -0.16905907 0.25679484
0003a0 49 d3 9f bd c4 ff 58 bd 94 bd fe bd ad cc 83 3e
       -0.07803971 -0.052978292 -0.12438503 0.25742093
0003b0 85 15 62 3e 5a f1 98 be d1 1a 77 3d 6a 99 f0 3d
       0.22078522 -0.29871637 0.06032831 0.117480114
0003c0 e9 53 03 be 4c 27 6a be ef d9 87 3e c2 37 ad be
       -0.12824978 -0.22866553 0.26533458 -0.33831602
0003d0 d3 23 74 3e 0f 90 eb 3e 9a 1c f8 3e 1e df 0c 3f
       0.23841791 0.46008345 0.4845932 0.5502795
0003e0 98 e5 cc 3a 75 e2 22 bd 67 a0 5d 3e ad b1 b6 3e
       0.0015632389 -0.039766748 0.2164322 0.3568243
0003f0 bc 8d ce bd 8f 67 13 bf 3c 56 7d be 4c 3a b3 3e
       -0.100856274 -0.5757989 -0.24739927 0.35005414

fc1.bias f4 [64]
000000 c7 8f d7 3e 0f 6f cb 3e 7d 3a 2b 3f 8d cc 15 be
       0.4210188 0.39733168 0.6688612 -0.14628811
000010 c1 78 40 3f 76 9b 94 3f 3b 81 c6 3f e9 c1 99 3f
       0.75184256 1.1609943 1.5508188 1.2012302
000020 82 1d 6b 3f f5 33 5a 3f ec 7b 18 3e 61 80 dc 3e
       0.918419 0.8523553 0.14891022 0.43066695
000030 90 d6 63 be db 32 44 3f bf 28 79 3d 11 24 34 3f
       -0.22249818 0.766401 0.060829874 0.7036753
000040 04 0f 4d 3f 29 de 28 3f 16 d9 e0 3e 8e 9a 9c 3e
       0.8010104 0.6596399 0.43915623 0.30586666
000050 97 f8 8b 3d 17 1d 5d bd 9b af a6 3e 51 45 a0 3f
       0.06834524 -0.05398282 0.3255585 1.2521154
000060 50 fc 19 be c4 5b 09 3f aa b0 9e 3f 22 81 cf 3e
       -0.15037656 0.5365565 1.2397664 0.40528208
000070 74 4d be 3e 94 fe 7d 3f e1 db 53 3f 13 8f 10 3f
       0.37168467 0.9921658 0.82757384 0.56468314
000080 01 e5 e9 3e 51 b0 8a be 8a 47 31 bc e3 2b e7 3e
       0.4568253 -0.27087644 -0.010820279 0.4515067
000090 6a f5 31 3f ac 3c 69 3e 87 a0 ca 3d ed b2 1e 3f
       0.695151 0.2277705 0.098938994 0.6199177
0000a0 ed bf a8 3f 23 a9 15 3f ee 49 4b 3f a5 b5 fa 3d
       1.3183571 0.5846121 0.7940968 0.12241677
0000b0 62 bd 0e 3f 2d 1f cc be a5 e8 d4 be 76 4b aa be
       0.55757725 -0.39867535 -0.41583744 -0.33260697
0000c0 64 40 96 3e c5 68 cd 3f c8 cc 9f 3e 9b c4 39 3f
       0.29346 1.6047598 0.31210923 0.7256562
0000d0 d7 1c 98 3f 3d f5 87 3f 50 66 7a 3f df 09 6f be
       1.1883801 1.0621716 0.97812366 -0.2334361
0000e0 be a6 a4 3f a5 76 a7 3f 9a d9 b0 3f 1c 25 55 3d
       1.2863386 1.3083082 1.3816407 0.052037343
0000f0 a1 cf e4 3f 7f 11 39 3f fa e6 8b 3f d8 ab 62 3f
       1.7875863 0.7229232 1.0929863 0.8854346

bn3.weight f4 [64]
000000 11 aa 7d 3f 3c 47 2c 3f 3b f0 1a 3e 21 ba a0 3d
       0.99087626 0.67296195 0.15130703 0.07848001
000010 8a c5 55 3f b5 b8 10 3f fe 1b 3e 3f c3 ff b6 3e
       0.83504546 0.5653184 0.7426146 0.35742006
000020 32 6b 36 3f 6c a7 22 3f e3 c8 65 3e f3 6c 2b 3f
       0.7125732 0.63536716 0.22439913 0.6696312
000030 87 38 f9 3c 84 0e c4 3e b9 b8 5d 3f a2 3f 5a 3f
       0.030422462 0.38292325 0.8660999 0.85253346
000040 ad 1c 35 3f 5f 83 9a 3e 92 e0 5c 3f 94 78 c6 3e
       0.7074688 0.30178353 0.8628017 0.3876387
000050 38 7b 1f 3f 8c 9b 5c 3f fe 4c 83 3f b7 65 4c 3f
       0.6229739 0.86174846 1.0257871 0.79842705
000060 f9 06 f8 3e 90 a1 5a 3f 80 1b 2a 3f a1 b1 21 3e
       0.4844282 0.85402775 0.6644821 0.15790416
000070 a8 8c 2f 3f 83 9c 53 3f 6f d9 25 3f c1 4c c9 3e
       0.68574 0.8266069 0.647849 0.3931637
000080 8d cd 5b 3f 39 aa 40 3e 7e e3 b6 bc 44 e1 49 3f
       0.8586052 0.18814935 -0.022325274 0.78859353
000090 e9 7c 35 3f b0 14 74 3f 9a 39 3e 3f d7 18 40 3f
       0.7089372 0.95344067 0.74306643 0.750379
0000a0 4e f0 57 3f 0e c2 4c bd cf 38 1c 3f 67 3b fb 3e
       0.8435105 -0.049989752 0.61024183 0.49068758
0000b0 b4 96 32 3f f3 01 cb 3e a4 de 3b 3c 22 d3 a4 3e
       0.69761205 0.39649925 0.011466656 0.32192332
0000c0 57 e5 26 3f a3 f3 1b 3f 52 f6 06 3f 6a 01 40 3f
       0.65193695 0.60918635 0.52719605 0.7500216
0000d0 40 7c 75 3f 2a 75 51 3f 7d fe f3 3e 0f 41 d5 3e
       0.95892715 0.81819403 0.47655097 0.41651198
0000e0 06 11 75 3f 25 14 53 3f 0d 54 6f 3f 71 6c 85 3f
       0.957291 0.82452613 0.93487626 1.0423719
0000f0 af 55 8b 3f da 4e 36 3f 52 6b 4b 3f e9 db 5f 3f
       1.0885524 0.7121407 0.7946063 0.8744493

bn3.bias f4 [64]
000000 45 99 3f 3d 78 2a 8a 3c bb 56 66 3d 3b 36 e9 3c
       0.04677703 0.016865954 0.056235056 0.028468242
000010 4b e4 41 3e fc 0c e6 3d 15 4d 08 3e d5 57 8d 3d
       0.18934743 0.11232945 0.13310654 0.06901518
000020 9c 02 a4 3d 44 6e 71 3d 9b 2f 94 3d 4d c8 63 bd
       0.0800831 0.058943048 0.072356425 -0.055610944
000030 f4 00 3c bc b2 3f bc 3d 8a dd 45 3e 22 fe 31 3e
       -0.011474837 0.091918364 0.19322792 0.173821
000040 af 46 0a 3e 06 27 b4 3d 7e 8b bf bc 10 1b de 3d
       0.13503526 0.08796506 -0.023381945 0.108450055
000050 06 4f d9 3d 64 70 76 3e 6f 9b 26 3e 6f 82 ff 3b
       0.10610776 0.24066311 0.1627023 0.0077975313
000060 9b 5c dd 3d e2 8d 81 3d fd 8a 9b bd c8 ee 84 3d
       0.10808679 0.0632589 -0.07594869 0.064908564
000070 c1 07 2c 3e 6f c9 e7 3d c7 e1 00 3e 05 75 98 bc
       0.16799833 0.11317717 0.12586127 -0.018610487
000080 15 c4 03 3d 52 4d 2c 3a 1c 5a 3c 3d 34 0b 6a 3e
       0.03216942 0.0006572801 0.045984372 0.22855836
000090 16 b1 8f 3d 73 01 01 3e 48 47 31 be 28 e0 46 3e
       0.07016198 0.12598209 -0.17312348 0.19421446
0000a0 c3 74 23 3e 8b a3 60 bc 4a 05 01 3e 1f 51 68 bc
       0.1596251 -0.013710867 0.12599674 -0.014179497
0000b0 4f 77 4a 3e 27 75 7f bc 08 37 07 bc eb d5 7e 3d
       0.19772075 -0.015591896 -0.008252867 0.062215727
0000c0 cf 2b e1 3d 71 86 f3 3d 29 b2 d7 3d 6d 83 1b 3e
       0.10994684 0.11890877 0.10532028 0.15186854
0000d0 b0 d4 8f 3d 58 ba ad 3d 93 28 e0 3d 88 51 b7 3d
       0.07022989 0.08482808 0.10945239 0.08951098
0000e0 73 4f f9 bc 11 4a 22 bd 13 b9 c2 bd fb f7 1f 3e
       -0.030433392 -0.039621416 -0.09507956 0.15621941
0000f0 3b 62 1b 3e 8e 38 45 3e c0 4a 16 3e 8b b1 aa bd
       0.1517419 0.19259855 0.14676952 -0.08334645

bn3.running_mean f4 [64]
000000 d0 3b 08 41 2b 71 cb 3f 5f f0 48 41 9b ba b0 41
       8.514603 1.5893911 12.558684 22.091116
000010 71 c9 04 41 48 50 1f 41 bf ff ee 40 6e 08 16 41
       8.29918 9.9571 7.468719 9.377058
000020 1c 8e ab 40 39 3f d7 40 51 47 47 41 8e 2b 4d 40
       5.3610973 6.7264676 12.454911 3.2057834
000030 9f ea 97 41 85 30 0d 41 04 a1 75 41 e3 09 0f 41
       18.989561 8.824346 15.35181 8.939914
000040 fa 61 4c 41 90 aa 1c 41 c0 81 82 40 6e 41 91 40
       12.77392 9.791641 4.0783386 4.539237
000050 07 1d 08 41 11 4a 06 41 b3 4a e1 40 af d5 0e 41
       8.507087 8.393083 7.0403686 8.927169
000060 88 84 17 41 d0 00 cf 40 fb b1 0e 40 33 0e 9c 41
       9.469856 6.468849 2.229613 19.506933
000070 3e 93 a5 40 0a 59 38 41 6a 0b 48 41 5e af 24 41
       5.174224 11.521738 12.502787 10.292814
000080 a7 dd 9f 40 9b f2 5f 41 00 18 7a 41 8e b7 a4 40
       4.995807 13.99673 15.630859 5.1474066
000090 95 49 ab 40 34 26 2f 41 36 78 b6 40 8f aa ad 40
       5.352732 10.946827 5.702174 5.42707
0000a0 92 97 25 41 25 e1 c8 40 1f 34 ce 40 55 61 0b 40
       10.349504 6.2774835 6.4438624 2.1778157
0000b0 8c 4e b8 40 29 60 a0 40 79 c2 da 40 5d c8 80 40
       5.7595882 5.0117383 6.8362393 4.0244584
0000c0 23 71 56 41 a0 b7 1e 41 d4 30 6e 40 7b 4a f8 40
       13.402621 9.91983 3.7217302 7.759092
0000d0 57 20 1e 41 b4 9b 74 40 e5 5f bf 40 e2 49 ec 40
       9.882895 3.8220034 5.980456 7.384019
0000e0 60 8c c8 40 29 1f f1 40 6a d0 44 41 11 3b f6 3f
       6.2671356 7.5350537 12.300882 1.9236776
0000f0 7d cc 33 41 dc d6 b4 40 98 fd 58 41 83 fb 72 41
       11.237424 5.651228 13.561913 15.186404

bn3.running_var f4 [64]
000000 47 e6 15 44 05 25 b8 41 43 2f 6e 44 b2 97 27 44
       599.5981 23.018076 952.73846 670.37024
000010 30 ad 9e 43 83 aa 96 43 54 4c 2f 43 b7 e1 56 43
       317.35303 301.33212 175.29816 214.8817
000020 63 ba 01 44 30 bc 31 43 4b 93 11 44 7a 1e de 42
       518.9123 177.7351 582.30145 111.059525
000030 74 78 35 44 50 e1 ad 43 40 a4 70 44 e6 5f a6 43
       725.8821 347.76025 962.5664 332.7492
000040 8b 6c f8 43 5d 10 ef 43 ec f2 24 43 35 93 b8 42
       496.848 478.12784 164.94891 92.28751
000050 6f 08 e6 43 62 c5 2a 44 69 25 8c 44 76 28 5a 43
       460.0659 683.0841 1121.1691 218.15805
000060 d8 f1 5e 44 34 7d f8 43 07 55 46 42 d4 dd 05 45
       891.7788 496.97815 49.583035 2141.8643
000070 42 bb 5f 43 87 4d 9f 43 b8 56 95 44 14 f1 b2 43
       223.73148 318.60568 1194.71 357.88342
000080 a9 5d 38 43 79 b1 ca 43 5e ee 6d 44 21 87 27 43
       184.36586 405.3865 951.7245 167.52785
000090 45 3f 2e 43 be 94 fb 43 e5 0b 39 43 bd a7 1b 44
       174.24715 503.16205 185.04646 622.6209
0000a0 8d a1 f7 43 77 85 bb 42 f7 58 3c 43 71 19 a6 42
       495.26212 93.76067 188.34752 83.04969
0000b0 70 ee 30 43 67 a0 62 43 84 72 e5 43 35 d8 bf 43
       176.9314 226.62657 458.89465 383.68912
0000c0 a4 71 99 44 68 fb 46 43 40 bc c2 43 c8 4a 15 44
       1227.5513 198.98206 389.4707 597.16846
0000d0 26 23 62 43 26 a0 1d 43 9a 81 2c 43 3b 40 b8 43
       226.1373 157.62558 172.50626 368.5018
0000e0 4f eb 53 43 ee 61 44 43 91 81 0f 44 e8 cb d0 42
       211.91917 196.38254 574.0245 104.398254
0000f0 a4 4c aa 43 24 82 ef 42 c1 61 93 44 a5 12 07 44
       340.59875 119.75418 1179.0548 540.2913
