tuning_results/best_models_during_tuning_lightning_logs/ec_standGCN_best_model_during_tuning/checkpoints/epoch=77-train_loss=1.43-train_f1=0.29-val_loss=1.56-val_f1=0.36.ckpt (torch, 105170 bytes, 38 tensors)

conv1.bias f4 [64]
000000 59 94 1d 3e 11 96 42 be aa 4c 2e bf 61 1f e1 be
       0.15388621 -0.19002558 -0.6808573 -0.43969253
000010 f7 0f 0f bf 51 e9 29 be db ea 8c be 09 90 f0 be
       -0.55883735 -0.1659291 -0.2752293 -0.4698489
000020 45 41 02 bf d9 09 bd 3e f1 17 53 bf 95 91 b8 bd
       -0.50880843 0.36921576 -0.82458407 -0.090121426
000030 51 08 60 be 0b e9 84 bf 95 af a7 3e 14 1d a1 bf
       -0.21878172 -1.0383619 0.32751146 -1.2586999
000040 9d 8e 2b bf 95 c6 2a 3e af 4c 44 be 73 57 8e be
       -0.67014486 0.16677316 -0.19169877 -0.27801093
000050 85 6a 43 bf 2f 43 7b 3e e4 65 8a bd 3b 60 0d bf
       -0.7633441 0.24537347 -0.06757715 -0.5522496
000060 6f a8 3b bf f1 f3 ce be 1d 5a ce bd 6d a4 a7 3d
       -0.73303884 -0.40420488 -0.100757815 0.081856586
000070 74 4f a5 be bb 9e e8 bc 5d 19 42 be fd 66 a6 bc
       -0.3228718 -0.028396001 -0.18954988 -0.02031278
000080 75 3f e8 be 5a 01 76 bf 66 52 c9 be 58 b3 56 bb
       -0.45360914 -0.9609581 -0.39320678 -0.0032760706
000090 c5 17 27 3e 90 47 cc be a6 88 30 3f 76 0e 47 bd
       0.16317661 -0.39898348 0.6895851 -0.048597775
0000a0 68 53 ba 3d 6d 9b 39 bf b2 f0 3f be 96 66 85 bd
       0.0909794 -0.72502786 -0.18744162 -0.06513707
0000b0 ec e6 59 bf 4c 34 be be 3e 0f 03 bf d8 0b 2f be
       -0.85117984 -0.37149274 -0.5119513 -0.17094362
0000c0 79 28 db be ec a4 f0 be 71 c0 4d be 86 c9 82 be
       -0.42804316 -0.47000825 -0.20092942 -0.25544375
0000d0 b9 be 00 bf 7a 93 87 be c8 bd 45 bf a0 6d 02 be
       -0.5029102 -0.26479703 -0.7724271 -0.12737131
0000e0 08 86 38 bf 71 77 09 3d cb a0 30 be af 29 25 bf
       -0.72079515 0.033561174 -0.17248838 -0.6451673
0000f0 41 a8 14 bf a9 63 9a 3d 0c 25 71 bf 64 fb 80 be
       -0.58069235 0.0753854 -0.94197154 -0.25191796

conv1.lin.weight f4 [64, 25]
000000 a6 2a bf 3e 56 1b 68 3e 59 a2 e2 3e e3 1e 84 bc
       0.37337226 0.22666678 0.44264486 -0.01612801
000010 d0 05 c5 3e e0 62 9a be 61 81 a0 be 5c a0 d1 be
       0.38480997 -0.3015356 -0.31348708 -0.40942657
000020 1c a9 23 be 3b 22 52 be 9f 60 2d bf a0 5e 04 be
       -0.15982479 -0.2052087 -0.6772556 -0.12926722
000030 03 a1 35 be fb c1 9d bd 35 7d 96 bd b7 6d 19 ba
       -0.17737202 -0.077030145 -0.073481 -0.00058528356
000040 6c aa 43 bf 16 cf 40 bf a5 9a 66 be 1b 72 15 3f
       -0.7643192 -0.7531599 -0.2251993 0.58377236
000050 9d a8 29 3e 4c a4 93 bf 8e ee 86 bf 4d 6e 8f 3e
       0.16568227 -1.1534514 -1.0541551 0.2801384
000060 62 f6 5b be 1f f7 6b bc 92 0a 12 3f 35 bc 2c 3e
       -0.21480706 -0.01440218 0.5704738 0.1686867
000070 00 61 cf 3e 73 75 bb 3e 7c dd 18 bf 09 d1 a6 bd
       0.40503693 0.36613044 -0.5971296 -0.08145339
000080 27 a8 71 3d d8 31 73 3d cc c2 3b be e4 44 d6 be
       0.058998253 0.059373707 -0.18336028 -0.41849434
000090 f1 9d bb be 23 c6 26 be 5a 09 82 be 11 cb 2d 3e
       -0.36643937 -0.1628652 -0.2539776 0.16971995
0000a0 ea 3b 84 3e bd ed d4 3e e6 3a 1d bd 54 5d 80 be
       0.2582696 0.4158763 -0.038386248 -0.25071204
0000b0 b6 fc 0b 3e 06 a9 09 bf 71 9b 50 bf c9 9a 6d bf
       0.1367062 -0.53773534 -0.81487185 -0.9281431
0000c0 c7 5a 65 be 76 8d fc be 4e 02 4b 3e ef a1 0b 3f
       -0.2239791 -0.49326676 0.19825098 0.54543966
0000d0 64 25 95 3e dd 15 f1 be 09 27 c0 be aa 3a 40 be
       0.2913009 -0.47086993 -0.3752978 -0.18772379
0000e0 64 5b f1 bd 4b 59 3f 3e 3a e4 28 3d f6 ba f6 bd
       -0.117850095 0.18686406 0.04123328 -0.12047379
0000f0 d6 bf 15 3f 06 ca 39 be f7 dc 45 bd f6 9b d6 3e
       0.58495843 -0.18143472 -0.04830643 0.41915864
000100 42 93 91 3e 94 d3 9f be 61 cd 9a 3e 72 3a c5 3e
       0.2843266 -0.3121611 0.30234817 0.38521153
000110 d0 ba 08 be a1 25 77 be 2a ae 23 3f fc 01 f6 be
       -0.13352513 -0.24135448 0.6393763 -0.4804839
000120 e5 1c 20 bf 37 ec e8 3e 79 ea 91 3e 2b d7 1b 3e
       -0.6254409 0.45492718 0.284992 0.15218799
000130 dd 26 62 3d 93 c9 9b bd 7f 3f 22 bf 3d c2 3b bf
       0.055212844 -0.076068066 -0.6337814 -0.7334326
000140 c6 fb 52 3f 4e ba d2 3e 4c 11 93 3e 92 80 e7 3e
       0.82415426 0.41157764 0.28724134 0.4521528
000150 52 d3 9a 3e d0 ae b8 bd 4c 32 aa be 97 6f 10 bd
       0.3023935 -0.09017718 -0.33241498 -0.03526267
000160 eb 38 07 be 3c ce 5e 3d 6e 64 94 be c0 5e 3d be
       -0.13205306 0.0543959 -0.28982872 -0.18493176
000170 e8 db 24 3c 02 8d b7 3e f4 88 ab bd 4d 5a 38 bf
       0.010062195 0.35849768 -0.08375731 -0.7201279
000180 3c 56 2b 3e cd 86 20 3e 88 a7 75 bf 81 10 37 be
       0.16732115 0.15676422 -0.9595876 -0.1787739
000190 2d 88 30 be 15 fa a1 3e 2d 26 c8 3e de 94 2b be
       -0.17239447 0.3163611 0.39091626 -0.16756007
0001a0 84 42 2a be 35 fd 33 be 3e 19 82 3e d2 8c 50 3e
       -0.16626936 -0.1757706 0.25409883 0.20366219
0001b0 c5 e9 bd bd 4c a2 88 be ef 4d 1b 3f 0c e2 00 be
       -0.092731036 -0.26686323 0.6066579 -0.1258623
0001c0 e9 3d b2 be 80 0e 5d 3e f5 35 7a be 62 64 12 3f
       -0.3481286 0.21587563 -0.24434645 0.5718442
0001d0 cf 82 9d bf 42 5d a5 bf 98 0e b4 3e 4f 45 f9 3c
       -1.2305545 -1.2919085 0.35167384 0.030428557
0001e0 aa d8 82 be a4 7d 9b 3d c3 df ad 3d f9 74 2c 3f
       -0.25555927 0.075923234 0.08489945 0.67365986
0001f0 47 f0 55 3c 50 8a a0 3e 9a 69 a2 3e ba c8 58 3e
       0.013057775 0.31355524 0.31721193 0.21170321
000200 38 0e a9 3d 1b 9a 0d 3d ff 41 36 3e 23 c2 1b be
       0.08254665 0.034570795 0.17798613 -0.15210776
000210 a9 ee ea bd 65 b0 eb be 9a 4c 01 bf 40 fd 4c 3f
       -0.11471302 -0.46033016 -0.5050751 0.8007393
000220 f2 ef f4 3c 52 cf ec 3d 43 cf 83 3e e2 9d 3d 3e
       0.029899571 0.11562981 0.25744066 0.18517259
000230 a0 05 2b be b4 f6 8c bf 5a c2 85 bf 2f 02 81 3e
       -0.16701365 -1.1012788 -1.0449936 0.25196978
000240 f5 5e 99 be 9b e2 f3 3c 31 12 c6 3e a8 84 b2 3e
       -0.2995526 0.02977114 0.38685754 0.34866834
000250 1f 54 72 3e 86 00 d2 bd ad 81 08 3f 2f 77 20 bd
       0.23664902 -0.10254006 0.5332287 -0.039176162
000260 65 b5 5c be 5d 03 d3 3e 0b c9 59 be 9a d3 dd be
       -0.21553572 0.41213503 -0.21268098 -0.43325502
000270 9a 0e 8f 3f 0a 45 8a 3f 73 da a5 be 1f 4b 61 3e
       1.1176331 1.0802319 -0.32393226 0.22001313
000280 fa 16 36 3f 18 fc 88 3e 78 24 df 3e 2f 21 0e bd
       0.7112881 0.26754832 0.4358251 -0.034699615
000290 6d ef 0b be 7b 02 f3 3d 0e 7d 84 3e 50 27 7e 3e
       -0.13665552 0.118657075 0.2587666 0.24819684
0002a0 e8 0a 63 3e db cc da bd f7 74 57 bd fc 4c 98 3e
       0.22172129 -0.10683604 -0.05260178 0.29746234
0002b0 ff 2a fe 3e 63 47 2c bf e6 b0 f7 be d5 f8 1f be
       0.49642178 -0.6729643 -0.4837715 -0.15622266
0002c0 f3 b5 ab bd 29 ef c8 bd de 67 03 bc 57 4e d2 bd
       -0.083843134 -0.09811241 -0.008020369 -0.102688484
0002d0 62 6c 49 be 11 f6 31 bf 5c 9c 04 bf 9d 89 18 3e
       -0.19670251 -0.6951609 -0.51801085 0.14896245
0002e0 b2 96 f1 be 35 2f b7 bd 21 0c b7 3e 7c 2b 80 3e
       -0.47185284 -0.08944551 0.3575144 0.25033176
0002f0 a9 65 1c 3e 56 8b a9 3d f3 a1 b6 be 21 a2 86 bf
       0.15273155 0.08278529 -0.35670432 -1.0518228
000300 84 85 8b bf 5f 2f c3 be eb 44 5f be ff a3 ed bd
       -1.0900121 -0.3812208 -0.21803634 -0.116035454
000310 32 1b 5a bf 3b 27 40 bf ff 3c 96 3e 14 13 cf bd
       -0.85197747 -0.7505986 0.2934341 -0.10111061
000320 34 2a 1b be 99 95 0b be be 9a 7e 3e 63 91 c8 3d
       -0.15152818 -0.13631286 0.24863717 0.09793355
000330 4b c1 c0 3d 16 32 c0 3e d1 61 24 3f eb d9 28 3f
       0.09411868 0.37538213 0.64211756 0.65957516
000340 40 6e eb bd 1e f3 b1 be f1 e4 0c bf d4 5b 22 bf
       -0.11495638 -0.34755796 -0.55036837 -0.6342137
000350 d8 13 61 bf ab 6b 98 3e 0e f1 87 3e 1b d1 b3 3e
       -0.87920904 0.29769644 0.26551098 0.35120472
000360 1c 62 7a 3e b7 d5 9d 3e 37 09 6a be 06 87 9b be
       0.24451488 0.30827114 -0.22855078 -0.30376452
000370 85 90 1b be d1 20 e4 3e 01 5a 69 3c 27 1a 45 3c
       -0.15191849 0.44556287 0.01424265 0.012030161
000380 0e eb c0 3e c1 95 cf 3e d7 43 e8 3e 13 2c 14 3f
       0.37679332 0.4054394 0.45364258 0.5787975
000390 ad 9f 58 be ee 0c 86 3e d7 0d 94 3e 89 88 17 bf
       -0.21154661 0.2618174 0.2891681 -0.5919271
0003a0 87 3b b8 be c4 9a ed bd 34 54 8d be 5d 96 56 be
       -0.35982916 -0.11601785 -0.27603304 -0.20955797
0003b0 f2 d2 82 be 16 d7 f1 be 5e ab 6c be dd 49 0c 3d
       -0.25551564 -0.4723441 -0.23112246 0.03425013
0003c0 61 19 db bd 2d d7 13 3f 45 ca ce 3e 76 35 78 be
       -0.106982 0.5775021 0.40388694 -0.24239144
0003d0 b2 10 b4 3e a5 63 06 3f 54 47 3f bf 4a 75 96 bf
       0.35168988 0.52495795 -0.74718213 -1.1754544
0003e0 ae 5e 87 3e fe 28 a2 be 4e 08 00 3d 11 21 12 3e
       0.26439422 -0.316719 0.03125792 0.14270426
0003f0 15 8a 9d bd 95 d8 4d bd bc 3f 03 3e 8c 0c 70 be
       -0.07692353 -0.050255377 0.12817281 -0.23442286

bn1.weight f4 [64]
000000 b6 71 6f 3f a4 53 29 3f a1 23 8b 3f 9a bd 5d 3f
       0.93532884 0.6614325 1.0870248 0.86617434
000010 c1 25 66 3f 3c 38 2d 3f d6 40 b0 3f 0d 29 d9 3f
       0.8990136 0.6766393 1.3769786 1.6965653
000020 dc 4e 2f 3f 21 d0 a3 3f ca 16 6e 3f d4 2a fe 3e
       0.68479705 1.2797891 0.93003523 0.4964205
000030 4b 7a 8b 3f 42 e2 64 3f 8e 1f 45 3f 27 22 46 3f
       1.0896696 0.8940774 0.77001274 0.7739586
000040 e5 d8 a6 3f 9c bc 90 3f 70 45 9b 3f 0f 9a a7 3f
       1.3034941 1.1307559 1.2130566 1.309389
000050 0b b7 62 3f 28 24 8f 3f 17 fe 8b 3f d7 ab 5d 3f
       0.8856055 1.1182909 1.0936917 0.8659033
000060 a9 6b 84 3f 4c 1e ad 3f 72 be 2f 3f 2f 75 19 3f
       1.0345355 1.3524871 0.6864997 0.5994443
000070 ce bd 85 3f 22 8a 16 3f 15 6c 71 3f 3d da 8f 3f
       1.0448549 0.58804524 0.94305545 1.1238476
000080 ef 12 d7 3f 54 98 71 3f a4 08 77 3e ae 74 7e 3f
       1.6802653 0.9437306 0.2412439 0.9939679
000090 19 d4 04 3f 88 04 b0 3f 71 e4 5d 3f 25 f5 5b 3f
       0.51886135 1.3751383 0.866767 0.85920936
0000a0 71 27 8d 3f 65 21 c3 3f 92 d6 9c 3f 5e e7 bb 3f
       1.1027662 1.5244566 1.2252982 1.4679983
0000b0 b5 0b 8b 3f 40 b5 b4 3f 67 94 86 3f 89 38 19 3f
       1.0862948 1.4117813 1.0514039 0.5985189
0000c0 a3 34 ab 3f 0e b8 9a 3f b1 1f 8f 3f ab 14 c8 3e
       1.3375438 1.2087419 1.1181546 0.39078268
0000d0 05 96 ad 3f c4 76 01 3f 01 b9 97 3f eb 65 87 3f
       1.3561407 0.50571847 1.1853334 1.0577978
0000e0 6d 6d b1 3f d6 1b 98 3e cf 80 a6 3f 61 d9 2d 3f
       1.3861519 0.29708737 1.3008059 0.6790982
0000f0 72 b1 77 3f 43 de 8e 3f dd 95 7c 3f 52 08 65 3f
       0.96755135 1.1161579 0.98666173 0.8946582

bn1.bias f4 [64]
000000 39 41 5c be c6 09 17 be 81 f2 c5 be 9f e3 61 3f
       -0.21509255 -0.14749822 -0.38661578 0.8823795
000010 18 39 d3 be 5b 18 30 3f ae 59 ad 3e 98 df 8e be
       -0.41254497 0.68787163 0.33857483 -0.27904963
000020 31 ee 4c bc 47 15 96 bd 7b 5a bf 3c 9d 6a c2 be
       -0.012507961 -0.07328277 0.023358574 -0.37971964
000030 41 ad 3a 3f eb 38 1a be b5 a5 b5 3d f1 66 e1 be
       0.72920614 -0.15060775 0.08869497 -0.4402385
000040 3d 88 d2 3e 84 de 0c 3f 2e b8 33 bf 9e b2 e0 3e
       0.41119567 0.5502703 -0.7020291 0.43886274
000050 a2 d6 1a be 9c 0c 74 3e 3d 74 b9 be d4 ab 59 3d
       -0.15120938 0.23832935 -0.36221495 0.053142384
000060 fb e1 d0 be 7e a6 61 3f b8 a7 a8 3e da 43 02 bf
       -0.4079741 0.8814467 0.3294046 -0.50884783
000070 df 7f 81 be 9b d2 58 be 6f 44 62 3e 60 1d 29 3f
       -0.2529287 -0.2117409 0.22096418 0.6606045
000080 20 3e a0 3c 25 cb cd 3c 70 f4 f7 3d 14 18 09 3f
       0.019560874 0.02512128 0.1210717 0.53552365
000090 6a 03 16 bf 12 0a ba 3c d8 51 20 3e 90 0b 82 3f
       -0.5859896 0.02270988 0.15656221 1.0159779
0000a0 9b 0c f9 3e 54 9c c0 be 3c 6f 29 bd 65 c4 13 be
       0.4864243 -0.3761927 -0.041365847 -0.14430387
0000b0 6f 7d 9b be 14 9f 21 bf ac 33 11 bf cf 70 8e be
       -0.30369136 -0.6313336 -0.5671947 -0.2782044
0000c0 09 b1 cb bd 6f d6 b3 bd 6c 65 4b bf 7b 33 dd 3e
       -0.09945876 -0.08781134 -0.7945163 0.4320334
0000d0 fe 1e 98 be 40 aa ba 3e ab 8c 9b be 62 59 a5 3d
       -0.29711145 0.36458015 -0.3038076 0.08073689
0000e0 42 da eb 3e f7 e3 5d bb 31 74 87 3e 65 39 90 3e
       0.46064955 -0.0033857801 0.26455835 0.2816879
0000f0 6b c3 80 3e 38 ee b0 bd e5 a6 a4 3d a0 2a 34 be
       0.25149092 -0.086391866 0.08039645 -0.17594385

bn1.running_mean f4 [64]
000000 13 78 e2 3f 37 e0 88 3f 18 fc 17 3f 05 e9 b6 3f
       1.7692894 1.0693425 0.5936904 1.4289862
000010 dd 2e b4 3f 91 a8 88 3f 0e a5 55 3f 49 68 73 3f
       1.4076802 1.0676442 0.8345498 0.95081
000020 02 a3 df 3f 17 b3 ca 3f 0b 22 51 3f 06 3d 18 40
       1.7471621 1.5835904 0.8169257 2.3787246
000030 a5 2e 97 3f a6 58 08 3f ac 03 99 3f 77 fe 15 3f
       1.181111 0.53260267 1.1954246 0.5859141
000040 79 a8 10 3f 4e 20 94 3f e6 3b 87 3f 7e 83 74 3f
       0.5650707 1.1572359 1.0565155 0.9551314
000050 50 30 96 3e cf 12 8c 3f 35 88 85 3f 38 03 58 3f
       0.29333735 1.094324 1.0432192 0.8437991
000060 e2 36 65 3f 11 f5 2a 3f c5 80 98 3f 21 66 e1 3f
       0.8953687 0.6678019 1.1914297 1.7609292
000070 e7 96 76 3f fd 23 5f 3f 94 28 cd 3f a5 2b 83 3f
       0.9632401 0.8716429 1.6028008 1.0247694
000080 0d 88 ff 3f 29 34 60 3f 77 f6 0a 40 b4 9b 65 3f
       1.9963394 0.8757959 2.171293 0.8969071
000090 b8 04 f8 3f f2 7d 91 3f d0 8d 0a 40 49 19 91 3f
       1.937644 1.136656 2.1649055 1.1335841
0000a0 a1 80 da 3f 99 f5 0c 40 a9 b8 b5 3f cf 70 b5 3f
       1.7070504 2.20249 1.4196979 1.4175051
0000b0 94 25 e7 3e d0 37 a5 3f e8 dd fa 3f 55 6e c5 3f
       0.45145857 1.2907658 1.959897 1.5424296
0000c0 5f be f7 3f 28 d1 71 3f f1 ad 99 3f e9 dd 74 3f
       1.9354972 0.9445977 1.2006208 0.9565111
0000d0 35 8d 31 3f 2f bb 6c 3f 6d 71 2b 3f cf e8 a0 3f
       0.6935609 0.9247312 0.6696995 1.2571048
0000e0 6f e5 91 3f 67 ce 90 3f 14 b3 a8 3f 03 cc 8f 3f
       1.1398143 1.1312989 1.317965 1.1234134
0000f0 6c d8 7c 3f 82 ab dc 3f f5 1e c1 3e 22 3c a1 3f
       0.98767734 1.723984 0.3771893 1.2596476

bn1.running_var f4 [64]
000000 4c f6 9f 40 5e ab ec 3f c5 fe c3 3f b5 19 60 40
       4.9988155 1.8489797 1.5312124 3.501569
000010 f8 bf 6e 40 f6 5e ef 3f cf c7 c7 3f 4f d0 f9 3f
       3.7304668 1.8700855 1.5607852 1.9516696
000020 79 55 8f 40 33 c0 6d 40 94 8f ae 3f f2 d9 12 41
       4.4791837 3.714856 1.3637567 9.178209
000030 2d 23 32 40 98 94 1e 40 7c 21 26 40 e0 b1 18 40
       2.783397 2.4778194 2.5957937 2.3858566
000040 b6 11 cb 3f 5d d9 94 40 4c 2b fa 3f 89 27 04 40
       1.586478 4.6515336 1.9544463 2.064913
000050 64 8a c6 3e d8 a0 8d 40 b9 45 2e 40 35 20 e9 3f
       0.3877746 4.4258842 2.7230055 1.8212954
000060 80 25 42 40 1d 86 8a 3f e5 d0 6f 40 75 0b a4 40
       3.0335388 1.0822178 3.747125 5.1263986
000070 0d bd 40 40 f5 37 21 40 be ec 6b 40 71 9c 8a 40
       3.0115387 2.5190403 3.6863246 4.331597
000080 d9 26 4c 40 7a 20 5e 40 ec 4e fe 40 23 bd 36 40
       3.189871 3.4707322 7.947134 2.855294
000090 0b 84 e1 40 02 3b ff 3f 4f 8e a4 40 92 c6 bc 40
       7.0473685 1.9939883 5.1423717 5.8992395
0000a0 23 ed 47 40 8a 64 f7 40 58 99 2e 40 95 cf 7e 40
       3.1238487 7.731023 2.7281094 3.9814198
0000b0 c6 73 8a 3f 0d ed 9f 40 d8 ff d0 40 de fd 33 40
       1.0816581 4.997687 6.531231 2.8123698
0000c0 d4 e9 a7 40 ce 7d 1b 40 ae 8f 7f 40 fa 8f 67 40
       5.2472935 2.4295535 3.9931445 3.6181626
0000d0 96 b3 99 3f 0c 5c 54 40 29 a2 fb 3f ff bf 19 40
       1.200793 3.318118 1.9658862 2.4023435
0000e0 25 13 69 40 4d 60 90 40 ef d6 80 40 cb 5f c5 40
       3.6417935 4.5117555 4.026237 6.1679435
0000f0 38 3f 0b 40 0e 48 5d 40 c3 6d 90 3f 1c 10 19 40
       2.1757336 3.4575229 1.1283497 2.3916082

conv2.bias f4 [64]
000000 37 c6 a4 3d 36 ea 1f 3e 10 ef 27 3f 17 6e 16 3e
       0.08045619 0.15616688 0.65599155 0.14690433
000010 82 3b 9a 3d 58 d9 18 3f 5a 65 df 3e 66 c3 04 bd
       0.075308815 0.5970664 0.43632013 -0.03241291
000020 a0 7e 15 3e 5f d9 b3 bd 9b 0a 26 3e 00 c7 49 3f
       0.14599085 -0.087816946 0.16214983 0.78819275
000030 8b 3a 38 3f 33 05 33 3f e3 6c cf 3e 94 a1 d9 3d
       0.7196433 0.6992981 0.4051276 0.10626522
000040 54 30 ea 3d d1 a1 f5 3e 94 ff fc 3d f4 58 2d 3f
       0.11434999 0.4797502 0.12353435 0.67713857
000050 3e 8f 35 3f bc d2 51 3e 32 75 6a 3e 58 70 1f 3f
       0.70921695 0.20490545 0.22896269 0.622808
000060 2c 0d b6 3d f6 df 48 3e 69 27 cb 3e 9e 45 23 be
       0.08889231 0.19616684 0.39678505 -0.15944526
000070 b5 02 cc 3e bf ee a0 3e 38 1f b2 3d b5 ed 4c 3e
       0.39845815 0.3143215 0.08697361 0.20012553
000080 bc ee 35 3f b3 66 83 3e 6f 3b 63 bd c3 41 2d bf
       0.71067405 0.2566429 -0.055476602 -0.6767847
000090 49 e6 b1 3e cf 83 2e bf 17 1a 8e bc 68 60 3b 3f
       0.34746006 -0.68169874 -0.017346425 0.7319398
0000a0 dc ca 61 3e e4 88 60 3e b7 43 f5 bd 54 85 67 3e
       0.22050041 0.2192722 -0.11975806 0.22609454
0000b0 88 ad 32 3e d8 60 76 3d 0c a2 2f bd b3 1d 2b 3c
       0.1744901 0.06015095 -0.04287915 0.010444093
0000c0 45 cd 8a 3d bc 0d dd bc 13 71 1f bf 6f 59 9d 3c
       0.06777433 -0.026984088 -0.6228191 0.019207684
0000d0 bc 81 f2 3e 08 a3 5f 3f 7b 8c 23 3f 3a 50 61 3f
       0.47364604 0.8735814 0.6388623 0.8801304
0000e0 89 a0 d4 3e 18 57 eb b9 43 bb 8a 3e f2 79 93 be
       0.4152873 -0.00044887583 0.27095994 -0.28803974
0000f0 82 04 f0 3d 2d 68 8a 3e b1 ff e3 3e e0 31 ab bd
       0.1171961 0.27032605 0.44531015 -0.08359122

conv2.lin.weight f4 [64, 64]
000000 e8 6d 4a bd d2 8e 91 bd 6f a1 99 3e 26 6c 93 3e
       -0.04942122 -0.07107319 0.30005977 0.28793448
000010 d6 bc 88 be 67 b2 09 be 5c 28 76 3e 80 7d 30 be
       -0.2670657 -0.13446961 0.24038833 -0.17235374
000020 82 17 fc bd ef dd 60 be de b0 5e be ad a7 d4 3e
       -0.12309171 -0.21959661 -0.21747157 0.41534176
000030 91 92 3f bf 97 d4 48 3e b7 16 48 3e 75 2c 33 3d
       -0.7483302 0.19612347 0.19539915 0.04374357
000040 e9 b5 cb be d7 74 d8 3d 7a 4b d2 bd ea f6 88 3e
       -0.39787224 0.105691604 -0.10268302 0.2675088
000050 69 af 99 3e da cd 3e be 9b 61 55 be f8 56 84 3c
       0.3001664 -0.18633214 -0.20838015 0.016154751
000060 8f 84 86 3e dc 2c 17 bf e9 9c e9 3e 3a 2e 11 3c
       0.2627301 -0.59052825 0.45627525 0.008861119
000070 59 93 29 3f 25 b8 c3 be 0a 27 cb 3e 39 49 c6 bd
       0.6624046 -0.3822643 0.39678222 -0.09681935
000080 13 be 5f bf 30 54 14 bf d3 d4 ad bc 2f 08 82 3d
       -0.87399405 -0.5794096 -0.021219647 0.06349217
000090 8b 4f 6a 3e 74 b2 15 bf 17 de da 3e ea 73 45 3e
       0.22881906 -0.5847542 0.42747566 0.19282499
0000a0 b6 3d c8 bb d4 29 4b 3c b8 e6 d1 be 42 2f 4e 3f
       -0.006110872 0.012400109 -0.40996337 0.8054086
0000b0 14 f1 94 bd b0 45 f2 3e af 36 ba 3d 84 1d 93 3d
       -0.072725445 0.47318792 0.09092461 0.07183364
0000c0 12 88 88 3e 97 86 55 3e 77 57 f0 3e 15 a2 5e be
       0.26666313 0.20852123 0.4694173 -0.21741517
0000d0 75 28 e7 be fd 28 56 3e 6a 52 b7 be 15 15 86 3e
       -0.45148054 0.20914073 -0.35805064 0.2618796
0000e0 57 66 0e bf db 4c aa 3e d3 3b d4 3e f9 bc 8d be
       -0.5562491 0.3326176 0.41451892 -0.27683237
0000f0 17 5c 80 3f 09 72 e5 be 29 21 bc 3e 0c 41 30 be
       1.0028104 -0.44813564 0.3674405 -0.17212313
000100 c7 d3 1f be 9f 76 0f 3f 5c d8 10 3e e5 5b db be
       -0.1560813 0.56040376 0.14145035 -0.42843547
000110 ca 1e 63 3e 96 3c f5 be 6c ba a5 3e 6c 58 15 3e
       0.22179714 -0.47897786 0.3236879 0.14584512
000120 e8 83 5e 3f 5b 12 ed be cb 9c 90 3d 67 78 fe 3e
       0.8692002 -0.46303067 0.07061156 0.49701235
000130 cf e1 1d 3e 6e fb c7 bb d8 2b 98 be f3 94 23 3e
       0.1541817 -0.006102971 -0.2972095 0.15974788
000140 95 18 c4 3d 92 eb 5f bf 32 40 b2 3d 0c 26 82 be
       0.09575001 -0.87468827 0.087036505 -0.25419652
000150 7c 55 39 3f a6 5a 61 bf 86 0e 8c 3e b1 9d 92 3e
       0.72396064 -0.88028944 0.2735483 0.28635934
000160 13 48 e3 3d 2e 07 46 bf 9b f9 5a bf e4 c3 ec 3e
       0.110977314 -0.77354705 -0.8553712 0.46243203
000170 23 e1 8b 3e ed e3 0e be 7c 53 0b 3f 58 72 df 3d
       0.27320203 -0.13954134 0.5442426 0.10910481
000180 80 4e ee be d1 a5 43 3e e4 96 f1 38 2c be 23 bf
       -0.46544266 0.19106223 0.00011519881 -0.63962054
000190 49 03 16 3f dd 42 a4 be c1 df aa be d9 88 0f bf
       0.5859876 -0.32082263 -0.33373836 -0.5606819
0001a0 6b a4 a6 3e 41 78 77 3f b3 d7 7c 3d 49 df 43 3e
       0.32547316 0.9666787 0.061729144 0.19128145
0001b0 96 a0 0a bd d1 f3 c0 3e 90 96 aa be 49 03 bc 3e
       -0.033844553 0.37686017 -0.33317995 0.36721256
0001c0 3f 91 12 3f 1d b5 95 be d5 e6 e0 bd d2 28 92 3d
       0.5725288 -0.2923974 -0.10981528 0.07136692
0001d0 05 56 8f 3e d7 0d 38 3c 99 da 23 bd f6 32 0d 3e
       0.27995315 0.011233768 -0.040003393 0.13788971
0001e0 10 09 15 3f 78 9c 2c bd ee ab f2 be 4e b6 94 3d
       0.58216953 -0.042141408 -0.47396797 0.07261334
0001f0 bf 18 77 3e 39 68 49 be f9 04 1b bf 65 cd 23 3f
       0.24130534 -0.19668664 -0.6055446 0.6398528
000200 87 67 df 3e 9a 70 91 3e 63 84 1a bf 8f 56 01 bf
       0.43633673 0.2840622 -0.60358256 -0.505227
000210 72 b1 4f be 81 3d a7 bc 3d 2a bd be 70 83 70 3f
       -0.20282534 -0.02041507 -0.36946288 0.9395056
000220 0e 3a 05 bf d6 82 8c 3e 06 9f 1c 3f f2 4e ed bd
       -0.5204171 0.2744357 0.6118015 -0.11587323
000230 49 8d 17 be 1b 0d c7 3d 48 16 06 bf 92 63 4b bf
       -0.1479999 0.097192965 -0.5237775 -0.7944881
000240 66 37 03 be c9 33 ab bf db b2 95 3e 98 a0 4a bf
       -0.12814102 -1.3375179 0.29238018 -0.79151297
000250 9e 9e 29 3e 21 ac 82 bf 2e bc cd be 66 80 5d bf
       0.16564414 -1.020878 -0.40182632 -0.86524045
000260 f1 ed 86 be d4 e4 46 bd e2 eb bb be c9 fc a5 be
       -0.2635341 -0.04855807 -0.36703402 -0.32419422
000270 51 1a 09 3f ba 75 b5 be 22 80 bd bd 90 48 df bd
       0.5355578 -0.3544138 -0.09252955 -0.10902512
000280 17 44 7b be c4 3e 9e be 0a bd 51 3d 3d 1e a8 bd
       -0.24537693 -0.3090726 0.051205672 -0.082088925
000290 ca f4 46 be c0 09 2c be 7a fb 9d 3e c3 ae 82 be
       -0.19429317 -0.16800594 0.30855924 -0.25523958
0002a0 06 aa 8e 3e b2 59 53 bd cb fd 1b 3e 5a 3e 59 bd
       0.27864093 -0.051599212 0.15233533 -0.05303798
0002b0 d2 8c 01 3f 2d d5 cf bc 92 da 5c be dd 50 a8 3e
       0.506055 -0.025370205 -0.21567753 0.32874194
0002c0 70 a4 cc be 14 63 28 bf 2a 34 84 be f4 e1 8b bd
       -0.39969206 -0.6577618 -0.25821048 -0.068302065
0002d0 6b 64 ba be 04 4c 7e bf 73 4c 31 3d 49 f8 ff be
       -0.36404738 -0.9933474 0.0432858 -0.49994114
0002e0 59 e8 65 bf 28 41 39 bd cc 87 7d be ec 18 39 3e
       -0.8980766 -0.045228153 -0.24758834 0.18075913
0002f0 b6 37 e3 be e4 2f 88 3e 05 30 cb be b7 a4 7c 3e
       -0.44378442 0.26599038 -0.39685073 0.24672209
000300 29 dd 05 be a7 a3 08 bf 2c 16 cf bd 12 86 7a 3e
       -0.13072647 -0.53374714 -0.10111651 0.24465206
000310 d9 2c 65 3e 9f 05 f2 bc b1 17 83 3f 75 cf bc 3d
       0.2238039 -0.029543696 1.0241605 0.09219257
000320 ba 89 28 bf 09 02 cb be d4 1c 02 3c 56 7a 22 be
       -0.65835154 -0.3964999 0.0079414435 -0.1586698
000330 e4 f1 ec be 31 84 23 be dc 9b 52 3e 91 89 08 be
       -0.46278298 -0.15968396 0.20567268 -0.13333727
000340 c5 9d 81 bf 32 81 ce 3e c2 0e b8 3e 82 72 bd bd
       -1.0126272 0.40332943 0.3594876 -0.09250356
000350 40 1f d5 bd 39 61 bb 3e 19 58 14 3f bb 98 ac bd
       -0.10406351 0.36597613 0.57946926 -0.084275685
000360 25 7d 31 3e 72 01 89 3d 7e 32 ff 3e da e5 5d be
       0.17332895 0.06689729 0.4984321 -0.21669713
000370 de 02 2a 3f f7 fa 1b 3e 30 5d cf 3e cf f0 8b be
       0.66410625 0.15232454 0.40500784 -0.2733216
000380 aa 55 5f 3f 41 bb 53 be af 36 c5 be b7 26 75 3e
       0.8724009 -0.206769 -0.38518283 0.2394055
000390 51 0c 70 be 4b 52 77 3e ff 22 9d 3b 0f 9e 66 bd
       -0.23442198 0.24152486 0.0047954316 -0.05630308
0003a0 ff e1 05 3f 77 4a a2 bd e1 13 ba 3d b7 73 39 3d
       0.5229797 -0.07924359 0.09085823 0.04527637
0003b0 24 cd d4 bd 75 fe 1e 3e d4 74 05 be ec 27 c6 3d
       -0.1039069 0.15526755 -0.13032848 0.09675583
0003c0 29 08 95 3e 8b 4d ba be 3d af a6 3e f7 3b a2 3e
       0.29107788 -0.36387286 0.3255557 0.31686375
0003d0 c7 c1 8e 3e 88 1f 13 be 4f 6b 2d 3f 8c ca 78 3e
       0.27882215 -0.14367497 0.67741865 0.24296016
0003e0 83 d9 33 be 7a 81 b5 3e f7 49 90 be 37 0d 20 be
       -0.17563443 0.35450345 -0.2818143 -0.15630041
0003f0 7b f4 07 bf 70 9a 2e 3f f0 78 27 bf 1a e5 2e 3d
       -0.5310742 0.682044 -0.6541891 0.042698957

bn2.weight f4 [64]
000000 80 ad 73 3f 7e b6 b5 3f b4 09 a7 3f ef dc 96 3f
       0.95186615 1.4196317 1.3049836 1.1786174
000010 0c 12 66 3f 82 1d 66 3f 08 9d f3 3e d6 9e a8 3f
       0.8987129 0.89888775 0.47580743 1.3173473
000020 08 b9 a3 3f c1 9f 20 3f 29 0f 8d 3f 77 68 7f 3f
       1.2790842 0.62743765 1.1020252 0.99768776
000030 68 b7 bf 3f 36 8d 81 3f fe 74 8b 3f 36 50 9e 3f
       1.4977846 1.0121219 1.0895078 1.2368228
000040 f8 65 22 3f 17 2d 99 3f d2 76 75 3f 2d a7 84 3f
       0.6343684 1.1966885 0.9588443 1.0363518
000050 2c 21 8b 3f 35 5a 84 3f 95 2d 32 3f d7 c6 6c 3f
       1.0869498 1.0340029 0.696008 0.92490906
000060 cc 07 52 3f 98 60 85 3f a5 e7 82 3f 99 86 8c 3f
       0.8204315 1.0420103 1.0226942 1.0978576
000070 01 67 52 3f d7 dd 3b 3f 0f 88 a0 3f 40 69 d2 3f
       0.8218842 0.73385376 1.2541522 1.643837
000080 66 90 92 3f e1 bc 2a 3f 5c e8 a4 3f 31 9e 94 3f
       1.1450317 0.66694456 1.288341 1.1610776
000090 c6 84 55 3e ce eb cf 3f 35 77 98 3f 21 a6 c2 3f
       0.2085143 1.6243837 1.1911379 1.5206949
0000a0 d4 07 8d 3f 85 5c a7 3f a2 62 72 3f f8 ca 28 3f
       1.1018014 1.307511 0.9468175 0.65934706
0000b0 51 cd 25 3f fb 2f 8f 3f fe 72 89 3f 03 65 5c 3f
       0.6476641 1.1186517 1.0738218 0.8609163
0000c0 cf 64 96 3f 2a 38 39 3f bc 4b ab 3f 95 47 aa 3f
       1.1749514 0.72351325 1.3382487 1.3303095
0000d0 8a bf 91 3f 4a ec 62 3e 8c ad 8d 3f b9 59 27 3f
       1.1386578 0.2216045 1.1068587 0.6537128
0000e0 f1 f9 78 3f 86 d5 23 3f 18 43 a0 3f aa ce 24 3f
       0.9725638 0.63997686 1.2520475 0.64377844
0000f0 2e 92 99 3f 57 8b 60 3f 97 f5 a3 3f 5e 94 7b 3f
       1.1997736 0.87712616 1.2809323 0.98273265

bn2.bias f4 [64]
000000 76 19 5f 3e 9a c8 a0 3e b6 26 ab 3d 96 2e c9 3e
       0.21787056 0.31403047 0.08356993 0.39293355
000010 75 98 86 3e 22 40 f7 3e 49 51 54 3d ee ac c5 3d
       0.2628819 0.48291117 0.051835332 0.09652124
000020 bc f1 fe 3e 95 10 32 3e 04 bf 23 3e ab 0d 6d 3e
       0.49793804 0.17389138 0.15990835 0.23149745
000030 1f 16 9a 3e dc 47 cf 3e b8 f8 78 3d 16 dc 39 3d
       0.30095002 0.40484512 0.06078407 0.045375906
000040 94 77 a7 3e b3 d4 0b 3e 4c c9 be 3e c3 46 9e 3e
       0.32708418 0.13655357 0.37262952 0.30913362
000050 22 22 9a 3e ca e9 45 3e c4 45 c9 3e 46 f7 db 3e
       0.30104166 0.19327465 0.3931104 0.42962092
000060 e3 ff 8f 3e d6 6c 4f 3e b3 5e 9b 3e 70 a9 a1 3e
       0.28124914 0.20256361 0.30345687 0.31574583
000070 f9 00 78 3e fe a0 a7 3d 47 51 83 3e d7 a3 8c 3d
       0.24219121 0.08185004 0.25647947 0.068671875
000080 cb 5b bd 3e d8 25 5d 3e 87 b7 c2 3d fb f7 00 3e
       0.36984095 0.21596467 0.09507661 0.12594597
000090 d8 71 d6 3c cc 02 76 3e dd a1 00 3f 59 6c df 3e
       0.026177332 0.24024504 0.50246984 0.4363735
0000a0 7f 12 79 3e 0f 24 44 3e ad dc b5 3e ad 9f 8c 3e
       0.24323462 0.1915438 0.35519925 0.27465573
0000b0 31 b9 97 3e 11 ae e0 3d 3c 24 80 3d 8d ef af 3e
       0.29633477 0.109707005 0.06256911 0.3436245
0000c0 94 03 a6 3e dd 27 88 3c bd b9 e4 3d 21 46 93 3e
       0.32424605 0.01662057 0.11168239 0.28764442
0000d0 d1 d2 b3 3e 85 7c 1d 3e 1b 13 d6 3e a7 ae 12 3f
       0.35121778 0.15379532 0.4181145 0.5729775
0000e0 d2 2f 89 3e e4 cd 50 3d 9d 85 98 3e 75 ca 76 3e
       0.26794297 0.050977603 0.2978944 0.24100669
0000f0 9a 07 0e be 05 56 bb bc a1 50 fb 3e 73 b2 51 3e
       -0.13870087 -0.022868166 0.49084952 0.20478229

bn2.running_mean f4 [64]
000000 4d 62 de 3f 80 be 40 3f 9c e8 da 3f d3 ba 0e 40
       1.7373749 0.7529068 1.7102237 2.2301528
000010 bb e0 f3 3e 58 12 37 40 e1 0e 42 3f 26 e4 03 3e
       0.47632393 2.8604946 0.75803953 0.1288
000020 11 4b 32 40 e7 df df 3e 63 15 a8 3f 01 c9 1f 40
       2.7858317 0.4372551 1.3131527 2.4966433
000030 07 0b 2f 40 52 74 17 40 a2 75 a8 3f 82 b6 3a 3f
       2.735048 2.3664746 1.3160899 0.72934735
000040 23 19 4d 40 9e 16 a4 3f 63 12 74 3f ce 4c ad 3f
       3.2046592 1.2819402 0.95340556 1.3539064
000050 07 94 ac 3f a2 bb 40 3f d2 d2 41 40 8e 2f 58 40
       1.3482674 0.75286305 3.0284925 3.3779025
000060 aa cf ad 3f cd cf 22 40 a0 01 05 40 c0 b0 ae 3f
       1.3578999 2.5439332 2.0782242 1.364769
000070 85 29 b3 3f 91 2e fe 3e b1 d8 c4 3f 37 09 af 3f
       1.3997046 0.49644902 1.5378629 1.3674687
000080 e5 54 f7 3f fa 10 cd 3f b5 74 31 3f e6 ee bf 3e
       1.9322783 1.6020806 0.69318706 0.37486953
000090 16 03 a2 3f 37 ea 76 3f 0e 7c 88 3f 88 cf 3d 40
       1.2657192 0.96451133 1.0662858 2.9657917
0000a0 0e e3 3a 40 85 e7 3a 3f 93 04 7a 3f da c7 69 40
       2.9201083 0.7300952 0.9766323 3.652823
0000b0 74 47 05 40 d9 79 36 3f c9 88 24 3f 42 38 7a 3f
       2.0824862 0.71279675 0.6427122 0.9774209
0000c0 9a 87 b2 3f 71 9d 9a 3e c3 7a 4f 3e 06 a7 05 3f
       1.3947632 0.30198243 0.20261674 0.5220798
0000d0 27 41 9f 3f d9 68 22 40 2a 6b 26 40 a2 28 04 41
       1.2441758 2.5376494 2.6002908 8.25992
0000e0 db 4b cf 3f ca 80 1a 3f 4d 42 8c 3f f4 77 e2 3e
       1.6195024 0.60352767 1.0957733 0.44232142
0000f0 8a 9c cf 3e 3e 16 18 3f a7 80 39 40 c8 dd 00 3e
       0.40549117 0.5940894 2.8984773 0.12584603

bn2.running_var f4 [64]
000000 37 24 8e 41 36 47 93 40 72 e4 20 41 60 2b b6 41
       17.767683 4.6024427 10.055773 22.77118
000010 5d 92 bb 40 b9 d7 95 41 89 1e 7f 40 65 64 81 3f
       5.8616166 18.730333 3.9862387 1.0108763
000020 e2 52 d2 41 07 f9 3a 40 e9 05 a0 41 d1 2d 38 41
       26.29047 2.9214494 20.002886 11.511186
000030 96 a3 b5 41 11 34 af 41 43 5e 0f 41 5d dc ee 40
       22.704876 21.900423 8.960513 7.4644
000040 d1 ec 0a 42 b0 a0 33 41 43 2c ee 40 3f 4f 74 41
       34.731266 11.22673 7.442903 15.269347
000050 37 0a e3 40 d7 b2 56 41 d8 c6 b1 41 59 82 d5 41
       7.094997 13.418662 22.222092 26.688646
000060 81 db 13 41 e5 8b be 41 ed d0 bf 41 f7 22 33 41
       9.24109 23.818308 23.977015 11.196036
000070 a2 68 85 41 af 97 23 40 74 32 56 41 41 dd 52 41
       16.67609 2.556133 13.387318 13.179017
000080 42 11 37 41 db dc 91 41 a6 2a f2 40 d8 5c cd 40
       11.441713 18.23284 7.567706 6.4175835
000090 a4 60 1f 41 5a a9 25 41 0b 73 39 41 80 2e 9d 41
       9.961094 10.353846 11.590587 19.647705
0000a0 8e c6 f9 41 d5 0c dc 40 f8 5a 1f 41 61 b2 ae 41
       31.22195 6.8765664 9.959709 21.8371
0000b0 ed 77 6c 41 a2 60 03 41 f0 7f e4 40 2a d1 39 41
       14.779279 8.211092 7.1406174 11.613565
0000c0 9f b3 18 41 e0 7b 29 40 51 f8 2d 40 3f 0d d0 40
       9.543853 2.6481857 2.718281 6.501617
0000d0 fa f0 e8 40 b4 69 5b 41 fd 82 65 41 f5 7d 2e 42
       7.279416 13.713306 14.34448 43.623005
0000e0 e8 4d b2 41 a1 ee fb 40 a2 16 ef 40 40 51 87 40
       22.28804 7.8728795 7.471513 4.228668
0000f0 c1 10 8d 40 7e 66 a6 40 09 d3 d2 41 67 64 41 3f
       4.408295 5.2000113 26.353045 0.75543827

fc1.weight f4 [64, 64]
000000 db dd e8 bd a7 ad e0 bd 4c 0b 36 3e 9d 59 2a be
       -0.113704406 -0.109706216 0.17777747 -0.16635747
000010 97 b6 d1 bd 28 47 41 bf c3 4e f4 bd 8e b9 06 3c
       -0.102399044 -0.754992 -0.11929085 0.008222951
000020 eb ca 1f 3f 5b 86 a6 3e 00 07 d1 3e d3 03 be be
       0.62419003 0.3252438 0.40825653 -0.37112293
000030 bb 48 d2 be a9 42 f2 be 7a ad 06 3e 0b 0d 8b 3d
       -0.41071114 -0.47316483 0.13152114 0.06789597
000040 b2 ac 15 3e 5e 84 24 bf 0e 12 9d be 3b b5 95 be
       0.1461666 -0.64264476 -0.30677837 -0.2923983
000050 63 89 99 be 62 a7 56 be f9 f5 57 3e 79 af 10 be
       -0.2998763 -0.20962289 0.21089925 -0.14129438
000060 b2 e8 7c 3e a1 78 92 be 84 9b 54 be fe 12 dc be
       0.24698141 -0.28607658 -0.2076245 -0.4298324
000070 84 f5 8a 3e 29 46 04 3f 11 0f 0e 3f 9a ae f5 be
       0.2714044 0.51669556 0.5549174 -0.47984773
000080 f5 ff 18 be 32 80 c0 3e 04 a1 36 3c 7a 88 4d 3e
       -0.1494139 0.37597805 0.011146788 0.20071593
000090 0e 16 0a 3d b2 c5 36 bf 50 b2 6d be cb c7 7e be
       0.03371244 -0.7139541 -0.23212552 -0.24880902
0000a0 de c2 f9 bd ee 67 3d bf 04 7a e3 be 96 30 35 3e
       -0.12195371 -0.7398671 -0.44429028 0.17694315
0000b0 e3 bc 37 3e a3 c7 0c 3f a5 25 12 3f f1 cf 0f be
       0.17943148 0.5499212 0.5708869 -0.14044167
0000c0 3f e2 1a 3f 88 c6 04 3e e3 96 50 3e b0 62 4e 3e
       0.60501474 0.12966359 0.20370059 0.20154834
0000d0 d7 00 26 bf 8b 5b b6 be b3 b6 e2 be 53 73 25 be
       -0.6484503 -0.35616717 -0.44280013 -0.16157274
0000e0 82 76 cf 3d c8 f2 a4 be d3 5c 15 3d b0 88 16 bd
       0.101300254 -0.32216477 0.036465477 -0.03675145
0000f0 58 28 80 be 0e f9 ad 3e 1c 60 5c be e6 cd a7 3e
       -0.2503078 0.33979076 -0.21521038 0.32774276
000100 be 72 f2 bc 5d 08 16 bf 29 96 eb bd 84 ef 5b 3e
       -0.029595729 -0.5860651 -0.1150325 0.21478087
000110 35 08 0f be a0 0d d6 3b 33 bc 7a be 92 b3 41 be
       -0.13967974 0.006532386 -0.24485855 -0.18916157
000120 37 b1 7e be a6 8f e4 bd d8 40 06 3f 49 36 60 3e
       -0.2487229 -0.11160211 0.52442694 0.21895708
000130 34 43 94 3d 14 0d 13 be 0d 30 ae 3e c0 7c 6e be
       0.072393805 -0.14360458 0.34021035 -0.23289776
000140 22 64 18 bf ca 27 b2 3e 0e 11 6d 3e 9c 94 97 3e
       -0.5952779 0.34795982 0.23151037 0.29605567
000150 e3 80 06 bf 50 c4 ef 3d a5 05 5f bc 58 dc 8f 3d
       -0.52540416 0.117073655 -0.013612186 0.07024449
000160 ad 0d 13 bf db bb da be 00 df 0c 3e f0 ae bf be
       -0.5744274 -0.42721447 0.13756943 -0.37438154
000170 ee b1 e7 bc 9e 38 5a 3e 55 60 63 be 4a c7 11 bf
       -0.028283086 0.2131066 -0.22204717 -0.56944716
000180 03 72 88 3b d5 a8 33 be 4c 7a 19 bf 04 7d f4 3d
       0.004163982 -0.17544873 -0.59952235 0.11937907
000190 d2 49 b3 be 85 f9 3f 3e cc da fe 3e 23 e5 07 3f
       -0.35017258 0.18747528 0.49776304 0.5308401
0001a0 4d 4f be be 28 7c 12 3e c0 08 13 bf 17 20 cf bd
       -0.37169877 0.14305174 -0.57435226 -0.101135425
0001b0 4b 7b 2c be f5 7f 54 be 1d df 85 bc 9f 08 5e be
       -0.16843908 -0.20751937 -0.01634174 -0.21682976
0001c0 32 b1 02 be a4 58 84 3e f8 89 1a bf b7 8d d9 be
       -0.12762907 0.25848877 -0.60366774 -0.42490932
0001d0 9a 47 7f be 35 57 27 be 79 f3 36 bd 01 35 90 be
       -0.24929658 -0.1634186 -0.044665787 -0.2816544
0001e0 49 c4 cd 3c 69 3b c1 bc 7f 1a 58 bf fd 3c 4f 3e
       0.02511801 -0.0235879 -0.8441543 0.20238109
0001f0 91 65 1d bc 5a 91 48 3e d9 cf 50 bf 73 3e 83 3e
       -0.009606735 0.19586697 -0.8156715 0.25633582
000200 84 38 f9 3e cd 49 b7 39 d6 fd 80 be d0 3f 96 be
       0.4867593 0.00034959466 -0.2519366 -0.2934556
000210 f1 e1 84 3d 6b 50 ea 3e 8e 38 10 bd 11 26 82 be
       0.064884074 0.4576448 -0.035210185 -0.25419667
000220 cb 8c a9 3e 12 b3 ab 3e a9 36 8b be c0 c3 ab be
       0.3311523 0.33535057 -0.2719014 -0.33547783
000230 8d 59 a1 3e af 59 a4 be 37 a3 0f be 9a ff de bd
       0.31513634 -0.32099673 -0.14027105 -0.10888596
000240 fb f5 8a 3e 0a 6f 0d 3d 42 db a6 3e dd c1 02 3f
       0.27140793 0.034529723 0.32589155 0.5107706
000250 e6 34 e1 be 61 03 98 3e 4e 37 b5 ba 89 26 9f be
       -0.4398567 0.29690078 -0.0013825686 -0.31084087
000260 2b 12 9d be 76 73 4b bd 5b 53 06 3e 91 68 47 be
       -0.30677924 -0.04967066 0.13117735 -0.19473483
000270 6c 44 92 3e b9 9d 49 3e 59 97 ce bc a4 a2 c6 bc
       0.28567827 0.19689073 -0.025218653 -0.024247475
000280 e8 12 87 bf dc 40 9a be 1a 0c 63 3d a0 48 a1 3e
       -1.0552645 -0.3012761 0.055431463 0.3150072
000290 a8 c7 7e 3d 0b b0 e8 3e 11 83 1e 3f 0f 59 20 3f
       0.062202126 0.4544681 0.6191874 0.6263589
0002a0 b1 b8 ae 3e 9f cd d4 3e 9a d5 08 3e 17 d3 eb bd
       0.34125283 0.41563126 0.13362733 -0.115148716
0002b0 ed 33 16 be bd be 89 bd 88 ba 2b be 6d 62 19 be
       -0.14668246 -0.067258336 -0.16770375 -0.14978953
0002c0 cd a4 a1 be a5 94 b1 bc 19 85 e3 bd 43 62 e0 3d
       -0.31571046 -0.021677325 -0.11109371 0.10956242
0002d0 fb 7a 9b 3e 6f b8 d6 be 82 23 fb be 21 74 39 be
       0.30367264 -0.41937587 -0.49050528 -0.18110706
0002e0 6d 63 0d 3f c4 d1 2d be aa 8b bc 3a 9b 04 09 3e
       0.55229837 -0.1697455 0.0014384885 0.13380663
0002f0 74 11 30 be f7 d6 d4 3d 08 56 c9 3d 36 77 c2 bd
       -0.17194158 0.10392564 0.09830862 -0.09495394
000300 fa e2 9c 3d d8 e7 5e 3e 98 7e 9f bd 66 b4 3f 3e
       0.0766048 0.21768129 -0.07787818 0.1872116
000310 a6 03 a7 bd 7d 93 30 3e 2d be fe bd f3 99 e4 bd
       -0.08154993 0.17243762 -0.12438617 -0.11162176
000320 ee 2b 0a 3f d1 9d 60 be 39 cd dc bd 1f c3 2e 3d
       0.5397328 -0.21935202 -0.107813306 0.04266655
000330 a9 9d c1 3e c2 d9 b1 3e 52 ff 4b be a8 01 88 3e
       0.37815598 0.3473645 -0.19921616 0.26563764
000340 a6 98 ba 3e 04 28 91 3e 15 13 dd 3e bf 39 ab be
       0.36444587 0.28350842 0.4317862 -0.33442494
000350 94 a0 25 3e f8 d2 29 3e fd 1b b1 3e 65 6e df 3d
       0.16174537 0.16584384 0.34591666 0.10909728
000360 e1 c4 c8 3e 87 b1 13 3e 70 1d 9c 3e a7 fe 50 bd
       0.39212707 0.1442319 0.3049121 -0.051024105
000370 39 03 c0 bc f0 3c ff bd f4 c6 4e bd 75 c8 8e bd
       -0.023439037 -0.12462795 -0.050482705 -0.06971828
000380 d9 f9 e4 bd e0 67 61 3d b3 35 8f 3e 06 fa e4 3b
       -0.11180467 0.055030704 0.27970657 0.006987813
000390 52 5d 58 3e 12 53 8b 3e 2a c0 34 be 1d b5 42 3e
       0.21129349 0.27211815 -0.1765143 0.19014402
0003a0 f9 66 5b bd b5 dc db bc c8 43 a9 bd a4 ae 8f 3e
       -0.053565 -0.02683864 -0.08264881 0.28062928
0003b0 05 63 5b 3e 36 ee 8e be 13 f8 8c 3d a6 f2 18 3e
       0.21424492 -0.27916116 0.06883254 0.14936313
0003c0 65 cb e9 bd ef d9 86 be ae 53 98 3e 6d 10 96 be
       -0.114157476 -0.26338145 0.29751343 -0.29309407
0003d0 53 38 4c 3e b4 14 c8 3e a3 91 de 3e cb 9b 07 3f
       0.19943361 0.39078295 0.43470487 0.52972096
0003e0 9d c1 bd 3d 0d e7 07 bd 9e 27 5c 3e 7a 12 c4 3e
       0.092654444 -0.03317933 0.21499488 0.38295346
0003f0 9b e3 7a bd ad d0 18 bf de dd 62 be bd 32 c4 3e
       -0.061252218 -0.59693414 -0.22154948 0.3831996

fc1.bias f4 [64]
000000 1d e0 db 3e d1 db 00 3f d3 a1 25 3f 07 c5 ea bd
       0.42944422 0.50335413 0.6470005 -0.11463361
000010 bf b6 23 3f 97 7f 86 3f 51 1a b6 3f c7 c1 8e 3f
       0.63950723 1.0507687 1.4226781 1.1152886
000020 2a 96 4d 3f 22 8d 4a 3f 34 13 39 bc c3 d3 b6 3e
       0.8030726 0.791216 -0.011296082 0.35708436
000030 22 87 0d be a6 f4 31 3f 5e 08 8c bd 5a 76 04 3f
       -0.1382108 0.6951393 -0.068375334 0.5174309
000040 d1 c1 29 3f 47 0c 24 3f e4 ea ef 3e b4 bc b0 3e
       0.66311365 0.64081234 0.46858895 0.3451897
000050 76 e1 ce 3d 66 20 eb bd a6 c0 88 3e 7b a1 a9 3f
       0.10101597 -0.11480789 0.2670948 1.3252405
000060 22 3a 90 be d5 4a 0a 3f e8 f2 88 3f 20 30 bc 3e
       -0.28169352 0.54020435 1.0699129 0.36755466
000070 38 5d 5f 3e b0 c3 51 3f 9c 13 55 3f 42 f0 08 3f
       0.21812904 0.8193922 0.83233047 0.53491604
000080 03 5d c2 3e 6a 71 8d be 6d 48 82 3c ec 92 c0 3e
       0.37961587 -0.2762559 0.015903676 0.37612092
000090 87 81 05 3f 01 8c 77 3e 19 1a 7a 3d 8a 4b 2c 3f
       0.5215077 0.24174501 0.061060045 0.67302763
0000a0 a9 9a 9f 3f 01 79 09 3f 65 cc 33 3f 56 b5 2f 3e
       1.2469074 0.5370026 0.70233756 0.17159018
0000b0 24 44 f9 3e ce f7 df be 03 e1 cb be e5 f5 c1 be
       0.486848 -0.43743747 -0.39820108 -0.37882915
0000c0 3a 07 6d 3e 01 e8 b7 3f 4b 24 c3 3e 12 5e 39 3f
       0.23147288 1.4367677 0.38113627 0.72409165
0000d0 5e c5 8e 3f 13 94 90 3f 61 82 72 3f e8 9a 34 be
       1.1153982 1.1295189 0.9473019 -0.17637217
0000e0 d6 d1 90 3f a6 58 9a 3f 16 3d a9 3f bb bd 26 3e
       1.1314037 1.2058303 1.3221767 0.16283314
0000f0 86 da d0 3f ed 0d 09 3f 94 c2 89 3f 8e f3 3c 3f
       1.6316688 0.53536874 1.0762506 0.73809135

bn3.weight f4 [64]
000000 18 c6 84 3f 9e e4 17 3f 97 64 97 3e c6 70 02 3e
       1.0372953 0.5933322 0.2956893 0.12738332
000010 ec 11 5e 3f 6f 13 1b 3f 95 85 33 3f 54 ef ab 3e
       0.86746097 0.6057653 0.70125705 0.3358103
000020 13 18 35 3f 43 0a 1d 3f 93 a4 64 3e da 7a 3a 3f
       0.7073986 0.61343783 0.22328405 0.72843707
000030 d8 fd 4a 3d ef 2b b1 3e c9 76 5c 3f b4 bb 3d 3f
       0.04955849 0.3460383 0.8611875 0.7411454
000040 19 4b 31 3f 63 a2 9e 3e 73 ce 62 3f 4f 10 cd 3e
       0.69255215 0.30983266 0.88596267 0.40051505
000050 6c a5 11 3f 2c 79 70 3f 81 d8 70 3f 99 62 47 3f
       0.5689304 0.93934894 0.9408036 0.77884823
000060 fa 68 15 3f 88 bd 43 3f 1a 09 27 3f 32 0a 6a 3e
       0.58363307 0.76461077 0.6524826 0.22855452
000070 35 89 29 3f 19 34 52 3f 1a 1f 2f 3f 09 5a e5 3e
       0.66224986 0.82110745 0.6840683 0.44795254
000080 17 14 6a 3f e4 b1 43 3e b7 d9 1c 3d 99 48 62 3f
       0.91436905 0.19110829 0.038293567 0.88392025
000090 83 b6 36 3f d1 b4 6b 3f 3b 1d 39 3f 89 bf 3e 3f
       0.7137224 0.9207278 0.7231023 0.7451101
0000a0 d9 f7 65 3f 6f 3f bd 3c c4 3b 27 3f 42 40 17 3f
       0.8983131 0.023101537 0.6532557 0.59082425
0000b0 4b 99 31 3f a6 c6 c2 3e 05 97 9c 3d 09 50 a9 3e
       0.6937453 0.38042182 0.07645992 0.33068874
0000c0 b5 0e 3f 3f 84 79 16 3f 58 d6 04 3f 62 b0 4d 3f
       0.74631816 0.5877917 0.5188956 0.80347264
0000d0 06 2b 70 3f f7 5c 42 3f 39 8a e6 3e 5a 90 f7 3e
       0.9381565 0.75923103 0.4502733 0.4835232
0000e0 5f 82 68 3f 8d 80 47 3f 3a 52 67 3f 78 03 7c 3f
       0.9082393 0.7793053 0.9035984 0.9844279
0000f0 a8 32 88 3f 0c c4 32 3f 17 93 54 3f 18 df 55 3f
       1.0640459 0.69830394 0.8303694 0.8354354

bn3.bias f4 [64]
000000 5e 82 36 3c 91 0e 11 3d 6b fa d2 bb 8d c1 1e 3d
       0.01113948 0.035414282 -0.0064385436 0.038758803
000010 72 9c 0f 3e 4b cf 5d 3d 47 6d 1b 3e b4 f9 92 3d
       0.14024523 0.054152768 0.15178405 0.07176533
000020 c5 d6 13 3e b1 d9 b0 3d 45 ec dd 3d a5 4f 80 3c
       0.14437397 0.08635271 0.108360805 0.015662977
000030 70 05 e7 3c 43 80 05 3e 17 c4 3d 3e 13 53 83 3e
       0.028200835 0.13037209 0.18531834 0.25649318
000040 f7 01 48 3e 39 f9 e2 3d ee 68 98 bb ba 70 f7 3d
       0.19532 0.11082692 -0.0046511805 0.12082048
000050 28 a8 5a 3d d9 fc 7d 3e 1c 61 5a 3e 77 7d 94 3c
       0.053383023 0.24803485 0.21326107 0.018126233
000060 5c df b5 3d bd 73 87 3d da 28 8c bc be 9b 84 3d
       0.08880493 0.06613872 -0.017109323 0.06475018
000070 38 38 67 3e 10 ed 6d 3d af 23 b2 3d d5 58 31 bd
       0.2258004 0.05808741 0.08698212 -0.043297607
000080 12 fd 4c bd 36 4c 23 3d c1 c4 b0 bb 55 f4 59 3e
       -0.050046034 0.039867602 -0.0053945486 0.21284612
000090 cd 4e 79 3d 73 c2 b9 3d 66 e1 3d be c6 3f 4c 3e
       0.060866166 0.09070291 -0.18543014 0.19946203
0000a0 31 4d 23 3e 66 31 c8 3c 61 16 23 3e f8 f2 a4 3d
       0.15947415 0.024437618 0.15926506 0.08054155
0000b0 ff 94 0e 3e 25 c3 aa bb 61 7a 1e bd 00 07 fd 3d
       0.13924025 -0.0052112513 -0.03869093 0.12354851
0000c0 59 1c 9f 3d 96 5f 05 3e c9 c6 2b 3e a5 5a 16 3e
       0.07769079 0.13024744 0.1677505 0.14683016
0000d0 42 d4 2f 3d d2 65 00 3e dc ea ef 3d d5 d3 3b 3d
       0.042927034 0.12538841 0.11714718 0.045856316
0000e0 ac 2d 0a bd 0b 50 28 3d 90 6d 12 bd bf b7 43 3e
       -0.033734962 0.04109196 -0.03574902 0.19113062
0000f0 cd bf ff 3d 7c b1 f9 3d 3e 5c fa 3d 52 7b a1 bd
       0.12487755 0.121920556 0.12224625 -0.078848496

bn3.running_mean f4 [64]
000000 bd 39 15 41 42 16 b9 40 d2 ac 56 41 3b ec 9f 41
       9.326596 5.783967 13.417192 19.990347
000010 04 e1 31 41 5a c2 15 41 42 a9 88 40 d1 c0 10 41
       11.117435 9.359949 4.2706614 9.047074
000020 87 19 60 40 4f 55 a9 40 90 ae 20 41 0c c8 2e 40
       3.501558 5.2916636 10.042618 2.73096
000030 53 1e 94 41 de 7f 1b 41 3b e4 1f 41 3b ae c9 40
       18.514807 9.718718 9.99322 6.3025184
000040 21 0e 38 41 12 19 0f 41 c0 48 bf 40 ad bf 34 40
       11.503449 8.943621 5.9776306 2.824199
000050 f7 f2 1d 41 99 5b e6 40 be 43 df 40 e4 c8 3b 41
       9.871818 7.1986814 6.9770193 11.736546
000060 1a ab eb 40 af 44 b7 40 00 66 6a 40 de fb 9f 41
       7.3646364 5.727134 3.6624756 19.997982
000070 ef 8a 8d 40 57 61 16 41 a0 e5 52 41 9b 78 2c 41
       4.4232097 9.398765 13.181061 10.779445
000080 98 25 a6 40 44 69 56 41 7e f9 76 41 1a d5 93 40
       5.192089 13.4007 15.435911 4.6197634
000090 7d 02 f0 40 90 14 27 41 1f 3b b0 40 01 09 c7 40
       7.5003037 10.44252 5.507217 6.219849
0000a0 87 51 d5 40 b1 3a 5d 40 91 cd 2d 40 6d 2e 13 40
       6.666202 3.4567072 2.7156718 2.2997086
0000b0 a3 d4 95 40 4e ea d6 40 9e ee eb 40 c4 52 95 40
       4.6822066 6.7161016 7.372878 4.666353
0000c0 ee 0b 64 41 5b 12 2b 41 bd 61 54 40 28 f8 03 41
       14.2529125 10.691981 3.3184655 8.248085
0000d0 89 61 07 41 d5 96 7b 40 33 ff d8 40 31 31 10 41
       8.461312 3.931081 6.7811522 9.01201
0000e0 27 cf c5 40 57 e9 ae 40 3d 90 2e 41 62 81 36 40
       6.181537 5.465984 10.910214 2.851647
0000f0 31 83 48 41 ee 05 65 40 4a 8e 46 41 8c 5a 74 41
       12.532029 3.578487 12.409739 15.272106

bn3.running_var f4 [64]
000000 07 73 f7 43 e0 cb 56 43 36 08 5d 44 c9 3e 20 44
       494.89865 214.79639 884.1283 640.981
000010 b1 88 d5 43 7a c7 87 43 5c 9d b3 42 53 b2 4e 43
       427.0679 271.5584 89.80734 206.69658
000020 1d 09 a2 43 2d b6 17 43 4f 12 0c 44 79 2c 8d 42
       324.0712 151.71162 560.2861 70.58686
000030 be 8a 28 44 24 35 01 44 ca f6 04 44 09 f3 73 43
       674.16785 516.8303 531.8561 243.94936
000040 71 7b f8 43 c3 74 01 44 41 d0 91 43 5b 34 2f 42
       496.9644 517.8244 291.62698 43.80113
000050 07 80 c5 43 d0 d4 f9 43 83 d1 62 44 5c a1 9f 43
       395.0002 499.6626 907.2736 319.26062
000060 9e 18 14 44 76 6f 94 43 9e 55 fd 42 b7 f0 f7 44
       592.38464 296.8708 126.66722 1983.5223
000070 eb 3a 3f 43 cd 1f 66 43 b5 c3 8d 44 80 d8 ac 43
       191.23015 230.12422 1134.1158 345.6914
000080 fe 62 32 43 94 c1 bc 43 4c df 67 44 93 09 49 43
       178.38669 377.51233 927.489 201.0374
000090 36 40 54 43 1f 10 df 43 04 19 06 43 04 24 2b 44
       212.25082 446.12595 134.09772 684.56274
0000a0 df 5a 70 43 99 27 28 42 e9 a3 a1 42 23 69 05 43
       240.35497 42.03867 80.82014 133.41069
0000b0 5d e4 f1 42 ec 50 c4 43 e2 34 c2 43 95 63 bd 43
       120.94602 392.6322 388.41315 378.77798
0000c0 ba 6d 90 44 bc fd a0 43 18 75 98 43 23 f7 03 44
       1155.429 321.9823 304.9148 527.8615
0000d0 a5 8a 35 43 42 2b 58 43 f4 0e 48 43 45 5f 04 44
       181.54158 216.16898 200.05841 529.4886
0000e0 8e 6e c1 43 41 56 03 43 d0 98 e4 43 60 d4 5c 43
       386.8637 131.33693 457.19385 220.82959
0000f0 b8 ad c4 43 94 20 a3 42 11 d2 39 44 46 be 01 44
       393.35718 81.56363 743.2823 518.973
