tuning_results/best_models_during_tuning_lightning_logs/ratio_stand_GCN_best_model_logs/checkpoints/epoch=375-train_loss=1.33-train_f1=0.38-val_loss=1.72-val_f1=0.26.ckpt (torch, 105170 bytes, 38 tensors)

conv1.bias f4 [64]
00000000: 5b8e a2ba 4804 ebbc 5e4e 8a3c df43 0cbd
00000010: b7a9 603b 48e6 183c 2867 88bc d470 7d3b
00000020: 3870 03bd 1258 603c b535 8abc c2ec 4f3d
00000030: 6110 3ebd b4fb ecbc 7b8d f33c 2417 1ebb
00000040: 2eca 09ba c85a 1c3c 43f8 f73b d2e0 903c
00000050: 8345 75bc bb69 6d3d 19c4 3f3c cfda 713d
00000060: 1be2 b5bc ff02 9039 1bac 2dbd 7b40 b9bc
00000070: 144b 9a3c 9081 873b faa2 133d 134d 983d
00000080: d72c 0dbd a70c 2f3b e550 023b 397d 8b3b
00000090: 084e 2bbd 5b87 46bd 99b3 a13b 9db3 faba
000000a0: 2964 363c 3abf 953d e484 b1bc 1ab2 3e3d
000000b0: 3c92 b93c 6e5e a5bc c92c 18bc 9d22 7d3c
000000c0: 9db9 80bd 8481 0cbd c920 153d e574 1f3c
000000d0: 7ddc 2c3d bd15 1d3d 5822 edbc 0800 cf3b
000000e0: c814 bb3c 8cff b43c 8870 f9bc c92c d03b
000000f0: 97ce 6a3d 77cd 67bc 3915 343a a821 1abc
-0.0012402044 -0.028688565 0.016883072 -0.034244414 0.0034280845 0.009332247 -0.016650751 0.0038671987
-0.032089442 0.013692873 -0.016871313 0.0507629 -0.04640234 -0.028928615 0.02973055 -0.002412268
-0.00052562624 0.009543128 0.007567437 0.017685328 -0.014970186 0.05796216 0.011704468 0.059046563
-0.022202542 0.00027468053 -0.04240046 -0.022613754 0.018834628 0.004135318 0.0360441 0.07436576
-0.03446659 0.0026710422 0.0019884643 0.004256871 -0.041822463 -0.04846893 0.00493474 -0.0019127015
0.0111322785 0.07311864 -0.021669813 0.04655657 0.022652738 -0.02018663 -0.009288021 0.015450147
-0.06285403 -0.034303203 0.03640822 0.00973246 0.04220246 0.03835081 -0.02894704 0.0063171424
0.022837058 0.02209451 -0.030449167 0.006352995 0.057325926 -0.014148108 0.00068696175 -0.009407438

conv1.lin.weight f4 [64, 25]
00000000: aa7a c03d 2f8e a9bd dc05 e23d fbad 17be
00000010: fbfa 563d 7bde 44be dfc9 34bd f9ae 433d
00000020: 3e23 f0bd 17d5 873e 7d5f e23c ce34 10be
00000030: adec 00be 7358 a5bc 9eac da3c 3f6c 9fbd
00000040: c2f8 a93d 5ebb 10be 4016 283e e3ee 44bc
00000050: 5a0a 3d3e 1d0a 81be 5b4b f53d c4f8 f3bd
00000060: d367 70be 6a70 923c 09f7 77be 4852 fcbc
00000070: 414d 503c 849b 52be fb4f 2cbe 62d2 aabd
00000080: ca00 b93c 2f5e 74be 316d e0bd 42ce febb
00000090: bb78 403e fd1a 77be f5e1 1fbd 0b9a 93bd
000000a0: bf1a 3bbe 5aeb c63d 8bcf 0dbe 3b7e 7e3e
000000b0: f427 c8bc 1231 693e 5a4d 8fbc f98b f03d
000000c0: 766a 2a3d 2731 84be 2304 1e3c cab6 d23d
000000d0: 1819 1a3e b9fd 713e f704 f9bd 8196 23be
000000e0: 8d31 59bd ae49 103e 13b3 f8bc 505d 323e
000000f0: 95be 25be 0978 653e c84f 003e 39ff 0fbb
00000100: b078 3abe ec93 33be dec4 003e b115 7cbe
00000110: cbd6 2c3e cd78 61bd abd0 bfbb 9a33 a9bd
00000120: 0a93 d23c cf38 aebc c845 25be 90b0 98bc
00000130: 143f f43d abbe efbc e7ff 4ebe efad a73a
00000140: 9f12 0cbd 613a a9bc 7722 59be 7c3c 88bd
00000150: 2ab3 54be 6c42 8bbe aed0 46be 63cd 6f3e
00000160: 0691 88bd 58aa 64be b831 9f3d 28ef 78be
00000170: a1af 443e 949a c2bd 45a0 393e b191 503e
00000180: a14a 973d e46b 13be ee0c 15be ba6c 273e
00000190: 2964 d63d 09e3 07bd 0225 00be 9e01 8cbe
000001a0: f76d d3bd 2a8d 533e 91c9 d63d b3d4 2a3d
000001b0: 2b11 2d3e a176 79be 278d 383b f129 e93d
000001c0: f0fa 48bd 2944 3f3e 76f6 0d3d 3d01 d73d
000001d0: 6a63 9f3c 7a47 3b3d a5dc 1d3e bf3e 9fbd
000001e0: 429e 533e a718 143e 5035 873a 231e 6a3d
000001f0: 21aa 303d 37a4 1fbe 0d6b 4fbe dcf3 833d
00000200: 8e78 49be 21dc b8bc 2f3b 1a3e 8d29 783e
00000210: 4c30 24be 61f7 dfbc d947 2dbe 9ba7 41bd
00000220: 5ac4 21be bf4c 433e fc72 4fbd 6999 6b3d
00000230: 0aa5 67be bd8e cabb bb1d d3bc 727f 433e
00000240: 1a29 853e b997 953d 86b2 513e 3d77 f7bd
00000250: 0bc0 6ebe 2e05 5dbd 4e73 853d 1c05 de3d
00000260: 57d2 29be 9a66 503e dad2 17be 62fb 003d
00000270: 6369 863e 489c 393d a5c4 49be d82f 883e
00000280: 110f 7f3e f6ae 41be 46d9 d93d 4156 f1bd
00000290: 520b 9bbd 8080 d23d bf8b b33c 0155 8dbd
000002a0: 8aec fdbd ece7 21be 44fd 1c3d 65d4 3cbd
000002b0: cf23 78be 46cd 433e a706 273e 48c6 353e
000002c0: b193 553e e934 66bd 22c1 edbc db9d d63d
000002d0: 905c 7fbe cd3a 3cbe 9c60 b3bd 39b8 42be
000002e0: 474d b33d 72a4 313e 44e7 5b3e fef7 803d
000002f0: 6d69 153e 7ce3 28bd b943 043e 345c 39be
00000300: 8cc9 933d 19b5 043e aa95 db3c 19f4 45be
00000310: a404 193e e490 4d3e 8556 abbd cf03 0f3e
00000320: 81cc 9a3d 3e49 e23d 0e5d 59be 33cb 87bd
00000330: d94b d73d 70d0 303e c167 d53d 5c3a 07bd
00000340: 80e1 5abe e9e6 3fbe 10ab 4a3e 1d1b b23d
00000350: 1e10 26be 9bd0 44bc bb05 e3bd e33d 043e
00000360: 916b 2abe 13a0 84be 43d4 c8bd b976 693e
00000370: ae16 243e 3465 1e3e 371e 54be 6d1c 3d3e
00000380: 0f08 303d d5b5 51be cfa7 58bd 6048 0abd
00000390: 022f 93bd a08e 8ebe 060e 613d 665d 383e
000003a0: 4a42 493d fa17 18be 7058 4a3e 9ce0 1b3e
000003b0: c388 4dbe 6df1 3a3e 1816 0e3d 5fba ce3d
000003c0: 49e6 c53d b220 12be d314 cfbd 4116 c83d
000003d0: 7661 9e3b 9cde 2fbe e292 44bc 0675 063e
000003e0: 46eb 14be eadf 97be b816 313e 6bb9 8dbd
000003f0: 39a5 b93d bb09 7fbe 3573 8abd 88bc 65bd
0.09398396 -0.082790725 0.11036274 -0.14812462 0.052485447 -0.19225495 -0.04413783 0.04777429
-0.11725472 0.26529762 0.027633423 -0.14082643 -0.12590285 -0.020183777 0.026693638 -0.07784318
0.082994 -0.14133975 0.16414738 -0.012019846 0.1846098 -0.25203028 0.119772635 -0.11912683
-0.23477106 0.017875869 -0.2421533 -0.030800954 0.012713731 -0.20567137 -0.16827385 -0.083409086
0.022583384 -0.23864053 -0.109583266 -0.0077760527 0.18796055 -0.24131389 -0.03903385 -0.07207116
-0.18271922 0.097128585 -0.13848703 0.2485284 -0.024433114 0.22772625 -0.017492939 0.11745448
0.041605435 -0.2581875 0.009644541 0.102887705 0.15048635 0.23631944 -0.1215915 -0.15975381
-0.05302577 0.14090607 -0.030358827 0.17418408 -0.16185983 0.22409071 0.12530434 -0.0021972193
-0.18210101 -0.17536896 0.12575099 -0.2461765 0.16878812 -0.055046845 -0.0058537326 -0.08261795
0.02570488 -0.021267323 -0.161399 -0.018638879 0.11926094 -0.029265722 -0.20214806 0.0012792925
-0.034197446 -0.02065772 -0.21204554 -0.066521615 -0.2077147 -0.27199113 -0.19415542 0.23418193
-0.06668286 -0.22330606 0.07773155 -0.24309981 0.19207622 -0.0950214 0.18127544 0.20368077
0.07387281 -0.14396626 -0.14555714 0.1635007 0.10468323 -0.033175502 -0.12514117 -0.27344984
-0.103237085 0.20659319 0.104876645 0.041706752 0.1690108 -0.2436166 0.0028160305 0.11384953
-0.049067438 0.18678345 0.03465887 0.10498283 0.019456584 0.045722462 0.154162 -0.0777564
0.2066584 0.14462529 0.0010315571 0.057157647 0.043130998 -0.15589987 -0.2025568 0.06442997
-0.19674894 -0.022565903 0.15061639 0.242346 -0.16034049 -0.02733964 -0.16921939 -0.04727898
-0.15797558 0.19072245 -0.050646767 0.05751935 -0.22621551 -0.0061815665 -0.025771013 0.19091585
0.2600792 0.073043294 0.20478258 -0.1208329 -0.23315446 -0.053960018 0.06516133 0.10840818
-0.16584145 0.2035164 -0.14826527 0.031489737 0.2625228 0.045315057 -0.1970392 0.26599002
0.24908091 -0.18914399 0.10637145 -0.1178403 -0.075705186 0.10278416 0.021917222 -0.06900979
-0.12398632 -0.15811127 0.03832747 -0.046100993 -0.2423241 0.19121274 0.16311131 0.1775142
0.20857121 -0.056202803 -0.029022757 0.10479327 -0.24937654 -0.18381806 -0.08758661 -0.19015588
0.08754974 0.17347887 0.2147494 0.06297301 0.14590998 -0.04123257 0.12916459 -0.18101579
0.072161764 0.12959708 0.026804764 -0.19331397 0.14943177 0.20074803 -0.08366112 0.13966297
0.07558537 0.11049126 -0.21226904 -0.06630554 0.10512514 0.17267013 0.1042018 -0.03301464
-0.21375084 -0.18740429 0.19791818 0.08696578 -0.16217086 -0.012012626 -0.110850774 0.12914233
-0.16642596 -0.25903377 -0.09806111 0.22799195 0.16024277 0.15468293 -0.20714651 0.18467875
0.042976435 -0.2047952 -0.05289441 -0.03376043 -0.071867004 -0.2784319 0.054945014 0.18004379
0.049135484 -0.14852896 0.19760299 0.152224 -0.20071702 0.18256159 0.03468904 0.10094141
0.09663064 -0.14270285 -0.10111394 0.097698696 0.0048333956 -0.17174762 -0.01199791 0.13130578
-0.14542875 -0.2966302 0.17293823 -0.06920131 0.09064717 -0.24906056 -0.06760255 -0.056088

bn1.weight f4 [64]
00000000: 29f2 783f 5a94 763f 756a 843f a128 7e3f
00000010: 25c7 823f b572 813f 819a 753f e370 7d3f
00000020: 079c 813f e897 7f3f 9f69 823f e63d 803f
00000030: 942e 813f 56b0 833f a0d2 7d3f 4bec 7a3f
00000040: 2c18 823f 9873 833f 92f8 7d3f 09fe 7d3f
00000050: 10ad 813f b704 7f3f 72d9 813f 72d0 803f
00000060: 9d70 7f3f 17e9 753f 7de7 843f 9ab7 803f
00000070: 5ed2 7e3f b52f 813f d376 813f 514b 7a3f
00000080: 0353 863f 10d2 803f 2d41 823f d0d9 743f
00000090: 1e8d 813f 2ce9 7c3f 936e 803f b6be 7e3f
000000a0: bef0 7f3f 5086 7b3f 443a 7c3f ab25 7c3f
000000b0: 3d6c 743f e8f1 833f 0df9 813f 7585 7c3f
000000c0: 980e 7d3f ae03 7e3f 6b04 7e3f 36fc 793f
000000d0: 2762 7b3f 466e 803f 5bc2 823f 98c1 813f
000000e0: 0be0 7e3f 0541 733f 9898 7a3f 85e1 803f
000000f0: 3497 823f c073 813f c836 7d3f 432d 823f
0.9724451 0.96320117 1.0344988 0.99280745 1.0217024 1.0113131 0.9593888 0.99000376
1.0125741 0.99841166 1.0188483 1.001889 1.009234 1.0288188 0.99149513 0.98016804
1.0163627 1.0269651 0.99207413 0.9921575 1.013094 0.9961657 1.0144484 1.0063612
0.9978121 0.9605879 1.0383145 1.0056031 0.99539745 1.0092684 1.0114387 0.97771174
1.0494083 1.0064106 1.017614 0.95644855 1.012119 0.9879329 1.0033745 0.9950975
0.9997672 0.9825182 0.98526406 0.98494977 0.9547766 1.0308199 1.0154129 0.9864114
0.98850393 0.99224365 0.9922549 0.9765047 0.98196644 1.0033653 1.0215563 1.0137205
0.9956061 0.95021087 0.9788909 1.0068823 1.0202394 1.0113449 0.98911715 1.0170063

bn1.bias f4 [64]
00000000: de5c 11bd 43be db3c 9af9 8a3c 4f9b a43d
00000010: 16e4 8fbc cd59 77bb c354 873c a7b5 1b3c
00000020: 153a bcbc 9d68 3f3c 1902 33bd db42 cabc
00000030: c602 cebc 9dd3 bfbc dd84 1f3c bcfc cdbb
00000040: a808 ce3c cf26 17bd fc9f f63c a3c2 aa3c
00000050: 7b4f 8bbd 32f3 7c3d fc2d cbbc 5b93 29bd
00000060: 12ca 2abc 5ea3 9ebc 876a 5e3b 709e 6c3d
00000070: 7e9f c03a d563 83bc 7970 a23c d5db e0bb
00000080: 5499 92ba 35f9 74bd 317f afbc a4df 0cbd
00000090: 1c8a 11bc 14f2 9b3c 63f3 553d acf2 093d
000000a0: 1d30 ed3c 3fdf 163c 4cb5 0cbd e672 51bc
000000b0: 8053 e43c cfac b13c d9c4 7bba 2626 e4bc
000000c0: 215a 0cbd 21ef a4bc 5f13 563a d973 95bc
000000d0: 9917 ce3b 6a32 583b 5437 a33b 7dc3 173d
000000e0: 6257 fabc d182 b2bc 0382 543d 2d74 173d
000000f0: 4475 f6bc 4fef 063d 7b50 4abd 247a 903b
-0.035488956 0.026824122 0.016964722 0.08037435 -0.017564815 -0.0037742734 0.01651991 0.0095037585
-0.022976914 0.011682657 -0.043703172 -0.024690082 -0.025147807 -0.023416335 0.009736267 -0.006286232
0.025150612 -0.036902245 0.030105583 0.020844763 -0.06802269 0.061755367 -0.0248022 -0.041400295
-0.010424154 -0.019365009 0.0033938007 0.057768285 0.001469597 -0.016038815 0.019829022 -0.0068621435
-0.0011184611 -0.059807975 -0.021422954 -0.034392968 -0.0088830255 0.01903633 0.052234065 0.033678696
0.028953606 0.009208499 -0.034352586 -0.012783742 0.027871847 0.021688847 -0.0009604223 -0.027850222
-0.03426564 -0.020133557 0.00081663387 -0.018243717 0.006289434 0.0032989033 0.004980961 0.037051667
-0.030559245 -0.021790894 0.0518818 0.03697603 -0.030085213 0.032943066 -0.04939316 0.0044090915

bn1.running_mean f4 [64]
00000000: c55b f33d 9234 023e fdd6 f73d 39e2 0a3e
00000010: 1647 173e 5280 083e a0d4 1d3e cc4a 383e
00000020: ad97 2b3e c74c 193e 2f46 183e 2e61 2f3e
00000030: 48f6 173e 2c19 863e 0b90 933e 5bf2 3b3e
00000040: b928 113e acda 153e 2c68 d43d 4a27 313e
00000050: 1330 0e3e 4f8b 6a3e c51d 5c3e 6b09 953e
00000060: 57d8 113e 77cf 4a3e 0e1c 233e 4593 c53d
00000070: 2ff7 2c3e de55 7b3e 66a9 1f3e 80c6 613e
00000080: f23d 363e 9484 5a3e 9fd0 033e f3dd 1d3e
00000090: 6ee7 493e 6149 ca3d 5bda 133e a99e 023e
000000a0: b0ee 2f3e 3833 423e 5f94 e13d c0da 513e
000000b0: 6d7b 133e 4016 673e bc10 533e ae9a 203e
000000c0: 61b4 543e 1bbb 1a3e 655f 783e d777 1f3e
000000d0: 30cd 5d3e d9e2 913e 8870 0f3e 0290 a43d
000000e0: 839c 6f3e c3e5 433e 4032 fd3d 36dd 2a3e
000000f0: 73c1 823e 096c 223e 5fb6 ab3e cc77 343e
0.11882738 0.12715366 0.12101553 0.1356286 0.14773211 0.133302 0.15413141 0.17997283
0.16757078 0.14970694 0.14870523 0.17126915 0.14840043 0.2619108 0.28820834 0.1835417
0.1417569 0.14634198 0.10371432 0.17300144 0.13885526 0.22904705 0.21495731 0.29108748
0.14242683 0.19805704 0.15928671 0.0964723 0.16891168 0.24544474 0.15591964 0.22048378
0.17797068 0.21339637 0.12872551 0.15416698 0.1971719 0.09877277 0.14438765 0.12755837
0.17180896 0.18964851 0.11014628 0.20493603 0.14402552 0.22567081 0.20611852 0.15684006
0.20771934 0.15110438 0.2425514 0.15573059 0.21660304 0.28493384 0.14007771 0.0803528
0.23399548 0.19130616 0.123631 0.16685948 0.25538215 0.15861525 0.33537576 0.17623824

bn1.running_var f4 [64]
00000000: be35 c93c df5a 2b3d a7c6 e83c 65ae 553d
00000010: ab1a 173e 373b 3d3d dd6c a13d 0015 b13d
00000020: 837d d83d 425c 403d b82d 373d 2363 8d3d
00000030: d12f 2f3d d8fc 303e bcae 163e 58de 893d
00000040: 7c3c f83d 1f73 2f3d 0d4f 013d 1c5c 9f3d
00000050: 00ea 603d 486d 323e 23e7 c73d 8785 223e
00000060: e0c8 103d 1117 a33d 7d20 7e3d 86f4 be3c
00000070: 39c1 7b3d 0355 073e 8dfd 2b3d 13f7 8f3d
00000080: db9a c93d 3ecb 843e 120c ce3c 3d58 c43d
00000090: fd57 fb3d e686 0d3d 66b0 733d 9c2a 3c3d
000000a0: da80 403d 7573 323d 5740 dd3c eb2b 1c3e
000000b0: 7e03 7a3d 0f6c e33d 4f75 543e ebba 1a3d
000000c0: 21d7 613e 01f0 de3d 79c1 aa3d 6e25 b93d
000000d0: feef 863d d11f bb3e c680 153d 481c 323c
000000e0: 8f1a 983d e8c4 cb3d 3645 943d ef61 543d
000000f0: 2c03 b93d 4dbb a13d d110 4d3e db7c 783d
0.02456176 0.04183471 0.028415037 0.05216827 0.14756267 0.04619905 0.07882092 0.086465836
0.105708145 0.046962984 0.044721335 0.069036745 0.04277021 0.17283952 0.14715093 0.06731862
0.121209115 0.042834397 0.03156953 0.0778124 0.05491066 0.174245 0.09760883 0.15871249
0.03534782 0.07963384 0.062042702 0.023309957 0.06146357 0.13216023 0.04198985 0.070295475
0.098439895 0.2593631 0.02515224 0.095871426 0.12272642 0.034552477 0.0594944 0.045939073
0.046997882 0.04356714 0.027008219 0.15251128 0.061038487 0.11104595 0.20747875 0.037775915
0.22054721 0.10885621 0.08337683 0.09040342 0.065887436 0.36547711 0.03649976 0.010871001
0.07426941 0.09949666 0.072397634 0.05185121 0.09033808 0.07897053 0.20025946 0.060665946

conv2.bias f4 [64]
00000000: db27 533d 01e5 cf3c 321b 3f3c 5d68 143d
00000010: 7268 5cba 21d7 88ba 3e8a fe3c 5b00 80bc
00000020: 21d6 9d3b 7ea1 833d c6ee 253d bea5 81bc
00000030: 306d d0bc af00 4c3d aa15 1e3a 5064 8dbc
00000040: d839 08bd 9bba 5e3b b876 993c a7d1 f73c
00000050: f8d3 bb3b bd8c 58bc 8594 b2bb 1749 07bd
00000060: 69b9 40bd 4487 0f3c c4cb 993c 0496 5a3a
00000070: c09d febc 7fe3 a53c c128 a93c d674 a2bc
00000080: dd7c 673c 2525 da3c ef58 e6bb 191a 183d
00000090: b91c 1ebd 13ca 953c a701 073d d719 043d
000000a0: 0428 a6bc 9dd3 053d 01fa 383b 67ad f4bb
000000b0: ded3 fabb 54d1 77bc 2c7a 9c3c 3488 9fbc
000000c0: ba3b 613d 44b0 f53c b8dc eebc 996d 27bc
000000d0: 92b6 143c 3091 193d 96a9 8e3c 457b f03c
000000e0: 70bd 643d cb7c 67bd 4586 143c 77f3 803c
000000f0: 3de0 583c a325 0abd 175d 253c 6863 4b3c
0.05155168 0.025377752 0.011664199 0.03623234 -0.00084078975 -0.001044009 0.031071778 -0.01562517
0.004816786 0.064272866 0.040510915 -0.015826102 -0.02544269 0.04980534 0.000603045 -0.017259747
-0.03325829 0.0033985737 0.018733367 0.030251337 0.0057320558 -0.013217148 -0.005449834 -0.03302869
-0.04705182 0.008760277 0.01877392 0.0008338394 -0.03108108 0.02025008 0.020649316 -0.019831102
0.014128891 0.02662904 -0.0070296447 0.037134264 -0.03860161 0.018284833 0.03296056 0.032251205
-0.020282753 0.032672513 0.0028225186 -0.00746696 -0.007654651 -0.015125591 0.019101225 -0.019474126
0.0549886 0.029991277 -0.029157981 -0.010219001 0.009076731 0.037491977 0.01741485 0.029355654
0.055844724 -0.056515496 0.0090652155 0.015741093 0.013237056 -0.0337273 0.010092995 0.012413837

conv2.lin.weight f4 [64, 64]
00000000: 94f9 8d3d 0c4b 0fbe 6382 343e 8e7d b8bc
00000010: 0bd0 bcbd 203b 49be e6ae e3bd 5fbf 733d
00000020: 2a61 4cbe 67ae 8dbc 41f0 323e 628d fdbc
00000030: 2d99 e1bd e638 f4bd 647c 1dbe 3840 1c3e
00000040: 5b77 10be 2203 053c 7b30 e13d 876d c5bb
00000050: 30a8 90bd 7620 21be a562 0bbd 9aae f83d
00000060: 4353 6a3e fdae 8abd 654b 133e 87e3 243e
00000070: bbbc b7bd 090a 4d3e 076c 443e 6897 90bd
00000080: 981f 24bd 18ba a4bc 40e7 043d 8008 b23d
00000090: 7ffa b43d bdd9 00be a689 fd3c 29c2 29be
000000a0: efcf 9bbd 8151 403e 94d4 2d3d 37c9 2d3e
000000b0: b05e 61bd c27e 873d 1d33 3e3d 2501 cfbc
000000c0: 2dbd 8f3c 23fc 36be 5761 34be e81c d23c
000000d0: 6339 3bbb 1859 593d 00d2 d0bd ea61 df3d
000000e0: 53ed a43d 833e 3e3e eb5d babc 92fd 893d
000000f0: 033c 64be d8c7 4cbe d5c0 8dbd f69a 34bd
00000100: f9b4 753d 306b 8cbd f04b fdbd d2a6 4c3c
00000110: d8af dd3d 8aa9 5b3d 3910 47bd cb04 633d
00000120: 66fe 8e3d 85d0 98bd 31ed e6bd ff0f f9bb
00000130: 9d1a babd b7b3 063e a326 2b3e e404 503e
00000140: 594d 9e3d fc51 1bbd b550 28be 7afb 2fbe
00000150: 90d0 813d c7d1 5abd 9580 0e3e 70de 70bc
00000160: e886 58bd e87a 223e 04b9 10be 4556 993d
00000170: cd70 0ebe 3abc 6f3d 79d7 9bbb 20cd dc3d
00000180: 7510 5fbe 4c6a c4bd 539c 793e f1d1 413e
00000190: e8b5 2fbd ea2b 54be cb8d 20be 4dfc 063d
000001a0: c48d 013e f745 27be b93d c3bd 5f76 943d
000001b0: c58d 603e e38a 6c3e 3be0 1cbe 166b 16bc
000001c0: c9c1 033d 1545 fa3d 7beb 793d fa67 603e
000001d0: b432 d2bd 281c 3fbe db54 4bbe c2da 68be
000001e0: 1acb 423d fd42 e1bd 5392 3cbe d14f c93d
000001f0: 48b2 f2bd a804 0fbe 1afe 2cbe 30ff 943d
00000200: 0ade 54be 82f3 40bd 2983 ab3c 584c 6abe
00000210: ca48 813d 2362 45bc 010b 503e 978c 0abe
00000220: 0686 fd3d 5fcd 3c3e fc8a b9bd 2c55 793c
00000230: 151c 823b 02b8 82bd 5f77 1f3c 3846 83bd
00000240: c53d 393e edd4 38be 22af 443e 054c 9bbd
00000250: 7699 08be f6cb 2d3e c847 d23d 0305 8b3d
00000260: c3f0 a3bd 9d11 3e3d 13bd afbd 3611 06be
00000270: 9ca2 193d 805a 54be 240c 43be aecb c0bd
00000280: afea 9fbd 05f2 3b3d 9217 8fb9 1b48 bc3d
00000290: 9297 433d 364d a7bd 64da bdbd 001c 0dbe
000002a0: 0ee0 673e fed5 393d c1a9 f8bd 4fae 77bd
000002b0: b433 013e 8314 313e 91e2 f43b 7a25 5cbd
000002c0: a8a6 9d3d bb48 11be bad6 35be 237a 0c3e
000002d0: 585c 8a3d eae8 0dbe 7b3d 2cbe 0a57 5bbd
000002e0: 8e68 613c 0926 24be 9309 2e3e a27a 65bd
000002f0: 2c48 63bd 32c3 95bd fa88 183e 6dc0 80be
00000300: d2d1 eb3a 06ef edbd ecde 55bd 450c 963d
00000310: f519 6cbd 781b b83d c76f 0e3e dba8 a63c
00000320: deba 8b3d 00db eebd 5d16 843d c8e5 f13d
00000330: fc80 1f3d 090f 5f3e 2c8c 153e 51a7 743d
00000340: 1fd3 7abd 169f 31bc 6709 863d f39c 42be
00000350: acab 18be c01e b43d 462a afbd 6a0a 1a3e
00000360: cb55 5c3e 9850 fd3d 2117 393e d8ba 7ebd
00000370: 4a0c 7a3d e228 963d 1729 123e 2fb5 413e
00000380: 0906 febd 9156 9dbd e75b 98bd 6a2f 603e
00000390: cc7e 553d f29f 27be 3bb6 4ebe 931c eebd
000003a0: 2777 03bb bb9c 63be b185 38be 61a5 323e
000003b0: 6672 323e 6d1f b4bd cd06 a93c f5db 89bd
000003c0: 2f5b bdbc 356b 963d 59b1 1fbd d399 24bd
000003d0: d4d3 0b3e c3fd ac3d ef94 6f3e 545e d93d
000003e0: ad07 2f3e d865 b7bc 1426 4b3e a3d7 353e
000003f0: 2e75 dabd ab54 013e 8bda cbbd f0f7 bbbc
0.06932369 -0.13993472 0.17627864 -0.022520807 -0.092193685 -0.1965146 -0.111173436 0.059508678
-0.1995894 -0.017295076 0.17474462 -0.030951206 -0.11015544 -0.11924915 -0.15379483 0.15258873
-0.1410803 0.008118423 0.10995575 -0.0060250196 -0.07063329 -0.15735039 -0.03402962 0.121426776
0.22883324 -0.067716576 0.1438423 0.1610242 -0.08971544 0.2002336 0.19181834 -0.070601285
-0.040069193 -0.020108268 0.0324471 0.086930275 0.08836841 -0.1258306 0.030949425 -0.16577972
-0.076080196 0.18781091 0.04243906 0.16971289 -0.05502194 0.06615974 0.046435464 -0.0252691
0.01754626 -0.1786962 -0.17615257 0.02564855 -0.002856814 0.053063482 -0.10196304 0.109073475
0.080530785 0.18578534 -0.022749862 0.06737818 -0.22288518 -0.1999811 -0.069215454 -0.044093095
0.059987042 -0.06856382 -0.123679996 0.012490945 0.10824555 0.053628482 -0.048599456 0.055424493
0.069821164 -0.07461647 -0.112757094 -0.007600784 -0.09087107 0.13154493 0.16713957 0.20314366
0.07729597 -0.037919983 -0.16437037 -0.17185774 0.06338608 -0.053422716 0.13916238 -0.014701471
-0.05286303 0.15867198 -0.14133078 0.07487158 -0.13910218 0.058529116 -0.004755911 0.10781312
-0.21783622 -0.09590587 0.24376039 0.18927743 -0.04289809 -0.20719877 -0.1567909 0.032955457
0.12651736 -0.16335283 -0.09533257 0.0724914 0.21929081 0.23099856 -0.15319912 -0.009180805
0.03216723 0.122202076 0.061015587 0.21914664 -0.10263577 -0.18663085 -0.19856589 -0.227397
0.047556974 -0.10999105 -0.18415193 0.09829677 -0.11850411 -0.1396662 -0.16893807 0.07275236
-0.20787826 -0.047107227 0.020936565 -0.22880685 0.063127115 -0.012047323 0.20316698 -0.13530193
0.123790786 0.18437718 -0.09059712 0.01521806 0.003970633 -0.06382753 0.00973305 -0.064098775
0.1808997 -0.18049975 0.19207433 -0.07582859 -0.1333979 0.16972336 0.102675974 0.06788065
-0.08004906 0.046403516 -0.08580985 -0.13092503 0.037508592 -0.20737648 -0.190476 -0.09413849
-0.07808434 0.045885105 -0.00027292647 0.091934405 0.04775197 -0.08169024 -0.0927017 -0.13780212
0.22644064 0.045370094 -0.12141753 -0.060468968 0.1261738 0.17292981 0.007473298 -0.053746678
0.07697803 -0.141879 -0.17757693 0.13718466 0.067558944 -0.13858381 -0.16820328 -0.053549804
0.013757838 -0.16030134 0.1699584 -0.056025155 -0.05548875 -0.07312621 0.14896002 -0.2514681
0.0017991608 -0.11617856 -0.052214548 0.07326559 -0.057641942 0.08989614 0.13909827 0.020344188
0.068227515 -0.11662865 0.06449578 0.118114054 0.03894137 0.21783079 0.14604253 0.059729878
-0.061236497 -0.010841152 0.06544762 -0.19005184 -0.14909238 0.087949276 -0.08552985 0.15043035
0.21517102 0.12368888 0.18075229 -0.062189907 0.061046876 0.073320165 0.14273487 0.18916772
-0.12403495 -0.07682527 -0.07439404 0.21893087 0.052122876 -0.16369608 -0.20186703 -0.11626544
-0.0020060034 -0.22227757 -0.18019749 0.174459 0.17426452 -0.087950565 0.020633126 -0.067314066
-0.023114769 0.07344667 -0.03898749 -0.04018576 0.13655025 0.08446839 0.23396657 0.10613695
0.17092772 -0.02238743 0.19838744 0.1775804 -0.106668815 0.12629955 -0.09953793 -0.022945374

bn2.weight f4 [64]
00000000: 69a6 823f 3423 803f 3f7c 783f d633 7f3f
00000010: 0b45 793f 561a 743f 6e00 823f 45ea 823f
00000020: 69ab 7d3f 222c 793f 84e0 7f3f 8227 833f
00000030: 6af4 783f 5789 7f3f b702 733f f87f 853f
00000040: adf3 7c3f ddbd 713f a790 7c3f 892f 813f
00000050: b7e1 813f a315 813f 7674 7f3f 7205 7a3f
00000060: 6a64 7f3f 873c 833f a42b 843f 3b68 7e3f
00000070: df46 823f 5097 7d3f 687f 7e3f ad25 793f
00000080: 46b7 7e3f 9c85 823f 7aff 7b3f ce76 803f
00000090: aa5c 7e3f 3796 823f a057 833f 1803 803f
000000a0: 4c47 7e3f 863a 773f ae2d 7c3f 8dce 753f
000000b0: 5ea0 853f 2ef7 853f 7eaa 813f 6ea8 803f
000000c0: 28f3 7c3f 3d94 813f e5cb 843f e302 7c3f
000000d0: 46b2 7e3f 106b 863f 534b 7e3f 7939 7e3f
000000e0: d89f 6c3f 4c3f 7f3f 2ce8 7b3f ce77 7d3f
000000f0: 2caa 7f3f 7eec 763f fe01 783f 511b 813f
1.0207034 1.0010743 0.97064584 0.9968847 0.97370976 0.95352685 1.0156381 1.0227743
0.99089676 0.97332966 0.9995196 1.0246432 0.97247946 0.9981894 0.9492602 1.0429678
0.9880932 0.94430333 0.9865822 1.0092632 1.0147008 1.0084728 0.9978708 0.9766456
0.99762595 1.0252846 1.0325818 0.99377793 1.0177878 0.9905901 0.99413157 0.97323114
0.99498403 1.0197024 0.984367 1.0036256 0.99360144 1.0202092 1.0261116 1.0000944
0.9932754 0.96573675 0.985072 0.96018296 1.0439565 1.0466058 1.0130155 1.0051401
0.98808527 1.0123364 1.0374724 0.98441905 0.99490774 1.0501423 0.99333686 0.99306446
0.924314 0.9970596 0.9840114 0.9901093 0.99869037 0.9645461 0.9687804 1.0086461

bn2.bias f4 [64]
00000000: 5a42 ea3d 6c1e afbb d96d dabc c50a f23d
00000010: 66c5 8c3c b721 b13d 7aed c63c b798 3e3b
00000020: bcc2 0b3e b72f febc 854e 1f3e d06e a33d
00000030: eb6d e4bb 458d b0bd af0e 203d c9e8 a83c
00000040: 960e d63d fe97 4ebc ff15 f83d 0b20 c93d
00000050: d30a ea3c c9fa ee3d a50a a33b f3eb f83b
00000060: 25bf 563d fb17 fbba 6155 053c b4b7 9e3c
00000070: fb82 533d 09f8 6c3c 64a2 c6bd e574 8a3d
00000080: 2e44 303d 53a6 a3bc 0e28 2d3e 556c 8dbc
00000090: 46c1 503d 2efd 8e3d 47dd d03d 436f 403b
000000a0: a2b4 9fba a43f 993d 791a aa3d d960 c43b
000000b0: b9e6 a23d 7a39 553d 4da7 be3d 0850 a0bd
000000c0: ecc9 18bd 6dbd 223c 4d8c 063d 990e cd3b
000000d0: 51fb 33bc 62d2 6b3d 4afc b33d 7414 fdbb
000000e0: c233 20bd b5b3 103b a1c1 663d 3367 c03c
000000f0: 3664 323d 1380 debd 899d 2fbc 8513 e2bb
0.11438437 -0.0053442027 -0.026663708 0.118184604 0.01718397 0.08649009 0.02428316 0.0029082724
0.13648504 -0.031028612 0.15557297 0.0798012 -0.006971111 -0.08620695 0.039076503 0.020618813
0.10452001 -0.01260948 0.121135704 0.09820565 0.028569615 0.11668927 0.004975634 0.0075964867
0.052428383 -0.0019156927 0.008138032 0.019374706 0.051638585 0.014463433 -0.09698942 0.06760577
0.04303377 -0.01997677 0.16909811 -0.01726357 0.05096557 0.06981884 0.10198455 0.0029363192
-0.001218457 0.074828416 0.083058305 0.0059929905 0.07954163 0.052056767 0.09309254 -0.07827765
-0.037301943 0.009932858 0.032848645 0.0062578437 -0.0109852115 0.057573684 0.08788355 -0.0077233855
-0.03911186 0.002207977 0.056337003 0.02348671 0.0435526 -0.10864272 -0.010718712 -0.0068992996

bn2.running_mean f4 [64]
00000000: fa07 a03e e012 873e 3357 bd3e e4f3 b73e
00000010: 4b84 c93e cb57 b23e 9e36 a23e 627c c43e
00000020: 26a7 d43e 74a0 d23e a431 c53e 42a3 713e
00000030: 1d5d bb3e 2326 b53e 906c f73e a0f1 1b3f
00000040: ecbe b03e 27dc a93e d20b a03e 8135 d63e
00000050: 52f6 933e b88e 733e fcc9 953e b1a6 c33e
00000060: 7d07 943e 07e0 ca3e 3730 d33e 7d13 a03e
00000070: 6f19 ac3e b05c f23e 2e31 e43e 5e31 d83e
00000080: 702f e63e 2220 a43e 683f af3e c4d7 da3e
00000090: f17c 973e 0b3a 8c3e 3eea a93e 2431 a43e
000000a0: 6e7d 983e 7a16 aa3e 47cf a33e b089 943e
000000b0: 1980 bf3e bb5a 9b3e b588 9f3e 1dc6 ae3e
000000c0: 8939 043f 95f9 b73e 6d3b 893e f7bd 8f3e
000000d0: fea6 a83e 458b 7a3e 99bb 993e 3887 803e
000000e0: 1afc 1d3f 9541 a23e 6e41 e83e 6915 ac3e
000000f0: 51cc e43e 5581 f93e f2f9 d63e 5c9b dc3e
0.31256086 0.26381588 0.3698059 0.3592826 0.39358744 0.34832606 0.31682295 0.38376147
0.41533774 0.4113804 0.38514435 0.23597434 0.36594477 0.35380659 0.48325014 0.60915565
0.34520662 0.33175775 0.31259018 0.41837695 0.28898865 0.23784912 0.29255664 0.38213113
0.28911963 0.39624044 0.41247723 0.31264868 0.33613154 0.4733634 0.4456877 0.42225164
0.44958067 0.32055765 0.34228063 0.4274274 0.2958751 0.27388033 0.33186525 0.3206874
0.29783195 0.33220273 0.31994078 0.29011297 0.37402418 0.3034266 0.31158987 0.34135523
0.5165029 0.35932603 0.2680315 0.2807462 0.32939905 0.2446719 0.30025938 0.25103164
0.617128 0.3169066 0.4536242 0.33610085 0.4468713 0.48731485 0.41987568 0.4308728

bn2.running_var f4 [64]
00000000: ce7c 4b3e 6de0 213e 6be1 ff3e 78c1 fd3e
00000010: 77a8 1a3f 5e1d 8e3e 82ca a73e a090 1a3f
00000020: daa1 2c3f 0c8b 133f ccb0 a13e e750 503e
00000030: 435e 253f 8ac8 653e fb87 663f df85 8d3f
00000040: 8548 0f3f 6af9 c73e 9cc7 8d3e 567b 0c3f
00000050: 608e 893e 893d 5e3e 4364 c73e 14c4 f83e
00000060: 4f19 983e fb54 133f 6896 143f b0f6 8e3e
00000070: b1d3 da3e ef47 103f bf3e 1f3f b8db 553f
00000080: f223 1b3f e0db 943e ed3a 0e3f 6ee5 2e3f
00000090: 7771 c33e 0395 9f3e 7562 b43e 024a 933e
000000a0: 3941 f93e aa95 ee3e d523 393f 5e6f 623e
000000b0: 1548 b53e 9eae 7b3e 0070 983e 97ba c13e
000000c0: f097 f93e b8e6 8a3e 9635 7a3e a05e 903e
000000d0: 7fbe 903e 02f0 043e 1b31 743e 56b5 253e
000000e0: 9388 6c3f ae1d b73e cfed 473f 29b3 d33e
000000f0: 4732 5a3f 75b4 3e3f 4fc9 de3e 4d32 003f
0.19871828 0.15808268 0.49976668 0.49561667 0.60413307 0.2775678 0.3277169 0.6037693
0.67434466 0.57634044 0.31580198 0.20343362 0.64596957 0.22439781 0.9005124 1.1056479
0.5597003 0.39057475 0.27691352 0.54875696 0.26866436 0.21703161 0.3894368 0.48587096
0.2970681 0.57551545 0.58042 0.27922583 0.42739633 0.5635976 0.6220512 0.8353839
0.60601723 0.29074 0.55558664 0.6831883 0.38172504 0.31168374 0.35231367 0.287674
0.48682573 0.4659856 0.723203 0.22112796 0.35406557 0.2457833 0.2977295 0.3783767
0.48748732 0.2712915 0.24434504 0.28197193 0.28270337 0.1298218 0.23846857 0.16182455
0.92395896 0.3576483 0.7809724 0.41347626 0.8523297 0.74494106 0.4351296 0.5007675

fc1.weight f4 [64, 64]
00000000: 3d34 7c3d 0530 ba3c 87eb efbc e0bb a13d
00000010: dc80 36be ff2a 50bd e316 b63d 7baa e7bc
00000020: ad24 a2bd 5dfd acbd 0cc9 01be 9806 32bd
00000030: eba3 d53d 6b49 8bbd 47e0 86bd e43d adbb
00000040: f1f7 e8bc 0a81 6a3c c0bf 5dbc 56af 0e3b
00000050: d52a c4bd f081 45bd 16af 843d 03dd 1bbd
00000060: b503 f93d cc7d a23d 5f33 e7bd 8eb0 a63d
00000070: 9d5d 393d b0c5 02bc 05f4 d03d 6597 ec3d
00000080: b0db 133d 5c53 0b3e 125f d4bd 23be f1bd
00000090: 111c 763c dd8d 97bd c4d0 20bd 80d2 2bbd
000000a0: dbfb 043d c40f c93d e051 b8bd 1928 cbbd
000000b0: 3029 64bd b16d 013e 6422 613c aaa6 62bc
000000c0: 560b 2e3d 2cde c73d 1495 9e3d 89b6 6f3d
000000d0: fb9e 28bd 3410 253c e389 19bc 46dc 0bbc
000000e0: fcfb 92bc d7b2 8abd 31bd 82bd 0976 3abd
000000f0: 707e 4cbd ccd8 3dbc 78fd b2bc 74fa aa3d
00000100: 43f4 98bc d8ea c8bc 18c0 b7bc 913d d8bb
00000110: 1aa9 b7bd 1557 0d3e d803 593c cb12 62bd
00000120: b5ea af3c 0e70 bfbd af75 423c a54e 08be
00000130: 9264 953d 3c78 2fbe 126b c53c 44ad 9b3d
00000140: 3ada 313d d744 523d 8b56 e93d fcfe 083d
00000150: a65c a0bd cb92 933c 4476 3e3d 8641 d2bd
00000160: 398e ca3d aaf7 86bd 77d0 e23c 0611 74bd
00000170: d93c 803d 4626 383d be92 febc 123f 763d
00000180: 6786 b43b 0b65 91bc 2448 ae3d e9cf 9e3d
00000190: 2f0e fdbc c2a4 3c3c bfdb 9c3c 103f 923c
000001a0: 5503 3f3d 9aaa 92bd 4781 ab3d 37af 82bc
000001b0: a4e7 3abe 7a6a d4bb 4350 a53c 9e83 3e3d
000001c0: 2602 d1bd 6db8 2b3d b144 cfbd b507 483d
000001d0: a993 aa3d 26d8 35bd 8bca f0bb f6cf c9bd
000001e0: 37cb 763d f58e 543d 7d32 80bd 66ce b23d
000001f0: e445 9d3d 8b09 87bd 220d b5bc bfb7 d6bd
00000200: b6b3 a63c 1d4a ddbd 40f8 80bd 3d2c 4c3c
00000210: 2791 a13c 5667 0bbd c607 9b3d 0722 1e3e
00000220: 1938 5a3d 382f 82bd 5b82 a3ba fed8 913d
00000230: 17cc b53d dfa0 0cbe d5da 733d 6fdb 033d
00000240: 7423 73bd e486 813c 59a9 34bd bee7 66bc
00000250: 39f6 c8bd 59f8 15bc e4ba c53d e3ed 0a3e
00000260: a809 f63d ec31 e7bd 80b2 a5bd fc75 cdbd
00000270: 513f e33d 56e1 c43d 48ed a43d 819e 5bbd
00000280: 409d 89bd 672b c3bd 61cc f3bd 50b5 643d
00000290: b99e 88bc d871 6bbd 2ed4 d33d b272 113d
000002a0: 7483 ae3d 8eba a6bd 3c6f 14be 2b9c 80ba
000002b0: 7815 98bd d5b4 91bc d635 8cba 35e8 133e
000002c0: 456f cc3c 0cb2 c2bd 916c a23d 67b8 b1bd
000002d0: 2228 fd3d 747b 9c3c 3767 a6bd 85e1 90bd
000002e0: ab94 cb3b e10d 373c da06 57bd 269e 6fbd
000002f0: 54ce 883d 0ec5 d2bd b36f 9bbd d957 1dbd
00000300: 66b0 3f3c 041f 8d3d bdad a8bb 6be4 a43d
00000310: aefb a13b 2971 81bc a94c 93bc 1ed5 07bd
00000320: 269c 03be 89ff a8bd 4b18 693c 7adc f73d
00000330: 27b9 ce3d c612 733c 7d51 b03b 313d d7bd
00000340: b697 8ebb e55d a4bc 6598 ebbd 69a2 763d
00000350: 6cf1 e13d cf14 81bc 4ac2 d1bc 516f 9dbd
00000360: 8b91 473d e713 febc 6cf9 a93d 584f b7bd
00000370: 1a27 f53d 3e60 e8bd d3e1 bc3d 5c81 80bd
00000380: e762 4b3d d465 99bd a829 29bd fe36 88bd
00000390: 9a06 be3c 1b7b 203d 7488 42bc 983e a1bd
000003a0: 49f1 02be 2e8f 593d 7996 0fbd dbd9 ba3d
000003b0: 3140 a93d 7037 4fbd c312 abbd 6257 a23c
000003c0: 5491 e23d 4b6e 45bd 5c17 39bd 6efb c73c
000003d0: 2f36 283c 7687 f7bd de47 733d ec6a 4f3d
000003e0: 09b5 f43d 5737 4dbd 74f5 503d 6ca5 d93c
000003f0: 1c05 dfbd 1da3 9fbb c55f d5ba 77ed 76bd
0.061573256 0.022727976 -0.029287113 0.078971624 -0.17822593 -0.050822254 0.08891084 -0.028279534
-0.079171516 -0.08446763 -0.1267435 -0.04346332 0.104316555 -0.06801113 -0.06585746 -0.005286919
-0.02843854 0.014312992 -0.013534486 0.0021771989 -0.09578482 -0.04821962 0.064787075 -0.03805257
0.1215891 0.0793415 -0.11289095 0.08139144 0.045255292 -0.007981703 0.10202793 0.11552314
0.036098182 0.13606018 -0.10369696 -0.11803844 0.01502134 -0.07400105 -0.039261594 -0.041948795
0.03246675 0.0981746 -0.089999914 -0.099197574 -0.055703342 0.126395 0.0137411095 -0.013833681
0.04249128 0.09759173 0.07743278 0.05852369 -0.04116724 0.010074664 -0.009371254 -0.008536404
-0.017942421 -0.06772392 -0.06383742 -0.045522723 -0.049925268 -0.011587333 -0.021849379 0.083485514
-0.01867116 -0.024526045 -0.022430465 -0.006599136 -0.089678004 0.1380275 0.013245545 -0.055193704
0.021474222 -0.093475446 0.011868878 -0.1331125 0.07294573 -0.1713571 0.024098907 0.07601407
0.043421008 0.051335182 0.1139346 0.033446297 -0.07830171 0.018014332 0.046499506 -0.10266404
0.09890408 -0.06590207 0.027687294 -0.059586547 0.06261606 0.044958375 -0.031075832 0.060118742
0.005509186 -0.017748376 0.085098535 0.077544995 -0.030890552 0.011513891 0.019147752 0.017852336
0.046634037 -0.07161446 0.08374267 -0.01595269 -0.18252426 -0.0064824196 0.020179873 0.04651224
-0.10205488 0.04192393 -0.10120524 0.048835475 0.08328945 -0.04439559 -0.0073483638 -0.098541185
0.060252395 0.051894147 -0.0625963 0.08730774 0.07679346 -0.06593617 -0.022100989 -0.104842655
0.020349365 -0.108051516 -0.0629735 0.012461719 0.019722534 -0.034034096 0.07569842 0.15442668
0.053276155 -0.063566625 -0.0012474762 0.07121466 0.08876818 -0.13733242 0.059534866 0.03219169
-0.059359983 0.015811391 -0.044106815 -0.014093338 -0.09812588 -0.009153449 0.09654787 0.13567309
0.120135605 -0.11288819 -0.08090687 -0.10032269 0.11096061 0.09613292 0.0805307 -0.053617958
-0.06719446 -0.09529763 -0.119042166 0.055836976 -0.016677247 -0.057481617 0.103432044 0.035509773
0.085211664 -0.08141051 -0.14495558 -0.0009812167 -0.0742597 -0.017786423 -0.0010697197 0.14444049
0.024955401 -0.09506616 0.07930864 -0.0867775 0.1236117 0.019101836 -0.081251554 -0.070742644
0.006212791 0.011172743 -0.05249677 -0.05850043 0.06679979 -0.102914914 -0.07589664 -0.038413856
0.0116997715 0.068906814 -0.0051476643 0.0805138 0.0049433326 -0.01580103 -0.01798089 -0.03316223
-0.12852535 -0.082518645 0.014226983 0.121025994 0.10093909 0.014836019 0.005380808 -0.10509718
-0.0043515814 -0.020064304 -0.11503676 0.06021348 0.11032376 -0.015756993 -0.02560534 -0.076872475
0.048722785 -0.03101535 0.082995266 -0.089506805 0.11970349 -0.11346482 0.0922276 -0.06274673
0.049654868 -0.07490125 -0.041299492 -0.06651114 0.023196507 0.039179903 -0.011873353 -0.07873267
-0.12787355 0.053115062 -0.03505561 0.09123584 0.08264197 -0.05058998 -0.08353188 0.019817058
0.110628754 -0.048200887 -0.045188293 0.024411883 0.010266825 -0.12086384 0.05939471 0.050639078
0.11948592 -0.050101604 0.051015332 0.026568137 -0.108896464 -0.0048717395 -0.0016279152 -0.060285058

fc1.bias f4 [64]
00000000: 8623 df3d 880e b1b7 4253 ffbd 8410 94bd
00000010: 8e1e d63d 5c81 353c 9985 973d 47f3 82bd
00000020: 140b b8bd 963f debd 105a 85bd b265 af3d
00000030: 12d1 a23d 6e75 3d3e b265 7d3d 9e50 6d3c
00000040: 578a 323c 4294 11be 3826 9f3d 290c d83c
00000050: 2e7c e13d 8701 c2bc 2b9c 013d fb26 c5bc
00000060: 81b0 e53d d104 c7ba 9b49 a73c 486f c33d
00000070: 20ca b8bc 91ba 53bc 12b3 be3d 0c79 1b3c
00000080: f05b 203e 00f6 7abd 5f3c df3d a461 fdbc
00000090: 8a3c 243d f54e 79bd c0e5 5dbc d404 b33d
000000a0: e53a 9c3c 8e25 003e 73ed 6e3d 5d62 1fbd
000000b0: 94e2 88bd 01e8 d43b cd83 94bd 3dc9 013e
000000c0: a9b3 013d 0ac3 793d e6d5 babd b688 b73d
000000d0: 18bc bf3d c120 833d 3e9b 9f3b 69a4 af3d
000000e0: e175 8abd 15dd e5bd a4b7 96bd b254 dd3d
000000f0: dcbb 2bbd 6f97 dfbd efcb 99bd 8a7c eebd
0.108954474 -2.110681e-05 -0.12467052 -0.072297126 0.104550466 0.011078205 0.073985286 -0.06394058
-0.08986488 -0.10851972 -0.06511319 0.08564319 0.07950033 0.18501827 0.061864562 0.014484553
0.010897241 -0.14216712 0.077709615 0.026372986 0.110100135 -0.023682369 0.031643074 -0.024066439
0.11215306 -0.001518393 0.02042084 0.095427096 -0.022557318 -0.012922899 0.09311499 0.009489309
0.15660071 -0.06126976 0.10900187 -0.030930348 0.040096797 -0.060866315 -0.013543546 0.08741155
0.019071052 0.12514326 0.058331918 -0.038912166 -0.06683841 0.0064973836 -0.072517015 0.12674423
0.031665478 0.06097702 -0.09122829 0.089616224 0.09362048 0.06402732 0.004870801 0.085762806
-0.06760765 -0.11223809 -0.073592454 0.1080717 -0.041927204 -0.109175555 -0.075096 -0.11644848

bn3.weight f4 [64]
00000000: fd4d 8b3f 05f2 8c3f d1c4 8a3f 08bc 8b3f
00000010: 6132 8f3f 7353 8b3f 379b 8a3f 3c08 893f
00000020: fd01 8b3f 2a95 853f 9caf 8a3f f627 893f
00000030: d8e7 903f 0abb 943f 2398 8b3f d2d2 843f
00000040: a68f 853f 2084 823f 2052 893f f447 8b3f
00000050: 93e6 8d3f 1282 893f 6b10 8c3f 3d23 8a3f
00000060: 3c68 8b3f faca 8d3f c96c 923f 7bff 843f
00000070: ab13 843f 7e39 873f b361 933f fa1e 8a3f
00000080: 3dc3 863f e554 8a3f 39b4 8c3f de31 893f
00000090: de97 823f c073 833f 0e2e 8e3f 0fab 8a3f
000000a0: 7c8e 873f 78b2 873f 257e 893f 9db3 833f
000000b0: 6560 8d3f 7959 913f 55aa 853f 6251 8b3f
000000c0: ba07 893f a768 923f 2e20 923f be0b 843f
000000d0: 61dd 8a3f bb58 8b3f 2ce0 913f 9207 8a3f
000000e0: e172 8b3f ceca 863f 2a13 853f 5f06 863f
000000f0: 3e15 8f3f ceed 8d3f 2de9 863f 8d8c 903f
1.0883175 1.1011358 1.0841314 1.0916758 1.118725 1.0884842 1.0828618 1.0705638
1.0859982 1.0436146 1.0834842 1.071532 1.1320753 1.161958 1.0905803 1.0376837
1.0434463 1.0196571 1.0728188 1.0881333 1.1085991 1.0742819 1.094251 1.0792004
1.0891185 1.1077569 1.1439449 1.0390466 1.0318502 1.056442 1.151419 1.0790703
1.0528332 1.0807158 1.09925 1.0718343 1.0202596 1.0269699 1.1107805 1.0833453
1.0590358 1.0601339 1.0741621 1.0289189 1.1045042 1.135543 1.0442606 1.0884211
1.0705483 1.1438187 1.141607 1.0316083 1.084881 1.0886453 1.1396537 1.078356
1.0894433 1.0530641 1.0396473 1.0470694 1.1178358 1.1088197 1.053991 1.1292893

bn3.bias f4 [64]
00000000: b97f f63c 7001 38bc 36e0 fb3b 7f5f 8bbc
00000010: b594 933d 0340 21bc 3109 97bd f783 0bbd
00000020: d9b8 91bd daa4 22bc cc58 deba 786c 4ebc
00000030: 0c88 63bd 4b41 88b9 6443 28bd b0c7 113e
00000040: 7a8d 0f3d 2e51 293d 2737 3ebc a59d 203d
00000050: b0ad 43bd 38a8 07be bfea 2a3d 2242 4cbc
00000060: d2fd 293d 1e72 95bb 578e 27bd eafb 0abe
00000070: 2154 143e 38e1 6d3c 95d7 1c3d 2abe 0f3d
00000080: 5b73 43bd bebc 9abc 69ea 1dbd 777c e43d
00000090: 5912 293c 3aa1 80bd 9355 46bc 213b eebc
000000a0: 194d 32bd 609c adbd 9b56 75bd 4985 9bbd
000000b0: b45a cabd d475 fabd 1062 a73d 8ecb aabc
000000c0: 737d 9dbc 5ca7 34bd 1acb 1bbd e278 d3bc
000000d0: b20c 80bd 6c0e 803d 111d 113e d85d 0e3d
000000e0: 0953 37bd c9d8 9cbd 9bea a1bd 7f82 35bd
000000f0: 9ff8 1b3e dbc5 62bc 382c 3d3c ee08 33bd
0.0300902 -0.0112308115 0.00768664 -0.01701331 0.07206098 -0.009841922 -0.073748 -0.0340614
-0.07115335 -0.009926999 -0.0016963719 -0.012599103 -0.055549666 -0.00025988588 -0.041079894 0.14236331
0.035047032 0.041337185 -0.011609829 0.03921284 -0.047773063 -0.13247764 0.041727778 -0.012466939
0.041501828 -0.004560723 -0.04090723 -0.1357266 0.14485218 0.014519028 0.038291533 0.035093464
-0.047717433 -0.018888827 -0.03855363 0.11156552 0.010319316 -0.062807515 -0.012105363 -0.02908093
-0.043530557 -0.08477092 -0.059897047 -0.075937815 -0.098805815 -0.12229505 0.08173001 -0.020849016
-0.019224858 -0.04410492 -0.03803549 -0.025814477 -0.062524214 0.06252751 0.14171244 0.034757465
-0.044756923 -0.07658536 -0.079060756 -0.044313904 0.1523156 -0.013841118 0.011546187 -0.043709688

bn3.running_mean f4 [64]
00000000: c934 b43f 4a02 f53f 4795 d03f c34e 953f
00000010: 6c80 3b3f b7ba 9d3f e8b3 0440 6f20 913f
00000020: 28f7 8b3f 1cae e73f 2a70 c13f 5e48 ac3f
00000030: 0193 993f e777 053f ae30 a03f 132c d63f
00000040: 619d 1940 4fb8 e53f c2d0 d03f 0305 dd3f
00000050: f85f 8f3f 9520 d53f ab29 8e3f 37ab da3f
00000060: d069 cd3f d12c 9e3f 97d6 c23f 9d18 2d40
00000070: be11 943f bcf4 c93f 44f9 173f 5750 b53f
00000080: 9d78 bb3f c73a 4b3f ee9e 823f 883b d03f
00000090: 4350 fc3f 8b52 f93f ec6a c83f ecc8 cd3f
000000a0: 68da be3f 7c9d a63f 2ea2 ba3f 634d fb3f
000000b0: 0e40 b73f cf2c a33f 448f 8b3f 9ce4 b83f
000000c0: 800d d53f a0b4 803f bf65 9f3f 5df5 0340
000000d0: 1ded bb3f c73d b33f eb96 d93f 45d4 d53f
000000e0: 573c bc3f 0ea8 ce3f 5590 c03f a00f a03f
000000f0: 94ff 8a3f ac12 793f 4ab0 6b3f 6e05 183f
1.4078609 1.9141324 1.6295556 1.1664661 0.7324283 1.2322606 2.0734806 1.1338023
1.0934801 1.8100009 1.5112355 1.3459585 1.1997987 0.5213608 1.2514856 1.67322
2.4002306 1.7946872 1.6313708 1.7267154 1.1201162 1.6650568 1.1106466 1.7083501
1.6047916 1.2357427 1.5221738 2.7046273 1.1567914 1.5777812 0.59364724 1.4165143
1.4646183 0.7938656 1.0204751 1.6268167 1.9711994 1.9478315 1.565763 1.6076941
1.4910402 1.301681 1.4580743 1.9632992 1.4316423 1.274805 1.0903096 1.4444766
1.6644745 1.0055122 1.2452925 2.0618508 1.4681736 1.4003228 1.6999182 1.6705405
1.4705914 1.6145036 1.5044047 1.2504768 1.0859246 0.97294116 0.9206587 0.59383285

bn3.running_var f4 [64]
00000000: 9178 9d40 2dfa 4941 df6c 3041 2284 8340
00000010: df07 0e40 f62b bf40 861f 1d41 0d77 8240
00000020: b83e 6740 d8fb 5341 81e3 a040 5fd5 bf40
00000030: 5227 6540 f569 983f f624 b940 d40d 6141
00000040: 1ff2 7641 e978 3c41 01b3 cf40 0398 f340
00000050: 09e9 8c40 eb6e ee40 2b9b 8e40 8c92 f240
00000060: 3c4a 1141 7e8f bc40 95c8 d440 c77a 3c41
00000070: 3030 af40 cac7 0941 4ddf ce3f f15f 9740
00000080: afca f840 2403 1d40 2892 8a40 3b56 ff40
00000090: 48a5 3641 9166 0f41 c01f f540 ef5b c040
000000a0: cc7f d940 1098 9040 d5f8 d840 2f8e 7541
000000b0: bc48 ab40 ca7c 9840 0424 7040 6a29 d340
000000c0: f349 fd40 1587 2040 6420 9240 16bb e540
000000d0: 1ff3 f040 5010 c340 a95d fd40 ffa1 f140
000000e0: a5f3 e140 7c68 cc40 67c3 ea40 7787 a140
000000f0: 19a8 7940 fa09 4f40 ad58 4140 79df ef3f
4.9209676 12.623578 11.02658 4.1098795 2.2192304 5.9741163 9.820196 4.0770326
3.613203 13.248985 5.0277715 5.9947963 3.580525 1.1907336 5.785762 14.065876
15.434112 11.779519 6.490601 7.612306 4.4034467 7.45104 4.4564414 7.580389
9.080624 5.892516 6.649485 11.779975 5.4746323 8.611277 1.6161896 4.7304616
7.7747416 2.4533167 4.3303413 7.979276 11.415352 8.962541 7.6601257 6.0112224
6.79685 4.5185623 6.780375 15.347213 5.3526287 4.765233 3.7521982 6.5988054
7.915277 2.5082448 4.566454 7.1790876 7.529678 6.0957413 7.917683 7.551025
7.060992 6.3877544 7.336353 5.047786 3.9008849 3.234984 3.0210373 1.8740073

fc2.weight f4 [8, 64]
00000000: ce39 a9bc aafd 4cbe ba7d 3e3c 654d de3c
00000010: edec 753d eb09 003d 6ae5 e9bd 713a 9dbd
00000020: 4660 15bc 80cb 33bd 4074 febd bb41 373d
00000030: 6f8a 223e 0db4 593e c4f8 683d f39d 253c
00000040: d1ce 12be e6b3 85bd 80c7 f7bd 0f3a 49be
00000050: b281 d8bd bc13 b3bd fb99 8a3c 9858 09be
00000060: c0d8 5fbd 00b8 943d ac28 8cbb 0e1e 5e3d
00000070: 12ce f43c 448d 963c 0458 5a3e 44d4 b2bd
00000080: f37e 1f3c 0833 0ebe 1333 ab3d bfd2 a0bd
00000090: 88a1 cdbd 96a3 c13d 758a 35be e791 bc3d
000000a0: c68f b43d 11e5 0bbe 307e 933d e3fe 553d
000000b0: 3c14 5bbe 2904 ff3d 0faf 84bd fdde 363e
000000c0: 03a3 e0bc 611e 2e3e ac6e f33c 2dbc 15be
000000d0: 1587 e33d 1b96 9fbc c6ec 0bbe 9258 f3bd
000000e0: f4ca a53d 0db1 ae3d a9d6 483d f8ba 65bd
000000f0: ff1b 213d 6f68 f7bd aac9 ad3d 5300 cbbd
00000100: bd3e 92bd 737e debd d88a 19be 5bc8 013d
00000110: a0bd 0cbd 2afb 89bd 2605 083d 4281 c13d
00000120: 01fe 2ebe 939b 49be dd57 5bbd 0c4e 863d
00000130: faf8 c6bd c57f 02be a6ba 2dbe 1541 f23d
00000140: f85e 213e f1c7 dcbd 1625 c3bd 6afb c23c
00000150: bae7 003e 7e2e 26be 1e78 8c3d 7711 c73d
00000160: bda8 21be 722e 3bbe 7c4c ae3c 7136 61bd
00000170: 701d bc3d 4752 ff3d ad69 b139 a91b db3d
00000180: 33c2 6b3c ad64 fb3d 4983 94bd becc 313d
00000190: 48f4 d03d 47d0 c63d 04d6 9dbd 4c3e 8f3d
000001a0: 8d34 003e 50ce f13d 216e 14be 3a69 9e3d
000001b0: 3762 803a 20f0 ec3d c7ce 39be ce4e 01be
000001c0: 2248 aa3c dfd4 ee3d afc8 b73b d955 573d
000001d0: e7fc 133c 7a4a 713d d611 41bc 9904 4c3e
000001e0: 2304 00bd 76c4 15bc 201a d4bc 2acf 2bbe
000001f0: 7763 fd3b 11a0 91bd 9cee eb3d 0e60 b1bd
00000200: bc23 e1bd 8df6 1d3e 1ac0 7abd 8ae2 87bd
00000210: c561 85bd 7c93 113d d643 3dbd 47da 253e
00000220: dc9b 363e eb10 c4bd 55c4 b1bd 4041 c3bd
00000230: 1c6d e8bd 2752 43be b8b2 983d 742b b53d
00000240: 566e 223e d5b7 b6bc db58 cf3d 71ba ea3d
00000250: 4a82 c7bd ad0b 253c 4720 cfbd d7b6 9a3d
00000260: 9b36 3bbd b061 fbbd f331 c13d 6bb4 e0bc
00000270: 703c 933d 98ba 453e 1626 923d e5bd e2bb
00000280: a875 11be d56b cb3c 5590 c0bd 6139 103e
00000290: 9aa7 f0bd 0431 02bd a8ec ac3d 348f 8c3d
000002a0: e5ad 993d 2f2b 9dbd e991 de3c c938 ecbd
000002b0: bfee a73c b868 323e 0661 0dbd 8470 eebd
000002c0: 7198 c8bd 19c3 5dbd bcd5 a1bd 307a 39bd
000002d0: a51e b43d 1569 ffbc b9c3 84bd d4a4 88bd
000002e0: 0ad2 2bbe 1a5b 0c3e f876 633d df58 03be
000002f0: c6e7 2abe 66bd 09be 6e87 d1bd 10f8 103e
00000300: 494c d23d fe64 ffbd d87e b7bb 1459 233e
00000310: 3985 89bd 81ea b0bd c356 29be 70f6 23bd
00000320: fe97 a93d 1479 debd 43cd f0bc 640e 39be
00000330: 6d2b 1a3e a102 d2bc e74e a4bd d3fd c4bd
00000340: 52b8 ba3d 0c66 74bb bf0e 93bd 67e8 a63d
00000350: 10d7 f6bd 7b7f 29bb f838 163e 86d8 e63d
00000360: b188 18be 5d2b 33be f6c9 243e c41c 9c3d
00000370: 117f e8bc bf1b 8bbc 4cf9 763c 51f8 393e
00000380: ea6a 91bd 07bf 933c 2505 b9bd 5912 65bd
00000390: c4f2 9dbc 2133 d7bd 1fa4 753d fd86 363e
000003a0: 08a0 46bc 8e82 97bd 64b7 c3bc 4d49 813d
000003b0: 8f81 533d 6eab c2bb 67ca 5dbd 18f1 27bd
000003c0: 25c1 bd3d 9cc8 463e 2ae8 2bbd d7e1 a8bd
000003d0: f156 09be d2b2 303e 2fce bb3b b347 6c3d
000003e0: 0bed d4bd fe97 03be c01c ffbd 070d fabc
000003f0: 1664 03be defa 8ebd 47b9 49bd 6a40 98bd
-0.020657446 -0.2001864 0.011626655 0.027136514 0.060040403 0.03125946 -0.114207104 -0.076771624
-0.009117192 -0.043895245 -0.12424517 0.04474042 0.1587312 0.2126009 0.056877866 0.010108459
-0.14336707 -0.065284535 -0.120985985 -0.19651054 -0.105716124 -0.087439984 0.016919127 -0.13412702
-0.05465007 0.07261658 -0.0042773094 0.05422788 0.029883418 0.018377908 0.21322638 -0.08731893
0.009734857 -0.13886654 0.08359351 -0.078526966 -0.10040575 0.0945503 -0.17728598 0.09207516
0.08816485 -0.136616 0.07201803 0.052245032 -0.21394438 0.12451965 -0.06478702 0.17858501
-0.02742148 0.17003776 0.029715858 -0.14622565 0.11109749 -0.019480756 -0.1366454 -0.11882128
0.08095351 0.085298635 0.04903284 -0.05608651 0.03933334 -0.12080466 0.0848573 -0.09912171
-0.07140873 -0.10863962 -0.14994371 0.031685214 -0.034360528 -0.06737359 0.033208035 0.09448482
-0.17089082 -0.19688253 -0.05355059 0.06557855 -0.09715457 -0.12744053 -0.16965732 0.1182882
0.15758884 -0.10780323 -0.09528558 0.023801524 0.12588397 -0.16228673 0.06858848 0.09720128
-0.15787025 -0.18279436 0.021276705 -0.05498356 0.09185302 0.12466865 0.00033838805 0.10698635
0.014389562 0.12275062 -0.07251603 0.043408148 0.10202843 0.097076945 -0.07706836 0.06994304
0.12520047 0.11806929 -0.14495136 0.07734914 0.0009794895 0.11569238 -0.18145286 -0.12627718
0.020786349 0.11661696 0.00560864 0.052572105 0.009032465 0.058908917 -0.011784038 0.19923629
-0.031253945 -0.009141078 -0.025891364 -0.16778246 0.0077328044 -0.07110608 0.115201205 -0.08660899
-0.10993144 0.15426083 -0.06121836 -0.06635006 -0.06512789 0.035541043 -0.04620727 0.16196547
0.17832893 -0.09573539 -0.086800255 -0.0953393 -0.11348936 -0.19074307 0.07455963 0.08846179
0.15862402 -0.022304455 0.1012437 0.11461342 -0.097416475 0.0100735845 -0.10113578 0.07554405
-0.045706373 -0.12274492 0.09433355 -0.02742978 0.07189262 0.19309461 0.071361706 -0.00691961
-0.14205039 0.024831692 -0.09402529 0.14084388 -0.117507175 -0.031785026 0.08443576 0.06863251
0.07503871 -0.07674252 0.027169185 -0.115342684 0.020499585 0.1742276 -0.034516357 -0.116425544
-0.09794701 -0.054141138 -0.07902095 -0.045282543 0.087949075 -0.031178037 -0.06482644 -0.066720635
-0.16779342 0.13706627 0.05553338 -0.1282687 -0.16689977 -0.13451156 -0.10230909 0.14157128
0.102684565 -0.124704346 -0.0055998378 0.1595195 -0.06714863 -0.08638478 -0.16537003 -0.040029943
0.08280943 -0.108629376 -0.029394751 -0.18071896 0.15055628 -0.02563602 -0.08022862 -0.09618726
0.091171876 -0.003729227 -0.07180547 0.08149796 -0.12052739 -0.0025863338 0.1467017 0.11271767
-0.14895894 -0.1749701 0.16092667 0.07622674 -0.028380902 -0.016981004 0.015074085 0.18161131
-0.0710047 0.018035425 -0.09034184 -0.0559257 -0.019280799 -0.10507799 0.05997097 0.17824931
-0.012123115 -0.07397948 -0.023891158 0.06312809 0.05163723 -0.005940846 -0.054148104 -0.04100141
0.09265355 0.19412464 -0.041969456 -0.082462005 -0.13412072 0.17255715 0.005731366 0.057685565
-0.10396775 -0.12850949 -0.124566555 -0.03052379 -0.12831149 -0.06981443 -0.04924896 -0.07434161

fc2.bias f4 [8]
00000000: c69c cfbd f45b 413d fcb7 2d3e e193 eebd
00000010: 0740 383e 4850 843d 0a4c f33c 2492 b7bd
-0.10137324 0.047206834 0.16964716 -0.116492994 0.17993174 0.06460625 0.029699344 -0.08963421

fc3.weight f4 [5, 8]
00000000: 2482 e33e e580 e4be 25c5 b9be 8f86 d63d
00000010: 6803 07bf f9af 093e 5d4b 18bd 9d0f 8d3d
00000020: 6711 4dbe ddd4 943e f24b 2fbc fbf5 06be
00000030: f475 453e 9d3d ebbe da7d aebe b38d 943e
00000040: 5425 33be ac09 cc3e fc10 203e bce8 59be
00000050: ec0f 65bc 5b8f 05bf b79f cd3e 1a2a e0be
00000060: cc31 f6be 93be 983e 24dd 1e3e d706 f33e
00000070: 55f7 3fbd 348f dbbd 51a7 85be 4793 833e
00000080: e12b 0bbe 3be3 acbe 5b16 a0be 542c f4be
00000090: 6a9b 67bd a6be a43e 8d1d 853e 8354 66be
0.44435227 -0.4462959 -0.36283222 0.10474884 -0.5273957 0.13446034 -0.037181247 0.068877436
-0.2002617 0.29068652 -0.010699259 -0.13179772 0.19283277 -0.45945445 -0.34080392 0.29014358
-0.17494708 0.3985113 0.15631479 -0.21280187 -0.013980847 -0.5217187 0.40160915 -0.4378212
-0.48084867 0.29832897 0.15514046 0.47466156 -0.046866734 -0.10720673 -0.26104215 0.256983
-0.13590957 -0.33767113 -0.31267056 -0.4769007 -0.0565447 0.32176703 0.25999108 -0.22493176

fc3.bias f4 [5]
00000000: 91d1 003b 3363 18bd 1982 edbd 8e47 2dbe
00000010: f83e 3a3c
0.0019656161 -0.03720398 -0.1159708 -0.16921827 0.011367552
