tuning_results/best_models_during_tuning_lightning_logs/ratio_stand_GCN_best_model_logs/checkpoints/epoch=55-train_loss=1.02-train_f1=0.60-val_loss=1.98-val_f1=0.25.ckpt (torch, 109154 bytes, 38 tensors)

conv1.bias f4 [64]
0	0x3ca588c7	0.020206822
1	0x3cb86d08	0.022512928
2	0x3d13e602	0.036108024
3	0xbd246ebc	-0.040144667
4	0x3ce34571	0.027743073
5	0x3c5a75ae	0.013333721
6	0xbc9ea7cd	-0.019367123
7	0x3cf43f36	0.029815298
8	0xbcd3236b	-0.025773725
9	0x3cadcf5b	0.021217039
10	0xbd2abe36	-0.041685306
11	0x3c5f37dd	0.013624159
12	0xbb4cd09b	-0.0031252268
13	0xbbac7571	-0.0052630235
14	0x3ce03d44	0.027372964
15	0x3cd0689a	0.025440503
16	0xbc2406a2	-0.010011347
17	0xbd5c6e6a	-0.053816237
18	0xbc545fca	-0.012962291
19	0xba48d928	-0.00076617533
20	0xbacde9fe	-0.0015709994
21	0xbc286cdc	-0.01027986
22	0x3b0bb87a	0.0021319673
23	0x3d6acfd4	0.057327107
24	0xbb84642a	-0.004040261
25	0x3c56edcd	0.01311822
26	0xbc06f9b5	-0.008238246
27	0x3c08b036	0.008342793
28	0x3c92714c	0.01787629
29	0x3bc54605	0.00602031
30	0xbcc43ff5	-0.023956278
31	0x3cf08a0d	0.029362703
32	0x3d4c4a99	0.04987583
33	0xbcde147d	-0.027109379
34	0x3d1cab36	0.038249217
35	0xbc0d884e	-0.008638455
36	0xbb390144	-0.0028229514
37	0x3c2ae858	0.010431372
38	0x3ad24121	0.0016041138
39	0xbd16a448	-0.036777765
40	0xbd86eebd	-0.065885045
41	0xbd4deb81	-0.050273422
42	0xbd925efa	-0.071470216
43	0x3d91b767	0.07115059
44	0xbd3f7572	-0.046742864
45	0xbc26f177	-0.010189406
46	0xbd64a2ab	-0.055819195
47	0xbccd7141	-0.025078418
48	0x3c14d818	0.009084724
49	0xbc854a4c	-0.01627078
50	0xbc23a188	-0.0099872425
51	0x3c8c1f2e	0.017104711
52	0xbc8620d7	-0.016373081
53	0xbd2df545	-0.042470235
54	0x3c065122	0.0081980545
55	0xbc79115f	-0.0152018955
56	0xbd152ecf	-0.036421593
57	0x3bbb44be	0.005714982
58	0x3bc4fc2c	0.0060115065
59	0x3c079d93	0.008277315
60	0xbc1f1140	-0.009708703
61	0x3c4b89d1	0.012422995
62	0x3c0c9986	0.008581525
63	0xbd334e2d	-0.043775726

conv1.lin.weight f4 [64, 25]
0	0x3d62a9bf	0.055337664
1	0xbd93adec	-0.07210907
2	0xbe3bbcac	-0.18333691
3	0xbd470925	-0.048592705
4	0xbdc87956	-0.09788768
5	0x3ced6f0e	0.028983619
6	0x3c3ee3e4	0.011651013
7	0x3db0329f	0.08603405
8	0x3e6ad1ba	0.22931567
9	0x3cdd4de3	0.027014678
10	0xbc965a74	-0.018353678
11	0x3e18cd03	0.14921956
12	0x3e346919	0.17618217
13	0x3cb0389a	0.021511365
14	0xbe2e9020	-0.17047167
15	0xbdfa5dcb	-0.12224921
16	0x3e1303dc	0.14356941
17	0x3e80e44c	0.25174177
18	0xbe3d259c	-0.18471378
19	0x3e5e7a28	0.21726286
20	0xbe7e5a9b	-0.2483925
21	0xbe60f750	-0.21969342
22	0x3e567cde	0.2094607
23	0x3e64cb03	0.22343068
24	0x3e2e10a6	0.16998538
25	0x3e0e2be0	0.13883924
26	0xbe71344d	-0.23555107
27	0x3e4a88e8	0.19778788
28	0x3dad1b74	0.08452502
29	0xbde11de1	-0.10992027
30	0xbdfbb020	-0.122894526
31	0x3e740dd4	0.238334
32	0xbe06be21	-0.13158466
33	0xbe6c5c60	-0.23082113
34	0xbe382d2f	-0.17985986
35	0x3dbcce98	0.09219092
36	0xbe24cc8d	-0.16093655
37	0x3d7507c0	0.059821844
38	0xbdd63f4d	-0.104612924
39	0xbd52920a	-0.051408805
40	0x3e434e5a	0.19072857
41	0x3e97b882	0.29632956
42	0x3dc405aa	0.09571393
43	0xbe0f6e13	-0.14006834
44	0x3d2e2109	0.042511974
45	0x3dc05208	0.09390646
46	0xbd9ee7ca	-0.07759054
47	0x3e2b0231	0.16700055
48	0xbc92248e	-0.017839696
49	0xbe355784	-0.17709166
50	0xbe294712	-0.16531017
51	0xbe2db75c	-0.16964477
52	0xbe871d7f	-0.2638969
53	0xbd902132	-0.070375815
54	0xbdee1454	-0.11624971
55	0xbbc5415a	-0.0060197534
56	0xbe6ba560	-0.23012304
57	0xbe682f61	-0.22674324
58	0x3e44827b	0.191904
59	0xbda85be3	-0.08220651
60	0x3e4e9373	0.20173435
61	0xbe488fe9	-0.19586147
62	0x3cf74dab	0.030188402
63	0x3db2d282	0.087315574
64	0xbc52e888	-0.012872823
65	0xbe029571	-0.1275232
66	0x3e158f78	0.1460551
67	0x3d9ba56b	0.0759991
68	0xbd6a6e6e	-0.05723422
69	0x3d9b3238	0.07577938
70	0x3e1f9cfd	0.1558723
71	0x3e28e1d4	0.16492397
72	0xbe7481ec	-0.23877686
73	0x3e3c67a6	0.18398914
74	0x3e6a20b2	0.22864035
75	0x3e10c1aa	0.14136377
76	0x3de89641	0.11356784
77	0x3dd1bf79	0.10241599
78	0x3d50c7a3	0.05097164
79	0x3e51f1ac	0.20502347
80	0xbe2c47bf	-0.16824244
81	0xbdd941aa	-0.106082276
82	0xbe2fdded	-0.17174502
83	0xbe399094	-0.18121558
84	0x3cc549e9	0.024083095
85	0xbdf82372	-0.12116136
86	0x3d4b6753	0.049659085
87	0xbe6a5760	-0.22884893
88	0xbcefb9e8	-0.029263452
89	0x3d870fff	0.06594848
90	0xbdce72c5	-0.10080484
91	0xbd010151	-0.031495396
92	0xbe1c3e97	-0.15258251
93	0x3e978391	0.29592565
94	0x3e2f42cb	0.17115323
95	0x3e1a5b36	0.15073857
96	0xbe0841c1	-0.13306333
97	0x3d5fd597	0.054647055
98	0x3e7d74a3	0.24751525
99	0xbdd5a203	-0.10431292
100	0x3e24f3f9	0.16108693
101	0x3e3dddfd	0.18541713
102	0xbc9c5ee1	-0.01908821
103	0x3e0e9c9b	0.13926928
104	0xbcb49fbc	-0.022048824
105	0x3d6b2800	0.057411194
106	0xbe5737cb	-0.21017377
107	0xbe0bdf0d	-0.13659306
108	0x3d8d9a59	0.06914205
109	0x3e4d399f	0.20041512
110	0xbd40d250	-0.04707557
111	0x3db229a6	0.0869935
112	0xbe5a97ce	-0.21346971
113	0x3bd27fea	0.00642394
114	0x3cd0c165	0.025482843
115	0xbdb412e9	-0.08792669
116	0xbdb00c20	-0.08596063
117	0xbdb9e3ad	-0.09076629
118	0xbe90f47c	-0.28311527
119	0x3ba6b005	0.005086901
120	0x3e08c0ab	0.13354747
121	0x3dea1984	0.11430648
122	0xbcd10a07	-0.025517477
123	0xbe99db95	-0.3005034
124	0xbcffbcea	-0.031218011
125	0xbd56edf8	-0.05247304
126	0x3e546e7a	0.20745268
127	0xbddf33c9	-0.10898549
128	0xbcf9c032	-0.030487154
129	0x3e23928c	0.15973872
130	0xbe5d291f	-0.21597718
131	0x3e6c9200	0.2310257
132	0xbe414558	-0.18874109
133	0x3d928e31	0.07156027
134	0xbcc8a507	-0.024492754
135	0xbe693588	-0.22774327
136	0x3dbf9a7a	0.09355636
137	0x3dccf2cf	0.100072496
138	0x3e23b4c6	0.15986928
139	0xbccde978	-0.02513574
140	0x3db2b7e6	0.08726482
141	0x3e631e3e	0.22179505
142	0xbe11803d	-0.14209075
143	0xbe69eee8	-0.22845042
144	0xbe739f3c	-0.23791212
145	0xbe2af5f7	-0.1669539
146	0xbd8769ff	-0.06612014
147	0x3e39574f	0.18099712
148	0x3cdbec4f	0.02684608
149	0x3e8dd48d	0.27701226
150	0xbe28643d	-0.16444488
151	0xbcc00707	-0.02344085
152	0x3de36a88	0.111043036
153	0xbba1f86b	-0.004942944
154	0x3e604f6b	0.21905296
155	0x3c057c92	0.008147376
156	0xbe4ca0fc	-0.19983286
157	0xbe571d74	-0.21007329
158	0x3e5e42a3	0.21705107
159	0x3da21044	0.07913259
160	0x3e06ac21	0.131516
161	0xbe17e189	-0.14832129
162	0x3e618421	0.2202306
163	0x3dff3a8f	0.12462341
164	0xbdab3e6c	-0.083615154
165	0x3d81614f	0.06317388
166	0xbe145b88	-0.14488041
167	0x3d58064d	0.052740384
168	0x3c598623	0.01327661
169	0x3e977bb5	0.29586568
170	0x3e311069	0.17291416
171	0x3d58341f	0.05278408
172	0xbe3a9d2c	-0.18224019
173	0xbe35a570	-0.1773889
174	0x3e621a3d	0.22080322
175	0xbe7efc0f	-0.2490084
176	0xbe5eb3fd	-0.21748348
177	0x3d17a055	0.03701814
178	0xbc88af4e	-0.016685154
179	0x3e41209e	0.18860099
180	0x3e89d73f	0.26922032
181	0xbe311066	-0.17291412
182	0xbe30bb3d	-0.17258926
183	0x3c348a57	0.011019311
184	0x3e80da94	0.25166762
185	0xbb60de11	-0.003431205
186	0x3e16021a	0.14649239
187	0x3c320190	0.01086463
188	0x3d18fb63	0.037349116
189	0x3dc416ed	0.09574685
190	0xbe7fdf64	-0.2498756
191	0xbd7f3757	-0.062308636
192	0xbe930898	-0.28717494
193	0xbd224249	-0.039613996
194	0xbe1149b0	-0.14188266
195	0xbe1f2cfe	-0.15544507
196	0xbe544ef3	-0.20733242
197	0x3d373589	0.04472879
198	0xbc82b2ee	-0.015954461
199	0x3d701ebb	0.058623057
200	0x3c89407f	0.016754387
201	0x3e6f2dd7	0.2335733
202	0x3df7bfc5	0.12097124
203	0xbdf02439	-0.11725659
204	0xbe144b59	-0.14481868
205	0xbe7b1d38	-0.24522865
206	0x3db8b170	0.090182185
207	0x3e4930f5	0.19647582
208	0x3e650602	0.22365573
209	0xbccef357	-0.025262518
210	0x3e3ed193	0.18634634
211	0x3e8cdf3e	0.2751407
212	0x3e578767	0.21047746
213	0x3e9e807a	0.30957395
214	0xbd12fc9c	-0.03588544
215	0x3e0bdf41	0.13659383
216	0xbe832aa8	-0.25618482
217	0x3ddeeda6	0.108851716
218	0x3c4d6afb	0.012537713
219	0xbe18d3b8	-0.14924514
220	0xbe75dbc3	-0.24009614
221	0xbd7970c8	-0.060898572
222	0x3e28ab89	0.16471685
223	0xbb17c1a9	-0.0023156202
224	0x3e0427fd	0.1290588
225	0x3da365a2	0.07978369
226	0xbe2866a3	-0.16445403
227	0x3b503f03	0.003177584
228	0xbe234750	-0.15945172
229	0x3e66f3e5	0.22553976
230	0x3dfe1df1	0.124080546
231	0xbcf3eb4c	-0.029775284
232	0xbc99d806	-0.018779766
233	0x3e47e7f5	0.19522078
234	0x3e122428	0.14271605
235	0xbe5d6ceb	-0.2162358
236	0x3e443d38	0.19163978
237	0x3dfd44fb	0.123666726
238	0x3e15337e	0.14570424
239	0xbdc7f930	-0.097643256
240	0xbe50e124	-0.20398384
241	0xbe11bff0	-0.14233375
242	0x3e3e6b3f	0.18595599
243	0xbe0d082d	-0.1377265
244	0xbe7d85c0	-0.24758053
245	0xbe436834	-0.19082719
246	0xbdf68096	-0.120362446
247	0x3e2ed8d7	0.17074905
248	0xbe10d5c5	-0.14144047
249	0x3e6a5d07	0.2288705
250	0x3d8623d0	0.065497994
251	0x3e3d8738	0.18508613
252	0xbe0c40ad	-0.13696547
253	0x3e57eca9	0.21086372
254	0x3e22ef0b	0.159115
255	0x3e5309ea	0.2060925

bn1.weight f4 [64]
0	0x3f7e9a64	0.9945433
1	0x3f74e329	0.9565912
2	0x3f81f96f	1.0154246
3	0x3f809967	1.0046815
4	0x3f80e26b	1.0069097
5	0x3f7d8e4d	0.9904526
6	0x3f76db7c	0.96428657
7	0x3f81ca9d	1.0139958
8	0x3f7fcec6	0.99924886
9	0x3f82d0c4	1.021996
10	0x3f7cfa84	0.98819757
11	0x3f7c9912	0.98671067
12	0x3f7fc08b	0.9990317
13	0x3f7a15bc	0.97689414
14	0x3f7fafa6	0.99877393
15	0x3f81ec92	1.015032
16	0x3f80a2d3	1.004969
17	0x3f7f9503	0.9983675
18	0x3f81e832	1.0148985
19	0x3f7ec700	0.995224
20	0x3f7b1bb1	0.9808913
21	0x3f7ad75f	0.9798488
22	0x3f7cb9fd	0.98721296
23	0x3f82253c	1.0167613
24	0x3f79139c	0.97295547
25	0x3f819aba	1.0125344
26	0x3f788230	0.9707365
27	0x3f8114ba	1.008445
28	0x3f7fa2d6	0.9985784
29	0x3f7d5274	0.9895394
30	0x3f811a8f	1.008623
31	0x3f75c47d	0.9600294
32	0x3f821216	1.0161769
33	0x3f80ae5d	1.0053211
34	0x3f817665	1.0114256
35	0x3f7f64fe	0.99763477
36	0x3f81580d	1.0104996
37	0x3f7c1a86	0.9847797
38	0x3f7ca404	0.9868777
39	0x3f806beb	1.0032934
40	0x3f8203c4	1.0157399
41	0x3f856414	1.0421166
42	0x3f8224c6	1.0167472
43	0x3f7b5de8	0.98190165
44	0x3f8187b2	1.0119536
45	0x3f79ac84	0.9752886
46	0x3f803a20	1.0017738
47	0x3f7fd553	0.9993488
48	0x3f748a36	0.95523393
49	0x3f856832	1.0422423
50	0x3f7caf3d	0.9870489
51	0x3f82cb0f	1.0218219
52	0x3f834417	1.0255154
53	0x3f7f13bf	0.99639505
54	0x3f7eec03	0.99578875
55	0x3f7f1675	0.9964364
56	0x3f853768	1.0407534
57	0x3f7a475f	0.97765154
58	0x3f7fa4fe	0.99861133
59	0x3f80f4a4	1.0074658
60	0x3f7f5133	0.99733275
61	0x3f80539d	1.0025517
62	0x3f7cfb17	0.9882063
63	0x3f822535	1.0167605

bn1.bias f4 [64]
0	0x3cae1f2b	0.021255096
1	0x3d22de6c	0.0397629
2	0x3c67e68d	0.014154089
3	0xbc83d20e	-0.016091373
4	0xbc09f313	-0.00841977
5	0xbc5975e2	-0.013272734
6	0xbd5fbd69	-0.054623995
7	0xbcae81a2	-0.021302048
8	0x3cec5215	0.028847734
9	0x3d47e255	0.04879983
10	0xbb598201	-0.003318906
11	0x3aacfd2c	0.001319801
12	0x3b1308ab	0.0022435586
13	0x3cc704ab	0.024294218
14	0x3c27b8c7	0.010236925
15	0xbd11ec99	-0.035626028
16	0x3d405a43	0.04696108
17	0xbdadbc03	-0.08483126
18	0xbc8f4533	-0.017489051
19	0x3d5264fa	0.05136583
20	0x3c1ebbca	0.009688327
21	0x3c917337	0.017755134
22	0x3c5c39d8	0.013441525
23	0xbc1df36f	-0.009640559
24	0xbc173429	-0.009228745
25	0x3d5182f7	0.05115029
26	0x3d089f9a	0.033355333
27	0x3cb5c973	0.022190785
28	0x3d8c6624	0.06855419
29	0xbc2023c2	-0.00977415
30	0xbb087b39	-0.00208254
31	0xbbf7c9e1	-0.0075619076
32	0xbcbc2828	-0.022968367
33	0xbd0e7c16	-0.034786306
34	0x3d661824	0.056175366
35	0x3a4c7fc5	0.00078010216
36	0xbd251cec	-0.040310785
37	0x3cd1cfcc	0.02561178
38	0xbc4378b5	-0.011930634
39	0xbcdd72de	-0.027032312
40	0x3d69124e	0.056902222
41	0x3c6ef577	0.014584891
42	0xbd85dc1b	-0.065361224
43	0x3d6cac02	0.057781227
44	0xbd077a26	-0.033075474
45	0x3d00bde0	0.03143108
46	0x3dc0bf58	0.09411496
47	0xbd381998	-0.044946283
48	0x3cdd0632	0.026980493
49	0x3d248fc7	0.04017618
50	0xbca24e7f	-0.01981282
51	0x3daf675f	0.08564638
52	0x3b8b41dc	0.0042497944
53	0x3cc22354	0.023698486
54	0x3d4334c0	0.04765773
55	0xbc83dfe3	-0.016097968
56	0x3c2ae421	0.010430367
57	0x3d0b8a8b	0.03406767
58	0x3d2c632f	0.042086776
59	0xbd2c1d5b	-0.042020183
60	0x3d03722b	0.0320913
61	0x3d87f922	0.06639315
62	0x3d937382	0.07199766
63	0xbda78cb3	-0.08181133

bn1.running_mean f4 [64]
0	0x3e5b3d08	0.2141
1	0x3e561f44	0.20910364
2	0x3e86c093	0.26318797
3	0x3e1f4ed7	0.15557419
4	0x3e2cbdf6	0.1686934
5	0x3defd6d0	0.11710894
6	0x3e12cd4f	0.14336132
7	0x3e7aa009	0.24475111
8	0x3e382a6d	0.17984934
9	0x3e136a56	0.14396033
10	0x3e353e7b	0.17699616
11	0x3e0bf424	0.13667351
12	0x3e0aebfd	0.13566585
13	0x3e32ce13	0.17461424
14	0x3e18f1e0	0.14936018
15	0x3e4e1420	0.20124865
16	0x3e958fe9	0.29211357
17	0x3e869ec7	0.26293012
18	0x3e4d43b4	0.20045358
19	0x3e543873	0.20724659
20	0x3e0c1253	0.13678865
21	0x3e149614	0.14510375
22	0x3e391886	0.18075761
23	0x3e21e1f5	0.15808852
24	0x3e3e2246	0.18567762
25	0x3e8f5f13	0.28002223
26	0x3e5c88bf	0.2153654
27	0x3dcbb55b	0.099467
28	0x3e817084	0.25281155
29	0x3e531aea	0.20615736
30	0x3e027c04	0.1274262
31	0x3e28d6ed	0.16488238
32	0x3e37418b	0.17896096
33	0x3e3bdabd	0.18345161
34	0x3e3b3546	0.18282041
35	0x3e47aeb0	0.19500232
36	0x3e4a4c31	0.19755627
37	0x3e20bcf0	0.15697074
38	0x3e2e1949	0.17001833
39	0x3e50e1f9	0.20398702
40	0x3df4b6e1	0.11948944
41	0x3dd54536	0.104135916
42	0x3daaa1db	0.08331653
43	0x3e5e65bf	0.217185
44	0x3e649a58	0.22324502
45	0x3e04f699	0.12984695
46	0x3e5253d4	0.2053979
47	0x3e4c4e9c	0.19951862
48	0x3e01eb1c	0.12687343
49	0x3e0ecbfb	0.13945
50	0x3e370767	0.17873918
51	0x3e4a0e5a	0.19732037
52	0x3e613126	0.21991405
53	0x3e108dfd	0.14116664
54	0x3e593557	0.21211754
55	0x3e375a15	0.17905457
56	0x3e50c172	0.20386294
57	0x3e1a9be3	0.15098529
58	0x3e32abfd	0.17448421
59	0x3e5b3f87	0.21410953
60	0x3de73f4a	0.11291368
61	0x3e33ac6e	0.17546245
62	0x3e4c1148	0.19928467
63	0x3e1fbce3	0.15599398

bn1.running_var f4 [64]
0	0x3e02847c	0.12745851
1	0x3e315820	0.17318773
2	0x3e120c2c	0.14262456
3	0x3d7438c9	0.059624467
4	0x3daf8c2e	0.08571659
5	0x3d0ad9d8	0.03389916
6	0x3d74eb82	0.05979491
7	0x3dc73189	0.09726245
8	0x3e268ed4	0.16265422
9	0x3d234118	0.039857
10	0x3ded7724	0.1159499
11	0x3d20bb49	0.03924111
12	0x3d0a93a3	0.033832204
13	0x3e5b88b4	0.21438867
14	0x3d38faa5	0.04516091
15	0x3e03719b	0.12836306
16	0x3ece029f	0.40236375
17	0x3e061852	0.13095215
18	0x3d9b344c	0.07578334
19	0x3e0067b4	0.1253956
20	0x3d4f1084	0.05055286
21	0x3d8b5c47	0.0680471
22	0x3d9dc83d	0.07704208
23	0x3d0aa058	0.033844322
24	0x3da02a28	0.07820541
25	0x3e511a49	0.20420183
26	0x3df04235	0.11731378
27	0x3c9ea964	0.019367881
28	0x3e457d48	0.19286072
29	0x3e61e467	0.22059785
30	0x3cf806da	0.030276705
31	0x3d2e2c5d	0.042522777
32	0x3d7a1e74	0.0610642
33	0x3e44e805	0.19229133
34	0x3dd04758	0.10169858
35	0x3e54a72d	0.20766897
36	0x3e3ad053	0.18243532
37	0x3d2786e5	0.04090013
38	0x3d866140	0.06561518
39	0x3d84f406	0.06491856
40	0x3d43937d	0.047748078
41	0x3d2c7991	0.042108122
42	0x3cb40919	0.021976994
43	0x3e0de940	0.13858509
44	0x3dcc6194	0.09979549
45	0x3cf7ecb2	0.030264232
46	0x3e0d53af	0.13801454
47	0x3dd090b5	0.10183851
48	0x3d823a12	0.06358732
49	0x3d192d4d	0.037396718
50	0x3e37b83d	0.17941375
51	0x3d7b0a43	0.061289083
52	0x3e1ad107	0.151188
53	0x3de0303d	0.10946701
54	0x3e0d14aa	0.13777414
55	0x3dcb5e7b	0.0993013
56	0x3e0bae7c	0.1364078
57	0x3da71ff7	0.08160394
58	0x3d81c57a	0.06336494
59	0x3dbcae44	0.09212926
60	0x3cf37184	0.029717214
61	0x3df7ada2	0.12093665
62	0x3e0dae43	0.13836007
63	0x3d3bd949	0.045861516

conv2.bias f4 [64]
0	0x3af3f334	0.0018611909
1	0xbd8932e0	-0.06699157
2	0x3c6b57c8	0.01436419
3	0xbcab000d	-0.020874048
4	0x3ac23824	0.0014817757
5	0xbc59fb42	-0.013304533
6	0xbd1f3ef5	-0.0388784
7	0x3d08d195	0.033402998
8	0xbcceb4e9	-0.025232749
9	0x3d41f032	0.04734821
10	0x3bf6b03f	0.0075283344
11	0x3d02c469	0.031925593
12	0xbcfb2546	-0.030657422
13	0xbd8a6e2b	-0.06759294
14	0xbd407e6e	-0.046995573
15	0xbd7016fd	-0.058615673
16	0xbd25be11	-0.040464465
17	0x3d0800cf	0.033203896
18	0x3c5e25ac	0.013558786
19	0x3cbdab64	0.023153014
20	0x3d46be5b	0.04852138
21	0x3c2095a7	0.009801305
22	0x3c4ccb52	0.012499647
23	0xbd55bd02	-0.052182205
24	0xbb497361	-0.0030738937
25	0x3d0525e7	0.03250685
26	0x3bce9451	0.006304302
27	0x3c26ad68	0.010173179
28	0xbbf9347a	-0.0076051326
29	0x3be85dad	0.007091245
30	0x3bdd6c48	0.006757293
31	0x3d841c6b	0.06450733
32	0x3c11a9f2	0.008890616
33	0x3d711840	0.058861017
34	0xbd38482d	-0.044990707
35	0xbd123571	-0.035695497
36	0xbd81d5e5	-0.06339625
37	0x3c79904e	0.015232159
38	0xbccdb940	-0.025112748
39	0xbc188864	-0.009309862
40	0x3c88e37e	0.01671004
41	0xbd68fcde	-0.056881778
42	0xbceb18a6	-0.028698277
43	0xbcbb9e66	-0.022902679
44	0xbd34e800	-0.044166565
45	0x3da5166f	0.080609195
46	0xbcd01f9b	-0.025405696
47	0xbb9e3169	-0.0048276675
48	0xbbb70adb	-0.005586011
49	0xbd9a1ad8	-0.07524651
50	0x3c82c570	0.015963286
51	0xbb4baab7	-0.0031077096
52	0xba3def2d	-0.0007245418
53	0xbd3356ba	-0.04378388
54	0xbbad587e	-0.00529009
55	0xbd0c4135	-0.034241874
56	0xbd7cba70	-0.06170124
57	0xbda97730	-0.08274686
58	0x3ccdc1f4	0.025116898
59	0xbcfd0ac0	-0.030888915
60	0xbb5d1723	-0.0033735714
61	0xbd032612	-0.03201873
62	0x3c8d8e66	0.017279815
63	0x3ca90e06	0.02063657

conv2.lin.weight f4 [64, 64]
0	0xbd038d47	-0.032117154
1	0xbe1b9ccf	-0.15196536
2	0x3e3d8048	0.18505967
3	0x3d48aeae	0.048994713
4	0xbc8f5e5f	-0.017501054
5	0x3de91865	0.11381606
6	0x3e2f0d66	0.17094955
7	0xbcad2c82	-0.021139387
8	0x3d6958c0	0.056969404
9	0x3de6f0eb	0.1127642
10	0xbe35578d	-0.17709179
11	0xbe2942c6	-0.16529378
12	0x3dd315af	0.1030687
13	0x3d3b8495	0.045780737
14	0x3e86144a	0.26187354
15	0x3d6cc85c	0.057808265
16	0x3ccc323a	0.024926294
17	0xbe2249d8	-0.15848482
18	0x3ae35f43	0.0017347116
19	0x3e2ad99a	0.16684571
20	0x3c36d0e5	0.011158203
21	0x3d9eb0b6	0.07748549
22	0x3e4298ab	0.1900355
23	0xbda67f7c	-0.081297845
24	0x3d77ed62	0.06052912
25	0xbe7d24e4	-0.24721104
26	0xbd2dd4af	-0.04243916
27	0xbd5fc98c	-0.05463557
28	0xbe6923b9	-0.22767533
29	0xbe399f11	-0.18127085
30	0xbe37ce66	-0.17949829
31	0x3e42df6e	0.19030544
32	0x3e0b78ee	0.1362035
33	0x3d62fb18	0.055415243
34	0xbe0b2559	-0.13588466
35	0xbe29a917	-0.16568409
36	0xbe725202	-0.23664096
37	0xbe6d118c	-0.23151225
38	0xbe372db5	-0.1788853
39	0xbe4a7613	-0.19771604
40	0x3dbda46b	0.09259876
41	0xbddd8428	-0.108162224
42	0xbda33a24	-0.07970074
43	0xbcaf6a5b	-0.021413019
44	0x3d73dc4e	0.05953627
45	0x3d4bc89c	0.049751863
46	0x3e2ce3f1	0.16883828
47	0x3db0f904	0.08641246
48	0x3d66bc22	0.05633176
49	0x3c391c98	0.011298321
50	0x3e14033a	0.14454356
51	0x3dadb236	0.08481257
52	0x3da87f73	0.08227434
53	0xbe380dce	-0.17974016
54	0x3d23c013	0.039978098
55	0xbdaff934	-0.085924536
56	0xbe2916c9	-0.16512598
57	0x3e039643	0.12850289
58	0x3e18ce07	0.14922343
59	0x39dbd9a0	0.00041933078
60	0xbd4f4b3e	-0.050608866
61	0xbe0c26f2	-0.13686731
62	0x3d0ff893	0.03514917
63	0xbe435126	-0.19073924
64	0xbba817fb	-0.005129812
65	0x3e048ce1	0.12944366
66	0x3dda00f1	0.10644711
67	0xbd9b3325	-0.075781144
68	0xbde3fe6e	-0.11132513
69	0xbe06be41	-0.13158514
70	0xbe31223f	-0.1729822
71	0x3e6d519e	0.23175666
72	0xbe442fa1	-0.19158794
73	0x3e01d6e3	0.12679629
74	0xbe0c8864	-0.13723904
75	0x3dec3748	0.115339816
76	0xbe214c2c	-0.15751714
77	0x3e2c8824	0.16848809
78	0xbe5c13f8	-0.21491992
79	0x3e1381b6	0.1440495
80	0xbcbd90a5	-0.023140261
81	0xbe1d529f	-0.15363549
82	0xbe44fd76	-0.19237313
83	0x3d23dcd8	0.040005535
84	0x3e573d43	0.21019463
85	0x3de6359e	0.112406954
86	0xbd088eb7	-0.03333923
87	0x3d83ca34	0.064350516
88	0x3e3eae67	0.18621217
89	0xbe2011a0	-0.15631723
90	0x3dcd595b	0.10026809
91	0xbe09b33c	-0.13447279
92	0xbddda633	-0.108227156
93	0x3d12e317	0.0358611
94	0xbcfd366a	-0.030909736
95	0x3e442170	0.1915338
96	0x3ce6c131	0.028168293
97	0xbe56aef1	-0.20965172
98	0xbde4a97d	-0.1116514
99	0xbde8a3d5	-0.113593735
100	0xbc223366	-0.00989995
101	0x3d297c07	0.041378047
102	0x3d9a6b4f	0.07539999
103	0xba2c9606	-0.00065836345
104	0x3e0757ae	0.13217041
105	0x3d972b12	0.07381262
106	0x3db8de55	0.090267815
107	0x3e4bef54	0.19915515
108	0x3e0f3865	0.13986357
109	0x3e2d8fbb	0.1694936
110	0xbe4ffe85	-0.20311935
111	0x3e28d3bb	0.16487019
112	0xbe34a878	-0.1764239
113	0x3daae7ee	0.08345018
114	0xbd5e5bca	-0.054286756
115	0x3df70823	0.12062099
116	0xbd9e54b1	-0.07730997
117	0x3d4e8f53	0.050429653
118	0xbd72273e	-0.059119456
119	0x3d93da2c	0.07219347
120	0x3e21960a	0.15779892
121	0x3da90edb	0.082547866
122	0x3e40e511	0.18837382
123	0xbe1d58de	-0.15365931
124	0xbe35bc44	-0.17747599
125	0xbc1731fa	-0.009228224
126	0x3d8e541a	0.06949635
127	0x3b221966	0.0024734377
128	0xbcc0ade5	-0.02352042
129	0x3cc870ea	0.024467904
130	0x3cf82dce	0.030295279
131	0xbe5f133a	-0.21784678
132	0x3e36ce48	0.17852128
133	0x3dfb25a9	0.122630425
134	0xbe0642ac	-0.13111371
135	0xbdea85fd	-0.114513375
136	0xbd483171	-0.048875276
137	0x3cb07fb5	0.02154527
138	0xbdf420a1	-0.11920286
139	0x3d025c2a	0.031826176
140	0x3e1bb760	0.15206671
141	0x3e2a5492	0.16633824
142	0xba7948b9	-0.0009509433
143	0x3deab491	0.114602216
144	0xbe5795b1	-0.21053196
145	0x3e0969f3	0.13419323
146	0xbe5825e6	-0.21108207
147	0xbe6fbf75	-0.23412879
148	0xbbe3280c	-0.006932264
149	0x3d8331d6	0.0640599
150	0xbdad629a	-0.084660724
151	0x3d600668	0.05469361
152	0x3db2601b	0.08709737
153	0x3d9298ae	0.071580276
154	0x3e133092	0.14373997
155	0x3e1dc2ad	0.15406294
156	0x3e209028	0.15679991
157	0x3e3dc94d	0.18533821
158	0x3e133619	0.14376105
159	0x3e383b63	0.17991404
160	0xbda8829e	-0.08228038
161	0x3df80103	0.12109568
162	0xbd37a582	-0.044835575
163	0xbdc45f13	-0.095884465
164	0xbe56d471	-0.20979477
165	0x3e16c804	0.14724737
166	0x3d00acef	0.031414922
167	0xbcf95908	-0.030437961
168	0xbdec4940	-0.11537409
169	0xbd0e403d	-0.03472923
170	0xbd3d0428	-0.04614654
171	0x3e02c33c	0.12769789
172	0xbd33ef29	-0.043929253
173	0x3e7a6321	0.24451877
174	0xbcc449fd	-0.023961062
175	0xbccae6a0	-0.024768174
176	0xbd34acdb	-0.04411016
177	0xbdab3238	-0.08359188
178	0x3bc742cc	0.006080961
179	0x3dde751a	0.10862179
180	0xbdf29719	-0.11845226
181	0xbbbe9906	-0.0058165817
182	0xbe70da2c	-0.23520726
183	0xbe5afb4b	-0.21384923
184	0x3dfaaa8d	0.12239561
185	0xbdad5700	-0.084638596
186	0xbae00587	-0.0017091491
187	0xbc8fa103	-0.017532831
188	0xbae0b57a	-0.0017143928
189	0x3c7a260b	0.015267859
190	0x3e304b3d	0.17216201
191	0xbe1ca598	-0.15297544
192	0xbe6963fa	-0.22792044
193	0xbe220af0	-0.15824485
194	0xbdb33990	-0.087512136
195	0x3df68c78	0.12038511
196	0xbc5b5b26	-0.013388431
197	0x3e123ac2	0.14280227
198	0xbe036778	-0.12832439
199	0xbe30acb5	-0.17253383
200	0xbdcfd26b	-0.10147556
201	0xbe84b2d9	-0.259177
202	0xbd597e03	-0.05309869
203	0xbe5cd8e8	-0.21567118
204	0x3cb7930c	0.022408985
205	0x3d8bab83	0.06819823
206	0xbd4a416a	-0.04937879
207	0xbe3372fd	-0.17524333
208	0xbbfaff36	-0.007659818
209	0x3d6ac7c2	0.05731941
210	0x3dd6758e	0.104716405
211	0xbab0be07	-0.0013484367
212	0x3bcb1d12	0.006198534
213	0x3e4c7ace	0.19968721
214	0xbe42c396	-0.19019923
215	0xbdd33aa5	-0.1031392
216	0x3e199194	0.1499694
217	0xbd6f4a62	-0.058420546
218	0xbe0c0514	-0.13673812
219	0x3e3ae8ba	0.1825284
220	0xbe3cea05	-0.18448646
221	0xbde4ecc6	-0.111779734
222	0x3e0473ef	0.1293485
223	0x3d9986c9	0.07496411
224	0xbd8f4880	-0.0699625
225	0x3dd82b46	0.10555129
226	0xbe195c1b	-0.14976542
227	0xbe54e652	-0.20790985
228	0xbdb07b6a	-0.08617289
229	0x3b36a971	0.002787199
230	0xbe1ad5ef	-0.15120672
231	0x3d923d50	0.07140601
232	0x3d2d08f4	0.042244866
233	0x3ceed913	0.029156243
234	0x3d98e98e	0.07466422
235	0xbdf08d87	-0.11745744
236	0x3cb59f6d	0.022170747
237	0x3d8bc2c3	0.06824257
238	0xbe37403b	-0.17895596
239	0xbd74f42b	-0.05980317
240	0x3d3f5b37	0.04671785
241	0xbe41c5b9	-0.18923081
242	0xbe2a4375	-0.16627295
243	0xbe126b84	-0.14298826
244	0xbe3fc515	-0.18727525
245	0xbddc9431	-0.10770453
246	0x3de58afc	0.1120815
247	0x3d95f478	0.07322019
248	0xbe48fb98	-0.19627225
249	0xbe73c744	-0.23806483
250	0x3dc79ac8	0.09746319
251	0xbe0616e7	-0.13094674
252	0x3dc21087	0.094758086
253	0x3e3e799e	0.18601081
254	0x3d9f0c2b	0.07765993
255	0xbd1a79cb	-0.037713807

bn2.weight f4 [64]
0	0x3f806144	1.0029683
1	0x3f859dac	1.0438743
2	0x3f8327df	1.0246543
3	0x3f813ec6	1.0097282
4	0x3f7d9fef	0.99072164
5	0x3f837af5	1.0271899
6	0x3f823440	1.0172195
7	0x3f7ffef5	0.9999841
8	0x3f7dc3eb	0.9912707
9	0x3f78f8b0	0.97254467
10	0x3f7c0796	0.98449075
11	0x3f726db4	0.94698644
12	0x3f7a0e88	0.9767842
13	0x3f81b8f6	1.0134571
14	0x3f82e7d3	1.0226997
15	0x3f790026	0.9726585
16	0x3f771e58	0.96530676
17	0x3f7fcbd3	0.99920386
18	0x3f80b7e3	1.0056118
19	0x3f80cb2f	1.0062007
20	0x3f82432b	1.0176748
21	0x3f81e1cf	1.0147036
22	0x3f845cd7	1.0340832
23	0x3f7df884	0.9920733
24	0x3f7b0903	0.98060626
25	0x3f8288ba	1.0197976
26	0x3f818bd0	1.0120792
27	0x3f833882	1.025162
28	0x3f7accbf	0.9796867
29	0x3f8114df	1.0084494
30	0x3f7997cf	0.97497267
31	0x3f79753c	0.9744451
32	0x3f7788f5	0.96693355
33	0x3f7ab9e3	0.9793989
34	0x3f826179	1.0185996
35	0x3f845721	1.033909
36	0x3f809202	1.0044558
37	0x3f842bd7	1.0325879
38	0x3f7cc58a	0.9873892
39	0x3f7515a4	0.95736146
40	0x3f7b1e5e	0.9809321
41	0x3f83b570	1.0289745
42	0x3f8093e7	1.0045136
43	0x3f834227	1.0254563
44	0x3f75b11b	0.95973366
45	0x3f77af3e	0.96751773
46	0x3f8307c8	1.023675
47	0x3f7b3799	0.9813171
48	0x3f8036c8	1.0016718
49	0x3f7ebdbc	0.9950826
50	0x3f6efbc1	0.93352896
51	0x3f7ac5ba	0.97957957
52	0x3f797300	0.974411
53	0x3f843441	1.0328447
54	0x3f7eea74	0.995765
55	0x3f7e7c56	0.9940847
56	0x3f84c7a2	1.0373423
57	0x3f7bc627	0.9834923
58	0x3f828981	1.0198213
59	0x3f78afab	0.9714305
60	0x3f802eb9	1.0014259
61	0x3f81df8a	1.0146344
62	0x3f7fd74b	0.99937886
63	0x3f7f6583	0.9976427

bn2.bias f4 [64]
0	0x3d53a348	0.05166939
1	0xbc9ed022	-0.019386355
2	0x3defc627	0.117077164
3	0x3d579065	0.05262794
4	0x3de62431	0.11237372
5	0x3d85a80b	0.06526192
6	0xbd47a289	-0.04873899
7	0x3cab8f67	0.020942403
8	0xbd1e875b	-0.038703304
9	0x3dd8cfde	0.105865225
10	0x3d8771f1	0.066135295
11	0xbd01af11	-0.031661097
12	0xbddaf600	-0.10691452
13	0xbcbe3441	-0.023218276
14	0xbd2020ae	-0.039093666
15	0xbd51fae5	-0.051264662
16	0x3c3b2077	0.011421314
17	0x3ddbbf70	0.10729873
18	0xbd4a6e85	-0.049421806
19	0x3e033fb0	0.12817264
20	0x3a80d950	0.0009830389
21	0x3d94a7d2	0.07258572
22	0x3df37d5c	0.11889145
23	0xbd1bc0fa	-0.038025834
24	0x3dc4b140	0.0960412
25	0xbd8646a2	-0.06556441
26	0xbdd3a9c5	-0.10335115
27	0x3dac3124	0.0840781
28	0x3ce2b8bd	0.02767598
29	0x3d4582f5	0.048220593
30	0xbd94de26	-0.07268934
31	0x3dcedcc5	0.10100702
32	0x3da1ac7d	0.07894228
33	0x3c959168	0.018257812
34	0xbd5dcce5	-0.05415048
35	0x3da73dbc	0.08166072
36	0x3d20a1bc	0.039216742
37	0x3dadb8bd	0.08482502
38	0x3d94bba9	0.07262356
39	0xbdf895ce	-0.12137948
40	0xbcfdc971	-0.030979844
41	0x3d652a12	0.055948325
42	0x3d0be662	0.034155257
43	0x3c2b6014	0.0104599185
44	0xbb5b4b9d	-0.0033461817
45	0xbdcfa70e	-0.10139285
46	0x3ce80f63	0.02832765
47	0x3d8d7b89	0.06908328
48	0x3dd194d6	0.10233466
49	0x3cc78a5c	0.024357967
50	0x3da17ee9	0.07885534
51	0x3d8984ff	0.0671482
52	0xbdb4faef	-0.08836924
53	0xbc18c36c	-0.009323936
54	0x3d79b5de	0.060964458
55	0x3dd455c9	0.10367925
56	0x3ca07012	0.01958469
57	0xbbe72653	-0.007054129
58	0xbdda20bf	-0.10650777
59	0x3b5a5ac0	0.0033318251
60	0x3c4687b5	0.012117316
61	0x3dfa48e1	0.12220932
62	0x3db79bb1	0.08965243
63	0x3d7a2c84	0.06107761

bn2.running_mean f4 [64]
0	0x3ede7bce	0.4345383
1	0x3eaad56f	0.33365962
2	0x3ea059b0	0.31318426
3	0x3ebba07e	0.36645883
4	0x3ea1d3cf	0.3160691
5	0x3eb2a1f0	0.34889174
6	0x3eab93d6	0.33511227
7	0x3f0b0a1b	0.54312295
8	0x3eeb9ea7	0.4601948
9	0x3f20ced9	0.62815624
10	0x3e9645e9	0.29350212
11	0x3ea37404	0.3192445
12	0x3eb16d9a	0.34653932
13	0x3eaff7c5	0.3436872
14	0x3e79764b	0.24361531
15	0x3ec4b52b	0.3841947
16	0x3e94d564	0.29069054
17	0x3ee0b694	0.43889296
18	0x3e9c9013	0.3057867
19	0x3ee243e2	0.44192415
20	0x3efb1fd1	0.49047711
21	0x3eeac86a	0.4585603
22	0x3e9ad7c5	0.30242744
23	0x3eed788c	0.46381032
24	0x3f1318e4	0.57459855
25	0x3f1b152b	0.60579175
26	0x3e98691a	0.29767686
27	0x3ec57ad1	0.38570264
28	0x3eb0dd65	0.3454391
29	0x3e869248	0.2628348
30	0x3ebca5ce	0.3684525
31	0x3ecaa908	0.39582086
32	0x3ec29904	0.38007367
33	0x3eb2b0b5	0.34900442
34	0x3e827384	0.25478756
35	0x3e61bcd5	0.2204469
36	0x3ec35c58	0.3815639
37	0x3ebae1ab	0.36500296
38	0x3ea93f34	0.33056033
39	0x3ee45be9	0.44601372
40	0x3e9012a6	0.28139228
41	0x3e4a7f49	0.19775118
42	0x3ea8eea4	0.32994568
43	0x3e897a49	0.2685111
44	0x3e9d4b8f	0.3072171
45	0x3f0790cc	0.5295532
46	0x3e93e6c8	0.2888701
47	0x3f09e1fe	0.5386046
48	0x3eaf8927	0.34284326
49	0x3e4efa1d	0.20212598
50	0x3ef586a8	0.47954297
51	0x3ec1bf79	0.37841395
52	0x3eb5c440	0.3550129
53	0x3e395bdb	0.18101446
54	0x3e9f3e91	0.31102422
55	0x3e9992cc	0.2999481
56	0x3e6c9f04	0.23107535
57	0x3e42a77c	0.19009203
58	0x3ebd8e8f	0.37022826
59	0x3eb6d6d4	0.35710776
60	0x3e8b4daf	0.27207705
61	0x3e8aa553	0.27079257
62	0x3ee9d673	0.45671424
63	0x3ece4d9c	0.40293586

bn2.running_var f4 [64]
0	0x3ed12531	0.40848687
1	0x3e83c0db	0.25733075
2	0x3e3635d2	0.17793968
3	0x3e469666	0.1939331
4	0x3e78b33d	0.24287124
5	0x3edaab25	0.42708698
6	0x3e7481f4	0.23877698
7	0x3f65261d	0.8951128
8	0x3f6e33ae	0.93047607
9	0x3ff00c46	1.8753746
10	0x3e1800f3	0.14844112
11	0x3e1e9585	0.15486725
12	0x3e557e59	0.20848979
13	0x3eaeaf82	0.34118277
14	0x3e10d516	0.14143786
15	0x3f491881	0.78553015
16	0x3e87ca21	0.265214
17	0x3e9d3acb	0.30708918
18	0x3e2b40f8	0.16724002
19	0x3fa9966d	1.3249031
20	0x3ed1f787	0.4100916
21	0x3f35b568	0.7097993
22	0x3e2618f0	0.1622045
23	0x3ec962c7	0.39333174
24	0x3f6aa113	0.9165203
25	0x3f2caa1c	0.67447066
26	0x3e4b24b2	0.19838217
27	0x3efb2ae0	0.4905615
28	0x3e811274	0.2520939
29	0x3e1a2dce	0.15056536
30	0x3eee1bc7	0.46505567
31	0x3e648f46	0.2232028
32	0x3f03b609	0.5144964
33	0x3ea61467	0.3243744
34	0x3e164e2b	0.14678256
35	0x3de0458c	0.10950765
36	0x3f0fe663	0.5621092
37	0x3e89dba2	0.2692538
38	0x3e7d9a17	0.24765812
39	0x3eebb520	0.46036625
40	0x3e1f3044	0.15545756
41	0x3de76fc5	0.11300615
42	0x3e98e9cb	0.2986587
43	0x3e13892f	0.144078
44	0x3ec4d74b	0.38445505
45	0x3f09b9ad	0.53798944
46	0x3e69e350	0.22840619
47	0x3edb184b	0.42791972
48	0x3e79f8ad	0.24411269
49	0x3e01d94d	0.1268055
50	0x3eac38f7	0.3363721
51	0x3e843ecd	0.25829163
52	0x3e9f2668	0.3108399
53	0x3e127fed	0.14306612
54	0x3e4e4312	0.20142773
55	0x3ea44bac	0.32088983
56	0x3e523d7d	0.20531268
57	0x3db0debe	0.08636235
58	0x3e88c4d6	0.26712674
59	0x3ef918d4	0.48651755
60	0x3e25e75a	0.16201535
61	0x3e535f8e	0.2064192
62	0x3f0bf967	0.5467743
63	0x3e66b81e	0.22531173

fc1.weight f4 [64, 64]
0	0x3d157043	0.036484014
1	0x3ddab328	0.106787026
2	0xbcbc8b2d	-0.023015583
3	0x3d832bfd	0.064048745
4	0xbd1cf767	-0.03832188
5	0xbd0fe7ca	-0.03513316
6	0x3de2189b	0.11039849
7	0x3ddd9129	0.10818703
8	0xbdb5b0cf	-0.08871614
9	0xbdd02082	-0.101624504
10	0xbd9c7e77	-0.07641309
11	0x3cf8c2e1	0.030366363
12	0xbccdafc0	-0.025108218
13	0xbaaa00eb	-0.0012970244
14	0x3cfa3e23	0.030547207
15	0x3cd95cb7	0.026533468
16	0x3dde920c	0.108677
17	0xbe1ab298	-0.1510719
18	0x3dd06fa1	0.101775415
19	0xbca40862	-0.020023528
20	0x3d0daaca	0.034586705
21	0xbccad8ec	-0.02476164
22	0xbd193d2a	-0.037411846
23	0x3c9c316e	0.019066539
24	0xbdd85e47	-0.10564857
25	0x3d4c871d	0.04993354
26	0x3dc0745b	0.09397193
27	0xbdb5910d	-0.08865557
28	0x3d9b22ff	0.07575034
29	0xba0781ee	-0.00051692023
30	0xbc7b07ee	-0.015321715
31	0xbddfcbcc	-0.10927543
32	0x3dc8484d	0.09779415
33	0xbdfef620	-0.12449288
34	0xbd932e8e	-0.07186614
35	0xbda83313	-0.08212867
36	0xbb7c892d	-0.0038533912
37	0x3d509611	0.050924364
38	0x3dd15597	0.10221403
39	0x3dc3982d	0.095505096
40	0xbcdebc1a	-0.027189303
41	0x3ce50853	0.02795807
42	0x3e00492a	0.1252791
43	0xbcf3730b	-0.029717943
44	0xbdb214bd	-0.08695362
45	0xbdab7997	-0.08372801
46	0x3d57ddb6	0.052701674
47	0xbc6c883d	-0.014436779
48	0xbdf2ce51	-0.11855758
49	0xbd89b47d	-0.067238785
50	0x3d8444c7	0.06458431
51	0x3ca3b1d7	0.019982262
52	0xbd4e71c2	-0.050401457
53	0x3d70f31d	0.0588256
54	0xbdd18ba2	-0.10231711
55	0x3bd5d802	0.0065259943
56	0xbd37c71f	-0.04486763
57	0x3d49b4d3	0.049244713
58	0xbd5d1655	-0.053976376
59	0xbdacfe61	-0.084469564
60	0x3e256aff	0.16154097
61	0x3dd9a7d4	0.10627714
62	0xbd3869ae	-0.04502266
63	0xbddfac2b	-0.1092151
64	0xbddbf54d	-0.10740147
65	0x3da8cfdd	0.08242772
66	0x3bb8f2a9	0.0056441617
67	0x3ce45838	0.027874097
68	0xbdc09a39	-0.09404416
69	0x3c952f7e	0.018211123
70	0xbc7bd0fc	-0.01536965
71	0x3da304c7	0.079598956
72	0x3de4726a	0.11154635
73	0xbd3c72b4	-0.046007827
74	0x3d2ee168	0.042695433
75	0xbc2fc63d	-0.010728416
76	0xbde5f0e8	-0.1122759
77	0xbdb4d843	-0.08830311
78	0xbcbcf6ff	-0.023066996
79	0x3da756ea	0.081708744
80	0xbd30a0cb	-0.043122094
81	0xbe012982	-0.1261349
82	0x3e083bb8	0.13304031
83	0x3ca29970	0.019848555
84	0x3cc72fa8	0.024314716
85	0x3d1cf20d	0.038316775
86	0x3dfd87e6	0.12379436
87	0xbd625fc9	-0.05526713
88	0xbd940dc5	-0.07229189
89	0xbda2897f	-0.079363815
90	0xbace0518	-0.0015718071
91	0x3da8e8f6	0.08247559
92	0x3d09ebd0	0.033672154
93	0x3d18ca2b	0.037302177
94	0x3cba3c0e	0.022733714
95	0x3da6005a	0.08105536
96	0x3d824fab	0.06362852
97	0xbda2e801	-0.079544075
98	0x3d8f1711	0.069868214
99	0x3d3520c1	0.04422069
100	0xbd81ca8b	-0.0633746
101	0xbd629d93	-0.055326056
102	0x3dde7bee	0.108634815
103	0xbce7f193	-0.028313434
104	0x3e236894	0.15957862
105	0x3ddb3416	0.10703294
106	0x3d3da5de	0.04630076
107	0x3e186831	0.14883496
108	0x3d55a9f4	0.052164033
109	0xbdf9b443	-0.12192585
110	0x3d495f55	0.04916318
111	0x3dc46236	0.09589045
112	0xbdc2a094	-0.09503284
113	0xbcd11b1a	-0.025525618
114	0x3de48bb3	0.11159458
115	0xbd7d98fb	-0.06191347
116	0x3d465ece	0.048430257
117	0xbd971659	-0.07377309
118	0x3c6611e3	0.01404235
119	0x3d5b3b72	0.05352349
120	0xbcff5b6b	-0.031171521
121	0x3d1c671d	0.038184274
122	0x3ada8711	0.0016672333
123	0x3d09e545	0.033665914
124	0xbce1c4ca	-0.027559657
125	0x3d1ea25f	0.038729068
126	0xbd5d5232	-0.054033466
127	0xbdb5dafc	-0.088796586
128	0xbe214b4c	-0.1575138
129	0xbce5077f	-0.027957676
130	0xbdff0d4c	-0.12453708
131	0xbdd7df75	-0.10540668
132	0x3d9aa1de	0.07550405
133	0x3d1121d9	0.03543267
134	0xbdd34a57	-0.103169136
135	0xbda7f36e	-0.082007274
136	0xbb206264	-0.0024472708
137	0xbdbb75bb	-0.09153315
138	0x3d094887	0.033516433
139	0x3df03998	0.11729735
140	0xbd53e048	-0.051727563
141	0xbd594a3c	-0.05304931
142	0xbdbc7619	-0.09202213
143	0xbdb5e1c8	-0.08880955
144	0x3d9c717c	0.07638833
145	0x3e160fc5	0.14654453
146	0xbd717bfe	-0.05895614
147	0x3dacec6b	0.08443531
148	0x3d2db489	0.0424085
149	0xbd9450c9	-0.07241971
150	0x3d7bf161	0.061509494
151	0x3cf840e1	0.030304374
152	0xbc10f361	-0.008847089
153	0x3d91f5b1	0.0712694
154	0xbd6d0aae	-0.057871513
155	0xbd4ba5dc	-0.049718723
156	0xbdb7055e	-0.089365706
157	0x3d98d92c	0.07463297
158	0xbdac5ea4	-0.08416489
159	0xbdc663d2	-0.09687008
160	0x3d6418dc	0.05568777
161	0xbdd53663	-0.10410764
162	0x3dfab952	0.12242378
163	0xbc8ad9b3	-0.01694951
164	0x3da88ae2	0.08229615
165	0xbdd73e79	-0.105099626
166	0x3d58d07a	0.052933194
167	0x3d5f558a	0.054524936
168	0xbd349ece	-0.04409676
169	0x3da8f007	0.082489066
170	0xbd993eab	-0.07482656
171	0x3dbbe47e	0.09174441
172	0xbac2dbae	-0.0014866495
173	0x3ddf018b	0.10888966
174	0x3df267ba	0.118361905
175	0x3c904bc3	0.017614251
176	0xbd965a79	-0.07341475
177	0x3d9443b7	0.07239478
178	0xbda45f77	-0.08026021
179	0xbd98fc2e	-0.074699745
180	0xbc79d99a	-0.015249634
181	0x3dcdaa91	0.100422986
182	0xbcf8d6c7	-0.030375851
183	0xbd1cf93a	-0.03832362
184	0x3cad456d	0.021151269
185	0xbd8d372f	-0.06895291
186	0xbd7a1ffe	-0.061065666
187	0x3daedf95	0.08538739
188	0x3cd78a02	0.026310924
189	0xbdecff04	-0.11572078
190	0xbdc7e2c5	-0.0976005
191	0x3d2b88b7	0.04187843
192	0x3c403272	0.011730777
193	0xbd211b89	-0.0393329
194	0xbdfc13b8	-0.123084486
195	0x3ca1e5aa	0.019762833
196	0xbe1b24bc	-0.15150732
197	0xbcc7aa39	-0.02437316
198	0xbdfd6799	-0.12373275
199	0xbd90c24d	-0.0706831
200	0x3da07ed8	0.078366935
201	0xbdcad91a	-0.0990469
202	0x3d624d97	0.055249777
203	0xbdce0e12	-0.100612774
204	0x3cff9a4a	0.0312015
205	0xbe23ae3a	-0.15984431
206	0x3db35510	0.08756459
207	0xbd681534	-0.056660846
208	0x3bf05c9a	0.0073352577
209	0xbdd30bdd	-0.10304997
210	0x3df769cc	0.12080726
211	0x3db89f87	0.090148024
212	0xbd334861	-0.043770198
213	0x3ba028f2	0.0048876936
214	0x3d3ba4f5	0.045811612
215	0xbde12888	-0.10994059
216	0xbcf88359	-0.030336069
217	0x3d2c1bd5	0.04201873
218	0x3d7a7416	0.061145864
219	0xbdb36435	-0.08759347
220	0x3c7c9e8e	0.015418662
221	0x3d0e2c94	0.03471048
222	0x3d9127ce	0.0708767
223	0xbdc57857	-0.09642094
224	0x3db98a51	0.09059585
225	0xbd558910	-0.052132666
226	0xbd9a43b4	-0.075324446
227	0x3d867ea3	0.06567123
228	0xbdda9b83	-0.10674193
229	0x3b29fca9	0.002593795
230	0x3d8235f3	0.06357946
231	0xbd288a22	-0.04114736
232	0xbe0049c8	-0.12528145
233	0x3db67545	0.08909086
234	0xbdd2f902	-0.10301401
235	0xbd8b5c74	-0.068047434
236	0xbd3b25b6	-0.04569026
237	0xbd743162	-0.059617408
238	0x3b76e6fe	0.0037674303
239	0xbd9d0222	-0.076664224
240	0xbdfedb53	-0.124441765
241	0xbde9cdce	-0.11416207
242	0xbe0e00d2	-0.138675
243	0x3c63d743	0.013906303
244	0x3d182547	0.037144925
245	0x3d837214	0.06418243
246	0xbd0ff0e7	-0.03514185
247	0xbd702205	-0.058626194
248	0x3d3c2b64	0.045939818
249	0xbd1d5c07	-0.038417842
250	0x3dbb03d2	0.09131588
251	0x3dc30f9d	0.09524462
252	0x3db52a74	0.08845988
253	0xbdd72b83	-0.10506346
254	0xbd63e2c4	-0.055636182
255	0xbc55d11e	-0.013050346

fc1.bias f4 [64]
0	0x3c700bbd	0.014651236
1	0x3dd8290a	0.105547026
2	0xbda9c867	-0.08290177
3	0xbd3d6ab1	-0.046244327
4	0x3ca939f9	0.020657526
5	0xbe1a8f29	-0.15093674
6	0xbdbdf11c	-0.092745036
7	0x3d070a07	0.032968547
8	0xbdfcab91	-0.12337411
9	0xbda7f35d	-0.08200715
10	0xbd71d42e	-0.05904024
11	0xbdbb318a	-0.09140308
12	0xbdb6946b	-0.08915027
13	0xbd6ae02f	-0.057342704
14	0x3b870dde	0.004121526
15	0xbdb942d0	-0.090459466
16	0xbdfc1ba1	-0.12309957
17	0xbdda3d83	-0.10656264
18	0xbdbb92bc	-0.09158847
19	0xbe410172	-0.18848208
20	0x3d7d137d	0.061786164
21	0xbd9ae836	-0.07563822
22	0x3e0062d2	0.12537697
23	0xbda40b22	-0.08009936
24	0xbd79fb7a	-0.061030842
25	0x3d87880a	0.06617744
26	0x3db82b31	0.08992613
27	0xbda8351d	-0.082132556
28	0x3d5a1e06	0.05325129
29	0x3c81f178	0.015862212
30	0xbd9d62d1	-0.07684863
31	0xbcaa56e0	-0.020793378
32	0x3d12f348	0.035876542
33	0xbd3ed630	-0.046590984
34	0xbe11dfb9	-0.142455
35	0xbdc8fe59	-0.09814138
36	0x3d8bea28	0.06831771
37	0xbddbf437	-0.1073994
38	0x3dc4df33	0.09612884
39	0xbdd01e76	-0.1016206
40	0x3ca433d4	0.020044245
41	0xbc342c9d	-0.010996965
42	0xbd9a121c	-0.07522985
43	0xbd010afe	-0.031504624
44	0xbe33ae60	-0.17546988
45	0x3d4d9a28	0.050195843
46	0xbc207271	-0.00979291
47	0x3d4573f1	0.048206273
48	0xbd38fbc1	-0.045161966
49	0x3c01c788	0.007921107
50	0x3a1e7176	0.00060441287
51	0x3d40e7b1	0.04709596
52	0xbc8af2ba	-0.016961444
53	0xbdc44afc	-0.09584615
54	0xbdb2f7bb	-0.08738657
55	0xbd83ba99	-0.06432075
56	0x3ce0ddbf	0.027449487
57	0xbd743e2e	-0.05962961
58	0x3cf38386	0.029725801
59	0xbe15bf3c	-0.14623731
60	0x3e0dfc4f	0.1386578
61	0xbe10851e	-0.1411328
62	0xbb7fec96	-0.0039050928
63	0xbe292d44	-0.16521174

bn3.weight f4 [64]
0	0x3f8be9c6	1.0930717
1	0x3f8cb8c1	1.0993882
2	0x3f8abd41	1.0839006
3	0x3f8d34e5	1.1031767
4	0x3f8fa3ea	1.1221898
5	0x3f91a842	1.1379473
6	0x3f8bc076	1.091811
7	0x3f8b36e9	1.0876132
8	0x3f8fa7af	1.1223048
9	0x3f8d2ae0	1.102871
10	0x3f8cf527	1.1012315
11	0x3f897786	1.0739601
12	0x3f881bab	1.0633444
13	0x3f88e12e	1.0693719
14	0x3f86eb19	1.0540496
15	0x3f8bb9a0	1.0916023
16	0x3f8fd9d5	1.1238352
17	0x3f8ad45e	1.0846059
18	0x3f8aae98	1.0834532
19	0x3f8c7406	1.0972908
20	0x3f9074b5	1.1285616
21	0x3f88ab3b	1.0677255
22	0x3f8c6f3a	1.0971444
23	0x3f909d75	1.1298052
24	0x3f8c7d37	1.0975713
25	0x3f8e5f81	1.1122895
26	0x3f899543	1.0748676
27	0x3f853590	1.0406971
28	0x3f8fd9db	1.1238359
29	0x3f8c0b56	1.094096
30	0x3f86dedf	1.0536765
31	0x3f880fb8	1.0629797
32	0x3f8cd971	1.1003858
33	0x3f8ef3d6	1.1168163
34	0x3f8f8c45	1.1214682
35	0x3f87fc9c	1.0623965
36	0x3f90e867	1.1320924
37	0x3f909e2f	1.1298274
38	0x3f8fab06	1.1224067
39	0x3f86afe3	1.0522426
40	0x3f899faa	1.0751851
41	0x3f8e0e89	1.1098186
42	0x3f8bd12e	1.0923212
43	0x3f86cbec	1.0530982
44	0x3f8b3beb	1.087766
45	0x3f8fae27	1.1225022
46	0x3f8858a3	1.065205
47	0x3f8d4d49	1.103921
48	0x3f8c78bc	1.0974345
49	0x3f8f1d4d	1.1180817
50	0x3f8d0ade	1.1018941
51	0x3f8b96fb	1.090545
52	0x3f8731af	1.0562037
53	0x3f8f2ce1	1.1185571
54	0x3f8a77a4	1.0817761
55	0x3f90e6cc	1.1320434
56	0x3f8b4dc6	1.088311
57	0x3f83cd1b	1.0296968
58	0x3f8b8042	1.0898516
59	0x3f86c761	1.0529596
60	0x3f8f13aa	1.1177876
61	0x3f91671b	1.135959
62	0x3f8b1a8f	1.086748
63	0x3f8352c3	1.0259632

bn3.bias f4 [64]
0	0xbe0d6ac8	-0.13810265
1	0xbd5a1c09	-0.053249393
2	0x3db68569	0.08912165
3	0x3dc602e5	0.09668521
4	0xbde7e332	-0.11322631
5	0xbda8bc09	-0.0823899
6	0x3dfb224a	0.122623995
7	0xbd25baa0	-0.040461183
8	0x3dd3e5e2	0.10346581
9	0xbd90f823	-0.07078578
10	0x3d81bda5	0.06335
11	0x3d388626	0.04504981
12	0xbcf74210	-0.030182868
13	0xbd172fc2	-0.03691078
14	0x3cd24d60	0.02567166
15	0xbcbc5507	-0.022989763
16	0xbdadd6f2	-0.08488263
17	0x3e1372a8	0.14399207
18	0x3d054d37	0.03254434
19	0x3c7dd0fe	0.015491722
20	0xbdeb4905	-0.11488537
21	0xbde0ba16	-0.10972993
22	0x3daa4f67	0.08315926
23	0xbdc2afbf	-0.09506177
24	0x3dae65a6	0.08515482
25	0x3c00415a	0.007828081
26	0x3d0e1bd3	0.034694504
27	0x3ceddfee	0.029037442
28	0xbd9061d8	-0.07049912
29	0xbdbb7e75	-0.09154979
30	0x3ca627ef	0.020282714
31	0x3d868757	0.06568783
32	0x3ce9f261	0.028557958
33	0xbd4624fe	-0.048375122
34	0x3d8e2dc8	0.06942326
35	0x3d932650	0.07185042
36	0x3d2bac3f	0.041912314
37	0xbdf31222	-0.11868693
38	0x3d2c8687	0.042120483
39	0x3db4f88a	0.088364676
40	0xbdad9b80	-0.08476925
41	0xbc0a75ab	-0.008450906
42	0x3df10d5b	0.117701255
43	0x3de18859	0.110123344
44	0xbdac69cc	-0.08418617
45	0x3b494d0f	0.0030716097
46	0x3d62cf89	0.055373702
47	0x3deb44fc	0.11487767
48	0xbcea0e6a	-0.028571326
49	0x3da5e2e3	0.08099916
50	0x3d936e68	0.07198793
51	0xbd41f14d	-0.047349263
52	0x3df5bc11	0.119987614
53	0xbd4f8c99	-0.050671194
54	0xbd49bc42	-0.049251802
55	0xbcbd3eac	-0.023101173
56	0xbd07969d	-0.03310262
57	0x3dd4240a	0.103584364
58	0xbdbfd5f4	-0.0936698
59	0xbd8145be	-0.063121304
60	0xbdcbf80a	-0.09959419
61	0x3d398dde	0.04530131
62	0x3da7d33d	0.081945874
63	0x3deabf76	0.114622995

bn3.running_mean f4 [64]
0	0x3fafba69	1.3728763
1	0x3ff08bc9	1.8792659
2	0x3fffb180	1.9976044
3	0x3fc1858c	1.511888
4	0x3fcf8c2f	1.6214656
5	0x3fd1a422	1.6378214
6	0x3f9bb9c0	1.2166061
7	0x3f8ecab2	1.1155608
8	0x3fa6f67a	1.3043969
9	0x3f72620a	0.94680846
10	0x3fc7e313	1.5616173
11	0x3f9dd35f	1.233013
12	0x40016349	2.021685
13	0x3fb94976	1.4475543
14	0x3ffdbb61	1.9822809
15	0x3fd8100a	1.6879895
16	0x3f7d20c3	0.98878115
17	0x3fb80c19	1.4378692
18	0x3fef59fe	1.8699338
19	0x3fe068e5	1.7532011
20	0x400bebf6	2.186277
21	0x3fe00bf4	1.7503648
22	0x3f8fb23e	1.122627
23	0x3fb209f0	1.3909283
24	0x3f9bc792	1.2170279
25	0x3fca4d2e	1.5804803
26	0x4007f7dc	2.1245031
27	0x3ff30647	1.8986291
28	0x3fe09f68	1.7548647
29	0x3f9cd901	1.2253724
30	0x3fd9e0b4	1.7021699
31	0x400c866f	2.1957052
32	0x3f950bfc	1.1644282
33	0x3ff4c03b	1.9121164
34	0x3f7624e5	0.96150047
35	0x3fb81936	1.4382694
36	0x3f7cc3bc	0.98736167
37	0x3fd6e478	1.6788473
38	0x4022c2da	2.5431428
39	0x3fe56a2e	1.7923028
40	0x3ffa6721	1.9562722
41	0x3fcebbc9	1.6151057
42	0x3ffe947b	1.9889063
43	0x40009b0c	2.0094633
44	0x3f8dc1a2	1.1074717
45	0x3fa77119	1.308139
46	0x3fe9b1e7	1.8257416
47	0x4006dcec	2.107234
48	0x3fe21948	1.7663965
49	0x3ffd50b6	1.9790256
50	0x3f948369	1.1602603
51	0x3fcaf202	1.5855105
52	0x3fc3547d	1.5260159
53	0x3ed4586f	0.4147372
54	0x3fd2c83f	1.646736
55	0x3fa055d3	1.2526191
56	0x3fdfb5b4	1.7477326
57	0x4001f3b5	2.0304997
58	0x3fc2610c	1.5185866
59	0x40031464	2.0481195
60	0x3fd98335	1.6993166
61	0x3f87a5e6	1.0597503
62	0x3f937077	1.1518697
63	0x3fca88c0	1.5822983

bn3.running_var f4 [64]
0	0x409ee911	4.9659505
1	0x4115a8a1	9.353669
2	0x40fae407	7.8403354
3	0x40c24fd8	6.0722466
4	0x4086841a	4.2036257
5	0x40c32b9a	6.0990725
6	0x405e2c0e	3.471439
7	0x402ab1e8	2.6671085
8	0x4082f461	4.0923314
9	0x40124ef3	2.2860687
10	0x40b835d1	5.7565694
11	0x4076c4f7	3.8557718
12	0x411aeb39	9.682427
13	0x40e598b3	7.17489
14	0x411f53c8	9.957954
15	0x40ad9af9	5.4251676
16	0x401c6f23	2.4442832
17	0x40ce89d9	6.454327
18	0x41009dd2	8.03853
19	0x40ee7aca	7.452489
20	0x40dda817	6.926769
21	0x40a9e5d7	5.3093066
22	0x4066d411	3.6066935
23	0x406e7609	3.7259543
24	0x408ad550	4.338539
25	0x40af1a4c	5.47196
26	0x4133dc56	11.241293
27	0x4138894c	11.53352
28	0x40c073b9	6.0141263
29	0x4063078f	3.5473363
30	0x40cc3957	6.3819995
31	0x40ccbefc	6.3983135
32	0x404fbfa3	3.2460716
33	0x4108197e	8.506224
34	0x40473644	3.112687
35	0x40a0f14a	5.029454
36	0x403779a0	2.8667984
37	0x40b630ce	5.6934576
38	0x414d395e	12.826506
39	0x40ed15c2	7.408906
40	0x40da1ebf	6.816253
41	0x40f9869e	7.797683
42	0x4108149b	8.505031
43	0x411f1ac7	9.944037
44	0x40664030	3.5976677
45	0x40870693	4.2195525
46	0x4115d099	9.363427
47	0x415e941d	13.91116
48	0x411b8524	9.720005
49	0x4148de68	12.554298
50	0x406ebb0c	3.7301664
51	0x40a93e89	5.2888837
52	0x40a2f247	5.092075
53	0x3f622334	0.88334966
54	0x40c4a717	6.1453967
55	0x4065b0b6	3.5889106
56	0x40a678f4	5.202265
57	0x41202310	10.00856
58	0x40874889	4.2276044
59	0x40eceffa	7.404294
60	0x40ac3208	5.3811073
61	0x40592e3a	3.3934464
62	0x403c7209	2.9444602
63	0x40ac2b95	5.38032
