tuning_results/best_models_during_tuning_lightning_logs/ratio_stand_GCN_best_model_logs/checkpoints/epoch=56-train_loss=1.04-train_f1=0.60-val_loss=1.99-val_f1=0.24.ckpt (torch, 109154 bytes, 38 tensors)

conv1.bias f4 [64]
000000 15 f9 a3 3c 2b 08 b2 3c a3 5b 16 3d 33 9c 22 bd
       0.020016233 0.02173241 0.036708485 -0.039699744
000010 f1 58 df 3c a3 01 5c 3c b1 8d 97 bc 7f 2d f7 3c
       0.02726409 0.013428125 -0.01850018 0.030173061
000020 9e b7 cd bc af 96 a5 3c ec 2c 2f bd af fd 69 3c
       -0.02511197 0.020213453 -0.04276745 0.014281674
000030 2c 68 57 bb f1 98 b2 bb 6b 3e e5 3c a5 b1 d7 3c
       -0.0032868488 -0.005450361 0.027983865 0.026329825
000040 0f b3 53 bc 74 52 62 bd 1f f2 57 bc 18 54 66 b9
       -0.012921109 -0.055254415 -0.013180285 -0.00021965837
000050 71 43 ed ba 6b 0c 40 bc 06 cb 6d 3b fc cc 70 3d
       -0.0018101764 -0.011721711 0.0036284341 0.05878924
000060 bc 09 ce bb e8 cb 7e 3c d9 85 00 bc f6 ef 02 3c
       -0.0062877815 0.015551545 -0.007844412 0.007991781
000070 b8 aa 8f 3c b6 85 9c 3b 6f 35 cc bc 48 a6 e4 3c
       0.01753746 0.004776682 -0.024927823 0.02791132
000080 50 c2 55 3d 07 36 ca bc 38 94 19 3d e6 f6 0b bc
       0.052187264 -0.024683965 0.037494868 -0.008542752
000090 db b3 82 bb 6c 28 47 3c 15 f0 40 3b a5 bc 15 bd
       -0.0039887256 0.012155633 0.0029439975 -0.03655686
0000a0 ea 63 87 bd 65 1e 48 bd 58 0c 91 bd 6a 14 8e 3d
       -0.06610854 -0.04885711 -0.070824325 0.069374874
0000b0 8f 43 3e bd 3c 87 18 bc f1 fa 6c bd 52 1c cf bc
       -0.046451148 -0.009309586 -0.057856504 -0.025282059
0000c0 9c f1 13 3c 9d c9 7e bc 71 a8 42 bc 56 16 98 3c
       0.009029772 -0.015550998 -0.01188098 0.018565338
0000d0 ad 6c 78 bc b0 ae 2d bd 7d 4d 0a 3c e9 84 84 bc
       -0.015162629 -0.042402923 0.008441326 -0.016176658
0000e0 50 2b 16 bd bc 4a 7b 3b 59 3c a9 3b 20 1b d4 3b
       -0.0366624 0.0038344106 0.0051646647 0.00647296
0000f0 84 35 10 bc cb ec 49 3c 37 5b 03 3c 63 5d 3a bd
       -0.008801822 0.012324522 0.008017353 -0.045499217

conv1.lin.weight f4 [64, 25]
000000 03 44 60 3d 71 51 95 bd 7a 14 3d be 25 24 4b bd
       0.05475236 -0.07290924 -0.18464842 -0.049595017
000010 96 b7 cb bd 20 67 e3 3c df ba 23 3c 7e 3a ac 3d
       -0.099471256 0.027759135 0.009993284 0.08409594
000020 46 24 69 3e f4 35 cf 3c a9 e9 94 bc 25 fb 18 3e
       0.22767743 0.025294282 -0.018177824 0.14939554
000030 ff 11 35 3e 94 09 b1 3c cf 3a 2e be 0e 84 fc bd
       0.17682646 0.021611013 -0.17014621 -0.12329875
000040 f4 09 12 3e 86 68 80 3e 94 16 3d be 1c 8a 5e 3e
       0.1426161 0.25079745 -0.18465644 0.21732372
000050 cd 91 7e be 69 cb 61 be 8d 68 55 3e c0 00 67 3e
       -0.24860306 -0.22050251 0.20840664 0.2255888
000060 4b b6 30 3e 45 bd 0d 3e 0a 79 71 be dd ed 4a 3e
       0.17257039 0.13841732 -0.23581329 0.198173
000070 f7 8a aa 3d f1 50 e3 bd c3 ea fd bd 3b f3 72 3e
       0.08327287 -0.11099423 -0.12398293 0.23725598
000080 c9 63 07 be d1 8e 6d be 9c 3a 38 be 49 cf bb 3d
       -0.13221659 -0.23199011 -0.17991108 0.09170396
000090 ca db 24 be 92 26 74 3d f1 07 d8 bd a4 80 55 bd
       -0.16099468 0.059607096 -0.1054839 -0.052124634
0000a0 90 de 43 3e 6d ac 97 3e 3f 82 c2 3d 96 df 0d be
       0.1912787 0.29623738 0.09497499 -0.13854823
0000b0 b8 c4 30 3d b3 3d c3 3d d5 d3 9c bd 75 af 2b 3e
       0.043156356 0.095332526 -0.07657591 0.1676615
0000c0 f7 bf 5a bc e6 02 32 be 8d 1f 28 be 29 b3 2c be
       -0.013351432 -0.17383918 -0.16418286 -0.16865219
0000d0 e3 7e 86 be 5d 50 8d bd 4b 83 ea bd 25 1b 80 bb
       -0.26268682 -0.06900094 -0.114508234 -0.003909486
0000e0 5c 73 6a be 00 80 68 be 3e ce 46 3e 5a cd a3 bd
       -0.22895569 -0.22705078 0.19414613 -0.07998152
0000f0 6a c5 4e 3e c4 13 49 be b9 51 f1 3c 7c cb b7 3d
       0.20192495 -0.19636446 0.029457914 0.089743584
000100 24 82 3b bc 5b a2 02 be b9 56 15 3e f4 0b 9b 3d
       -0.011444602 -0.12757246 0.14583863 0.07570639
000110 a1 91 68 bd be 17 9c 3d a9 18 20 3e 39 44 29 3e
       -0.056779508 0.07621716 0.15634407 0.16529931
000120 c7 51 74 be 50 d2 3d 3e 98 52 6b 3e 77 9e 12 3e
       -0.2385932 0.18537259 0.22980726 0.14318262
000130 ba f4 ea 3d e1 f8 ce 3d 6f 59 56 3d 45 42 52 3e
       0.11472459 0.10106064 0.052331384 0.20533092
000140 5f f2 2b be f1 58 da bd 92 0d 32 be fa 67 39 be
       -0.16791676 -0.106614955 -0.17387989 -0.1810607
000150 fd 73 c0 3c 64 78 f3 bd d2 dc 52 3d 9d 61 69 be
       0.023492808 -0.11888197 0.051480122 -0.22791143
000160 ac fc f3 bc 62 e2 85 3d d7 51 ca bd 5d ae f4 bc
       -0.02978357 0.0653732 -0.09878891 -0.0298683
000170 21 f5 1a be ab 93 97 3e d3 33 2f 3e 2b d9 1b 3e
       -0.15132572 0.2960485 0.17109613 0.15219562
000180 d3 47 07 be 9d 1c 61 3d 16 37 7e 3e 5c c5 d5 bd
       -0.13210993 0.05495893 0.24825701 -0.10438034
000190 4b f3 23 3e b9 89 3e 3e 08 89 8d bc 00 ea 0e 3e
       0.16010778 0.18607225 -0.017277256 0.13956451
0001a0 ef 49 b4 bc 34 60 69 3d b0 a6 57 be 69 c0 0b be
       -0.02200791 0.056976512 -0.2105968 -0.13647617
0001b0 58 07 8e 3d 07 a8 4d 3e 6f 4c 40 bd ac 27 b1 3d
       0.069349945 0.20083629 -0.046947893 0.08650145
0001c0 f7 11 5c be 89 ef 00 3c 84 43 d3 3c 16 fe b4 bd
       -0.21491228 0.00786961 0.02578903 -0.088375255
0001d0 10 93 af bd 23 c9 b8 bd 0e b7 90 be 3e bf b8 3b
       -0.08572972 -0.09022739 -0.2826466 0.005638032
0001e0 f4 85 09 3e ae 30 ec 3d 7d 01 c6 bc b2 ce 98 be
       0.13430005 0.115327224 -0.024170632 -0.29845196
0001f0 e1 e5 f1 bc 4e da 57 bd 5d 36 54 3e ce 6d df bd
       -0.02952856 -0.052698426 0.20723863 -0.109096155
000200 6e 5c ec bc ea d8 24 3e da 96 5b be a1 d1 6d 3e
       -0.028852668 0.16098371 -0.21444264 0.23224498
000210 72 05 41 be c1 a1 95 3d 72 4a be bc 96 1e 69 be
       -0.18849733 0.07306243 -0.023228858 -0.22765574
000220 13 be bf 3d b1 95 cc 3d 1a dd 22 3e 0c c2 d6 bc
       0.09362426 0.09989489 0.15904656 -0.026215576
000230 f1 c2 b6 3d 5e e4 64 3e d5 21 10 be 6b 44 68 be
       0.08923901 0.2235274 -0.14075406 -0.2268235
000240 68 b8 71 be 31 3c 2a be 4f 5c 85 bd 71 6d 3a 3e
       -0.23605502 -0.16624524 -0.06511747 0.18205811
000250 d6 c1 d8 3c 69 9c 8d 3e 66 0b 29 be 46 ae c1 bc
       0.026459616 0.27658394 -0.16508254 -0.02364267
000260 12 7d e5 3d d6 e2 a4 bb c7 3d 60 3e 5d fc f6 3b
       0.11205496 -0.0050319238 0.21898566 0.0075374083
000270 6f 41 4c be ac 64 55 be 49 28 5d 3e b2 0e a0 3d
       -0.19946836 -0.20839185 0.21597399 0.07815303
000280 de 07 08 3e c2 cd 16 be 69 f0 61 3e e2 a6 fe 3d
       0.13284251 -0.14726928 0.22064365 0.12434174
000290 10 59 ad bd b7 ec 80 3d 0d 70 14 be 7f 63 58 3d
       -0.08464253 0.0629515 -0.14495869 0.052829262
0002a0 f3 30 82 3c 42 c1 98 3e e3 02 30 3e dd 8e 56 3d
       0.015892481 0.29834944 0.17188601 0.05238234
0002b0 9a b8 3a be 73 d7 33 be 8c 19 64 3e 27 21 7e be
       -0.18234482 -0.17562656 0.2227537 -0.24817334
0002c0 2e 7c 5e be 91 17 16 3d 45 04 72 bc 5d b0 42 3e
       -0.21727058 0.03664357 -0.014771526 0.1901259
0002d0 57 1f 8a 3e 12 95 31 be d0 18 32 be fd ed 40 3c
       0.26977035 -0.17342022 -0.17392278 0.011775491
0002e0 f3 db 80 3e 96 d2 31 bb cc ba 16 3e 24 3d 2e 3c
       0.25167808 -0.0027133576 0.14719695 0.010634694
0002f0 02 f4 15 3d e1 25 c2 3d 1a 5f 7e be 61 da 79 bd
       0.036609657 0.09479881 -0.24840966 -0.060999278
000300 66 86 92 be f8 09 21 bd 32 81 11 be 4f 2b 21 be
       -0.28618163 -0.039316148 -0.1420944 -0.15739177
000310 1a e6 55 be 5f 19 32 3d 45 46 8b bc 5a 14 68 3d
       -0.20888558 0.043481227 -0.01700128 0.056660034
000320 34 07 90 3c 09 a4 6e 3e e3 67 f5 3d 0c 79 eb bd
       0.01758156 0.23304762 0.119827054 -0.11497697
000330 bc 1f 11 be 43 15 7c be 33 92 b9 3d 37 31 4a 3e
       -0.14172262 -0.24617486 0.090610884 0.19745336
000340 a2 02 62 3e 08 cf e6 bc 54 51 3f 3e fd ad 8d 3e
       0.22071317 -0.028174892 0.18683368 0.27671805
000350 c8 27 59 3e 43 55 9e 3e 82 3b 10 bd 78 4c 0c 3e
       0.21206582 0.30924425 -0.035213 0.13701046
000360 9b 7b 83 be 2e b4 dc 3d 63 0f 5c 3c 67 fc 17 be
       -0.2568024 0.10776554 0.013431403 -0.14842378
000370 d2 11 76 be de d6 7c bd 96 88 27 3e 3b 18 4d bb
       -0.24030235 -0.06172835 0.16360697 -0.003129496
000380 d6 2b 03 3e 6b 21 a3 3d 75 eb 28 be 49 dc 60 3b
       0.12809691 0.07965358 -0.1649607 0.0034310988
000390 8d ec 21 be 52 8a 68 3e 6f de fe 3d 7f 45 ee bc
       -0.15812893 0.22709015 0.124447696 -0.029085873
0003a0 f8 ae 90 bc 28 f6 46 3e 6a 2a 12 3e 25 3c 5e be
       -0.017661557 0.19429839 0.14273992 -0.21702631
0003b0 ee 80 43 3e 0d 3c fb 3d 85 43 15 3e ac 05 c8 bd
       0.19092152 0.12267313 0.14576538 -0.09766707
0003c0 2e 7a 50 be fc 5c 11 be 0a a9 3e 3e 4d 48 0e be
       -0.20359108 -0.14195627 0.18619171 -0.13894768
0003d0 24 bc 7e be 1b bc 43 be 3d 80 f6 bd 55 f0 2e 3e
       -0.24876457 -0.19114725 -0.12036178 0.17083867
0003e0 25 e0 10 be 2c 0a 6a 3e 3b 7c 87 3d bb b8 3d 3e
       -0.14148004 0.22855443 0.06615492 0.185275
0003f0 ec cd 0c be 82 63 58 3e ff d3 22 3e 97 da 52 3e
       -0.13750428 0.21131709 0.15901183 0.20591198

bn1.weight f4 [64]
000000 1d b9 7e 3f e4 e2 74 3f 4d d5 81 3f 07 6d 80 3f
       0.9950121 0.9565871 1.0143219 1.0033273
000010 82 c0 80 3f eb 70 7d 3f ec 3e 77 3f 09 d4 81 3f
       1.0058749 0.99000424 0.96580386 1.0142833
000020 78 4d 7f 3f 22 de 82 3f 0f d5 7c 3f 86 16 7d 3f
       0.9972758 1.022404 0.987626 0.98862493
000030 29 da 7f 3f 19 d7 79 3f 98 cd 7f 3f d3 da 81 3f
       0.9994226 0.9759384 0.99923086 1.0144905
000040 7b 6a 80 3f e2 bb 7f 3f cc ab 81 3f 6d 63 7f 3f
       1.0032495 0.9989606 1.0130553 0.99761087
000050 c1 08 7b 3f d7 5f 7a 3f 33 45 7d 3f 68 52 82 3f
       0.9806023 0.9780249 0.98933715 1.0181398
000060 66 22 79 3f aa a4 81 3f 77 ab 78 3f 9b 3c 81 3f
       0.9731811 1.0128376 0.97136635 1.009662
000070 d3 87 7f 3f 27 24 7d 3f 06 37 81 3f bf 20 76 3f
       0.99816626 0.9888329 1.0094917 0.96143717
000080 69 44 82 3f da a5 80 3f 48 89 81 3f 0d 8e 7f 3f
       1.0177127 1.0050614 1.012002 0.9982613
000090 12 0d 81 3f 70 db 7b 3f 74 92 7c 3f 26 20 80 3f
       1.0082114 0.9838171 0.9866097 1.0009811
0000a0 f9 3e 82 3f 05 4b 85 3f 29 4d 82 3f c1 2b 7b 3f
       1.0175468 1.0413519 1.0179797 0.9811364
0000b0 99 87 81 3f 04 ab 79 3f e8 ce 7f 3f dd e7 7f 3f
       1.0119506 0.97526574 0.9992509 0.9996317
0000c0 d2 18 75 3f 58 63 85 3f 99 02 7c 3f 20 05 83 3f
       0.95741 1.0420942 0.98441464 1.0235939
0000d0 bd 37 83 3f 26 92 7f 3f 73 b3 7e 3f 22 a4 7e 3f
       1.0251385 0.9983238 0.9949257 0.99469197
0000e0 5a 65 85 3f 4a 12 7a 3f 8e f4 7f 3f a4 c9 80 3f
       1.0421555 0.97684157 0.99982536 1.0061536
0000f0 a9 b8 7f 3f c4 35 80 3f a8 d8 7c 3f 40 27 82 3f
       0.99891144 1.0016408 0.9876809 1.0168228

bn1.bias f4 [64]
000000 a5 6a b2 3c e7 7c 2a 3d bd 1e 41 3c 57 8a 88 bc
       0.021779368 0.041623022 0.011787114 -0.016667528
000010 46 0b f7 bb fa 0f 49 bc 17 c2 61 bd 33 57 b1 bc
       -0.0075391857 -0.0122718755 -0.05511674 -0.021648025
000020 e0 54 f5 3c 26 fd 45 3d a7 aa 23 bb b4 18 43 3b
       0.029947698 0.048337124 -0.0024973543 0.0029769363
000030 65 e8 8f 3b 6c b1 cd 3c 3a 7f 2c 3c f2 56 0e bd
       0.0043917173 0.025109015 0.01052838 -0.034750886
000040 7d 63 42 3d 10 01 ac bd 60 9d 9e bc cb 23 56 3d
       0.04745816 -0.0839864 -0.019362152 0.05228023
000050 07 a7 2b 3c ac 96 8d 3c 62 f0 4f 3c b5 2b 1a bc
       0.010476834 0.01728376 0.012691589 -0.009409835
000060 29 96 f2 bb fc 20 50 3d 35 d4 09 3d aa 39 b8 3c
       -0.0074031544 0.050812706 0.033649642 0.022488434
000070 da 5c 8f 3d 00 37 2c bc 90 e5 af ba 56 2f b6 bb
       0.07000132 -0.01051116 -0.0013419855 -0.005559842
000080 3f 62 be bc e9 c8 11 bd 2f d2 66 3d 17 ce ea ba
       -0.023240207 -0.035591993 0.05635279 -0.0017914203
000090 f4 6b 23 bd f5 e9 d8 3c 4e 3b 4b bc e3 7f df bc
       -0.039897874 0.026478747 -0.012404276 -0.02728266
0000a0 ba aa 60 3d c8 59 54 3c f6 b2 86 bd 77 1c 68 3d
       0.054850318 0.012960859 -0.06577103 0.05666777
0000b0 66 9c 09 bd 7c ae 08 3d a6 41 c4 3d 77 91 3b bd
       -0.03359642 0.033369526 0.09582834 -0.045793023
0000c0 ec e9 d3 3c d8 cb 23 3d c3 fb 9d bc 2d 44 b3 3d
       0.025868379 0.039989322 -0.019285088 0.08753238
0000d0 0a 73 77 3b 00 0d b4 3c e1 71 3f 3d 56 9d 8c bc
       0.0037757778 0.021978855 0.046739463 -0.017164867
0000e0 2b 58 25 3c 53 a5 0c 3d 26 f5 29 3d 5c ac 32 bd
       0.010091822 0.034337353 0.041493557 -0.043621406
0000f0 f9 1e 03 3d 38 d2 8b 3d f2 2d 91 3d 49 f3 a7 bd
       0.03201196 0.068272054 0.070888415 -0.082007

bn1.running_mean f4 [64]
000000 66 12 5d 3e c6 4b 54 3e 26 0f 88 3e 5a d4 1d 3e
       0.2158905 0.2073203 0.26574057 0.15413037
000010 74 33 2b 3e 77 06 ef 3d e6 24 13 3e ba 09 7b 3e
       0.16718847 0.11671155 0.14369544 0.24515429
000020 3e 63 38 3e ae 95 13 3e 71 6c 33 3e 37 a1 0c 3e
       0.18006608 0.14412567 0.17521836 0.13733374
000030 92 0c 0a 3e eb 15 33 3e cd 62 18 3e 9b 37 4c 3e
       0.13481358 0.1748883 0.1488144 0.19943087
000040 fc 8a 94 3e 00 46 86 3e 01 b1 4d 3e d0 af 55 3e
       0.29012287 0.2622528 0.20087053 0.20867848
000050 c6 ec 0b 3e 33 12 13 3e 4e ce 38 3e 7e 20 22 3e
       0.1366454 0.14362411 0.18047449 0.15832707
000060 51 c0 3f 3e 53 6f 8d 3e 2e 5d 5c 3e b6 c0 cb 3d
       0.18725707 0.27623996 0.2151992 0.09948866
000070 48 19 81 3e ae da 52 3e 83 68 02 3e 01 be 28 3e
       0.252146 0.20591232 0.1273518 0.1647873
000080 b9 dc 36 3e f0 a9 3a 3e fa 33 3a 3e 73 75 46 3e
       0.17857637 0.18228889 0.1818389 0.19380741
000090 b1 03 4a 3e aa 59 21 3e e2 d3 2d 3e 7b 90 50 3e
       0.1972797 0.1575686 0.16975358 0.20367615
0000a0 cb 24 f3 3d fa 68 d5 3d fe 12 aa 3d 3c 6a 5c 3e
       0.11872252 0.10420413 0.08304404 0.215249
0000b0 2b 22 66 3e e0 82 05 3e 8d 42 52 3e ec 44 4d 3e
       0.22473972 0.13038206 0.205332 0.20045823
0000c0 67 58 02 3e 2f 62 0f 3e 8d bf 35 3e e3 67 4a 3e
       0.12729035 0.14002298 0.17748852 0.19766192
0000d0 e0 ab 5d 3e 06 66 11 3e 6a 12 56 3e 75 74 36 3e
       0.21647596 0.14199075 0.20905462 0.17817862
0000e0 44 aa 4f 3e 77 f5 18 3e 7d 6e 34 3e 22 31 5a 3e
       0.20279795 0.14937387 0.17620273 0.21307805
0000f0 c5 87 e7 3d 6a 57 33 3e d6 df 4b 3e e4 ea 1e 3e
       0.11305193 0.17513815 0.19909605 0.15519291

bn1.running_var f4 [64]
000000 00 d8 00 3e 3e e2 27 3e ed 2c 13 3e eb c0 70 3d
       0.12582397 0.16394898 0.14372607 0.05877773
000010 47 e1 ab 3d ef 63 08 3d 43 8c 75 3d c0 69 c7 3d
       0.083925776 0.03329843 0.059948217 0.09736967
000020 47 40 23 3e 8c 8a 23 3d 58 f8 e8 3d 45 2f 21 3d
       0.15942489 0.03992705 0.11375493 0.03935172
000030 c4 db 08 3d 76 f2 57 3e 0f 8b 37 3d 18 e7 00 3e
       0.03341271 0.21088585 0.04481035 0.12588155
000040 9b 80 c5 3e 2a 8f 05 3e db a1 99 3d ab 42 01 3e
       0.3857468 0.13042894 0.075015746 0.12623088
000050 81 22 4e 3d d9 c4 88 3d f2 ea 9c 3d 07 fa 0a 3d
       0.050325874 0.06678171 0.07662 0.03392985
000060 18 78 a1 3d f5 a7 4b 3e 6a 35 f0 3d 17 e8 9d 3c
       0.07884234 0.1988829 0.11728938 0.019275708
000070 00 2c 43 3e b0 d6 5a 3e 90 6f f6 3c 0d 28 2d 3d
       0.19059753 0.2137096 0.030082494 0.042274524
000080 60 0a 76 3d 6d 96 3a 3e 0e 33 cd 3d e7 d7 4d 3e
       0.060068488 0.18221445 0.100195035 0.20101891
000090 e4 78 36 3e b5 40 27 3d 3f e5 85 3d ea 17 84 3d
       0.17819554 0.040833194 0.06537866 0.06449874
0000a0 be a4 41 3d ce 09 28 3d 11 e6 b3 3c d5 19 08 3e
       0.04727625 0.041024975 0.02196029 0.13291104
0000b0 47 b6 cd 3d 51 73 f9 3c a2 f0 08 3e ca 83 d1 3d
       0.10044532 0.030450495 0.13373044 0.10230215
0000c0 4b 17 80 3d 03 47 19 3d 65 8a 2c 3e 76 f1 7a 3d
       0.06254443 0.037421238 0.16849668 0.06126543
0000d0 08 2c 15 3e 4a 64 e1 3d 4f 8b 06 3e ea 09 c9 3d
       0.14567578 0.11005457 0.1313908 0.09816344
0000e0 36 f2 0b 3e 1e 83 a5 3d 3c 63 83 3d d6 a4 bb 3d
       0.13666615 0.08081649 0.06415412 0.09162299
0000f0 29 8b f3 3c 20 0d ed 3d fe 87 0b 3e ed 0f 3a 3d
       0.029729443 0.11574769 0.13626096 0.045425344

conv2.bias f4 [64]
000000 e2 a5 ba 39 60 9e 89 bd 8a 85 84 3c 91 64 a7 bc
       0.00035600277 -0.06719661 0.016176958 -0.020433696
000010 d1 85 29 3b 61 67 4b bc f5 89 1e bd f6 8c f2 3c
       0.0025867114 -0.012414784 -0.038705785 0.029608231
000020 38 5a cd bc 5d cb 42 3d 00 29 ab 3b 5c 33 02 3d
       -0.025067434 0.047557224 0.0052233934 0.03178726
000030 51 fe f8 bc 82 34 8e bd da e6 40 bd 2d 4b 70 bd
       -0.030394705 -0.06943609 -0.047095157 -0.058665443
000040 cf 28 21 bd 63 95 06 3d 56 ca 62 3c 61 e6 b7 3c
       -0.03934556 0.03285731 0.013842186 0.02244872
000050 04 2e 44 3d d5 7d 01 3c 05 13 44 3c 46 2b 56 bd
       0.047895446 0.007903536 0.011967425 -0.052287363
000060 71 61 23 bb e5 09 04 3d 00 07 b4 3b a3 bc fb 3b
       -0.0024929906 0.032236 0.0054939985 0.0076823994
000070 9e 00 11 bc 6e 88 1c 3c 46 0f bf 3b d5 1c 81 3d
       -0.008850245 0.009554012 0.005830678 0.063043274
000080 7a 63 f9 3b e1 d9 71 3d 28 3f 3d bd 21 12 15 bd
       0.0076107355 0.059045676 -0.04620281 -0.036394242
000090 e6 25 83 bd e1 41 8c 3c 09 01 d6 bc 67 78 1a bc
       -0.06403713 0.017121257 -0.02612354 -0.00942812
0000a0 29 85 8d 3c d0 12 62 bd d7 2e f9 bc a4 f2 b6 bc
       0.01727541 -0.055193722 -0.030417843 -0.022332497
0000b0 ba c1 3a bd f7 e2 a8 3d 54 c4 e0 bc f0 27 90 bb
       -0.04559491 0.08246415 -0.027437367 -0.004399292
0000c0 33 81 c8 bb 4d fb 96 bd ff 5e 95 3c f8 23 49 bb
       -0.0061189174 -0.073721506 0.018233774 -0.0030691605
0000d0 7b c1 04 bb 64 ff 30 bd 95 7c 87 bb 0c 72 11 bd
       -0.0020256925 -0.04321231 -0.0041347244 -0.035509154
0000e0 0d 73 80 bd 00 5f ab bd c4 3c e0 3c 04 93 02 bd
       -0.06271944 -0.08367729 0.027372725 -0.031878486
0000f0 ef 46 31 bb 4d 0b 01 bd 5d 92 82 3c b8 f7 b2 3c
       -0.0027050336 -0.031504918 0.015938932 0.021846637

conv2.lin.weight f4 [64, 64]
000000 88 b8 0b bd 59 65 1b be dd db 3b 3e 7c b2 4c 3d
       -0.03411153 -0.1517538 0.1834559 0.049974903
000010 32 86 7e bc 96 06 e6 3d 30 7a 30 3e aa c8 ab bc
       -0.015534924 0.11231725 0.17234111 -0.020969708
000020 20 88 62 3d 34 fd e5 3d d0 b5 34 be f8 a5 29 be
       0.0553056 0.11229935 -0.17647481 -0.16567218
000030 52 67 d5 3d f4 98 33 3d 1d 0b 87 3e 84 91 6a 3d
       0.104200974 0.04384704 0.26375666 0.05726768
000040 2d f0 c6 3c c4 ca 21 be 77 30 61 39 88 c4 29 3e
       0.024284447 -0.15800005 0.00021475727 0.16578877
000050 b2 3e 4e 3c 5c 84 a0 3d b0 7f 44 3e 1e d9 a4 bd
       0.01258819 0.078377455 0.19189334 -0.08049224
000060 4c 67 76 3d 8e ba 7b be 04 c4 28 bd 9a 46 62 bd
       0.060157105 -0.24582884 -0.04120256 -0.055243112
000070 9b 5b 68 be 69 49 3a be b7 2b 37 be 52 85 44 3e
       -0.22691195 -0.18192066 -0.1788777 0.19191483
000080 aa 5e 0b 3e 4b de 60 3d 7c 2f 0b be c5 c9 2a be
       0.1361033 0.054899495 -0.13592333 -0.16678531
000090 05 97 72 be 6a b4 6d be 93 6f 37 be 0f 0e 49 be
       -0.23690422 -0.23213354 -0.17913656 -0.19634269
0000a0 6d 27 c1 3d 65 1e df bd b0 ae a2 bd 12 dd a5 bc
       0.09431348 -0.10894469 -0.07943475 -0.020247016
0000b0 b6 16 6f 3d 6e c1 4e 3d 1a 43 2c 3e 31 82 ad 3d
       0.05837127 0.050477438 0.16822472 0.08472098
0000c0 89 b9 5b 3d 45 66 27 3c 26 06 14 3e 1c a4 ae 3d
       0.053643737 0.010217254 0.1445547 0.08527395
0000d0 33 96 ab 3d b7 2f 36 be 16 48 1f 3d 3c 13 ae bd
       0.083782576 -0.1779164 0.038887106 -0.084997624
0000e0 08 23 29 be 32 90 03 3e 43 9b 18 3e 83 d8 cd 3a
       -0.1651727 0.12847975 0.14902978 0.0015704784
0000f0 cb 47 53 bd 81 58 0c be 3d a1 09 3d c4 d6 42 be
       -0.05158214 -0.13705637 0.033601034 -0.19027239
000100 20 95 ab bb 18 8e 05 3e 5c a9 da 3d 94 44 9a bd
       -0.005236283 0.13042486 0.10676834 -0.075326115
000110 b2 5a e6 bd e7 74 06 be b6 ee 30 be 1a 66 6c 3e
       -0.112477675 -0.13130532 -0.17278561 0.23085824
000120 89 77 43 be df eb 01 3e 6a 64 0d be da 4a ed 3d
       -0.19088568 0.12687634 -0.13807836 0.115865424
000130 bc 30 20 be 4c 72 2d 3e c5 e9 59 be 11 c2 12 3e
       -0.1564359 0.16938132 -0.21280582 0.14331843
000140 22 7f c1 bc af 90 1d be 3d ae 47 be b3 b2 24 3d
       -0.023620192 -0.15387224 -0.1950006 0.040209483
000150 3b 73 59 3e 7a 00 e4 3d 63 5e 0a bd 54 99 84 3d
       0.21235363 0.111329034 -0.03378142 0.064745575
000160 15 21 3e 3e 43 49 1e be 80 39 d0 3d d4 1d 09 be
       0.18567307 -0.15457635 0.10167217 -0.13390285
000170 ec 35 dc bd dd 4e 11 3d 58 02 fb bc f8 1c 45 3e
       -0.10752472 0.0354756 -0.030640766 0.19249332
000180 fc e8 da 3c d4 d7 55 be d8 cd e5 bd fc 33 e9 bd
       0.026722424 -0.20883113 -0.11220902 -0.11386868
000190 2f c3 3d bc c4 78 23 3d 55 9c 9a 3d a6 99 48 ba
       -0.01158218 0.039910093 0.07549349 -0.000765229
0001a0 55 87 09 3e 54 90 94 3d ed 5d b5 3d 4a 39 4c 3e
       0.13430531 0.07254091 0.088558055 0.19943729
0001b0 52 ba 0e 3e 60 76 2d 3e 00 30 4f be 1a 0d 27 3e
       0.13938263 0.16939688 -0.20233154 0.16313592
0001c0 40 71 37 be 1d 6d a6 3d 0c 26 5c bd e3 c6 f5 3d
       -0.17914295 0.081262805 -0.05374722 0.12000825
0001d0 a0 5e 9a bd a0 0e 4f 3d c0 b9 71 bd bf 12 90 3d
       -0.075375795 0.050551057 -0.059015036 0.070348255
0001e0 bc 24 22 3e 48 bf aa 3d 92 90 42 3e a9 aa 1d be
       0.15834326 0.08337265 0.19000462 -0.15397133
0001f0 cc 08 37 be ee 2b 14 bc 21 02 8a 3d c1 a0 8f 3b
       -0.1787445 -0.009043677 0.06738687 0.004383177
000200 a8 18 c5 bc 2c 52 bd 3c d3 80 f8 3c 77 4e 5e be
       -0.024059609 0.023110472 0.030334866 -0.2170962
000210 77 b2 36 3e 56 9a f9 3d 53 b0 05 be 16 19 e7 bd
       0.17841516 0.1218764 -0.13055544 -0.11284082
000220 72 5c 51 bd a2 3e b6 3c 3a af f3 bd ce 10 fd 3c
       -0.051113553 0.022246663 -0.11898656 0.030891802
000230 81 1d 1a 3e 50 fe 27 3e 11 4c d0 b7 75 95 ea 3d
       0.15050317 0.16405606 -2.4830953e-05 0.11454288
000240 cc f6 58 be b6 72 0a 3e fa b3 56 be 8a 35 71 be
       -0.21187896 0.13520321 -0.20967093 -0.2355558
000250 c9 5c dd bb 59 cb 82 3d f1 6c ab bd 44 53 63 3d
       -0.0067554456 0.06386442 -0.08370388 0.05549933
000260 b1 05 b2 3d b1 c2 8f 3d 53 2a 12 3e 48 09 1e 3e
       0.08692492 0.07019556 0.14273958 0.15433228
000270 71 fd 1e 3e f1 74 3c 3e 06 dd 14 3e 0e 63 38 3e
       0.15526368 0.18403985 0.14537439 0.18006536
000280 c1 e1 a6 bd f0 56 f4 3d 85 6c 38 bd af be c7 bd
       -0.08148528 0.119306445 -0.045025367 -0.09753167
000290 47 30 59 be 3b 63 17 3e be 96 fe 3c 53 6c f0 bc
       -0.21209823 0.14783947 0.031077739 -0.029348528
0002a0 f1 85 ef bd 7d 89 0f bd a9 eb 3f bd b7 54 01 3e
       -0.11695469 -0.03504323 -0.046855602 0.12629972
0002b0 39 c6 30 bd a3 9e 7b 3e 58 6f d0 bc 26 ff c9 bc
       -0.04315779 0.24572234 -0.025443718 -0.024657797
0002c0 ee b8 34 bd 7c 9d a9 bd 7a ad 8f 3b 09 03 e3 3d
       -0.044121675 -0.08281991 0.0043846937 0.11084563
0002d0 ce f0 f3 bd 3b 36 ee bb ac 6c 71 be 9a a5 5a be
       -0.11911164 -0.0072696484 -0.23576611 -0.21352234
0002e0 62 86 fa 3d 6f ab ac bd 13 76 37 bb bb 8f 8a bc
       0.12232663 -0.08431136 -0.0027993962 -0.01691424
0002f0 a7 93 2c bb 8c c2 64 3c 1d aa 2f 3e d6 40 1c be
       -0.0026333125 0.013962399 0.17154737 -0.15259108
000300 f2 78 69 be a2 cf 23 be e6 8f b2 bd e8 23 f7 3d
       -0.22800043 -0.15997174 -0.08718853 0.120673954
000310 5f b6 5e bc b2 a1 12 3e 3d 54 04 be 8d d9 2e be
       -0.013593285 0.14319494 -0.1292276 -0.17075177
000320 f1 48 d0 bd d7 de 83 be 53 86 55 bd 13 28 5c be
       -0.101701625 -0.2575595 -0.052130055 -0.21499662
000330 b9 26 b2 3c c9 93 89 3d 07 96 4c bd bd 7b 33 be
       0.02174698 0.06717641 -0.049947765 -0.17527671
000340 42 2b 0f bc 61 5e 72 3d a5 d6 d7 3d 76 3d 08 bb
       -0.008738341 0.059172038 0.10538987 -0.0020788587
000350 14 97 df 3b 94 cb 4b 3e ef d1 42 be 2f 34 d0 bd
       0.00682343 0.19901878 -0.19025396 -0.10166203
000360 e6 23 19 3e 9e 22 73 bd df c0 0c be 35 1e 3c 3e
       0.149551 -0.059359185 -0.1374545 0.18370898
000370 d2 7a 3f be 5d 35 e7 bd 35 d2 06 3e 06 79 9a 3d
       -0.18699196 -0.11289475 0.13166125 0.07542615
000380 d9 fb 8d bd 34 bb d7 3d 19 fd 19 be 83 99 56 be
       -0.06932802 0.10533753 -0.15037955 -0.20956998
000390 70 d5 b2 bd 7f ba a9 3b b8 69 1b be 8a 54 96 3d
       -0.08732116 0.005179703 -0.15177047 0.07340343
0003a0 0d 7c 2a 3d 76 69 fe 3c 1e 71 9c 3d 36 e7 ef bd
       0.04162221 0.031056147 0.07638763 -0.11714022
0003b0 7d 16 b0 3c d4 b7 8d 3d 4b d6 36 be 96 74 77 bd
       0.021495098 0.06919828 -0.17855184 -0.06041392
0003c0 1e 2a 40 3d 69 7c 3f be 0b 34 2b be 25 0c 11 be
       0.046915166 -0.18699802 -0.16719072 -0.14164789
0003d0 aa 12 40 be 7a cf de bd b4 27 e4 3d cd 2e 98 3d
       -0.1875712 -0.10879417 0.11140385 0.074308015
0003e0 7a f8 47 be 01 48 73 be 5b 01 c8 3d 80 43 05 be
       -0.1952838 -0.23757936 0.097658835 -0.1301403
0003f0 a5 e3 c3 3d 46 07 3e 3e c0 28 9e 3d 45 1c 17 bd
       0.09564904 0.18557462 0.07722616 -0.036892194

bn2.weight f4 [64]
000000 1c 7e 80 3f 7e 74 85 3f ab 6a 83 3f b3 1c 81 3f
       1.0038486 1.0426176 1.0266927 1.0086883
000010 83 3c 7d 3f 0b 8c 83 3f fc 4b 82 3f 52 f3 7f 3f
       0.9892046 1.0277113 1.0179439 0.9998065
000020 98 e6 7d 3f e3 44 79 3f a1 64 7c 3f 37 85 72 3f
       0.99179983 0.9737074 0.9859105 0.9473452
000030 e1 6e 7a 3f fa c6 81 3f 5d e1 82 3f 52 08 79 3f
       0.9782544 1.0138848 1.0225025 0.9727832
000040 16 16 77 3f 99 ac 7f 3f e9 d9 80 3f 35 bc 80 3f
       0.96518075 0.9987274 1.0066501 1.0057436
000050 82 2a 82 3f d0 e3 81 3f 92 46 84 3f df f7 7d 3f
       1.0169222 1.0147648 1.0334036 0.99206346
000060 9d 2a 7b 3f 8a 95 82 3f 7e b7 81 3f d3 06 83 3f
       0.981119 1.0201886 1.0134122 1.0236458
000070 84 36 7a 3f dc 34 81 3f a1 b9 79 3f c7 68 79 3f
       0.97739434 1.0094256 0.9754887 0.974255
000080 fa 35 77 3f 75 76 7a 3f ab a9 82 3f dd 53 84 3f
       0.96566737 0.97837 1.0208029 1.0338093
000090 f1 b8 80 3f f3 c1 83 3f 59 21 7d 3f b6 0a 75 3f
       1.005644 1.0293564 0.9887901 0.9571947
0000a0 4c 1a 7b 3f 5f e7 83 3f 73 82 80 3f ff 80 83 3f
       0.98087 1.0304984 1.003981 1.0273741
0000b0 d9 08 76 3f 8e 81 77 3f 90 f7 82 3f 43 ef 7a 3f
       0.9610725 0.9668206 1.02318 0.98021334
0000c0 0a 27 80 3f 50 30 7f 3f 01 d2 6e 3f c8 8f 7a 3f
       1.0011914 0.99683094 0.9328919 0.9787564
0000d0 b3 2e 79 3f dd 55 84 3f bc f0 7e 3f 75 21 7e 3f
       0.9733688 1.0338703 0.9958608 0.992698
0000e0 b4 df 84 3f e8 aa 7b 3f 73 49 82 3f aa 7a 78 3f
       1.0380769 0.9830766 1.0178665 0.9706217
0000f0 74 f6 7f 3f 3b a2 81 3f 9e 3e 7f 3f f3 30 7f 3f
       0.9998543 1.0127634 0.9970492 0.99684066

bn2.bias f4 [64]
000000 27 d1 58 3d 53 7e 9a bc 83 e1 f2 3d ce 51 58 3d
       0.05293384 -0.018859064 0.11859419 0.05281239
000010 f9 92 e9 3d 5b 56 87 3d ab bb 48 bd d0 8f af 3c
       0.11404986 0.06608268 -0.0490071 0.02143088
000020 ae a2 22 bd 57 16 dc 3d 50 43 88 3d 3b 6a 00 bd
       -0.039705925 0.107464485 0.06653464 -0.03135131
000030 50 91 e0 bd e0 66 b9 bc 86 e3 21 bd f6 2e 51 bd
       -0.10965216 -0.022632062 -0.039523624 -0.051070176
000040 b4 36 50 3c 8a e0 dc 3d 6d c0 48 bd a1 95 04 3e
       0.012708355 0.10785015 -0.049011637 0.12947704
000050 01 52 d7 3a fc 7e 98 3d 79 c5 f6 3d ee 83 1a bd
       0.0016427637 0.07446095 0.12049384 -0.037723474
000060 28 82 c4 3d b8 ca 84 bd 73 53 d6 bd d6 03 b2 3d
       0.09595138 -0.06483978 -0.104651354 0.08692138
000070 2c d3 de 3c bd e8 49 3d 43 62 96 bd 57 38 d1 3d
       0.027200304 0.049294222 -0.07342961 0.10215824
000080 20 b4 a4 3d 22 a8 9e 3c f2 e7 60 bd 4c af a8 3d
       0.080421686 0.019367281 -0.0549087 0.0823656
000090 a6 d3 23 3d e9 dd b0 3d 31 62 98 3d 0a 70 fa bd
       0.039996766 0.08636076 0.074406035 -0.12228401
0000a0 0e 45 fe bc 3e ce 6c 3d cf 9d 12 3d 8e ea 47 3c
       -0.031038787 0.057813875 0.03579503 0.012201918
0000b0 49 30 59 bb 58 9b d2 bd 2d ac e6 3c a8 a6 8f 3d
       -0.0033140352 -0.10283536 0.028158272 0.07014209
0000c0 0d 0a d4 3d 05 56 bf 3c c0 cc a2 3d d8 06 8c 3d
       0.103534795 0.023356447 0.07949209 0.06837243
0000d0 f3 5e b8 bd e0 11 1c bc 95 8b 81 3d 04 d9 d8 3d
       -0.09002485 -0.009525746 0.06325451 0.105882674
0000e0 f4 a9 a4 3c 78 0d fc bb 7d 6a dc bd 94 06 0b 3b
       0.020100571 -0.0076920353 -0.107624985 0.0021213638
0000f0 74 d7 3f 3c de b5 fd 3d a6 93 ba 3d 77 c4 79 3d
       0.011709083 0.12388204 0.09110193 0.06097838

bn2.running_mean f4 [64]
000000 28 65 dd 3e ef 65 ab 3e 02 e1 a0 3e f4 cd bb 3e
       0.4324124 0.33476207 0.31421667 0.36680567
000010 58 7b a2 3e 78 ee b2 3e b4 93 ab 3e 82 62 0a 3f
       0.3173473 0.34947562 0.33511126 0.5405656
000020 25 da eb 3e c5 c6 20 3f 71 08 96 3e 66 aa a3 3e
       0.4606487 0.628033 0.29303315 0.3196594
000030 77 2f b2 3e 12 99 b0 3e 1d b7 7a 3e 53 03 c6 3e
       0.34801838 0.34491783 0.24483915 0.3867441
000040 eb 80 95 3e 83 83 e1 3e fd 73 9d 3e 9d bb e2 3e
       0.2919992 0.44045648 0.30752555 0.44283763
000050 27 72 fb 3e f5 a9 eb 3e 7a 74 9b 3e 9a 1c ee 3e
       0.4911053 0.46028104 0.30362302 0.46506196
000060 1b 9b 13 3f af 49 1b 3f 15 db 98 3e e6 fb c4 3e
       0.5765855 0.6065931 0.29854646 0.38473433
000070 6d 7f b1 3e 50 48 87 3e 93 d3 bc 3e 56 13 cb 3e
       0.3466753 0.26422358 0.36880168 0.3966319
000080 45 56 c3 3e ef da b3 3e d1 49 83 3e f7 8b 61 3e
       0.38151756 0.3512797 0.25642255 0.22026049
000090 df a7 c4 3e e7 9c ba 3e 2e 87 a7 3e 0d 26 e6 3e
       0.38409325 0.36447832 0.3272032 0.44950905
0000a0 0b 4f 91 3e f9 58 4b 3e 2d a4 a8 3e 3e f9 89 3e
       0.28380617 0.19858159 0.32937756 0.2694797
0000b0 74 2f 9d 3e 41 30 08 3f 7b 9b 93 3e fa dc 09 3f
       0.30700266 0.5319863 0.2882956 0.5385281
0000c0 aa 75 af 3e 1d c7 4f 3e 72 26 f6 3e 0e 77 c1 3e
       0.34269458 0.202908 0.48076206 0.37786144
0000d0 6f 4a b6 3e 1c 83 39 3e 95 04 9f 3e 1e 00 9a 3e
       0.35603663 0.1811642 0.31058183 0.30078214
0000e0 63 4a 6e 3e aa d8 43 3e 0e bb be 3e 34 16 b8 3e
       0.23270564 0.1912562 0.37252086 0.3595444
0000f0 24 60 8b 3e 66 64 8a 3e 5f b6 e9 3e a0 34 cf 3e
       0.27221787 0.27029723 0.4564695 0.40469837

bn2.running_var f4 [64]
000000 17 1b ce 3e 90 70 84 3e 87 ee 37 3e b0 18 46 3e
       0.40255043 0.25867128 0.17962085 0.19345355
000010 e6 c5 7c 3e c9 e8 d9 3e 63 cb 75 3e 06 51 5f 3f
       0.24684867 0.42560413 0.24003367 0.87233007
000020 42 b4 73 3f bf 12 ea 3f 31 af 14 3e 6d 04 1d 3e
       0.95196927 1.8286971 0.14519955 0.1533372
000030 b5 39 57 3e e3 5f af 3e 58 35 13 3e fa 86 45 3f
       0.21018107 0.34252843 0.14375818 0.7715908
000040 01 5d 87 3e 55 47 9c 3e 2e 57 2d 3e e2 dd a4 3f
       0.26438144 0.30523172 0.16927788 1.2880213
000050 60 22 d1 3e 18 bc 3b 3f b3 08 28 3e 99 25 cb 3e
       0.4084654 0.73333883 0.16409568 0.39677122
000060 15 6f 6c 3f f3 9a 2b 3f b0 59 4c 3e a4 99 f7 3e
       0.92357 0.6703331 0.19956088 0.48359406
000070 e4 8f 81 3e c3 3c 1b 3e d1 06 f5 3e 11 76 64 3e
       0.25305092 0.15159898 0.47856763 0.22310664
000080 4e d2 04 3f 5c 79 a7 3e b3 e5 18 3e 29 9f de 3d
       0.518834 0.32709777 0.14931373 0.10870201
000090 7b 72 11 3f 07 91 89 3e 7f 88 7a 3e 21 09 ef 3e
       0.5681531 0.2686846 0.24466132 0.46686652
0000a0 cf 0f 1e 3e 43 0e ea 3d 7a 82 98 3e 50 71 16 3e
       0.15435718 0.114285015 0.29787046 0.14691663
0000b0 96 09 c3 3e 36 4e 09 3f 8f 36 6a 3e 1c de da 3e
       0.3809325 0.53634965 0.22872375 0.4274758
0000c0 4b 22 7b 3e c1 8b 03 3e e5 1b ac 3e eb 9d 83 3e
       0.245248 0.1284628 0.33615032 0.2570642
0000d0 80 8a 9f 3e 77 82 13 3e c7 cc 4d 3e 45 3b a5 3e
       0.31160355 0.14405237 0.20097648 0.32271782
0000e0 83 a9 55 3e ef b4 b2 3d 26 20 8a 3e 11 9c f9 3e
       0.20865445 0.087259166 0.26977652 0.48751882
0000f0 04 a8 24 3e 49 6d 50 3e d0 48 0b 3f a0 c9 68 3e
       0.16079718 0.20354189 0.5440798 0.22733164

fc1.weight f4 [64, 64]
000000 4e f2 0f 3d b5 5d de 3d d5 6b bd bc 57 85 7a 3d
       0.03514319 0.10857717 -0.023122707 0.06116232
000010 fd 87 1d bd bd 35 0c bd 82 53 e2 3d fb 16 dd 3d
       -0.038459767 -0.034230936 0.11051084 0.10795399
000020 01 53 b3 bd 68 ff d1 bd 7f fc 9b bd 4b d5 ef 3c
       -0.08756066 -0.10253793 -0.07616519 0.02927651
000030 a5 12 cb bc 86 42 ff ba 10 7c ee 3c 16 c0 dc 3c
       -0.024789164 -0.0019474782 0.029111892 0.026947062
000040 79 02 de 3d b1 67 1b be 05 f6 d1 3d bd 62 a9 bc
       0.10840315 -0.15176274 0.102520026 -0.020676965
000050 41 65 12 3d ea e6 cd bc 3b 97 1b bd 84 14 9e 3c
       0.035741094 -0.025134522 -0.03798602 0.019296892
000060 d5 1c d9 bd a0 18 4b 3d 97 f0 c3 3d f6 ca b8 bd
       -0.106012024 0.04958403 0.09567373 -0.09023087
000070 af 50 9a 3d ce 96 e2 ba 75 c4 8c bc 60 ef dc bd
       0.075349204 -0.0017287375 -0.017183522 -0.10787845
000080 16 df c7 3d 9b fd fa bd 8d 35 95 bd dd d4 a5 bd
       0.09759347 -0.12255403 -0.072856046 -0.08097241
000090 0b f5 ba bb 62 66 4a 3d 78 04 d4 3d 10 d8 c0 3d
       -0.005705481 0.049414046 0.10352415 0.09416211
0000a0 5e 45 d8 bc 3e 05 f1 3c 6b 32 02 3e 0f 2b f4 bc
       -0.026400264 0.029421445 0.12714545 -0.029805688
0000b0 80 3f b4 bd c1 c5 a9 bd f5 e8 56 3d 40 86 76 bc
       -0.08801174 -0.08289672 0.05246826 -0.015046656
0000c0 be 80 ef bd 55 d1 8b bd 03 b3 82 3d 78 89 b1 3c
       -0.116944775 -0.06827036 0.063818 0.021671996
0000d0 fa 0f 4b bd f6 cc 78 3d 9a 47 d1 bd a3 b0 d9 3b
       -0.049575783 0.06074234 -0.10218735 0.006643371
0000e0 4f a1 32 bd 23 73 4a 3d 88 a0 5d bd 83 1c ac bd
       -0.043610867 0.04942621 -0.054108173 -0.08403876
0000f0 5f ad 24 3e e7 e4 da 3d 97 34 3b bd 68 57 df bd
       0.16081761 0.10688191 -0.04570445 -0.10905343
000100 bb 21 df bd cd ef a7 3d 04 44 ad 3b 1c 04 dc 3c
       -0.108951055 0.08200035 0.005287649 0.026857428
000110 a8 6f c1 bd 07 3a 94 3c 1f 68 75 bc 28 fc 9f 3d
       -0.09445125 0.018094076 -0.014978438 0.07811767
000120 37 45 e3 3d 7b c7 45 bd 5c f9 31 3d 54 36 2c bc
       0.11097186 -0.048285943 0.0434507 -0.010511
000130 cf 81 e7 bd 1b d1 b7 bd 5f f6 be bc 84 d6 a2 3d
       -0.11304056 -0.089754306 -0.023310838 0.07951072
000140 c5 8c 27 bd 71 49 02 be b9 16 09 3e 5c 34 97 3c
       -0.040905733 -0.12723328 0.13387574 0.018457584
000150 68 42 cc 3c ce ce 18 3d e4 0d fd 3d c9 c9 64 bd
       0.024934009 0.0373066 0.12356165 -0.0558565
000160 b1 d6 96 bd 08 1f a2 bd e4 28 05 bb 5c 85 a5 3d
       -0.07365168 -0.07916075 -0.0020318562 0.08082077
000170 15 6e 0c 3d 65 df 0b 3d bf b6 b7 3c b9 d7 a7 3d
       0.03428467 0.034148593 0.022426007 0.08195443
000180 fb da 80 3d 0d cb a0 bd f5 78 8d 3d bf 07 37 3d
       0.06291767 -0.07851229 0.06907836 0.04468512
000190 0f 67 83 bd 39 f5 6b bd bd 25 e0 3d c0 23 e8 bc
       -0.06416141 -0.05760691 0.10944698 -0.02833736
0001a0 a5 3d 23 3e a7 71 de 3d a9 48 43 3d db 9a 19 3e
       0.15941484 0.10861521 0.047676716 0.15000479
0001b0 a2 58 56 3d 44 5f f8 bd 2e 7d 4a 3d f1 59 c4 3d
       0.05233062 -0.121275455 0.049435787 0.095874675
0001c0 8f c5 bf bd d6 b8 e7 bc 9d 19 e3 3d da 83 7f bd
       -0.09363853 -0.028286379 0.1108887 -0.062381603
0001d0 6d f2 41 3d 78 a4 96 bd db cb 5b 3c df 0c 50 3d
       0.047350336 -0.07355589 0.013415302 0.050793525
0001e0 5c 1a 03 bd da 66 1d 3d 76 ac 9a 3a 30 35 07 3d
       -0.03200756 0.038428165 0.0011800665 0.033009708
0001f0 ae 67 ea bc bd d9 19 3d cb 7b 5e bd 14 fe b1 bd
       -0.028613891 0.037561167 -0.054317277 -0.0869104
000200 ba 33 21 be 61 ec ec bc ae ba 00 be 02 c2 d8 bd
       -0.15742388 -0.028921308 -0.12571213 -0.10583879
000210 ac 3a 99 3d ae dc 0d 3d 71 73 d3 bd fb e0 a4 bd
       0.07481894 0.034634285 -0.10324753 -0.08050724
000220 14 23 45 bb 4e 74 b9 bd f7 28 09 3d d3 8a f0 3d
       -0.0030080723 -0.090553865 0.033486333 0.117452286
000230 63 60 56 bd ca 9c 5f bd 3d fb bc bd cd 31 b5 bd
       -0.052338015 -0.054592885 -0.092276074 -0.08847389
000240 34 09 9c 3d 06 fd 16 3e 3c a6 72 bd cd 8e af 3d
       0.07618943 0.14744958 -0.059240565 0.08572159
000250 f0 9f 29 3d 4e f3 94 bd 89 b7 79 3d c4 51 01 3d
       0.041412294 -0.07272969 0.06096605 0.03157212
000260 b1 43 0e bc 32 99 90 3d a1 5f 6b bd aa 8b 46 bd
       -0.008683131 0.0706047 -0.057464246 -0.048473038
000270 b3 21 b7 bd 16 c1 97 3d 6e fe ad bd c3 04 c4 bd
       -0.089419745 0.07409875 -0.08495794 -0.09571221
000280 e1 2a 61 3d 42 70 d6 bd b0 a6 fc 3d b6 30 84 bc
       0.054972533 -0.1047063 0.123364806 -0.016136508
000290 f5 3a a8 3d 5a d3 d7 bd 15 a6 54 3d 41 3f 5b 3d
       0.0821437 -0.10538359 0.0519162 0.05352712
0002a0 72 d4 37 bd 65 e2 a6 3d f7 2a 9b bd dc 46 bd 3d
       -0.044880338 0.0814865 -0.07576554 0.09242031
0002b0 57 0d 15 bb 60 9a dc 3d 24 53 f1 3d 81 f2 89 3c
       -0.0022743547 0.10771632 0.11783436 0.016839268
0002c0 45 c5 95 bd 2b 88 90 3d 3b 3d a6 bd c0 35 9b bd
       -0.07313017 0.07057222 -0.081171475 -0.075786114
0002d0 28 d6 86 bc 26 fd cc 3d 32 59 fd bc f5 52 1d bd
       -0.01645954 0.10009222 -0.03092632 -0.038409192
0002e0 33 cd b0 3c d6 aa 90 bd 8b 15 7a bd 12 81 aa 3d
       0.021582222 -0.07063834 -0.0610557 0.083253995
0002f0 c2 a3 d2 3c c3 b0 ee bd e8 83 c8 bd 77 91 28 3d
       0.025712851 -0.11654808 -0.09790784 0.04115435
000300 b9 98 48 3c 2e db 1a bd ab c3 fb bd fb 12 96 3c
       0.012243443 -0.037806682 -0.1229318 0.018319597
000310 a1 20 1b be 43 43 bd bc 0c 12 fe bd 64 c6 90 bd
       -0.15149166 -0.023103362 -0.12405786 -0.0706909
000320 9c c8 a2 3d a4 4f ca bd c3 8f 66 3d 3c 11 ce bd
       0.079484195 -0.098784715 0.056289446 -0.10061881
000330 f0 65 ff 3c 8f de 23 be 4c b5 b4 3d f2 e0 64 bd
       0.031176537 -0.16002868 0.08823642 -0.055878587
000340 c4 d8 da 3b 07 72 d2 bd e6 24 f5 3d 74 77 ba 3d
       0.0066786725 -0.10275655 0.119699284 0.09104815
000350 b4 8a 36 bd fb 8d ae 3b 3b 0d 3e 3d 11 8f df bd
       -0.04456587 0.005326984 0.046399336 -0.109159596
000360 8f 22 f6 bc 37 20 2b 3d ad d1 7f 3d 49 8e b1 bd
       -0.030045776 0.04177877 0.06245582 -0.08669717
000370 9a 14 77 3c 1f 2a 0f 3d 31 ac 91 3d 70 9f c5 bd
       0.015080595 0.03495228 0.07112921 -0.09649551
000380 ba 09 bc 3d 76 38 52 bd bb fa 9a bd 25 e8 83 3d
       0.09181543 -0.051323377 -0.07567354 0.064407624
000390 10 6d da bd b5 16 16 3b ca 3f 84 3d 86 fa 2b bd
       -0.10665333 0.0022901718 0.06457479 -0.041986965
0003a0 4b c5 ff bd a7 a0 b5 3d 41 b9 d2 bd d5 74 8d bd
       -0.124888025 0.08868533 -0.10289241 -0.069070496
0003b0 5f cd 39 bd 61 82 6c bd de bc 4a 3b 8b cc 9e bd
       -0.045361873 -0.057741527 0.0030935328 -0.07753857
0003c0 b6 04 ff bd ed 14 ea bd 99 7a 0e be cd 5f 7c 3c
       -0.124520704 -0.114297725 -0.13913955 0.0154037
0003d0 86 83 16 3d a0 a7 86 3d 4d 05 0e bd 26 34 69 bd
       0.036746524 0.06574941 -0.034673024 -0.0569345
0003e0 7c 58 3f 3d 9a 8f 21 bd 72 a9 b9 3d af 47 c4 3d
       0.046715245 -0.03944359 0.09065522 0.09583985
0003f0 68 7a b3 3d d4 4c d7 bd 24 c0 5f bd c1 0d 5c bc
       0.087635815 -0.10512701 -0.0546266 -0.013431014

fc1.bias f4 [64]
000000 f1 b1 5b 3c 43 e0 d8 3d c9 56 ab bd 55 d9 3c bd
       0.013409124 0.105896495 -0.08366162 -0.0461057
000010 95 88 9e 3c 93 bd 1a be 7e 3c bf bd dc 63 08 3d
       0.019352237 -0.1511138 -0.0933771 0.03329836
000020 e6 69 f9 bd f5 19 a9 bd 6f 1a 77 bd ff 9a b8 bd
       -0.12178402 -0.08256904 -0.060327943 -0.09013938
000030 4d 69 b8 bd 67 a0 71 bd c2 e3 2d 3b 42 0b b8 bd
       -0.090044595 -0.058990862 0.002653346 -0.08986522
000040 49 7c ff bd 81 a0 da bd cf 93 bd bd 75 d1 41 be
       -0.124748774 -0.10675145 -0.09256708 -0.18927558
000050 1c ae 7c 3d f9 5d 9c bd 90 ce 00 3e 2a 1b a7 bd
       0.06168948 -0.07635111 0.12578797 -0.08159478
000060 ae fe 80 bd a7 7c 87 3d 0c c7 ba 3d c4 65 a7 bd
       -0.06298576 0.066155724 0.091199964 -0.08173707
000070 a0 b4 4d 3d b8 e0 70 3c 2f 16 9e bd 4c 7d b9 bc
       0.050221086 0.014702015 -0.07719075 -0.022642754
000080 a3 80 0a 3d 42 ec 39 bd e9 fb 12 be 42 7f c9 bd
       0.033814084 -0.04539133 -0.14353909 -0.098387256
000090 03 1b 8d 3d 98 c4 db bd ca b2 c2 3d ff 99 d3 bd
       0.06889918 -0.10730857 0.095067576 -0.10332107
0000a0 8b c0 98 3c c8 cb 3e bc 44 dc 9e bd 0e 06 05 bd
       0.0186465 -0.011645265 -0.07756856 -0.032476477
0000b0 62 19 34 be ef d6 42 3d 50 fa 14 bc 55 c4 46 3d
       -0.17587808 0.047568258 -0.009092882 0.04852708
0000c0 70 88 3d bd 1e e6 e1 3b 99 24 fb b9 47 67 3f 3d
       -0.046272695 0.006893887 -0.00047901718 0.046729352
0000d0 82 98 8a bc dc f7 c5 bd 99 ac b7 bd f7 34 83 bd
       -0.016918425 -0.09666416 -0.08968467 -0.064065866
0000e0 40 62 e1 3c a6 28 77 bd 7e b8 f2 3c 86 7b 15 be
       0.02751267 -0.0603415 0.029628988 -0.14597902
0000f0 7e f8 0f 3e 7e db 11 be 6f e2 31 bb 7b f5 29 be
       0.14059636 -0.14243886 -0.0027143022 -0.1659755

bn3.weight f4 [64]
000000 98 1d 8c 3f 82 26 8d 3f 0a c5 8a 3f 32 53 8d 3f
       1.0946531 1.1027377 1.0841382 1.1041014
000010 02 d5 8f 3f 51 df 91 3f 4f 01 8c 3f 6b 5a 8b 3f
       1.123688 1.1396276 1.0937899 1.0886968
000020 6c d7 8f 3f d7 49 8d 3f b9 15 8d 3f 31 b3 89 3f
       1.1237617 1.1038159 1.1022254 1.075781
000030 5f 0a 88 3f 32 e7 88 3f 38 27 87 3f 1a c7 8b 3f
       1.0628165 1.0695555 1.0558844 1.0920136
000040 ae 0e 90 3f 86 0a 8b 3f 58 c1 8a 3f c4 81 8c 3f
       1.125448 1.0862586 1.0840254 1.0977101
000050 09 a7 90 3f 84 e6 88 3f cb a7 8c 3f 8c c4 90 3f
       1.1300975 1.0695348 1.0988706 1.1309981
000060 7a 8b 8c 3f ce 7f 8e 3f 1e c7 89 3f a7 21 85 3f
       1.0980065 1.1132753 1.0763891 1.0400895
000070 23 00 90 3f f2 54 8c 3f ff 0d 87 3f be 2e 88 3f
       1.1250042 1.0963423 1.0551146 1.0639265
000080 84 23 8d 3f 96 3b 8f 3f 2c d1 8f 3f 9a 2e 88 3f
       1.1026464 1.1190059 1.1235709 1.0639222
000090 cd 2b 91 3f ff de 90 3f 94 c8 8f 3f 6f c7 86 3f
       1.1341492 1.1318053 1.1233087 1.0529612
0000a0 9c c6 89 3f 60 2f 8e 3f 2f f4 8b 3f 78 fa 86 3f
       1.0763736 1.1108208 1.0933894 1.0545187
0000b0 95 6a 8b 3f 11 b8 8f 3f 2d 5f 88 3f 9e 67 8d 3f
       1.0891901 1.1228048 1.0654045 1.1047246
0000c0 20 b6 8c 3f 78 4f 8f 3f 03 57 8d 3f c6 e2 8b 3f
       1.099308 1.1196127 1.1042179 1.0928581
0000d0 3b 43 87 3f bd 6d 8f 3f 6a a9 8a 3f 77 3b 91 3f
       1.0567392 1.1205364 1.0832951 1.1346272
0000e0 e4 71 8b 3f a7 e5 83 3f 07 ae 8b 3f 90 ee 86 3f
       1.0894132 1.0304459 1.0912484 1.0541553
0000f0 55 55 8f 3f b6 94 91 3f a3 4a 8b 3f 3b 86 83 3f
       1.1197916 1.1373508 1.0882152 1.0275339

bn3.bias f4 [64]
000000 61 fb 0e be 4c 2a 5d bd 67 ff b7 3d 02 da c8 3d
       -0.13963081 -0.053995416 0.08984261 0.09807207
000010 9b b2 e9 bd d4 36 a9 bd 97 b4 fd 3d 10 a3 29 bd
       -0.114110194 -0.08262411 0.123879604 -0.041415274
000020 76 19 d6 3d ee 93 90 bd 18 e5 83 3d ad 59 39 3d
       0.10454075 -0.07059465 0.064401805 0.045251537
000030 95 fe 00 bd bf 64 1c bd d3 d0 cf 3c 77 ac c7 bc
       -0.03149279 -0.038182016 0.02536813 -0.02437423
000040 2e d1 b1 bd 0b 5c 15 3e 38 5b 01 3d 84 ca 80 3c
       -0.08682476 0.14585893 0.031581134 0.015721567
000050 b7 cd ee bd 9a 45 e4 bd 3c ef aa 3d 19 45 c2 bd
       -0.11660331 -0.11146088 0.083464116 -0.094858356
000060 18 f8 ae 3d cf b6 ea 3b 1b c9 09 3d ee b9 ed 3c
       0.08543414 0.0071629058 0.033639055 0.029019322
000070 f1 3e 93 bd 88 40 bf bd 98 e9 b3 3c 48 f2 89 3d
       -0.071897395 -0.0933848 0.021961972 0.067356646
000080 3c cf ee 3c d3 89 4c bd 41 d7 8c 3d 30 92 93 3d
       0.029151551 -0.049936127 0.06876994 0.072056174
000090 5c c4 2e 3d 40 35 f6 bd 8e d4 34 3d 54 e3 b7 3d
       0.04266773 -0.120218754 0.04414802 0.08978906
0000a0 1e 9c ae bd 77 aa 0b bc 31 ce f4 3d e4 b8 e4 3d
       -0.08525871 -0.008524529 0.119533904 0.111680776
0000b0 39 a3 ae bd 98 00 e4 3a 5c bd 63 3d f9 c7 ed 3d
       -0.08527226 0.0017395196 0.05560051 0.116104074
0000c0 9a a2 f0 bc 5a 38 a8 3d 76 7c 97 3d 46 24 44 bd
       -0.02937441 0.08213873 0.07396786 -0.047886156
0000d0 aa b9 f8 3d 3d b1 50 bd e7 c1 47 bd ad 31 c1 bc
       0.121447876 -0.050950278 -0.048768904 -0.023583258
0000e0 96 79 03 bd 85 45 d6 3d fe 53 bf bd f6 df 84 bd
       -0.032098375 0.104624785 -0.09342192 -0.0648803
0000f0 bf b2 cf bd 81 fb 3a 3d 90 1f a9 3d 21 4c ee 3d
       -0.10141515 0.04565001 0.08257973 0.11635614

bn3.running_mean f4 [64]
000000 6d e0 ae 3f 5e 81 f1 3f 9a 68 00 40 82 20 c2 3f
       1.3662239 1.8867605 2.0063844 1.5166171
000010 a8 0f d1 3f 93 0d d1 3f d2 0f 9c 3f 24 6d 8e 3f
       1.6332903 1.6332268 1.2192328 1.1127057
000020 1c ac a5 3f 84 6f 70 3f e8 cb c5 3f 5d 56 9f 3f
       1.2943149 0.9392016 1.5452852 1.2448231
000030 14 50 00 40 8b 70 b8 3f 27 c2 fb 3f d3 7a d8 3f
       2.0048876 1.4409345 1.9668626 1.6912483
000040 6e 98 7b 3f 89 f0 b6 3f f3 9e ee 3f 6f a9 de 3f
       0.98279464 1.4292156 1.8642257 1.7395457
000050 38 e0 0b 40 cb 4f df 3f cd ee 90 3f 78 d6 b2 3f
       2.1855602 1.7446226 1.1322876 1.3971701
000060 b8 3c 9b 3f fa 4a c9 3f ff 8f 08 40 06 c4 f2 3f
       1.2127905 1.5726006 2.1337888 1.8966072
000070 47 96 e0 3f 34 91 9a 3f 64 4d d8 3f c7 6b 0c 40
       1.7545861 1.2075562 1.6898618 2.1940782
000080 52 fb 94 3f 03 76 f4 3f c4 33 71 3f c3 b1 b8 3f
       1.1639197 1.9098514 0.94219613 1.4429249
000090 2a 38 79 3f 06 5b d5 3f f6 22 22 40 c5 b2 e3 3f
       0.97351325 1.6668403 2.5333838 1.7788931
0000a0 de b9 f8 3f 44 ad cf 3f d7 a7 ff 3f 8e d4 ff 3f
       1.9431722 1.6224751 1.9973096 1.9986742
0000b0 5a 43 8b 3f bf ba a6 3f 62 2d ea 3f e8 40 06 40
       1.0879929 1.302574 1.82951 2.0977116
0000c0 72 b5 e0 3f 8c 1e fe 3f d1 b1 92 3f 66 51 ca 3f
       1.7555373 1.9853072 1.1460515 1.5806091
0000d0 1d 60 c3 3f 3e 19 d2 3e e6 00 d3 3f 97 3d 9f 3f
       1.5263706 0.41034883 1.6484649 1.2440671
0000e0 47 84 df 3f 96 77 02 40 19 40 c2 3f c7 f6 02 40
       1.7462243 2.038549 1.5175811 2.046312
0000f0 2f 3a d9 3f e5 fd 86 3f 72 20 93 3f 1e 75 cb 3f
       1.6970881 1.0546232 1.1494277 1.5895116

bn3.running_var f4 [64]
000000 fb 7f 9c 40 a1 0d 16 41 7d e7 fb 40 e1 bc c5 40
       4.8906226 9.378327 7.872008 6.1793065
000010 a5 63 88 40 df ee c2 40 a1 7d 5f 40 63 a2 2a 40
       4.2621636 6.091659 3.4920428 2.6661613
000020 df 6c 80 40 11 54 10 40 6f 75 b3 40 09 3a 7b 40
       4.01329 2.255131 5.608085 3.9254172
000030 14 84 17 41 2f 90 e3 40 46 54 1c 41 f9 e7 ae 40
       9.469746 7.1113505 9.770575 5.465817
000040 56 40 1b 40 20 b1 cc 40 e1 53 ff 40 23 64 eb 40
       2.4258018 6.3966217 7.978989 7.3559737
000050 18 35 dd 40 8f f6 a7 40 4c 9a 6a 40 a3 f2 6c 40
       6.912731 5.2488475 3.6656675 3.7023094
000060 cb 46 8a 40 e8 7d ab 40 bc 36 38 41 ed 94 34 41
       4.3211417 5.3591194 11.513363 11.286359
000070 be aa c1 40 4c 1d 60 40 62 fd c9 40 93 67 cc 40
       6.0520926 3.5017881 6.3121805 6.3876433
000080 a9 17 50 40 ed 70 07 41 28 1c 41 40 57 51 a2 40
       3.251444 8.46507 3.0173435 5.072429
000090 84 67 33 40 d3 d8 b2 40 0d 11 48 41 0b fa e8 40
       2.803193 5.588968 12.504163 7.280523
0000a0 0c 0b d7 40 db 95 f9 40 63 e4 09 41 4a b1 1b 41
       6.7200985 7.799543 8.618258 9.730783
0000b0 e1 9e 5f 40 19 2d 86 40 bf d1 16 41 d5 58 5c 41
       3.4940722 4.193005 9.426208 13.7716875
0000c0 8c 2b 19 41 76 e2 49 41 f4 67 6b 40 87 12 a9 40
       9.573132 12.617788 3.6782198 5.2835116
0000d0 d6 72 a4 40 cc ee 5e 3f e0 39 c3 40 72 bb 60 40
       5.139018 0.87083125 6.100815 3.5114408
0000e0 e9 99 a4 40 0b 64 20 41 20 80 85 40 0c 9e ec 40
       5.143788 10.024425 4.1718903 7.394293
0000f0 7d d5 ab 40 09 18 58 40 28 28 3a 40 85 0a ac 40
       5.3698106 3.376467 2.908701 5.376284
