tuning_results/best_models_during_tuning_lightning_logs/ratio_stand_GCN_best_model_logs/checkpoints/epoch=73-train_loss=0.91-train_f1=0.66-val_loss=2.11-val_f1=0.24.ckpt (torch, 109154 bytes, 38 tensors)

conv1.bias f4 [64]
0	0x3cd8f829	0.02648552
1	0x3c95da91	0.018292697
2	0x3d0ed26c	0.034868643
3	0xbd1f217a	-0.038850285
4	0x3cc9ffb0	0.024658054
5	0x3c12b15a	0.008953417
6	0xbc5c776a	-0.013456205
7	0x3d111df9	0.035428975
8	0xbd1e3451	-0.03862411
9	0x3c5af2a2	0.013363512
10	0xbd2fbbf3	-0.04290385
11	0x3cee0931	0.029057117
12	0xbba0e04a	-0.00490955
13	0xbc02dd5f	-0.007987349
14	0x3cfcd100	0.030861378
15	0x3d33b785	0.04387619
16	0xbc3f0ff4	-0.011661518
17	0xbd8424a0	-0.06452298
18	0xbc7e123f	-0.01550728
19	0x3a5b64b6	0.0008369194
20	0xbc082ada	-0.008310998
21	0xbc3a2b19	-0.011362814
22	0x3baa3478	0.005194243
23	0x3d58e5d0	0.05295354
24	0xbc59829a	-0.013275767
25	0x3cc3eab5	0.023915628
26	0xbb854f4b	-0.0040682903
27	0x3c044e2a	0.008075276
28	0x3ca6c69a	0.020358372
29	0x3bd52082	0.0065041194
30	0xbcb8f4d2	-0.022577677
31	0x3cb75faa	0.022384483
32	0x3d37da91	0.044886176
33	0xbcc7297a	-0.02431177
34	0x3d2413e3	0.040058028
35	0xbc145cd2	-0.009055333
36	0xbb73b487	-0.003718646
37	0x3c8e8af5	0.017400244
38	0x3b934cdb	0.004495246
39	0xbd479e17	-0.04873475
40	0xbd9101aa	-0.070803955
41	0xbd71535e	-0.058917396
42	0xbda140d4	-0.07873693
43	0x3d97fb84	0.0742102
44	0xbd4e6675	-0.05039068
45	0xbbfbd8d0	-0.007685758
46	0xbd69a012	-0.05703742
47	0xbd0fb91f	-0.035088655
48	0x3be6e8bb	0.0070467866
49	0xbcb42adb	-0.021993091
50	0xbca407e6	-0.020023298
51	0x3ccacd8d	0.024756217
52	0xbc15a03c	-0.009132441
53	0xbd1783de	-0.036990993
54	0x3bcdf984	0.006285848
55	0xbb9c31f7	-0.0047666985
56	0xbd28f1c9	-0.04124621
57	0xbbb4467c	-0.0055015665
58	0x3c46e369	0.01213918
59	0xbaa9b50f	-0.0012947636
60	0xbc2f1e24	-0.010688338
61	0x3c62c6bb	0.013841326
62	0x3c73f85c	0.014890756
63	0xbd4fc803	-0.050727855

conv1.lin.weight f4 [64, 25]
0	0x3d55bb59	0.05218062
1	0xbd9739ef	-0.07384097
2	0xbe3b4558	-0.18288171
3	0xbd41c992	-0.047311373
4	0xbdca9124	-0.098909646
5	0x3cd640c5	0.026153931
6	0x3b83ba50	0.004020013
7	0x3d990c01	0.07472993
8	0x3e6d52f0	0.2317617
9	0x3d0656aa	0.032797493
10	0xbc96869c	-0.018374734
11	0x3e1a5505	0.15071495
12	0x3e3086ad	0.17238875
13	0x3c86ccb4	0.016455032
14	0xbe35757d	-0.177206
15	0xbdf59523	-0.11991336
16	0x3e1625e3	0.1466289
17	0x3e817b61	0.25289443
18	0xbe456eab	-0.19280498
19	0x3e5d592b	0.21616046
20	0xbe808dff	-0.25108334
21	0xbe5f4cfc	-0.21806711
22	0x3e59149a	0.21199265
23	0x3e5d18e6	0.21591529
24	0x3e2bae35	0.16765673
25	0x3e10f279	0.14154996
26	0xbe6fd992	-0.2342284
27	0x3e4c9b9b	0.19981234
28	0x3dbe0c07	0.09279638
29	0xbdcf7f08	-0.10131651
30	0xbe06b70e	-0.13155767
31	0x3e6d9fb8	0.23205459
32	0xbe05419b	-0.13013308
33	0xbe740af2	-0.238323
34	0xbe36a472	-0.17836168
35	0x3db51581	0.08841992
36	0xbe255527	-0.16145764
37	0x3d809633	0.06278648
38	0xbde6ba7e	-0.11266039
39	0xbd64ca08	-0.055856735
40	0x3e3b0980	0.18265343
41	0x3e979814	0.29608214
42	0x3dc90977	0.098162584
43	0xbe0d4084	-0.13794142
44	0x3d27fe72	0.041014142
45	0x3db40f68	0.08792001
46	0xbd999998	-0.07499999
47	0x3e342022	0.17590383
48	0xbbfc79ba	-0.0077049406
49	0xbe30100d	-0.17193623
50	0xbe20bc89	-0.1569692
51	0xbe2b728b	-0.16742913
52	0xbe861bff	-0.26193234
53	0xbd7a6997	-0.061135855
54	0xbde25a2e	-0.11052357
55	0xbc419598	-0.011815451
56	0xbe783e62	-0.24242547
57	0xbe75cfb4	-0.24005014
58	0x3e433728	0.19064009
59	0xbdad13cd	-0.08451042
60	0x3e55c7ff	0.20877074
61	0xbe3e6932	-0.18594816
62	0x3d0c8afd	0.034312237
63	0x3db8aa1a	0.09016819
64	0xbc754cf7	-0.014971963
65	0xbe007a85	-0.12546737
66	0x3e156bcb	0.14591901
67	0x3d9761ea	0.073917225
68	0xbd648a81	-0.05579615
69	0x3d960a94	0.07326236
70	0x3e1b3273	0.15155964
71	0x3e26f5c0	0.16304684
72	0xbe72615b	-0.2366995
73	0x3e3a5385	0.18195923
74	0x3e679a1b	0.2261738
75	0x3e11fae4	0.14255863
76	0x3ded3444	0.115822345
77	0x3dd1a09a	0.102357104
78	0x3d51c4d6	0.051213108
79	0x3e4b093a	0.19827738
80	0xbe2ac018	-0.1667484
81	0xbdd9180f	-0.10600292
82	0xbe32aa12	-0.17447689
83	0xbe346da5	-0.17619951
84	0x3cb50ccf	0.022100834
85	0xbe05baf9	-0.13059606
86	0x3d2f59c0	0.0428102
87	0xbe6ae802	-0.22940066
88	0xbd34d28a	-0.0441461
89	0x3d680c6a	0.056652464
90	0xbdc979e8	-0.09837705
91	0xbcf40825	-0.02978904
92	0xbe19cb67	-0.15018998
93	0x3e965d80	0.2936821
94	0x3e2f16da	0.17098561
95	0x3e1e42f3	0.15455227
96	0xbe09603f	-0.13415621
97	0x3d4bbcc3	0.049740564
98	0x3e83faca	0.25777274
99	0xbdc2dd6a	-0.09514888
100	0x3e1e9b4e	0.15488932
101	0x3e3c1e7f	0.18371008
102	0xbccb63dc	-0.02482789
103	0x3e113a56	0.1418241
104	0xbcc2ca25	-0.02377803
105	0x3d6e63c8	0.058200628
106	0xbe5440e9	-0.20727886
107	0xbe070df0	-0.1318891
108	0x3d970b01	0.07375146
109	0x3e57ed97	0.21086727
110	0xbd34e92e	-0.04416769
111	0x3db94832	0.09046973
112	0xbe5ba547	-0.21449767
113	0x3c7dbd67	0.015487052
114	0x3d080c93	0.033215117
115	0xbdb5983f	-0.08866929
116	0xbda01614	-0.07816711
117	0xbda5556e	-0.08072935
118	0xbe928928	-0.28620267
119	0x3a954527	0.0011388407
120	0x3e0facd3	0.14030771
121	0x3dfab0cf	0.12240755
122	0xbc5af4b8	-0.01336401
123	0xbe975936	-0.2956025
124	0xbd1172e7	-0.03550997
125	0xbd7212d0	-0.059099972
126	0x3e4e8219	0.20166816
127	0xbded33ce	-0.115821466
128	0xbcd02759	-0.025409387
129	0x3e2382db	0.15967886
130	0xbe5528e9	-0.20816387
131	0x3e7252c0	0.23664379
132	0xbe41abde	-0.18913218
133	0x3d969ead	0.07354484
134	0xbcdeef6f	-0.02721378
135	0xbe663dd6	-0.22484526
136	0x3dbfc544	0.09363797
137	0x3dca9639	0.09891934
138	0x3e23eb0d	0.16007634
139	0xbcf9df38	-0.030501947
140	0x3dbd2f89	0.09237582
141	0x3e692de6	0.22771415
142	0xbe0d65b1	-0.13808323
143	0xbe630da3	-0.22173171
144	0xbe6d0d04	-0.23149496
145	0xbe311541	-0.17293264
146	0xbd901b7e	-0.07036494
147	0x3e364044	0.17797953
148	0x3ce00f84	0.027351148
149	0x3e90e56d	0.28300038
150	0xbe2f0bc2	-0.17094329
151	0xbccb4a78	-0.024815783
152	0x3df3999d	0.11894534
153	0xbbd225c6	-0.0064131944
154	0x3e614181	0.21997644
155	0x3b321408	0.0027172584
156	0xbe518dae	-0.20464203
157	0xbe56621e	-0.20935866
158	0x3e5f2e0b	0.21794908
159	0x3daa6732	0.08320464
160	0x3e106c5a	0.14103833
161	0xbe191ad2	-0.14951637
162	0x3e5622f9	0.20911779
163	0x3e017df9	0.12645711
164	0xbdb1cb3a	-0.086813405
165	0x3d63632a	0.055514492
166	0xbe1404f2	-0.14455011
167	0x3d6e37bf	0.058158632
168	0x3c8ade52	0.016951714
169	0x3e9bbaf1	0.30416062
170	0x3e27a3a9	0.16371025
171	0x3d4bd2dd	0.04976164
172	0xbe3621cc	-0.1778633
173	0xbe2f4442	-0.17115882
174	0x3e6426ac	0.22280377
175	0xbe8149f2	-0.25251728
176	0xbe613ce8	-0.2199589
177	0x3d19bdda	0.037534572
178	0xbc8a4588	-0.016878858
179	0x3e3fcc60	0.18730307
180	0x3e8a8347	0.27053282
181	0xbe33be70	-0.17553115
182	0xbe34aee3	-0.17644839
183	0x3c5a9f1b	0.013343598
184	0x3e7e2add	0.24821039
185	0xbaf085e2	-0.0018350447
186	0x3e13bc1c	0.14427227
187	0x3b31d3e6	0.0027134358
188	0x3d1be0b2	0.038056083
189	0x3dc4f0f6	0.09616272
190	0xbe7bd209	-0.24591841
191	0xbd6bd03a	-0.057571627
192	0xbe90e196	-0.28297108
193	0xbd34cd59	-0.044141147
194	0xbe1c1fc4	-0.15246493
195	0xbe251e06	-0.16124734
196	0xbe4d1c1e	-0.20030257
197	0x3d63a64a	0.055578507
198	0xbca3bdfb	-0.01998805
199	0x3d609f2e	0.054839306
200	0x3cbe6f41	0.02324641
201	0x3e70bd2c	0.23509663
202	0x3df5e6e7	0.12006932
203	0xbdd984e9	-0.10621054
204	0xbe0d4793	-0.13796835
205	0xbe752046	-0.23938093
206	0x3dbab268	0.091160595
207	0x3e461ce0	0.19346952
208	0x3e603c8c	0.21898097
209	0xbd11b50e	-0.035573058
210	0x3e448640	0.19191837
211	0x3e8f8e1a	0.28038102
212	0x3e5c7e78	0.21532619
213	0x3e9e0c70	0.30868864
214	0xbd24407c	-0.04010056
215	0x3e1153c3	0.14192109
216	0xbe831099	-0.255986
217	0x3dd9e0f4	0.106386095
218	0x3c40339f	0.011731057
219	0xbe1f4c84	-0.15556532
220	0xbe726be6	-0.23673972
221	0xbd8067f6	-0.06269829
222	0x3e245dca	0.16051403
223	0x3aa8819b	0.0012856008
224	0x3e0129b1	0.1261356
225	0x3da6c366	0.08142738
226	0xbe288864	-0.16458279
227	0x3bb1afd1	0.0054225703
228	0xbe215b33	-0.15757446
229	0x3e68e7e9	0.22744717
230	0x3e01b721	0.12667514
231	0xbcf2f8d5	-0.029659668
232	0xbca5a7e7	-0.020221664
233	0x3e3e19db	0.1856455
234	0x3e0ed177	0.13947092
235	0xbe66f940	-0.22556019
236	0x3e3de45a	0.1854414
237	0x3df73a06	0.12071614
238	0x3e0ded8f	0.13860153
239	0xbdd91a85	-0.10600761
240	0xbe5091fb	-0.20368187
241	0xbe1332ef	-0.14374898
242	0x3e3d59ae	0.18491241
243	0xbe14e94b	-0.14542119
244	0xbe812582	-0.2522393
245	0xbe48d370	-0.19611907
246	0xbe01669a	-0.12636796
247	0x3e28954a	0.164632
248	0xbe086608	-0.13320172
249	0x3e748c56	0.23881659
250	0x3d8c6650	0.06855452
251	0x3e3b8653	0.1831296
252	0xbe102635	-0.14077075
253	0x3e55e11b	0.20886652
254	0x3e1ca0c4	0.15295702
255	0x3e4fbe5c	0.2028746

bn1.weight f4 [64]
0	0x3f7d87f0	0.9903555
1	0x3f73eee9	0.9528642
2	0x3f81cfdb	1.0141557
3	0x3f7fe110	0.99952793
4	0x3f8071ba	1.0034707
5	0x3f7ddbc8	0.99163485
6	0x3f767cce	0.96284187
7	0x3f81f839	1.0153877
8	0x3f7fcb2a	0.9991938
9	0x3f830949	1.0237209
10	0x3f7c4026	0.9853538
11	0x3f7c9055	0.98657733
12	0x3f7ec099	0.9951263
13	0x3f78b619	0.9715286
14	0x3f7fd1fa	0.99929774
15	0x3f8194af	1.01235
16	0x3f809541	1.0045549
17	0x3f7f6312	0.99760544
18	0x3f816a80	1.0110626
19	0x3f7f11d8	0.996366
20	0x3f7c730e	0.9861306
21	0x3f791e91	0.97312266
22	0x3f7e0b6d	0.99236184
23	0x3f826290	1.0186329
24	0x3f7a0099	0.9765716
25	0x3f81dc4a	1.0145352
26	0x3f77e974	0.96840596
27	0x3f815a78	1.0105734
28	0x3f802490	1.0011158
29	0x3f7d8a54	0.99039197
30	0x3f8150a0	1.010273
31	0x3f74e543	0.95662326
32	0x3f82b9dd	1.0212971
33	0x3f803cba	1.0018532
34	0x3f81762a	1.0114186
35	0x3f8003d4	1.0001168
36	0x3f80f9a7	1.0076188
37	0x3f7b7c58	0.9823661
38	0x3f7bd08e	0.98365104
39	0x3f7f53da	0.9973732
40	0x3f82b43d	1.0211254
41	0x3f862a13	1.048159
42	0x3f81d4f5	1.0143114
43	0x3f7aab3f	0.9791755
44	0x3f81d44e	1.0142915
45	0x3f78e5da	0.97225726
46	0x3f7f979e	0.99840724
47	0x3f8079ed	1.0037209
48	0x3f73fffa	0.95312464
49	0x3f859be6	1.0438201
50	0x3f7d9663	0.99057597
51	0x3f82908e	1.0200365
52	0x3f84236b	1.0323309
53	0x3f80c390	1.0059681
54	0x3f800681	1.0001985
55	0x3f7ed676	0.9954599
56	0x3f860a2c	1.0471854
57	0x3f78eddf	0.9723796
58	0x3f7f0019	0.99609524
59	0x3f80d1ca	1.0064023
60	0x3f7f6b9d	0.9977358
61	0x3f80cfdf	1.0063437
62	0x3f7caa90	0.9869776
63	0x3f827270	1.0191174

bn1.bias f4 [64]
0	0x3cba0def	0.022711722
1	0x3d4011c2	0.046891935
2	0x3c935bc2	0.01798809
3	0xbc9aaaae	-0.018880215
4	0xbb7bd837	-0.0038428435
5	0xbc832799	-0.016010093
6	0xbd6a4847	-0.057197835
7	0xbc5be7e8	-0.01342199
8	0x3d04d8be	0.032433264
9	0x3d62567b	0.055258255
10	0x3c2121ec	0.009834748
11	0x3a995fde	0.0011701544
12	0x3ba3f5d2	0.0050036693
13	0x3d110308	0.03540328
14	0x3c7e5845	0.015523975
15	0xbd25eeb3	-0.040510844
16	0x3d60322f	0.05473536
17	0xbdad5578	-0.084635675
18	0xbc912673	-0.01771853
19	0x3d6c9291	0.057756964
20	0x3bdd7091	0.0067578037
21	0x3ca2e03b	0.019882312
22	0x3ca7a4ca	0.02046432
23	0xbaa1f12d	-0.0012355201
24	0xbc860618	-0.016360328
25	0x3d4879bc	0.04894422
26	0x3d1a4b60	0.03766954
27	0x3ce33c6d	0.027738774
28	0x3da6e1f8	0.08148569
29	0xbbeb5fd0	-0.0071830526
30	0x3c0937f3	0.008375156
31	0xbc2dda3b	-0.010611112
32	0xbc9dddfc	-0.01927089
33	0xbd019ed6	-0.03164562
34	0x3d88fffd	0.06689451
35	0x3bc9d1da	0.0061590495
36	0xbd3d368c	-0.046194598
37	0x3d092c11	0.03348929
38	0xbc13f4d1	-0.009030537
39	0xbd2bbe80	-0.04192972
40	0x3d63fa89	0.05565885
41	0x3c552506	0.013009315
42	0xbd8ab82e	-0.06773411
43	0x3d72ae8d	0.059248496
44	0xbd23c1b6	-0.03997966
45	0x3d12e21e	0.035860173
46	0x3ddae5f7	0.106883936
47	0xbd497e0a	-0.049192466
48	0x3cdca01f	0.02693182
49	0x3d27e910	0.04099375
50	0xbc6002c1	-0.013672532
51	0x3dc186af	0.09449517
52	0x3b85cd6e	0.004083327
53	0x3c7052e0	0.014668196
54	0x3d32f0a6	0.04368653
55	0xbcd4004b	-0.025879046
56	0x3c2a4c29	0.010394135
57	0x3d3dfc11	0.046382967
58	0x3d18baca	0.03728751
59	0xbd576c6f	-0.052593645
60	0x3cf2ce89	0.0296395
61	0x3d8c53de	0.06851934
62	0x3d90310b	0.07040604
63	0xbdb28810	-0.08717358

bn1.running_mean f4 [64]
0	0x3e5e225b	0.21692793
1	0x3e567adf	0.20945309
2	0x3e893111	0.26795247
3	0x3e1f28af	0.15542863
4	0x3e261e88	0.16222584
5	0x3dedcc00	0.116111755
6	0x3e12e6b2	0.14345816
7	0x3e74f52c	0.2392165
8	0x3e354c5e	0.17704913
9	0x3e0f5321	0.13996555
10	0x3e2ef5e9	0.17085995
11	0x3e11facd	0.14255829
12	0x3e0a9fb2	0.13537481
13	0x3e33ec5c	0.17570633
14	0x3e1b2b2c	0.15153188
15	0x3e55d9d6	0.20883879
16	0x3e971c1d	0.29513636
17	0x3e82708f	0.254765
18	0x3e474072	0.19458178
19	0x3e51504a	0.20440784
20	0x3e0af1b6	0.13568768
21	0x3e11d851	0.14242674
22	0x3e3bcdd4	0.18340236
23	0x3e219d3f	0.15782641
24	0x3e39d76a	0.1814858
25	0x3e92ad3a	0.28647786
26	0x3e5f9c8c	0.21837062
27	0x3dcff30d	0.1015378
28	0x3e813a02	0.2523957
29	0x3e573f59	0.21020259
30	0x3e0574b2	0.13032797
31	0x3e230dbc	0.15923208
32	0x3e39ccc0	0.18144512
33	0x3e42d9f4	0.19028455
34	0x3e3b331b	0.18281214
35	0x3e479990	0.19492173
36	0x3e4ac340	0.19801044
37	0x3e246415	0.16053803
38	0x3e2a5fc3	0.16638093
39	0x3e4b8aa2	0.19877103
40	0x3deb698f	0.11494743
41	0x3dcbad24	0.09945133
42	0x3da3a619	0.07990665
43	0x3e5edac2	0.21763137
44	0x3e634d60	0.22197485
45	0x3e089f69	0.1334206
46	0x3e4eb6fd	0.20186992
47	0x3e48b294	0.19599372
48	0x3e02974f	0.12753032
49	0x3e081153	0.13287859
50	0x3e355897	0.17709576
51	0x3e517913	0.20456342
52	0x3e616239	0.22010125
53	0x3e158730	0.14602351
54	0x3e54a4ed	0.20766039
55	0x3e39d30d	0.18146916
56	0x3e52caf1	0.20585229
57	0x3e106067	0.14099275
58	0x3e38b005	0.18035896
59	0x3e51644b	0.20448415
60	0x3deb034b	0.114752375
61	0x3e384a61	0.17997123
62	0x3e47713c	0.19476789
63	0x3e1c9e86	0.15294847

bn1.running_var f4 [64]
0	0x3e0322f5	0.12806304
1	0x3e366e10	0.17815423
2	0x3e16af9b	0.14715426
3	0x3d760dda	0.060071804
4	0x3d9d605b	0.07684394
5	0x3d0d405c	0.034485206
6	0x3d6eb743	0.05828024
7	0x3dbf7259	0.09347982
8	0x3e2b35c2	0.16719726
9	0x3d1b7913	0.037957262
10	0x3dcffd17	0.10155695
11	0x3d223990	0.039605677
12	0x3d0c6c28	0.034282833
13	0x3e64b908	0.22336209
14	0x3d3b3895	0.045708258
15	0x3dfc9316	0.12332742
16	0x3ecfdafb	0.40596756
17	0x3e02d3a9	0.12776054
18	0x3d9484c5	0.07251886
19	0x3df74c39	0.12075085
20	0x3d4c9f81	0.049956802
21	0x3d78f763	0.0607828
22	0x3da2aa5c	0.0794265
23	0x3d0d636f	0.034518655
24	0x3d9e074b	0.07716235
25	0x3e550a00	0.20804596
26	0x3dede01d	0.11615012
27	0x3c9ffa80	0.019528627
28	0x3e412d10	0.18864846
29	0x3e64a1e0	0.22327375
30	0x3d0094ab	0.03139178
31	0x3d2547d0	0.04035169
32	0x3d74614a	0.059663095
33	0x3e51dc23	0.20494132
34	0x3dc7e033	0.097595595
35	0x3e5811ba	0.21100512
36	0x3e3b5ce0	0.18297148
37	0x3d2dccdf	0.04243171
38	0x3d82865a	0.06373282
39	0x3d820fcd	0.0635067
40	0x3d3803ab	0.044925373
41	0x3d0b335e	0.033984534
42	0x3cb02bf1	0.021505328
43	0x3e11aedd	0.14226861
44	0x3dcbd94f	0.09953558
45	0x3d0025b4	0.031285957
46	0x3e03f033	0.12884597
47	0x3dd06d85	0.10177139
48	0x3d7a9587	0.061177757
49	0x3d109937	0.035302367
50	0x3e3a725d	0.18207689
51	0x3d8678d4	0.06566015
52	0x3e1b9bc3	0.15196137
53	0x3de55290	0.11197388
54	0x3e02a28f	0.12757324
55	0x3dcdc0c3	0.10046532
56	0x3e0e8a5e	0.1391997
57	0x3d9049e1	0.07045341
58	0x3d81ef71	0.06344498
59	0x3da82abe	0.082112774
60	0x3cefb925	0.029263088
61	0x3df8d83f	0.12150621
62	0x3e09cb05	0.13456352
63	0x3d345a88	0.04403165

conv2.bias f4 [64]
0	0xbbf59155	-0.0074941316
1	0xbda35db5	-0.079768576
2	0x3c794b1c	0.015215661
3	0xbcdca7f9	-0.026935564
4	0x3b43bb1a	0.002986616
5	0xbc485355	-0.012226899
6	0xbd414d8b	-0.04719309
7	0x3c990ccd	0.018682862
8	0xbce7a502	-0.028276924
9	0x3d49c8a5	0.049263615
10	0x3c26429d	0.010147718
11	0x3c9d765b	0.019221475
12	0xbcf069e7	-0.029347373
13	0xbd91cdbd	-0.071193196
14	0xbd45d796	-0.048301302
15	0xbd7f6007	-0.06234744
16	0xbd1806c1	-0.037115816
17	0x3d153c00	0.036434174
18	0x3c8a24e5	0.016863296
19	0x3cb32dba	0.02187239
20	0x3d160c61	0.0366329
21	0x3b98ccca	0.0046630846
22	0x3c2739cd	0.010206652
23	0xbd5ccd1e	-0.053906552
24	0xbb3860a3	-0.0028133772
25	0x3d1f0615	0.03882416
26	0xb9956a57	-0.00028498724
27	0xbc0f83e0	-0.008759469
28	0xbbb8f542	-0.0056444714
29	0x3c0c6288	0.008568414
30	0xba91a774	-0.0011112527
31	0x3d83659e	0.06415866
32	0x3a869214	0.0010266923
33	0x3d6e0ae2	0.058115847
34	0xbd415ea1	-0.047209386
35	0xbd45227a	-0.048128583
36	0xbd895655	-0.0670592
37	0x3c08991e	0.008337287
38	0xbcecb89d	-0.028896624
39	0xbbdd8dbc	-0.006761281
40	0x3ce9e8ba	0.028553355
41	0xbd8045be	-0.06263302
42	0xbd259fbd	-0.04043554
43	0xbcb40e7d	-0.021979565
44	0xbd57caa5	-0.05268349
45	0x3db69854	0.08915773
46	0xbcf21400	-0.029550552
47	0xbc00efed	-0.007869703
48	0xbcaca24d	-0.021073485
49	0xbd9cc472	-0.076546565
50	0x3c80fe1d	0.01574617
51	0xbc6cce68	-0.014453508
52	0xb66ecd7e	-3.5584376e-06
53	0xbd4cb49a	-0.049976923
54	0xbba5c2e8	-0.005058635
55	0xbd32dfef	-0.04367059
56	0xbd84df9a	-0.06487961
57	0xbdb07bb9	-0.08617348
58	0x3d046b48	0.032328874
59	0xbd11ae3e	-0.03556656
60	0xbc2f6b4a	-0.010706732
61	0xbd11a61a	-0.035558797
62	0x3c7123a4	0.01471797
63	0x3d014240	0.03155732

conv2.lin.weight f4 [64, 64]
0	0xbd1101a0	-0.03540194
1	0xbe191e01	-0.14952852
2	0x3e3829cb	0.17984693
3	0x3d333d3d	0.043759573
4	0xbc4673a7	-0.012112535
5	0x3de49433	0.11161079
6	0x3e27942f	0.16365121
7	0xbcc5a4bd	-0.024126405
8	0x3d751d95	0.059842665
9	0x3dc30e47	0.095242076
10	0xbe417189	-0.18890966
11	0xbe29625d	-0.16541429
12	0x3ddd24c0	0.10798025
13	0x3d22a920	0.03971207
14	0x3e87d5e8	0.26530385
15	0x3d4e68a2	0.050392754
16	0x3cc8138e	0.024423387
17	0xbe1d1954	-0.15341693
18	0xbae7565a	-0.0017649636
19	0x3e327991	0.17429186
20	0x3c9b056a	0.01892348
21	0x3d9f66b5	0.07783262
22	0x3e47c3bd	0.19508262
23	0xbda1bfcf	-0.07897913
24	0x3d6ed419	0.05830774
25	0xbe7fa537	-0.24965368
26	0xbd2f84e2	-0.042851336
27	0xbd469836	-0.048485003
28	0xbe6ecdfe	-0.23320767
29	0xbe36cbc2	-0.17851165
30	0xbe346bc6	-0.17619237
31	0x3e4438ce	0.19162294
32	0x3e10114b	0.14069097
33	0x3d6ef25f	0.05833661
34	0xbe02bd4b	-0.12767522
35	0xbe352ac5	-0.17692097
36	0xbe7486ae	-0.23879501
37	0xbe775ccf	-0.24156497
38	0xbe37d6c4	-0.1795302
39	0xbe44377e	-0.19161794
40	0x3dc5f251	0.09665359
41	0xbdd17f47	-0.10229354
42	0xbd9d03bb	-0.07666727
43	0xbc650c65	-0.013980006
44	0x3d4bf115	0.04979046
45	0x3d4ee454	0.05051072
46	0x3e2feb39	0.17179574
47	0x3d96bb07	0.073598914
48	0x3d393a04	0.045221344
49	0x3c835546	0.016031872
50	0x3e1aa6dc	0.15102714
51	0x3da634b4	0.08115521
52	0x3dab8c0f	0.083763234
53	0xbe365568	-0.17806017
54	0x3d0a00d4	0.033692196
55	0xbdbd6c82	-0.09249212
56	0xbe250593	-0.16115408
57	0x3df8afdf	0.1214292
58	0x3e142a88	0.1446935
59	0x3c33de0d	0.010978234
60	0xbd551aa3	-0.052027356
61	0xbe0a30d6	-0.13495192
62	0x3d2d52a2	0.042315133
63	0xbe464f64	-0.19366223
64	0xbae708c8	-0.0017626518
65	0x3dfec076	0.12439053
66	0x3de262b2	0.11053981
67	0xbd951fe9	-0.07281477
68	0xbdccdc82	-0.10002996
69	0xbe002ba8	-0.12516654
70	0xbe360853	-0.17776613
71	0x3e6c0101	0.23047258
72	0xbe3e6874	-0.18594533
73	0x3e02eea9	0.12786354
74	0xbe070b62	-0.13187936
75	0x3dea7519	0.11448116
76	0xbe1eb2b2	-0.15497854
77	0x3e2e7885	0.17038162
78	0xbe61a285	-0.22034653
79	0x3e121d21	0.14268924
80	0xbcd2689d	-0.02568465
81	0xbe1d061e	-0.15334365
82	0xbe4b5219	-0.19855537
83	0x3d3ce909	0.046120677
84	0x3e61e322	0.220593
85	0x3dd204fe	0.102548584
86	0xbd23518e	-0.0398727
87	0x3d76d309	0.060259853
88	0x3e3e0ef4	0.18560392
89	0xbe1d6915	-0.15372117
90	0x3dc9d840	0.098556995
91	0xbe00f96e	-0.1259515
92	0xbdde22db	-0.10846492
93	0x3cf8d745	0.030376086
94	0xbd0ccf80	-0.034377575
95	0x3e46f2c8	0.19428551
96	0x3ca63ea5	0.020293543
97	0xbe58c828	-0.21170104
98	0xbdf05b36	-0.11736147
99	0xbde1d458	-0.110268295
100	0xbc5e439f	-0.013565927
101	0x3d0141c6	0.031556867
102	0x3d9e31c2	0.07724334
103	0x3b28fbfa	0.0025784955
104	0x3e06000e	0.13085958
105	0x3d8e499d	0.06947634
106	0x3dbdbc2e	0.09264408
107	0x3e4c2f5c	0.19939941
108	0x3e105134	0.14093477
109	0x3e2b0d14	0.16704208
110	0xbe4bdaa2	-0.1990762
111	0x3e2bb767	0.16769181
112	0xbe3a0468	-0.18165743
113	0x3dad8d6b	0.08474239
114	0xbd6c88fe	-0.057747833
115	0x3df0c730	0.11756742
116	0xbda50689	-0.08057887
117	0x3d3c9dd1	0.046048943
118	0xbd8186b1	-0.063245185
119	0x3d9285b6	0.071544096
120	0x3e221464	0.15828091
121	0x3d9fbd1d	0.07799742
122	0x3e43e245	0.19129284
123	0xbe17d400	-0.14826965
124	0xbe3ced85	-0.18449982
125	0xbc54bd71	-0.0129846195
126	0x3d861a14	0.06547943
127	0x3af496c5	0.0018660655
128	0xbca506d2	-0.020144854
129	0x3cb20dd7	0.021735115
130	0x3d29c588	0.041448146
131	0xbe5dd807	-0.21664439
132	0x3e3ee7e5	0.18643148
133	0x3e02dc02	0.12779239
134	0xbdf6636b	-0.12030681
135	0xbde1a77a	-0.11018272
136	0xbd6bb3cc	-0.057544515
137	0x3ca05517	0.019571824
138	0xbde23930	-0.11046064
139	0x3cdf5194	0.02726058
140	0x3e1766f8	0.14785373
141	0x3e24143e	0.16023347
142	0x38c2b913	9.2851136e-05
143	0x3df5f20a	0.12009056
144	0xbe563ccb	-0.20921628
145	0x3e08699b	0.13321535
146	0xbe5200bf	-0.20508097
147	0xbe729759	-0.23690547
148	0xbb9ba0f5	-0.004749412
149	0x3d6d605e	0.05795323
150	0xbda75713	-0.08170905
151	0x3d48bf2d	0.049010444
152	0x3dc0d491	0.09415544
153	0x3d89a0de	0.06720136
154	0x3e0a1147	0.13483153
155	0x3e1f8654	0.15578586
156	0x3e2856ad	0.16439314
157	0x3e3e443e	0.1858072
158	0x3e16c908	0.14725125
159	0x3e36c226	0.17847499
160	0xbdabcdc0	-0.08388853
161	0x3dfaea11	0.12251676
162	0xbd0ef039	-0.034897063
163	0xbdc55c14	-0.09636703
164	0xbe60da88	-0.21958363
165	0x3e11993c	0.1421861
166	0x3ced4449	0.028963225
167	0xbd218ab0	-0.039438903
168	0xbded9903	-0.1160145
169	0xbd066618	-0.032812208
170	0xbd468fa8	-0.048476845
171	0x3e02cde9	0.12773861
172	0xbd267f01	-0.040648464
173	0x3e7e4501	0.2483101
174	0xbcd0ecc0	-0.025503516
175	0xbcb1453b	-0.021639457
176	0xbd17580b	-0.0369492
177	0xbd9dfafd	-0.07713888
178	0x3b9f46db	0.0048607416
179	0x3de9c581	0.11414624
180	0xbde99b2b	-0.11406549
181	0xbb46b59b	-0.0030320648
182	0xbe71a8e4	-0.23599583
183	0xbe590749	-0.21194185
184	0x3dfbc0e8	0.12292653
185	0xbdb514ec	-0.08841881
186	0xbbc9892e	-0.0061503863
187	0xbc97d005	-0.018531809
188	0xbbf5ecc7	-0.0075050327
189	0x3c9633d3	0.018335259
190	0x3e2bde70	0.16784072
191	0xbe27f3e1	-0.16401626
192	0xbe633d60	-0.22191381
193	0xbe28be46	-0.16478834
194	0xbd9f2058	-0.07769841
195	0x3df6142c	0.12015566
196	0xbcc717e2	-0.02430338
197	0x3e1d0a6b	0.15336005
198	0xbdfaed19	-0.12252254
199	0xbe2f4a19	-0.1711811
200	0xbdbd3614	-0.0923883
201	0xbe88bff2	-0.26708943
202	0xbd6fa4db	-0.058506828
203	0xbe59be6c	-0.21264046
204	0x3cc20203	0.0236826
205	0x3d81ef72	0.06344499
206	0xbd518e00	-0.051160812
207	0xbe36f552	-0.1786702
208	0xbbe380a2	-0.0069428245
209	0x3d73aecc	0.05949287
210	0x3dd56e95	0.104214825
211	0x3c01203c	0.00788122
212	0x3c944fc9	0.01810445
213	0x3e44395a	0.19162503
214	0xbe4afbf2	-0.19822672
215	0xbdd36d8f	-0.10323631
216	0x3e1e5c18	0.15464818
217	0xbd857466	-0.06516342
218	0xbe1068f7	-0.14102541
219	0x3e3351f9	0.17511739
220	0xbe3b889e	-0.18313834
221	0xbdd805c8	-0.10547978
222	0x3e0bcedf	0.13653134
223	0x3d9b5ca7	0.075860314
224	0xbd8519d4	-0.06499067
225	0x3de5a82a	0.112137154
226	0xbe154465	-0.14576872
227	0xbe4cbf72	-0.19994906
228	0xbda45bed	-0.08025346
229	0x3a1e3e8e	0.0006036543
230	0xbe17c15c	-0.14819854
231	0x3d918556	0.0710551
232	0x3d3fa3be	0.046787016
233	0x3d189fef	0.0372619
234	0x3d9d20b5	0.07672254
235	0xbdf86e61	-0.12130428
236	0x3c80a705	0.015704641
237	0x3d96d8fc	0.07365605
238	0xbe2de452	-0.16981629
239	0xbd7e45bf	-0.062078234
240	0x3d66ae2d	0.05631845
241	0xbe3b680a	-0.18301407
242	0xbe2cc3f9	-0.16871633
243	0xbe0b30c0	-0.13592815
244	0xbe3c9289	-0.18415274
245	0xbde37796	-0.111067936
246	0x3ddff18e	0.10934745
247	0x3d949061	0.072541006
248	0xbe46c063	-0.19409327
249	0xbe78e81e	-0.24307296
250	0x3dd7d815	0.10539261
251	0xbe0b5cde	-0.13609645
252	0x3dbf72b5	0.093480505
253	0x3e415e4c	0.18883628
254	0x3da2e14f	0.079531305
255	0xbcf12f90	-0.029441625

bn2.weight f4 [64]
0	0x3f805c9c	1.0028262
1	0x3f85b118	1.044467
2	0x3f833219	1.0249664
3	0x3f80e5f2	1.0070174
4	0x3f7b8929	0.98256165
5	0x3f83d6bb	1.0299906
6	0x3f82ee4c	1.0228972
7	0x3f80e916	1.0071132
8	0x3f7c6463	0.9859068
9	0x3f7a31e5	0.97732383
10	0x3f7d4190	0.98928165
11	0x3f71f952	0.9452106
12	0x3f79fff3	0.9765617
13	0x3f823023	1.017094
14	0x3f8301c4	1.0234914
15	0x3f77ffee	0.9687489
16	0x3f75ab81	0.9596482
17	0x3f7fae3d	0.9987524
18	0x3f81ecbe	1.0150373
19	0x3f80f209	1.0073863
20	0x3f81659a	1.0109131
21	0x3f81bc65	1.0135618
22	0x3f8376ae	1.0270593
23	0x3f7cd47a	0.98761714
24	0x3f7b95bb	0.98275346
25	0x3f82bb57	1.0213422
26	0x3f823f66	1.0175598
27	0x3f82e441	1.0225908
28	0x3f7aa55d	0.97908574
29	0x3f803f0d	1.0019242
30	0x3f77e392	0.9683162
31	0x3f78f173	0.9724342
32	0x3f77a58f	0.96737
33	0x3f790843	0.9727823
34	0x3f8239b0	1.0173855
35	0x3f852b6d	1.0403877
36	0x3f809ee6	1.0048492
37	0x3f83670f	1.0265826
38	0x3f7e4521	0.9932423
39	0x3f769ac8	0.9632993
40	0x3f7aa230	0.9790373
41	0x3f84150d	1.0318924
42	0x3f8043e6	1.0020721
43	0x3f83eb9d	1.0306278
44	0x3f760c1a	0.96112216
45	0x3f7839ab	0.96962994
46	0x3f8316f0	1.0241375
47	0x3f79e3c9	0.976132
48	0x3f804a8d	1.0022751
49	0x3f7ddb6e	0.9916295
50	0x3f6e7504	0.931473
51	0x3f79e4da	0.97614825
52	0x3f79f6a6	0.9764198
53	0x3f845bfd	1.0340573
54	0x3f7f6954	0.9977009
55	0x3f7f04b8	0.99616575
56	0x3f8473ce	1.0347841
57	0x3f7a16cd	0.9769104
58	0x3f816615	1.0109278
59	0x3f78821a	0.9707352
60	0x3f7e4e2d	0.99338037
61	0x3f819b38	1.0125494
62	0x3f7f4cc2	0.997265
63	0x3f7df500	0.99201965

bn2.bias f4 [64]
0	0x3d5c267d	0.053747643
1	0x3997477e	0.0002885423
2	0x3e0913cf	0.13386463
3	0x3d9b0f75	0.075713076
4	0x3e06dc9b	0.13170092
5	0x3d9d839d	0.07691119
6	0xbcf1b6f9	-0.029506193
7	0x3cf6ec07	0.030141843
8	0xbcd2811f	-0.025696335
9	0x3e0a6c68	0.13517916
10	0x3d890b01	0.06691552
11	0xbd08b2bd	-0.033373583
12	0xbe04a1ac	-0.12952298
13	0xbc8d37d7	-0.01723854
14	0xbd76576f	-0.060141977
15	0xbd64d2f3	-0.05586524
16	0xbb13a9d8	-0.0022531655
17	0x3ded19d7	0.11577194
18	0xbd27f5a0	-0.04100573
19	0x3e1765f0	0.1478498
20	0x3c9b1482	0.018930677
21	0x3dc6570c	0.096845716
22	0x3e10db5e	0.14146182
23	0xbd209e20	-0.0392133
24	0x3ddaa51f	0.106760256
25	0xbd9816d7	-0.07426231
26	0xbde3963c	-0.11112639
27	0x3dce690b	0.10078629
28	0x3d12fe73	0.035887193
29	0x3d8f40bb	0.06994768
30	0xbdb48a13	-0.08815398
31	0x3deb5690	0.1149112
32	0x3dad7edc	0.08471462
33	0x3d001011	0.031265322
34	0xbd49afff	-0.04924011
35	0x3dbedb7f	0.09319209
36	0x3d6edb3f	0.058314558
37	0x3de981ea	0.11401732
38	0x3d932571	0.07184876
39	0xbe116534	-0.14198762
40	0xbccc2b31	-0.024922939
41	0x3da47b58	0.080313385
42	0x3d2375d0	0.039907277
43	0xbb54900c	-0.0032434491
44	0xbc28352d	-0.010266584
45	0xbdfdc281	-0.12390614
46	0x3c856274	0.016282298
47	0x3db24b4f	0.0870577
48	0x3df94328	0.12171012
49	0x3c9c8950	0.019108444
50	0x3dd31266	0.103062436
51	0x3d92e66a	0.07172854
52	0xbdc495a4	-0.09598854
53	0x3c40b0a8	0.011760868
54	0x3da53376	0.08066456
55	0x3e063bf5	0.1310881
56	0x3d1b8049	0.03796414
57	0xbc3344f2	-0.010941731
58	0xbdffa3c2	-0.12482406
59	0x3c57dcb8	0.013175182
60	0x3c70647f	0.014672398
61	0x3e0ac040	0.135499
62	0x3ddb6845	0.10713247
63	0x3d808a4d	0.06276379

bn2.running_mean f4 [64]
0	0x3edcef51	0.43151334
1	0x3ea6e2ef	0.32595012
2	0x3ea07458	0.31338763
3	0x3eb235da	0.3480671
4	0x3ea6f0cf	0.32605597
5	0x3eb337cb	0.35003504
6	0x3ea69bc8	0.32540727
7	0x3f06c9d8	0.5265174
8	0x3ee76427	0.45193598
9	0x3f22385b	0.6336724
10	0x3e925286	0.28578585
11	0x3e97e654	0.29667914
12	0x3eadb608	0.3392794
13	0x3eabe56f	0.3357348
14	0x3e781030	0.24224925
15	0x3ec97d8c	0.39353597
16	0x3e942085	0.2893106
17	0x3ee8181f	0.45330903
18	0x3ea1c71b	0.31597218
19	0x3ee153d4	0.44009268
20	0x3efdc621	0.49565223
21	0x3ef41e4f	0.47679374
22	0x3e98f126	0.29871482
23	0x3eeed1a7	0.46644327
24	0x3f13f94e	0.57802284
25	0x3f19b93c	0.6004827
26	0x3e9d933c	0.30776393
27	0x3ebe0fd8	0.37121463
28	0x3eb46327	0.35231897
29	0x3e8bdfc5	0.2731916
30	0x3eb7f5c0	0.3592968
31	0x3ec6997d	0.38788977
32	0x3ec2ed52	0.38071686
33	0x3eb2eda4	0.3494693
34	0x3e8033e3	0.25039586
35	0x3e58c937	0.21170507
36	0x3ec09fcd	0.37621918
37	0x3eb72b34	0.3577515
38	0x3e97248a	0.29520065
39	0x3eed6fb3	0.46374282
40	0x3e943b30	0.28951406
41	0x3e4643f8	0.19361866
42	0x3e9fbda6	0.31199378
43	0x3e85d92c	0.26142251
44	0x3e95fbaa	0.29293567
45	0x3f07b17b	0.5300519
46	0x3e91ea02	0.28498846
47	0x3f05a860	0.52210045
48	0x3ea84344	0.3286382
49	0x3e477b91	0.1948073
50	0x3ef636e1	0.48088744
51	0x3ebc6549	0.36796024
52	0x3eb3fbca	0.35153037
53	0x3e2faf07	0.17156611
54	0x3e9d3b49	0.30709293
55	0x3e9ccd41	0.30625346
56	0x3e6e4796	0.23269495
57	0x3e377044	0.1791392
58	0x3ebd8f44	0.37023365
59	0x3eb07ecd	0.3447174
60	0x3e857822	0.26068217
61	0x3e8cb914	0.27484953
62	0x3ee38257	0.4443538
63	0x3ecf8470	0.4053073

bn2.running_var f4 [64]
0	0x3ec7802c	0.38964975
1	0x3e7f48b1	0.24930073
2	0x3e2fad8d	0.17156048
3	0x3e383de5	0.17992361
4	0x3e84cec9	0.25939015
5	0x3ee301c8	0.44337296
6	0x3e6af9f8	0.22946918
7	0x3f537454	0.8259938
8	0x3f618a80	0.8810196
9	0x3ff49c37	1.9110173
10	0x3e0bc9ad	0.13651152
11	0x3e0c960c	0.13729113
12	0x3e4fd930	0.20297694
13	0x3ea891f5	0.32923856
14	0x3e0af563	0.1357017
15	0x3f4b015c	0.7929895
16	0x3e849866	0.2589752
17	0x3ea0f379	0.31435755
18	0x3e364e0e	0.17803213
19	0x3f9e6b30	1.2376461
20	0x3edabf29	0.4272397
21	0x3f3d362b	0.7391078
22	0x3e273ae9	0.16331066
23	0x3ecabc5c	0.39596832
24	0x3f629b3a	0.88518107
25	0x3f23fe95	0.64060336
26	0x3e576ffb	0.21038811
27	0x3ee8a8e2	0.45441347
28	0x3e85ffc0	0.26171684
29	0x3e1b5a61	0.15171196
30	0x3eed1564	0.46305382
31	0x3e5a69b1	0.2132938
32	0x3f0443c5	0.5166591
33	0x3ea50915	0.32233492
34	0x3e12e971	0.14346863
35	0x3dd43c14	0.103630215
36	0x3f0ec9f6	0.5577692
37	0x3e853200	0.2601471
38	0x3e5e73cd	0.21723862
39	0x3ef60a52	0.4805475
40	0x3e1c3a37	0.15256582
41	0x3de9e842	0.11421253
42	0x3e8bc784	0.27300656
43	0x3e0df01a	0.13861123
44	0x3e9e9084	0.30969632
45	0x3f047ab3	0.51749724
46	0x3e6a360e	0.22872183
47	0x3ec791ed	0.3897852
48	0x3e6af65e	0.22945544
49	0x3deeba2e	0.11656605
50	0x3ea7dab0	0.32784033
51	0x3e7fd593	0.24983816
52	0x3e98a94f	0.29816672
53	0x3e08564f	0.13314174
54	0x3e504737	0.20339666
55	0x3ea32576	0.31864518
56	0x3e4fe1fc	0.2030105
57	0x3d9f9625	0.0779231
58	0x3e888d56	0.2667033
59	0x3ede58f1	0.43427232
60	0x3e1dd81c	0.1541447
61	0x3e562abf	0.20914744
62	0x3efd6461	0.49490646
63	0x3e6cab82	0.231123

fc1.weight f4 [64, 64]
0	0x3cdc2c84	0.026876695
1	0x3de31bc4	0.1108928
2	0xbcdd9476	-0.02704833
3	0x3d5d75fe	0.054067604
4	0xbd03ac85	-0.03214695
5	0xbd2249aa	-0.039621033
6	0x3de4101a	0.11135884
7	0x3ddf1176	0.10892002
8	0xbd95301d	-0.072845675
9	0xbddb0442	-0.106941715
10	0xbdac099c	-0.0840027
11	0x3c8536f9	0.016261565
12	0xbc8db2fd	-0.017297262
13	0x3b6bc861	0.003597759
14	0x3d0497b3	0.032371234
15	0x3d206308	0.039156944
16	0x3dd7b033	0.10531654
17	0xbe21d02a	-0.15802065
18	0x3dc2235f	0.09479403
19	0xbcb19ea2	-0.021682087
20	0x3cee2a66	0.029072952
21	0xbce12827	-0.027484966
22	0xbd140c62	-0.03614462
23	0x3c96a907	0.018391145
24	0xbdec4b6d	-0.11537824
25	0x3d3aeda7	0.0456368
26	0x3dc7c37f	0.09754085
27	0xbdc9a9ea	-0.09846862
28	0x3da65b68	0.08122903
29	0x3b0c6ed1	0.0021428356
30	0xbc9a5d7e	-0.018843409
31	0xbde33bbd	-0.110953785
32	0x3dc679d5	0.09691206
33	0xbe069a2e	-0.13144752
34	0xbd8d8ae7	-0.06911259
35	0xbd9e5b24	-0.077322274
36	0xbc2cfe0f	-0.010558619
37	0x3d2f390d	0.042779017
38	0x3dcb0e5d	0.09914849
39	0x3dc46342	0.095892444
40	0xbca184c5	-0.01971663
41	0x3c691c85	0.014227991
42	0x3e00816d	0.12549372
43	0xbcfae78a	-0.030627985
44	0xbdb3c98f	-0.087786786
45	0xbda38571	-0.07984436
46	0x3d59712b	0.05308644
47	0xbc93641c	-0.017992072
48	0xbdf223b1	-0.11823214
49	0xbd8bbcf4	-0.06823149
50	0x3d82bb87	0.06383424
51	0x3cea8d14	0.028631724
52	0xbd58b8cd	-0.052910615
53	0x3d71c1a0	0.059022546
54	0xbdc6e88c	-0.097123235
55	0x3c4dfa6c	0.012571912
56	0xbd38ddf7	-0.045133557
57	0x3d4dbc5a	0.050228454
58	0xbd7ace0b	-0.061231654
59	0xbd95460b	-0.0728875
60	0x3e26a119	0.16272391
61	0x3dd5d82f	0.104416244
62	0xbd477c4b	-0.04870252
63	0xbdebbe83	-0.115109466
64	0xbddb3285	-0.10702995
65	0x3d94219d	0.07232974
66	0x3ca099bd	0.019604558
67	0x3cdb6cde	0.02678531
68	0xbdc61e0e	-0.09673701
69	0x3c9ed155	0.019386927
70	0xbcab26c0	-0.0208925
71	0x3da2336f	0.079199664
72	0x3def2673	0.116772555
73	0xbd48e4e7	-0.049046423
74	0x3d1bd0f2	0.038041063
75	0xbcc13a52	-0.02358738
76	0xbdf371e3	-0.118869565
77	0xbda16a92	-0.07881655
78	0xbcdc3809	-0.026882188
79	0x3d9d81ca	0.07690771
80	0xbd051776	-0.032493077
81	0xbe06d4bc	-0.13167089
82	0x3e0ad996	0.13559565
83	0x3c3d0f1e	0.011539249
84	0x3ca1cc26	0.019750666
85	0x3ce3f733	0.027827835
86	0x3e01036b	0.1259896
87	0xbd80bf0f	-0.062864415
88	0xbda275e8	-0.07932645
89	0xbda9d07f	-0.082917206
90	0xbbd8ecc3	-0.006620021
91	0x3d981333	0.07425537
92	0x3d1f3df1	0.03887743
93	0x3c9134d4	0.017725386
94	0x3cc22b54	0.023702301
95	0x3d96e7f6	0.07368462
96	0x3d767d2f	0.060177978
97	0xbda32b49	-0.0796724
98	0x3d8fab50	0.07015097
99	0x3d40dbb3	0.04708452
100	0xbd86f22c	-0.06589159
101	0xbd7cac85	-0.061687965
102	0x3ddb6019	0.107116885
103	0xbcb9d32b	-0.0226837
104	0x3e2584a6	0.16163883
105	0x3dea57c1	0.11442519
106	0x3d0f2416	0.034946524
107	0x3e1ced09	0.15324797
108	0x3d710c1e	0.058849446
109	0xbdfc7ea5	-0.12328843
110	0x3d5fe0c8	0.054657727
111	0x3dbac3aa	0.09119351
112	0xbdbfb882	-0.09361364
113	0xbd34fde2	-0.044187434
114	0x3dda6d42	0.106653705
115	0xbd996e3a	-0.07491727
116	0x3d216663	0.039404284
117	0xbda30c9d	-0.0796139
118	0x3bbd2291	0.005771943
119	0x3d251261	0.04030073
120	0xbd1b2779	-0.03787944
121	0x3d2552f5	0.040362317
122	0xbc108d8b	-0.008822809
123	0x3d027ff4	0.031860307
124	0xbcdad337	-0.026712043
125	0x3d199005	0.037490863
126	0xbd2c09ba	-0.042001463
127	0xbda6ff33	-0.08154144
128	0xbe282fbd	-0.1642446
129	0xbcfbaae3	-0.030721134
130	0xbe00c8a8	-0.12576544
131	0xbdd0c5db	-0.10193988
132	0x3d939575	0.07206241
133	0x3d0ad076	0.03389021
134	0xbdd2c173	-0.10290804
135	0xbda5f3b4	-0.08103123
136	0xbc172816	-0.009225866
137	0xbda9a4f2	-0.08283414
138	0x3d0b2467	0.033970263
139	0x3df1d9f3	0.11809149
140	0xbd53feaf	-0.051756557
141	0xbd673fce	-0.056457333
142	0xbdc7c228	-0.09753829
143	0xbdc06532	-0.093943015
144	0x3d9da736	0.076979086
145	0x3e1769c5	0.14786442
146	0xbd6fc295	-0.058535177
147	0x3dbe4bb7	0.09291785
148	0x3d2d825e	0.042360656
149	0xbd94240a	-0.072334364
150	0x3d53ca74	0.051706746
151	0x3cd88efb	0.026435366
152	0xbc285259	-0.010273539
153	0x3d90a396	0.070624515
154	0xbd779100	-0.060441017
155	0xbd3e010e	-0.046387725
156	0xbdc5d953	-0.09660592
157	0x3d94b98c	0.07261953
158	0xbdaffdbe	-0.08593319
159	0xbdbbf0fc	-0.091768235
160	0x3d4ee96e	0.050515585
161	0xbdd42437	-0.1035847
162	0x3deedcf6	0.11663239
163	0xbc6932cf	-0.014233305
164	0x3da2cbe8	0.07949048
165	0xbddf4ad0	-0.10902941
166	0x3d5bb1ef	0.053636488
167	0x3d568d33	0.05238075
168	0xbd44feb9	-0.048094485
169	0x3db37214	0.08761993
170	0xbd9494ba	-0.0725493
171	0x3db99726	0.090620324
172	0xbbcadc3c	-0.0061908048
173	0x3dd57675	0.104229845
174	0x3deb2a9d	0.11482737
175	0x3cc08cc0	0.023504615
176	0xbd9de586	-0.07709794
177	0x3d859134	0.06521836
178	0xbdae74a9	-0.08518345
179	0xbda6f089	-0.08151347
180	0xbc890e26	-0.01673038
181	0x3dd1ef88	0.10250765
182	0xbd26f825	-0.040763993
183	0xbd334660	-0.043768287
184	0x3cb880d9	0.022522377
185	0xbd92e5c1	-0.07172728
186	0xbd79333d	-0.06083988
187	0x3da1136c	0.078650326
188	0x3c9feb7c	0.019521467
189	0xbdf131f8	-0.11777109
190	0xbdcfe43d	-0.10150955
191	0x3d19afb6	0.037521087
192	0x3c4ba597	0.012429616
193	0xbcdaa5fd	-0.026690478
194	0xbdfd383f	-0.12364244
195	0x3cd92ea2	0.026511494
196	0xbe20069b	-0.1562752
197	0xbcacc83f	-0.021091579
198	0xbe018e03	-0.1265183
199	0xbd87678c	-0.06611547
200	0x3da71bdb	0.0815961
201	0xbdd552d1	-0.104161866
202	0x3d703a26	0.058649205
203	0xbdb3f3a0	-0.08786702
204	0x3c957856	0.018245857
205	0xbe227ad3	-0.15867166
206	0x3db88567	0.090098195
207	0xbd543b66	-0.05181446
208	0x3c1f3a22	0.00971845
209	0xbdcddcc5	-0.10051874
210	0x3df3673d	0.118849255
211	0x3dadacfb	0.08480259
212	0xbd4244e1	-0.04742897
213	0x3a8595f6	0.0010191787
214	0x3d55a000	0.05215454
215	0xbde1b0cd	-0.1102005
216	0xbcc29e25	-0.02375705
217	0x3d1f0020	0.03881848
218	0x3d94f859	0.07273931
219	0xbdb271f5	-0.08713142
220	0x3caccdd8	0.021094248
221	0x3d2fffd1	0.042968575
222	0x3d8e58f6	0.06950562
223	0xbdc62229	-0.09674484
224	0x3db0d0d6	0.08633582
225	0xbd561cec	-0.052273676
226	0xbd9c9fe0	-0.07647681
227	0x3d6a3eaa	0.057188667
228	0xbdce6472	-0.10077752
229	0xbab7d1f7	-0.0014024366
230	0x3d8c2426	0.06842832
231	0xbd33eddf	-0.043928023
232	0xbe0012eb	-0.12507217
233	0x3daa5331	0.08316649
234	0xbdd03013	-0.101654194
235	0xbd9b26ee	-0.075757846
236	0xbd4611c0	-0.04835677
237	0xbd33cef3	-0.043898534
238	0xbb801f88	-0.003910009
239	0xbda3795a	-0.0798213
240	0xbe096013	-0.13415556
241	0xbdf6155c	-0.12015793
242	0xbe18fd94	-0.14940482
243	0x3ca3276d	0.01991626
244	0x3d09bcc4	0.033627287
245	0x3d8d7d5f	0.06908678
246	0xbd19fd51	-0.037595097
247	0xbd7f4d09	-0.062329326
248	0x3d2cf135	0.04222222
249	0xbd450826	-0.048103474
250	0x3da8eab4	0.08247891
251	0x3dc4e697	0.09614294
252	0x3da5fc5c	0.08104774
253	0xbdd6d382	-0.10489561
254	0xbd363ebd	-0.044493426
255	0xbbde7825	-0.0067892247

fc1.bias f4 [64]
0	0xbc908d12	-0.017645393
1	0x3dd207ad	0.1025537
2	0xbdc203df	-0.094733946
3	0xbd63f37f	-0.055652138
4	0x3b86bb74	0.0041117016
5	0xbe2e2233	-0.17005233
6	0xbde61289	-0.11234004
7	0x3cf24b88	0.029577032
8	0xbde0a919	-0.10969753
9	0xbdcb6ca1	-0.09932829
10	0xbdaf6480	-0.08564091
11	0xbda20926	-0.07911901
12	0xbddc08b6	-0.10743849
13	0xbd9c7f98	-0.07641524
14	0xbc39e158	-0.01134523
15	0xbde32e46	-0.1109281
16	0xbe0972b8	-0.13422668
17	0xbde57758	-0.11204404
18	0xbdd71609	-0.1050225
19	0xbe4f7801	-0.20260622
20	0x3d87c057	0.06628483
21	0xbdc6070f	-0.09669315
22	0x3df2cd98	0.1185562
23	0xbdbfae59	-0.09359426
24	0xbd85d682	-0.06535055
25	0x3d93c9b0	0.07216203
26	0x3db59684	0.08866599
27	0xbdb517d2	-0.08842434
28	0x3cc605d6	0.024172705
29	0xbc99097c	-0.01868128
30	0xbdb3e496	-0.08783834
31	0xbd3b58dd	-0.045739044
32	0x3c46ad29	0.012126246
33	0xbd2b8aef	-0.041880544
34	0xbe1bb5be	-0.15206048
35	0xbdddc0e6	-0.10827808
36	0x3d7b40f4	0.06134124
37	0xbde8d3a7	-0.113684945
38	0x3da27901	0.07933236
39	0xbdd8053e	-0.10547875
40	0x3af3673f	0.0018570198
41	0xbc8a2bc8	-0.01686658
42	0xbdba2106	-0.0908833
43	0xbd06abf4	-0.03287883
44	0xbe471fe8	-0.19445765
45	0x3d2c69ba	0.042093016
46	0xbcb7d6a5	-0.022441218
47	0x3d32439e	0.043521516
48	0xbd89a65a	-0.06721182
49	0xbba79f09	-0.005115394
50	0xbcb85dcc	-0.022505663
51	0x3cc0096f	0.023441998
52	0xbd1cb7b8	-0.038261145
53	0xbdbcf0a9	-0.0922559
54	0xbde01b7e	-0.10942744
55	0xbd90ec2b	-0.070762955
56	0x3cce4ecc	0.025184058
57	0xbd86595f	-0.06560015
58	0x3cddfddf	0.027098594
59	0xbe2b7cc2	-0.1674681
60	0x3e0c3fba	0.13696185
61	0xbe1158b9	-0.14194001
62	0xbbd6990e	-0.0065490073
63	0xbe3bf741	-0.18356039

bn3.weight f4 [64]
0	0x3f8f55c8	1.1198053
1	0x3f8fea84	1.1243443
2	0x3f8d112d	1.1020867
3	0x3f8fee72	1.1244643
4	0x3f92b819	1.1462432
5	0x3f94bdc6	1.1620414
6	0x3f8f0b3c	1.1175303
7	0x3f8edc97	1.1161069
8	0x3f92bffc	1.1464839
9	0x3f90b38d	1.1304795
10	0x3f8f3150	1.1186924
11	0x3f8d226b	1.1026129
12	0x3f8af2b7	1.0855321
13	0x3f8b6b2d	1.0892082
14	0x3f8969da	1.0735428
15	0x3f8ebb08	1.1150827
16	0x3f93a904	1.1535954
17	0x3f8e5f84	1.1122899
18	0x3f8cc07f	1.0996245
19	0x3f8edbc9	1.1160823
20	0x3f931d71	1.149336
21	0x3f8c008d	1.0937668
22	0x3f903b39	1.1268073
23	0x3f93ab52	1.1536658
24	0x3f8ec0e1	1.1152612
25	0x3f911ad3	1.1336311
26	0x3f8bed62	1.0931818
27	0x3f86b328	1.0523424
28	0x3f9310f2	1.1489546
29	0x3f90631d	1.1280247
30	0x3f89df3c	1.0771251
31	0x3f8bc104	1.0918279
32	0x3f8f9365	1.1216856
33	0x3f925c30	1.1434383
34	0x3f9322e7	1.1495026
35	0x3f8babf0	1.0911846
36	0x3f9452d4	1.1587777
37	0x3f943b71	1.158064
38	0x3f9344ef	1.1505412
39	0x3f883591	1.0641347
40	0x3f8cd59b	1.1002687
41	0x3f90c027	1.130864
42	0x3f8e254d	1.1105133
43	0x3f89bc8c	1.0760665
44	0x3f8f0051	1.1171972
45	0x3f92aef1	1.1459638
46	0x3f8b96dc	1.0905414
47	0x3f8fdd10	1.1239338
48	0x3f8f7bd5	1.1209666
49	0x3f923d12	1.1424887
50	0x3f9064cb	1.128076
51	0x3f8ee7b7	1.1164464
52	0x3f897749	1.0739528
53	0x3f92cdb9	1.1469032
54	0x3f8d9574	1.1061234
55	0x3f94e050	1.1630955
56	0x3f8e1e23	1.1102947
57	0x3f8598e8	1.0437288
58	0x3f8e6f7f	1.1127776
59	0x3f899e9a	1.0751526
60	0x3f923638	1.1422796
61	0x3f944b96	1.1585567
62	0x3f8e9c5b	1.1141466
63	0x3f85e087	1.0459145

bn3.bias f4 [64]
0	0xbe2805b4	-0.16408426
1	0xbd850718	-0.06495494
2	0x3dd7fadf	0.10545897
3	0x3df99956	0.1218745
4	0xbe0e2101	-0.13879777
5	0xbdc7a361	-0.09747959
6	0x3e15d8eb	0.14633529
7	0xbd4c683c	-0.049904093
8	0x3e0286d4	0.12746745
9	0xbda7cd68	-0.08193475
10	0x3d8af6f5	0.067853846
11	0x3d71bece	0.059019856
12	0xbd269aaa	-0.040674843
13	0xbd5b69f4	-0.05356784
14	0x3d0ec576	0.034856282
15	0xbcf1f092	-0.029533658
16	0xbdd0bd48	-0.101923525
17	0x3e2f7fb6	0.17138562
18	0x3cf43ece	0.029815104
19	0x3cadd418	0.021219298
20	0xbe10fda6	-0.14159259
21	0xbe0bbb67	-0.13645707
22	0x3dd5dd30	0.10442579
23	0xbddfc8a7	-0.10926943
24	0x3dd0de23	0.10198619
25	0x3b769582	0.0037625735
26	0x3d116d0c	0.035504386
27	0x3cfe5511	0.031046422
28	0xbdb130cc	-0.086518854
29	0xbdde69e6	-0.10860042
30	0x3cd7d2a8	0.026345566
31	0x3dab9f81	0.08380032
32	0x3d1e2a15	0.03861435
33	0xbd7e8a03	-0.062143337
34	0x3d9a033b	0.075201474
35	0x3dad31f6	0.08456795
36	0x3d62107c	0.055191502
37	0xbe104343	-0.14088158
38	0x3d6f0451	0.058353726
39	0x3dd660a9	0.10467655
40	0xbdd7a132	-0.105287924
41	0xbc16c116	-0.009201309
42	0x3e15dd8a	0.14635292
43	0x3e0bf15a	0.13666287
44	0xbdccbc92	-0.099969044
45	0xbbd18f52	-0.006395259
46	0x3d856ea5	0.065152444
47	0x3e0d5a1c	0.13803905
48	0xbd24792e	-0.04015463
49	0x3dd2725e	0.1027572
50	0x3dbf379f	0.09336781
51	0xbd80b823	-0.06285121
52	0x3e16c50f	0.1472361
53	0xbd68757b	-0.056752663
54	0xbd6a50ae	-0.05720585
55	0xbcc52861	-0.024067106
56	0xbd0bf466	-0.034168623
57	0x3e008fcc	0.12554854
58	0xbdd8bea2	-0.10583235
59	0xbdb2f1ac	-0.087375015
60	0xbe00146f	-0.12507795
61	0x3d448851	0.047981564
62	0x3dc0a681	0.09406758
63	0x3e136564	0.14394146

bn3.running_mean f4 [64]
0	0x3f9cd5f7	1.2252797
1	0x3ff67375	1.9253985
2	0x3ff5553d	1.9166638
3	0x3fbc35a5	1.4703871
4	0x3fc902b9	1.5703956
5	0x3fbdfeb4	1.4843354
6	0x3f9574d1	1.1676275
7	0x3f891713	1.0710167
8	0x3fa74f60	1.3071098
9	0x3f484e58	0.78244543
10	0x3faff5d2	1.3746893
11	0x3fa0b038	1.2553778
12	0x3ff31cfe	1.8993223
13	0x3f9c2225	1.219792
14	0x3ff280a3	1.8945507
15	0x3fcd0284	1.6016393
16	0x3f6720f4	0.9028466
17	0x3fafe42e	1.374151
18	0x3fdc96ff	1.723358
19	0x3fce0195	1.6094233
20	0x400df0b7	2.217817
21	0x3fd5c695	1.6701227
22	0x3f75c411	0.960023
23	0x3fb31419	1.3990508
24	0x3f8d4247	1.1035851
25	0x3fc46411	1.5343038
26	0x400c72bd	2.194503
27	0x3ff39220	1.9028969
28	0x3fd047c7	1.6271905
29	0x3f825bb8	1.018424
30	0x3fcc0758	1.5939741
31	0x4004122f	2.0636098
32	0x3f7bd752	0.9837543
33	0x3fe95089	1.8227702
34	0x3f57202b	0.8403346
35	0x3fadd7a2	1.3581431
36	0x3f54bf29	0.8310419
37	0x3fcc5e14	1.596621
38	0x401c8837	2.445814
39	0x3fdb92be	1.7154157
40	0x3ff0efd2	1.8823187
41	0x3fc9561a	1.5729401
42	0x3ff58c64	1.9183469
43	0x3feed05e	1.8657339
44	0x3f5b1a6c	0.8558719
45	0x3f94ed0c	1.1634841
46	0x3fd3044f	1.648569
47	0x4001cea4	2.0282373
48	0x3fd2235e	1.6417043
49	0x3ffe7188	1.9878397
50	0x3f860d4b	1.0472807
51	0x3fc6712d	1.5503289
52	0x3fbed4bf	1.4908675
53	0x3ec75291	0.3893018
54	0x3fc4918b	1.5356916
55	0x3f96cf79	1.1782066
56	0x3fd3827b	1.6524194
57	0x4004b730	2.0736809
58	0x3fc1ae1a	1.5131257
59	0x3ffaefcc	1.960443
60	0x3fd70a45	1.6800009
61	0x3f850791	1.0392934
62	0x3f90b6d0	1.130579
63	0x3fc5e67f	1.5460967

bn3.running_var f4 [64]
0	0x40842163	4.1290755
1	0x4114ff1c	9.312283
2	0x40e9e966	7.309741
3	0x40c2663c	6.07498
4	0x4084ddc5	4.1520715
5	0x40a8ca1e	5.2746725
6	0x4052ba61	3.2926257
7	0x4022c907	2.5435197
8	0x407b8959	3.930258
9	0x3fee2c19	1.8607208
10	0x40934105	4.601687
11	0x40737413	3.8039596
12	0x410536ae	8.32585
13	0x40adaf21	5.427628
14	0x41173a1f	9.45169
15	0x40a128d7	5.0362353
16	0x4011e807	2.2797868
17	0x40c54614	6.1648045
18	0x40df3f24	6.9764576
19	0x40cd5220	6.416275
20	0x40db574a	6.8544054
21	0x409bc1b7	4.867397
22	0x403b2ee4	2.924737
23	0x406f5075	3.7392857
24	0x40764bff	3.8483884
25	0x40a87345	5.264071
26	0x4136ddb1	11.429124
27	0x412af89a	10.685694
28	0x40b3b0f1	5.6153493
29	0x402b735a	2.6789155
30	0x40b753aa	5.728963
31	0x40b8477f	5.7587276
32	0x40295413	2.6457565
33	0x40f9493a	7.790189
34	0x40295127	2.6455781
35	0x40955632	4.666772
36	0x400d96d4	2.2123308
37	0x409ec707	4.9617953
38	0x41216648	10.087471
39	0x40dd7b73	6.9213195
40	0x40c9ba04	6.303957
41	0x40ea1c67	7.315967
42	0x41046c03	8.27637
43	0x4105c398	8.360252
44	0x4023f0f6	2.561582
45	0x406b01c9	3.671984
46	0x40eb199b	7.3468757
47	0x415399ee	13.2250805
48	0x41096a50	8.588455
49	0x41445619	12.27102
50	0x404de475	3.217069
51	0x40a16125	5.0431085
52	0x409bda9a	4.8704348
53	0x3f4c6443	0.7984049
54	0x40aff8db	5.499128
55	0x404e5a5e	3.2242656
56	0x40975d67	4.7301517
57	0x41239a90	10.225235
58	0x407fb8d8	3.995657
59	0x40e59373	7.174249
60	0x40a60ae8	5.1888313
61	0x4052a14b	3.2910945
62	0x4031afc2	2.7763524
63	0x40a1f457	5.0610766
