tuning_results/best_models_during_tuning_lightning_logs/ratio_stand_GCN_best_model_logs/checkpoints/epoch=349-train_loss=1.36-train_f1=0.35-val_loss=1.70-val_f1=0.26.ckpt (torch, 105170 bytes, 38 tensors)

conv1.bias f4 [64]
0	0xb9c41db7	-0.00037406172
1	0xbcea8eab	-0.028632483
2	0x3c86936c	0.016427718
3	0xbd11c692	-0.035589762
4	0x3b300a0f	0.0026861464
5	0x3bde69c9	0.006787513
6	0xbc92fcf4	-0.017942883
7	0x3be22356	0.006901185
8	0xbce75eb3	-0.028243398
9	0x3c810ae7	0.015752269
10	0xbc821246	-0.015877854
11	0x3d462542	0.048375376
12	0xbd3df103	-0.046372425
13	0xbce25bf5	-0.02763174
14	0x3cfe22a4	0.031022377
15	0xbb6d6d28	-0.0036228392
16	0xbb32bac4	-0.0027271966
17	0x3c1166cd	0.008874607
18	0x3be343f2	0.00693559
19	0x3c8f1d37	0.017469985
20	0xbc6abca1	-0.014327199
21	0x3d65c725	0.056098122
22	0x3c791b87	0.015204317
23	0x3d719bb3	0.058986377
24	0xbc9e1002	-0.019294742
25	0xb9c6b80e	-0.00037902634
26	0xbd318f31	-0.04334945
27	0xbca510db	-0.020149639
28	0x3c787272	0.015164005
29	0x3b689544	0.003548936
30	0x3d10ea8d	0.035379935
31	0x3d8fa9df	0.07014822
32	0xbd0b48ca	-0.034004964
33	0x3b45a6f7	0.0030159333
34	0xb9bf0350	-0.00036432827
35	0x3ae20e71	0.0017246736
36	0xbd23b19b	-0.0399643
37	0xbd37d750	-0.044883072
38	0x3ba0456a	0.0048910873
39	0xbad81fbf	-0.0016488953
40	0x3c4dc37a	0.012558812
41	0x3d91f345	0.07126478
42	0xbca91acd	-0.020642662
43	0x3d347abf	0.044062372
44	0x3cae7376	0.02129529
45	0xbca47cb8	-0.020079002
46	0xbc2b6288	-0.010460503
47	0x3c5ca394	0.013466734
48	0xbd7bda56	-0.06148752
49	0xbd0ad05d	-0.033890117
50	0x3d1c6d00	0.038189888
51	0x3c3b86dd	0.011445728
52	0x3d28adb3	0.041181277
53	0x3d1307ee	0.035896234
54	0xbced0a28	-0.028935507
55	0x3b85b89f	0.0040808464
56	0x3cce8002	0.025207523
57	0x3cc294a7	0.023752524
58	0xbd04d182	-0.032426365
59	0x3b812a74	0.0039418284
60	0x3d64f053	0.055893254
61	0xbc6913ed	-0.014225942
62	0x3b0585da	0.0020373971
63	0xbc336d93	-0.0109514175

conv1.lin.weight f4 [64, 25]
0	0x3dbf82ec	0.09351143
1	0xbda8e118	-0.08246058
2	0x3ddf985f	0.10917734
3	0xbe17e3e8	-0.14833033
4	0x3d4fd3a4	0.050738946
5	0xbe4538b7	-0.19259916
6	0xbd327a88	-0.043573886
7	0x3d3c2a38	0.0459387
8	0xbdf1bac7	-0.11803203
9	0x3e886e0a	0.26646453
10	0x3cdefc6c	0.027219974
11	0xbe0fdd7a	-0.1404933
12	0xbe00dee4	-0.12585026
13	0xbc9e54f7	-0.019327624
14	0x3cdc523c	0.026894681
15	0xbd9c2c97	-0.07625692
16	0x3dac2b5f	0.0840671
17	0xbe103fb7	-0.14086805
18	0x3e2a4a78	0.1662997
19	0xbc197665	-0.009366606
20	0x3e3e8181	0.1860409
21	0xbe7fd243	-0.24982552
22	0x3df935f0	0.12168491
23	0xbdefb04b	-0.11703547
24	0xbe70877c	-0.23489183
25	0x3c83d048	0.016090527
26	0xbe772be3	-0.24137835
27	0xbcdf5e30	-0.027266592
28	0x3c173785	0.0092295455
29	0xbe5472c2	-0.20746902
30	0xbe2e0829	-0.169953
31	0xbdaf8868	-0.08570939
32	0x3ca32f7a	0.0199201
33	0xbe7215f6	-0.2364119
34	0xbddcbd53	-0.10778298
35	0xbc10a21a	-0.0088277105
36	0x3e407871	0.18795945
37	0xbe774356	-0.2414678
38	0xbd25bbfb	-0.040462475
39	0xbd92a38a	-0.07160099
40	0xbe3d7f32	-0.18505552
41	0x3dc423f5	0.09577171
42	0xbe0f130f	-0.13972114
43	0x3e7b9f4b	0.24572484
44	0xbcdd11c0	-0.026986003
45	0x3e6bbb6f	0.23020719
46	0xbc872d75	-0.016501168
47	0x3dee83a4	0.11646202
48	0x3d35d463	0.044392
49	0xbe826821	-0.2547007
50	0x3c5346cc	0.012895297
51	0x3dd9c1f2	0.10632695
52	0x3e1b937d	0.15192981
53	0x3e74cd8c	0.23906535
54	0xbdf5ee8a	-0.12008388
55	0xbe209bbd	-0.1568441
56	0xbd5594ad	-0.05214374
57	0x3e0e6860	0.13907003
58	0xbce86c07	-0.028371824
59	0x3e33d65f	0.17562245
60	0xbe269d85	-0.16271026
61	0x3e63f7d6	0.2226251
62	0x3dfedd73	0.12444582
63	0x3ac0e925	0.001471792
64	0xbe355fed	-0.17712374
65	0xbe35547e	-0.17708012
66	0x3dfedf60	0.12444949
67	0xbe7c8fe3	-0.24664263
68	0x3e2b225c	0.16712326
69	0xbd6726a6	-0.056433342
70	0xbbea3fe4	-0.0071487296
71	0xbda9503f	-0.08267259
72	0x3cd3439a	0.02578907
73	0xbcaedd3b	-0.021345725
74	0xbe281fff	-0.16418456
75	0xbcb2389f	-0.021755515
76	0x3df20580	0.11817455
77	0xbce2b6ae	-0.027675
78	0xbe52db7a	-0.20591536
79	0xb8ad289a	-8.2568455e-05
80	0xbd18ccb8	-0.03730461
81	0xbcbcbbcf	-0.023038773
82	0xbe5972b3	-0.2123516
83	0xbd869495	-0.065713085
84	0xbe5425c5	-0.20717533
85	0xbe8b7e0c	-0.27244604
86	0xbe483f76	-0.19555458
87	0x3e6ec5a7	0.23317586
88	0xbd81af2c	-0.063322395
89	0xbe609dd7	-0.21935211
90	0x3d9e6783	0.07734587
91	0xbe79bad0	-0.2438767
92	0x3e439643	0.19100289
93	0xbdc0562b	-0.09391435
94	0x3e3a5f3d	0.18200393
95	0x3e4ff6e3	0.20309024
96	0x3d94e4db	0.07270213
97	0xbe15a8b5	-0.14615138
98	0xbe16d87c	-0.1473102
99	0x3e248b9f	0.16068886
100	0x3dd6df9c	0.10491869
101	0xbd05c056	-0.03265413
102	0xbdfc6480	-0.12323856
103	0xbe8b3e4e	-0.27195972
104	0xbdce3697	-0.10069006
105	0x3e52cb75	0.20585425
106	0x3dd96b22	0.10616137
107	0x3d397850	0.045280755
108	0x3e2f8cf1	0.17143609
109	0xbe76aeb2	-0.24090078
110	0x3b24bb50	0.002513606
111	0x3deb8262	0.11499478
112	0xbd40b309	-0.04704574
113	0x3e3c338f	0.18379043
114	0x3d02140b	0.031757396
115	0x3dd9ffe0	0.106445074
116	0x3cb4a9cd	0.022053624
117	0x3d4b1a92	0.049585886
118	0x3e1c36bc	0.15255255
119	0xbd9a32bd	-0.07529209
120	0x3e58243c	0.21107572
121	0x3e163edc	0.14672416
122	0x391a1735	0.0001469523
123	0x3d616055	0.05502351
124	0x3d282d66	0.04105892
125	0xbe1e2c5a	-0.15446606
126	0xbe4f4db2	-0.20244482
127	0x3d84a426	0.06476621
128	0xbe4968da	-0.19668904
129	0xbcb5eb58	-0.022206947
130	0x3e1bbf85	0.15209778
131	0x3e7a6f50	0.24456525
132	0xbe20a378	-0.15687358
133	0xbccee1de	-0.025254186
134	0xbe2b7285	-0.16742904
135	0xbd3da3ed	-0.04629891
136	0xbe204fed	-0.1565549
137	0x3e43bdf7	0.19115435
138	0xbd4562f9	-0.04819009
139	0x3d706353	0.058688473
140	0xbe6951b1	-0.22785069
141	0xbc11a163	-0.008888575
142	0xbcee09c3	-0.02905739
143	0x3e414198	0.18872678
144	0x3e849ddd	0.2590169
145	0x3d988c31	0.074486144
146	0x3e520e99	0.20513381
147	0xbdfc987f	-0.12333774
148	0xbe6e482c	-0.23269719
149	0xbd5abcd2	-0.05340273
150	0x3d8be287	0.06830316
151	0x3de1c67c	0.11024186
152	0xbe29a643	-0.1656733
153	0x3e4f667c	0.20253938
154	0xbe18e1ba	-0.14929858
155	0x3d094c95	0.0335203
156	0x3e875f0d	0.26439705
157	0x3d3e6e90	0.04649216
158	0xbe4c01b9	-0.19922532
159	0x3e87a3f2	0.26492268
160	0x3e7fd788	0.24984562
161	0xbe42e3db	-0.19032232
162	0x3dd382cd	0.10327683
163	0xbdf170ca	-0.11789091
164	0xbd9a3aae	-0.075307235
165	0x3dd57cd7	0.10424202
166	0x3cbd5def	0.02311608
167	0xbd8d0405	-0.06885532
168	0xbe0002ab	-0.12501018
169	0xbe21385e	-0.15744159
170	0x3d230a7e	0.039804928
171	0xbd2f4030	-0.042785823
172	0xbe75294b	-0.23941533
173	0x3e4151a1	0.18878795
174	0x3e211570	0.15730834
175	0x3e365a7d	0.17807956
176	0x3e552a73	0.20816974
177	0xbd795b9e	-0.06087839
178	0xbcdf662e	-0.027270403
179	0x3ddaf454	0.10691133
180	0xbe7de009	-0.24792494
181	0xbe3c6a74	-0.18399984
182	0xbdb8c77e	-0.09022425
183	0xbe425d52	-0.18980911
184	0x3db227af	0.08698975
185	0x3e317852	0.17331055
186	0x3e5b5802	0.21420291
187	0x3d7b795a	0.061395027
188	0x3e140490	0.14454865
189	0xbd2e8781	-0.042609695
190	0x3e070c74	0.13188344
191	0xbe37e0a6	-0.1795679
192	0x3d9511af	0.072787635
193	0x3e060d54	0.13091022
194	0x3ce5334a	0.027978558
195	0xbe489b42	-0.19590476
196	0x3e17f1e8	0.14838374
197	0x3e4ce82d	0.20010443
198	0xbda81538	-0.08207172
199	0x3e0f6ed6	0.14007124
200	0x3d9750ca	0.07388456
201	0x3dddfb1d	0.10838912
202	0xbe5af7be	-0.21383569
203	0xbd8d0081	-0.06884862
204	0x3dd66341	0.1046815
205	0x3e301a4e	0.17197534
206	0x3dd61597	0.10453337
207	0xbcfde6f0	-0.030993909
208	0xbe5ad75a	-0.21371213
209	0xbe3f3cfa	-0.18675604
210	0x3e491e16	0.19640383
211	0x3dafbf0d	0.08581362
212	0xbe2705b4	-0.1631077
213	0xbc79ffa5	-0.015258704
214	0xbded670f	-0.115919225
215	0x3e03c3db	0.12867682
216	0xbe2b5fe7	-0.16735803
217	0xbe84f8f2	-0.2597118
218	0xbdcaaf6d	-0.09896741
219	0x3e685b32	0.22691038
220	0x3e2439d6	0.16037688
221	0x3e1cc073	0.15307789
222	0xbe57557a	-0.210287
223	0x3e3a88c4	0.18216234
224	0x3d284e3d	0.04109024
225	0xbe508fec	-0.20367402
226	0xbd55627d	-0.05209588
227	0xbd03deee	-0.032195024
228	0xbd92d922	-0.07170321
229	0xbe8e69db	-0.27815136
230	0x3d654bd4	0.05598052
231	0x3e395c59	0.18101634
232	0x3d498536	0.049199305
233	0xbe1609f6	-0.14652237
234	0x3e4afe96	0.1982368
235	0x3e1e30de	0.15448329
236	0xbe4acf67	-0.1980568
237	0x3e3c272a	0.18374315
238	0x3d089b18	0.033351034
239	0x3dcec29a	0.10095711
240	0x3dc9329c	0.09824106
241	0xbe107c1e	-0.14109847
242	0xbdcc566f	-0.099774234
243	0x3dc70a64	0.09718779
244	0x3b90f31b	0.0044235117
245	0xbe2f5ed4	-0.17126018
246	0xbc39f95e	-0.011350958
247	0x3e070ff1	0.13189675
248	0xbe171d8b	-0.14757363
249	0xbe985740	-0.29754066
250	0x3e2fdec9	0.1717483
251	0xbd912ebb	-0.07088991
252	0x3db92cc8	0.090417445
253	0xbe7f869b	-0.24953692
254	0xbd8e008c	-0.06933698
255	0xbd65302b	-0.05595414

bn1.weight f4 [64]
0	0x3f78e20f	0.9721994
1	0x3f76dc08	0.9642949
2	0x3f847135	1.0347048
3	0x3f7e683d	0.99377805
4	0x3f821ff0	1.0165997
5	0x3f818932	1.0119994
6	0x3f75de9d	0.96042806
7	0x3f7cdfaa	0.98778784
8	0x3f81a4e5	1.0128447
9	0x3f7fa1f8	0.9985652
10	0x3f8220c5	1.016625
11	0x3f804e53	1.0023903
12	0x3f814abc	1.0100932
13	0x3f83ae6c	1.0287604
14	0x3f7e54a7	0.9934792
15	0x3f7b05e6	0.98055875
16	0x3f81e5a8	1.014821
17	0x3f8365be	1.0265424
18	0x3f7e3eec	0.9931476
19	0x3f7e4b07	0.9933323
20	0x3f81b0bd	1.0132061
21	0x3f7e9242	0.9944192
22	0x3f81c82b	1.0139211
23	0x3f80c986	1.00615
24	0x3f7fd27a	0.99930537
25	0x3f76a4b2	0.96345055
26	0x3f84beb7	1.0370702
27	0x3f8083b8	1.0040197
28	0x3f7f1983	0.996483
29	0x3f814cc3	1.0101551
30	0x3f813b05	1.0096136
31	0x3f7a1011	0.97680765
32	0x3f868fad	1.0512596
33	0x3f80e979	1.007125
34	0x3f826557	1.0187176
35	0x3f74dde5	0.95651084
36	0x3f819130	1.0122433
37	0x3f7cb366	0.9871124
38	0x3f80ddb8	1.0067663
39	0x3f7de579	0.9917827
40	0x3f800d79	1.0004112
41	0x3f7b9ea9	0.9828897
42	0x3f7be2f9	0.9839321
43	0x3f7bb265	0.98319083
44	0x3f75071d	0.9571398
45	0x3f83e579	1.0304404
46	0x3f81bbfa	1.0135491
47	0x3f7cd4e4	0.98762345
48	0x3f7c9089	0.98658043
49	0x3f7e0707	0.9922947
50	0x3f7e4ef1	0.99339205
51	0x3f7a42a3	0.9775793
52	0x3f7aecd1	0.98017603
53	0x3f807b96	1.0037715
54	0x3f82ea69	1.0227786
55	0x3f814cdd	1.0101582
56	0x3f7ec537	0.99519676
57	0x3f735629	0.95053345
58	0x3f7ad52b	0.9798152
59	0x3f80ec50	1.0072117
60	0x3f82cb4a	1.0218289
61	0x3f8133fd	1.009399
62	0x3f7d5f7c	0.9897382
63	0x3f82365b	1.0172838

bn1.bias f4 [64]
0	0xbd062640	-0.03275132
1	0x3cc5e5c1	0.024157407
2	0x3c55bfd5	0.013046225
3	0x3da21163	0.079134725
4	0xbca57883	-0.020199066
5	0xbb9afdef	-0.0047299783
6	0x3c8ddea7	0.017318083
7	0x3c3705be	0.011170803
8	0xbcccbd94	-0.024992742
9	0x3c80e479	0.015733944
10	0xbd2ec52a	-0.0426685
11	0xbcca8693	-0.024722373
12	0xbcbfba2b	-0.023404201
13	0xbcc1afdf	-0.023643432
14	0x3c1a81bb	0.009430344
15	0xbba8e288	-0.0051539578
16	0x3cbadc62	0.022810165
17	0xbd0fb7f8	-0.035087556
18	0x3d06d97c	0.032922253
19	0x3cc3685f	0.023853479
20	0xbd882501	-0.06647683
21	0x3d728eb9	0.059218142
22	0xbcb6543b	-0.022256961
23	0xbd1a3f05	-0.037657756
24	0xbc1ed8e3	-0.0096952645
25	0xbca0983d	-0.019603843
26	0x3b8421ab	0.004032334
27	0x3d6a936d	0.057269502
28	0x3b8d6607	0.004315141
29	0xbc92126a	-0.017831046
30	0x3c9cf4c1	0.019159677
31	0xbb929a5c	-0.0044739675
32	0xbaa985d6	-0.0012933563
33	0xbd6c3a0a	-0.057672538
34	0xbcaa6a42	-0.02080262
35	0xbd0f38f4	-0.034966424
36	0xbbdd4856	-0.006753008
37	0x3c9d91d5	0.019234577
38	0x3d4f76dc	0.050650463
39	0x3d06c8ed	0.03290646
40	0x3cf65a15	0.030072251
41	0x3c1f7e6f	0.009734734
42	0xbd029aa0	-0.031885743
43	0xbc2fe4a7	-0.010735667
44	0x3cdaeabd	0.02672326
45	0x3ca59ccb	0.020216366
46	0xba835a50	-0.0010021422
47	0xbce9d0af	-0.02854189
48	0xbd10fdd2	-0.035398312
49	0xbca95294	-0.02066926
50	0xbaea28be	-0.0017864925
51	0xbc97d59f	-0.01853448
52	0x3bc810bf	0.006105512
53	0x3ba6bdc1	0.0050885384
54	0x3aec7260	0.0018039457
55	0x3d19c2e3	0.037539374
56	0xbcf8db09	-0.030377882
57	0xbc8bc56f	-0.017061917
58	0x3d52f58a	0.051503696
59	0x3d0ebfb6	0.0348508
60	0xbd00132a	-0.031268276
61	0x3cf55edf	0.029952465
62	0xbd3a6e6f	-0.045515474
63	0x3b844939	0.004037049

bn1.running_mean f4 [64]
0	0x3df3d69e	0.11906169
1	0x3e02527b	0.12726776
2	0x3df7393e	0.12071465
3	0x3e0ba52a	0.13637224
4	0x3e187253	0.14887361
5	0x3e0938a8	0.13400519
6	0x3e1bbf05	0.15209587
7	0x3e3b3607	0.18282329
8	0x3e2c32bb	0.16816227
9	0x3e1a248b	0.15053003
10	0x3e1b2b38	0.15153205
11	0x3e2fe682	0.17177776
12	0x3e18aff6	0.14910874
13	0x3e866eee	0.26256508
14	0x3e949ff5	0.29028288
15	0x3e3a1577	0.1817225
16	0x3e0f8bc9	0.14018168
17	0x3e1675b3	0.14693336
18	0x3dd49eac	0.10381827
19	0x3e30fc85	0.17283829
20	0x3e0e345b	0.1388716
21	0x3e6a25eb	0.22866027
22	0x3e5dbd52	0.21654251
23	0x3e95e00b	0.29272494
24	0x3e140866	0.14456329
25	0x3e4b8bc2	0.19877532
26	0x3e23b829	0.1598822
27	0x3dca4ce3	0.09877946
28	0x3e2afc8e	0.16697904
29	0x3e7aff44	0.24511439
30	0x3e1eee70	0.15520644
31	0x3e5f6702	0.21816638
32	0x3e381242	0.17975715
33	0x3e5aeebb	0.21380131
34	0x3e02c8b7	0.12771879
35	0x3e1e44a5	0.15455873
36	0x3e4afda8	0.19823325
37	0x3dcc3dd3	0.099727295
38	0x3e13b76c	0.14425439
39	0x3e023240	0.12714481
40	0x3e30956d	0.17244501
41	0x3e41f830	0.18942332
42	0x3de1db39	0.110281415
43	0x3e506d02	0.20354083
44	0x3e1386fc	0.14406961
45	0x3e6743f5	0.22584517
46	0x3e52d9e0	0.20590925
47	0x3e1f27f6	0.15542588
48	0x3e579815	0.21054108
49	0x3e1b70e8	0.15179789
50	0x3e79fb8c	0.24412364
51	0x3e1f8657	0.1557859
52	0x3e5db317	0.21650349
53	0x3e91a00a	0.28442413
54	0x3e10a567	0.14125596
55	0x3da4cef5	0.080472864
56	0x3e70434b	0.2346317
57	0x3e45c718	0.1931423
58	0x3dfa5fcb	0.12225302
59	0x3e2b7c28	0.1674658
60	0x3e83ab52	0.25716645
61	0x3e223475	0.15840323
62	0x3eab261d	0.33427516
63	0x3e349872	0.17636278

bn1.running_var f4 [64]
0	0x3ccbb3ab	0.024865946
1	0x3d2b6605	0.04184534
2	0x3ce9f512	0.028559241
3	0x3d541962	0.05178202
4	0x3e1af89c	0.151339
5	0x3d3fe48a	0.04684881
6	0x3da121f7	0.078678064
7	0x3db4740b	0.08811196
8	0x3dd71ce0	0.10503554
9	0x3d426dec	0.04746811
10	0x3d3b21fc	0.045686707
11	0x3d8f1e99	0.06988258
12	0x3d3026c3	0.043005716
13	0x3e324074	0.174074
14	0x3e183533	0.14864044
15	0x3d884a56	0.066548035
16	0x3df62eab	0.1202062
17	0x3d310c8f	0.043224867
18	0x3cfedd43	0.031111365
19	0x3da15446	0.07877402
20	0x3d62d430	0.05537814
21	0x3e34fbc2	0.17674163
22	0x3dcc621c	0.099796504
23	0x3e25344f	0.16133235
24	0x3d1364fb	0.035984974
25	0x3da54b5f	0.080710165
26	0x3d7fb350	0.062426865
27	0x3cc56caf	0.024099676
28	0x3d7a7085	0.061142463
29	0x3e083991	0.1330321
30	0x3d2b1313	0.041766237
31	0x3d8df4ef	0.06931483
32	0x3dc9a595	0.098460354
33	0x3e86942a	0.26284915
34	0x3ccd1077	0.025032265
35	0x3dc3dc33	0.09563484
36	0x3dfa8e76	0.122342035
37	0x3d0e0c50	0.03467971
38	0x3d747aab	0.059687298
39	0x3d3a76e3	0.045523535
40	0x3d4088a7	0.04700532
41	0x3d340b14	0.043955877
42	0x3ce11ce7	0.027479602
43	0x3e1daa68	0.15397036
44	0x3d7f6607	0.06235316
45	0x3de3c0b5	0.1112074
46	0x3e55c561	0.20876075
47	0x3d1a9b67	0.03774586
48	0x3e687a8b	0.22702996
49	0x3de02544	0.10944608
50	0x3dab6407	0.08368688
51	0x3db938ff	0.09044074
52	0x3d88a7df	0.06672644
53	0x3ebbe4e0	0.36698055
54	0x3d1791a3	0.037004124
55	0x3c350a92	0.011049883
56	0x3d97d5b3	0.07413807
57	0x3dcf8bbd	0.10134075
58	0x3d95bd3a	0.07311483
59	0x3d571618	0.052511305
60	0x3dbab197	0.09115904
61	0x3da24ec8	0.079251826
62	0x3e49e8c0	0.19717693
63	0x3d79944f	0.060932454

conv2.bias f4 [64]
0	0x3d49f794	0.049308375
1	0x3cbd674a	0.023120541
2	0x3c5b0e4a	0.013370106
3	0x3d19634a	0.037448205
4	0xba9f20ea	-0.0012140546
5	0x3b155895	0.0022788395
6	0x3d013f4f	0.031554516
7	0xbc671f7e	-0.014106629
8	0x3bb759ec	0.0055954363
9	0x3d848dcb	0.06472357
10	0x3d1f4214	0.038881376
11	0xbc90cece	-0.017676737
12	0xbcd32ea0	-0.025779068
13	0x3d441922	0.04787553
14	0x3bbc8171	0.0057527353
15	0xbc8ef860	-0.017452419
16	0xbd0b6417	-0.034031
17	0x3b73a5c2	0.0037177657
18	0x3c7f2341	0.01557237
19	0x3ced1f5c	0.028945617
20	0x3b4392dc	0.0029842174
21	0xbc86f35d	-0.016473467
22	0xbbb3fabb	-0.005492536
23	0xbcfdd62d	-0.030985916
24	0xbd4188ad	-0.047249485
25	0x3c070126	0.00824002
26	0x3c8e650f	0.017382173
27	0x3a546a6b	0.0008103016
28	0xbcf1ae59	-0.02950208
29	0x3c7278de	0.014799325
30	0x3c9447df	0.018100677
31	0xbc9145aa	-0.017733414
32	0x3c770dd2	0.015078979
33	0x3cd89710	0.02643922
34	0xbbe4e71a	-0.0069855573
35	0x3d1b7828	0.037956387
36	0xbd220be3	-0.039562117
37	0x3c971c6b	0.018446168
38	0x3d0791a6	0.033097886
39	0x3d08f076	0.033432446
40	0xbcadab32	-0.021199796
41	0x3cf5985c	0.029979877
42	0x38203c66	3.8203223e-05
43	0xbbe7af67	-0.00707047
44	0xbc0f9149	-0.008762666
45	0xbc958aa7	-0.018254591
46	0x3ca2558e	0.019816186
47	0xbca2df73	-0.01988194
48	0x3d6900ed	0.05688565
49	0x3cf03f04	0.029326923
50	0xbcf4a972	-0.029865954
51	0xbc58bf6f	-0.013229235
52	0x3c2084bf	0.009797274
53	0x3d1ba696	0.038000666
54	0x3c860acf	0.016362576
55	0x3ce0b3b2	0.027429435
56	0x3d68b5dc	0.05681406
57	0xbd6d786f	-0.057976183
58	0x3c149ca4	0.009070549
59	0x3c5b5c3c	0.01338869
60	0x3c64634d	0.013939691
61	0xbd06ac54	-0.03287919
62	0x3c5f6c9c	0.013636734
63	0x3c2f7b26	0.010710513

conv2.lin.weight f4 [64, 64]
0	0x3d909b11	0.070608266
1	0xbe0e7960	-0.13913488
2	0x3e3464bf	0.17616557
3	0xbcbc565c	-0.022990398
4	0xbdc0837b	-0.09400078
5	0xbe497b56	-0.19675955
6	0xbde66312	-0.11249365
7	0x3d79327d	0.060839165
8	0xbe4f0d36	-0.20219883
9	0xbcafd563	-0.021464055
10	0x3e3081b8	0.17236984
11	0xbd088493	-0.033329558
12	0xbddfdcdd	-0.10930798
13	0xbdf36880	-0.11885166
14	0xbe1d3812	-0.1535342
15	0x3e1cf654	0.15328342
16	0xbe0f518d	-0.13995953
17	0x3c0d6c88	0.008631833
18	0x3ddc6f59	0.107634254
19	0xbbf8c435	-0.007591749
20	0xbd95994d	-0.073046304
21	0xbe20c736	-0.15700993
22	0xbd01929b	-0.031633954
23	0x3df9a9f6	0.121906206
24	0x3e69ee95	0.22844918
25	0xbd878cc0	-0.06618643
26	0x3e135d1c	0.14390987
27	0x3e24ad27	0.16081677
28	0xbdb8f531	-0.090311415
29	0x3e4dc36d	0.2009408
30	0x3e4473d3	0.19184808
31	0xbd94cba2	-0.072654024
32	0xbd232367	-0.039828684
33	0xbc910bfb	-0.017705908
34	0x3d093870	0.03350109
35	0x3db00516	0.0859472
36	0x3daefec2	0.08544685
37	0xbe065856	-0.13119635
38	0x3cfb9e01	0.03071499
39	0xbe27b767	-0.16378556
40	0xbd9da524	-0.07697514
41	0x3e40000d	0.1875002
42	0x3d2a656a	0.041600622
43	0x3e2eb44b	0.17060964
44	0xbd6093a8	-0.054828316
45	0x3d83e6fc	0.06440541
46	0x3d39e224	0.04538168
47	0xbcd9f230	-0.026604742
48	0x3c997668	0.018733218
49	0xbe34761e	-0.17623183
50	0xbe35b835	-0.1774605
51	0x3cd0699e	0.025440987
52	0xbb701be3	-0.0036637716
53	0x3d5eea3c	0.054422602
54	0xbdd1b319	-0.10239238
55	0x3de0f094	0.10983387
56	0x3da4e2a2	0.08051039
57	0x3e3ee371	0.1864145
58	0xbcb08fc2	-0.021552924
59	0x3d8b1bc3	0.067924045
60	0xbe6559b0	-0.22397494
61	0xbe4a0dda	-0.19731846
62	0xbd91f33a	-0.0712647
63	0xbd2f51ab	-0.042802494
64	0x3d7e5f2f	0.062102493
65	0xbd8b5962	-0.06804158
66	0xbe020271	-0.12696244
67	0x3c3caa68	0.011515237
68	0x3dd9d3fc	0.10636136
69	0x3d5b7229	0.05357567
70	0xbd460b7f	-0.048350807
71	0x3d5f9150	0.05458194
72	0x3d8f1f69	0.06988413
73	0xbd9c2c22	-0.07625605
74	0xbde9a04e	-0.11407529
75	0xbc1200d9	-0.008911335
76	0xbdb762eb	-0.08954414
77	0x3e07c99d	0.13260503
78	0x3e2ab664	0.16671139
79	0x3e5031a5	0.20331438
80	0x3d9ab9ef	0.07554995
81	0xbd18d052	-0.037308045
82	0xbe26090a	-0.16214386
83	0xbe33a482	-0.17543224
84	0x3d7cf4c0	0.06175685
85	0xbd609241	-0.05482698
86	0x3e0f0fbb	0.13970844
87	0xbc8628d7	-0.016376896
88	0xbd5830f1	-0.05278105
89	0x3e24113a	0.16022196
90	0xbe0e8758	-0.13918817
91	0x3d9d0af0	0.07668102
92	0xbe0db64c	-0.13839072
93	0x3d667cdf	0.05627143
94	0xbbe2b8cb	-0.0069190017
95	0x3ddd6aee	0.10811411
96	0xbe5f6555	-0.21815999
97	0xbdc4ecdf	-0.09615492
98	0x3e7a2d27	0.24431287
99	0x3e402879	0.18765439
100	0xbd27f344	-0.04100348
101	0xbe53986c	-0.20663613
102	0xbe1e8781	-0.15481378
103	0x3d03edec	0.03220932
104	0x3e03ac0d	0.12858601
105	0xbe252643	-0.16127877
106	0xbdc0db5c	-0.094168395
107	0x3d93732f	0.07199704
108	0x3e5fe9a6	0.21866474
109	0x3e6c85af	0.23097871
110	0xbe1e0ecd	-0.15435334
111	0xbc0153e4	-0.007893536
112	0x3cf5defe	0.030013558
113	0x3df9774c	0.12180957
114	0x3d7b3043	0.061325323
115	0x3e5dfe01	0.21678926
116	0xbdd11819	-0.102096744
117	0xbe40f566	-0.18843612
118	0xbe4ab2fc	-0.1979484
119	0xbe69e61d	-0.22841688
120	0x3d4b337a	0.04960964
121	0xbde2d944	-0.110765964
122	0xbe3e939c	-0.18610996
123	0x3dcbcf9d	0.099517085
124	0xbded6b07	-0.115926795
125	0xbe0fd223	-0.14045005
126	0xbe2b9800	-0.16757202
127	0x3d940d1c	0.07229063
128	0xbe528bdc	-0.20561165
129	0xbd4be122	-0.04977525
130	0x3cc7369a	0.024318028
131	0xbe697859	-0.22799815
132	0x3d7854cb	0.06062774
133	0xbc6a1657	-0.014287553
134	0x3e4f80a9	0.20263924
135	0xbe0d9672	-0.13826922
136	0x3dfcb8ff	0.12339973
137	0x3e3b9325	0.1831785
138	0xbdba9d94	-0.09112087
139	0x3c7418e5	0.014898513
140	0x3ab37166	0.0013690412
141	0xbd7cf141	-0.061753515
142	0x3baa4b30	0.0051969513
143	0xbd8541b5	-0.06506673
144	0x3e38c403	0.18043523
145	0xbe349493	-0.17634802
146	0x3e467f69	0.1938454
147	0xbd932437	-0.07184642
148	0xbe0b0077	-0.13574396
149	0x3e2ca917	0.16861378
150	0x3dd28e55	0.10281054
151	0x3d87b189	0.06625659
152	0xbda61bb7	-0.08110755
153	0x3d33e81d	0.043922532
154	0xbdaac54a	-0.08338411
155	0xbe064784	-0.13113219
156	0x3d22a303	0.03970624
157	0xbe56772d	-0.209439
158	0xbe460bc0	-0.1934042
159	0xbdbd84d6	-0.09253852
160	0xbd9f5ad4	-0.07780996
161	0x3d3a397a	0.04546497
162	0x3a3ff9a2	0.000732327
163	0x3dbb740f	0.09152996
164	0x3d437737	0.047721114
165	0xbdab1da8	-0.08355266
166	0xbdbe08f7	-0.09279054
167	0xbe0d3d70	-0.13792968
168	0x3e6a77be	0.2289724
169	0x3d2f5116	0.04280194
170	0xbdf7696a	-0.12080653
171	0xbd759855	-0.05995973
172	0x3e00eb10	0.12589669
173	0x3e3081df	0.17237042
174	0x3bf39758	0.007433813
175	0xbd6402bf	-0.05566668
176	0x3da2b4ff	0.079446785
177	0xbe11ae2c	-0.14226598
178	0xbe3762fb	-0.17908852
179	0x3e0daed1	0.13836218
180	0x3d832b38	0.06404728
181	0xbe0e727e	-0.13910863
182	0xbe2b43ef	-0.16725133
183	0xbd6b68f3	-0.057473134
184	0x3c40cdd9	0.011767828
185	0xbe25ab4e	-0.16178629
186	0x3e2edc2f	0.17076181
187	0xbd5e6f68	-0.054305464
188	0xbd5decfa	-0.054181077
189	0xbd9ab980	-0.075549126
190	0x3e197ce6	0.14989051
191	0xbe7d9ac5	-0.24766071
192	0x3b875a9e	0.0041306755
193	0xbdebdc0b	-0.11516579
194	0xbd5e84d2	-0.054325886
195	0x3d9a10ba	0.075227216
196	0xbd6a5605	-0.05721094
197	0x3db3dd92	0.087824956
198	0x3e0e2c82	0.13884166
199	0x3c9f5b6e	0.019452777
200	0x3d89ef2e	0.06735073
201	0xbdf20deb	-0.11819061
202	0x3d85f939	0.06541676
203	0x3df129d1	0.11775554
204	0x3d236eff	0.039900776
205	0x3e5d7a4d	0.21628685
206	0x3e142e53	0.14470796
207	0x3d719d60	0.058987975
208	0xbd727604	-0.05919458
209	0xbc533698	-0.012891434
210	0x3d89e3e6	0.06732921
211	0xbe431d93	-0.1905425
212	0xbe1b4d03	-0.15166096
213	0x3db10f85	0.08645538
214	0xbda9e76e	-0.08296095
215	0x3e188feb	0.1489865
216	0x3e5e6def	0.21721624
217	0x3e001f4b	0.12511937
218	0x3e39e1b9	0.18152513
219	0xbd79bfda	-0.06097398
220	0x3d79bd49	0.060971532
221	0x3d943bbb	0.07237955
222	0x3e1330b0	0.14374042
223	0x3e400884	0.18753248
224	0xbdfc7695	-0.12327305
225	0xbd9d14c0	-0.076699734
226	0xbd95299d	-0.07283328
227	0x3e60079f	0.21877907
228	0x3d4c8185	0.049928207
229	0xbe249327	-0.16071759
230	0xbe506542	-0.20351127
231	0xbdeb9268	-0.11502534
232	0x3b0c0cef	0.0021370014
233	0xbe60a573	-0.21938114
234	0xbe3bbd7e	-0.18334004
235	0x3e338437	0.17530905
236	0x3e30e327	0.17274152
237	0xbdb6a887	-0.08918863
238	0x3ca079de	0.01958936
239	0xbd78b04a	-0.060714997
240	0xbcb7447c	-0.022371523
241	0x3d95f7c6	0.0732265
242	0xbd1d5764	-0.03841342
243	0xbd2d7d62	-0.042355902
244	0x3e0e76e9	0.13912548
245	0x3dafd23a	0.085850194
246	0x3e7071ed	0.23480959
247	0x3dd990ad	0.10623298
248	0x3e31fe8d	0.1738226
249	0xbcbca16b	-0.023026189
250	0x3e4a99b0	0.1978519
251	0x3e386520	0.18007326
252	0xbdd1ebec	-0.10250077
253	0x3dfd0b45	0.12355665
254	0xbdc972ca	-0.098363474
255	0xbca38ac9	-0.019963639

bn2.weight f4 [64]
0	0x3f8274f2	1.0191939
1	0x3f7fe58d	0.9995964
2	0x3f789017	0.97094864
3	0x3f7f42a6	0.9971107
4	0x3f7956b8	0.9739795
5	0x3f739ac4	0.9515803
6	0x3f81f806	1.0153816
7	0x3f831b89	1.0242778
8	0x3f7e6227	0.9936852
9	0x3f790f97	0.97289413
10	0x3f802f51	1.001444
11	0x3f82d9ac	1.0222678
12	0x3f78ddcb	0.9721343
13	0x3f7f59d3	0.99746436
14	0x3f73f238	0.9529147
15	0x3f858a36	1.0432804
16	0x3f7d4869	0.98938614
17	0x3f728398	0.94732046
18	0x3f7c8ef0	0.98655605
19	0x3f80fd47	1.0077294
20	0x3f81c6fe	1.0138853
21	0x3f813276	1.0093524
22	0x3f7fd3c0	0.9993248
23	0x3f7a989b	0.9788911
24	0x3f7fc3db	0.99908227
25	0x3f83614c	1.0264068
26	0x3f83f52a	1.0309193
27	0x3f7e8a08	0.9942937
28	0x3f8223fe	1.0167234
29	0x3f7e2a2e	0.9928311
30	0x3f7ee500	0.99568176
31	0x3f798cc2	0.97480404
32	0x3f7e4b47	0.99333614
33	0x3f82910e	1.0200517
34	0x3f7be15d	0.9839075
35	0x3f808a5d	1.0042225
36	0x3f7e9b53	0.99455756
37	0x3f8269c9	1.0188533
38	0x3f833b60	1.0252495
39	0x3f7fc059	0.99902874
40	0x3f7ea5ad	0.9947155
41	0x3f77368a	0.96567595
42	0x3f7cb0ec	0.9870746
43	0x3f75d2c8	0.9602475
44	0x3f857108	1.0425119
45	0x3f85cd4c	1.0453277
46	0x3f818c89	1.0121013
47	0x3f80d55e	1.0065114
48	0x3f7c87c8	0.98644686
49	0x3f819084	1.0122228
50	0x3f84b57d	1.0367886
51	0x3f7cb691	0.98716074
52	0x3f7e63c9	0.9937101
53	0x3f8681a2	1.0508311
54	0x3f7dc237	0.99124473
55	0x3f7f210a	0.9965979
56	0x3f6da989	0.92836815
57	0x3f7f6e8d	0.9977806
58	0x3f7bd747	0.9837536
59	0x3f7d8a79	0.9903942
60	0x3f7ff91f	0.99989504
61	0x3f76a10f	0.96339506
62	0x3f784311	0.96977335
63	0x3f80f468	1.0074587

bn2.bias f4 [64]
0	0x3de5b51f	0.11216187
1	0xbb80eeaf	-0.0039347033
2	0xbce2b903	-0.027676111
3	0x3de7a25a	0.11310263
4	0x3c4279f3	0.011869895
5	0x3db09abe	0.08623265
6	0x3cee2786	0.02907158
7	0x3a5b5a1d	0.0008367615
8	0x3e0243c1	0.12721159
9	0xbd0061bf	-0.031343218
10	0x3e154cff	0.14580153
11	0x3da111c2	0.07864715
12	0xbbf1e4b8	-0.0073820017
13	0xbdb0e6d5	-0.08637778
14	0x3cf8824f	0.030335573
15	0x3c9ac8e1	0.018894615
16	0x3dc78055	0.09741274
17	0xbc0c0b6e	-0.008547647
18	0x3df35981	0.11882306
19	0x3dbfb448	0.09360558
20	0x3ce466ce	0.027881052
21	0x3de125b1	0.10993517
22	0x3ba7de64	0.0051229466
23	0x3c1f96b2	0.009740518
24	0x3d61a83e	0.05509209
25	0xbb60948e	-0.0034268233
26	0x3c26e702	0.0101869125
27	0x3c94882e	0.018131342
28	0x3d4296c6	0.04750707
29	0x3c490124	0.012268338
30	0xbdbc80cf	-0.09204256
31	0x3d83751a	0.0641882
32	0x3d36361b	0.044485193
33	0xbca3167d	-0.019908184
34	0x3e2484f6	0.16066346
35	0xbc9b32d9	-0.018945144
36	0x3d3fa14e	0.04678469
37	0x3d8f2eee	0.06991373
38	0x3dca1c6f	0.098687045
39	0x3ab050d1	0.001345182
40	0xbba6caf5	-0.0050901123
41	0x3d9130c2	0.07089378
42	0x3d9632b4	0.073338896
43	0x3bb469e1	0.005505786
44	0x3d9980b4	0.07495251
45	0x3d4ae321	0.049533013
46	0x3db4e47c	0.088326424
47	0xbd9e4761	-0.07728458
48	0xbd11f64f	-0.03563529
49	0x3bb90a66	0.0056469915
50	0x3d0a34bf	0.03374171
51	0x3bd16d35	0.0063911923
52	0xbc1b61b4	-0.009483743
53	0x3d679d3d	0.05654644
54	0x3db0ee93	0.086392544
55	0xbc0af7b5	-0.0084819095
56	0xbd0dfe53	-0.03466637
57	0x3a3c0de8	0.0007173703
58	0x3d5bd62b	0.053671043
59	0x3cd8e3f0	0.026475877
60	0x3d299581	0.041402344
61	0xbdd33644	-0.10313085
62	0xbc331f11	-0.0109327
63	0xbba84f63	-0.0051364168

bn2.running_mean f4 [64]
0	0x3e9fc4e6	0.3120491
1	0x3e8661eb	0.2624658
2	0x3ebee159	0.37281302
3	0x3eb69655	0.3566157
4	0x3ec81c54	0.39084113
5	0x3eaf275e	0.34209722
6	0x3ea32bbd	0.31869307
7	0x3ec54376	0.3852803
8	0x3ed1d9d1	0.40986493
9	0x3ed0be98	0.40770411
10	0x3ec1aa52	0.37825257
11	0x3e6f7b23	0.23386817
12	0x3ebbc7b9	0.36675814
13	0x3eb0f675	0.34563032
14	0x3ef2d678	0.47429252
15	0x3f19330d	0.5984352
16	0x3eafc3e8	0.34329152
17	0x3ea7faea	0.3280862
18	0x3e9e511e	0.30921263
19	0x3ed3ea91	0.41389897
20	0x3e93b2ec	0.28847444
21	0x3e7126c8	0.2354995
22	0x3e94643c	0.28982723
23	0x3ec3c746	0.3823797
24	0x3e93bcc0	0.28854942
25	0x3eca154b	0.3946937
26	0x3ed1c208	0.40968347
27	0x3e9dec78	0.30844474
28	0x3eac549b	0.336583
29	0x3eee1d7b	0.46506867
30	0x3ee601c2	0.44923216
31	0x3ed513f9	0.416168
32	0x3ee5df14	0.44896758
33	0x3ea3885a	0.31939965
34	0x3eaa2093	0.33227977
35	0x3edbe187	0.429455
36	0x3e95990e	0.29218334
37	0x3e8809c5	0.26569954
38	0x3ea72497	0.32645103
39	0x3ea2bc89	0.31784466
40	0x3e94a188	0.2902949
41	0x3ea7961c	0.32731712
42	0x3e9e3458	0.3089931
43	0x3e920dfe	0.285263
44	0x3ec1454a	0.37748176
45	0x3e9d18a5	0.30682865
46	0x3e9dab98	0.30794978
47	0x3eb213e7	0.3478081
48	0x3f02a116	0.5102705
49	0x3eb33371	0.35000184
50	0x3e85874f	0.26079795
51	0x3e8d14b9	0.27554873
52	0x3eaa3696	0.3324477
53	0x3e767d7a	0.24071303
54	0x3e97e694	0.29668105
55	0x3e7fd6ae	0.24984238
56	0x3f1e2317	0.6177229
57	0x3e9fec29	0.31234863
58	0x3ee80bc8	0.45321488
59	0x3eaaccd5	0.333594
60	0x3ee16ab0	0.4402671
61	0x3ef6c168	0.48194432
62	0x3ed757a8	0.42059064
63	0x3ed9a6e5	0.42510143

bn2.running_var f4 [64]
0	0x3e4cee05	0.20012672
1	0x3e1eaafd	0.15494914
2	0x3ef4b0ad	0.47791043
3	0x3ef7ece0	0.4842291
4	0x3f124aa7	0.5714516
5	0x3e8dcd81	0.2769585
6	0x3ea557b2	0.3229347
7	0x3f11a6fd	0.5689543
8	0x3f22ba28	0.635653
9	0x3f0b35d8	0.54379034
10	0x3e9ab038	0.3021257
11	0x3e465df9	0.19371785
12	0x3f20295c	0.6256311
13	0x3e5a2ab7	0.21305357
14	0x3f4e410f	0.8056802
15	0x3f856ad5	1.0423228
16	0x3f0bcff6	0.546142
17	0x3ec33430	0.38125753
18	0x3e8c19c7	0.27363417
19	0x3f02776d	0.5096348
20	0x3e85d497	0.26138756
21	0x3e4da09c	0.20080799
22	0x3ebf9f78	0.37426353
23	0x3ef3c920	0.47614384
24	0x3e9859f6	0.29756135
25	0x3f119881	0.5687333
26	0x3f0f6a66	0.56021726
27	0x3e8a1d4c	0.26975477
28	0x3ed4e6ba	0.4158228
29	0x3f09d854	0.53845716
30	0x3f25b40d	0.6472786
31	0x3f4ae67f	0.7925796
32	0x3f175e14	0.59127927
33	0x3e93e0a2	0.2888232
34	0x3ef8d1f1	0.48597673
35	0x3f297583	0.66194934
36	0x3eb92544	0.36161244
37	0x3e901018	0.2813728
38	0x3eaac3e9	0.33352593
39	0x3e8cc688	0.27495217
40	0x3edcfc6a	0.43161327
41	0x3ed85244	0.42250264
42	0x3f2d0637	0.6758761
43	0x3e5a9d96	0.21349177
44	0x3ebb2626	0.36552542
45	0x3e80f1e6	0.25184554
46	0x3e90d154	0.28284705
47	0x3ec318bc	0.38104808
48	0x3ef554d3	0.47916278
49	0x3e83890c	0.25690496
50	0x3e72596a	0.23666921
51	0x3e86d136	0.2633149
52	0x3e8d23ca	0.27566367
53	0x3df98d2f	0.12185132
54	0x3e69330d	0.2277338
55	0x3e1a005c	0.150392
56	0x3f6848d2	0.90736115
57	0x3eaa985b	0.33319363
58	0x3f426d3e	0.7594794
59	0x3eca7fb5	0.39550558
60	0x3f46be74	0.7763436
61	0x3f3322e7	0.6997513
62	0x3eda3cf4	0.4262463
63	0x3efb2845	0.4905416

fc1.weight f4 [64, 64]
0	0x3d7c1d27	0.06155124
1	0x3cb26443	0.021776324
2	0xbcf4c85e	-0.029880699
3	0x3da5c78c	0.08094701
4	0xbe32bdcd	-0.17455216
5	0xbd591856	-0.053001724
6	0x3db4acc1	0.08822013
7	0xbcf9f57a	-0.03051256
8	0xbd9f664f	-0.07783186
9	0xbda9d290	-0.08292115
10	0xbe04c9fa	-0.12967673
11	0xbd352071	-0.04422039
12	0x3dd282bb	0.10278841
13	0xbd8ffa6e	-0.070301875
14	0xbd86c7cb	-0.06581076
15	0xbb13b11e	-0.002253599
16	0xbccb994d	-0.024853373
17	0x3c430596	0.011903187
18	0xbc730307	-0.014832265
19	0x3ae67ebd	0.0017585378
20	0xbdc2f3f0	-0.09519184
21	0xbd506187	-0.05087426
22	0x3d880c13	0.06642928
23	0xbd211eac	-0.03933589
24	0x3dfb8df8	0.12282938
25	0x3da5e23a	0.0809979
26	0xbde9a73c	-0.114088506
27	0x3da15d64	0.07879141
28	0x3d36edc7	0.044660356
29	0xbc07e79f	-0.008294969
30	0x3dcce4fa	0.10004611
31	0x3def1cd8	0.116754234
32	0x3d150e02	0.036390312
33	0x3e09efac	0.13470334
34	0xbdd16df2	-0.102260485
35	0xbdf2b57c	-0.11851022
36	0x3c83656a	0.016039569
37	0xbd9594c8	-0.073037684
38	0xbd12083f	-0.035652395
39	0xbd20fd6a	-0.039304174
40	0x3cf9628e	0.030442502
41	0x3dcdccca	0.10048826
42	0xbdb38fa6	-0.08767633
43	0xbdd14fd7	-0.10220306
44	0xbd6c55aa	-0.057698883
45	0x3e0010dd	0.12506433
46	0x3c921fca	0.017837424
47	0xbc570cbf	-0.0131255975
48	0x3d2ad17d	0.04170369
49	0x3dcb96d5	0.09940878
50	0x3da13e9b	0.07873269
51	0x3d707a7b	0.058710556
52	0xbd2bc9bd	-0.04194044
53	0x3c304662	0.010758968
54	0xbc0cbb69	-0.008589604
55	0xbbfdcf6f	-0.0077456753
56	0xbc9b8626	-0.018984865
57	0xbd870609	-0.06592948
58	0xbd81b4a2	-0.06333281
59	0xbd3efd33	-0.04662819
60	0xbd4e6c31	-0.050396148
61	0xbc1ff6e3	-0.009763452
62	0xbcc9557d	-0.024576897
63	0x3da78385	0.08179382
64	0xbc919fee	-0.017776456
65	0xbcb7cc2d	-0.022436226
66	0xbccb100e	-0.024787929
67	0xbb96aca1	-0.0045982157
68	0xbdbbd61a	-0.09171696
69	0x3e081752	0.13290146
70	0x3c85875c	0.016299896
71	0xbd636a3a	-0.055521227
72	0x3cc1161e	0.023570117
73	0xbdbfc5e8	-0.093639195
74	0x3c19fcf7	0.00939869
75	0xbe05f097	-0.13080059
76	0x3d99dce5	0.075128354
77	0xbe2dc92d	-0.16971274
78	0x3cb69dca	0.022292037
79	0x3d9ed4f7	0.077554636
80	0x3d32fd78	0.043698758
81	0x3d5ee5f0	0.054418504
82	0x3de2e9a9	0.110797234
83	0x3d0e4b64	0.034739867
84	0xbd9d80b0	-0.07690561
85	0x3c85d5d3	0.01633731
86	0x3d39ba9e	0.045343988
87	0xbdd7667b	-0.105175935
88	0x3dc7c60b	0.097545706
89	0xbd875405	-0.06607822
90	0x3cc521c1	0.024063947
91	0xbd6de02f	-0.058075126
92	0x3d7d20b7	0.061798777
93	0x3d402aa6	0.046915673
94	0xbd0a9046	-0.033828996
95	0x3d78da71	0.060755197
96	0x3c0b77d7	0.008512459
97	0xbc76a74a	-0.015054533
98	0x3db20d27	0.08693915
99	0x3da00df6	0.07815163
100	0xbd072f98	-0.033004373
101	0x3c2f89a2	0.010713967
102	0x3c867546	0.016413342
103	0x3c846cb8	0.016165122
104	0x3d41778e	0.047233157
105	0xbd8e1f64	-0.06939581
106	0x3dae1d33	0.08501663
107	0xbc72578e	-0.0147913825
108	0xbe3af5ef	-0.18257879
109	0xbbe99ff1	-0.007129662
110	0x3ca3b1df	0.019982276
111	0x3d47d205	0.048784275
112	0xbdd1a425	-0.10236386
113	0x3d26f1c9	0.040757928
114	0xbdd22b01	-0.102621086
115	0x3d4aac12	0.049480505
116	0x3dacab96	0.08431165
117	0xbd35a484	-0.044346347
118	0xbbeeea14	-0.007291088
119	0xbdd11b9a	-0.10210343
120	0x3d602c95	0.054730017
121	0x3d56971a	0.052390195
122	0xbd78fbb9	-0.060786936
123	0x3db00423	0.08594539
124	0x3da4bcbc	0.08043811
125	0xbd8740e5	-0.066041745
126	0xbcbbf7de	-0.02294534
127	0xbdd90d2d	-0.10598216
128	0x3cb7776c	0.022395812
129	0xbddf23f8	-0.10895532
130	0xbd7af050	-0.061264336
131	0x3c6bba25	0.014387642
132	0x3cb57040	0.022148252
133	0xbd117ee1	-0.03552139
134	0x3d978498	0.07398337
135	0x3e1e4418	0.15455663
136	0x3d56e8f7	0.052468266
137	0xbd84d304	-0.064855605
138	0xbb328c0a	-0.0027244114
139	0x3d8fb954	0.070177704
140	0x3db51652	0.08842148
141	0xbe0ce253	-0.13758211
142	0x3d7adacb	0.061243813
143	0x3d0b7d3b	0.034054976
144	0xbd73baf3	-0.05950446
145	0x3c80cb43	0.015721923
146	0xbd30557a	-0.043050267
147	0xbc6a7ce0	-0.014311999
148	0xbdc9f59e	-0.09861301
149	0xbc147bde	-0.009062735
150	0x3dc3af75	0.0955495
151	0x3e08f5b6	0.13374981
152	0x3df75b3b	0.12077948
153	0xbde6e173	-0.1127347
154	0xbdadfb88	-0.084952414
155	0xbdce720c	-0.100803465
156	0x3de1abc9	0.110190935
157	0x3dc38b04	0.095479995
158	0x3da1f72d	0.07908473
159	0xbd6137a3	-0.0549847
160	0xbd88a1c2	-0.06671478
161	0xbdc7b3c6	-0.09751086
162	0xbdefbc48	-0.11705834
163	0x3d733068	0.059372336
164	0xbc92709f	-0.017875968
165	0xbd61beda	-0.05511365
166	0x3dd53dc6	0.10412173
167	0x3d23e2f6	0.04001137
168	0x3dad4f82	0.084624305
169	0xbda4952c	-0.08036265
170	0xbe10fda8	-0.14159262
171	0xb9fcfe8b	-0.00048254835
172	0xbd952f14	-0.0728437
173	0xbc9f55fe	-0.019450184
174	0x39a98d36	0.00032339402
175	0x3e12af06	0.14324579
176	0x3cd09581	0.025461914
177	0xbdc39884	-0.095505744
178	0x3da38731	0.0798477
179	0xbdb00f3c	-0.08596656
180	0x3dfaeac3	0.122518085
181	0x3c98953b	0.018625846
182	0xbda517ad	-0.080611564
183	0xbd9321f6	-0.07184212
184	0x3ba33569	0.004980732
185	0x3c440450	0.011963919
186	0xbd5739f8	-0.052545518
187	0xbd7a4766	-0.061103247
188	0x3d89092e	0.06691204
189	0xbdd29291	-0.102818616
190	0xbd9ee2df	-0.07758116
191	0xbd19aade	-0.037516467
192	0x3c213f1e	0.0098417085
193	0x3d8b9423	0.06815364
194	0xbbdaed3b	-0.006681112
195	0x3da5e6a6	0.08100633
196	0x3b9e4dd6	0.004831056
197	0xbc881879	-0.016613232
198	0xbc8ce916	-0.017200988
199	0xbd0e2eea	-0.03471271
200	0xbe06b356	-0.13154349
201	0xbda7b5eb	-0.08188995
202	0x3c67f15d	0.014156667
203	0x3df66a85	0.12032036
204	0x3dcef867	0.10105973
205	0x3c833abf	0.016019223
206	0x3ba8a423	0.0051465197
207	0xbdd83981	-0.10557843
208	0xbba0153a	-0.004885343
209	0xbcab7127	-0.020927979
210	0xbdee8dc8	-0.116481364
211	0x3d7379bc	0.059442267
212	0x3de18add	0.11012814
213	0xbca951ee	-0.02066895
214	0xbcd7547a	-0.026285399
215	0xbd9932c7	-0.07480388
216	0x3d4443c5	0.047916193
217	0xbcf14884	-0.029453523
218	0x3dac54de	0.08414625
219	0xbdb78712	-0.089613095
220	0x3df3ec27	0.11910277
221	0xbde59969	-0.11210901
222	0x3db8ba15	0.09019867
223	0xbd860f6a	-0.06545909
224	0x3d465718	0.048422903
225	0xbd9cad60	-0.07650256
226	0xbd2ed18e	-0.042680316
227	0xbd851606	-0.06498341
228	0x3cc67510	0.024225742
229	0x3d193605	0.037405033
230	0xbc492a67	-0.012278176
231	0xbda1dcb3	-0.07903423
232	0xbe02477e	-0.12722585
233	0x3d5f7415	0.054554064
234	0xbd1c8b31	-0.03821868
235	0x3db78e1a	0.089626506
236	0x3da9ad99	0.08285064
237	0xbd56767a	-0.05235908
238	0xbdaa6838	-0.083206594
239	0x3c9abd4e	0.018889096
240	0x3dded603	0.10880663
241	0xbd491025	-0.049087662
242	0xbd3958f6	-0.045250855
243	0x3cbf9f7d	0.02339148
244	0x3c12cc97	0.008959911
245	0xbdf9f97e	-0.1220579
246	0x3d6c785e	0.05773198
247	0x3d498bb6	0.049205504
248	0x3df3fee4	0.11913851
249	0xbd49f4d3	-0.04930575
250	0x3d4d20c5	0.05008008
251	0x3cce3e22	0.025176112
252	0xbde2e211	-0.11078275
253	0xbbe7eca9	-0.0070777726
254	0xbb9c44ad	-0.004768929
255	0xbd776eeb	-0.060408514

fc1.bias f4 [64]
0	0x3de7617c	0.112978905
1	0xbb037c52	-0.0020063114
2	0xbdfd24c4	-0.12360528
3	0xbd939a4a	-0.07207163
4	0x3dd48ee1	0.103788145
5	0x3c4c12d4	0.012455661
6	0x3d9867d1	0.074416764
7	0xbd7fd60f	-0.06246
8	0xbdb995b3	-0.09061756
9	0xbde4c4e3	-0.11170366
10	0xbd7667cd	-0.060157586
11	0x3daf8f0a	0.085722044
12	0x3d9adbf7	0.07561486
13	0x3e3e385f	0.18576191
14	0x3d8413bc	0.064490765
15	0x3c7ea5e7	0.015542484
16	0x3c3d44c1	0.011552037
17	0xbe0efdfe	-0.13964078
18	0x3d9eec03	0.077598594
19	0x3cd3737f	0.025811909
20	0x3dde5ee6	0.10857944
21	0xbcaf7b27	-0.021421028
22	0x3d189a41	0.037256483
23	0xbca9b4a7	-0.020716025
24	0x3de40764	0.11134222
25	0xbabb37c7	-0.0014283591
26	0x3c9337cc	0.017970942
27	0x3dbbebd0	0.09175837
28	0xbc74c745	-0.014940088
29	0xbc2de35b	-0.010613288
30	0x3dc55463	0.09635236
31	0x3c6d45fc	0.014482018
32	0x3e222a97	0.15836559
33	0xbd7865b7	-0.060643878
34	0x3dda1335	0.10648195
35	0xbcf115fa	-0.029429425
36	0x3d174eb7	0.036940303
37	0xbd782e69	-0.060591135
38	0xbc5811d5	-0.013187845
39	0x3dbb5dbd	0.091487385
40	0x3cc20e77	0.023688538
41	0x3dff6a67	0.124714665
42	0x3d6777fc	0.05651091
43	0xbd201a15	-0.039087374
44	0xbd8302c0	-0.06397009
45	0x3afbf6bd	0.0019223314
46	0xbd8efd5e	-0.0698192
47	0x3e0511b3	0.12995033
48	0x3cfaaeaf	0.030600874
49	0x3d762039	0.060089324
50	0xbdbbb66d	-0.09165654
51	0x3dbc67bc	0.09199473
52	0x3dc06e00	0.09395981
53	0x3d77bd38	0.060483187
54	0x3b92cbfa	0.0044798823
55	0x3dae47d1	0.08509792
56	0xbd8579b9	-0.065173574
57	0xbde3968d	-0.111127
58	0xbd98c3f8	-0.07459253
59	0x3de64f77	0.112456255
60	0xbd29d43e	-0.041462176
61	0xbdd65945	-0.104662456
62	0xbd9aad68	-0.07552606
63	0xbdf13208	-0.11777121

bn3.weight f4 [64]
0	0x3f8a4dd3	1.0805
1	0x3f8c0359	1.0938522
2	0x3f89fb36	1.0779788
3	0x3f8b14a7	1.0865678
4	0x3f8df387	1.1089944
5	0x3f8a78e8	1.0818148
6	0x3f89dc7c	1.0770411
7	0x3f8845a9	1.0646259
8	0x3f89e569	1.0773135
9	0x3f84cac9	1.0374385
10	0x3f8a3bf9	1.0799552
11	0x3f888af1	1.0667402
12	0x3f8fff71	1.124983
13	0x3f937805	1.1521002
14	0x3f8ad3a1	1.0845834
15	0x3f845af0	1.0340252
16	0x3f850c58	1.0394392
17	0x3f82439e	1.0176885
18	0x3f88987d	1.0671536
19	0x3f8aae94	1.0834527
20	0x3f8cc579	1.0997764
21	0x3f882c6b	1.0638555
22	0x3f8aa1e8	1.083066
23	0x3f89a3fa	1.0753167
24	0x3f8a8f37	1.0824956
25	0x3f8ced19	1.1009856
26	0x3f914669	1.1349612
27	0x3f8465c8	1.0343561
28	0x3f833dad	1.0253197
29	0x3f866672	1.0500014
30	0x3f9253ff	1.1431884
31	0x3f89a99e	1.0754888
32	0x3f85f9ae	1.0466821
33	0x3f8998c5	1.0749747
34	0x3f8bd989	1.0925761
35	0x3f8892fe	1.0669858
36	0x3f81f8b9	1.0154029
37	0x3f82a509	1.0206615
38	0x3f8d91d2	1.1060126
39	0x3f89b8c3	1.075951
40	0x3f86e5db	1.0538896
41	0x3f870b02	1.0550234
42	0x3f88a4c3	1.0675281
43	0x3f82d6ba	1.0221779
44	0x3f8c7071	1.0971814
45	0x3f906abb	1.1282572
46	0x3f84aab2	1.0364592
47	0x3f8a89fe	1.0823362
48	0x3f8850df	1.064968
49	0x3f91485b	1.1350206
50	0x3f91164b	1.1334928
51	0x3f83a821	1.0285684
52	0x3f8a0419	1.07825
53	0x3f8add29	1.0848743
54	0x3f913aa7	1.1346024
55	0x3f897196	1.0737789
56	0x3f8a7611	1.0817281
57	0x3f863071	1.0483533
58	0x3f84919e	1.0356939
59	0x3f855e6b	1.0419439
60	0x3f8dd35d	1.1080128
61	0x3f8d48ef	1.1037883
62	0x3f86049f	1.047016
63	0x3f8f97fb	1.1218256

bn3.bias f4 [64]
0	0x3cf3cadf	0.029759822
1	0xbc4a7ceb	-0.012358884
2	0x3bf41124	0.0074483324
3	0xbc8e805b	-0.017395189
4	0x3d91f07c	0.07125947
5	0xbc191a03	-0.009344581
6	0xbd94c218	-0.07263583
7	0xbd0950b8	-0.033524245
8	0xbd8e7029	-0.069549866
9	0xbc1268d6	-0.008936128
10	0xb9979a55	-0.0002891595
11	0xbc4a8582	-0.012360932
12	0xbd591f96	-0.05300864
13	0x3ab5c54c	0.0013868003
14	0xbd1e3e76	-0.038633786
15	0x3e0bfe7f	0.13671301
16	0x3d02011b	0.031739336
17	0x3d1f9211	0.03895766
18	0xbc4a361a	-0.012342
19	0x3d184bcc	0.03718166
20	0xbd3d0fe8	-0.046157748
21	0xbe0255c5	-0.12728031
22	0x3d2d0ece	0.042250447
23	0xbc59dac2	-0.013296785
24	0x3d24c751	0.040229145
25	0xbb63b408	-0.0034744758
26	0xbd1e1953	-0.03859837
27	0xbe04e8c5	-0.1297942
28	0x3e0ee0e1	0.13952972
29	0x3c567efc	0.013091799
30	0x3d1c8c91	0.038219992
31	0x3d06964e	0.032858185
32	0xbd3ac293	-0.045595717
33	0xbc947925	-0.018124172
34	0xbd13105d	-0.035904277
35	0x3dd6d40f	0.10489666
36	0x3c0aaf09	0.008464583
37	0xbd757a4f	-0.059931096
38	0xbc5fe9fc	-0.013666626
39	0xbcdc3735	-0.026881794
40	0xbd290248	-0.04126194
41	0xbda7c675	-0.081921495
42	0xbd68117b	-0.056657296
43	0xbd9365a5	-0.071971215
44	0xbdc61603	-0.09672167
45	0xbdf56f07	-0.119840674
46	0x3da31a77	0.07964032
47	0xbc95a036	-0.018264871
48	0xbc8f6da3	-0.017508334
49	0xbd2c0962	-0.042001136
50	0xbd12f822	-0.03588117
51	0xbcd5bd2e	-0.026091184
52	0xbd772c9e	-0.060345285
53	0x3d757287	0.059923675
54	0x3e0ababc	0.13547796
55	0x3d06391f	0.03276932
56	0xbd284e1d	-0.04109012
57	0xbd98c183	-0.074587844
58	0xbd99fdc3	-0.07519104
59	0xbd2a605f	-0.041595813
60	0x3e17549c	0.1477837
61	0xbc567051	-0.013088302
62	0x3c2df597	0.010617635
63	0xbd2c91a2	-0.042131074

bn3.running_mean f4 [64]
0	0x3fbaa811	1.458254
1	0x3ff91ec2	1.9462512
2	0x3fd4c237	1.662177
3	0x3f9989b1	1.1995145
4	0x3f433db9	0.76266056
5	0x3fa1b801	1.2634279
6	0x4007f2ee	2.1242023
7	0x3f96e616	1.1788967
8	0x3f8faa84	1.1223912
9	0x3ff9a9c9	1.9504939
10	0x3fc737ba	1.5563881
11	0x3fb2142d	1.3912407
12	0x3f9ef363	1.2418026
13	0x3f0a6945	0.5406688
14	0x3fa315db	1.2741045
15	0x3fdae978	1.7102499
16	0x401add37	2.419752
17	0x3feecde1	1.8656579
18	0x3fd9f8d0	1.7029057
19	0x3fe6ffeb	1.804685
20	0x3f930da7	1.1488541
21	0x3fdd79f1	1.7302839
22	0x3f95993f	1.1687392
23	0x3fdbd0f8	1.7173147
24	0x3fd912a7	1.6958817
25	0x3fa01d01	1.2508851
26	0x3fc31b6c	1.5242743
27	0x4030e1dd	2.7637856
28	0x3f95be0f	1.1698626
29	0x3fcb4dc1	1.5883104
30	0x3f203d0b	0.62593144
31	0x3fbb2735	1.462134
32	0x3fc2a4c0	1.5206528
33	0x3f58ab31	0.8463622
34	0x3f89e640	1.0773392
35	0x3fd3020c	1.6485
36	0x3ffcb5f4	1.9743028
37	0x3fffd428	1.998662
38	0x3fcecd53	1.615641
39	0x3fd253a9	1.6431781
40	0x3fc51059	1.5395614
41	0x3faa6625	1.3312422
42	0x3fbf8432	1.4962218
43	0x4002429c	2.0353155
44	0x3fc2e510	1.5226154
45	0x3fa98d9f	1.3246344
46	0x3f97a9ed	1.1848732
47	0x3fbd149d	1.4771916
48	0x3fd70821	1.6799356
49	0x3f864550	1.0489902
50	0x3fa4b623	1.2868084
51	0x400530cc	2.0811033
52	0x3fbb2feb	1.4623998
53	0x3fb87fa5	1.4413954
54	0x3fe67217	1.8003567
55	0x3fda410d	1.7051102
56	0x3fc2776b	1.5192693
57	0x3fd0387c	1.6267238
58	0x3fc7aceb	1.5599645
59	0x3fa69ef3	1.3017257
60	0x3f904877	1.1272115
61	0x3f858483	1.0431064
62	0x3f7ac7a5	0.97960883
63	0x3f243504	0.64143395

bn3.running_var f4 [64]
0	0x40a46a6a	5.13799
1	0x414df6b7	12.872733
2	0x4124dfc9	10.304635
3	0x4082462a	4.071065
4	0x40199bdc	2.400138
5	0x40c54952	6.1652
6	0x411cb69d	9.794583
7	0x4089ac06	4.302249
8	0x406246a5	3.5355618
9	0x4170d278	15.051384
10	0x409fc889	4.9932294
11	0x40be0e50	5.939247
12	0x4065f7f8	3.5932598
13	0x3f9cf8a9	1.2263385
14	0x40c308d8	6.0948296
15	0x4163c74a	14.236155
16	0x41805289	16.0403
17	0x41423a24	12.1391945
18	0x40e23521	7.0689855
19	0x410160dc	8.086147
20	0x40910a6c	4.532522
21	0x4100a83a	8.041071
22	0x40a35a84	5.1047993
23	0x40f8adc0	7.7712097
24	0x412a87b3	10.65813
25	0x40b3d68c	5.61994
26	0x40c9abd6	6.302226
27	0x414aa5fe	12.665525
28	0x40abdf39	5.370999
29	0x410c3631	8.76323
30	0x3fde05ba	1.7345498
31	0x40a27d27	5.0777774
32	0x41041f15	8.257588
33	0x4034e4fb	2.8264759
34	0x4094bb24	4.6478443
35	0x40ffcce0	7.993759
36	0x412a1a3d	10.631406
37	0x41168e61	9.40976
38	0x41038f37	8.222465
39	0x40cff467	6.4985843
40	0x40e564b0	7.168541
41	0x409f9d25	4.9879327
42	0x40d7afaa	6.7401934
43	0x418b3281	17.39966
44	0x40ba1e7a	5.8162203
45	0x409f9486	4.9868803
46	0x4080572d	4.0106416
47	0x40e800ac	7.250082
48	0x40fbeb1f	7.8724513
49	0x402c6274	2.693509
50	0x408c0742	4.375886
51	0x40ddf09d	6.9356217
52	0x40edb05e	7.427779
53	0x40cbab6f	6.364677
54	0x41043eca	8.265329
55	0x40f000cd	7.5000978
56	0x40e79e5a	7.23808
57	0x40c43b13	6.132211
58	0x40e581d5	7.1720986
59	0x40ae85ea	5.453847
60	0x407c186f	3.9389913
61	0x4068d1c4	3.637803
62	0x405c9b97	3.4469965
63	0x4000eed3	2.0145767
