tuning_results/best_models_during_tuning_lightning_logs/ratio_stand_GCN_best_model_logs/checkpoints/epoch=322-train_loss=1.34-train_f1=0.37-val_loss=1.69-val_f1=0.26.ckpt (torch, 105170 bytes, 38 tensors)

conv1.bias f4 [64]
-0.00052825024 -0.027966239 0.01912352 -0.03033412 0.0024177074 0.010152334 -0.01746438 0.008234484
-0.027248941 0.012006802 -0.016093459 0.049441613 -0.04275529 -0.028105076 0.029605791 -0.0061286027
-0.001182466 0.0064718165 0.006495931 0.016238641 -0.013357591 0.053702407 0.016193183 0.05683105
-0.016342003 -0.004549833 -0.042516567 -0.022496901 0.013016055 0.0025287361 0.03482621 0.06902107
-0.034102824 0.0042453916 -0.005265078 0.0010225477 -0.03729293 -0.044559345 0.0059839804 -0.0023418018
0.012859595 0.070730165 -0.017676875 0.04154451 0.019709729 -0.021253409 -0.010352127 0.010727327
-0.061352037 -0.034365285 0.03824677 0.009373991 0.039282642 0.03445078 -0.02446137 0.001898915
0.02614562 0.025511323 -0.0318783 0.006261483 0.056004908 -0.011220507 0.0015960297 -0.013510034
00000000: 467a 0aba 7419 e5bc eea8 9c3c 437f f8bc
00000010: 6672 1e3b fa55 263c 7611 8fbc eee9 063c
00000020: 2c39 dfbc 2db8 443c 6ed6 83bc 4a83 4a3d
00000030: 2c20 2fbd 9e3c e6bc d887 f23c 72d2 c8bb
00000040: fafc 9aba 8811 d43b d2db d43b e606 853c
00000050: ccd9 5abc 0ef7 5b3d 91a7 843c adc7 683d
00000060: aadf 85bc c416 95bb da25 2ebd 6c4b b8bc
00000070: 4b41 553c 27b9 253b eea5 0e3d eb5a 8d3d
00000080: 67af 0bbd ed1c 8b3b ad86 acbb 0207 863a
00000090: 79c0 18bd dc83 36bd 4415 c43b ea78 19bb
000000a0: 0db1 523c fada 903d 18cf 90bc 932a 2a3d
000000b0: 4c76 a13c a11b aebc f89b 29bc acc1 2f3c
000000c0: 464c 7bbd 9dc2 0cbd a5a8 1c3d 5e95 193c
000000d0: d6e6 203d 431c 0d3d 3663 c8bc 04e5 f83a
000000e0: 572f d63c 1ffd d03c d292 02bd 202d cd3b
000000f0: 6765 653d 38d6 37bc df31 d13a 3159 5dbc

conv1.lin.weight f4 [64, 25]
0.09303106 -0.08083977 0.11010274 -0.15047938 0.048525892 -0.19280481 -0.0443807 0.042033378
-0.11750236 0.26762313 0.027472053 -0.13949524 -0.12417618 -0.020768257 0.02335265 -0.07830464
0.081719555 -0.14301689 0.16411327 -0.01115519 0.19020909 -0.24711986 0.12311557 -0.115547955
-0.23651126 0.016026909 -0.24183156 -0.026402805 0.010567716 -0.20659897 -0.17469126 -0.09051393
0.015233311 -0.23463026 -0.1055997 -0.0075673847 0.18998556 -0.24002098 -0.04038806 -0.0697454
-0.18322629 0.098474495 -0.1377475 0.24279635 -0.029265726 0.23307477 -0.014644268 0.11667817
0.04771154 -0.25186563 0.009825128 0.105832204 0.15358251 0.23601143 -0.123333395 -0.15845074
-0.05288114 0.13844159 -0.027354252 0.175901 -0.16556634 0.22046375 0.12353898 -0.0013152631
-0.17877012 -0.17930482 0.12392496 -0.24575655 0.16314742 -0.057190873 -0.010106767 -0.082403034
0.026790634 -0.022258239 -0.16703509 -0.021060703 0.11803066 -0.028685048 -0.20572196 0.0040182495
-0.038217805 -0.023329362 -0.21313547 -0.0672874 -0.21084636 -0.27079222 -0.19497266 0.2329212
-0.062407307 -0.21990791 0.07857321 -0.24197471 0.19279395 -0.095318325 0.18280278 0.20072499
0.06964369 -0.14989942 -0.14792904 0.16314879 0.101912096 -0.036463886 -0.123403355 -0.26990607
-0.09764613 0.20505364 0.107571825 0.04992236 0.17454134 -0.23767602 0.0020892816 0.11606518
-0.044982623 0.18439297 0.033453677 0.10508575 0.022323348 0.05178515 0.1534786 -0.071822144
0.21333694 0.14645745 -0.0019388561 0.052827753 0.03711481 -0.15347761 -0.20123282 0.06758753
-0.19765219 -0.02429929 0.14940608 0.2436197 -0.15487315 -0.025539257 -0.16825482 -0.04793324
-0.15755573 0.19049194 -0.049055055 0.057775084 -0.22730866 -0.010534615 -0.03167033 0.18789057
0.26033655 0.07655821 0.20620713 -0.12497352 -0.23136787 -0.056681916 0.06972533 0.11173304
-0.16552317 0.20146264 -0.15175915 0.03265583 0.26408258 0.04654613 -0.20209879 0.2632165
0.2466952 -0.19395642 0.1014542 -0.11989245 -0.07596474 0.10307596 0.022812355 -0.06928447
-0.128097 -0.15715495 0.037047546 -0.043349855 -0.23842394 0.18944274 0.15482402 0.18057075
0.20914192 -0.063437134 -0.023550823 0.11099608 -0.24856149 -0.18457033 -0.09079706 -0.1903959
0.085382074 0.16875105 0.21336539 0.06352824 0.13956983 -0.047303718 0.13568312 -0.17429258
0.07713657 0.12925582 0.026940256 -0.20003691 0.14761133 0.20013773 -0.082030915 0.13943617
0.07402632 0.10810959 -0.21376354 -0.070218444 0.10519095 0.17183122 0.10384763 -0.030978056
-0.2115003 -0.18403625 0.19615464 0.08359058 -0.16581559 -0.016740425 -0.11901726 0.12828955
-0.16650888 -0.25750756 -0.10218974 0.2237203 0.1618811 0.1544324 -0.2092572 0.18708402
0.04381333 -0.20109716 -0.053071063 -0.035438865 -0.06765523 -0.27479047 0.059043977 0.18508555
0.05201894 -0.14595476 0.19729188 0.1546128 -0.19780347 0.1833112 0.034230683 0.10308481
0.09615085 -0.1439126 -0.10306524 0.09853042 0.0064751003 -0.16974077 -0.011911597 0.13081601
-0.14594416 -0.2921509 0.17219646 -0.07078152 0.09067312 -0.24897656 -0.06950539 -0.056405425
00000000: 1287 be3d 528f a5bd 8c7d e13d 4417 1abe
00000010: 16c3 463d a06e 45be 89c8 35bd 312b 2c3d
00000020: 14a5 f0bd e605 893e 120d e13c d7d7 0ebe
00000030: 1550 febd 3122 aabc 0f4e bf3c 2f5e a0bd
00000040: 955c a73d 0573 12be 4f0d 283e 42c4 36bc
00000050: 2cc6 423e fd0c 7dbe 0424 fc3d 68a4 ecbd
00000060: 0230 72be dd4a 833c b1a2 77be b24a d8bc
00000070: 3724 2d3c ae8e 53be 44e2 32be 5e5f b9bd
00000080: 2395 793c ea42 70be a844 d8bd d3f7 f7bb
00000090: 938b 423e 0fc8 75be f36d 25bd add6 8ebd
000000a0: ac9f 3bbe ffac c93d ae0d 0dbe 9b9f 783e
000000b0: adbe efbc 27ab 6e3e 83ee 6fbc f7f4 ee3d
000000c0: 2d6d 433d 88f4 80be 93f9 203c 8ebe d83d
000000d0: bc44 1d3e fbac 713e 3896 fcbd e940 22be
000000e0: e599 58bd a2c3 0d3e 0616 e0bc 641f 343e
000000f0: 398a 29be 40c1 613e 0102 fd3d e864 acba
00000100: 840f 37be af9b 37be 5fcc fd3d 9ba7 7bbe
00000110: 1e10 273e fa40 6abd da96 25bc ecc2 a8bd
00000120: 0878 db3c e956 b6bc 3f0b 2bbe 7f87 acbc
00000130: 0fba f13d e8fc eabc c7a8 52be 85ab 833b
00000140: 468a 1cbd 381d bfbc 2f40 5abe facd 89bd
00000150: 1ce8 57be 47a5 8abe eaa6 47be e582 6e3e
00000160: ce9e 7fbd 8a2f 61be feea a03d 38c8 77be
00000170: c76b 453e 4136 c3bd a730 3b3e da8a 4d3e
00000180: 5aa1 8e3d 3c7f 19be b67a 17be 7a10 273e
00000190: 4ab7 d03d 285b 15bd e6ba fcbd 2131 8abe
000001a0: b2fa c7bd 95f9 513e 9e4e dc3d 637b 4c3d
000001b0: f7ba 323e 5861 73be 54ec 083b 95b3 ed3d
000001c0: b33f 38bd 83d1 3c3e b906 093d 3337 d73d
000001d0: 74df b63c aa1c 543d 7e29 1d3e 7d17 93bd
000001e0: 0075 5a3e f1f8 153e 3721 feba ea61 583d
000001f0: b305 183d 3c29 1dbe fa0f 4ebe 556b 8a3d
00000200: 5665 4abe 4e0f c7bc e8fd 183e 7177 793e
00000210: 1197 1ebe b437 d1bc fe4a 2cbe a555 44bd
00000220: 4a56 21be 5210 433e f4ed 48bd 91a5 6c3d
00000230: 9ac3 68be 6199 2cbc bfb8 01bd 6366 403e
00000240: d54a 853e 8dca 9c3d f627 533e 1ef2 ffbd
00000250: b3eb 6cbe 4c2b 68bd 27cc 8e3d 4bd4 e43d
00000260: e87e 29be 394c 4e3e c066 1bbe 1fc2 053d
00000270: d535 873e 28a7 3e3d fcf2 4ebe 50c4 863e
00000280: ab9d 7c3e 839c 46be 38c7 cf3d 2c8a f5bd
00000290: 6793 9bbd 7d19 d33d fae0 ba3c 04e5 8dbd
000002a0: dc2b 03be 3aed 20be 2bbf 173d 9e8f 31bd
000002b0: 6825 74be 47fd 413e 308a 1e3e 8ae7 383e
000002c0: 4d29 563e 54eb 81bd a8ed c0bc ea51 e33d
000002d0: e786 7ebe 0100 3dbe cff3 b9bd 25f7 42be
000002e0: ccdc ae3d 13cd 2c3e 757c 5a3e 181b 823d
000002f0: 65eb 0e3e 8bc1 41bd 84f0 0a3e c179 32be
00000300: c7f9 9d3d a35b 043e d0b1 dc3c 7ad6 4cbe
00000310: 6d27 173e e8f0 4c3e d3ff a7bd 5bc8 0e3e
00000320: 1c9b 973d 9068 dd3d d4e4 5abe b0ce 8fbd
00000330: 5a6e d73d 86f4 2f3e 11ae d43d b1c5 fdbc
00000340: 8993 58be 0074 3cbe c3dc 483e 8a31 ab3d
00000350: 90cb 29be 3723 89bc 52bf f3bd 565e 033e
00000360: 4e81 2abe 08d8 83be db48 d1bd ef16 653e
00000370: 29c4 253e 8723 1e3e 8547 56be f492 3f3e
00000380: 9b75 333d 6aec 4dbe 0b61 59bd 5828 11bd
00000390: d38e 8abd 56b1 8cbe 19d8 713d 1187 3d3e
000003a0: d011 553d 2a75 15be e206 4a3e d152 1e3e
000003b0: fe8c 4abe eeb5 3b3e 7935 0c3d 211e d33d
000003c0: bdea c43d d35d 13be de13 d3bd 51ca c93d
000003d0: 142d d43b 86d0 2dbe dc28 43bc a2f4 053e
000003e0: 6372 15be ce94 95be 4554 303e e7f5 90bd
000003f0: d4b2 b93d b6f3 7ebe d858 8ebd 6009 67bd

bn1.weight f4 [64]
0.97233534 0.96778774 1.0352854 0.99539113 1.016557 1.0095955 0.96096396 0.98704505
1.0139501 0.9983985 1.0146722 1.0033282 1.0099168 1.0269322 0.99239403 0.9804283
1.0139097 1.0235549 0.9934443 0.99597293 1.0131624 0.99316746 1.0120441 1.0059723
0.9976369 0.9634736 1.0394076 1.0052786 0.9970178 1.0091574 1.0084151 0.9724667
1.0522908 1.0092231 1.0185971 0.957283 1.0135221 0.9852568 1.0058206 0.9916033
0.99806774 0.98125577 0.98398775 0.9877144 0.96118605 1.0294628 1.014366 0.9874259
0.9857113 0.99334127 0.9930396 0.97986966 0.9837893 1.0043454 1.0216647 1.0085332
0.99496347 0.9544232 0.9822142 1.0039321 1.0221827 1.0089954 0.9924433 1.0168979
00000000: f8ea 783f f0c0 773f 3b84 843f f4d1 7e3f
00000010: 8a1e 823f 6d3a 813f bc01 763f fcae 7c3f
00000020: 1ec9 813f 0b97 7f3f c7e0 813f 0f6d 803f
00000030: f444 813f 8472 833f 890d 7e3f 59fd 7a3f
00000040: cbc7 813f d903 833f 5e52 7e3f 15f8 7e3f
00000050: 4eaf 813f 3940 7e3f a98a 813f b3c3 803f
00000060: 2265 7f3f 35a6 763f 4f0b 853f f8ac 803f
00000070: 8f3c 7f3f 122c 813f bf13 813f 94f3 783f
00000080: 77b1 863f 392e 813f 6461 823f 8010 753f
00000090: 18bb 813f ca39 7c3f bbbe 803f b7d9 7d3f
000000a0: 5e81 7f3f 9433 7b3f 9fe6 7b3f dada 7c3f
000000b0: 4a10 763f 70c5 833f bfd6 813f f2c7 7c3f
000000c0: 9357 7c3f 9d4b 7e3f d837 7e3f bdd8 7a3f
000000d0: 9ed9 7b3f 648e 803f e9c5 823f 9e17 813f
000000e0: edb5 7e3f 1455 743f 6472 7b3f d980 803f
000000f0: e2d6 823f c326 813f c410 7e3f b629 823f

bn1.bias f4 [64]
-0.029767156 0.01995477 0.012965082 0.078425325 -0.024012176 -0.003503186 0.021094939 0.010028147
-0.026118843 0.016225789 -0.035606157 -0.021696737 -0.021820622 -0.022769224 0.010008254 -0.0037338184
0.018734954 -0.031290267 0.030797359 0.023816597 -0.06610263 0.055220284 -0.022861797 -0.0340848
-0.008043238 -0.021767966 0.0061238375 0.052487604 0.0046878005 -0.017145654 0.020527042 -0.0052932315
-0.0008791548 -0.05631482 -0.023062164 -0.03411214 -0.0073545785 0.01809527 0.047196094 0.031097664
0.0309456 0.01183351 -0.028341217 -0.009108959 0.024261808 0.01884697 -0.0023743212 -0.025338013
-0.036943723 -0.021461781 -0.003954367 -0.017999345 0.006825242 0.0070639644 0.0026305844 0.035994153
-0.0293781 -0.014407896 0.05141664 0.035461813 -0.02921435 0.029414082 -0.04362785 0.004300444
00000000: 40da f3bc 3078 a33c 7f6b 543c 759d a03d
00000010: 2fb5 c4bc b595 65bb 4bcf ac3c 194d 243c
00000020: 2ff7 d5bc f2eb 843c c3d7 11bd 5bbd b1bc
00000030: 29c1 b2bc 8686 babc a9f9 233c 14b3 74bb
00000040: 0c7a 993c 392a 00bd be4a fc3c 061b c33c
00000050: d160 87bd aa2e 623d aa48 bbbc 819c 0bbd
00000060: c9c7 03bc bc52 b2bc 79aa c83b 3efd 563d
00000070: 1f9c 993b 0b75 8cbc 5428 a83c d872 adbb
00000080: 1477 66ba 5eaa 66bd ddec bcbc 2cb9 0bbd
00000090: adfe f0bb 883c 943c b150 413d 87c0 fe3c
000000a0: a081 fd3c 57e1 413c d72b e8bc be3d 15bc
000000b0: b3c0 c63c f664 9a3c 809a 1bbb aa91 cfbc
000000c0: 4d52 17bd 9ed0 afbc a293 81bb 5d73 93bc
000000d0: 48a6 df3b d478 e73b e265 2c3b 9b6e 133d
000000e0: 57aa f0bc 190f 6cbc 419a 523d 6840 113d
000000f0: ef52 efbc cdf5 f03c 1eb3 32bd bdea 8c3b

bn1.running_mean f4 [64]
0.11831943 0.12866099 0.12152002 0.13775478 0.14986947 0.1360965 0.15207079 0.1844972
0.16931301 0.15098989 0.15246233 0.17174007 0.15026417 0.26084915 0.28969255 0.17953147
0.13870129 0.14372669 0.10413252 0.1720313 0.13839184 0.22697799 0.21731856 0.29137862
0.14754058 0.19589347 0.15973112 0.09882478 0.16407718 0.24321786 0.15476044 0.21768957
0.17878212 0.21512729 0.12640475 0.1533469 0.19999406 0.09930052 0.14367212 0.12673451
0.17202985 0.18813686 0.11569805 0.20072459 0.14254396 0.22722018 0.20589569 0.15457594
0.20831588 0.15006447 0.24435483 0.15432332 0.21433339 0.28451684 0.14394759 0.0804642
0.23555268 0.19370341 0.11973627 0.16895916 0.2559791 0.15877697 0.3320954 0.17508934
00000000: 7551 f23d b5bf 033e 7ddf f83d 970f 0d3e
00000010: 6277 193e e25c 0b3e 72b8 1b3e d6ec 3c3e
00000020: 6460 2d3e 189d 1a3e 161f 1c3e a1dc 2f3e
00000030: dade 193e 058e 853e 9552 943e 19d7 373e
00000040: b607 0e3e 172d 133e 6e43 d53d f928 303e
00000050: 97b6 0d3e eb6c 683e c288 5e3e 942f 953e
00000060: e114 173e 4c98 483e 8e90 233e a564 ca3d
00000070: d903 283e 1a0e 793e 8579 1e3e 04ea 5e3e
00000080: a912 373e 544a 5c3e 3f70 013e f806 1d3e
00000090: 3ecb 4c3e 125e cb3d c91e 133e b1c6 013e
000000a0: 9828 303e f3a6 403e 19f3 ec3d bf8a 4d3e
000000b0: 0bf7 113e 68ac 683e 52d6 523e 2849 1e3e
000000c0: c250 553e 80aa 193e 2738 7a3e ef06 1e3e
000000d0: 367a 5b3e 31ac 913e ff66 133e 6aca a43d
000000e0: b934 713e 305a 463e 4a38 f53d a103 2d3e
000000f0: b10f 833e 6e96 223e 6908 aa3e 9f4a 333e

bn1.running_var f4 [64]
0.024638997 0.042523626 0.02836584 0.051258385 0.15335941 0.04755995 0.078878045 0.09053025
0.107315384 0.048917554 0.046096753 0.07038159 0.043588728 0.17507645 0.1495552 0.066434644
0.11817696 0.042583887 0.031841744 0.079269476 0.05555842 0.17728549 0.09947247 0.15952735
0.03691264 0.07893384 0.062053308 0.02507172 0.059153475 0.131871 0.041070484 0.069230236
0.09923929 0.26747435 0.024916248 0.094502114 0.12347285 0.034431275 0.05954197 0.045135003
0.04624413 0.043978833 0.028875701 0.15354668 0.06105249 0.11216058 0.2136893 0.03780366
0.2299171 0.10881957 0.08409399 0.089739375 0.06594292 0.3716829 0.037553202 0.011101241
0.07374483 0.10286229 0.07367492 0.054022208 0.090512715 0.07955939 0.19492757 0.060319267
00000000: b9d7 c93c 412d 2e3d 7a5f e83c 50f4 513d
00000010: 400a 1d3e 39ce 423d d08a a13d ec67 b93d
00000020: 2bc8 db3d c65d 483d f3cf 3c3d 3924 903d
00000030: 188a 323d 3e47 333e 0025 193e e30e 883d
00000040: c306 f23d 716c 2e3d 7d6c 023d 0958 a23d
00000050: 3a91 633d 548a 353e 39b8 cb3d 235b 233e
00000060: b531 173d 11a8 a13d 9c2b 7e3d 3563 cd3c
00000070: ea4a 723d 3109 073e 8639 283d 95c8 8d3d
00000080: f83d cb3d 66f2 883e 291d cc3c 538a c13d
00000090: 55df fc3d cf07 0d3d 48e2 733d 7bdf 383d
000000a0: 7c6a 3d3d 2623 343d bc8c ec3c 573b 1d3e
000000b0: 2d12 7a3d 72b4 e53d 5ed1 5a3e 03d8 1a3d
000000c0: 636f 6b3e cbdc de3d 7839 ac3d 47c9 b73d
000000d0: 150d 873d 394d be3e 63d1 193d fbe1 353c
000000e0: 8807 973d 77a9 d23d e0e2 963d 6446 5d3d
000000f0: bb5e b93d 09f0 a23d 189b 473e 5611 773d

conv2.bias f4 [64]
0.050961185 0.02243093 0.017237697 0.04033009 -0.0031332544 0.0042184372 0.03187776 -0.012612202
0.0061255237 0.06506119 0.03441157 -0.01895166 -0.028124582 0.0438333 0.0063204505 -0.015136503
-0.03456142 0.0046710186 0.011602512 0.029246995 0.0035052123 -0.01625597 -0.0042975615 -0.034733847
-0.049557712 0.008722952 0.018292101 0.0017862929 -0.027273914 0.0122011565 0.015323787 -0.019003768
0.014620166 0.025739059 -0.0055797747 0.03839867 -0.039753713 0.01864598 0.033341963 0.03204622
-0.020877345 0.028579319 0.0008271751 -0.009510359 -0.00824156 -0.017024176 0.021675132 -0.01827334
0.06071438 0.027592277 -0.033231266 -0.014857395 0.008336656 0.038784333 0.015940376 0.027228497
0.055713773 -0.059519265 0.008046168 0.010052973 0.014910425 -0.032467064 0.01583429 0.011274404
00000000: adbc 503d 12c1 b73c 1236 8d3c 2a31 253d
00000010: 4957 4dbb d13a 8a3b 4192 023d 69a3 4ebc
00000020: 9eb8 c83b cd3e 853d 25f3 0c3d 8340 9bbc
00000030: 8665 e6bc 8c8a 333d c81b cf3b 18ff 77bc
00000040: 4790 0dbd 580f 993b 7618 3e3c 6597 ef3c
00000050: b4b7 653b 3d2b 85bc 8fd2 8cbb 1445 0ebd
00000060: 07fd 4abd b6ea 0e3c 51d9 953c 0b22 ea3a
00000070: 8b6d dfbc 5ce7 473c 9f10 7b3c caad 9bbc
00000080: 6c89 6f3c b8da d23c 8bd6 b6bb ec47 1d3d
00000090: cad4 22bd 74bf 983c 9591 083d e642 033d
000000a0: f706 abbc 2d1f ea3c c8d6 583a 56d1 1bbc
000000b0: 9c07 07bc 4976 8bbc 0c90 b13c f9b1 95bc
000000c0: a4af 783d 3309 e23c 821d 08bd 6e6c 73bc
000000d0: 7896 083c 52dc 1e3d 6495 823c 4c0e df3c
000000e0: 2034 643d 79ca 73bd 13d4 033c 3ab5 243c
000000f0: db4a 743c 2ffc 04bd eab6 813c 47b8 383c

conv2.lin.weight f4 [64, 64]
0.07186723 -0.14016932 0.17545235 -0.02425859 -0.09376366 -0.192607 -0.11515921 0.06084446
-0.202635 -0.02148855 0.17182067 -0.037144985 -0.11102833 -0.119570374 -0.15298685 0.15447491
-0.13589826 0.010470853 0.10804631 -0.009262452 -0.07450015 -0.1575414 -0.029053861 0.12228217
0.22768795 -0.065072425 0.146119 0.15963201 -0.08704413 0.20311087 0.19073783 -0.07444702
-0.038120583 -0.015019146 0.03288323 0.08601987 0.08630461 -0.13183318 0.028522545 -0.16230345
-0.08006163 0.18803577 0.041224625 0.17485513 -0.05234666 0.064799905 0.0469712 -0.029236963
0.021348806 -0.17518531 -0.17652205 0.022964688 -0.004042927 0.055168588 -0.102274925 0.1109985
0.08056196 0.18884416 -0.022851072 0.065087415 -0.22340415 -0.19326554 -0.071546756 -0.040366292
0.061160572 -0.06768805 -0.12595677 0.011128757 0.10458011 0.05349796 -0.046516724 0.05347928
0.07109317 -0.07801908 -0.115855776 -0.01097307 -0.08851735 0.13414145 0.1657441 0.20219903
0.076820605 -0.036851242 -0.16329381 -0.17562877 0.0602081 -0.05450438 0.14020485 -0.01654486
-0.052858524 0.16107419 -0.13759945 0.079938285 -0.13746132 0.057229828 -0.009319535 0.10963656
-0.21537393 -0.0961714 0.2441886 0.18878709 -0.039842684 -0.20707016 -0.15462956 0.034268744
0.1260262 -0.16143249 -0.09444072 0.07420985 0.21803886 0.22982217 -0.15411077 -0.008798647
0.032790534 0.12405189 0.060210098 0.21653192 -0.10022954 -0.18878493 -0.19943607 -0.22897431
0.048573196 -0.10844565 -0.18582512 0.09865933 -0.11494578 -0.1419479 -0.17124164 0.070220456
-0.20846009 -0.04815849 0.025422165 -0.2286206 0.060630787 -0.01395243 0.20324086 -0.14050438
0.12186272 0.1843388 -0.093398996 0.018265193 -0.0039363196 -0.0622455 0.0036062084 -0.06686103
0.17703402 -0.1758027 0.19050303 -0.07100919 -0.13768537 0.1707926 0.100552455 0.06767809
-0.0780003 0.044263653 -0.08529738 -0.13345517 0.03994481 -0.20912804 -0.19103372 -0.092374206
-0.077101536 0.043214925 0.004462129 0.092454866 0.04691582 -0.081463225 -0.09524441 -0.14057145
0.22842306 0.037512314 -0.1196674 -0.06259155 0.124041356 0.17014441 0.008645521 -0.05582295
0.079964325 -0.1443805 -0.17978941 0.13944656 0.062440656 -0.14079411 -0.16619366 -0.05817539
0.008216241 -0.16431902 0.17132579 -0.053115472 -0.05340008 -0.07676085 0.14860378 -0.24463277
0.0032515468 -0.1173645 -0.055686533 0.07654393 -0.060153205 0.08379823 0.13774301 0.019148873
0.06605813 -0.12125966 0.06573939 0.11607954 0.04175913 0.21468183 0.14476456 0.05779749
-0.061827112 -0.017683042 0.06924317 -0.19436912 -0.1549635 0.08225631 -0.082095206 0.14793675
0.2164084 0.1252443 0.18286633 -0.05977508 0.061185125 0.07229743 0.1428782 0.18784013
-0.12482455 -0.07895857 -0.072836645 0.21592152 0.04697964 -0.16185878 -0.20182654 -0.114018954
0.005600542 -0.21586761 -0.1852659 0.1745797 0.17235437 -0.090291865 0.017752483 -0.057469
-0.023103014 0.07501588 -0.041672844 -0.04360794 0.14284019 0.08370262 0.23335546 0.10536718
0.17510699 -0.025374835 0.19746652 0.18277124 -0.101023234 0.12266491 -0.09873597 -0.015209276
00000000: 202f 933d 8c88 0fbe c8a9 333e f3b9 c6bc
00000010: 2907 c0bd c53a 45be 98d8 ebbd 0a38 793d
00000020: 8d7f 4fbe c108 b0bc c2f1 2f3e 5725 18bd
00000030: d262 e3bd 50e1 f4bd 96a8 1cbe ac2e 1e3e
00000040: ea28 0bbe f18d 2b3c 6247 dd3d 8ac1 17bc
00000050: 8993 98bd 8852 21be 5d02 eebc 136f fa3d
00000060: 0827 693e b144 85bd 38a0 153e 9376 233e
00000070: 3144 b2bd 4cfc 4f3e c750 433e ae77 98bd
00000080: 5424 1cbd dd12 76bc 91b0 063d 302b b03d
00000090: 79c0 b03d 47ff 06be 1da8 e93c e032 26be
000000a0: 5af7 a3bd 738c 403e 27db 283d 390d 333e
000000b0: 7469 56bd d0b5 843d df64 403d 5b82 efbc
000000c0: b1e3 ae3c c763 33be 32c2 34be 7120 bc3c
000000d0: 887a 84bb 75f8 613d 8475 d1bd 2e53 e33d
000000e0: abfd a43d 5d60 413e 2c32 bbbc 8d4c 853d
000000f0: 0fc4 64be 67e7 45be 1b87 92bd 2057 25bd
00000100: 8283 7a3d 08a0 8abd d0fa 00be 6455 363c
00000110: 192e d63d ad20 5b3d 5288 3ebd 170d 5b3d
00000120: 4c99 913d 78c8 9fbd cb45 edbd 64c8 33bc
00000130: 9648 b5bd 605c 093e d2b8 293e 430d 4f3e
00000140: 1f54 9d3d 54f1 16bd 7e36 27be 07d8 33be
00000150: c59c 763d fc3f 5fbd dc91 0f3e 1689 87bc
00000160: 2e82 58bd a2f0 243e dfe6 0cbe afb6 a33d
00000170: a9c2 0cbe d369 6a3d f7b0 18bc 2289 e03d
00000180: fc8a 5cbe 83f5 c4bd 940c 7a3e 6751 413e
00000190: 1532 23bd 330a 54be 3657 1ebe 625d 0c3d
000001a0: 030d 013e 8f4e 25be 236a c1bd 55fb 973d
000001b0: 9445 5f3e 8156 6b3e 37cf 1dbe 3328 10bc
000001c0: 5e4f 063d eb0e fe3d dd9e 763d 8bba 5d3e
000001d0: 2545 cdbd d650 41be f838 4cbe 3e78 6abe
000001e0: b0f4 463d c118 debd f148 3ebe e70d ca3d
000001f0: b168 ebbd ca5a 11be f859 2fbe becf 8f3d
00000200: 9076 55be d641 45bd 2542 d03c 851b 6abe
00000210: fd57 783d bc98 64bc 5f1e 503e 61e0 0fbe
00000220: 2993 f93d 4fc3 3c3e f947 bfbd e3a0 953c
00000230: 3efc 80bb 23f5 7ebd 2356 6c3b 70ee 88bd
00000240: 6848 353e 9f05 34be 3a13 433e 446d 91bd
00000250: 65fd 0cbe 41e4 2e3e 72ee cd3d cf9a 8a3d
00000260: 9fbe 9fbd ce4d 353d 65b0 aebd 79a8 08be
00000270: 2b9d 233d a925 56be 589e 43be b02e bdbd
00000280: 69e7 9dbd 2202 313d 0d37 923b fa58 bd3d
00000290: ce2a 403d 31d6 a6bd 800f c3bd f6f1 0fbe
000002a0: bce7 693e 83a6 193d 2f14 f5bd 0030 80bd
000002b0: 6509 fe3d 563a 2e3e f1a5 0d3c 9ba6 64bd
000002c0: 56c4 a33d 7bd8 13be b71a 38be 14cb 0e3e
000002d0: c6c1 7f3d 552c 10be ac2e 2abe 5149 6ebd
000002e0: 6a9d 063c 3f43 28be 0770 2f3e 9c8f 59bd
000002f0: 0bba 5abd cb34 9dbd 972b 183e 0381 7abe
00000300: e717 553b cd5c f0bd 9017 64bd 10c3 9c3d
00000310: 3563 76bd 689e ab3d 810c 0d3e 19de 9c3c
00000320: 7c49 873d fc56 f8bd 60a2 863d 1cbb ed3d
00000330: 9f0b 2b3d 8ed5 5b3e 293d 143e 10bd 6c3d
00000340: 6d3e 7dbd 07dc 90bc 5dcf 8d3d b308 47be
00000350: c0ae 1ebe ff75 a83d 8821 a8bd bb7c 173e
00000360: 2a9a 5d3e 0b40 003e 5041 3b3e b7d6 74bd
00000370: 419d 7a3d ad10 943d aa4e 123e 2a59 403e
00000380: 03a4 ffbd 08b5 a1bd 612b 95bd 881a 5d3e
00000390: b96d 403d 4fbe 25be 9eab 4ebe c582 e9bd
000003a0: c084 b73b 660c 5dbe 58b6 3dbe 05c5 323e
000003b0: aa7d 303e f1ea b8bd a86d 913c 9d64 6bbd
000003c0: 8842 bdbc eda1 993d 25b1 2abd 3d9e 32bd
000003d0: b344 123e 476c ab3d bcf4 6e3e c0ca d73d
000003e0: 3f4f 333e e3de cfbc aa34 4a3e 6228 3b3e
000003f0: 45e5 cebd be37 fb3d 1636 cabd 5430 79bc

bn2.weight f4 [64]
1.0202556 1.0001786 0.9718692 0.99816895 0.9747654 0.9510996 1.0154246 1.0237497
0.9940439 0.97433096 1.0025475 1.0211403 0.972463 0.9961225 0.9556186 1.0429137
0.99007785 0.9516166 0.9878291 1.010031 1.0134078 1.0095655 1.0023192 0.9798055
1.0020059 1.0263348 1.0267715 0.99315965 1.0160785 0.99248564 0.99577945 0.9742256
0.993893 1.0188459 0.9861602 1.0036188 0.9929972 1.0180267 1.025552 0.9993047
0.9937952 0.96996087 0.98811316 0.958228 1.0400546 1.044992 1.0119628 1.0070846
0.9869699 1.0105283 1.0377847 0.9891473 0.9970528 1.0486718 0.9924558 0.995868
0.9296583 0.99912053 0.98343074 0.9923573 1.0011026 0.9625641 0.96969837 1.0070386
00000000: bc97 823f da05 803f 6bcc 783f 0088 7f3f
00000010: 3a8a 793f 437b 733f 6ff9 813f 3b0a 833f
00000020: a979 7e3f c16d 793f 7a53 803f bab4 823f
00000030: 56f3 783f e201 7f3f 6ca3 743f 327e 853f
00000040: be75 7d3f 259d 733f 5ee2 7c3f b248 813f
00000050: 59b7 813f 7139 813f ff4b 803f 89d4 7a3f
00000060: bb41 803f f05e 833f 406d 833f b63f 7e3f
00000070: dc0e 823f 8a13 7e3f 67eb 7e3f d966 793f
00000080: c66f 7e3f 8b69 823f ff74 7c3f 9576 803f
00000090: 1135 7e3f b34e 823f 4a45 833f 6fd2 7f3f
000000a0: 5d69 7e3f 5b4f 783f fcf4 7c3f 6e4e 753f
000000b0: 8220 853f 4cc2 853f ff87 813f 26e8 803f
000000c0: 0faa 7c3f fe58 813f 21d6 843f c238 7d3f
000000d0: da3e 7f3f e13a 863f 9511 7e3f 35f1 7e3f
000000e0: 16fe 6d3f 5dc6 7f3f 1ec2 7b3f 210b 7e3f
000000f0: 2124 803f 9a6a 763f 273e 783f a4e6 803f

bn2.bias f4 [64]
0.1080856 4.5913734e-05 -0.027160663 0.10437615 0.010323582 0.083628066 0.028542995 -0.0013129219
0.11806113 -0.030294318 0.13481605 0.07422659 -0.006384307 -0.08382801 0.02420231 0.020140141
0.08980131 -0.005894501 0.11322462 0.0882851 0.024504844 0.10303703 0.004989728 0.009887663
0.055197705 -0.003176448 0.01601379 0.015496657 0.04068674 0.008757394 -0.0865021 0.05593797
0.040920384 -0.018965842 0.14788745 -0.01865712 0.0442146 0.06553749 0.09374723 0.0025285229
-0.0053429697 0.06619317 0.06531555 0.008029683 0.0712021 0.047241442 0.083024696 -0.07188365
-0.032644127 0.00400102 0.029600514 0.0069973557 -0.010395437 0.053445347 0.08139254 -0.008997069
-0.029959148 0.0026294074 0.050251838 0.02507332 0.038535263 -0.093144625 -0.008800707 -0.0068459017
00000000: fc5b dd3d 7f93 4038 0a80 debc 2ac3 d53d
00000010: 3e24 293c 3145 ab3d 00d3 e93c 5916 acba
00000020: 09ca f13d ca2b f8bc 380d 0a3e 1c04 983d
00000030: 7333 d1bb 05ae abbd ec43 c63c f0fc a43c
00000040: c0e9 b73d a926 c1bb 4fe2 e73d d2ce b43d
00000050: 62be c83c 1405 d33d df80 a33b ddff 213c
00000060: fd16 623d f42b 50bb 5a2f 833c b1e5 7d3c
00000070: 24a7 263d 2c7b 0f3c 0328 b1bd 361f 653d
00000080: 229c 273d 415e 9bbc cf6f 173e d1d6 98bc
00000090: 5e1a 353d 8538 863d 8cfe bf3d 93b5 253b
000000a0: 1414 afbb 4990 873d 29c4 853d ee8e 033c
000000b0: 68d2 913d 3e80 413d da08 aa3d bc37 93bd
000000c0: d9b5 05bd fd1a 833b c77c f23c 134a e53b
000000d0: 9f51 2abc 82e9 5a3d 22b1 a63d 7168 13bc
000000e0: e36c f5bc 2352 2c3b dfd4 4d3d 9066 cd3c
000000f0: 27d7 1d3d 9cc2 bebd d730 10bc 9653 e0bb

bn2.running_mean f4 [64]
0.32219246 0.25929633 0.3824821 0.3604407 0.38238016 0.34818956 0.32315433 0.38758197
0.41496244 0.40645823 0.37066203 0.24056374 0.368988 0.33916256 0.46859166 0.60693437
0.35183445 0.33411244 0.31567588 0.42928874 0.29693633 0.23017281 0.29479787 0.38117656
0.28859884 0.39417827 0.41091102 0.3196262 0.34783658 0.46308196 0.4484808 0.41710573
0.45831785 0.3211183 0.33308563 0.4343273 0.3019666 0.28273308 0.32610455 0.32436663
0.2915783 0.3361193 0.31006092 0.2878437 0.3875903 0.30486983 0.31217775 0.35112596
0.517734 0.3580679 0.2573481 0.27334508 0.33615142 0.246668 0.30016968 0.2569293
0.6057491 0.31423903 0.4651663 0.3319285 0.443387 0.4880824 0.42034975 0.43116286
00000000: 69f6 a43e 7dc2 843e b2d4 c33e af8b b83e
00000010: 55c7 c33e e745 b23e 7c74 a53e 2571 c63e
00000020: f575 d43e 4b1b d03e 6ac7 bd3e 5756 763e
00000030: ffeb bc3e b7a6 ad3e 3feb ef3e 0d60 1b3f
00000040: a523 b43e c910 ab3e 45a0 a13e bccb db3e
00000050: 0a08 983e 6cb2 6b3e bfef 963e 9329 c33e
00000060: 3ac3 933e bcd1 c93e ee62 d23e 0ca6 a33e
00000070: a317 b23e 1419 ed3e 479f e53e e28e d53e
00000080: a3a8 ea3e 9e69 a43e 338a aa3e 2660 de3e
00000090: 5e9b 9a3e 64c2 903e 2df7 a63e 6213 a63e
000000a0: c049 953e d417 ac3e 4ec0 9e3e 4060 933e
000000b0: 3c72 c63e e617 9c3e c3d5 9f3e c8c6 b33e
000000c0: 378a 043f ad54 b73e 21c3 833e e3f3 8b3e
000000d0: 0a1c ac3e 8996 7c3e d7af 993e 3d8c 833e
000000e0: 5f12 1b3f f0e3 a03e 472a ee3e 88f2 a93e
000000f0: 9f03 e33e f0e5 f93e 1538 d73e 61c1 dc3e

bn2.running_var f4 [64]
0.21405919 0.15912479 0.5141922 0.49434668 0.5736928 0.2873362 0.334314 0.5871394
0.65969867 0.5692615 0.3009588 0.19864054 0.63916016 0.21028179 0.78305185 1.0732734
0.5896948 0.39434794 0.28196484 0.56384546 0.28439847 0.19518694 0.38356245 0.49295092
0.30320302 0.56916034 0.5743425 0.28042364 0.44400108 0.52580374 0.6194917 0.83115566
0.62120134 0.29806837 0.5070897 0.6939215 0.37893218 0.31726173 0.3281964 0.2918326
0.4481895 0.45638746 0.6888768 0.21647085 0.35854778 0.24210326 0.28572607 0.38877007
0.4818077 0.27250755 0.22894858 0.26168555 0.27894148 0.12716106 0.23028524 0.15739183
0.89778066 0.3403161 0.82515794 0.41227928 0.8246322 0.71542937 0.4230955 0.5024504
00000000: 5532 5b3e 9cf1 223e 1aa2 033f 021b fd3e
00000010: 88dd 123f bb1d 933e 342b ab3e c54e 163f
00000020: 03e2 283f 1fbb 113f 4617 9a3e 6d68 4b3e
00000030: 00a0 233f 1c54 573e 1676 483f 0661 893f
00000040: 3df6 163f f9e7 c93e b25d 903e 2d58 103f
00000050: ad9c 913e 16df 473e 4c62 c43e 1064 fc3e
00000060: 6d3d 9b3e 7eb4 113f 1c08 133f b093 8f3e
00000070: 1c54 e33e 139b 063f 0297 1e3f 9ec6 543f
00000080: 0d07 1f3f 6b9c 983e a1d0 013f d7a4 313f
00000090: 6603 c23e 2170 a23e 5c09 a83e 156b 953e
000000a0: 1879 e53e 9eab e93e 3b5a 303f 89aa 5d3e
000000b0: 9393 b73e ebe9 773e b04a 923e df0c c73e
000000c0: 80af f63e 1c86 8b3e 7f71 6a3e a6fb 853e
000000d0: 6bd1 8e3e 8236 023e e5cf 6b3e 532b 213e
000000e0: f4d4 653f e93d ae3e 8d3d 533f 4516 d33e
000000f0: 191b 533f 6126 373f f99f d83e 97a0 003f

fc1.weight f4 [64, 64]
0.06452733 0.023346294 -0.0264703 0.08105313 -0.16873142 -0.05327186 0.0881339 -0.03230315
-0.07514254 -0.081891164 -0.1271681 -0.04576891 0.09977257 -0.07043804 -0.06501453 -0.0010983988
-0.02501589 0.013658814 -0.014842686 -0.00094478455 -0.096593216 -0.052719515 0.068179294 -0.037932117
0.123037174 0.083527304 -0.11106936 0.079708405 0.045997247 -0.010230175 0.1005506 0.11772826
0.033438925 0.1329348 -0.10242962 -0.11770005 0.015157418 -0.07416111 -0.036720973 -0.039546646
0.031840403 0.1001598 -0.08523527 -0.102085285 -0.056445118 0.12671487 0.020105045 -0.014520009
0.04037414 0.09856378 0.081555046 0.06108262 -0.04067696 0.012156935 -0.0077995295 -0.008453555
-0.018463934 -0.067166716 -0.06672045 -0.04790988 -0.05259429 -0.009779294 -0.027217552 0.08107247
-0.020694502 -0.022328231 -0.023248514 -0.0037692878 -0.093139924 0.12929313 0.018117903 -0.056078188
0.02383419 -0.09300447 0.008621383 -0.12914418 0.076649345 -0.16986778 0.021374881 0.0788286
0.04250358 0.055518616 0.109339535 0.034995303 -0.077896155 0.016501805 0.045650404 -0.10749606
0.09678803 -0.067886904 0.020931505 -0.05502393 0.059881378 0.045805473 -0.03720912 0.06130843
0.010890107 -0.013582066 0.087175235 0.07801484 -0.037752993 0.0094621545 0.013842628 0.015011437
0.04551862 -0.06899532 0.08554598 -0.011633898 -0.1817065 -0.007143597 0.01692921 0.049367283
-0.10193124 0.040919 -0.10254498 0.048646685 0.08394084 -0.045521855 -0.010636364 -0.1038286
0.05188047 0.053929422 -0.062279858 0.08468839 0.081976295 -0.06731995 -0.022490073 -0.106655315
0.02634636 -0.10816396 -0.05810311 0.015633231 0.022024723 -0.034656487 0.07394306 0.15454812
0.054239873 -0.06579061 -0.005626464 0.0678799 0.088275455 -0.13631494 0.062114306 0.036532667
-0.057454996 0.014451434 -0.040467992 -0.016714057 -0.10017977 -0.012375385 0.093585126 0.13246724
0.12160089 -0.11111699 -0.08762176 -0.100825034 0.11019572 0.09375941 0.08050213 -0.057281043
-0.06688522 -0.10075163 -0.11456087 0.06465741 -0.017983902 -0.05430185 0.105260596 0.04307123
0.08293245 -0.07925006 -0.13819934 0.00040702542 -0.06858688 -0.022730239 0.0034266198 0.14246577
0.023405634 -0.09766993 0.08273695 -0.085085325 0.12426455 0.017142674 -0.07870072 -0.070765786
0.0054473295 0.01172313 -0.052176524 -0.06387933 0.06585389 -0.101537846 -0.08013142 -0.037808966
0.008905478 0.067156166 -0.007960915 0.08235543 0.0056146993 -0.017617887 -0.01654848 -0.036426567
-0.13078335 -0.08080556 0.014595903 0.12218636 0.10221256 0.014327888 0.002633713 -0.10461343
-0.0060363375 -0.019792901 -0.11729064 0.061222773 0.109339796 -0.023823982 -0.026766254 -0.072270565
0.048803728 -0.028372608 0.08484416 -0.08742749 0.11788557 -0.108761266 0.08840649 -0.068358004
0.048843276 -0.07743435 -0.042184297 -0.06265658 0.026226752 0.03778884 -0.011697265 -0.08046456
-0.124493435 0.05615758 -0.044445235 0.09107192 0.08201807 -0.05243812 -0.08239473 0.016878027
0.10842916 -0.050071534 -0.045019347 0.021478198 0.010275324 -0.12169333 0.05958566 0.04945501
0.11846528 -0.048217233 0.050103296 0.0266812 -0.11343738 -0.008895948 -0.005074965 -0.059707478
00000000: e826 843d ba40 bf3c 3ed8 d8bc 2fff a53d
00000010: eec7 2cbe 9833 5abd 8c7f b43d 4f50 04bd
00000020: 55e4 99bd 8eb6 a7bd 5b38 02be 2e78 3bbd
00000030: 9055 cc3d d241 90bd 5726 85bd 26f8 8fba
00000040: 20ee ccbc 38c9 5f3c bd2e 73bc 6bab 77ba
00000050: aad2 c5bd 6bf0 57bd 96a1 8b3d b55e 1bbd
00000060: eafa fb3d 5d10 ab3d 5578 e3bd 293e a33d
00000070: 9c67 3c3d 779c 27bc 79ed cd3d 841b f13d
00000080: 41f7 083d 0f20 083e 9fc6 d1bd b90c f1bd
00000090: d256 783c c8e1 97bd bb68 16bd aafb 21bd
000000a0: 156b 023d 9520 cd3d d48f aebd 1712 d1bd
000000b0: ff32 67bd 8bc1 013e 56b3 a43c 55e5 6dbc
000000c0: 5b5f 253d cfdb c93d 5506 a73d c531 7a3d
000000d0: e29c 26bd e22d 473c 3293 ffbb c880 0abc
000000e0: ad41 97bc b48e 89bd bba4 88bd 263d 44bd
000000f0: 1c6d 57bd 5539 20bc 58f7 debc 5309 a63d
00000100: 8487 a9bc b2e9 b6bc ab73 bebc 2806 77bb
00000110: 25c0 bebd 6b65 043e ff6b 943c 3eb2 65bd
00000120: eb3f c33c 2179 bebd b440 0d3c 5f3e 04be
00000130: 55fa 9c3d d2f1 2dbe 601a af3c e470 a13d
00000140: 3c18 2e3d 7d67 633d 68ed df3d 3c57 0f3d
00000150: 0588 9fbd cb2e 873c ebfb 3a3d e526 dcbd
00000160: cd38 c63d 4a08 8bbd 8c78 ab3c c660 61bd
00000170: 2d46 753d 859e 3b3d 9768 18bd 8c1e 7b3d
00000180: 6b6c 323c 5087 5ebc ee88 b23d 3fc6 9f3d
00000190: e2a2 1abd 2707 1b3c 31cc 623c 88f2 753c
000001a0: bc71 3a3d 6b4d 8dbd bb32 af3d 1b9c 3ebc
000001b0: 4511 3abe d614 eabb 20af 8a3c 5935 4a3d
000001c0: 53c1 d0bd ae9a 273d 1a03 d2bd bf41 473d
000001d0: 2de9 ab3d 2075 3abd 2544 2ebc 17a4 d4bd
000001e0: 9e80 543d 19e5 5c3d 2a19 7fbd 1b71 ad3d
000001f0: 30e3 a73d 0bdf 89bd 1a3d b8bc 1a6e dabd
00000200: 52d4 d73c 1185 ddbd 87fd 6dbd 4311 803c
00000210: 316d b43c f6f3 0dbd 766f 973d dd41 1e3e
00000220: a12a 5e3d 3abd 86bd 335e b8bb 9e04 8b3d
00000230: c3c9 b43d 2596 0bbe 926b 7e3d 47a3 153d
00000240: ee55 6bbd b5c5 6c3c c4c1 25bd ebeb 88bc
00000250: 0d2b cdbd 20c2 4abc 8fa9 bf3d 7ea5 073e
00000260: e309 f93d 4e91 e3bd 0a73 b3bd 5b7d cebd
00000270: 4bae e13d ef04 c03d 4dde a43d 879f 6abd
00000280: 1efb 88bd df56 cebd e49e eabd 1b6b 843d
00000290: fa52 93bc 9e6b 5ebd de92 d73d 756b 303d
000002a0: 7dd8 a93d db4d a2bd 2184 0dbe 0766 d539
000002b0: 4777 8cbd c434 babc 2491 603b 8ce2 113e
000002c0: 2cbd bf3c 2c07 c8bd fd71 a93d 3741 aebd
000002d0: 6a7e fe3d cb6e 8c3c d82d a1bd a7ed 90bd
000002e0: 837f b23b 5f12 403c 0db7 55bd 2bd3 82bd
000002f0: 67de 863d 13f3 cfbd f11b a4bd 93dd 1abd
00000300: 48e8 113c 2c89 893d 7f6e 02bc f7a9 a83d
00000310: 83fb b73b 6353 90bc ae90 87bc 0634 15bd
00000320: 12ec 05be 637d a5bd a823 6f3c d83c fa3d
00000330: d254 d13d 85bf 6a3c 5f9a 2c3b 913f d6bd
00000340: 78cc c5bb b924 a2bc 1336 f0bd bbc4 7a3d
00000350: 8bed df3d 832a c3bc e744 dbbc 9702 94bd
00000360: 6be6 473d ac6d e8bc c6c2 ad3d 2f0d b3bd
00000370: fd6d f13d 3abe debd 760e b53d 48ff 8bbd
00000380: e30f 483d e795 9ebd 71c9 2cbd 1852 80bd
00000390: 7cd9 d63c 78c8 1a3d e3a5 3fbc 9aca a4bd
000003a0: 6af6 febd 7e05 663d 350c 36bd ea83 ba3d
000003b0: 17f9 a73d 5bc9 56bd 91be a8bd ca43 8a3c
000003c0: 1c10 de3d cf17 4dbd 3566 38bd 0cf3 af3c
000003d0: d559 283c 5a3a f9bd 1810 743d 5691 4a3d
000003e0: ed9d f23d 6f7f 45bd 1d39 4d3d 8892 da3c
000003f0: db51 e8bd 4fc0 11bc e44b a6bb d48f 74bd

fc1.bias f4 [64]
0.11438188 -0.0033062627 -0.12160689 -0.07505684 0.103909425 0.011675338 0.07757022 -0.06031501
-0.09245154 -0.11044659 -0.056575593 0.08701631 0.07482878 0.18331458 0.06594861 0.014458668
0.013062609 -0.13677934 0.07675001 0.02215848 0.10849745 -0.018178351 0.044880792 -0.019773513
0.111946166 0.0003729328 0.021684522 0.08832788 -0.00804746 -0.008130994 0.099115774 0.018191483
0.15733093 -0.056042127 0.10763813 -0.028371066 0.0342192 -0.062171523 -0.015295366 0.096659645
0.029554596 0.12767433 0.05310164 -0.034873422 -0.061817486 -0.007691442 -0.0693846 0.1324524
0.030240955 0.057591185 -0.091448255 0.09202541 0.09722194 0.059290107 0.0026783359 0.08561683
-0.063219585 -0.109145485 -0.07333404 0.11433036 -0.040709574 -0.10257623 -0.07161703 -0.113423966
00000000: 0c41 ea3d e2ad 58bb 080d f9bd 67b7 99bd
00000010: 77ce d43d eb49 3f3c 23dd 9e3d df0c 77bd
00000020: 3c57 bdbd d231 e2bd cfbb 67bd 9b35 b23d
00000030: d53f 993d d1b6 3b3e 1110 873d 0de4 6c3c
00000040: 8e04 563c e20f 0cbe 1c2f 9d3d b385 b53c
00000050: e933 de3d c4ea 94bc ecd4 373d 10fc a1bc
00000060: 0844 e53d 3186 c339 bda3 b13c 3fe5 b43d
00000070: 7ed9 03bc dc37 05bc 36fd ca3d 4e06 953c
00000080: 5c1b 213e 6e8c 65bd 6171 dc3d 706a e8bc
00000090: 6f29 0c3d 91a7 7ebd 6a99 7abc 7ef5 c53d
000000a0: 7b1c f23c 0fbd 023e 1b81 593d 6fd7 0ebd
000000b0: 5534 7dbd 7e08 fcbb 8319 8ebd 9aa1 073e
000000c0: e1bb f73c bce4 6b3d 3949 bbbd d177 bc3d
000000d0: 4c1c c73d 2fda 723d 0587 2f3b e057 af3d
000000e0: 4579 81bd ab87 dfbd 2830 96bd 0926 ea3d
000000f0: 15bf 26bd 7d13 d2bd f3ab 92bd d34a e8bd

bn3.weight f4 [64]
1.0752157 1.0868939 1.068899 1.0797367 1.1025997 1.0767407 1.0714298 1.0587156
1.0728378 1.0326135 1.0743351 1.0591084 1.116761 1.1417027 1.0771116 1.0272465
1.0334918 1.0150719 1.0603186 1.0776178 1.0916784 1.0545872 1.0727323 1.0722021
1.0764668 1.0937958 1.1269208 1.029179 1.0214893 1.0447459 1.1326748 1.0673586
1.0412607 1.0654541 1.0867945 1.0591127 1.0126373 1.0179914 1.0996166 1.0674168
1.0487972 1.0501224 1.0617744 1.016297 1.0878347 1.1195989 1.0330842 1.0759596
1.057805 1.1244315 1.1242948 1.0245068 1.0737603 1.0769967 1.1247 1.0668328
1.0734122 1.0424567 1.0335051 1.0389701 1.1019077 1.0964897 1.0409286 1.1123047
00000000: aba0 893f 571f 8b3f afd1 883f d034 8a3f
00000010: fd21 8d3f a4d2 893f 9d24 893f fe83 873f
00000020: c052 893f ae2c 843f d083 893f dd90 873f
00000030: 06f2 8e3f 5023 923f cbde 893f d07c 833f
00000040: 7649 843f e0ed 813f 85b8 873f 61ef 893f
00000050: 1ebc 8b3f b7fc 863f 4b4f 893f eb3d 893f
00000060: aac9 893f 8001 8c3f f13e 903f 23bc 833f
00000070: 29c0 823f 3cba 853f 7dfb 903f 359f 883f
00000080: 0848 853f cd60 883f 151c 8b3f 0191 873f
00000090: 199e 813f 8b4d 823f 3dc0 8c3f 1da1 883f
000000a0: fd3e 863f 696a 863f 39e8 873f 0516 823f
000000b0: 2b3e 8b3f 044f 8f3f 1a3c 843f 0bb9 893f
000000c0: 2766 873f 5fed 8f3f e4e8 8f3f 0a23 833f
000000d0: fa70 893f 07db 893f 2bf6 8f3f fa8d 883f
000000e0: 9265 893f 396f 853f e549 843f f9fc 843f
000000f0: 500b 8d3f c659 8c3f 263d 853f 0060 8e3f

bn3.bias f4 [64]
0.028746217 -0.010762045 0.00611424 -0.017728917 0.06878585 -0.010386188 -0.06761271 -0.030832326
-0.0683703 -0.008954098 0.0014738047 -0.012370285 -0.052839946 0.0009532404 -0.039337724 0.13200594
0.031332206 0.036858834 -0.011904234 0.03675916 -0.040810328 -0.12086997 0.04186897 -0.012177666
0.037894502 -0.004464123 -0.036042802 -0.1258594 0.13393313 0.012799132 0.03600819 0.031961545
-0.04310686 -0.0150447935 -0.034535117 0.102318145 0.009246405 -0.056509033 -0.013344173 -0.025817437
-0.03921756 -0.07514294 -0.05542899 -0.06924744 -0.09161213 -0.11616789 0.07647971 -0.018363317
-0.01646411 -0.04127403 -0.033672176 -0.022898428 -0.059156675 0.057608366 0.13085246 0.03310121
-0.038689718 -0.07269696 -0.07162131 -0.03967303 0.1421012 -0.011678272 0.009864318 -0.039704237
00000000: 307d eb3c 4a53 30bc f659 c83b 3c3c 91bc
00000010: 99df 8c3d d42a 2abc 8878 8abd 1394 fcbc
00000020: ba05 8cbd 36b4 12bc ae2c c13a bcac 4abc
00000030: b36e 58bd e1e2 793a 9820 21bd 912c 073e
00000040: 3356 003d 4af9 163d fa09 43bc c690 163d
00000050: bb28 27bd ad8a f7bd cc7e 2b3d d584 47bc
00000060: 4437 1b3d c747 92bb 9ea1 13bd 49e1 00be
00000070: c425 093e 73b3 513c 537d 133d 1cea 023d
00000080: d290 30bd 707e 76bc b274 0dbd 2d8c d13d
00000090: 3c7e 173c 0476 67bd 85a1 5abc 177f d3bc
000000a0: 98a2 20bd 8be4 99bd 8209 63bd 9ad1 8dbd
000000b0: 249f bbbd 6ee9 edbd 65a1 9c3d ab6e 96bc
000000c0: bedf 86bc f50e 29bd d6eb 09bd 7c95 bbbc
000000d0: 454e 72bd c0f6 6b3d 30fe 053e 2295 073d
000000e0: 1c79 1ebd 25e2 94bd 32ae 92bd 3080 22bd
000000f0: fa82 113e 3956 3fbc f39d 213c e9a0 22bd

bn3.running_mean f4 [64]
1.4504217 1.9140618 1.6800371 1.1986244 0.7890154 1.30609 2.1393707 1.2128832
1.1667254 2.0061653 1.5587887 1.44298 1.3335336 0.55721235 1.2806114 1.7079563
2.4225073 1.901141 1.742929 1.7962753 1.1968776 1.7126491 1.2206799 1.7317213
1.6691755 1.2695693 1.526304 2.791314 1.2186567 1.6181593 0.65710026 1.473341
1.56924 0.87066126 1.1077706 1.6249218 1.9967945 1.9753577 1.5842432 1.6545812
1.561034 1.3663553 1.4878378 2.1280608 1.4864858 1.3261572 1.2222483 1.501228
1.6786208 1.0996871 1.2451404 2.0332038 1.4558334 1.4830619 1.8173838 1.7110369
1.5191559 1.6548667 1.5645787 1.3219434 1.1405231 1.0797123 0.9550278 0.6975976
00000000: 6ba7 b93f faff f43f 750b d73f 866c 993f
00000010: eafc 493f f52d a73f 73eb 0840 c23f 9b3f
00000020: 4257 953f 0365 0040 6386 c73f 92b3 b83f
00000030: 3bb1 aa3f 78a5 0e3f 13eb a33f 509e da3f
00000040: 5c0a 1b40 9758 f33f 4c18 df3f 59ec e53f
00000050: 4933 993f 1638 db3f 3d3f 9c3f 0ba9 dd3f
00000060: 8ba7 d53f 3f81 a23f ee5d c33f e3a4 3240
00000070: f1fc 9b3f d81f cf3f b937 283f 7096 bc3f
00000080: dbdc c83f a8e3 5e3f 6dcb 8d3f 70fd cf3f
00000090: f696 ff3f 85d8 fc3f 7bc8 ca3f 51c9 d33f
000000a0: f6cf c73f bbe4 ae3f 7871 be3f 2632 0840
000000b0: 2b45 be3f 85bf a93f a272 9c3f 3d28 c03f
000000c0: 0cdd d63f 8cc2 8c3f c360 9f3f 0320 0240
000000d0: c058 ba3f f9d4 bd3f 08a0 e83f 4203 db3f
000000e0: b373 c23f acd2 d33f 1d44 c83f 7135 a93f
000000f0: a9fc 913f 0334 8a3f b47c 743f c295 323f

bn3.running_var f4 [64]
5.4212813 12.421494 11.324915 4.1048193 2.1871345 6.675872 10.031109 4.5501285
3.7033012 15.542597 5.354985 6.692979 4.1736164 1.2692044 6.115573 15.413744
16.56593 12.022296 7.8103266 8.292033 4.671568 8.242131 4.973999 7.9539523
10.2549095 5.9985976 6.642642 13.62905 5.7251644 8.767882 1.9855038 4.9746733
8.986677 2.8021529 4.390997 7.7480607 11.473632 9.656093 7.976608 6.4969115
7.2327194 5.5134416 6.7846937 19.870327 5.6364365 5.206329 4.058223 7.3125696
7.966065 2.8843873 4.258538 6.85145 7.473836 6.618119 8.791097 7.8542905
7.3617015 6.4026213 7.1914334 5.8733892 4.104237 4.0882483 3.2955878 2.207274
00000000: 237b ad40 70be 4641 da32 3541 ae5a 8340
00000010: 03fa 0b40 bea0 d540 6c7f 2041 a79a 9140
00000020: e302 6d40 7aae 7841 0a5c ab40 e22c d640
00000030: 448e 8540 4a75 a23f c6b2 c340 b29e 7641
00000040: 0687 8441 535b 4041 32ee f940 2bac 0441
00000050: 7c7d 9540 c5df 0341 002b 9f40 c786 fe40
00000060: 1c14 2441 83f4 bf40 8690 d440 9710 5a41
00000070: 8c34 b740 3f49 0c41 fd24 fe3f 8630 9f40
00000080: 6ec9 0f41 7956 3340 0c83 8c40 1df0 f740
00000090: ff93 3741 5b7f 1a41 5f40 ff40 b3e6 cf40
000000a0: 7072 e740 1d6e b040 361c d940 6ef6 9e41
000000b0: b05d b440 3f9a a640 f6dc 8140 9200 ea40
000000c0: 01ea fe40 cd99 3840 f145 8840 143f db40
000000d0: aa29 ef40 a1c7 d340 55a8 0c41 5956 fb40
000000e0: 0f93 eb40 46e2 cc40 3920 e640 cef2 bb40
000000f0: e955 8340 eed2 8240 e9ea 5240 fa43 0d40

fc2.weight f4 [8, 64]
-0.019762998 -0.19029145 0.009832409 0.03094816 0.053706452 0.031877052 -0.1098733 -0.07272334
-0.0075679133 -0.0403911 -0.121237606 0.04324466 0.15409069 0.19822544 0.0577152 0.016633889
-0.13629377 -0.063166656 -0.11822564 -0.18610248 -0.102861784 -0.0810646 0.0106897205 -0.12778336
-0.04885062 0.06938896 -0.0051924093 0.049386926 0.024089348 0.020229476 0.20125863 -0.082354024
0.012340627 -0.12488765 0.0770446 -0.07417951 -0.09785523 0.091703616 -0.1710654 0.08951404
0.085990906 -0.121635884 0.06969144 0.050979473 -0.19927742 0.1175938 -0.06630883 0.16757597
-0.020577714 0.15792866 0.025241438 -0.1410528 0.10848737 -0.017347574 -0.12876019 -0.11335282
0.07594735 0.08118006 0.052282512 -0.06446787 0.037478965 -0.12068801 0.08342249 -0.09605372
-0.06721582 -0.10705896 -0.14285374 0.027253982 -0.03263343 -0.06664386 0.031736724 0.08672819
-0.16542754 -0.18883608 -0.046335377 0.06236344 -0.089549184 -0.11517284 -0.16191216 0.11719686
0.14901152 -0.10506339 -0.10116729 0.017788079 0.120223776 -0.1491334 0.06759963 0.094308056
-0.15289024 -0.17441721 0.021896765 -0.057210535 0.08662374 0.11737401 0.004407229 0.098556496
0.013629666 0.11657346 -0.071900174 0.038376793 0.10169695 0.0946296 -0.07666959 0.06338937
0.123997815 0.117435016 -0.13666211 0.077939406 0.003577506 0.10938376 -0.17000061 -0.124088116
0.023190027 0.11574375 0.008225653 0.047973927 0.0052952147 0.056979243 -0.012486635 0.18914695
-0.028578622 -0.010172258 -0.027921759 -0.16015191 0.011146043 -0.066922374 0.11148672 -0.0854605
-0.1035955 0.15227179 -0.054260302 -0.06903827 -0.061017152 0.04215245 -0.043310273 0.15423898
0.17157106 -0.08929685 -0.08291456 -0.09007411 -0.10370578 -0.1813195 0.07578999 0.08616464
0.15219115 -0.016613115 0.101107046 0.10898254 -0.0949688 0.014303337 -0.09650111 0.07309442
-0.036296852 -0.11573152 0.09431151 -0.024838328 0.06859155 0.18205258 0.073480114 -0.017896937
-0.1340667 0.020197988 -0.09320159 0.13646466 -0.110244766 -0.029093198 0.0846205 0.059576865
0.071689285 -0.07417944 0.024836518 -0.10534574 0.015731279 0.17045827 -0.037825942 -0.10481128
-0.08991196 -0.05590207 -0.07401629 -0.043844365 0.08209847 -0.03650364 -0.06169166 -0.06717483
-0.15847279 0.1315483 0.055031076 -0.12087658 -0.15583088 -0.12697497 -0.10115484 0.13756026
0.09564821 -0.12284286 -0.007880369 0.14954951 -0.056518186 -0.082009375 -0.15723787 -0.03736091
0.076908074 -0.1030936 -0.032715037 -0.17278512 0.140038 -0.030500587 -0.07319609 -0.09822311
0.08949545 -0.002831256 -0.06710425 0.07965945 -0.11157353 -0.01059297 0.14058852 0.110309064
-0.14161864 -0.16486052 0.15519162 0.07540552 -0.024849184 -0.013480449 0.008679536 0.16984089
-0.069576174 0.021732356 -0.08147445 -0.05931447 -0.02169904 -0.1037832 0.058688294 0.16924857
-0.014832199 -0.07304828 -0.022768028 0.0652904 0.047551785 -0.0028196012 -0.05698422 -0.035085894
0.08830993 0.17938918 -0.037908036 -0.08281692 -0.12533705 0.1650394 0.0014544765 0.06137412
-0.09934938 -0.12083679 -0.1196164 -0.026506754 -0.12377046 -0.067183144 -0.04733948 -0.06685474
00000000: 03e6 a1bc c3db 42be 1d18 213c ff86 fd3c
00000010: 4cfb 5b3d 8391 023d 4105 e1bd f9ef 94bd
00000020: 42fc f7bb 2371 25bd 6c4b f8bd 5021 313d
00000030: f3c9 1d3e 9cfb 4a3e c666 6c3d cb43 883c
00000040: 9890 0bbe 855d 81bd 4920 f2bd a691 3ebe
00000050: 33a9 d2bd 3205 a6bd f023 2f3c a4d9 02be
00000060: 9617 48bd cd1b 8e3d 1625 aabb f249 4a3d
00000070: 0657 c53c 49b8 a53c be16 4e3e 3aa9 a8bd
00000080: 5730 4a3c 19c5 ffbd 8fc9 9d3d 6deb 97bd
00000090: 5368 c8bd 1bcf bb3d c52b 2fbe 2353 b73d
000000a0: 001c b03d 3c1c f9bd 63ba 8e3d dacf 503d
000000b0: 610f 4cbe 05d5 f03d edcc 87bd 0999 2b3e
000000c0: 9892 a8bc 0db8 213e 22c7 ce3c 2570 10be
000000d0: a02e de3d 801c 8ebc b6d9 03be 8625 e8bd
000000e0: 498a 9b3d bb41 a63d 3026 563d bb07 84bd
000000f0: 8b83 193d 462b f7bd 69d9 aa3d d0b7 c4bd
00000100: 73a8 89bd ba41 dbbd 4048 12be be43 df3c
00000110: a2aa 05bd 937c 88bd 5efe 013d 8d9e b13d
00000120: d665 29be 3f5e 41be 2aca 3dbd ce70 7f3d
00000130: 9065 b7bd bddf ebbd 4dcc 25be e804 f03d
00000140: 7a96 183e 7a2b d7bd cc30 cfbd 4eb8 913c
00000150: e237 f63d 6db6 18be ad71 8a3d 9524 c13d
00000160: 428f 1cbe 6d9a 32be d860 b33c 9855 6abd
00000170: ca67 b13d c961 f03d 846a 903b fdd7 c93d
00000180: f64e 5f3c 11be ee3d 6640 93bd fc30 1d3d
00000190: 7e46 d03d 2acd c13d f204 9dbd 49d2 813d
000001a0: 91f2 fd3d c581 f03d 27f1 0bbe b29e 9f3d
000001b0: 9774 6a3b 9804 e03d a414 2ebe e921 febd
000001c0: 03f9 bd3c 0f0b ed3d e4c4 063c 4f80 443d
000001d0: 7b83 ad3b 1163 693d be94 4cbc bdaf 413e
000001e0: b71d eabc 8ba9 26bc 2cbc e4bc ddfe 23be
000001f0: e59d 363c 990e 89bd 2653 e43d ea05 afbd
00000200: e129 d4bd 23ed 1b3e 0d40 5ebd f063 8dbd
00000210: 1fed 79bd 0ca8 2c3d 1d66 31bd d3f0 1d3e
00000220: 53b0 2f3e 44e1 b6bd 1ccf a9bd c678 b8bd
00000230: b263 d4bd d2ab 39be c837 9b3d 1677 b03d
00000240: ffd7 1b3e 3a18 88bc 3611 cf3d 3d32 df3d
00000250: 017f c2bd 8b58 6a3c 60a2 c5bd 87b2 953d
00000260: 02ac 14bd a604 edbd 6526 c13d c079 cbbc
00000270: ba79 8c3d fe6b 3a3e be7c 963d 999c 92bc
00000280: c848 09be 4076 a53c 7ae0 bebd 64bd 0b3e
00000290: 02c8 e1bd dc54 eebc 834d ad3d df06 743d
000002a0: d5d1 923d 64eb 97bd f475 cb3c 82bf d7bd
000002b0: e2de 803c 9d8c 2e3e 60ef 1abd 4ca7 d6bd
000002c0: c323 b8bd 92f9 64bd da95 97bd 2696 33bd
000002d0: 3e23 a83d d784 15bd 65b0 7cbd f592 89bd
000002e0: b146 22be 99b4 063e 4468 613d 248e f7bd
000002f0: 2192 1fbe ba05 02be 452a cfbd 99dc 0c3e
00000300: 35e3 c33d 0a95 fbbd aa1c 01bc 8223 193e
00000310: 9d7f 67bd 88f4 a7bd f702 21be c107 19bd
00000320: fb81 9d3d bd22 d3bd 3400 06bd 95ee 30be
00000330: 1f66 0f3e 5edc f9bc d5e7 95bd 3329 c9bd
00000340: 6449 b73d 988c 39bb f46d 89bd 7e24 a33d
00000350: aa80 e4bd 238e 2dbc 70f6 0f3e b8e9 e13d
00000360: 7a04 11be 32d1 28be 8dea 1e3e 366e 9a3d
00000370: 8490 cbbc 1add 5cbc 9d34 0e3c c5ea 2d3e
00000380: f47d 8ebd 0e08 b23c 14dc a6bd bbf3 72bd
00000390: 2fc2 b1bc 498c d4bd 2363 703d 7f4f 2d3e
000003a0: c002 73bc 569a 95bd 0484 babc f9b6 853d
000003b0: a9c5 423d 0fc9 38bb 4968 69bd 3ab6 0fbd
000003c0: d6db b43d ccb1 373e 7545 1bbd eb9b a9bd
000003d0: 5b58 00be 1700 293e 22a4 be3a 6e63 7b3d
000003e0: b077 cbbd 4779 f7bd 71f9 f4bd b124 d9bc
000003f0: 5e7b fdbd 5197 89bd 0be7 41bd 23eb 88bd

fc2.bias f4 [8]
-0.104695395 0.040805943 0.15635255 -0.11689905 0.19018795 0.062016085 0.032711305 -0.093256965
00000000: 8a6a d6bd 2224 273d e21a 203e c568 efbd
00000010: a1c0 423e 9404 7e3d 4afc 053d 82fd bebd

fc3.weight f4 [5, 8]
0.4230988 -0.42751968 -0.3429215 0.095862694 -0.50380313 0.13293254 -0.029088775 0.056574635
-0.21296468 0.27734306 -0.0059858696 -0.11298121 0.17568615 -0.44075626 -0.31964913 0.27726063
-0.16526884 0.39431128 0.14156911 -0.2002859 -0.011364645 -0.49888968 0.38884008 -0.4140548
-0.45597696 0.29317302 0.1411996 0.4528625 -0.029775472 -0.1061303 -0.24463452 0.249942
-0.11899643 -0.3142021 -0.29375207 -0.4538221 -0.06936512 0.3001888 0.2414467 -0.20609201
00000000: 68a0 d83e dce3 dabe 6893 afbe a953 c43d
00000010: 3ef9 00bf 781f 083e 954b eebc ceba 673d
00000020: 6a13 5abe e9ff 8d3e 1d25 c4bb b162 e7bd
00000030: 12e7 333e ceaa e1be 0da9 a3be 1bf5 8d3e
00000040: 3c3c 29be 2be3 c93e 7ef7 103e bf17 4dbe
00000050: c732 3abc 786e ffbe 0c16 c73e fefe d3be
00000060: d075 e9be c61a 963e a196 103e 98dd e73e
00000070: b1eb f3bc d85a d9bd 7981 7abe ccf0 7f3e
00000080: 66b4 f3bd 19df a0be ac66 96be 5f5b e8be
00000090: 4d0f 8ebd 59b2 993e ce3d 773e c909 53be

fc3.bias f4 [5]
-0.0042475075 -0.030714158 -0.11532517 -0.17553793 0.016773758
00000000: ad2e 8bbb 429c fbbc 9a2f ecbd 37c0 33be
00000010: 1f69 893c
