tuning_results/internship_best_models_during_tuning_lightning_logs/ec_stand_GCN_best_model_logs/checkpoints/epoch=141-train_loss=1.51-train_f1=0.22-val_loss=1.54-val_f1=0.35.ckpt (torch, 157362 bytes, 54 tensors)

conv1.bias f4 [64]
00000000: 1f80 373d 39cb 8c3b d7b2 99bc 5a22 8d3d
00000010: ae9f 3b3b 3343 eb39 9c74 813c 7412 80bc
00000020: f5ef 2bbc f20c 703c cd51 b33b 04ab 4a3c
00000030: e7b6 a23c c6b4 5a3d a098 20bd 1dc0 b43c
00000040: 4579 78bc 375f bd3c e292 c3bb a9c1 bf3c
00000050: b7c5 61bc 6c6e 26bc 98f9 41bb 7fa7 cabc
00000060: d12e e23c bc7a a83c 0d40 cf3c b16d 663c
00000070: 1b36 b43b 201b 83bd 3def 343d 8072 b23c
00000080: 6b16 26bd 336c 5fbc 2754 883b ce73 653c
00000090: 705b 2dbd 8129 843c 916f 62bb 2ad6 8cbc
000000a0: 389d 393d b5c6 ca3c d64f 12bc f10e 4fbd
000000b0: dce8 39bc d1d1 8a3c ee51 c3ba a48e 513c
000000c0: b9ca b8bc 38fa 233c 7522 bd3c 9c96 f6bc
000000d0: aca6 00bd 8f80 f6bc 6e21 133d 04d4 b53b
000000e0: 2d79 8bbc 6e3a 0d3d e2d9 8c3b f3f0 31bb
000000f0: 978a 773d cd7f 52bc de50 213c 82f2 873c
0.04479992 0.004296687 -0.018762035 0.06891318 0.0028629112 0.0004487276 0.015802674 -0.0156338
-0.010494222 0.014651524 0.005472398 0.012369875 0.019862605 0.053395055 -0.039208055 0.022064263
-0.015165632 0.023116691 -0.0059684375 0.023407774 -0.013780049 -0.010158163 -0.0029598232 -0.024738071
0.027610214 0.020566337 0.025299096 0.014064238 0.005499614 -0.06401658 0.044173468 0.021783113
-0.040548723 -0.013636637 0.0041604224 0.014004661 -0.04232353 0.016133072 -0.0034551362 -0.017191965
0.04531595 0.024752954 -0.008930167 -0.05055136 -0.011347022 0.016945751 -0.0014901736 0.012790356
-0.022557603 0.010008387 0.02308772 -0.030101113 -0.03140895 -0.030090598 0.035920553 0.005548956
-0.017025555 0.03447955 0.0042984346 -0.0027151674 0.060434904 -0.012847853 0.00984594 0.016595129

conv1.lin.weight f4 [64, 25]
00000000: 45b7 04be 6f02 5f3e c645 06be d4cc c53d
00000010: 140c 3fbe d8c4 b1bd 237e edbc 2d7d 053e
00000020: b43e 5a3e 65c6 7bbd 1abf 14be 0c6d 0fbe
00000030: 3d75 863e 2b31 de3d 8c1f 30be ac6c 203e
00000040: 52dd f0bd 794a 343d 2b1e 443d f9fe 66be
00000050: f199 40be 5d4c 04bd 61f3 6f3e d48f 47be
00000060: 4c81 0abe cbdf 4a3e 26f0 cb3d bbf4 943b
00000070: f0bf 183e 5cbf 57be 6661 383e 758a 0cbe
00000080: f186 dbbd ff23 6ebe 7d2d 343e dccc 8d3c
00000090: 4485 433d 9f84 623e 872f f53c d2ed 3dbe
000000a0: a167 2abe 3e57 13be d69b 29be b52f 7ebe
000000b0: 830d 34be 3ecb 84be 8135 23be 51fc 99be
000000c0: 2ce2 dc3d 5c53 1abe b805 81be 1fbf 243e
000000d0: 773f d33d ac52 66be 3eb1 5e3d 6f99 6ebd
000000e0: e1e3 17be c9cc 023d c229 73be 0c7c 67be
000000f0: 94ea 3e3d 92c3 7e3d 1ce1 e83d d408 0abe
00000100: 4609 0abe 87ed 533e 8962 47be ec09 a63d
00000110: 45bd 2cbe bf8e 803d d74b 63be d92b 24be
00000120: 862a a93d 4299 b03d 6878 b0bd 8882 ad3d
00000130: adf7 5fbe 0374 dabd 6a0b 1e3c d42a 173d
00000140: ae49 21bd 078a 6c3e 7b46 12bd bf03 833d
00000150: e1c0 88be cdc6 cf3d 0eae bb3d 46c6 4bbe
00000160: 9bf5 82bd 7371 043e b10f 883d 0835 f6bc
00000170: b7c1 843e ab71 11be a4fa a0bd 44fd 6a3d
00000180: e586 e9bc b0e8 303e 9bae 71be dccd f53d
00000190: cfba 543e 5913 ba3d 9d17 02be 837a 023e
000001a0: 8846 c83d f8d0 91bd 2b6b 3b3e da0c 8d3d
000001b0: 76f2 65be 8522 c13d a358 023e d799 6fbe
000001c0: 9518 c03c 6a70 2c3e c1f1 023e 2fb5 cd3d
000001d0: 1016 82be 318b 62be 6aef 8ebe f270 88be
000001e0: 1ecd dcbc 427b 383e ee3e 633d 8206 553e
000001f0: 72fc 163d 2673 6f3e 161e 1f3d 5609 a83d
00000200: d963 1d3e 3f49 e6bc d2d5 6fbe 9b60 023e
00000210: 7440 5c3e f4e2 e73b 57d1 81be 3637 5abe
00000220: c41d c4bd 7007 82be a6b5 c7bd 2949 f3bd
00000230: 44e2 1bbe 65d5 98bd 23b0 81be d8d8 493e
00000240: a1c6 27be 84af 9c3d 994c 4f3e 9a7d 12bc
00000250: 0267 673e 50ab efbc ff86 03bd fc95 a83d
00000260: d871 60be a785 efbd 0a7f 793e feac 48be
00000270: f752 3c3e 6933 5e3d c799 833e a17d 2ebe
00000280: 118d 123e 6cc6 613d 8c54 70be 80d5 253e
00000290: da27 00bd ac89 4bbe e46e 773d e946 d9bb
000002a0: dbb5 3fbd 2e41 b0ba c6a8 e4bd c32d f1bd
000002b0: 3608 643e a889 6cbe d000 83be 0870 78be
000002c0: 21f7 dc3d a781 b8bd 2e12 5cbe cb11 163e
000002d0: 3239 e23d e05a 623d 988b 653e ff96 02bd
000002e0: 9218 ee3d 9b3a 2abe b90b 4c3d c7b5 aabd
000002f0: 8355 5dbd 50cb 70bd a427 c3bd 06ff 583d
00000300: 0b62 e7b9 da12 ebbd 263e 513e 1d02 b8bd
00000310: 9835 f73d c73d 203e bb91 813e 3d8f 193d
00000320: 9721 423e a58d 13bb ddaf 19be 84dc a23c
00000330: 0b08 08be 287c 85be b902 05be a401 313e
00000340: 0ee0 f23c f1f7 813d ba65 023d 50c8 4a3e
00000350: 6c1c 8f3d 22c7 4fbd fe0a 39be d0b1 613e
00000360: 10d4 cb3d 2800 663e 6246 01be 766a 973d
00000370: 595c 19be 21f7 163e e7ad 783e 7f56 45be
00000380: ecd3 38be f67a 9dbd b48a 6a3e ed5f 30be
00000390: 8660 803e 22a6 853e 3b49 763e 28d6 513e
000003a0: 2b30 213e 4313 033e 72b3 8dbb 38dd 5ebe
000003b0: c5f7 60bc ed7f b2bd 4971 7ebe b394 543e
000003c0: 4424 283e f42b 1cbe cbd0 3ebe 7277 bdbd
000003d0: bf73 4ebc f1a9 273e 7f9a 813e 263a 003e
000003e0: 4c52 733e 121b 9ebd fe9b b7bd d7ad 2d3e
000003f0: c04a 32be 5f3c fcbb 704b 24be f0cb fd3c
-0.12960537 0.21778272 -0.13112554 0.096582085 -0.18656951 -0.08680123 -0.02899081 0.13036032
0.21312982 -0.0614685 -0.14526024 -0.14006442 0.2626132 0.10849222 -0.17199534 0.15666455
-0.117609635 0.044016335 0.047880333 -0.22558202 -0.18808724 -0.03229939 0.23432685 -0.1948846
-0.13525885 0.19811933 0.09957914 0.0045457757 0.14916968 -0.21069092 0.18005905 -0.13724692
-0.107190974 -0.23255919 0.17595477 0.017309599 0.047734514 0.22120903 0.02992989 -0.18547752
-0.16641094 -0.14388749 -0.16563353 -0.24822886 -0.1758328 -0.2593631 -0.15938379 -0.30075315
0.10785326 -0.15070862 -0.25199676 0.16088532 0.10314839 -0.22492474 0.05436825 -0.058251794
-0.14833023 0.03193358 -0.23746398 -0.22605914 0.04661043 0.06219823 0.11371061 -0.1347993
-0.134801 0.20696078 -0.19471182 0.08107361 -0.16869076 0.06277227 -0.221969 -0.16032352
0.08260064 0.086229816 -0.08616716 0.084721625 -0.21871825 -0.10666659 0.009646276 0.03690608
-0.039376907 0.23099528 -0.035711747 0.06397199 -0.26709655 0.1014534 0.09164058 -0.19899854
-0.06394502 0.12933902 0.06643618 -0.030054584 0.25929043 -0.14203517 -0.07860306 0.05737044
-0.028506706 0.17276263 -0.23601763 0.12002155 0.20774387 0.090857215 -0.1270432 0.12742047
0.09779078 -0.07119936 0.183026 0.06887217 -0.22455773 0.09430412 0.12729125 -0.23398529
0.023449222 0.16839758 0.12787534 0.10044324 -0.25407457 -0.2212341 -0.27917033 -0.2664867
-0.026953276 0.18015769 0.055479936 0.20803264 0.036861844 0.2338377 0.03884705 0.08204906
0.1537012 -0.028111098 -0.2342141 0.12732165 0.21508962 0.0070766155 -0.25355026 -0.21310124
-0.0957599 -0.253963 -0.097514436 -0.118791886 -0.15223032 -0.07462577 -0.25329694 0.19711626
-0.16384365 0.076506644 0.20244063 -0.008941079 0.22597888 -0.029256493 -0.032111164 0.08231732
-0.21918428 -0.11695414 0.24364868 -0.19597241 0.18391024 0.054248247 0.2570326 -0.17040111
0.14311625 0.05512087 -0.23469752 0.16194725 -0.031288005 -0.19876736 0.060408488 -0.0066307676
-0.04680429 -0.001344716 -0.111650035 -0.117763065 0.22268757 -0.23099387 -0.25586557 -0.24261487
0.107893236 -0.09009104 -0.2149131 0.14655225 0.110460654 0.055262446 0.22416532 -0.031882282
0.1162578 -0.16623919 0.049815867 -0.083354525 -0.05403663 -0.058787644 -0.09529045 0.052977584
-0.000441328 -0.11478205 0.20433864 -0.08984778 0.12070769 0.15648566 0.25306496 0.03749012
0.18958126 -0.0022514847 -0.15008493 0.01988054 -0.13284318 -0.26071286 -0.1298932 0.17285782
0.029647853 0.06346119 0.031835295 0.19802976 0.06987843 -0.050727017 -0.180706 0.22040486
0.09952557 0.22460997 -0.12624505 0.07393353 -0.14976634 0.1474271 0.24285088 -0.19271277
-0.18049592 -0.076894686 0.22904474 -0.17224093 0.25073642 0.26103312 0.24051373 0.2049185
0.15741031 0.12800317 -0.00432437 -0.21764076 -0.013730948 -0.08715806 -0.24847902 0.20759849
0.16420084 -0.15251142 -0.18634336 -0.09251298 -0.012600838 0.16373421 0.25313184 0.12522182
0.23761863 -0.07720007 -0.089653 0.16960846 -0.17411327 -0.0076976265 -0.16044402 0.030981034

bn1.weight f4 [64]
00000000: cdc0 833f d10d 833f 0e6a 7e3f a436 803f
00000010: 9446 7b3f 9519 813f 3186 7a3f 7a20 813f
00000020: ff44 7e3f e0d7 7a3f bcb6 803f 6420 813f
00000030: f299 7b3f 35b3 7f3f c49c 803f 9f7c 803f
00000040: 4169 7b3f 36fc 783f 08c5 833f 995a 7a3f
00000050: 1106 803f 5580 7b3f 3c7d 803f 44e8 813f
00000060: 45d0 7b3f 09a5 7c3f dbd8 7c3f 0f2b 813f
00000070: d409 843f 99f0 7b3f 535f 803f 0e64 803f
00000080: 8550 833f c76a 7a3f be8a 803f 6d16 813f
00000090: 2005 833f 4824 813f bfc0 7e3f db8f 7e3f
000000a0: b2f5 7f3f a247 803f 4092 7e3f 4903 823f
000000b0: db65 803f 9293 7a3f 2995 7f3f 470f 813f
000000c0: 085d 7c3f fcf7 7f3f c169 793f a9e2 813f
000000d0: ace1 813f 6c07 813f c5c3 813f fcfd 7b3f
000000e0: 6bac 813f 00a4 7e3f f77a 7f3f da37 813f
000000f0: 9ff3 803f acc6 7e3f 71aa 7e3f 031c 7c3f
1.0293213 1.0238591 0.99380577 1.0016675 0.9815457 1.0085932 0.9786101 1.0088036
0.9932403 0.9798565 1.0055766 1.008801 0.98281777 0.99882823 1.0047841 1.0038031
0.9820748 0.97259843 1.0294504 0.9779449 1.0001851 0.98242694 1.0038218 1.0149007
0.9836467 0.98689324 0.98768395 1.0091265 1.0315499 0.98414 1.0029091 1.0030534
1.0258948 0.9781918 1.0042341 1.0084969 1.0235939 1.0089197 0.9951286 0.99438256
0.99984276 1.0021861 0.9944191 1.0157253 1.0031084 0.97881424 0.99836975 1.0082787
0.98579454 0.9998777 0.9742699 1.0147296 1.0146995 1.008039 1.0137869 0.98434424
1.0130743 0.99468994 0.99797004 1.009517 1.0074347 0.995219 0.9947882 0.9848024

bn1.bias f4 [64]
00000000: f3ec 1b3d a88c c6bb ac43 dabb 6421 08ba
00000010: 509f 1f3c cf2c da3b 849e b7bb b1c4 aaba
00000020: 5827 803c be75 473d 6731 0ebd 5cd2 2cbb
00000030: 12ea bcbc d74c 8d3b 05ec 00bd 044c 1e3c
00000040: 0ee1 8c3b b3fa f63a 42f9 013d d2dd c8bb
00000050: 8b61 4ebd b949 59bc d274 9a3c 352f 8abc
00000060: 37a0 8bbc dba4 a83c c1f7 633c 1bd5 fbbc
00000070: 1b64 f9bc 815d 6ebc 2cec c93b ea7a 823c
00000080: ae7f 0dbc 6050 3fbc aef2 893b 44ad 6c3a
00000090: 37be 7c3c 28dc 82bc 21a1 81bc d1dc 923c
000000a0: 0f8b 75bc 16f6 e93b be7d 8abc 7c3e a5ba
000000b0: 9bd7 4abc b572 273c 1d32 d2bc 0263 a9bb
000000c0: 6496 78bc dc2f 7ebc ba84 b43b 8575 cebc
000000d0: fb5d 3abc 15c7 a33b 342f a43c 96a0 da3c
000000e0: c4d5 f43c 18e7 3cbc 3202 153c d902 38bd
000000f0: 2a53 2838 0581 f2bc e901 27bd 9bb8 963c
0.03806777 -0.006059248 -0.006660899 -0.0005192964 0.009742573 0.0066581736 -0.0056036133 -0.0013028589
0.01564376 0.048696272 -0.034715082 -0.00263705 -0.023060832 0.0043121385 -0.031475086 0.009661678
0.0042992895 0.0018843025 0.03173185 -0.0061299587 -0.050385993 -0.013262206 0.018854532 -0.016868213
-0.01704417 0.020586422 0.01391405 -0.030741265 -0.030443242 -0.01454866 0.006162187 0.01592775
-0.008636398 -0.011676878 0.004209838 0.0009028504 0.01542621 -0.01597412 -0.015823903 0.01792756
-0.014986767 0.0071399314 -0.016905662 -0.0012607123 -0.012380506 0.010220219 -0.025658661 -0.0051692734
-0.015172575 -0.01551434 0.0055089863 -0.025202522 -0.011374946 0.0049980977 0.02004204 0.026687901
0.029887088 -0.011529706 0.009094762 -0.04492459 4.0131774e-05 -0.029602537 -0.040773306 0.018398574

bn1.running_mean f4 [64]
00000000: d506 313e 66d7 b43e cb3e 803e 35c0 613e
00000010: 3320 8d3e ae38 dc3e 6911 423e 1c86 393e
00000020: a15c b73e 48aa bd3e eb29 953e c49f 6d3e
00000030: 05d9 9d3e c883 8b3e 6bb2 4a3e bb94 993e
00000040: 59ae 893e 20e1 db3e e96f 9d3e 0b85 9d3e
00000050: e56f 4f3e 501c 013e e953 a03e 762d 5b3e
00000060: e044 963e d003 5b3e 9e4b 6b3e 6abd 1e3e
00000070: 2224 723e e947 6f3e 712a 9a3e 7f53 ab3e
00000080: 98f6 5e3e 85ae 823e d348 093e 2f56 6a3e
00000090: 2503 343e 658c 8b3e 2206 563e ef0d 6e3e
000000a0: 1151 4f3e 75b3 c93e bc90 453e 3232 853e
000000b0: 77a8 d53e 417e 6f3e eab8 873e 4436 f53d
000000c0: ccc0 253e d960 1e3e 3456 7b3e 0e92 9e3e
000000d0: 7d65 f23d 9f5d 143e 00db 883e 4d8c 813e
000000e0: edcf 813e d192 913e 0742 8c3e 76db 403e
000000f0: ca6f 8f3e 0074 253e 1b5a 6d3e fb19 7f3e
0.17287762 0.35320586 0.25047907 0.22045977 0.2756363 0.43011993 0.18951954 0.18117565
0.35812858 0.37043977 0.29133543 0.23205477 0.30829635 0.2724898 0.19794624 0.29996285
0.2689083 0.42945194 0.30749443 0.30765566 0.20257528 0.12608457 0.31314018 0.2140406
0.29349422 0.21388173 0.22978064 0.15501943 0.23646596 0.23367275 0.30110505 0.3346214
0.21773756 0.25523773 0.13406686 0.22884439 0.17579325 0.2725555 0.20900777 0.23247503
0.20245768 0.39394727 0.19293493 0.26014858 0.4173009 0.23388006 0.26508266 0.11973241
0.16186827 0.15466632 0.24544603 0.30970806 0.118357636 0.14488839 0.26729584 0.25302354
0.25353947 0.28432325 0.27394125 0.18833718 0.28014976 0.16157532 0.23178904 0.24912255

bn1.running_var f4 [64]
00000000: 4906 f13c 3b69 093e a702 c33d 7dad b23d
00000010: b50e 3e3e cb71 f23e 556c 383d ef44 ac3d
00000020: d030 9a3e 8e5e c73e 5c44 823e 22e2 f13d
00000030: f3de f53d 9dfd c13d 7349 563e d4a2 2b3e
00000040: aab9 2c3e 1291 c63e 80fa 6e3e 40a3 3e3e
00000050: 1f7c da3d a474 493d 4025 5f3e e5d0 fa3d
00000060: 3690 433e 99b0 1b3e 4b70 ce3d 816f 6b3d
00000070: b5c4 013e f668 303e 224e 543e 8141 543e
00000080: 1abf 003e 9f24 d73d 5f87 983d d198 cb3d
00000090: 54db 943d 6880 453e 8bc5 c63d 58b2 0e3e
000000a0: b509 8c3d ac14 c53e b964 943d c02b 213e
000000b0: c02a a03e 0e9f 043e f68b 6d3e f9f2 373d
000000c0: 2557 7e3d 7765 ae3d 555c 063e 819c 6a3e
000000d0: 9298 d83c d0cf 5b3d 3667 e83d 28cf 123e
000000e0: c841 263e 0668 273e dc46 073e 9a00 c93d
000000f0: 055b 5f3e da70 693d 64a2 ab3d f6b9 573e
0.029421942 0.13419048 0.0952199 0.087244965 0.18560298 0.47352442 0.04502519 0.084115855
0.30115366 0.38939327 0.2544278 0.118107095 0.12005415 0.09472201 0.20926456 0.16761333
0.168677 0.38782555 0.23337746 0.18616962 0.106682055 0.049183503 0.21791553 0.12246875
0.19097981 0.15204085 0.10080012 0.057479385 0.12672694 0.1722754 0.2073293 0.20728113
0.125729 0.10505032 0.07447695 0.09941257 0.07268396 0.19287264 0.09705647 0.1393522
0.06837789 0.38492334 0.07245774 0.15739346 0.31282616 0.129513 0.23197922 0.04490945
0.062094826 0.08515447 0.1312116 0.22911264 0.026439939 0.053664982 0.11347811 0.14336836
0.16236031 0.16348276 0.13210624 0.09814568 0.21812065 0.05699239 0.08380583 0.21067032

conv2.bias f4 [64]
00000000: 488b 093d bb9c 4eba 6727 4a3c 8e13 18bc
00000010: 6a22 593d 1971 9fba 1b91 ce3c f984 dc3c
00000020: d850 983c 0b56 133c bf3d 9abb 04cc 5c3c
00000030: e3e4 a53c 6ca8 793d 0d55 9db8 3f21 213c
00000040: b856 e2bc 8027 1e3d f385 3a3d 4390 b33b
00000050: 3bf7 2dbc 360e 2bbd 5adf cab9 9783 e63c
00000060: c6b6 38bc 7538 7abc 9e5e 31b9 6c67 fbb9
00000070: 9622 823c a525 683d 5d23 683c 9e4c ef3b
00000080: 56cd 43bd 3d28 4b3b b007 ec3c 6101 1c3d
00000090: 1524 3d3c f0eb 1f3c d8f3 0d3d 2a48 76ba
000000a0: e96d a4bc 66ad 243d 56cf 99bc fefc 0f3d
000000b0: 1f45 813b 2b5d f43b 9a6e 2f3b 7cbc 5e3b
000000c0: 78a9 813b 4d0c 54bb 169d 02bd 35ac 8fba
000000d0: cc9b a6bc a672 1e3c 89b8 12bb 7c3b 463c
000000e0: b326 693d c955 deba 3161 a4bc 2db1 b8bd
000000f0: 573b 61bb d086 1a3c 15dd a039 df6f 81bb
0.033580095 -0.0007881631 0.012338496 -0.009282006 0.053011335 -0.0012164443 0.025215676 0.026918875
0.018593237 0.008992682 -0.0047070677 0.0134763755 0.020250743 0.060951635 -7.502185e-05 0.009834587
-0.027629241 0.03861189 0.0455379 0.005479844 -0.010618026 -0.0417616 -0.00038694852 0.028138919
-0.011274045 -0.0152722495 -0.00016915283 -0.00047951506 0.015885632 0.056676526 0.0141685875 0.0073028347
-0.047803245 0.0030999326 0.02881226 0.038087253 0.011544247 0.009760842 0.034656376 -0.00093949086
-0.02007194 0.040204428 -0.018775623 0.03515338 0.0039450075 0.0074573955 0.0026768805 0.0033986857
0.00395697 -0.0032355965 -0.03188809 -0.0010961356 -0.020337962 0.009670889 -0.0022387824 0.012099143
0.056921672 -0.0016962822 -0.020065876 -0.090181686 -0.0034367645 0.009431556 0.00030682297 -0.0039501037

conv2.lin.weight f4 [64, 64]
00000000: fb64 cf3d f300 fc3d 208f 363e c78e 12be
00000010: a09d fa3d ab7a 41be 171f 073c 18fb 04be
00000020: bebc 51bd 39ad c4bd e747 49bd a899 4c3d
00000030: 6014 3cbe 2e5a 153e 9779 2fbd 45a4 403e
00000040: 3fce 37be a62a 8f3d 5a74 493e d059 31be
00000050: 8ee2 a6bd 0a37 9f3d eb41 743d c811 2e3e
00000060: 8d1d afbd 2cf2 01be 50e9 b83d 3dc4 23be
00000070: 4541 53bd 1c1f 3cbd b648 c13d 1794 12be
00000080: cb9d 36be 7da4 1bbe 10cd 93bd 5aea 02be
00000090: 7b8e 9dbd 35a5 41bd 3b6e 603e 4a68 d1bc
000000a0: fc26 a23d 44d4 bf3d 0a13 59be 6b84 f73d
000000b0: 0c23 f83d d765 e73d 9e96 0abe e945 dbbd
000000c0: c6ea dabd 9e46 af3d 91a3 a0bd f88d e9bd
000000d0: 9a22 f3bd 34e2 a23d 3b3a 37be 1ed3 d33c
000000e0: bc73 10be ebf6 0bbe 4855 1e3e 1945 3d3e
000000f0: 7f2e eb3d 931c 0c3e 2117 723c c247 953b
00000100: 4ca3 2b3e 6342 ae3c ac95 07bb c592 4c3e
00000110: 87f6 8ebb 378d 45be dd12 4a3e 4819 83bc
00000120: d90e d9bd ae49 423e 1ff5 243e 9905 883d
00000130: 8325 3a3e c315 b93d 07ca 2dbe f839 3ebd
00000140: a130 013e 3af5 3dbe 7254 7f3e 05a0 6a3d
00000150: 2a00 233e 6373 8d3d 37fe 773e 1057 cd3d
00000160: 1226 3d3d cb39 01bd 6fcc f9bd 1c89 c9bd
00000170: 675a 8bbc d944 3a3d b235 20be ddff 143e
00000180: 5d11 a73d 66cb 293d 34d9 a33d ff56 113e
00000190: 36c2 e0bd 6a38 cc3d 7fe5 083e 22d4 09bc
000001a0: 43ab 483e ef22 023d cb03 683d c0b7 7bbb
000001b0: 7d0a f43b 8a23 05be f785 a3bd e8c7 d9bd
000001c0: 0253 493d c1b0 c2bd 336a 4d3d ea51 3d3e
000001d0: 2918 0e3e be34 133e a713 883d 922b ba3d
000001e0: 61e7 d83d b693 b93d 9998 a23d c596 e2bd
000001f0: ed94 163d 276b 273d bbc7 993d 946e 05be
00000200: 71e5 013e f6c7 1f3d 38b0 2a3d d55f 033e
00000210: d8b2 4dbb 72bb 063d 254a d7bd c8c6 3a3e
00000220: d391 343d e234 f03d 38d3 a83d 8540 333e
00000230: 9d5a a8bd ad5c 94bd acb3 b23c f10e 2abe
00000240: 6327 adbc cc50 313e 71d8 34be e36f 223e
00000250: 6019 33be 604d 8b3d c0e5 52bd 4a8e ce3c
00000260: d075 473e 537e 043c 3a42 fcbd ee99 9ebd
00000270: a8dd 54bc 2913 5a3e 9af7 4ebe 3ff0 233e
00000280: b38d 38be 883f a5bd 2fad 9e3d 21d6 ac3c
00000290: 1cb3 603d c919 e3bc d01d 363d 1484 0abd
000002a0: 4391 e8bd 5020 d2bd 812d 643e f5e2 c33c
000002b0: dff2 293e 0e0b 0c3d 8040 c13d b17f 09be
000002c0: d8b0 2abe d8db 923d 04bb 0d3e 93a0 093d
000002d0: 3107 8d3d 827f 083e 6b8e 413e 09e6 cabd
000002e0: c825 8b3d 3122 2abc d23a 523e fe6c 6dbd
000002f0: 757e a9bc c53e 2a3e e46d 1b3d 00ef 013e
00000300: d76e 163e 428f 453e 2205 0d3e ddcc 31be
00000310: 4817 223d f318 11be 0d7e 3b3e e5a1 3d3e
00000320: e389 5fbe 59b2 30be 8f91 e53d cffc 2abd
00000330: e613 b53d ebb9 83bc a028 083e 5277 d9bd
00000340: 569a f7bd cb69 793d 20fe 5cbe 40bf 09be
00000350: 79d4 883d 2033 4d3e 97fb 293e a6ae 4f3e
00000360: 8138 5cbe be5a cabc f347 1ebe b9e6 2b3d
00000370: 604d 453e 214a 46be 145b 8abd fdc3 b13d
00000380: da69 9a3d 69bd 20be 2346 e5bd 1cef 023d
00000390: 0444 cfbd 6017 ecbd e6d8 053e e227 fdbd
000003a0: 24c8 383e 64dd 673d 6fcf 2fbe 906b 1abe
000003b0: 8ab2 bc3d 4daf 913c 4c58 1a3e 4b50 153e
000003c0: 16be 103e f2d9 82bc f8ec e13c 1f0b 1abe
000003d0: 5001 f43d 60ad 26bc 0465 103e 8b6d c4bd
000003e0: 07e8 05be 092d 873d 0280 433e 8c98 df3d
000003f0: d728 1abe fe2f bb3d 2e22 7e3b bfc3 bdbd
0.10126682 0.123048685 0.17828035 -0.14312278 0.12237096 -0.1889445 0.0082471585 -0.1298641
-0.05120539 -0.09603352 -0.049140837 0.049951226 -0.18367147 0.14585182 -0.042840566 0.18812664
-0.1794977 0.069905564 0.19673291 -0.17319417 -0.081486806 0.0777417 0.059633177 0.1699897
-0.08550558 -0.12690037 0.09028876 -0.15992828 -0.051575918 -0.045928106 0.09437697 -0.14314304
-0.1783363 -0.15199466 -0.07216847 -0.1278471 -0.076931916 -0.047276694 0.2191705 -0.025562424
0.07917592 0.09366658 -0.21198669 0.120858036 0.1211606 0.11298721 -0.13534018 -0.10706694
-0.10689311 0.08558391 -0.07843698 -0.114040315 -0.11871834 0.07953301 -0.17893307 0.025857504
-0.14106649 -0.1366841 0.1546222 0.1848339 0.11483478 0.13682775 0.014776022 0.0045556733
0.16761512 0.02127189 -0.0020688577 0.19977863 -0.0043628844 -0.1929215 0.19733758 -0.016003266
-0.10598535 0.18973419 0.16109131 0.06641693 0.18178372 0.09037354 -0.16971599 -0.046442002
0.12616207 -0.18550578 0.24934557 0.057281513 0.15918031 0.06906774 0.24218069 0.100263715
0.046178885 -0.031549256 -0.12197196 -0.09840605 -0.01701088 0.045475814 -0.15645483 0.14550729
0.08157609 0.04145374 0.080004126 0.14193343 -0.10974543 0.09971698 0.13368796 -0.008412393
0.19596581 0.031771597 0.056644242 -0.0038409084 0.0074475394 -0.13001838 -0.07984536 -0.10633832
0.049151428 -0.095063694 0.050150108 0.18488279 0.13876404 0.14375588 0.066443734 0.09090342
0.10591007 0.09061377 0.07939262 -0.11063913 0.03676312 0.040873673 0.07508799 -0.13030463
0.12685181 0.039009057 0.04167196 0.12829526 -0.0031387117 0.032893606 -0.10512189 0.18239892
0.04408438 0.117288366 0.08243412 0.17505081 -0.08220408 -0.07244239 0.02181419 -0.16607262
-0.021136945 0.17315978 -0.17660691 0.15862994 -0.17490149 0.068018675 -0.051488638 0.025214333
0.19478536 0.008086759 -0.12317319 -0.077442035 -0.0129923 0.21296372 -0.2021164 0.16009615
-0.18022804 -0.08068758 0.07747876 0.021098198 0.054858312 -0.027722256 0.044462025 -0.033817366
-0.113558315 -0.10260069 0.22282983 0.023911932 0.16596554 0.03419023 0.094361305 -0.13427617
-0.16669023 0.07170838 0.13840872 0.0336004 0.06886137 0.1332989 0.18901984 -0.09907157
0.067943156 -0.010384128 0.2053025 -0.05796527 -0.020690182 0.16625507 0.037946597 0.12688828
0.1469072 0.1929293 0.1377149 -0.17363305 0.039572984 -0.14169674 0.18309803 0.18518789
-0.21829943 -0.17255534 0.11209404 -0.041745003 0.08841686 -0.016079864 0.13296747 -0.10618462
-0.12089984 0.060891908 -0.21581316 -0.13451862 0.06681151 0.20039034 0.1659988 0.20281467
-0.2150593 -0.024701472 -0.15457134 0.04196808 0.19267797 -0.19364215 -0.06755653 0.0867996
0.07539721 -0.15697254 -0.11195018 0.031966314 -0.10120395 -0.11527896 0.13071021 -0.12361123
0.18045098 0.05660762 -0.17168973 -0.15080094 0.09213741 0.017783785 0.15072745 0.1458141
0.14135012 -0.015973065 0.027578816 -0.15043305 0.11914313 -0.010173172 0.14101034 -0.09591206
-0.13076793 0.06600387 0.190918 0.10917768 -0.15054642 0.09140013 0.0038777697 -0.09265851

bn2.weight f4 [64]
00000000: c2e2 7d3f 53cf 813f 5a29 763f 0938 813f
00000010: 2694 7a3f 8b20 803f 20de 7e3f 11cf 7f3f
00000020: f5f3 803f 9f28 813f fa3c 833f 4edd 813f
00000030: 8a72 7c3f af22 823f 2fed 7d3f c35f 813f
00000040: bd4a 7c3f 0eb6 7f3f ce3c 7f3f 41bd 813f
00000050: 7134 793f 67bb 7d3f 1e5b 813f 4600 813f
00000060: 4222 763f ed77 803f 9c61 823f d78f 7c3f
00000070: 9ca9 803f d34f 803f 841b 823f 9b8d 7d3f
00000080: 8ab7 803f c510 853f 96d2 823f 358e 823f
00000090: 448e 7d3f 6fda 823f a72a 823f 8e87 7b3f
000000a0: 9cb7 803f 241e 7b3f 967c 803f 887a 803f
000000b0: 6dfc 763f 5140 7e3f 0958 7e3f c61a 7f3f
000000c0: a8e0 7f3f 2f36 813f 9065 7e3f 2f52 823f
000000d0: ba66 823f 53cd 7e3f a9ab 803f e0a0 7a3f
000000e0: 77d1 7f3f b023 803f 5779 833f cd11 813f
000000f0: 1c51 793f 01ff 7a3f 0f0f 7f3f 5b42 803f
0.9917413 1.0141395 0.9615685 1.0095226 0.97882307 1.0009931 0.99557686 0.99925333
1.007445 1.0090522 1.0252984 1.0145662 0.9861227 1.0166835 0.9919004 1.0107349
0.9855154 0.9988717 0.99702156 1.0135881 0.97345644 0.9911408 1.0105932 1.0078208
0.96146023 1.0036598 1.0186038 0.9865698 1.0051761 1.002436 1.0164647 0.990442
1.0056012 1.0395743 1.0220516 1.0199648 0.99045205 1.0222911 1.0169266 0.98253715
1.0056033 0.98092866 1.0038021 1.0037394 0.9647892 0.9931689 0.9935308 0.9965023
0.99952173 1.009466 0.9937372 1.018133 1.01876 0.9953205 1.0052387 0.97901726
0.99928993 1.0010891 1.0271405 1.0083557 0.9738939 0.98045355 0.9963235 1.002025

bn2.bias f4 [64]
00000000: 4c70 be3c 40cb a83c 1213 b03c eabf 253d
00000010: 272e b03c 88cb fb3c fe0b cb3c 0d7a c83c
00000020: 9077 c93b df99 663a f9f9 453d 64c7 3a3c
00000030: b31d 9abc b807 f33c f1d9 ca3c 4d40 4dbc
00000040: e8b0 85bc e57c 383d 4e9f 1c3d 068a afba
00000050: d9cb 1dbc 4632 2bbd 5ea3 0e3d 9c6c 2c3d
00000060: 956d 07ba 9d02 f43b 2738 8339 2105 283d
00000070: b321 0c3d 0208 94bc 4187 513d 2598 ef3c
00000080: c106 cf3b b671 453c 6a6b a4bc 9328 ed3c
00000090: b16c 63bc 81fa 1b3d 1297 7c3c bc07 253d
000000a0: 9322 543c ca50 a33c aaa3 91bc b2e9 0cbc
000000b0: a9f0 1fbc bba5 9a3c c6e1 933c 3944 ff3c
000000c0: c96f 15bc 317a f4bc 1ca6 203c 7b90 15bb
000000d0: 10f3 e9bb 7107 073c a0f2 313b 15ab 103d
000000e0: 523d 0bbc afe0 c4bb 2cdc bd3c 1ed7 113c
000000f0: bd53 473b 5b38 db3c f2d8 e43c cdf9 dc3c
0.023246907 0.02060473 0.021493468 0.040466227 0.021506382 0.0307367 0.024785992 0.02447226
0.006148286 0.0008796732 0.048334096 0.0114000775 -0.01881299 0.029666767 0.024762126 -0.0125275375
-0.016319707 0.045040984 0.038237862 -0.0013392575 -0.009631121 -0.04179599 0.034823768 0.042095765
-0.00051661703 0.0074466006 0.00025028104 0.041020516 0.034211826 -0.018070225 0.05115438 0.029247353
0.006317944 0.012051037 -0.02007075 0.028950011 -0.0138808945 0.038080696 0.015416877 0.04029058
0.012947696 0.019935984 -0.017778236 -0.008600639 -0.009761968 0.018877855 0.018051993 0.03116046
-0.00912089 -0.029843422 0.009805229 -0.0022821713 -0.007139571 0.00824152 0.0027152672 0.035319407
-0.008498507 -0.0060082297 0.023176275 0.008901386 0.0030414902 0.02676027 0.027935479 0.026974583

bn2.running_mean f4 [64]
00000000: d1cd b73e 4d02 c73e 6ae0 fb3e bdef 9f3e
00000010: 0a27 d73e 3610 ae3e 7bf5 0d3f e890 083f
00000020: 17cc ae3e fe5c 903e 50b8 ae3e e065 a13e
00000030: 6ae8 c83e b87e 293f ab75 aa3e de24 b83e
00000040: de5c e43e 4f63 933e 944f 883e 28e6 a33e
00000050: c9b5 d23e dcc9 933e 2c34 e23e ad01 0d3f
00000060: 1445 e53e c574 aa3e 2cfe aa3e 4139 b63e
00000070: 039f d03e 851c cb3e d8ff aa3e dc48 893e
00000080: d61e 813e f19d c33e 7ace b23e fa17 d13e
00000090: f2b5 b53e 8187 c33e cca5 b63e 35c8 c53e
000000a0: 7ab2 673e 488f a33e 825e ab3e 7655 db3e
000000b0: 87b2 f93e fba9 e63e aa32 0c3f 526b cc3e
000000c0: f0a4 a93e 36f7 ae3e 57ce d13e 681d 973e
000000d0: 4577 013f 52db 933e 3237 e13e dcf9 d33e
000000e0: 00bb bc3e 4492 cd3e 3291 7e3e d6cb da3e
000000f0: 5c13 9d3e 2109 a63e 1365 1e3f 3eb2 8f3e
0.35899213 0.38868943 0.49194652 0.31237593 0.42021972 0.33996743 0.554527 0.5334611
0.34140083 0.28195947 0.34124994 0.31523037 0.39239818 0.6620898 0.332929 0.35965627
0.44602102 0.28786704 0.26623213 0.32011533 0.41154316 0.28864944 0.4418043 0.5508068
0.44779265 0.33292213 0.33397043 0.35590556 0.40746316 0.39670196 0.33398318 0.268134
0.25218838 0.38206437 0.34923154 0.40838605 0.35490376 0.3818932 0.35673368 0.38629308
0.22626677 0.31945252 0.3347054 0.4283864 0.48769018 0.4505156 0.5476481 0.3992563
0.3313365 0.34172982 0.40977737 0.29514623 0.50572616 0.28878266 0.43987423 0.41401565
0.3686142 0.40150654 0.24860075 0.4273364 0.30678833 0.3242884 0.61872977 0.28065675

bn2.running_var f4 [64]
00000000: 704f 9a3e 474d 333f 6f8c 903f bf36 c33e
00000010: 44be 3d3f 7f51 103f aa06 7b3f 2dcb a33f
00000020: b4d7 b83e 2ea4 7b3e 1f1b eb3e 5658 9e3e
00000030: 3542 4b3f 4832 793f 1f45 3b3f ebe6 1a3f
00000040: 693b 163f a7d3 823e f077 543e 94b7 e13e
00000050: 27ff 233f 400d 103f 5b76 243f a9dc 773f
00000060: 8cae 983f 9a66 053f 1a50 113f b253 473f
00000070: 4f31 c13e 14b5 d93e 446e 003f 8107 8b3e
00000080: c086 763e 5697 6c3f 6cfc ca3e a1cb 3a3f
00000090: 1523 0b3f f5c5 5a3f 0e8c b13e dd43 4e3f
000000a0: baac 613e bec7 c83e 3a45 c43e c4f6 183f
000000b0: e424 2c3f d080 533f c4bd 833f b677 053f
000000c0: f6a2 fa3e 6064 ed3e 766c 373f 8810 933e
000000d0: 3a21 963f e173 d63e db2f 3c3f 4201 073f
000000e0: 148e e63e ca96 243f 0707 563e 7b66 6e3f
000000f0: 537b a23e 3f04 843e 34db c03f b4eb 513e
0.3013873 0.7003979 1.1292857 0.38127705 0.7411845 0.56374353 0.98057044 1.2796379
0.36102068 0.24574348 0.4591913 0.3092677 0.793979 0.9734235 0.73152345 0.605086
0.586844 0.25552103 0.20748878 0.44085371 0.64061207 0.5627022 0.64243096 0.96821076
1.1928267 0.5210968 0.5676285 0.77862084 0.37732932 0.42520964 0.5016825 0.27154163
0.2407484 0.9241842 0.39645708 0.72966963 0.54350406 0.8545831 0.34677166 0.805723
0.22038546 0.3921489 0.38334066 0.59751534 0.6724379 0.8261843 1.0292287 0.5213579
0.48952454 0.46365643 0.71649873 0.2872355 1.172889 0.41885284 0.7351052 0.52736294
0.45030272 0.64292586 0.20901118 0.9312512 0.31734714 0.2578449 1.5066895 0.2050007

fc1.weight f4 [64, 64]
00000000: b00c b93c 988a 14bd 4eb7 053e 20bc c1bd
00000010: 59fe 6cbd 8494 f8bd fa3f ee3c 5253 adbc
00000020: c60b a73d afbb a6bd 3d84 d4bd 64cd 0bbe
00000030: 137f d13d bc2f 30bd 872a b5bd 5b6b f53d
00000040: ec27 9dbd 9cab c3bd 260f e43c 26ec 733d
00000050: 2f66 983d 3257 aa3d f6c8 00be f453 08be
00000060: e3b8 3abd 419e 82bd 1c52 3a3d 6002 85bd
00000070: 3bd1 813d b72d 98bb c0cf 8abd 81c0 b6bc
00000080: 710f 423c 9214 f63c 588d 283d 7601 49bd
00000090: 9ad3 8a3d b186 673d 0d10 b43a e60c 893d
000000a0: de55 c23d 9e75 3cbc babe f3bd b669 2fbc
000000b0: 4a88 1ebd 95a9 9e3d 6f5f 9fbb a262 863d
000000c0: 8ab3 07bd bfd5 6bbc ece6 0cbd 20db 3f3d
000000d0: 6e94 a43d d1f0 15bc fb52 6cbd 3d9e 4abc
000000e0: 0db8 1dbd 43e4 443d d4fa ef3c d491 073e
000000f0: 2606 2ebd b53e f83d df18 f9bd 86ef c23c
00000100: cf1e 6d3d 9231 edbc 1d47 aa3a 632f 48bc
00000110: 6474 c83b 6a41 8cbc ae5e fb3c 7fe0 073d
00000120: 95b4 983d 639b c2bd e5f7 c43d 15c2 843d
00000130: 9b20 9d3d edc5 8d3b 52cb b9bd 0990 16bd
00000140: 98e1 12be 3ae1 48bd cf65 35bd 44d7 2c3d
00000150: f1dd 0abd 336f 77bd 90ec 1e3e db59 cb3d
00000160: ad3a 9e3d d0ac babd cbfd f43c 1184 953d
00000170: c790 7fbd c897 8ebd 3abb 913d d40b c93d
00000180: fd6e d93c 1fda 8dbd a99c 49bd ba61 14bd
00000190: 0d89 b43d 59f2 ec3d 1d40 53bb 5c46 ca3d
000001a0: f0a5 173c b685 a13d b134 d1bc e577 463d
000001b0: 3277 c3bd 35f6 50bc 3c93 7c3d 47eb b63d
000001c0: eb6a 34bd 051a d9bd 8d9d 763d c45d 8dbd
000001d0: db98 57bc add7 8a3d 545e 22bd fe55 933d
000001e0: db09 b73d 1e7b d23d 802f 0dbc 2c58 61bd
000001f0: 6ef6 853d 3454 ae3c 4bb6 803c 63b3 b63c
00000200: 2a38 8fbc 2651 1e3d a128 f9bd d852 913d
00000210: 0c4c fe3d 3e4c a53d 4fd9 b53c 13e0 a93c
00000220: 7aa0 d9bd 393d 2ebc 2896 30bd 7894 57bd
00000230: 9734 cc3d ade8 703b 8c89 16bc 0851 313b
00000240: 372f 733d 71c2 99bc 4a94 dc3b af0f 033e
00000250: b8cd 2c3d 85d4 dabd cb2d babc 9c4c d2bd
00000260: 0e31 dabd d5b9 87bd 8ffd e0bd e5cc b53c
00000270: c852 a93d 4b47 67bd b9c0 883c f2e2 d33d
00000280: 8f0c 223d 7f1f e23d 90e7 583d ebe0 bd3d
00000290: 40cb 173d 1e4e 4c3d 4437 35bd c264 e4ba
000002a0: bc5d f53c 5beb 9a3d faae c53d c8c6 233c
000002b0: e618 5cbd 705b 01be af85 cabd bc8c 6fbd
000002c0: 6d09 783d 230e 193d d664 d73d 8c03 82bd
000002d0: ecb9 43bd e2dd c839 34e0 d43d 39e4 fcbd
000002e0: 2c40 e9bd 82d0 523d 8c64 e93d 2108 6e3d
000002f0: 6c51 e2bd 592a 26bd f02a ffbc 0e53 8fbd
00000300: 4425 493d 292e 8e3c 695a 993d 2d83 8e3c
00000310: 7eb2 38bd b0d2 623d a5d0 b73d f517 a63d
00000320: 01fd f4ba 07e4 303d a394 5bbd 7878 a33b
00000330: 41cc 723c 64da 2e3d c58e 46bb dcfc bcbc
00000340: 8c93 853c 8b3e 123b a38f 2d3c 3d45 e23d
00000350: c392 c3bd 18d0 6abd 11d2 a13d fc54 4b3d
00000360: d1be 943d a78b 763d 0bb0 81bd e9d7 333c
00000370: 8671 233d a1a8 2bbe 0c28 933c ee0e a43d
00000380: 48c8 d03d 047e 67bd 7042 573d 160e d3bd
00000390: 2690 b6bd cafd 0cbe b43f 8fbc 0b5a 1bbd
000003a0: 87f8 ffbd a866 ebbd 5bd6 edbd b165 853d
000003b0: 3dd5 96bd 52a5 1cbe b45d efbc bab6 d4bd
000003c0: ddde b33a 4a0c fd3d 40f2 21ba 2852 b63b
000003d0: a21f 223d 25a9 b03d bcf3 b33d a7b3 973d
000003e0: 5eb5 0dbe c983 0dbe a548 a9bd fb72 033c
000003f0: 49c7 38bc 6ec3 bb3c 11c3 5e3d c192 d93c
0.022589058 -0.036264986 0.13058206 -0.0945971 -0.057859752 -0.12137702 0.02908324 -0.021157894
0.081565425 -0.081412666 -0.10376785 -0.13652569 0.102293156 -0.043014273 -0.08846002 0.11983367
-0.0767363 -0.09554216 0.027839255 0.05955138 0.07441365 0.083174124 -0.1257666 -0.13313276
-0.045586478 -0.06377841 0.04548846 -0.064945936 0.06338736 -0.0046441215 -0.067779064 -0.02230859
0.011844502 0.030039106 0.04115042 -0.04907366 0.06778641 0.056524936 0.0013737694 0.06691913
0.09489034 -0.0115026515 -0.119016126 -0.010706356 -0.038704194 0.07747189 -0.0048636715 0.065617815
-0.033130206 -0.014394223 -0.03439991 0.046839833 0.08036123 -0.009151653 -0.057696324 -0.0123668285
-0.038505603 0.04806925 0.029294409 0.13239223 -0.042486332 0.121213354 -0.12162947 0.023795854
0.05789071 -0.028954301 0.0012991164 -0.012218329 0.0061173905 -0.017121036 0.030684795 0.03317308
0.07456318 -0.09502294 0.09617595 0.06482331 0.076722346 0.004326573 -0.090719834 -0.036758456
-0.1434387 -0.049042918 -0.044286545 0.04219748 -0.033903066 -0.060408782 0.15519929 0.09929248
0.07726035 -0.091149926 0.029906174 0.0730058 -0.06239393 -0.06962544 0.07115789 0.09816709
0.026542181 -0.06926369 -0.04922167 -0.03622601 0.08815203 0.11569662 -0.003223426 0.09876701
0.009255871 0.078868315 -0.02553782 0.048454184 -0.09544219 -0.012754013 0.06166385 0.08931594
-0.044047277 -0.10600666 0.060208846 -0.0690265 -0.013159002 0.06779418 -0.03964074 0.07194136
0.08937427 0.10277389 -0.008617282 -0.055015728 0.06541143 0.021280386 0.015711924 0.022302335
-0.017482836 0.038651608 -0.121659525 0.07095879 0.124168485 0.08071183 0.022198347 0.02073673
-0.106263116 -0.010634714 -0.04311195 -0.052631825 0.09970968 0.003675978 -0.009188067 0.0027056355
0.0593712 -0.018769475 0.0067315446 0.12798952 0.042188376 -0.10685066 -0.022726914 -0.10268518
-0.10653888 -0.066272415 -0.109858625 0.022192428 0.082677424 -0.056464475 0.01669346 0.10346021
0.039562758 0.11041164 0.05295521 0.09271415 0.03705907 0.049879186 -0.04424216 -0.0017425048
0.029951923 0.07564422 0.09652515 0.009996124 -0.053734683 -0.12632537 -0.09888779 -0.058483824
0.060555864 0.037366997 0.1051728 -0.06348333 -0.04778473 0.00038312288 0.10394326 -0.123482175
-0.11389193 0.05146838 0.11396131 0.05811322 -0.11050686 -0.04056773 -0.031148404 -0.06998263
0.049107805 0.017355995 0.074879475 0.017396534 -0.0450921 0.05537671 0.08975343 0.08110038
-0.0018691124 0.043186214 -0.053608548 0.004988726 0.014819206 0.042688742 -0.00302975 -0.023069791
0.016305707 0.002231511 0.010593328 0.110483624 -0.09549477 -0.05732736 0.07901395 0.049641594
0.07262958 0.060191777 -0.06332406 0.01097677 0.039903186 -0.16763546 0.017963432 0.0801066
0.101944506 -0.056516662 0.052553594 -0.10305421 -0.08914213 -0.13768688 -0.01748643 -0.03792767
-0.12498575 -0.114941895 -0.11613151 0.06513537 -0.07364891 -0.1529744 -0.029219486 -0.10386415
0.0013723035 0.123558596 -0.00061777607 0.005563993 0.03958095 0.08626012 0.08786723 0.07407313
-0.13838717 -0.13819803 -0.08265809 0.008023019 -0.011277982 0.022920337 0.05438525 0.026559236

fc1.bias f4 [64]
00000000: fc33 9cbd 15dd 0f3e b43f 17bd dd7d e43d
00000010: 9f78 553c 62e7 d0bd 939c 223e 6838 b73d
00000020: 9a45 acbd e7b6 903d 3182 403c 1c7d 8a3d
00000030: d14d 243d f7da a6bd fdac 723d e83d b03c
00000040: 738a 0cbe d895 ac3d ba6d ea3d 7608 86bb
00000050: 6c6b 3c3d 2555 b8bb 526b c8bd 23eb babd
00000060: 448f ccbc c46c 65bd a171 8e3d 943a 5a3b
00000070: fa46 fc3b ec0a f7bc d17f 0ebc 7582 093d
00000080: 5ed9 80bd 97d7 eabd 31b0 ba3c 3200 d3bd
00000090: 6e5d fcbd 4d34 bb3c 2f3b 733c c651 acbc
000000a0: 1e12 223d 720e 3f3e 1ecd 103e cd3b 963c
000000b0: 10d2 ab3d eaae 563c 1c89 43bd 4b6f 003d
000000c0: 034b a73d 7cbf cd3d ad67 a7bd fbff 7b3d
000000d0: 0cbe e1bd 4ac9 893d 7d04 19bd 9ab6 dd3c
000000e0: dd5a 93bd 77a6 13bd 409a 9bbd 598e f4bc
000000f0: 7f50 d1bd bf70 e13d 3fd3 22bb 0a5e 0dbd
-0.07627103 0.1404918 -0.036925986 0.11156819 0.013029247 -0.10200383 0.15880041 0.089463055
-0.08411713 0.07066136 0.01174979 0.06762144 0.040113274 -0.08147233 0.059247006 0.021513894
-0.13724689 0.08427018 0.1144671 -0.004090364 0.046000883 -0.0056253844 -0.09786095 -0.0912688
-0.024970658 -0.05601193 0.06955267 0.0033299075 0.0076988908 -0.030156575 -0.008697466 0.03357168
-0.062914595 -0.11466902 0.022789093 -0.10302772 -0.12322508 0.022852087 0.014845653 -0.021035086
0.03956806 0.18657854 0.14140746 0.018339062 0.083896756 0.013103226 -0.04773818 0.031356137
0.08168604 0.10046288 -0.081740715 0.06152342 -0.11022577 0.06727846 -0.037357796 0.02706461
-0.07195065 -0.036047425 -0.0759778 -0.029853033 -0.102204315 0.11007833 -0.002484515 -0.03451351

bn3.weight f4 [64]
00000000: 0a5f 833f d21c 803f 8e2b 813f 1236 853f
00000010: f065 803f 08ed 823f e005 823f b6fa 853f
00000020: 2bc7 7b3f 9a11 813f 9e35 7d3f 8f75 873f
00000030: 648e 833f 3750 7c3f 9af8 773f 440d 7f3f
00000040: efbc 823f 9042 7f3f dbb0 833f 1b13 843f
00000050: cce1 813f 4177 7d3f 8cb0 873f 7a4a 823f
00000060: e8d6 813f 6484 7d3f fb0f 803f ca1b 833f
00000070: efc2 7a3f 7894 813f 9b7e 7d3f 8ae4 7e3f
00000080: 7b8d 833f 4a84 813f bc18 7e3f aeed 803f
00000090: 4128 7a3f 9dd9 7f3f 43b7 883f d69e 823f
000000a0: 430f 7e3f fe92 833f 20eb 843f f113 833f
000000b0: 79c2 803f 7fcb 803f de57 823f 902e 7d3f
000000c0: 68b6 803f a3fb 7b3f 1c01 843f 7843 813f
000000d0: f738 833f f60f 7b3f e46d 823f b185 843f
000000e0: 5489 7c3f 1551 823f 4fd7 793f 8c37 803f
000000f0: 94c4 7d3f 57f8 873f afdf 7f3f f5fd 7c3f
1.0263379 1.0008795 1.0091417 1.0407126 1.0031109 1.0228586 1.0158043 1.0467136
0.9835078 1.0083497 0.9890994 1.0582751 1.0277829 0.985599 0.9686371 0.99629617
1.0213908 0.9971094 1.0288347 1.031833 1.0147033 0.9901009 1.0600753 1.0178978
1.0143709 0.9903014 1.0004877 1.0242856 0.97953695 1.0123434 0.9902131 0.9956747
1.0277551 1.0118496 0.9925649 1.0072534 0.9771767 0.99941427 1.0680927 1.0204723
0.9924204 1.0279233 1.0384254 1.0240461 1.0059348 1.0062102 1.0183065 0.98899174
1.0055666 0.9843084 1.0312839 1.0098715 1.0251759 0.9807123 1.0189786 1.0353299
0.98647046 1.0180994 0.9759416 1.0016952 0.9912808 1.0622662 0.9995069 0.9882501

bn3.bias f4 [64]
00000000: 7507 53bd ed66 9b3c a1d9 c23b 1ffb d63c
00000010: ad8e 17bd b7a0 bdbc 888e b73b ab77 c6bc
00000020: 09fa 7b3c ce67 93bb 1b3a a7bc c379 b8bd
00000030: 73af 1f3d 0571 183d 0c7f 463b 2961 c8bc
00000040: 1ed1 93bb fba3 90bd af68 d8bc 6a77 5dbd
00000050: 78ea 0fbd c5c3 813d bf9e 1bbe 530b 2bbc
00000060: eeb9 36bd 0faf 37bd 4386 02bd 888f a83b
00000070: c1cd a03d 26e1 bdb9 df59 41bd 463c 6abc
00000080: ace3 49bd 975e 07bd 960a 5d3d c28d ad3c
00000090: 00b8 723c 60b1 f83b 9e1e dd3b fa3f 7e3d
000000a0: 3ee5 c33b 3240 6d3c ec74 2cbb bec1 52bd
000000b0: 8302 983d 2c4d 3bbc 1765 82bd 4ca6 223c
000000c0: 7f58 8c3d 6a2d a93d 9923 013d 3240 4c3d
000000d0: b8ba 2bbd 4b32 843d 355d 9fbc 84fc 8fbd
000000e0: 065b 0b3b 4541 12bd eff9 953d 2da8 24bd
000000f0: dc6b 8abb 4908 bdbb 42b4 ae3d eb17 9d3d
-0.051520783 0.018969977 0.0059463535 0.02624279 -0.0370013 -0.023147924 0.005601708 -0.024226984
0.015379437 -0.0044984585 -0.020413449 -0.09007599 0.03898568 0.03721716 0.0030288128 -0.024460392
-0.0045110127 -0.07062527 -0.026417105 -0.05406896 -0.035135716 0.06336168 -0.15197276 -0.010439712
-0.04461091 -0.044844683 -0.031866323 0.0051440634 0.078517444 -0.00036216638 -0.04720485 -0.014296597
-0.04928939 -0.033049192 0.053965174 0.02118576 0.014814377 0.007589504 0.0067480346 0.06207273
0.0059782555 0.014480637 -0.0026314808 -0.0514543 0.07422354 -0.011431973 -0.063669376 0.009927344
0.06852817 0.08260615 0.03152809 0.04986591 -0.041926116 0.06454905 -0.019453624 -0.070305854
0.002126397 -0.035706777 0.07323062 -0.040199447 -0.0042242836 -0.00576881 0.08530475 0.076705776

bn3.running_mean f4 [64]
00000000: f9fb ba3f 9b5c 1140 4407 a83f 93da d63f
00000010: 7f1e dd3f 03a2 e43f f2d0 e23f bf31 d43f
00000020: a3ff d63f b05a cd3f be7a bf3f ca61 c43f
00000030: 8b43 9f3f 2f40 0140 3a6e f13f 8de2 f13f
00000040: 0412 0540 da6d da3f d2d7 1f40 6b4b bc3f
00000050: fcfc cf3f e62f bd3f 4fde cf3f 6eef af3f
00000060: 0bb2 da3f e7f0 0340 711a 1340 17f3 ac3f
00000070: cc02 de3f 63e6 f73f 63e8 e33f fcb1 dc3f
00000080: 8940 1640 414a ad3f 3892 ce3f d826 c03f
00000090: 221a f23f bba9 0e40 3483 ad3f 0420 df3f
000000a0: 36b1 0c40 d167 fe3f e986 1540 616b d03f
000000b0: bad9 9c3f cc39 b53f bd5d a63f 3f73 2240
000000c0: 98fb d63f 633c e63f 2fee b73f 322e df3f
000000d0: 1c70 a83f 326f c23f 35e1 cd3f c84e c43f
000000e0: a1f7 e93f 6413 a43f 453c c03f ec8c e83f
000000f0: 26ae c63f 5900 d53f d30e 0340 8331 e43f
1.4608146 2.2712772 1.3127217 1.6785454 1.7274932 1.7861942 1.7720015 1.6577681
1.6796764 1.6043301 1.4959333 1.5342343 1.2442487 2.0195425 1.8861763 1.8897263
2.0792246 1.7064774 2.4975476 1.4710516 1.624908 1.4780242 1.6239718 1.3744943
1.7085584 2.0615785 2.2984889 1.3511685 1.7344604 1.9367183 1.7805294 1.7241817
2.347689 1.3538285 1.6138372 1.5011854 1.8914225 2.2291095 1.3555665 1.7431645
2.198316 1.9875432 2.3363593 1.628277 1.2253945 1.4158263 1.2997357 2.538284
1.679553 1.7987179 1.4369563 1.7435973 1.3159213 1.5190184 1.6084353 1.5336542
1.8278695 1.2818418 1.5018393 1.8168006 1.5521896 1.6640731 2.0477798 1.782761

bn3.running_var f4 [64]
00000000: e099 1f41 22cb 1342 2858 8b41 4283 0241
00000010: 28c7 8641 5b92 4241 5441 0e41 3086 cd40
00000020: 96d0 bc40 0a30 4441 5da1 2741 21cc d540
00000030: 9eff dd40 34ea ba41 a283 9b41 c4b3 cb41
00000040: 7c40 3d41 aec0 1141 1288 2642 c786 6541
00000050: efdf 5541 485a fc40 ab2f cc40 a25e b640
00000060: 7b9f 0141 740b e041 c150 1442 6754 d540
00000070: 3e2b 6841 85f5 ae41 a657 0041 a156 2f41
00000080: 4ec1 3a41 54dc 1041 cbed f140 c027 1741
00000090: d902 6041 653a 1042 c8d0 b540 600a 8a41
000000a0: 8346 e041 fc66 7641 769d 8e41 700e 2541
000000b0: 947e f540 eadf b940 c872 8e41 f923 0442
000000c0: 9bab 5d41 d8e1 2d41 1d37 c640 3b33 6d41
000000d0: 56cf 2341 7a78 ab40 e9e7 c540 ecee 6141
000000e0: 9c56 5541 262c 1441 1185 5541 a943 3141
000000f0: 61ac 5541 cc93 ec40 16f7 eb41 7b3b b641
9.975067 36.94837 17.418045 8.157045 16.847244 12.160731 8.890949 6.4226303
5.900462 12.261728 10.476895 6.681168 6.9374533 23.364357 19.439274 25.462776
11.828243 9.109541 41.63288 14.345405 13.367171 7.8860207 6.380819 5.699052
8.101436 28.005592 37.07886 6.666553 14.510557 21.869883 8.021399 10.95865
11.672194 9.053791 7.5602775 9.447205 14.000695 36.057026 5.681736 17.255066
28.03443 15.400143 17.826885 10.316025 7.6717014 5.8085833 17.806046 33.03513
13.854396 10.867638 6.1942277 14.825007 10.238119 5.3584566 6.1845593 14.120831
13.333645 9.260778 13.344987 11.079019 13.354585 7.3930416 29.495647 22.779043

fc2.weight f4 [8, 64]
00000000: 9a81 e93b 8213 51bd 67fd c0bd ba2b cbbd
00000010: db30 5fbd f7c5 e2bd e134 1abd 7644 b4bd
00000020: d543 50bd e3e3 3abd d141 e93d 6d74 cebc
00000030: ba18 9c3d cd4e 8ebd 349c a7bd e9a6 bcbd
00000040: 8d74 c9bd c9ad e9bd 0d7d 99bb feef b6bd
00000050: 8f6a 003d 6986 043e c28a 933c 9095 1bbe
00000060: 6af5 413c 8dfb ab3d 84d4 ab3d f818 113e
00000070: 3131 2e3d 3ec3 a7bd 285a 0a3d 90df b2bd
00000080: a79a b2bd 9575 b73d bd83 77bd 19a1 c43d
00000090: d20f 9b3d 5474 e6bd 895b 84bd 0e64 9c3c
000000a0: 09c4 063d 583c 0e3d 88bd 583d 357b 5e3d
000000b0: c3ab 98bd e585 d63d 7f18 f9bb 1930 543d
000000c0: 6a04 4dbd 23cb e03c 9cea 03be ac61 0f3b
000000d0: 953c 813d b86a d93c 375f 073e 7499 3e3d
000000e0: af0e 88bd a7f4 a3bd 9455 90bd 9557 ffbd
000000f0: c064 d2bd b84a 0e3e a6b2 0dbd bc19 a3bc
00000100: 4326 e63d c829 d8bd 0b46 58bd 3293 77bd
00000110: f27c c23c 30e1 9dbd 6511 6c3d c65a fe3d
00000120: 8813 bdbc 0205 cbbd 052d e03d d553 783d
00000130: 18b3 e9bd 819c 593d 2146 53bd b875 25bd
00000140: 7d90 b5bd c30d 01bd 85b6 0a3e 2aee 463a
00000150: b5ad a43d b909 cfbd 7374 14bd 4519 d9bd
00000160: 5bcc abbd d125 22bd 0e42 50bc c0ea 4b3d
00000170: d18a 80bd 63f9 9d3d 97d0 52bd 76e9 7f3d
00000180: 563b 0abd ec85 0b3d 6d48 db3d e23c c9bd
00000190: b979 b5bd 7072 c93d 7de3 d7bd ea51 a6bd
000001a0: 5c9f 64bd e5cd 2b3c d0ba f5bd 9e8e d03d
000001b0: 8cb3 aabd 5885 83bc d77e a23d b2c6 35bd
000001c0: f6d5 74bd c66c 9cbd 2ee3 d7bc 0e2f 5abc
000001d0: afa8 12be d861 e73d 4ec7 e5bb acc0 5fbd
000001e0: 4e6f 913d 8e6d eb3d a638 5fbd 2fae bb3d
000001f0: 439a 95bd 1771 debc bb75 1b3d 77f4 24bd
00000200: 7fe1 aabd 72d5 01bd d637 04be 4cbe 593d
00000210: d5fd 78bd 05e5 5d3d df8b adbc 1e24 633c
00000220: 37f8 01bc c3fd cabb 3863 48bc 5afb 0bbd
00000230: 69b3 893d bd0d 8fbd 9cdc 07bc 9650 c5bb
00000240: 7c1b 72bd cc4e 79bd d17a e73c 6d02 66bd
00000250: 3d41 02be 70ab b43d e5cc 71bd 93d7 913d
00000260: 0830 2bbd ae83 ebbd c8e9 d4bd 3fb7 163e
00000270: 23f2 de3d 49c9 9ebd b1bc 52bd 6778 a2bc
00000280: 0f08 6cbd 4dcb 41bc 0f89 fd3c 22da 95bd
00000290: b5cc fd3d 3d78 403d 5ae9 95bd 8f7d f03d
000002a0: 81e5 ccbc 0e96 06be e73f dcbc 5539 193d
000002b0: 4cb7 79bc 57e2 e83c 4994 92bd 2fbb 51ba
000002c0: 907e e33d d519 ce3c ef16 ca3d dfa0 62bc
000002d0: bd7c a7bd df29 aa3c a85a 12be 6d31 a0bd
000002e0: 59ee cb3d bbaa 30bc d6bd 013e 3945 0fbd
000002f0: 7f6c 7a3b a039 123e d23f 0b3e 1db0 5abd
00000300: a813 c4bc e509 f23c 8e90 c33a 263c 103b
00000310: 0eb1 713d fd1c debd f666 9ebd 412a b0bd
00000320: 1ad4 7fbd 09c2 8b3d d21b 2e3d 2e61 1fbd
00000330: 48d3 9d3c 2cec b2bc 8f8d e1bd 6695 cc3a
00000340: e4fe 323d 2b2a 1c3d 959c e0bb 6c3e 6dbd
00000350: 3bc2 083d 20d1 d03d 898f c1bd 1171 be3d
00000360: c715 e6bc dce0 4f3d 336d 80bd 929e 813d
00000370: 3dc5 bb3d 55b4 723d 3628 8ebd 6b80 9f3d
00000380: 6491 36be 7304 f2bd 8034 053d 94df f03d
00000390: 539d d73d c507 b8bc ba6e 2a3d f04f ba3d
000003a0: 1821 363d 4ae7 d43d 310d 9abd a4a1 7a3d
000003b0: b6b7 f73d 4c02 a3bb e74f a6bc ae82 d0bd
000003c0: 9894 033e 42b4 7b3d 3878 263c 6e3a 8f3d
000003d0: 5dfd 7ebd db12 c5bc 5748 abbd 2778 06be
000003e0: 4011 9cbd d4e4 2c3b c498 d63c 83b6 443d
000003f0: 84c2 c5bd 1738 cabd f171 663c cf49 5a3d
0.0071260454 -0.051043995 -0.09423333 -0.099204496 -0.05448995 -0.11072915 -0.037648086 -0.088021204
-0.05084594 -0.045627486 0.113895066 -0.025202 0.07621904 -0.06948624 -0.0818409 -0.09211523
-0.098366834 -0.114101 -0.0046840967 -0.089324936 0.031351622 0.12941898 0.0180105 -0.15193772
0.011838296 0.08397589 0.083901435 0.14169681 0.04252738 -0.08191536 0.033777386 -0.087340474
-0.08720904 0.08957974 -0.06042837 0.096010394 0.07571377 -0.112526566 -0.064627714 0.019090679
0.032901797 0.034725517 0.052915126 0.054316718 -0.07454636 0.10474757 -0.007601797 0.051803682
-0.050053038 0.027440613 -0.12882465 0.0021878285 0.06310383 0.026540145 0.13219915 0.046533063
-0.06643426 -0.08005648 -0.07047573 -0.12467877 -0.10273123 0.1389569 -0.0345942 -0.019909732
0.112377666 -0.10554844 -0.052801173 -0.06044311 0.02374122 -0.07708967 0.057633776 0.124196574
-0.023080602 -0.099130645 0.10946087 0.060626823 -0.114111125 0.05312777 -0.051580552 -0.04039547
-0.088654496 -0.031507265 0.13546188 0.000758859 0.080409445 -0.10109276 -0.036243867 -0.10600523
-0.08388587 -0.039586846 -0.012711061 0.049784422 -0.06276477 0.07713582 -0.051468458 0.062478505
-0.033747993 0.034063265 0.107071735 -0.098260656 -0.088611074 0.0983628 -0.10541437 -0.081210926
-0.05581604 0.010486101 -0.11998522 0.10183452 -0.08335027 -0.016054794 0.07934349 -0.044378944
-0.05977436 -0.076379344 -0.026353445 -0.013316883 -0.1432216 0.11297959 -0.0070122844 -0.054627106
0.07101308 0.11495505 -0.054497384 0.09164082 -0.07304814 -0.027153535 0.037954073 -0.040272202
-0.08343791 -0.031697698 -0.12911925 0.053159997 -0.060788948 0.05417349 -0.02118486 0.0138635915
-0.007932714 -0.0061948015 -0.012230687 -0.034175254 0.06723673 -0.06985042 -0.0082923435 -0.0060215695
-0.059108242 -0.060866162 0.028256806 -0.056154657 -0.12720199 0.088217616 -0.059033293 0.07121196
-0.041793853 -0.11499725 -0.10396153 0.1471834 0.10886028 -0.07753236 -0.05144948 -0.019832803
-0.057624873 -0.011828256 0.030949144 -0.07316996 0.123925604 0.04698967 -0.07319899 0.117426984
-0.02501178 -0.13143179 -0.02688594 0.03740819 -0.015241455 0.02842824 -0.071571894 -0.000800061
0.11108124 0.025158802 0.098676555 -0.0138323 -0.08178089 0.020771919 -0.14292395 -0.07821927
0.099575706 -0.010782893 0.12670073 -0.034978125 0.0038211641 0.14279795 0.13598564 -0.05339061
-0.023935154 0.029545734 0.00149204 0.0022008508 0.059006743 -0.10845373 -0.07734482 -0.08601809
-0.062458135 0.06824119 0.042507 -0.038911037 0.019265786 -0.021841131 -0.11013328 0.0015608489
0.043700114 0.038126152 -0.0068546035 -0.05792086 0.033388358 0.101961374 -0.09451205 0.092989095
-0.028086556 0.050751552 -0.06270828 0.06329073 0.091684796 0.05925401 -0.069412634 0.07788166
-0.178289 -0.11817255 0.03252077 0.11761394 0.10528054 -0.022464642 0.041609503 0.09097278
0.044465154 0.103956774 -0.07522047 0.06118931 0.12095587 -0.004974639 -0.020301772 -0.10181175
0.12849653 0.061451204 0.010160498 0.069935665 -0.062253345 -0.024056843 -0.08363407 -0.13131772
-0.07620478 0.002638151 0.026195891 0.04802562 -0.096562415 -0.098739795 0.014065252 0.053293046

fc2.bias f4 [8]
00000000: b11c e83d be0a dd3d c0b6 8c3d 5410 393e
00000010: 67b3 d5bc b5e1 b23d d46d 84bb 657a 9cbd
0.113335975 0.107930645 0.06870794 0.18072635 -0.026086522 0.087344564 -0.004041413 -0.076405324

fc3.weight f4 [5, 8]
00000000: e20e 8a3e 05d8 82be 4009 863e aff7 11be
00000010: 3a7b 5c3e 8c69 6bbd ddca 07be ecca 08bc
00000020: 6b6e c6bd 6c0f f73d 585d 693e 9f41 abbe
00000030: 7292 3d3e b8c2 a23e a4fa a8bd 8f17 84be
00000040: b578 a33e 18eb 83be a32c 133e ea1c 8a3e
00000050: 93a8 83be 1658 9cbe b03f a33e 9144 b1bd
00000060: 57a3 c43d 80c5 a3be ad55 b2bd ec0c 913e
00000070: e028 993e 0d4f 86be 509a 233e f2d2 a6be
00000080: 6bb5 2abe 1c46 ac3e 35c5 c1be 7e23 103e
00000090: 9633 2e3e 82ee dd3d 6d29 01bd fdd7 773e
0.2696448 -0.25555435 0.26178932 -0.1425464 0.21531382 -0.057473704 -0.1326098 -0.008349162
-0.09689029 0.12063488 0.22789514 -0.33448502 0.18512896 0.31789184 -0.08250931 -0.25799224
0.3192803 -0.257653 0.14372496 0.26975185 -0.2571455 -0.30535954 0.31884527 -0.08655656
0.09601467 -0.31986618 -0.087077476 0.2833017 0.29913998 -0.26232186 0.15976834 -0.32582814
-0.16670768 0.3364724 -0.3784577 0.14076039 0.17011866 0.108365074 -0.031533647 0.24203487

fc3.bias f4 [5]
00000000: 02c1 d6bd 1a11 4c3d eac3 25bd d589 d13c
00000010: 66c7 96bd
-0.10486032 0.049820997 -0.04047004 0.025578419 -0.07362251
